03-isaac-lab-cartpole/logs/cartpole_ppo/2026-02-18_10-58-49/model_50.pt (torch, 46081 bytes, 30 tensors)

actor.0.weight f4 [32, 4]
0	0x3f92135c	1.1412158
1	0x3e979c27	0.29611322
2	0x3d6abcd9	0.057309005
3	0x3e22a3e5	0.15882833
4	0xbe001836	-0.12509236
5	0xbd90bfb2	-0.07067813
6	0x3e1d1c18	0.15342748
7	0x3ebd1ac6	0.3693449
8	0x3f5c2cf9	0.8600612
9	0xbe7e0626	-0.24807033
10	0x3e7034d8	0.23457658
11	0xbb770b3c	-0.0037695905
12	0x3f8fe5ee	1.1242044
13	0x3e1d4629	0.15358795
14	0x3e7cd08a	0.24688926
15	0xbe42b1e6	-0.19013175
16	0x3f9eb9ae	1.2400415
17	0x3e429e23	0.19005637
18	0xbca89a91	-0.020581516
19	0x3c61c20e	0.013779176
20	0xbf64493d	-0.8917425
21	0xbdd3ccda	-0.10341807
22	0xbe9daae8	-0.30794454
23	0x3ec40498	0.38284755
24	0xbf3541f1	-0.70803744
25	0xbe13aacc	-0.14420623
26	0xbdb2061c	-0.086925715
27	0xbe485dfc	-0.19567102
28	0xbe22c405	-0.15895088
29	0xbee0e95e	-0.43928045
30	0x3e8e89dd	0.27839556
31	0xbeba260b	-0.3635715
32	0x3faa7bb0	1.3318996
33	0x3e6061fe	0.21912381
34	0x3e2393ff	0.15974425
35	0xbd100cf6	-0.03516861
36	0x3fc6e752	1.5539343
37	0x3f143694	0.5789578
38	0x3edfa796	0.43682545
39	0xbee5a899	-0.44855192
40	0x3eb79ea9	0.35863236
41	0xbde34c3f	-0.11098527
42	0x3ddb1f2b	0.10699304
43	0x3ee278b5	0.44232717
44	0x3e36f4bf	0.178668
45	0xbe21e5c6	-0.15810308
46	0x3e8d66c4	0.27617466
47	0x3e8b2175	0.27173963
48	0x3e077a78	0.13230312
49	0xbe4a3f5f	-0.19750737
50	0xbcf15b64	-0.029462524
51	0x3cf45c76	0.029829245
52	0xbf12ef6a	-0.57396567
53	0x3ebd38b5	0.36957327
54	0x3e1b9dd5	0.15196927
55	0x3d97548e	0.073891744
56	0x3ed65d33	0.4186798
57	0x3e0e5924	0.13901192
58	0x3e4c2d76	0.19939217
59	0xbe9dfed7	-0.3085849
60	0xbe1c1a86	-0.15244493
61	0xbeaf5c9d	-0.34250346
62	0x3e1db541	0.15401174
63	0xbd9fcd2b	-0.078028046
64	0x3dc3f55d	0.09568284
65	0x3d9c88f4	0.07643309
66	0x3d87106b	0.06594928
67	0xbe9266d4	-0.28594077
68	0xbfaee9ba	-1.3665078
69	0xbeb519d0	-0.35371256
70	0x3ee7b10f	0.45252272
71	0x3ef03219	0.4691322
72	0x3ee750ac	0.45178735
73	0xbeb1db6b	-0.34737715
74	0xbca10f4c	-0.019660614
75	0xbead9d32	-0.33908993
76	0xbf40ce45	-0.7531474
77	0x3de8af50	0.11361563
78	0x3e10b738	0.14132392
79	0x3eaf61ca	0.34254295
80	0xbf93cdd7	-1.1547192
81	0xbed30039	-0.41211107
82	0x3e550d2c	0.20805806
83	0x3e94300e	0.28942913
84	0x3f13fb15	0.57804996
85	0x3d1d023d	0.038332213
86	0x3e4b70d8	0.19867265
87	0xbee45608	-0.44596887
88	0xbeb7c429	-0.35891846
89	0x3e02067d	0.12697788
90	0x3cb28919	0.021793889
91	0xbe20b536	-0.15694126
92	0x3fe61621	1.7975503
93	0x3ef07b8d	0.46969262
94	0xbc3cba1b	-0.01151898
95	0xbf00bafe	-0.5028533
96	0x3f4cd2c0	0.8000908
97	0xbdca7f41	-0.09887553
98	0xbda86f54	-0.08224359
99	0xbed9c434	-0.42532504
100	0xbede8db3	-0.43467483
101	0x3e265bdb	0.16245978
102	0xbdeb9613	-0.11503234
103	0xbed802f9	-0.42189768
104	0xbd51d0c6	-0.051224492
105	0xbeaa0b26	-0.3321163
106	0xbe1c18fb	-0.15243904
107	0xbdb68fd7	-0.08914154
108	0xbfcf947c	-1.6217189
109	0xbeb58c1c	-0.35458457
110	0x3f167233	0.58768004
111	0x3f1699fc	0.5882871
112	0x3e0263b0	0.1273334
113	0xbedd75bc	-0.43253887
114	0xbe884770	-0.26617002
115	0x3e093d3f	0.1340227
116	0xbf98a218	-1.1924467
117	0xbf21739c	-0.6306703
118	0xbf2133e1	-0.62969786
119	0x3ec550ff	0.38538358
120	0xbe9a7aa6	-0.30171698
121	0xbe2a4377	-0.16627298
122	0xbd348530	-0.04407233
123	0xbe9eae96	-0.30992573
124	0xbe8cbc65	-0.27487484
125	0xbdf1ee8a	-0.11813076
126	0xba0dac26	-0.0005404375
127	0xbe3a86c9	-0.18215479

actor.0.bias f4 [32]
0	0x3e21f7fb	0.15817253
1	0xbdb8a185	-0.090151824
2	0x3edbe995	0.42951646
3	0x3d28d115	0.04121502
4	0xbe92135c	-0.28530395
5	0x3e901d36	0.28147286
6	0xbe2d079d	-0.16897435
7	0xbe8a7d94	-0.27048934
8	0xbeda3279	-0.42616633
9	0xbea0aaa6	-0.31380194
10	0xbd471542	-0.048604257
11	0xbe86d922	-0.26337534
12	0x3dd1483c	0.10218856
13	0xbe8c0398	-0.27346492
14	0x3d87996d	0.066210605
15	0xbe9ec7a2	-0.31011683
16	0xbd8914f2	-0.06693448
17	0x3e0866a8	0.1332041
18	0x3e2437d4	0.16036922
19	0x3eaba587	0.33524725
20	0x3da8f42a	0.082496956
21	0xbeb524d6	-0.35379666
22	0x3d996945	0.07490782
23	0x3d278fac	0.0409085
24	0xbd64f1bf	-0.05589461
25	0xbeb48d54	-0.35264075
26	0x3ecfe113	0.40601406
27	0xbe1af630	-0.15132976
28	0x3dc01da8	0.093806565
29	0xbe9406eb	-0.28911528
30	0x3e3d859b	0.18507998
31	0xbe00d1e9	-0.12580074

actor.2.weight f4 [32, 32]
0	0x3e0e557f	0.13899802
1	0x3ac27413	0.0014835618
2	0xbc00b82d	-0.007856411
3	0xbe986c99	-0.29770353
4	0x3d1bd254	0.03804238
5	0x3ced05f0	0.028933495
6	0xbd8f2ecc	-0.06991348
7	0x3e1a79b7	0.15085493
8	0xbd31d44a	-0.043415345
9	0xbe3b92a6	-0.1831766
10	0xbe6993e3	-0.2281032
11	0xbda5f22b	-0.081028305
12	0x3dabd44e	0.08390103
13	0xbd56b294	-0.0524164
14	0xbd32da7d	-0.043665398
15	0xbdacc44d	-0.08435879
16	0xbdf0e11b	-0.117616855
17	0x3e24f073	0.16107349
18	0x3e108d9c	0.1411652
19	0xbe2a753d	-0.16646285
20	0x3d95db73	0.07317247
21	0x3df20432	0.118172064
22	0x3e28553b	0.16438763
23	0xbdd96170	-0.10614288
24	0x3e187a0f	0.14890312
25	0x3e8dbcda	0.27683145
26	0x3dc79d61	0.097468145
27	0x3d62d205	0.05537607
28	0xbce7fd42	-0.028319005
29	0x3d894358	0.06702298
30	0xbc03d469	-0.008046248
31	0xbd24f285	-0.040270347
32	0x3d468807	0.04846957
33	0x3dd4c694	0.10389438
34	0x3d46e008	0.048553497
35	0xbb616b2f	-0.0034396162
36	0xbd06d76b	-0.032920282
37	0x3ba355be	0.0049845865
38	0x3d81c4c5	0.06336359
39	0x3d9e27ba	0.07722421
40	0xbe28e73c	-0.16494459
41	0xbd351017	-0.044204798
42	0x3e5682a8	0.20948279
43	0x3e48f988	0.19626439
44	0xbc2fb447	-0.010724134
45	0xbe2a147e	-0.1660938
46	0xbe1076ee	-0.14107868
47	0xbdd15061	-0.10220409
48	0xbd1517d8	-0.036399692
49	0x3d9c8333	0.07642212
50	0x3dcec7bf	0.10096692
51	0x3d11cb78	0.035594434
52	0xbe18dbcd	-0.14927597
53	0xbdabbe78	-0.083859384
54	0xbe159dc2	-0.14610961
55	0x3e39fcc4	0.18162829
56	0xbcb64921	-0.022251667
57	0xbdbeb1be	-0.093112454
58	0x3d82238c	0.06354436
59	0x3bcd17f4	0.006258959
60	0xbdd531f5	-0.10409919
61	0x3e16e670	0.14736342
62	0xbdaa5d7b	-0.08318611
63	0xbcccec98	-0.02501516
64	0xbe4d62e1	-0.2005725
65	0x3de5829b	0.11206552
66	0x3d8286cc	0.06373367
67	0xbd211314	-0.039324835
68	0xbe3e11ff	-0.18561552
69	0xbdb2a648	-0.08723122
70	0xbdcdaab5	-0.100423254
71	0x3df82714	0.121168286
72	0x3c5fb7f8	0.013654701
73	0x3e2747a1	0.16335918
74	0xbcb85129	-0.022499638
75	0xbd95461d	-0.07288764
76	0xbca5d213	-0.020241773
77	0xbdce7be1	-0.10082222
78	0xbe0a8aa6	-0.13529453
79	0xbe415f6f	-0.18884061
80	0x3d77b8f0	0.060479105
81	0x3c95442d	0.018220985
82	0xbd58368e	-0.052786402
83	0xbd7b9962	-0.061425574
84	0x3b8c8380	0.004288137
85	0xbe2d06fb	-0.16897194
86	0x3d7e303a	0.06205771
87	0x3cef1cee	0.0291886
88	0xbd77a5d6	-0.060460888
89	0x3e8cea38	0.27522445
90	0xbd016806	-0.031593345
91	0xbd69c699	-0.057074163
92	0xbd186476	-0.037205182
93	0xbd8d65bf	-0.06904172
94	0xbce2cc1d	-0.02768522
95	0xbe0914ed	-0.13386889
96	0x3df68805	0.120376624
97	0xbe4cb9c9	-0.19992746
98	0x3e0d58fc	0.13803476
99	0x3e88a333	0.2668701
100	0x3e08b4ac	0.13350171
101	0xbed8e6d2	-0.42363602
102	0x3d967191	0.0734588
103	0xbde74f3c	-0.1129441
104	0x3e166f50	0.146909
105	0x3e4c8545	0.19972713
106	0xbe1eec75	-0.15519889
107	0xbda849b9	-0.082171865
108	0xbd41a754	-0.047278717
109	0xbdf75267	-0.12076264
110	0x3e0097c5	0.12557895
111	0xbe68861c	-0.22707409
112	0x3e2a697c	0.16641802
113	0xbea57400	-0.32315063
114	0x3e3be556	0.18349203
115	0xbdb93c1d	-0.09044669
116	0xbe8b8977	-0.27253315
117	0x3d5ad2d4	0.053423718
118	0x3da6e6c0	0.08149481
119	0xbe247a84	-0.16062361
120	0xbd3d1ac2	-0.046168096
121	0xbe927d5e	-0.28611273
122	0xbd67b9e2	-0.056573756
123	0xbf138996	-0.57631814
124	0xbe007a14	-0.12546569
125	0xbe703281	-0.23456766
126	0xbe31c35c	-0.1735968
127	0x3de9f30b	0.1142331
128	0x3e1464e3	0.1449161
129	0x3c819a3a	0.015820611
130	0xbb83facf	-0.0040277014
131	0x3d472822	0.048622258
132	0xbdca24e8	-0.098703206
133	0xbe3c430e	-0.18384954
134	0x3d665ba9	0.056239758
135	0xbdc5598b	-0.096362196
136	0xbbb9769b	-0.005659891
137	0x3dc0d323	0.09415271
138	0x3dcf36bc	0.10117862
139	0x3dcab17e	0.09897135
140	0x39eae7dc	0.00044804707
141	0xbcb02059	-0.0214998
142	0xbe09f7eb	-0.1347348
143	0xbd143846	-0.03618648
144	0xbe1f5a05	-0.15561683
145	0x3e048dd7	0.12944733
146	0xbdc74313	-0.0972959
147	0x3d3dae21	0.04630864
148	0xbdab60fd	-0.083681084
149	0x3c79f2e1	0.015255661
150	0x3c82cfa9	0.01596816
151	0x3e1ece70	0.15508437
152	0xbe576784	-0.21035582
153	0xbd17c175	-0.03704973
154	0x3df47d5e	0.119379744
155	0x3da68b3a	0.08132024
156	0x3dc465d2	0.09589733
157	0x3e30104d	0.17193718
158	0xbd86d793	-0.06584086
159	0x3cc97202	0.024590496
160	0xbe6ea429	-0.2330481
161	0xbb8e2529	-0.004337926
162	0x3d53683f	0.05161309
163	0xbeca5094	-0.395146
164	0xbeb70781	-0.35747913
165	0xbd24beb9	-0.04022095
166	0xbe015f97	-0.12634121
167	0xbe6202b1	-0.22071339
168	0xbebe333d	-0.37148467
169	0xbf019b2a	-0.50627387
170	0x3baaca43	0.0052120998
171	0xbe30d925	-0.17270334
172	0xbe173ba1	-0.1476884
173	0xbe1e7330	-0.15473628
174	0x3c694aa1	0.014238984
175	0xbe6e6d1a	-0.23283806
176	0xbdbf5536	-0.093424246
177	0x3e0e8a45	0.13919933
178	0xbdce59c9	-0.10075719
179	0x3cb21ec7	0.021743191
180	0x3c011b19	0.007879996
181	0xbe4b7153	-0.19867449
182	0xbc1b3080	-0.0094720125
183	0xbf345209	-0.70437676
184	0xbe3adf79	-0.1824931
185	0xbd5d1592	-0.05397565
186	0x3e5cc668	0.21560061
187	0xbda11a0a	-0.07866295
188	0xbdb3199b	-0.08745118
189	0x3cdd86f1	0.027041884
190	0x3d62dd14	0.055386618
191	0x3d93bf17	0.07214182
192	0x3ddfc5fd	0.10926435
193	0x3de2150f	0.11039173
194	0xbe497c53	-0.19676332
195	0xbdba4071	-0.090943225
196	0x3d7142ef	0.058901723
197	0x3d3d8d1b	0.046277147
198	0xbddfacec	-0.10921654
199	0x3e224179	0.15845288
200	0xbdd4fa34	-0.10399285
201	0xbe1d7f9c	-0.1538071
202	0xbdd04888	-0.10170084
203	0x3daa06b4	0.0830206
204	0x3ce0dcb5	0.027448991
205	0x3d6e1857	0.05812868
206	0x3d818bc0	0.06325483
207	0xbe136de7	-0.14397393
208	0xbe28e1f5	-0.16492446
209	0x3e2bb9f0	0.16770148
210	0x3ddf03ab	0.108893715
211	0x3e2640b6	0.16235623
212	0xbd99524e	-0.074864015
213	0xbc489075	-0.0122414725
214	0xbdce2c32	-0.10067023
215	0xbe4b9bf2	-0.19883707
216	0x3bc5d3cd	0.0060372115
217	0x3e30f692	0.17281559
218	0x3dec927e	0.11551379
219	0xbbbf7b37	-0.005843546
220	0x3dc1ede1	0.094692
221	0xbdf1f7fd	-0.11814878
222	0x3d2020ef	0.039093908
223	0x3e0be433	0.1366127
224	0xbba0c112	-0.0049058283
225	0x3e3f0179	0.18652906
226	0xbd8c7535	-0.06858293
227	0x3d688304	0.05676557
228	0x3e2488d1	0.16067816
229	0xbde2eea2	-0.11080672
230	0xbd324ddf	-0.043531295
231	0xbd165d3e	-0.036710016
232	0x3e679025	0.2261358
233	0x3e258fc2	0.1616812
234	0x3e4b5dc4	0.19859987
235	0x3ddd099c	0.107928485
236	0xbdf64ffe	-0.12026976
237	0x3c001625	0.00781778
238	0xbc4b1f02	-0.01239753
239	0x3bb4ed90	0.0055214837
240	0xbd06b262	-0.032884963
241	0x3d9cf7db	0.07664462
242	0x3cbda3f2	0.023149464
243	0xbc805ee7	-0.015670253
244	0xbd5b25dd	-0.053502906
245	0xbdf6d469	-0.12052233
246	0xbeae3350	-0.34023523
247	0xbca66a9a	-0.020314503
248	0xbde1771e	-0.11009048
249	0xbdb7dafa	-0.08977313
250	0xbda33145	-0.07968382
251	0xbd275af2	-0.040858217
252	0x3e370265	0.17872007
253	0x3dcbe444	0.099556476
254	0x3dd603a8	0.10449916
255	0xbdbdf7dc	-0.09275791

actor.2.bias f4 [32]
0	0x3d917254	0.071018845
1	0xbe0ee0ff	-0.13953017
2	0x3d23dd95	0.04000624
3	0xbd0f11b4	-0.034928992
4	0xbdc02eab	-0.09383901
5	0x3e494e14	0.1965869
6	0xbda5ed62	-0.08101918
7	0x3d0421f6	0.03225895
8	0x3e2fd032	0.17169264
9	0xbde98075	-0.11401454
10	0xbe8fe8dc	-0.28107345
11	0xbe490dc4	-0.19634157
12	0xbc980cab	-0.018560728
13	0xbda212cb	-0.07913741
14	0x3cf35476	0.02970336
15	0xbd722d27	-0.059125092
16	0xbe0a12fe	-0.13483807
17	0x3ced3ba5	0.028959105
18	0xbd1fa456	-0.038975082
19	0x3e0d8fa5	0.13824327
20	0xbcceafaa	-0.025230248
21	0xbd7dd548	-0.06197098
22	0x3d7e1584	0.062032238
23	0x3d3c14ca	0.045918263
24	0x3e434ddb	0.19072668
25	0x3dee9ee6	0.11651401
26	0x3d8f3bf9	0.06993861
27	0xbe31492f	-0.17313074
28	0x3e3852b0	0.18000293
29	0x3e536cdb	0.20646994
30	0xbe154ca8	-0.14580023
31	0x3df50322	0.11963488

actor.4.weight f4 [1, 32]
0	0x3dd85b3e	0.10564278
1	0x3b110fac	0.0022134585
2	0xbba83af8	-0.0051339827
3	0xbe020b31	-0.12699582
4	0xbce4ec0f	-0.027944593
5	0x3e90c257	0.2827327
6	0xbaf8b9f5	-0.0018976318
7	0xbcffe054	-0.031234898
8	0x3d20583a	0.03914664
9	0xbe0252b8	-0.12726867
10	0x3dcb0995	0.09913937
11	0x3d3b6192	0.045747347
12	0x3d3f54b7	0.04671165
13	0xbdf044c7	-0.11731868
14	0x3dbb9b52	0.091604844
15	0xbc49d4fd	-0.012318847
16	0xbc6ea40a	-0.014565477
17	0x3e0f7204	0.14008337
18	0x3cab7766	0.020930957
19	0xbe5bc960	-0.21463537
20	0x3acb00ed	0.0015487947
21	0x3d39d8aa	0.045372643
22	0xbb8fc3f1	-0.0043873717
23	0x3db132a3	0.08652236
24	0xbe877793	-0.26458415
25	0xbc25df7d	-0.010124085
26	0x3baa8b8c	0.0052046236
27	0xbc0881b1	-0.008331702
28	0x3e1fb1aa	0.15595117
29	0x3d4bc45f	0.04974782
30	0xbd9f6479	-0.077828355
31	0xbbaf7371	-0.005354338

critic.0.weight f4 [32, 4]
0	0xbdb8885b	-0.09010383
1	0x3dd9feca	0.106443
2	0xbf65bd7f	-0.89742273
3	0xbd89fc99	-0.06737632
4	0x3e04ecf5	0.12981017
5	0xbd645382	-0.0557437
6	0x3ead9706	0.33904284
7	0xbe6e25df	-0.23256634
8	0x3f1fef6c	0.62474704
9	0xb9633563	-0.00021668295
10	0x3de74b1a	0.11293621
11	0x3dd7910d	0.10525713
12	0x3f1f56be	0.62241733
13	0xbea26524	-0.3171779
14	0xbe0f46be	-0.1399183
15	0x3ed7c7b0	0.42144537
16	0xbece3d1c	-0.40280998
17	0xbe7d9393	-0.24763326
18	0x3eb3d624	0.35124314
19	0x3eb22fc6	0.34802073
20	0xbf67210e	-0.9028481
21	0x3dfbf93b	0.12303396
22	0x3d71a3f1	0.058994237
23	0xbdc50df5	-0.09621803
24	0xbf3ebdf4	-0.74508595
25	0xbeffec81	-0.49985126
26	0x3e97fc4a	0.2968467
27	0x3f3c0227	0.73440784
28	0x3e12b80d	0.14328022
29	0x3d724381	0.059146408
30	0x3e30418e	0.17212507
31	0xbe947acb	-0.28999934
32	0x3eb24747	0.34820005
33	0x3de5f2b2	0.11227931
34	0xbf2d63fa	-0.6773068
35	0xbec50679	-0.384815
36	0x3fd2fbd2	1.64831
37	0x3e851830	0.25995016
38	0xbefd9325	-0.49526325
39	0xbe7c55fa	-0.24642172
40	0xba7133e2	-0.00092011516
41	0x3ee3d885	0.4450113
42	0xbe0c62f5	-0.13709624
43	0x3eaf32e5	0.34218517
44	0x3e45af74	0.19305211
45	0x3e8afa68	0.2714417
46	0x3f8151e5	1.0103117
47	0xbea37307	-0.31923696
48	0xbf9dfa80	-1.2342072
49	0xbcc85023	-0.024452275
50	0x3ef55bfd	0.47921744
51	0x3db85578	0.09000677
52	0xbe276d56	-0.16350302
53	0x3c6214bd	0.01379889
54	0x3b7f348f	0.003894124
55	0xbde0b807	-0.109726004
56	0x3f9d8235	1.2305361
57	0x3e684d4e	0.2268574
58	0xbe32a5fe	-0.17446133
59	0xbe972e1c	-0.29527366
60	0x3ecc543d	0.3990802
61	0x3e2e52a7	0.17023717
62	0x3ec0a857	0.37628433
63	0xbe393677	-0.18087183
64	0x3f1d7460	0.615057
65	0x3e9c8782	0.30572134
66	0xbdddaa37	-0.108234815
67	0xbee6b671	-0.45061067
68	0xbd8da4ad	-0.06916175
69	0xbe9754f4	-0.29557002
70	0x3d23ae46	0.039961122
71	0xbe7f50b7	-0.24933134
72	0x3ebacf89	0.36486462
73	0x3d817234	0.06320611
74	0x3eac347a	0.33633786
75	0xbec20770	-0.378963
76	0xbf99a081	-1.2002107
77	0x3d9035e2	0.07041527
78	0x3f525a44	0.82168984
79	0xbddf9d43	-0.10918667
80	0x3e99ac52	0.30014282
81	0xbea68287	-0.3252146
82	0xbca77ba3	-0.020444697
83	0x3ec22aa1	0.37923148
84	0xbf31d9f3	-0.6947319
85	0xbeda530e	-0.4264149
86	0x3ea9e9c1	0.33186153
87	0x3f1287ed	0.57238656
88	0x3f65aad1	0.8971377
89	0x3eb6e64f	0.35722587
90	0xbe8048a8	-0.25055432
91	0xbef41179	-0.4766958
92	0xbf10bd42	-0.56538785
93	0x3d659aab	0.056055706
94	0xbebab70f	-0.36467788
95	0xbdbc483a	-0.091934636
96	0xbe6e4ff1	-0.23272683
97	0x3d8fb59e	0.070170626
98	0xbeafcd7d	-0.34336463
99	0xbebe3cdd	-0.3715581
100	0xba11e1c1	-0.0005564951
101	0xbcbe8189	-0.023255127
102	0xbf16e7b6	-0.5894731
103	0xbd0ffaa9	-0.035151158
104	0x3f55943c	0.8342931
105	0x3e92fc67	0.28708193
106	0xbe02fd8b	-0.12792031
107	0xbefb2502	-0.49051672
108	0x3f95d926	1.1706893
109	0x3e822af4	0.25423396
110	0xbe3cb9a6	-0.18430194
111	0xbec9dc1f	-0.39425752
112	0xbf4094c0	-0.75226974
113	0xbee618b6	-0.44940728
114	0x3e742970	0.23843932
115	0x3f1cc7ab	0.6124217
116	0xbf4f0695	-0.8086942
117	0xbeb7457c	-0.357952
118	0xbf20dd47	-0.6283764
119	0x3ec68396	0.38772267
120	0x3f59b438	0.85040617
121	0xbd490fa4	-0.04908718
122	0x3f62fea8	0.88669825
123	0xbdc0d3f0	-0.09415424
124	0xbf235ef4	-0.6381676
125	0x3eaa2669	0.3323243
126	0xbe9e31f3	-0.30897483
127	0x3ed68f4b	0.419062

critic.0.bias f4 [32]
0	0xbdd9aa2a	-0.10628159
1	0x3f5cdb62	0.8627225
2	0x3f1da5fb	0.6158139
3	0x3f3f4979	0.74721485
4	0xbf7e0d11	-0.9923869
5	0x3f2ea8fa	0.6822659
6	0xbf83e552	-1.0304358
7	0x3f49f5e3	0.7889082
8	0xbf0c8884	-0.54895806
9	0xbf93783f	-1.1521071
10	0x3f014565	0.5049651
11	0xbef7d289	-0.48402813
12	0xbf86102b	-1.0473684
13	0xbc904e2f	-0.017615406
14	0xbf2b2073	-0.6684639
15	0x3f571f03	0.84031695
16	0xbf2e1783	-0.68004626
17	0x3f1c654d	0.6109207
18	0x3eb5c584	0.35502255
19	0xbede6f87	-0.43444464
20	0x3e95e110	0.29273272
21	0xbf6f8e43	-0.9357645
22	0xbf80446e	-1.0020883
23	0xbf0a90bb	-0.5412709
24	0xbf7da12d	-0.9907406
25	0xbf4bcf80	-0.79613495
26	0xbf0b8f28	-0.54515314
27	0xbf54bf2b	-0.831042
28	0xbf3fb3ad	-0.7488354
29	0xbf1fadd8	-0.6237464
30	0xbe638e47	-0.22222243
31	0x3bbc07b0	0.005738221

critic.2.weight f4 [32, 32]
0	0x3f39698a	0.72426665
1	0xba7324ec	-0.0009275216
2	0x3e3a9a65	0.1822296
3	0x3d92c3d4	0.071662575
4	0x3e9adb84	0.30245602
5	0xbcecebb1	-0.02892098
6	0x3f31f339	0.69511753
7	0xbd852114	-0.0650045
8	0x3f5371e5	0.82595664
9	0x3f589934	0.8460877
10	0x3e7aaa2d	0.2447898
11	0x3f2f9f95	0.6860288
12	0x3f58d20b	0.846955
13	0xbba26a32	-0.004956507
14	0x3e4d9685	0.2007695
15	0x3e3f3089	0.18670858
16	0x3d36a366	0.044589423
17	0xbc3501b9	-0.011047774
18	0x39feeea7	0.00048624465
19	0x3f12d5ff	0.5735778
20	0xbd415181	-0.04719687
21	0x3f3edcab	0.7455546
22	0x3f018099	0.5058685
23	0x3eb29469	0.34878853
24	0x3f21741a	0.6306778
25	0x3f083a82	0.53214276
26	0x3eb90b8a	0.36141616
27	0x3ee708c6	0.4512388
28	0x3f104b72	0.5636512
29	0x3e8c8250	0.2744317
30	0x3f2ac75f	0.66710466
31	0x3c5203c5	0.012818282
32	0x3d3f5473	0.046711396
33	0x3dc8dea9	0.09808094
34	0x3d645dff	0.055753704
35	0x3c18db0d	0.0093295695
36	0xbea0e524	-0.3142482
37	0x3e409dbc	0.18810171
38	0xbed8f987	-0.42377874
39	0x3dcbf487	0.09958749
40	0xbd6a5d91	-0.057218138
41	0xbeb565ea	-0.35429317
42	0x3badc738	0.0053032897
43	0xbb37d08a	-0.0028047883
44	0xbea7ec2d	-0.32797375
45	0x3da5d1b7	0.080966406
46	0xbeb42a2a	-0.3518842
47	0x3dfcdbf9	0.12346644
48	0xbdfbf26f	-0.123021
49	0x3e5aefa1	0.21380474
50	0x3d1fc47b	0.039005738
51	0xbefd55c3	-0.49479493
52	0x3cd5bb55	0.026090303
53	0xbea62902	-0.3245316
54	0xbeb01597	-0.34391472
55	0xbe8290e9	-0.25501183
56	0xbe873eb5	-0.2641503
57	0xbd5a5ac8	-0.053309232
58	0xbe16bd82	-0.14720729
59	0xbe051b02	-0.12998584
60	0xbe05d453	-0.13069277
61	0xbe604157	-0.21899925
62	0x3da05344	0.07828382
63	0x3bbf6ce9	0.0058418405
64	0x3eabbebe	0.33543962
65	0xbf146c09	-0.5797735
66	0xbddb8a6d	-0.10719762
67	0xbebcdb78	-0.3688619
68	0x3ea0d2dc	0.31410873
69	0xbecdaa02	-0.40168768
70	0x3e6e9374	0.23298436
71	0xbe6d1407	-0.23152171
72	0x3ef1f5a2	0.47257715
73	0x3f290698	0.66025686
74	0xbe5953b8	-0.21223342
75	0x3e88fff5	0.2675778
76	0x3eac273a	0.33623677
77	0x3e0a1d07	0.13487636
78	0x3f030f49	0.511952
79	0xbecd14db	-0.40054974
80	0x3f01f0b7	0.50757927
81	0xbe31b072	-0.17352465
82	0xbe37f736	-0.17965397
83	0x3e0145f1	0.12624337
84	0xbeace58b	-0.33768877
85	0x3de48103	0.111574195
86	0x3ebbc898	0.36676478
87	0x3e6d1d53	0.23155718
88	0x3f33fd32	0.7030822
89	0x3f1d2411	0.6138316
90	0x3ef96326	0.48708457
91	0x3f3e3a0e	0.74307334
92	0x3e6ca8e0	0.23111296
93	0x3edd8d16	0.43271703
94	0x3de92039	0.11383099
95	0x3cfe5b4d	0.031049395
96	0xbdfcccdd	-0.12343762
97	0x3e8d8666	0.276416
98	0x3e1fba97	0.15598522
99	0x3e93801b	0.28808674
100	0xbe5309f3	-0.20609264
101	0x3e1ca226	0.1529623
102	0xbe96d18d	-0.2945675
103	0x3e9f8288	0.31154275
104	0x3cfb8ed9	0.030707764
105	0xbeff28b1	-0.49835733
106	0x3e5cfa98	0.21579969
107	0xbe2caaf8	-0.16862094
108	0xbed9edf9	-0.4256437
109	0x3df9407e	0.12170504
110	0xbea22ade	-0.3167333
111	0x3e3139cd	0.17307205
112	0xbe52030b	-0.20508973
113	0x3e720617	0.23635136
114	0x3e7b3ad1	0.24534155
115	0xbeba573c	-0.3639468
116	0xbc9818eb	-0.01856657
117	0xbeb50353	-0.353541
118	0xbea23a35	-0.31685033
119	0xbdc97b86	-0.09838013
120	0xbe9bf604	-0.30461133
121	0xbd851a4d	-0.06499157
122	0xbe009883	-0.12558179
123	0xbf00ff2b	-0.50389355
124	0xbe9fb171	-0.31190065
125	0xbe87815a	-0.26465875
126	0xbeaa5866	-0.33270568
127	0x3dafebb3	0.08589878
128	0x3e708087	0.2348653
129	0xbed72101	-0.42017367
130	0xbe9ef04b	-0.31042704
131	0xbeb1d0e5	-0.34729686
132	0x3ea53f0f	0.32274672
133	0xbdf88a36	-0.12135737
134	0x3ef4cdf3	0.47813377
135	0xbe5bb2c7	-0.21454917
136	0x3ee16cea	0.44028407
137	0x3f576ae8	0.841475
138	0xbd3e4ea7	-0.046461727
139	0x3e37e69c	0.17959064
140	0x3eb124b8	0.34598327
141	0xbd69c71f	-0.057074662
142	0x3ef0b603	0.47013864
143	0xbe5e5d72	-0.21715334
144	0x3ee0841d	0.43850794
145	0x3cd301bf	0.025757669
146	0xbe2020e0	-0.15637541
147	0x3eeff754	0.46868384
148	0xbe8ce3fb	-0.27517685
149	0x3d965070	0.07339561
150	0x3efdbb89	0.4955714
151	0x3f0ff012	0.56225693
152	0x3f1d513c	0.6145208
153	0x3f4596aa	0.7718302
154	0x3ec259fb	0.37959275
155	0x3efb49f4	0.4907986
156	0x3e12ee2e	0.14348671
157	0x3ec26231	0.3796554
158	0x3e0f07e4	0.13967854
159	0x3a1990a7	0.00058580417
160	0x3eb2f4f5	0.34952512
161	0xbf0ed9ea	-0.5580126
162	0xbdb6d076	-0.089264795
163	0xbebe3fdc	-0.37158096
164	0x3e2cf796	0.16891322
165	0xbef241aa	-0.47315723
166	0x3eb9797e	0.36225504
167	0xbea56014	-0.32299864
168	0x3f21f306	0.6326145
169	0x3f87f7e1	1.0622522
170	0xbda1cf2d	-0.07900844
171	0x3e8fe5e6	0.28105086
172	0x3eb3b675	0.3510014
173	0xbdbc7316	-0.092016384
174	0x3f167971	0.58779055
175	0xbedd23c4	-0.4319135
176	0x3f0fa4db	0.56110924
177	0xbe101771	-0.14071442
178	0xbdaa1565	-0.08304862
179	0x3e0399de	0.12851664
180	0xbe55f991	-0.20895983
181	0x3e70e8ba	0.23526278
182	0x3f4fa7a8	0.811152
183	0x3f08cbab	0.5343577
184	0x3f41dc93	0.75727195
185	0x3f47a419	0.7798477
186	0x3ec00c44	0.37509358
187	0x3f484112	0.7822429
188	0x3e2f500f	0.17120384
189	0x3ec32379	0.38113
190	0x3eff0df1	0.49815324
191	0xbe02f9f8	-0.12790668
192	0x3ea7991b	0.32733998
193	0xbf010a44	-0.5040629
194	0xbee7123f	-0.45131108
195	0xbeb5d321	-0.3551264
196	0x3e82ad92	0.2552305
197	0xbe64a1f4	-0.22327405
198	0x3eafc411	0.34329274
199	0xbea975e3	-0.33097753
200	0x3ee22fcb	0.44177088
201	0x3f18eda2	0.597376
202	0xbdde9e52	-0.10870041
203	0x3d3b1e78	0.045683354
204	0x3f01ac68	0.50653696
205	0x3dd6e547	0.1049295
206	0x3e39c4c9	0.18141474
207	0xbedfbe0c	-0.43699682
208	0x3e8afb41	0.27144817
209	0x3d397edc	0.045287
210	0xbe8e1524	-0.27750504
211	0x3ee12204	0.43971264
212	0xbe3925c0	-0.18080807
213	0x3e6e8813	0.23294096
214	0x3f0cd6a8	0.5501504
215	0x3f333b8f	0.70012754
216	0x3edc8584	0.43070614
217	0x3f304d70	0.6886816
218	0x3da3c541	0.079966076
219	0x3edd67ec	0.4324335
220	0x3e758e09	0.23979963
221	0x3ee41f1f	0.44554994
222	0xbe81de09	-0.25364712
223	0xbd1a5e87	-0.037687805
224	0x3ea8647c	0.32889163
225	0xbef8c8e4	-0.48590767
226	0xbf1ffbb3	-0.6249344
227	0xbf0aff76	-0.5429605
228	0x3ddd50e9	0.10806448
229	0xbc805cb4	-0.015669204
230	0x3ea0d0ac	0.31409204
231	0xbeb14ae4	-0.3462745
232	0x3efbb410	0.49160814
233	0x3f145259	0.5793815
234	0xbe3a4ab0	-0.18192554
235	0x3d35af16	0.044356428
236	0x3f1bed95	0.60909396
237	0x3df03edb	0.11730739
238	0x3e54d208	0.20783246
239	0xbee7a18b	-0.45240435
240	0x3e1ca107	0.15295802
241	0xbded9ff0	-0.11602771
242	0xbeb8fe69	-0.361316
243	0x3f23c026	0.6396507
244	0xbe6aa93b	-0.22916119
245	0x3e64b6c8	0.2233535
246	0x3ed0a950	0.40754175
247	0x3f4528b2	0.7701522
248	0x3ee66290	0.44997072
249	0x3f50f42b	0.8162257
250	0x3e52e754	0.20596057
251	0x3ec0d5cb	0.3766311
252	0x3df83a45	0.12120489
253	0x3ef5900e	0.47961468
254	0xbe46df4a	-0.19421116
255	0xbd9c01be	-0.0761752

critic.2.bias f4 [32]
0	0x3daf8538	0.08570331
1	0x3e1a21f6	0.15052018
2	0xbe3348bf	-0.17508219
3	0x3eae73cb	0.34072718
4	0xbe5db2e9	-0.2165028
5	0xbe3f7b87	-0.18699466
6	0xbedeea66	-0.43538207
7	0xbec40182	-0.382824
8	0x3ec0b7f4	0.37640345
9	0xbe8a9c14	-0.27072203
10	0xbeee6121	-0.46558478
11	0x3ef7bc3f	0.48385808
12	0x3e7caaa0	0.24674463
13	0xbeae84eb	-0.34085783
14	0xbdc7263d	-0.0972409
15	0xbec87500	-0.39151764
16	0x3c6ba605	0.014382844
17	0x3e8d119b	0.27552494
18	0x3e21966f	0.15780042
19	0x3d8211f6	0.06351082
20	0xbe55c8a5	-0.20877321
21	0xbe86ccb5	-0.26328054
22	0x3e786b3d	0.24259658
23	0x3ef8ea2f	0.48616168
24	0x3f085632	0.53256524
25	0xbe3cf0eb	-0.18451278
26	0x3e6ebea4	0.23314911
27	0x3f1343e5	0.57525474
28	0xbec85fba	-0.39135534
29	0xbe5e4f16	-0.21709856
30	0xbe42d386	-0.19026002
31	0x3ec752ba	0.38930303

critic.4.weight f4 [1, 32]
0	0xbf83d96e	-1.0300729
1	0x3ea6fee8	0.32616353
2	0xbf336a32	-0.70083916
3	0x3efab396	0.48965138
4	0xbf49e54e	-0.78865516
5	0xbf24c614	-0.64364743
6	0xbf2096ba	-0.6272999
7	0xbf261bb9	-0.6488605
8	0x3f1b0640	0.6055641
9	0xbf3a1f4c	-0.72704005
10	0xbf41bec0	-0.75681686
11	0x3f468b75	0.77556545
12	0x3f0783ea	0.5293566
13	0xbf2ec643	-0.68271273
14	0xbf1adcb5	-0.6049302
15	0xbf017854	-0.5057423
16	0xbf463b94	-0.7743466
17	0x3ee193d6	0.44058102
18	0x3c07576f	0.008260592
19	0xbf4a7902	-0.79090893
20	0xbf3673f9	-0.7127071
21	0xbf5a4e1a	-0.85275424
22	0x3ee47aea	0.44625026
23	0x3f180a3c	0.59390616
24	0x3f15acfb	0.5846707
25	0xbf1d67b6	-0.61486375
26	0x3f365fd6	0.71239984
27	0x3f43710e	0.7634438
28	0xbf0cd369	-0.55010086
29	0xbf24b1b1	-0.64333636
30	0xbf0af4c4	-0.5427973
31	0x3f290c5a	0.6603447

exp_avg f4 [32, 4]
0	0xb8a5d0e9	-7.906726e-05
1	0xba371621	-0.00069841935
2	0x3a50de64	0.0007967709
3	0xb9db5eb8	-0.00041841506
4	0x3885b8c6	6.376351e-05
5	0x3a3820c3	0.0007023925
6	0xb9144c6a	-0.00014142846
7	0x39efb28f	0.0004571867
8	0xb92768a6	-0.00015965346
9	0xb9e6508f	-0.0004392904
10	0x3ad6e6b5	0.001639566
11	0xb8ce0a94	-9.824816e-05
12	0xba0eb4af	-0.0005443794
13	0xbb47ee02	-0.0030506854
14	0x3bad029a	0.005279851
15	0xbad8f0d4	-0.0016551265
16	0xb94938e0	-0.00019190041
17	0xbb16adfb	-0.0022991884
18	0x3b2a0f83	0.0025949187
19	0xbab340af	-0.0013675893
20	0x3a060f4b	0.0005113973
21	0x3b7dad04	0.0038707862
22	0xbbd18e51	-0.0063951393
23	0x3b016b8d	0.0019747943
24	0x379238e2	1.7431044e-05
25	0xb963071d	-0.00021651057
26	0xba0c36bc	-0.0005348732
27	0xb9766f79	-0.00023501915
28	0xb68b1c35	-4.1458065e-06
29	0x38a5be5d	7.903271e-05
30	0x38a592be	7.895146e-05
31	0x385d66b6	5.2786163e-05
32	0xb95800f2	-0.00020599717
33	0xbb233a26	-0.0024906485
34	0x3aec073a	0.0018007525
35	0xbad39091	-0.0016141107
36	0xb9e450d4	-0.0004354777
37	0xbba6f583	-0.0050951852
38	0x3b2de927	0.0026536675
39	0xbb59241d	-0.0033133097
40	0x387a3eb0	5.9663027e-05
41	0x3a13df4a	0.00056408776
42	0x38b1d709	8.480071e-05
43	0x39c121fc	0.0003683715
44	0x381821c8	3.6271085e-05
45	0x38151f75	3.5553665e-05
46	0x39742851	0.00023284672
47	0xb7202f0c	-9.547697e-06
48	0xb6e3d98b	-6.7904525e-06
49	0xb8755d2d	-5.849933e-05
50	0x38247c99	3.9216688e-05
51	0xb8077104	-3.2291762e-05
52	0x38030bbd	3.1243766e-05
53	0x393ebc8a	0.00018190048
54	0x37768cee	1.4695555e-05
55	0x38fabf0a	0.00011956513
56	0xb888d5cb	-6.5248074e-05
57	0xb9ef25e8	-0.00045613875
58	0x3a2af5b1	0.0006521596
59	0xb97d7747	-0.00024172394
60	0x3526e2ea	6.217002e-07
61	0x39a1fa6a	0.00030894886
62	0x39adf697	0.00033180855
63	0x395fb615	0.00021334768
64	0xb7e762b5	-2.758331e-05
65	0xb94cd5a6	-0.00019534546
66	0x3a00a870	0.00049079116
67	0xb8bf04d4	-9.108489e-05
68	0x3a25e17a	0.0006327849
69	0x3b4e449f	0.0031474007
70	0xbb649e26	-0.0034884303
71	0x3b0d73de	0.0021583955
72	0xb7c4e480	-2.3471424e-05
73	0xb8330ac5	-4.2686956e-05
74	0x39794f46	0.00023776022
75	0x36d2119a	6.260537e-06
76	0x394730bf	0.00018996278
77	0x3b0087a6	0.0019612103
78	0xbb016916	-0.0019746474
79	0x3a9dd9b3	0.0012043029
80	0x391203b9	0.00013925032
81	0x38a3517c	7.787623e-05
82	0xba8d1789	-0.001076446
83	0xb8332391	-4.271005e-05
84	0xb8ec2deb	-0.0001126191
85	0x39dffce3	0.0004272229
86	0x3aa7c096	0.0012798484
87	0x39df678b	0.0004261102
88	0x38959271	7.1321505e-05
89	0x3973f988	0.00023267244
90	0xba986d9d	-0.0011629347
91	0x3847f8f3	4.767715e-05
92	0xba003e6a	-0.0004892113
93	0xbb56664d	-0.0032714785
94	0x3be38585	0.006943407
95	0xbac0c6dc	-0.0014707702
96	0xb8fc1753	-0.00012020641
97	0x39df667a	0.00042610226
98	0x3ae6737e	0.0017582027
99	0x39f88203	0.00047399112
100	0x3925d41f	0.00015814647
101	0x39f188e7	0.00046069102
102	0xbb50a91d	-0.003183908
103	0xb955bfd9	-0.00020384732
104	0x3880d62f	6.1434104e-05
105	0x39a836cb	0.0003208428
106	0xba7fa1f0	-0.00097516086
107	0x391f567f	0.00015195644
108	0x3a0c897a	0.0005361062
109	0x3b52b8a2	0.0032153507
110	0xba9f1ff5	-0.0012140261
111	0x3b1a9191	0.00235853
112	0x3852c800	5.0254166e-05
113	0x38edc204	0.00011337179
114	0xba19bbb7	-0.00058644585
115	0xb72fc9dc	-1.0477812e-05
116	0x3914968e	0.00014170466
117	0xb965763b	-0.00021883186
118	0xbb7b72d5	-0.0038368006
119	0xba2689b0	-0.00063529145
120	0x38818029	6.175071e-05
121	0x37eb00d2	2.8014565e-05
122	0xba88c105	-0.0010433501
123	0xb8a613bd	-7.9191734e-05
124	0xb7cd16cb	-2.4448518e-05
125	0xb93141ed	-0.00016904595
126	0x389dd506	7.526022e-05
127	0xb8cafb3d	-9.6789074e-05

exp_avg_sq f4 [32, 4]
0	0x329fa338	1.858426e-08
1	0x35b2a515	1.3310079e-06
2	0x35d0c025	1.5553129e-06
3	0x35b73d2a	1.3652364e-06
4	0x31e3f50c	6.634428e-09
5	0x3505c940	4.983922e-07
6	0x33c1d928	9.026763e-08
7	0x34b72d16	3.411921e-07
8	0x3376ae53	5.7434885e-08
9	0x36a94fb4	5.045871e-06
10	0x36675f40	3.4477125e-06
11	0x36a7dcdd	5.0026997e-06
12	0x33c55da8	9.190563e-08
13	0x37dee0ce	2.6569145e-05
14	0x379e25f3	1.885274e-05
15	0x379d25f2	1.8733528e-05
16	0x32d08ddf	2.4278902e-08
17	0x363c06cb	2.8018137e-06
18	0x3631340f	2.6405357e-06
19	0x361be3dc	2.3229431e-06
20	0x3384902c	6.172954e-08
21	0x3784fc61	1.585315e-05
22	0x37359b3a	1.0824582e-05
23	0x37276cc9	9.979304e-06
24	0x320a4d0d	8.0501765e-09
25	0x356b63c2	8.768949e-07
26	0x3524ae83	6.134871e-07
27	0x3532dcd8	6.663154e-07
28	0x32843e54	1.5395166e-08
29	0x351b2abc	5.7804186e-07
30	0x33a4ec49	7.679825e-08
31	0x34991575	2.8514083e-07
32	0x31f1d3aa	7.0380866e-09
33	0x35e4ab4a	1.7037175e-06
34	0x35a2476a	1.2090725e-06
35	0x359d61bf	1.1725859e-06
36	0x3288e13d	1.593491e-08
37	0x372b991c	1.0228043e-05
38	0x36bad25a	5.56772e-06
39	0x36d48a79	6.3342127e-06
40	0x33a7655e	7.794982e-08
41	0x36509137	3.1078941e-06
42	0x359d1be3	1.1705528e-06
43	0x360ee2a7	2.1291578e-06
44	0x32de18c8	2.585547e-08
45	0x3596b4a6	1.1228447e-06
46	0x3459d3bc	2.0286728e-07
47	0x354d1e4d	7.6412545e-07
48	0x31977d42	4.4089186e-09
49	0x340a745a	1.289458e-07
50	0x324f3e27	1.2063118e-08
51	0x335b5e2a	5.1075553e-08
52	0x325907ed	1.26328645e-08
53	0x34ecc2f8	4.4100284e-07
54	0x33c904ef	9.360689e-08
55	0x34c61b15	3.690008e-07
56	0x31bd96fe	5.51779e-09
57	0x3527a0bb	6.244624e-07
58	0x34d04ceb	3.8798984e-07
59	0x34dc30d6	4.1013726e-07
60	0x32378bee	1.0683818e-08
61	0x34ed5f2c	4.4213937e-07
62	0x333acd70	4.3493344e-08
63	0x345a303d	2.0320381e-07
64	0x324d203b	1.1939899e-08
65	0x34be17ff	3.5407717e-07
66	0x33644f60	5.3157578e-08
67	0x34766a80	2.294928e-07
68	0x33b99004	8.64093e-08
69	0x37fcfc39	3.0158191e-05
70	0x3758e149	1.2927057e-05
71	0x37a7de76	2.0011543e-05
72	0x32bea4f8	2.219393e-08
73	0x354ced13	7.634091e-07
74	0x32b07e2e	2.0546477e-08
75	0x34700643	2.235402e-07
76	0x331d1959	3.6577465e-08
77	0x36189cbe	2.2741e-06
78	0x35a74d1b	1.246491e-06
79	0x35d264c7	1.5675549e-06
80	0x31a790a2	4.8767825e-09
81	0x35cac79b	1.5108266e-06
82	0x3565ae08	8.5562397e-07
83	0x358f0cc7	1.0658049e-06
84	0x3215080a	8.674769e-09
85	0x35265c90	6.1974515e-07
86	0x34aca3e8	3.2156754e-07
87	0x34b44933	3.3580872e-07
88	0x346baddf	2.1949334e-07
89	0x3707a955	8.086053e-06
90	0x3636e397	2.7252588e-06
91	0x370cd1f0	8.39353e-06
92	0x334ec3a1	4.8141036e-08
93	0x3786f9cb	1.6090364e-05
94	0x3792fc63	1.7522083e-05
95	0x374894c4	1.1955566e-05
96	0x330f745c	3.340061e-08
97	0x360e4c3d	2.1204025e-06
98	0x35b5dd17	1.3549896e-06
99	0x35b81c9f	1.3717398e-06
100	0x34c7ace3	3.719243e-07
101	0x378f7238	1.7100116e-05
102	0x3718c5a4	9.105923e-06
103	0x3782c270	1.558775e-05
104	0x326857db	1.3524153e-08
105	0x3504bc8e	4.9448215e-07
106	0x3479e556	2.3273364e-07
107	0x34c2c389	3.6277586e-07
108	0x33183f87	3.5448036e-08
109	0x379c4a08	1.8631123e-05
110	0x36a9e85a	5.0636418e-06
111	0x373e4289	1.1340374e-05
112	0x32c52034	2.2948463e-08
113	0x355ad03f	8.1514366e-07
114	0x346a17c0	2.1801588e-07
115	0x34f28aa0	4.5176876e-07
116	0x320004ed	7.451701e-09
117	0x3677f6ba	3.6949482e-06
118	0x368026fe	3.8192366e-06
119	0x363141b6	2.6413304e-06
120	0x328fc2de	1.6736006e-08
121	0x35b26e88	1.3294202e-06
122	0x3582ae2d	9.736447e-07
123	0x353b0b01	6.967894e-07
124	0x31bec200	5.551783e-09
125	0x341e86d9	1.4763954e-07
126	0x341db57b	1.4687787e-07
127	0x339a33d2	7.18061e-08

exp_avg f4 [32]
0	0xbae29bda	-0.0017288879
1	0x3a19236f	0.0005841767
2	0xbb66c800	-0.0035214424
3	0xbc5b9c4f	-0.013403966
4	0xbba4aa9b	-0.0050252206
5	0x3c534413	0.012894648
6	0x3a58809d	0.0008258911
7	0xb94d8def	-0.00019603198
8	0xbb94bc29	-0.004539032
9	0xbc11f77b	-0.008909102
10	0x38f8c55c	0.000118623226
11	0xb9d371e0	-0.000403299
12	0xb918830f	-0.00014544673
13	0x38573fb3	5.131932e-05
14	0xbacbb571	-0.0015541745
15	0xba437eda	-0.0007457562
16	0xba8c4f1c	-0.0010704729
17	0x3c698c61	0.01425466
18	0xba014d9d	-0.0004932525
19	0x3b934b51	0.0044950624
20	0x3b4351c5	0.0029803377
21	0xbb4b43a4	-0.0031015659
22	0x3b147e00	0.002265811
23	0xbc5be5b6	-0.013421467
24	0xbb64ef96	-0.0034932843
25	0x3ba5aa37	0.0050556916
26	0x3b08730c	0.0020820526
27	0x3c1ed2c8	0.009693809
28	0x3a82e013	0.0009984992
29	0x3bb99001	0.0056629186
30	0x3b0a0f75	0.0021066342
31	0xb929b8e5	-0.00016185975

exp_avg_sq f4 [32]
0	0x35a5632e	1.2322323e-06
1	0x34864598	2.501008e-07
2	0x3669c7c7	3.4835991e-06
3	0x37c79b45	2.3794952e-05
4	0x3626a1b8	2.483006e-06
5	0x37994146	1.8269417e-05
6	0x34ec20d9	4.3982325e-07
7	0x33f146aa	1.1235291e-07
8	0x35d7acf1	1.6069081e-06
9	0x371a05df	9.180482e-06
10	0x352f7361	6.536048e-07
11	0x34bf6846	3.565239e-07
12	0x32b6a3c8	2.1262068e-08
13	0x3406f51e	1.2568896e-07
14	0x34c631e2	3.6916668e-07
15	0x33c6639d	9.238213e-08
16	0x33da5477	1.016678e-07
17	0x37f8d694	2.9663825e-05
18	0x33d3d2c6	9.8637926e-08
19	0x3615b87e	2.2310119e-06
20	0x35e7b59b	1.7263695e-06
21	0x3528fc67	6.295217e-07
22	0x35fa7f39	1.8663478e-06
23	0x37aa5f3b	2.0309924e-05
24	0x35bf5afc	1.4257089e-06
25	0x370005b0	7.630719e-06
26	0x34b05cbe	3.2850033e-07
27	0x378fcacc	1.7141363e-05
28	0x349f7daf	2.9707505e-07
29	0x3697401b	4.5076135e-06
30	0x3530ff88	6.5936956e-07
31	0x334d3ead	4.7787285e-08

exp_avg f4 [32, 32]
0	0x3a2305d3	0.00062188244
1	0xb9c0abc4	-0.0003674907
2	0x3a7e51b0	0.00097015034
3	0xb8dd40e5	-0.00010550189
4	0xba11030a	-0.0005531764
5	0x3aa5aad7	0.0012639415
6	0xb98ef746	-0.00027268584
7	0xba036353	-0.0005012054
8	0xba875664	-0.0010325429
9	0xba6cde3b	-0.00090358005
10	0xb94139e8	-0.00018427486
11	0xba709b70	-0.00091784354
12	0x39af3e59	0.00033425054
13	0xba259baa	-0.0006317446
14	0xb82b7754	-4.088071e-05
15	0xba4bd8fb	-0.0007776168
16	0xb9847def	-0.0002527083
17	0xb956ff1f	-0.0002050367
18	0x3a36f6c9	0.0006979523
19	0x3a5be092	0.00083876506
20	0xb8ac6078	-8.219568e-05
21	0xba7c695a	-0.0009628736
22	0x3958115b	0.0002060583
23	0x39cd138b	0.00039115208
24	0x39130222	0.00014019807
25	0xba2eeeb4	-0.0006673143
26	0x3ac0b5ef	0.0014702658
27	0xba71c702	-0.0009223075
28	0x3a3b7eb1	0.00071523624
29	0x39488d1d	0.00019126055
30	0x3a346003	0.0006880762
31	0xb99bbb66	-0.00029703527
32	0x37d3b786	2.523862e-05
33	0xb703d8df	-7.858703e-06
34	0x37ae307d	2.0764995e-05
35	0xb6701a19	-3.5777978e-06
36	0xb72e31a6	-1.0382768e-05
37	0x38214cc3	3.845688e-05
38	0xb736db4c	-1.0899104e-05
39	0xb7b3cfdc	-2.1435255e-05
40	0xb7cfbf21	-2.4765324e-05
41	0xb7b668c2	-2.1744872e-05
42	0xb60a7207	-2.0629975e-06
43	0xb7dbae0b	-2.618788e-05
44	0x36fe8c09	7.586092e-06
45	0xb725f23b	-9.891165e-06
46	0xb657aeec	-3.2139314e-06
47	0xb7d8f8e0	-2.5865098e-05
48	0xb70c41b1	-8.359945e-06
49	0xb70f2c2c	-8.533749e-06
50	0x374548d2	1.175907e-05
51	0x37ee6d60	2.8422743e-05
52	0xb6e2cab0	-6.758921e-06
53	0xb7fab949	-2.9888603e-05
54	0x36b06973	5.2574846e-06
55	0x3759414f	1.2949414e-05
56	0xb56f399b	-8.9118265e-07
57	0xb7aa946c	-2.0334694e-05
58	0x3808eea4	3.2647178e-05
59	0xb7e24880	-2.697506e-05
60	0x377a3411	1.4913284e-05
61	0x36358315	2.7047402e-06
62	0x374f5caa	1.23597365e-05
63	0xb73c9b46	-1.1241826e-05
64	0xb886d616	-6.4294945e-05
65	0x378f304d	1.706942e-05
66	0xb8565194	-5.109755e-05
67	0x36c61813	5.9036624e-06
68	0x37dee81f	2.6572552e-05
69	0xb8c2362f	-9.260733e-05
70	0x37fe8759	3.0342186e-05
71	0x3865ce7c	5.4790158e-05
72	0x387e063e	6.0564133e-05
73	0x384f4bd0	4.942325e-05
74	0x365479cc	3.1661357e-06
75	0x3883c7af	6.283761e-05
76	0xb74b06cb	-1.21013245e-05
77	0x37c2cd49	2.3222196e-05
78	0x36e1a614	6.7248566e-06
79	0x3889f9cd	6.579198e-05
80	0x37c660b8	2.3648478e-05
81	0x379b2254	1.8493425e-05
82	0xb7c0b4b3	-2.2972328e-05
83	0xb89b27b0	-7.398368e-05
84	0x3794353d	1.7667766e-05
85	0x38983b73	7.258998e-05
86	0xb771ee42	-1.4420193e-05
87	0xb80c209b	-3.3408967e-05
88	0x36c32f35	5.8169485e-06
89	0x3852a7c0	5.022413e-05
90	0xb8a2e692	-7.767709e-05
91	0x38843332	6.303786e-05
92	0xb7fec9a7	-3.0373061e-05
93	0x364fe5fb	3.097927e-06
94	0xb7e19cb6	-2.6895064e-05
95	0x37feb8bd	3.0365185e-05
96	0xbab33bdd	-0.0013674457
97	0x394bbaea	0.0001942922
98	0xba6f6460	-0.00091320835
99	0xb6db36f2	-6.533105e-06
100	0x39bc6722	0.00035934994
101	0xbad6c67a	-0.0016386055
102	0x3a2ca6b3	0.00065861194
103	0x3a8d1846	0.001076468
104	0x3a7c4d83	0.0009624587
105	0x3a2f37be	0.00066840264
106	0xb879b7df	-5.953747e-05
107	0x3a88fef6	0.0010451961
108	0xb939c4f5	-0.00017716347
109	0x3990cfab	0.00027620545
110	0x38bafb49	8.915977e-05
111	0x3aa38b98	0.0012477515
112	0x39decf33	0.00042497515
113	0x39b902e7	0.00035288112
114	0xb991e6ca	-0.00027828506
115	0xbabf6552	-0.0014602339
116	0x39d70aa0	0.00041015912
117	0x3aaeb862	0.0013330097
118	0xb987ac81	-0.00025877732
119	0xba499375	-0.00076895143
120	0x394f8d9b	0.0001979381
121	0x3a7b96f2	0.0009597383
122	0xbaa39dc4	-0.0012482931
123	0x3a95be9d	0.0011424605
124	0xb9e0b054	-0.00042855984
125	0x39971afd	0.00028821072
126	0xb9c2a4e3	-0.00037125414
127	0x3a247744	0.00062738755
128	0xb992a9fc	-0.00027973938
129	0x3829cb28	4.0481944e-05
130	0xb945a8a0	-0.00018850202
131	0x37150207	8.881564e-06
132	0x38ac48c9	8.2151564e-05
133	0xb9bf8cae	-0.00036535173
134	0x39131f14	0.0001403059
135	0x39717aa5	0.0002302924
136	0x39617768	0.00021502154
137	0x3928fb8e	0.0001611544
138	0xb71bce14	-9.286701e-06
139	0x396c4981	0.00022534096
140	0xb82d4950	-4.131469e-05
141	0x387c90c3	6.02163e-05
142	0x37e67ab6	2.7475278e-05
143	0x39893416	0.00026169483
144	0x38c31ab6	9.3033e-05
145	0x3898d2da	7.287199e-05
146	0xb857449c	-5.1323892e-05
147	0xb9a5be9b	-0.00031613265
148	0x38a3b991	7.80701e-05
149	0x39974481	0.00028852004
150	0xb864f868	-5.4590782e-05
151	0xb921f58b	-0.00015445628
152	0x385c2241	5.248399e-05
153	0x39597180	0.00020737015
154	0xb98ba1a9	-0.00026632592
155	0x39806b57	0.00024494037
156	0xb8c4748f	-9.367719e-05
157	0x386fd3b4	5.7179204e-05
158	0xb89f83ca	-7.6062584e-05
159	0x390c4009	0.00013375295
160	0x3b1dcd67	0.0024078728
161	0xba65197d	-0.0008739455
162	0x3b337588	0.0027383287
163	0xb9699d3a	-0.00022279183
164	0xbabdb5b9	-0.0014473713
165	0x3b81e67a	0.0039642425
166	0xba8eb05a	-0.0010886297
167	0xbaeed578	-0.0018221578
168	0xbb3f660c	-0.0029205112
169	0xbb1edc06	-0.002424003
170	0xb99ff4da	-0.00030509272
171	0xbb328db9	-0.0027245118
172	0x3a552543	0.00081308576
173	0xbab9cf81	-0.0014176221
174	0xb921da47	-0.00015435471
175	0xbb279cf5	-0.0025575731
176	0xba641517	-0.00087006524
177	0xba22ffa6	-0.0006217904
178	0x3ad7088a	0.0016405743
179	0x3b455624	0.0030111158
180	0xb9ecc3a0	-0.0004515918
181	0xbb459600	-0.0030149221
182	0x3a256a97	0.00063101336
183	0x3ab1ed77	0.0013574798
184	0x38ea3d8f	0.00011169456
185	0xbb0d945f	-0.0021603329
186	0x3b827742	0.003981502
187	0xbb31909e	-0.0027094255
188	0x3ae80b82	0.0017703625
189	0x390bbd7c	0.00013326661
190	0x3adc973c	0.0016829739
191	0xba90e140	-0.0011053458
192	0xb6af37e2	-5.221912e-06
193	0x35b31459	1.3342461e-06
194	0xb76d7ed6	-1.4155832e-05
195	0xb6a2ff01	-4.8576626e-06
196	0x368e4587	4.240024e-06
197	0xb644ac49	-2.930656e-06
198	0x3666d70c	3.4397845e-06
199	0x32e61197	2.6783523e-08
200	0x36b3c212	5.3572085e-06
201	0x32dc295d	2.563018e-08
202	0xb4c4fb64	-3.6690756e-07
203	0x3644c869	2.932293e-06
204	0xb605bd3f	-1.99287e-06
205	0x36c590b9	5.8879054e-06
206	0xb68811ef	-4.0552036e-06
207	0x3675e2b8	3.6639813e-06
208	0x3553f1dc	7.8955577e-07
209	0xb68ffca4	-4.2911433e-06
210	0xb6b9c7b4	-5.536678e-06
211	0xb6df336f	-6.6519056e-06
212	0xb63b4f57	-2.7911353e-06
213	0x36b15ef5	5.2860655e-06
214	0xb5d52b84	-1.5882401e-06
215	0xb683b08f	-3.9246584e-06
216	0x34adb1d3	3.2353145e-07
217	0x36f20a6f	7.2133766e-06
218	0xb7204c90	-9.554569e-06
219	0x35ea368a	1.7450232e-06
220	0xb62f75b9	-2.6145556e-06
221	0x36c0cc7f	5.7458524e-06
222	0xb6ab376d	-5.1026495e-06
223	0x362e4b95	2.5972015e-06
224	0xb9af391d	-0.00033421154
225	0x3813779f	3.5158937e-05
226	0xb95cad4f	-0.00021045397
227	0x34bcc627	3.5161904e-07
228	0x38aa2f8a	8.1150865e-05
229	0xb9d1b91d	-0.00040001507
230	0x393322e7	0.00017083772
231	0x398cac6c	0.00026831345
232	0x396da517	0.00022663582
233	0x392933db	0.00016136414
234	0xb7c7e155	-2.3827577e-05
235	0x398066a1	0.00024490527
236	0xb81cca34	-3.7381615e-05
237	0x385a6f75	5.2079053e-05
238	0x37ef19a3	2.8502958e-05
239	0x399cb535	0.00029889648
240	0x38e54783	0.00010932891
241	0x389de5e7	7.529166e-05
242	0xb8254424	-3.9402526e-05
243	0xb9bff178	-0.00036610267
244	0x38c19c49	9.2320675e-05
245	0x39a9c291	0.00032379155
246	0xb8760191	-5.865243e-05
247	0xb9382d46	-0.00017564473
248	0x3895a9ca	7.136499e-05
249	0x397e15b7	0.00024231417
250	0xb990377f	-0.00027507168
251	0x398a8a97	0.0002642467
252	0xb8b22512	-8.494606e-05
253	0x38be4b7e	9.0739675e-05
254	0xb88888c5	-6.510461e-05
255	0x39265c98	0.00015865488

exp_avg_sq f4 [32, 32]
0	0x356070d2	8.361068e-07
1	0x3472a30c	2.2597322e-07
2	0x3585366f	9.925114e-07
3	0x33e7cc8e	1.0793984e-07
4	0x34862b32	2.4990874e-07
5	0x34b596c2	3.3823568e-07
6	0x35276868	6.236428e-07
7	0x3602df9a	1.9501663e-06
8	0x34c4e9bd	3.6677912e-07
9	0x350255dc	4.8553716e-07
10	0x343b1210	1.7422303e-07
11	0x34891b81	2.553825e-07
12	0x3563d6b3	8.487652e-07
13	0x3504659f	4.932171e-07
14	0x34beb626	3.5522788e-07
15	0x351e9d6c	5.9088666e-07
16	0x34a74ba7	3.1161218e-07
17	0x352a7c50	6.3510834e-07
18	0x361ef09e	2.3683892e-06
19	0x35166200	5.6021963e-07
20	0x35b3254d	1.3347395e-06
21	0x34eda236	4.4262714e-07
22	0x3301fc3c	3.026456e-08
23	0x350c44e8	5.2254336e-07
24	0x357d2d1f	9.4315504e-07
25	0x34538c25	1.970189e-07
26	0x360b1f85	2.073096e-06
27	0x3521dac9	6.029555e-07
28	0x35cd0644	1.5275514e-06
29	0x35abef92	1.2810217e-06
30	0x3580eda7	9.605909e-07
31	0x3534f707	6.74147e-07
32	0x32ecefe9	2.7583114e-08
33	0x31b37a85	5.2235145e-09
34	0x32273c7b	9.734431e-09
35	0x30a2e2ed	1.1851548e-09
36	0x31245887	2.3915463e-09
37	0x31e8481a	6.7602857e-09
38	0x32470a96	1.15857315e-08
39	0x330a9aa8	3.2271288e-08
40	0x315aafe5	3.182316e-09
41	0x31b2ac66	5.2000813e-09
42	0x31dc8ac5	6.418619e-09
43	0x30eb5a19	1.7124108e-09
44	0x3291d649	1.6977667e-08
45	0x32560ea8	1.2459772e-08
46	0x31c0e39f	5.613813e-09
47	0x322e4887	1.0144624e-08
48	0x31f316c5	7.0748194e-09
49	0x320bbc5b	8.133692e-09
50	0x333f832c	4.4589953e-08
51	0x32ce2492	2.3998187e-08
52	0x32aeebec	2.036355e-08
53	0x321945e4	8.921663e-09
54	0x300f679d	5.217034e-10
55	0x32203794	9.325863e-09
56	0x32b75c4a	2.1345972e-08
57	0x3182bce8	3.804974e-09
58	0x3307ecbe	3.1647453e-08
59	0x31f3f183	7.0996875e-09
60	0x32e57ed4	2.6716783e-08
61	0x32a5eaf1	1.9315367e-08
62	0x32956ea8	1.7396204e-08
63	0x3258ecb8	1.2626678e-08
64	0x33b3c4bd	8.3711235e-08
65	0x322487af	9.576907e-09
66	0x32c0f849	2.2464649e-08
67	0x31c2085a	5.6470926e-09
68	0x320fdd68	8.3740375e-09
69	0x3225c60f	9.649297e-09
70	0x32f4fd87	2.852063e-08
71	0x338b2e5a	6.481123e-08
72	0x323846f0	1.0726339e-08
73	0x32d5e125	2.4898847e-08
74	0x32067eb1	7.828633e-09
75	0x31b59202	5.2843925e-09
76	0x331f5d56	3.710496e-08
77	0x32e4ae14	2.6621855e-08
78	0x325cf9aa	1.2862452e-08
79	0x32ba4481	2.1684402e-08
80	0x323fad91	1.1157128e-08
81	0x32c0a3cd	2.242623e-08
82	0x33b6081a	8.476509e-08
83	0x330e4429	3.3123943e-08
84	0x336db3a6	5.5344252e-08
85	0x3261001e	1.309675e-08
86	0x312b5a5a	2.4935134e-09
87	0x33191949	3.5646085e-08
88	0x331f2ac3	3.7058964e-08
89	0x31d7f2d8	6.2849317e-09
90	0x3392f451	6.843096e-08
91	0x32af2833	2.0390962e-08
92	0x3385c42d	6.228979e-08
93	0x3373b7c5	5.6744984e-08
94	0x3312729f	3.409752e-08
95	0x33047c3f	3.0846646e-08
96	0x35d758ff	1.604465e-06
97	0x348b9411	2.59985e-07
98	0x35706fb1	8.95695e-07
99	0x344e919f	1.9238222e-07
100	0x346119bb	2.0964119e-07
101	0x35272d3f	6.227819e-07
102	0x350a43e6	5.150781e-07
103	0x35be2678	1.4167299e-06
104	0x34b4940b	3.3635328e-07
105	0x35198e82	5.720432e-07
106	0x34ae9625	3.251927e-07
107	0x34da38e0	4.0647046e-07
108	0x34d0297c	3.8773203e-07
109	0x35037f32	4.8986396e-07
110	0x34a6b28d	3.1049822e-07
111	0x354b3c8f	7.571152e-07
112	0x34b7ac7b	3.4211902e-07
113	0x351e230c	5.8910587e-07
114	0x35d28597	1.5685099e-06
115	0x35ce1b1a	1.5356084e-06
116	0x34e95740	4.3463115e-07
117	0x354419af	7.3053064e-07
118	0x333c3aac	4.3825523e-08
119	0x35158c71	5.5711195e-07
120	0x35783c9a	9.2475386e-07
121	0x3501d684	4.8368406e-07
122	0x35b7d49a	1.3696438e-06
123	0x3526d26c	6.2146023e-07
124	0x354221dc	7.2319904e-07
125	0x35463908	7.384374e-07
126	0x353beda4	7.000874e-07
127	0x3516dce0	5.620077e-07
128	0x358814ad	1.0138807e-06
129	0x342326e8	1.5194712e-07
130	0x35169ae1	5.6104733e-07
131	0x33b1b252	8.274641e-08
132	0x34257a63	1.5411347e-07
133	0x34597ba3	2.0254679e-07
134	0x350e4621	5.3001173e-07
135	0x35ae0ca4	1.2967689e-06
136	0x344b0523	1.8907717e-07
137	0x34a7d6f5	3.1262576e-07
138	0x343c72ac	1.7550582e-07
139	0x33ff9b01	1.1902558e-07
140	0x352d38da	6.453025e-07
141	0x34c6fb88	3.7063387e-07
142	0x3466f607	2.1509923e-07
143	0x34ebebf4	4.394384e-07
144	0x345af982	2.0393603e-07
145	0x35099b53	5.1262504e-07
146	0x35b8eb73	1.3777593e-06
147	0x35354a4a	6.753586e-07
148	0x358eeeab	1.0649286e-06
149	0x347d16be	2.3570735e-07
150	0x32c6d0c3	2.3145168e-08
151	0x34b4cef0	3.367818e-07
152	0x350e76a9	5.3071795e-07
153	0x3405d1e0	1.2462942e-07
154	0x35a315ec	1.2150826e-06
155	0x34e3789c	4.23698e-07
156	0x35970b28	1.1253624e-06
157	0x35976dc6	1.1282325e-06
158	0x3517f851	5.661323e-07
159	0x351a5717	5.7496203e-07
160	0x3651f845	3.1287939e-06
161	0x35417be1	7.207837e-07
162	0x368926b9	4.087426e-06
163	0x3507738a	5.045955e-07
164	0x3569629e	8.694277e-07
165	0x3625d808	2.4712663e-06
166	0x35a339f4	1.2161313e-06
167	0x36975454	4.5099678e-06
168	0x35b829e6	1.3721262e-06
169	0x35c399fc	1.4573448e-06
170	0x3599b1cd	1.1451135e-06
171	0x35c8231a	1.4911377e-06
172	0x359476a9	1.1061394e-06
173	0x35a63007	1.2381942e-06
174	0x358c7fc6	1.0468e-06
175	0x360e1509	2.1171893e-06
176	0x3582f4c9	9.756997e-07
177	0x3648ed64	2.9940502e-06
178	0x368610f4	3.995485e-06
179	0x3691e317	4.3477735e-06
180	0x36142b8c	2.2079066e-06
181	0x360e7da4	2.1232781e-06
182	0x33c617f7	9.224453e-08
183	0x358aa8e7	1.0330958e-06
184	0x35f9fe82	1.8626017e-06
185	0x35b3c683	1.3394314e-06
186	0x3693c289	4.4035883e-06
187	0x363675cf	2.7188687e-06
188	0x361119bb	2.162166e-06
189	0x360abe5f	2.0674413e-06
190	0x35f8979d	1.8521565e-06
191	0x35ac8e94	1.2856494e-06
192	0x33c968fd	9.378889e-08
193	0x329f5afa	1.8551408e-08
194	0x335e773a	5.179684e-08
195	0x31d83883	6.292852e-09
196	0x327ed777	1.4833737e-08
197	0x325ea61a	1.2959868e-08
198	0x337574b3	5.7149645e-08
199	0x341f5247	1.4837961e-07
200	0x32b12a91	2.0624869e-08
201	0x330d91b2	3.296163e-08
202	0x326ab76b	1.3662297e-08
203	0x3225165e	9.60935e-09
204	0x339a27fa	7.1784555e-08
205	0x333ed2a2	4.442939e-08
206	0x32c525dc	2.2951035e-08
207	0x333c27ff	4.3808537e-08
208	0x32c2fc5f	2.2699338e-08
209	0x331b66dc	3.61823e-08
210	0x3444b5f7	1.8320121e-07
211	0x335de4d0	5.1663676e-08
212	0x33e385b2	1.059483e-07
213	0x32d63e8f	2.4941327e-08
214	0x31118470	2.117556e-09
215	0x330dfa0a	3.305653e-08
216	0x339c88d7	7.289207e-08
217	0x322c5722	1.0031529e-08
218	0x34213c9f	1.5016347e-07
219	0x33106e6c	3.362804e-08
220	0x3407cca1	1.2647298e-07
221	0x33f3bf36	1.135035e-07
222	0x33a4494a	7.650176e-08
223	0x338ab9ea	6.459943e-08
224	0x3539528e	6.9038003e-07
225	0x33a1efbc	7.540754e-08
226	0x34679263	2.1566807e-07
227	0x334d8933	4.7855064e-08
228	0x338b8792	6.497352e-08
229	0x341f1b46	1.4817951e-07
230	0x344f314a	1.9296309e-07
231	0x34f12d18	4.4922558e-07
232	0x33a56320	7.701442e-08
233	0x343020f6	1.6403268e-07
234	0x33eea981	1.1113571e-07
235	0x338eb303	6.644952e-08
236	0x3469d667	2.1777815e-07
237	0x344e289d	1.920002e-07
238	0x33b9c16b	8.649916e-08
239	0x344ea6ca	1.9245923e-07
240	0x33cb9ffd	9.482026e-08
241	0x3481446c	2.4077906e-07
242	0x35016db9	4.821591e-07
243	0x34f8d3b6	4.634764e-07
244	0x34b72588	3.4113714e-07
245	0x3415a69a	1.3937316e-07
246	0x328e364c	1.6555667e-08
247	0x3463068d	2.1143406e-07
248	0x3473ce83	2.2706267e-07
249	0x33b454a3	8.3972985e-08
250	0x34dae53b	4.077245e-07
251	0x345b05a4	2.0398016e-07
252	0x34c3f4bf	3.6499657e-07
253	0x34c4ffef	3.669406e-07
254	0x34597a96	2.0254296e-07
255	0x345b338d	2.0414718e-07

exp_avg f4 [32]
0	0x3b469c4b	0.003030556
1	0x38ad3979	8.259988e-05
2	0xb9517583	-0.0001997557
3	0xbb6f8341	-0.003654674
4	0xba4b849d	-0.00077635964
5	0x3c15b4ea	0.009137372
6	0xb7cf6f6a	-2.4728204e-05
7	0xba6123de	-0.00085884135
8	0x3aa00358	0.0012208028
9	0xbb66d129	-0.0035219884
10	0x3ad60a7b	0.0016330028
11	0x3a2981e1	0.0006466192
12	0x3af22cde	0.0018476506
13	0xbb4ab40f	-0.0030930077
14	0x3b45b8b4	0.0030169906
15	0xb9bbd591	-0.0003582654
16	0xb9c4ad6c	-0.00037513243
17	0x3b8e5e67	0.0043447497
18	0x3a07fdfb	0.00051876873
19	0xbbd3f8cf	-0.0064688693
20	0x392d619c	0.00016534928
21	0x3aadf8a7	0.0013272957
22	0xb9213746	-0.00015374747
23	0x3b12f4cb	0.002242374
24	0xbbff5fcf	-0.0077934037
25	0xb9a04e19	-0.00030575765
26	0x391fec66	0.00015251487
27	0xb9a52912	-0.00031501852
28	0x3b9a8cfc	0.0047165137
29	0x3acd702c	0.0015673689
30	0xbae2e36a	-0.0017310206
31	0xb9237c5b	-0.00015591217

exp_avg_sq f4 [32]
0	0x35df0059	1.6614896e-06
1	0x32547823	1.236734e-08
2	0x32f174cd	2.8109207e-08
3	0x36498959	3.003128e-06
4	0x352f84aa	6.538563e-07
5	0x3731b72d	1.0592671e-05
6	0x336441c1	5.314519e-08
7	0x34d9a7de	4.054154e-07
8	0x3515098d	5.5520724e-07
9	0x3631119d	2.6385308e-06
10	0x3563a459	8.4803247e-07
11	0x353f9dc6	7.1382635e-07
12	0x33e616b3	1.07143386e-07
13	0x35d58740	1.59091e-06
14	0x35abb486	1.2793032e-06
15	0x32ccf23f	2.3858886e-08
16	0x33979d76	7.0601274e-08
17	0x3625a07c	2.468033e-06
18	0x34b9f129	3.4634402e-07
19	0x36df9d08	6.6641987e-06
20	0x326613f0	1.3392295e-08
21	0x34d253fb	3.9176652e-07
22	0x32a940e7	1.9703704e-08
23	0x35a74ce1	1.2464844e-06
24	0x371c80cc	9.328312e-06
25	0x32b0d851	2.0587466e-08
26	0x330911f3	3.1914123e-08
27	0x3344a66b	4.5786162e-08
28	0x3661b638	3.3633678e-06
29	0x34cb8eeb	3.7915683e-07
30	0x357dc1f7	9.45321e-07
31	0x32272b7c	9.730567e-09
