04-goal-pose-l6/logs/rsl_rl/joint_position/2026-02-18_13-42-43/model_200.pt (torch, 161339 bytes, 36 tensors)

std f4 [6]
00000000: 773d a03e d49f b43e ba41 823e 76fc 403e
00000010: 9f56 813e 08e5 553e
0.31296894 0.3527819 0.2544077 0.18846306 0.252614 0.2088815

actor.0.weight f4 [64, 25]
00000000: fba6 b0be 3613 a23b 7dc6 01bf c508 963e
00000010: cf37 34bd 92ae 913e 3d78 6a3e 1c68 123e
00000020: 9825 b0bd d651 ea3c 67b3 6bbc 9b3d 3cbc
00000030: fcfc babe a005 543c d8a0 babe 4bad 69be
00000040: 4268 87bf 5492 c2be 8a70 423f df2b 21be
00000050: 21aa 8bbd 065f c03d f180 c03e 02c9 263d
00000060: 3189 1abd f9f0 993e 22df 523f a372 7ebf
00000070: b273 0cbe 28d0 ac3d 9e95 e83d fa84 2f3d
00000080: c849 473c 5f76 cbbc 52f3 493e 7046 943c
00000090: ae65 d4bc de2e 1ebe 7ef2 a03f 37f3 b5bd
000000a0: 47b3 0fbe 490f 2e3f 5e2d 4abe 833e 21bf
000000b0: c88e 29be be95 d83d fac7 c83d 06e5 22be
000000c0: d181 dc3c 74e3 19be e510 01bf d0cf e1bd
000000d0: 3acb e8be c7cc 043e ee48 e03c 1791 023e
000000e0: f5a0 83bd a2a6 01be 429a 52bd d7e7 0fbb
000000f0: 38a8 423d b88d cbbd 07b3 e9bd 896b 40bd
00000100: 69c1 c6bc dd66 cabe bab2 c4be e3dd f7bd
00000110: b31c 0a3e 237d 90be 650a a33e 7d76 78be
00000120: 095b 863d 77a4 d13b 25ba d43c 108d 01bf
00000130: 641f e03d 7dda a33f 0af2 a03e 4309 27be
00000140: bcc6 cc3e a516 143e f7c1 533c ebff f63d
00000150: 8d27 8dbd 61e8 c83d f0b4 ef3a c278 b1bd
00000160: 18bb 53bf efe7 133e 405f f6bc 48fc 48be
00000170: 6b90 2d3c ab92 d33e 5484 7abd ce64 d33d
00000180: 26d2 45be 2bba 9ebd 34b1 133e 64a4 ecbd
00000190: 335d 0ebe 2f44 023f ca1f c8bd 2349 a8bc
000001a0: 6228 7fbe 61d4 883c 3e81 2cbe e82d 76be
000001b0: 9781 e63d 453a 5cbe ce54 1bbc 2ff3 70be
000001c0: 9c23 063e 9b82 d53f a9ee 193e 9392 fcbd
000001d0: 3eb6 e33e 1238 7a3d 4b21 92be ad1a 463e
000001e0: f380 133e 407d 423e 0c6a b53d fc46 a0bd
000001f0: 96cb 233d 6153 093e 0f79 853e 898e 21bf
00000200: dc08 ae3e f65e 9dbe 36a8 0a3d 1b13 613e
00000210: 2d54 d2bd 2231 af3e 6f90 c6bc 038c d5bd
00000220: 902f d5bd 7834 f93d 19e9 303f d95d 1dbd
00000230: e615 dc3c 2a97 2e3f 09e4 0c3e e1d0 45bf
00000240: d787 11be f91f 8fbe bc9b 04be ab99 fdbd
00000250: 59a4 033e a9fe 853d fabd 03bb f82c dbbb
00000260: 2ca4 753f 6167 e03e 4fed 08bf 5518 0d3e
00000270: 4c88 a73d e801 493d 685f f13d f182 82bd
00000280: 028f 453c 1f76 4e3d afe1 843c b1dd edbe
00000290: 9f41 a9bd ff6f 42bd 008a 333e 6d66 4ebd
000002a0: b72f 16be 008f 2a3c 2558 e63d bb5b 963e
000002b0: 8678 28bd f946 523e 2a87 45bc 0344 6dbe
000002c0: e667 e2bd fa7c 923f d0ad 203e a803 dd3c
000002d0: 3278 923e 71b1 05bd 3589 abbc 458a b83b
000002e0: 0b3f 10bd 7767 8ebd 7ee6 7a3c ed3c e33d
000002f0: bb73 98bf cece d7bc 904d c43c 5b0d 6abf
00000300: 7fa8 74be 5cf2 6f3f f456 51bd 3e98 92bc
00000310: 339b 6f3c f6f2 57bd 322d 133e 8d03 ad3d
00000320: d06f 7bbe 965c febe 0863 c33f 5dea 24be
00000330: 9bc2 3b3e 4135 0b3e 5914 72bd d918 933c
00000340: 8ccc a7bd 5abe 9dbd 40ce 353e 8f17 a63d
00000350: 1092 393e b99e 42bf da46 d5bd 49a0 013e
00000360: 83d3 15bf 63ab 893d 194c 2d3f 520c c2bd
00000370: c214 b9bd 1ecb 89bd 3028 723e 9be1 a2be
00000380: 64f1 45be 6f49 3abe dcea 11be 06be 41bf
00000390: 59cf 233e 49b7 5a3f 9f2b 603e 4f50 e9bd
000003a0: a88b a73b d4d9 d6bc 59fe 703e fb6d 883d
000003b0: 01ed b83c 89ab dd3d b56b 063f 785a d53d
000003c0: 897b 1d3e 826b 10bf 372d 26be ca9a 3f3f
000003d0: 3322 bc3d b5d4 843c 86d2 29bd c508 12be
000003e0: d536 83bb 2f7f 583e ce14 dcbd 1161 22bf
000003f0: 869b 183f 2e88 3c3e c0e3 6bbe 5e15 cc3d
-0.34502396 0.004946138 -0.50693494 0.29303566 -0.043998536 0.284535 0.2289743 0.14297527
-0.086009204 0.028603476 -0.014386035 -0.011489297 -0.36521137 0.012940794 -0.3645084 -0.22820012
-1.0578692 -0.38002264 0.7595297 -0.15739392 -0.06819559 0.09393124 0.37598374 0.04071904
-0.037728492 0.3006666 0.82371724 -0.9939367 -0.1371601 0.0843814 0.11356662 0.042851426
0.012163587 -0.024836717 0.19721726 0.018099993 -0.02592739 -0.15447566 1.2574003 -0.0888428
-0.14033233 0.67992073 -0.19743869 -0.6298601 -0.16558373 0.10575436 0.098037675 -0.15907678
0.02691737 -0.15028173 -0.50416404 -0.11025965 -0.4546755 0.12968741 0.027378526 0.1275066
-0.064271845 -0.12661222 -0.051416643 -0.0021958256 0.047523707 -0.0993914 -0.114111 -0.046977554
-0.024262147 -0.39531603 -0.38417608 -0.121028684 0.1348751 -0.28220472 0.31843868 -0.2426395
0.06560332 0.0063977796 0.025967667 -0.5060587 0.10943487 1.2801052 0.3143466 -0.16312127
0.39995372 0.14461763 0.012924663 0.12060531 -0.06892309 0.09809948 0.0018288177 -0.08665611
-0.8270736 0.14443944 -0.030074716 -0.19627488 0.010593514 0.41322836 -0.061161354 0.10321961
-0.19318447 -0.077503525 0.14423066 -0.115547925 -0.1390274 0.5088529 -0.09771688 -0.020542687
-0.24917749 0.016702833 -0.16846177 -0.2404095 0.11255186 -0.21506603 -0.009480668 -0.23530267
0.13099521 1.6680483 0.15032448 -0.12332644 0.44474977 0.06108863 -0.28541026 0.19346114
0.14404659 0.18993092 0.088581175 -0.07826039 0.039989077 0.13410713 0.26068923 -0.63108116
0.33991134 -0.30736512 0.033851825 0.21979944 -0.102699615 0.34217173 -0.024238793 -0.10427096
-0.104094625 0.12168211 0.6910568 -0.03841958 0.02686591 0.6819941 0.13758864 -0.7727185
-0.14211975 -0.2795408 -0.12950033 -0.123828255 0.12855662 0.06542713 -0.0020102249 -0.0066887103
0.9595363 0.43828872 -0.53487104 0.13778813 0.081802934 0.049074084 0.117857754 -0.06372631
0.0120580215 0.050405618 0.016220896 -0.464582 -0.08264469 -0.04747009 0.17533112 -0.05039065
-0.1466664 0.01041007 0.11247281 0.2936686 -0.041130565 0.20534886 -0.012056151 -0.23170476
-0.11054973 1.144439 0.15691304 0.026979282 0.28607327 -0.032639924 -0.020939449 0.0056317174
-0.035216372 -0.06953328 0.015313743 0.11095605 -1.1910318 -0.02634373 0.023962766 -0.9142663
-0.23892401 0.93729186 -0.051108316 -0.01789486 0.014624405 -0.05272194 0.1437271 0.08447943
-0.24554372 -0.49680012 1.5264597 -0.16105027 0.18335955 0.13594534 -0.059101436 0.017956184
-0.08193311 -0.07702322 0.1775446 0.08109962 0.18122125 -0.7602344 -0.104139045 0.126588
-0.58525866 0.067221425 0.6769424 -0.09475006 -0.09037162 -0.06728195 0.23648143 -0.31812748
-0.19330364 -0.18192075 -0.14249748 -0.7568058 0.15997066 0.8543592 0.2189164 -0.11392271
0.005113084 -0.026226915 0.23534526 0.06661602 0.02257395 0.10823733 0.525081 0.10417646
0.15379156 -0.56414044 -0.16228186 0.74845564 0.091862105 0.016214708 -0.041460536 -0.14261158
-0.004004339 0.21142267 -0.10746156 -0.6342936 0.5961231 0.18411323 -0.23036098 0.09965013

actor.0.bias f4 [64]
00000000: a1ba 48be 457c 083e 73bc 7abe 917b 413e
00000010: ddf2 363d 74b1 9abd ea5e 81be 6371 11be
00000020: 5627 d13d 9025 11bb 392f b33d db3b 6cbe
00000030: 14b3 62bd d428 b73d 4eb1 1cbe be8d 473a
00000040: 943b 20be 8144 1cbe 163a 49be 23c9 62bd
00000050: e5e5 21be 97cc 02be d0e4 85be 25e3 f93d
00000060: b8d1 6d3d 1e15 3f3e 2acb f3bc cf25 82bd
00000070: 6b05 25bd 2b7d 13be 4339 17be 3567 1bbe
00000080: eace b33d 7e10 54bc d8a5 ffbd ce2a 943d
00000090: 0926 0bbe 8b22 263d 492a ec3d 47ee a1be
000000a0: 67f8 5e3d eaf3 13be 6d40 583d c440 dfbc
000000b0: 9ad4 a1bd 69f4 e4bd 959b 94bd b7e8 90bd
000000c0: e2e6 133e b538 9e3d 474d 0a3d 3651 ad3c
000000d0: 0cb5 8a3e 0470 c73c f29f c53d 4588 a5bd
000000e0: a614 723e b205 a4bd 85ce 9fbe 97c4 abbd
000000f0: 0484 45be d5fa ecbd d3a4 bb3a 9852 7cbe
-0.19602443 0.13328655 -0.2448595 0.18894793 0.044665206 -0.07553378 -0.25267726 -0.1420341
0.10212581 -0.0022147633 0.087492414 -0.23069708 -0.055346563 0.08943334 -0.15302011 0.0007612369
-0.15647727 -0.15260507 -0.19651064 -0.0553676 -0.15810354 -0.12773357 -0.26151133 0.122015275
0.05806133 0.186604 -0.029759962 -0.06354868 -0.04028837 -0.14403217 -0.14767937 -0.15176089
0.087797 -0.012943385 -0.12482804 0.07234727 -0.13588728 0.040560286 0.11531503 -0.31627104
0.054436114 -0.14448515 0.052795816 -0.027252562 -0.07901879 -0.1117943 -0.072562374 -0.07075637
0.14443544 0.0772566 0.033765104 0.021156888 0.27091253 0.024345405 0.09649648 -0.08082632
0.23640689 -0.08008899 -0.3121225 -0.08387106 -0.19288641 -0.1157128 0.0014316089 -0.24640882

actor.2.weight f4 [64, 64]
00000000: 7ba8 4d3e ab73 a93e b85c fe3d df1e 213c
00000010: 88c6 933e bcf5 9f3e 1202 773d f4d7 2dbe
00000020: aef7 c8be baed 68bd 0340 bbbd 07d6 3ebd
00000030: af74 403e ea18 dc3c b05a be3e f94b 2d3e
00000040: 4ba9 4cbe 3364 9e3c 6023 aa3c 337a a0bc
00000050: 8eb3 6e3e 7742 bb3c b401 1bbe 8a11 26be
00000060: a9fd a73e 094b 563e 6b48 b6bc 5cea a3bd
00000070: 1c76 c1bd f7eb d13e 59f0 04be fd43 663e
00000080: 3f19 cfbd 79d5 83be 5489 9fbe f813 1cbe
00000090: ab2a f93d 45c7 af3c 6251 31be a7dc ae3e
000000a0: b0cf 223e ab51 1a3e 013e 293d 0b7e f73c
000000b0: 106a 0fbe 5216 47bc d229 0dbc d4e4 893c
000000c0: 7d30 4e3d bfcd c4bd c99f 423e 6763 573d
000000d0: 1d1b 3bbe 9861 0b3b 8296 d53d 07c1 d9bb
000000e0: 8e45 d7bd 214a 59be f80e f43d 8980 09bb
000000f0: 3167 e33d 71c5 d83d 54d5 b7bd 3f53 94bc
00000100: ac30 c93e c9c6 9abd 112b 643e c3f1 013e
00000110: 7c23 d23d 3b5b ec3d d14c d93d 0010 913d
00000120: 9fa3 dabd 558a 753e f8ca 98bd 9189 8a3e
00000130: ae64 733e d40b 413e c41e 1c3e a631 b1bb
00000140: 7638 e03b da14 083e d293 d4bd 07f0 833e
00000150: 4e6f 833d 553c 333d 3411 36be 7539 e53c
00000160: d5b4 9abc 9e93 0dbb 1dbd bcbd 52b8 f4bd
00000170: 130b 0dbd bcb9 893e 0f99 14be cd1e 943e
00000180: b28d 3dbd d3bd 7dbe 4777 60bd 1f62 33bc
00000190: 3944 163d 0a76 19bd bce2 8cbd bb51 203e
000001a0: 0487 b33d 3707 fe3d 25ca 523e af70 c43d
000001b0: a0ed d5bd 5261 53bc fe66 b8bd 77d5 3abe
000001c0: 778d 4b3e c30f a93d 4c66 2b3c 4670 a2bd
000001d0: 8712 3e3e 129c 783e b214 2abd 2655 153d
000001e0: 8683 05be 7dc9 3f3d 8181 d33d 21c7 803e
000001f0: 13af fcbd f10a 263e abb1 dc3c b1a3 af3e
00000200: 847e 0ebe 6e91 07be 2759 633c 5120 f03c
00000210: 494b bcbd b78a 0abe 8ac2 3dbb 82b2 133d
00000220: 1692 8d3c bd19 e33d bb66 0fbb 7a1c 3b3e
00000230: 13cc f63d 9289 dbbd fadf 923d e7b1 24bd
00000240: 4495 f7be 3667 ae3d e79e 8a3d 8801 3a3e
00000250: e9eb cf3d 414c 243e fe67 7cbd 7e86 5abd
00000260: 27fb 32bd 7347 67be ab91 1e3c 549f 213d
00000270: 7c17 1ebe 3c29 133d ca3f acbd d56a 14bd
00000280: 5d9e 373e e92f 383d 47f3 e7bc 760d d7bd
00000290: b946 953e e8ed 19be 9b89 0a3e 7a9a c03d
000002a0: b44c e6bd 320e 72bd de22 c6bd 2d1a 8cbc
000002b0: 256e 083e 8462 0f3e 5436 61bb b0e5 4ebe
000002c0: 3e63 023e 3303 493e 3c6d 54bc 31a8 e73d
000002d0: fc36 32be f7a7 253d ebce a7bd 820e 223d
000002e0: 902b d23d 4145 85ba 6002 c13d edf4 b43c
000002f0: 9772 213e f4f0 9b3d 78e4 71bd f70f 85bd
00000300: 3e9a e6bd f7e8 dabb 8162 a13c e561 243e
00000310: 0872 793e 7d54 763d a563 b43b 6a3a c53d
00000320: de2c d7bc 48cb 063e dd47 023d 22a3 8ebc
00000330: d72f 0ebe a37e 043f c441 4dbe 33d2 9d3c
00000340: 7d9e 91be 5ef2 d93b 221e 1bbf b3c7 e7bc
00000350: aca4 5f3c bc31 e53b 25cc 15be 5cf9 ca3d
00000360: f655 f63d 0efe 9d3d 8183 09be 866d 58bd
00000370: ca5d ccbd 04c9 68bb 3a91 0fbf 241d 523b
00000380: 827c 30be 5499 e5bd 3d12 623d c814 a8bd
00000390: a583 3c3c c39c a1bd 74a3 873d 4ffe d6bd
000003a0: d17c 383e 8ee9 843d 5e34 27bd 4213 653c
000003b0: db5b 61be 7b16 a83d 5870 afbc 0dd3 23be
000003c0: d9f2 9d3d 5719 163e befa cf3c 2558 8e3d
000003d0: e0e8 7e3c 1dea 063e 3d01 633e 8239 23be
000003e0: 22b9 85bb c5eb ba3d 03ec 66be 6939 9e3d
000003f0: 21c4 9fbd 8898 233d fbe7 97bd 1d79 35bd
0.20083801 0.3309606 0.124200284 0.00983402 0.28862405 0.31242168 0.06030471 -0.16976911
-0.39251465 -0.05686734 -0.09143069 -0.04659083 0.18794511 0.026867349 0.37178564 0.16923513
-0.19986455 0.019334888 0.020768821 -0.01958952 0.23310682 0.022858841 -0.15137368 -0.16217628
0.32810715 0.20927061 -0.022251328 -0.08003685 -0.09446356 0.4100034 -0.1298231 0.22486873
-0.10112237 -0.25748804 -0.3115946 -0.15241992 0.121663414 0.021457324 -0.17316201 0.3415272
0.15899539 0.15070216 0.041318897 0.03021147 -0.14005303 -0.012151318 -0.008615928 0.016832747
0.05033921 -0.096095555 0.19006266 0.05258503 -0.18272062 0.0021267887 0.10429098 -0.006645325
-0.105113134 -0.21219684 0.119169176 -0.0020981154 0.111036666 0.10584534 -0.08976236 -0.018106101
0.39294946 -0.075574465 0.22282054 0.12689881 0.10260674 0.11540838 0.10610355 0.0708313
-0.106757395 0.2397855 -0.07460588 0.2705808 0.23768875 0.18852168 0.15246111 -0.00540753
0.006842668 0.13289204 -0.10379757 0.25769064 0.06417714 0.04375871 -0.1778 0.0279815
-0.018885056 -0.002160288 -0.09215758 -0.11949219 -0.03443439 0.26899517 -0.14511512 0.2892975
-0.04627771 -0.24779443 -0.05480125 -0.010948687 0.036686156 -0.037466086 -0.06879184 0.15656178
0.087659866 0.1240372 0.20584925 0.09591805 -0.10445714 -0.012901621 -0.09004019 -0.18245493
0.19878183 0.082549594 0.010461401 -0.07931571 0.18561755 0.24278286 -0.041523643 0.036458157
-0.13038453 0.046823014 0.10327435 0.25151923 -0.1233808 0.16215111 0.026940187 0.34304574
-0.1391545 -0.13239071 0.013876236 0.029312285 -0.09194047 -0.13529478 -0.0028955066 0.03605891
0.017281573 0.110888936 -0.00218813 0.18272582 0.12050643 -0.10719599 0.071716264 -0.040208723
-0.48356068 0.0851578 0.067685895 0.18164647 0.10152418 0.16044714 -0.061622612 -0.053350918
-0.04369655 -0.2258585 0.009678285 0.039458588 -0.15438646 0.035927996 -0.08410604 -0.036234695
0.17931505 0.044967566 -0.028314246 -0.10500614 0.2915552 -0.1503216 0.13529055 0.09404464
-0.11245099 -0.05909557 -0.09674619 -0.017102325 0.13323267 0.14002424 -0.0034364657 -0.20204806
0.1273317 0.19630127 -0.012965497 0.11311377 -0.17403787 0.040443387 -0.08193763 0.039564617
0.10262215 -0.0010167734 0.09424281 0.022089446 0.15766369 0.076143175 -0.059055775 -0.06497186
-0.11259888 -0.0066806036 0.01970029 0.16052969 0.24359906 0.060139168 0.0055050426 0.09630282
-0.026266512 0.13163483 0.031806815 -0.017411772 -0.13885437 0.5175573 -0.20044619 0.01926527
-0.2844123 0.006651207 -0.60592854 -0.028293466 0.013650101 0.006994454 -0.14628656 0.09910843
0.120281145 0.07714473 -0.13429071 -0.052838825 -0.09978826 -0.0035520205 -0.56080973 0.0032060826
-0.17234996 -0.11210886 0.055193175 -0.08207089 0.011505996 -0.07891228 0.06622973 -0.10497724
0.18016364 0.064898595 -0.040821426 0.013981642 -0.22007696 0.08207413 -0.021415874 -0.15998478
0.07712335 0.14658104 0.025388118 0.06950406 0.015558451 0.13175245 0.22168441 -0.15939906
-0.0040809074 0.09127001 -0.22550969 0.07725794 -0.078010805 0.039940387 -0.07417294 -0.044304956

actor.2.bias f4 [64]
00000000: 1650 33bd 8151 9fbe 86b6 703d af2a c13c
00000010: 144e 023c af71 36be d135 333e e4c2 54bd
00000020: 266a 383d 0742 bebe c556 2cbe 9fef 903e
00000030: 2c56 63be 0384 3ebd c731 7c3d 4b5a 153e
00000040: a249 98be bea9 273e aca5 0d3e b958 06bd
00000050: c21c d13d 9bd7 29be 6e91 15bd 57a0 1b3e
00000060: 7fc5 5bbd e007 603d ec36 a6bd 925a 00bd
00000070: 68d5 c5be b54e 6dbe 2d65 bfbd 30df 4abe
00000080: a17b 23be e431 babe f66e 80bc be99 2dbe
00000090: f44c 87be f571 44be 2be5 6bbe 76cc b73d
000000a0: 11aa 7b3d b089 a63c e3c9 473e 2379 57be
000000b0: 5339 5fbe 51f0 c7be 4861 99bd c909 943b
000000c0: d436 27bc 4ebd 133e c67a 0fbe 882a 48be
000000d0: 2d39 0dbe b5db 463e 0d6f 7fbc 62e8 623d
000000e0: 1c32 4b3d edd0 40be fc5a c8bd c1aa f6bd
000000f0: 52ed 27be 132c 2c3d 3600 c7be f66e 50be
-0.043777548 -0.3111687 0.058767818 0.023579923 0.007953186 -0.17816804 0.17500998 -0.051943675
0.045023106 -0.3715975 -0.16829975 0.28307816 -0.2220084 -0.046512615 0.06157091 0.14585225
-0.29743677 0.16373345 0.1383273 -0.032799456 0.10210563 -0.16586153 -0.036515646 0.15197884
-0.053655144 0.05469501 -0.08115944 -0.031336375 -0.3863938 -0.23174556 -0.093454696 -0.19811702
-0.1596513 -0.3636619 -0.01567791 -0.16953179 -0.26425898 -0.19184096 -0.2303664 0.08974545
0.061441485 0.020329326 0.19510607 -0.21042304 -0.21799211 -0.39050534 -0.07489258 0.004517768
-0.010205943 0.14427683 -0.14011678 -0.19547474 -0.13791342 0.19419749 -0.015590441 0.0553974
0.049608335 -0.18829699 -0.09782979 -0.120442875 -0.16399124 0.04203422 -0.38867348 -0.20354828

actor.4.weight f4 [6, 64]
00000000: dfd1 40bb f774 1ebe a97b 1b3c bf44 03bc
00000010: be4d 5f3c e36f 213d 1cee 803b 0dad b7bd
00000020: b1a3 06bd 97e2 08be 74e3 6ebd 6d42 fe3d
00000030: 08c8 5dbc 31a4 123e b45c 213d 7996 9a3d
00000040: 6a6e bebd 05b5 f5bc 98d6 63bd 13bc 78bc
00000050: 6eda 353c 8be3 dbbc 3687 7dbd cd23 f33c
00000060: d44a 4abd 6b6a 903b a50e 67bc 8859 86bd
00000070: e672 82be b5be 58bb 44c8 3f3d 6346 09be
00000080: da56 27bd a83b 30be 52cb ae3e 10d1 1dbd
00000090: 77c8 74be faf9 19bd 6032 933c d955 04bd
000000a0: 2f8e a23d 7e09 163c 23d8 e13c 552d 773d
000000b0: b5a4 bdbd af08 91be 3533 e739 e193 d13d
000000c0: 36da 243d 1833 e73c 7821 65bc 6da3 96bd
000000d0: a695 da3c d464 223d 8ec6 f0bb 04ac 083e
000000e0: 8105 aabc 273d c7bc 901e f03c 0561 94bd
000000f0: b353 49ba 986a 233c a2e1 c6bd 96e3 dcb9
00000100: e9c1 b6bb cf23 3ebd 4c6e 233e b3d7 913c
00000110: d6b8 373c e8a2 443d 795b 9bbc 624c a0bd
00000120: 5fa5 26be f2f5 143e c1d2 423d d2cf 0c3d
00000130: 6846 92bc e2d0 80bd 75d9 5abc 511b 82bd
00000140: 80dd b03d 8f03 4bbd ecc3 3abe b9d9 b63c
00000150: fba3 713c 01c9 5c3d e504 e7bc 7d07 8ebd
00000160: 3de5 01be f7fa 903c 79e1 a93c bb2f b43c
00000170: b51a 393d 172e f83c 60e1 b5bd d331 75bd
00000180: a50b a93c 742c 16bd bd50 abbe 2835 8fbc
00000190: 0691 e7bc 2141 333d edcd fe3b cfcf 8fbc
000001a0: f514 1ebe 029a 203e 7fa7 2ebd e8d6 ac3d
000001b0: 318b d03d 0d36 cf3d f056 ca3c 7b22 c53d
000001c0: e0eb bc3b aabf 233d ca16 c73c 20f1 d03d
000001d0: 142a 8f3e 0d25 aabd c588 3dbd c574 f7bc
000001e0: e833 7a3b 23cf 263d 67db 7a3d 13ee 46bd
000001f0: b1e5 423d 8558 253d a961 fd3d 7039 003d
00000200: 11e1 44be 40fb c9bc 4536 82bd 84e6 283e
00000210: 3cb7 23bd 6041 23be baa3 c13c 61e2 6dbc
00000220: d4b3 243e 33d4 a7bd 85c3 ffbd f073 b53d
00000230: ae61 543d 171f 1fbc 0381 153d c14e 0e3d
00000240: 9b89 34bd 9257 c23c 2527 b83d 5b6f 36bd
00000250: 4aca 723d 08a4 9cbc 84f2 a4bc b310 a13c
00000260: 5060 5c3d 43ee dfbb 53a7 17bd 2e33 1bbc
00000270: e185 19bc 357a c0bd 1830 4d3e 32d3 473d
00000280: 0b0c c8bd 36b5 2ebd 395b edbd 32b9 73bb
00000290: 404f f03c f752 e2bb 5888 cabd cfa7 acbc
000002a0: 408c a9bc 99a4 1ebd 6bb5 d03b a7eb f3bd
000002b0: 6f7a 323d cd1c e03b 77fc 04be 37a2 e13d
000002c0: ed36 a93c 55db dc3b f7ab 6b3d 2f70 82bd
000002d0: 1309 eb3d 9d26 b83d f02e aa3d 708c 18be
000002e0: 267a 35bd f790 90bd 9bad 03be 26e0 1bbe
000002f0: 920d dcbd 4130 413d c383 a0bd 9161 adbd
00000300: 4d12 fe3d efb1 753e 4385 a0bd 5305 d73b
00000310: 2de1 2abc d8b7 143e 7e35 68bd 8ff8 c4bc
00000320: 704b 6abc 592f 3d3e b9da 2e3d 1a0a e9bd
00000330: 7185 693e 9d28 df3d e935 eabc aea6 d2bd
00000340: 1802 c13d 8c01 2fbc 7f08 aebc 4dc2 68bb
00000350: a4e4 a4bd 401e 723d 6d71 173d ad12 213d
00000360: a170 6e3d 6cfc 8d3b 8bf6 053d dcec 0f3c
00000370: fb6a 4d3e ae25 bd3d c3ff 6d3d 1507 d33d
00000380: 3dbd b43d 72ce 6f3e 88c5 fd3d e02f 683d
00000390: a882 813e 073d 143d fb6c 893d fad9 1dbd
000003a0: 3b3a 643c 2435 7b3c 712a aabc 1af2 d53d
000003b0: fc92 bd3d 23cc aa3e 6a10 993d ee91 013d
000003c0: 026d 7d3c f833 65bd 8cc6 93bc f27b ad3d
000003d0: 954a 4d3b aee6 62bb 4e16 173d 7fa5 d03d
000003e0: 4fc9 043d f6ca ab3d 53a1 a63d 8cea a23d
000003f0: b513 9c3d 4a8a 7cbc b058 423e 14a7 893d
-0.0029421968 -0.15474306 0.009489932 -0.008011996 0.013629375 0.039413344 0.003934635 -0.08968554
-0.032870952 -0.13367687 -0.058322385 0.124150135 -0.013536461 0.14320447 0.03939505 0.07548232
-0.092984036 -0.029993543 -0.055624574 -0.015181559 0.011099441 -0.0268419 -0.061896525 0.029680157
-0.049387768 0.0044072173 -0.014102613 -0.065600455 -0.25478286 -0.0033072655 0.046821848 -0.13405757
-0.040854312 -0.17210257 0.34139496 -0.038529456 -0.23904596 -0.03759191 0.017968357 -0.032308433
0.079372756 0.009157537 0.027568882 0.060345966 -0.09259931 -0.28326938 0.00044097906 0.10233284
0.040247165 0.028222606 -0.01398503 -0.0735539 0.026682686 0.03964694 -0.0073478883 0.13346869
-0.020754578 -0.024321152 0.029311448 -0.072450675 -0.00076800137 0.009974144 -0.09711005 -0.00042131235
-0.005577315 -0.04642087 0.15960044 0.017803049 0.011213502 0.048006922 -0.018964516 -0.07827069
-0.16274022 0.14546946 0.04756427 0.03437788 -0.017855838 -0.06289841 -0.01335751 -0.063528664
0.08635998 -0.04956394 -0.18238801 0.022320615 0.014748569 0.05390263 -0.028200576 -0.06935022
-0.12685104 0.017697794 0.020737397 0.021995416 0.045191485 0.030295415 -0.088808775 -0.05986197
0.020635435 -0.036663488 -0.33460036 -0.017481402 -0.028267395 0.043763284 0.007776013 -0.017555146
-0.15437682 0.1568375 -0.042640205 0.084394276 0.10182799 0.10117731 0.024699658 0.09625717
0.005765423 0.039977707 0.024302859 0.10202241 0.2796179 -0.08307848 -0.04627301 -0.030207047
0.0038177911 0.040724885 0.061244395 -0.04856689 0.047582332 0.040367622 0.12372143 0.031304777
-0.19226481 -0.024655938 -0.06358007 0.16494185 -0.039969668 -0.15942907 0.023637641 -0.014519305
0.16084224 -0.08194771 -0.12488464 0.08860004 0.051850967 -0.009712002 0.03649999 0.034743074
-0.044076543 0.023723397 0.08991841 -0.04453979 0.05927495 -0.019121185 -0.020135172 0.019661283
0.05380279 -0.006833823 -0.037024807 -0.009472651 -0.009370298 -0.09398309 0.20037878 0.048785396
-0.09767922 -0.042653285 -0.11589665 -0.0037189242 0.029334664 -0.006906863 -0.09889287 -0.021076111
-0.02069676 -0.03873119 0.006369283 -0.119101815 0.043573793 0.006839371 -0.12986933 0.11017268
0.020656073 0.0067400136 0.057537045 -0.063690536 0.1147634 0.0899174 0.08309734 -0.14897323
-0.044305943 -0.070589 -0.12859194 -0.15222225 -0.10744776 0.04716516 -0.078376316 -0.08465875
0.12405834 0.23993658 -0.07837918 0.006561914 -0.010429663 0.14523256 -0.05669164 -0.024044303
-0.014300212 0.18475093 0.04268906 -0.1137888 0.2280481 0.10896418 -0.02859016 -0.10285698
0.094242275 -0.010681521 -0.021244286 -0.0035516203 -0.08051422 0.05911088 0.036973406 0.03932445
0.05821288 0.0043330695 0.032705825 0.008784499 0.20060341 0.092357025 0.05810524 0.10304085
0.08825157 0.23418596 0.12391192 0.056686282 0.25294995 0.036191013 0.067102395 -0.038537957
0.013929899 0.015332494 -0.02077219 0.10446568 0.09256551 0.3335887 0.07473834 0.03163331
0.015467884 -0.055957764 -0.01803901 0.08470906 0.0031324972 -0.003462236 0.036886506 0.10187816
0.032418545 0.08388321 0.08136239 0.079548925 0.07620946 -0.01541383 0.18979144 0.06721321

actor.4.bias f4 [6]
00000000: d95e da3e 4026 acbd 4b41 cbbb 2a38 c1be
00000010: bd87 df3d 9b4d b5be
0.42650488 -0.08405733 -0.006202852 -0.37738162 0.10914562 -0.3541077

critic.0.weight f4 [64, 25]
00000000: 2581 44be 1003 143e 009d 233e 453b 09bd
00000010: 7ef9 5ebe 76a4 043e da47 39bc caf0 203e
00000020: 2e26 053e e290 c53d adbb 92bd c878 c9ba
00000030: 45ae 633e b4ff 8ebf ba43 64bd 834f a23d
00000040: 30fe ddbe 0dfc 0dbc 0b91 5c3e d7a7 dabd
00000050: 484d 413c 369b d8bd fdfb 2abe a74b da3d
00000060: 3009 1dbe 8b96 92bc a762 b03d 23e7 c63d
00000070: 9d76 643c c715 4abd 1ef2 aebb f516 50bd
00000080: 05c1 853d ad3f b43d 9c4a b83d 6cb6 f43c
00000090: 3e83 983c 076e 963e 47b8 2dbf 4728 63be
000000a0: 1311 92bc ef18 f9be de7f 023e 7a54 0c3f
000000b0: 74a6 023e c857 38bd c320 13be 3a01 3c3d
000000c0: 0b1a 3dbd fa21 e13b ea8c 1a3d c383 f5bd
000000d0: 51db 05bd 43d1 133c 780c 153e fd57 6f3e
000000e0: a2ea 31ba 758c b23d 345a 29bd 5463 9f3b
000000f0: 2840 023d 01e9 1cbc a0db 14bf 1b16 be3f
00000100: 8ee5 a13e 5f02 f43d 7eb5 1a3e 886d 033e
00000110: 2f11 66be df42 933c 28b7 16bd 7327 52bd
00000120: 0a8c 0f3d 5512 a43d 13fa 393c 0c75 243c
00000130: 6d75 d8bd 1ffb 76bd b3e7 46bd 303f 143d
00000140: 3ff1 303d 10d6 09be 8a46 023e 3031 023e
00000150: 33ed 2d3c 16c7 14be 8453 d0bc 57ae 87be
00000160: 34f4 823f 5e15 0e3d 44f0 eb3d ad09 d33e
00000170: 9d25 f8bc 6126 96bd cce9 603c 2ee4 423e
00000180: 177a c13c e44f 933d 9cbe 123e dabe f2bb
00000190: 6bdb cf3d 30aa 453e 15ca d53d 249a b83c
000001a0: b2fe f93d ed20 ce3d 50c4 863d 8a1d 743d
000001b0: 6bd7 b13d bc0b 0b3b e46d da3a c82f 5bbc
000001c0: 80b9 11bf 248c ce3f a599 a23e 5ae6 2bbd
000001d0: 513d 003e 6e78 c23d b108 47be c226 83bd
000001e0: 551b 12bd 5420 25be f4b2 f6bd 43f0 1bbc
000001f0: 5c93 c83c b041 e7bc 28e9 5a3c dd2e 7f3d
00000200: a41f 23bc 48c5 9abd 7512 45bd c3c6 a4bb
00000210: b711 dd3d f60f 51bc 884f b43d 097d 36bd
00000220: be15 24bd bd9b 3b3e 2fe4 e2bc 3e1d 8cbe
00000230: 9e6d 9f3b 7fac 66be 2a54 5bbe 0a02 0a3e
00000240: a5a4 0b3e 25b3 5c3e 27c2 083e 57fd 11bd
00000250: 2199 b63d 8d8f 233e 7c1f 11be 1cd3 1b3e
00000260: 1937 3fbb 84d9 fe3d 1499 cebd 5a27 e1bd
00000270: 8f95 dc3c 217b 803d 17b9 d83d 5348 133e
00000280: 0a72 c0bd 3f5d c5bd f2a3 b7be bb0b 913f
00000290: c35c cebc 2de1 a1bd d846 88be 4954 173e
000002a0: fd45 983d 0cbc 70bd 5b67 1bbe ead3 05be
000002b0: 0a84 69be abe0 a73d 34b8 123d f229 553d
000002c0: 9f0f 25bd 3f63 07be b3da 523e 79d6 363e
000002d0: 31d6 893d 8ef6 0e3e 01ac e13d 90a5 92bd
000002e0: 75a2 a03d 68b6 0a3e 8f3b a83d 4e17 2b3e
000002f0: 800d 91be 41b4 7b3b c04a 45bd 04a7 d33e
00000300: 69ec db3d 6984 94be 0707 65bd 2e89 6bbc
00000310: 5edd 14be 6416 4c3d 9137 ab3d 85c9 103d
00000320: f9a4 b8be 3ad8 02be 5c35 ccbd 1927 723d
00000330: 0bb9 59bd 5cc4 ce3c c0b6 803d 5fb2 f03d
00000340: a652 c6bd 3863 7e3d 0ed8 923d 6f24 653d
00000350: 88f2 f5bd 37a3 69bf 8ac8 9abd 2a7b 213e
00000360: 951c 21bf e0af 253e 2bfa fd3e 577d 6f3d
00000370: 7f9a 843d 379f 033d 222f b9bd 2ce3 44bb
00000380: e959 8f3c d5c6 143e ccce 13be b659 fbbd
00000390: a40e 08bd f933 1f3e 8e61 14be 00b0 393d
000003a0: 44be 743d 1d37 b6bc 1585 e1bc 260e 1fbc
000003b0: 1b95 de3d cc94 283e 5156 ea3e d7f3 f2bb
000003c0: 8fae 0cbe 0986 85be a01d 433e 377a 6d3d
000003d0: 0eb7 52bd 37e7 25be f151 1dbe db2b 3d3b
000003e0: ffb9 eabd d8f5 9abc 0215 863e 68ac 643d
000003f0: 33f2 f2bd cc00 45bd 020a 113d 7e6c b1bd
-0.1918989 0.14454293 0.1597786 -0.03350379 -0.21774861 0.12953362 -0.011308635 0.15716854
0.13002846 0.09646775 -0.071647026 -0.0015371079 0.22234447 -1.1171784 -0.05572865 0.07925322
-0.43357992 -0.008666051 0.21539705 -0.10676544 0.01179821 -0.10576479 -0.16697688 0.10658961
-0.15335536 -0.01789405 0.086125664 0.097120546 0.013944295 -0.049337175 -0.005338921 -0.050803144
0.06530956 0.08801208 0.089986056 0.029872142 0.018617269 0.2938082 -0.6785931 -0.22183333
-0.017830407 -0.48651835 0.1274409 0.548164 0.1275881 -0.04500559 -0.14367966 0.045899607
-0.046167415 0.0068705054 0.037732042 -0.11988022 -0.03267986 0.00902206 0.14555538 0.23373409
-0.0006786977 0.08718196 -0.04134579 0.0048641358 0.031799465 -0.009577037 -0.5814762 1.4850496
0.3162045 0.11914515 0.15108296 0.12834752 -0.22467493 0.017976223 -0.036795765 -0.051307153
0.03504566 0.08011309 0.011351126 0.010037672 -0.10569272 -0.06029808 -0.04856081 0.036193073
0.04319882 -0.13460565 0.12722221 0.12714076 0.010615635 -0.1452907 -0.025430448 -0.26500198
1.0230775 0.034688346 0.115204364 0.4121832 -0.030291373 -0.07331539 0.0137276165 0.19032356
0.023617787 0.07192972 0.14330524 -0.007408005 0.101492725 0.19303203 0.10438935 0.022534437
0.122067824 0.10064874 0.065804124 0.059598483 0.08683666 0.002121671 0.001666483 -0.013378091
-0.56923676 1.6136518 0.31757846 -0.041967727 0.1252339 0.094956264 -0.1943691 -0.06403877
-0.035670597 -0.16125613 -0.12045851 -0.009517732 0.024484329 -0.028229564 0.013361253 0.06230055
-0.009956274 -0.0755716 -0.048113305 -0.005028577 0.107943945 -0.012760153 0.08804232 -0.044552837
-0.040059797 0.18321128 -0.027696697 -0.2736606 0.0048653623 -0.2252674 -0.21418825 0.1347734
0.13637026 0.21552713 0.13355313 -0.035641994 0.08915926 0.15972729 -0.14172167 0.1521725
-0.0029177128 0.124438316 -0.10087791 -0.10993834 0.026926784 0.06273485 0.10582178 0.14383058
-0.09396751 -0.09636926 -0.35867268 1.1331705 -0.025190717 -0.07904277 -0.2661655 0.14778246
0.07435224 -0.058773085 -0.15176146 -0.1306912 -0.22804275 0.08197149 0.0358202 0.052041955
-0.0402981 -0.13221453 0.2059124 0.17855252 0.06730307 0.1396124 0.11019135 -0.07160485
0.07843486 0.13546145 0.08214485 0.16708109 -0.28330612 0.0038407 -0.04816699 0.4133836
0.10738451 -0.2900727 -0.055914905 -0.014375968 -0.1453757 0.04982604 0.08360208 0.035348434
-0.36063364 -0.12777796 -0.09971115 0.059119318 -0.053154986 0.025240116 0.06284857 0.117527716
-0.09683733 0.06210634 0.071701154 0.05594295 -0.1200915 -0.9126467 -0.07557781 0.1576964
-0.6293424 0.16180372 0.49604926 0.058469143 0.0647478 0.03213426 -0.09042193 -0.0030042632
0.017498927 0.14528973 -0.14434355 -0.122729704 -0.033217087 0.1554717 -0.14490339 0.045333862
0.059751764 -0.022243077 -0.027529279 -0.009707963 0.10868283 0.16463012 0.4576898 -0.007414322
-0.13738464 -0.26078823 0.1905427 0.05797788 -0.051444106 -0.16201483 -0.1536329 0.0028865251
-0.11461257 -0.018916056 0.26187903 0.055828482 -0.11862602 -0.048096463 0.035409935 -0.08663271

critic.0.bias f4 [64]
00000000: 0a92 c7bd 7c01 ff3c 7e04 aa3d cd73 62bd
00000010: 8dfa 33be 06e3 04be 11fc 4dbe ad4b 69be
00000020: 4e9b ec3c b214 23bd a068 55be c161 253e
00000030: a46a 273e c849 79bd fdc9 fbbd 03e0 3b3e
00000040: ff2a 3e3e 8b68 533e a223 243d 1fd1 cfbd
00000050: dc78 cfbd 9d8a 5bbe 56ef 84bd 9e47 45bd
00000060: a435 063e 8da3 913d 44e6 433e fc09 4dbe
00000070: c42b 40bc 7326 27be 24a4 69bd e3a4 f8bd
00000080: fc6c 43be 96c4 1abe 31ea a93d 3971 76be
00000090: 4865 c03d 7d26 06be 036a 31be 86e4 13be
000000a0: e1ab 5e3d 23ae 47bc 24c4 d1bd dc58 0e3e
000000b0: 7c7c ecbd 7b25 d1bb cb40 c3bc e7c5 19be
000000c0: 4754 033d 25e2 7d3d 275f 5e3e bbb6 0b3d
000000d0: fc1a 36be 7a65 193e c2a3 383e 11b9 313e
000000e0: 6a94 d1bd dc82 a33d 85f1 e13d b126 00be
000000f0: 59d5 2ebc c3b3 7cbe 4ccc 89bd f2cc 39be
-0.097446516 0.031128637 0.08301638 -0.055286217 -0.17576046 -0.12977228 -0.20115687 -0.22782774
0.028882649 -0.03981466 -0.20840693 0.16150571 0.16349274 -0.06086138 -0.122943856 0.18347172
0.18571089 0.20645349 0.040073045 -0.101473086 -0.10130474 -0.21439596 -0.06490962 -0.048164003
0.131064 0.07111273 0.19130808 -0.2002334 -0.011729185 -0.16323261 -0.057041302 -0.12140825
-0.19084543 -0.15114054 0.082966216 -0.24066629 0.09394318 -0.1310062 -0.17325597 -0.14442644
0.054363135 -0.0121875135 -0.10242489 0.13901085 -0.11547181 -0.006382642 -0.023834607 -0.150169
0.032062795 0.061983246 0.21715985 0.034109812 -0.17783731 0.14980116 0.18031219 0.17355753
-0.10233386 0.07983944 0.11032394 -0.1251476 -0.010670983 -0.24677949 -0.0672842 -0.18144587

critic.2.weight f4 [64, 64]
00000000: c3ae 23bd 587f 203e 3c51 48bd f0a8 03be
00000010: 1c52 dd3c 139d 97bd fac2 323c 0bde bd3d
00000020: 04a1 6d3b 9cf5 4c3d 0187 ff3c 1dd4 b7bd
00000030: 4e4e 5fbd ea59 b7bd 3254 5c3d de69 b4bd
00000040: fc4a 12be adc9 01be f110 593d a5dc 883d
00000050: de0d b03d e581 9b3c cc71 a5bc acad f7bd
00000060: 78eb 793d cc5f fcbd cf84 ce3c a649 143d
00000070: 6d19 283d f623 373d 8c92 c9bd 4541 48bd
00000080: 81ae 4e3d e7eb 0cbe 5d21 813d dfc4 1d3d
00000090: c87a ee3d 5267 e4bd 2616 ea3d 86e2 263d
000000a0: 3b81 903b 98e2 e03c 658b 84bc 5f58 bebd
000000b0: 3be6 cabd dca0 babc 9537 d3bc b60f 603d
000000c0: b401 633d fea1 453b b84f 9f3d 2f27 56bd
000000d0: 0b1e d3bd 690b 07bd 4b10 ba3d 5bbb a5bd
000000e0: e2f3 b43d 4923 50bd a0c4 48bc a3a8 843c
000000f0: 338c 933d ba30 b0bd d03e b0bd 3ab3 98bc
00000100: 8935 b23d 2192 1f3e 3ddf 7ebc a1e4 b6bd
00000110: 517a afbd 6ff0 873d 6419 83bd 9cdd 69bd
00000120: 7a9e 7ebd 5fe2 c2bc a58d aabd e04f 873d
00000130: a0fc b1bb e702 a7bc 2e6a d2bd b1c2 b63c
00000140: db92 ed3c 4ecc 97bd 57b5 043e dc8d ed3c
00000150: 7da7 9fbd 43cd b33b f835 313d 342a 34bd
00000160: 06b3 83bd ebe4 b9bd c3de 8a3b 4a27 b63c
00000170: 779d 053d 1d4b 363c 2056 fb3d 12ff 7d3d
00000180: e50e c1bc 0050 953d 531f 7abd e7e0 da3c
00000190: e8ba c4bd a5c0 b7bd b7d6 2bbd d2ca 993d
000001a0: 04e4 85bd 2f2c 4fbd 773c 253d bd7d d53d
000001b0: 5b33 703d 7510 3e3d 132d d43d ce15 6d3d
000001c0: ffdf 9dbd 3b64 093a 8164 7339 4d90 fcbc
000001d0: 1345 36bd 9188 9cbd 0cab 6d3b 6901 0abd
000001e0: 53b4 a7bd 6dac 26bd c861 a33d 4cd5 e1bd
000001f0: 08f5 bcbd 737a 433c 8a91 0e3e efb1 bc3d
00000200: af33 d23d 9155 3cbd e03f 243d 90cf 06be
00000210: a51a 373d fe13 753d 6a8b f73c dbc1 18bd
00000220: 9659 153e 77cb e23c 69f3 b13d cf9e 94bd
00000230: 11d5 b5bd 0ef8 01bd 6218 893d 30c3 083d
00000240: f762 77bd e247 dfbc 5b0c d9bd b850 803c
00000250: c782 debd ad13 bd3d 5a53 423d 2743 86bd
00000260: 3a35 0ebd 4904 483d 7062 93bc ec91 923c
00000270: bc0b 5b3c a68a c83d 1975 a13d 77b1 a03d
00000280: 44da e3bd 414b 7abd d8bc 07bd 0588 36ba
00000290: 3799 c33d 51ac f63d 21fa f03d a8ad e33d
000002a0: afb0 fb3b 327c a9bd fe06 4cbd e1cb b8bc
000002b0: 7142 c1bd 44fa 37bd 81fb 733c b7c4 dabd
000002c0: 5eda cc3d c6bf 8fbd c175 f9bc 55ee 7d3d
000002d0: c5ba 0e3e 27f3 713c 6094 0d3e a1bd 973b
000002e0: f052 d03c 3360 d03d d208 3d3d 4796 d13d
000002f0: 4a70 ab3d d4e4 473d dc96 a73d 0c08 a73d
00000300: 4889 e5bc 7eb3 1cbd fd6d b23d fd23 d03d
00000310: 0b44 90bd bfe1 253e ff9d 0e3d dbdb 9e3d
00000320: e1f3 bfbc 7b52 973d 17ff c3bd e677 5abd
00000330: ad12 09be a0fe f8bc 3457 a33d d8ee 213c
00000340: d517 aabd 6090 b6bd c40d b93d 7b31 cc3d
00000350: d59a 35bd 0df7 4f3d a6ee 10bb f346 7c3d
00000360: fd5e 843d d85b fdbd 4bf9 9a3c 81e4 c0bd
00000370: ff7c 8fbd 315f 19bb e97a e83d dd0a 99bd
00000380: 8dc8 563d d5b4 d9bd fd77 ed3c 0ab2 0f3d
00000390: 0402 9dbd a996 8d3d acac 463c 4ed4 babd
000003a0: 0db0 663d 5cd0 e93d b1c6 9fbd bf2e ae3d
000003b0: 901d de3c bca3 083e c462 e7bd b847 20bd
000003c0: 8a5e e73d 76b2 92bd 881c d13c 97db baba
000003d0: 292b 96bb 2349 ecbc 260f 823c 04d1 e8bd
000003e0: 1c3a 9dbd db27 3d3d bfea 9fbd bfaa 8d3c
000003f0: de95 803d ba75 0e3e c52c e63d 3e9d 3b3d
-0.039961588 0.15673578 -0.048905596 -0.12857413 0.027016692 -0.074030064 0.010910744 0.09270867
0.0036259303 0.05003892 0.031192305 -0.08976004 -0.054518037 -0.089526966 0.053791232 -0.08809255
-0.14286417 -0.1267459 0.052994672 0.066827096 0.08596395 0.018982837 -0.020195864 -0.12093672
0.061015576 -0.12322959 0.025209812 0.03620305 0.041039873 0.04471203 -0.09842405 -0.04889037
0.05045939 -0.13761865 0.06305192 0.03851783 0.116445124 -0.11152519 0.11430006 0.040743373
0.0044099367 0.027451798 -0.01617975 -0.09294199 -0.09907194 -0.022781782 -0.02578334 0.054702483
0.055421546 0.003015637 0.07778877 -0.052283462 -0.103084646 -0.032969866 0.09085139 -0.08092376
0.088355795 -0.0508149 -0.01225391 0.016193694 0.07204475 -0.08603044 -0.086057305 -0.01864015
0.08701617 0.15583088 -0.015556154 -0.08930326 -0.08568252 0.06637656 -0.06401327 -0.05709611
-0.062162854 -0.023789583 -0.08327798 0.06607032 -0.0054317266 -0.020387126 -0.102741584 0.022309633
0.02900069 -0.07412015 0.129598 0.028998308 -0.07795618 0.0054871156 0.04326436 -0.04398556
-0.064306304 -0.09076866 0.004237981 0.022235531 0.032620873 0.011126307 0.122722864 0.062010832
-0.023566673 0.072906494 -0.06106503 0.02671857 -0.09605962 -0.08972291 -0.041952815 0.07509388
-0.06537631 -0.050579246 0.040340867 0.10424373 0.058642726 0.046402413 0.1036016 0.057882123
-0.077087395 0.0005241071 0.00023211727 -0.030830527 -0.044499468 -0.076432355 0.0036265282 -0.03369275
-0.08188691 -0.04069178 0.07977635 -0.11027011 -0.092264235 0.01193105 0.13922706 0.09213626
0.10263764 -0.04598004 0.04009998 -0.13165116 0.044703145 0.05983352 0.030217845 -0.03729425
0.14584956 0.02768491 0.08689005 -0.07256853 -0.0887853 -0.031730704 0.06694104 0.03338927
-0.060397115 -0.027255956 -0.1059806 0.01566349 -0.108647875 0.092322685 0.04744277 -0.06555777
-0.03471873 0.04883221 -0.017991275 0.017891847 0.013369497 0.0979207 0.07883663 0.07846349
-0.11125615 -0.061106924 -0.03313908 -0.00069630175 0.09550708 0.120445855 0.11766458 0.11117107
0.0076809744 -0.082756415 -0.049811356 -0.022558155 -0.09436501 -0.044916406 0.014891506 -0.10682052
0.10002588 -0.07019 -0.030451657 0.06199487 0.13938434 0.014767445 0.13826132 0.00463076
0.025430173 0.101745985 0.04615099 0.10233741 0.08371027 0.048802212 0.08183071 0.08155832
-0.028019562 -0.038257115 0.08712385 0.10163114 -0.07044228 0.16199397 0.034818646 0.07756778
-0.02343172 0.07388779 -0.09570139 -0.053337 -0.1338603 -0.030394852 0.07975617 0.009883605
-0.08305327 -0.08914256 0.09035829 0.09970375 -0.044337112 0.050772715 -0.0022114902 0.0615911
0.0646343 -0.123710334 0.0189177 -0.09418584 -0.07006263 -0.0023402686 0.11351568 -0.07472775
0.052437354 -0.10630194 0.028987879 0.0350819 -0.076664 0.06913502 0.012126129 -0.09122525
0.05632024 0.114166945 -0.07801569 0.0850501 0.027113706 0.1334371 -0.11298135 -0.039130896
0.11297329 -0.07162945 0.0255263 -0.0014256117 -0.004582782 -0.028843468 0.015876364 -0.113679916
-0.07677099 0.046180587 -0.07808446 0.017293332 0.06278585 0.13912097 0.11239008 0.045804255

critic.2.bias f4 [64]
00000000: 2c52 a93d 7a7c c53a 64ad 8abc c2a4 dd3d
00000010: cf41 a7bc 2d0a 46be 733e 6e3d 8d50 1cbe
00000020: 45d0 87be ee1b 5cbd 7558 bf3d 7319 643b
00000030: df3a d73b 8aec a5bd 41af 03bc be40 823d
00000040: 643c cabd a330 0c3e 6cc2 a1bd 6401 6fbe
00000050: 6dbd afbd 36f0 87bc 3ef8 09be e4a2 5d3d
00000060: 60af 68bd 63f9 b73c 0078 55ba d1fb a4bc
00000070: 64ef 2e3e 0a6a ea3d 56fc 6bbd 1d3a b03d
00000080: 5406 01be 721e 473d 5f8f fc3d aa3e d23d
00000090: 80df 063e 2a6f b43d 0e47 fabd eace d93d
000000a0: 1f24 7b3c e57f ae3c b517 8abd d88e c0bd
000000b0: fbf1 813c d0a9 3bbc 4df4 d63c be0b 4bbd
000000c0: 2c71 e8bc 51b9 533d f1be 8c3d 1329 6a3d
000000d0: be91 273e 346a 02be 0207 39bd 7832 243d
000000e0: b41f b13d 24a9 2f3e 568f 943a 15ab 7ebd
000000f0: 5213 6f3d 8378 0bbd 9ab0 103d b3c9 13bc
0.08267626 0.0015067004 -0.016928382 0.10822441 -0.020417122 -0.19339819 0.058165025 -0.15265103
-0.26526085 -0.053737573 0.09343044 0.0034805208 0.0065682973 -0.08101757 -0.008037389 0.06360005
-0.098748 0.13690428 -0.07898411 -0.23340374 -0.08581052 -0.016594034 -0.13473603 0.054110423
-0.056807876 0.022457784 -0.00081431866 -0.020139607 0.17083508 0.114460066 -0.057613693 0.08604834
-0.1260007 0.04861302 0.12332033 0.102658585 0.13171196 0.08810265 -0.12220584 0.10635169
0.015328436 0.02130122 -0.06742803 -0.09402245 0.015862456 -0.011454061 0.026239539 -0.049571745
-0.028374277 0.051690403 0.06872357 0.057168078 0.1636419 -0.12735826 -0.0451727 0.040087193
0.08648625 0.17154366 0.0011334221 -0.062174875 0.058368035 -0.034050476 0.03532467 -0.009020257

critic.4.weight f4 [1, 64]
00000000: 6b33 3b3b 93b6 84bc 80be f5ba 400a 3139
00000010: 14c2 123b 444d 753d c535 35bb 8d7c 363c
00000020: b716 3e3d 2f6e c53c b877 96bb b2f2 d4bb
00000030: a7c5 f6b8 e8bf 9bbc 9d00 8fb9 506d ae3a
00000040: 35f0 12bc ca53 fe3b 2488 8c3a 968f e53d
00000050: 884f 4d3c d27e 0fbd e049 173c 9d7d 86bb
00000060: a593 36bc 1732 94bc 4bae 04ba 4539 2bbd
00000070: 914d d5bc 3e36 553a d087 6f3c 62e5 0bbb
00000080: a28d 053c fb73 15ba ca74 0fbc 69c6 76bd
00000090: 08c1 c7bc f947 70bc 3218 d53b 6f1d ad3a
000000a0: f79f 823c 7f2e f2ba 6707 1f3b 7ce8 0abc
000000b0: 8185 4bbc 4588 1e3c 7927 1bbc 4f71 b2ba
000000c0: b10f 62bc 6335 6fbc ab59 aabb dcc3 303c
000000d0: 30c0 303c a854 ff3b 4953 f1ba 09a5 d639
000000e0: 69bc c23b 3955 52bd cc38 6f3b 7523 0d3c
000000f0: 0c62 6e3b 2373 61bd 5315 6cbc fdf6 85bb
0.0028564583 -0.01620034 -0.001874879 0.00016883854 0.0022393512 0.05988814 -0.0027650457 0.011138094
0.04640838 0.024100391 -0.0045919083 -0.006498658 -0.0001176701 -0.019012406 -0.00027275542 0.0013307724
-0.008968403 0.0077614533 0.0010721725 0.112090275 0.012531169 -0.035033055 0.009233922 -0.0041043297
-0.0111436 -0.018090291 -0.0005061372 -0.041802663 -0.026037963 0.0008133388 0.014619783 -0.002134644
0.008151444 -0.00057011814 -0.008755872 -0.060247812 -0.024384037 -0.014665597 0.0065031284 0.0013207624
0.015945418 -0.0018476992 0.0024265887 -0.00847828 -0.0124219665 0.009676044 -0.00946986 -0.0013614091
-0.013797686 -0.014600131 -0.0051986775 0.010788884 0.010788009 0.0077920742 -0.0018411662 0.00040940222
0.0059428704 -0.051350806 0.003650236 0.008614411 0.0036374358 -0.055041444 -0.014409381 -0.004088281

exp_avg f4 [6]
00000000: b1ba fbb9 b099 a33b a9e3 07bb 0f16 a0bb
00000010: 5ddf 4838 5a64 c0bb
-0.00048013547 0.004992686 -0.0020735061 -0.004885442 4.789174e-05 -0.005871338

exp_avg_sq f4 [6]
00000000: a07d bd39 a105 9f39 870b e039 b86a 733a
00000010: d8a2 233a 4650 653a
0.00036142487 0.00030331037 0.00042733198 0.00092856167 0.0006242222 0.00087476184

exp_avg f4 [64, 25]
00000000: 0d7a a637 6c8f c2b7 8bc5 1237 b934 d1b7
00000010: 53f2 9d37 2f92 eab7 8ca3 2037 0e0d 4fb6
00000020: b752 1b38 432d 8fb8 5752 3f37 e19e 9db8
00000030: 61ff 99b5 e7b7 e634 3a9c e7b3 c7c6 48b6
00000040: d687 d936 b1c6 48b6 d287 d9b6 929f cc38
00000050: 1516 e4b8 f142 6238 63ba afb8 14f4 8738
00000060: c173 0cb9 a78b 0fb8 4346 8139 df23 c739
00000070: 370e ddb9 27c9 f139 4a30 96b9 aede 2d39
00000080: bf8b 32b9 0c4b cdb9 26c2 3fba 07b0 043a
00000090: 8b33 90ba b28f d638 0ef9 9436 3b0a 4e38
000000a0: 3b96 3e39 f704 bd38 3b96 3e39 f604 bdb8
000000b0: 8df9 6939 e784 1839 a175 e139 157c 92ba
000000c0: ce6d 9d3a 8353 5fba c6d4 63b6 2b44 aeb5
000000d0: 508a fdb5 b075 c7b5 277a d0b3 4511 1b35
000000e0: ca7a 02b6 192f a1b7 8f61 c7b7 5ae9 4db8
000000f0: 2a33 e137 48fa c7b8 537a bfb6 64a7 7936
00000100: 0ef2 8db6 1444 79b7 a03f 0837 0f44 79b7
00000110: a03f 08b7 43e9 3d36 0d73 cdb7 44f1 b736
00000120: d51a afb7 e5ed f637 615e 00b8 2b47 3cb9
00000130: af09 ba38 7398 54b9 12c1 c939 129b bfb9
00000140: ffe3 ad39 deda 94b9 da9a 82b8 d6bd 8e39
00000150: 02f7 ad39 3167 3a39 2ef4 3839 d108 c4b8
00000160: 29a7 feb7 c7a0 73b8 e398 2bb9 79bc 97b7
00000170: dd98 2bb9 77bc 9737 1981 54ba bbbd 3939
00000180: d717 32b9 efca 823a d5c9 37ba 4ca7 483a
00000190: 7595 c638 829d 34b8 3ac0 7036 ca3b 5039
000001a0: 21f2 f837 5580 45b9 502a 09b8 eaae 5239
000001b0: 8019 8bb9 fb73 973a d430 c639 e279 1f3a
000001c0: 4dc8 8bb8 09b9 f9b7 2063 d4b8 c62c f3b5
000001d0: 8466 0db8 5f31 f3b5 8066 0d38 e7a1 d439
000001e0: 66ca 0a38 1cc7 38b9 afdb 183a 2c8e ecb8
000001f0: 9915 e8b9 714a 6239 b45e 81b9 b0a4 6d38
00000200: f33b 83b9 af4b 8539 bfb7 a7b9 e5ab deb5
00000210: a2d2 ac36 39b2 0ab9 cfe7 3fb9 681c 84b9
00000220: 3d2a 51b9 33b7 4d38 0306 2eb8 cb8e 2538
00000230: 9674 0739 528c d136 9774 0739 458c d1b6
00000240: 9314 233a 5183 13ba 871d f238 a17f 16ba
00000250: 34a1 f339 6062 58ba fdee 5db8 3caa ccb8
00000260: 891c 60b9 b202 c639 7f4f 70b9 dce2 e638
00000270: bb8e cdb5 de54 9538 5d3f 17b9 5764 bf39
00000280: ac41 e4b9 a115 04b7 d131 82b8 13a7 0bb8
00000290: 222d b8b8 c62b 03b9 98d7 f8b7 c32b 03b9
000002a0: 95d7 f837 1499 39b9 4b9b 75b7 a878 d8b9
000002b0: e653 763a 6f6b 30ba 467b a139 afc5 c7b9
000002c0: 2a48 aab7 59e5 86ba c9d7 eb3a 1907 e1ba
000002d0: 9b80 9d3a d5cd 2fb9 28bc adb9 8b88 9739
000002e0: 594a b739 1b8b 8536 eb5c 7539 675f a7b9
000002f0: 650f 4837 a82a f0b8 bc16 3dba 2ecc 73b9
00000300: bc16 3dba 2ecc 7339 d78b d7ba dfcb 9e39
00000310: b14a c6ba b3d2 813b bf72 51bb 9aad 333b
00000320: 61f9 df38 3560 54b8 cbd6 3cb8 2fd6 25b7
00000330: 5d2a 94b8 7690 2f37 6f68 26b9 a75b cdb8
00000340: 65a8 9339 61fc afb8 1445 0eb8 b356 d239
00000350: e76d 54b7 c9f8 0ab5 8056 1938 3a7f f2b6
00000360: af1a 6ab8 b57f f2b6 ae1a 6a38 17e0 57b8
00000370: 6fe6 56b9 43da 91b7 f2c1 d137 1e37 57b9
00000380: a67c 2a39 54a8 07ba 76cb 253a b75d a3b8
00000390: 2f8b 093a 67e0 02ba 28d2 213a 147b dcb8
000003a0: a4f4 eab9 8d39 9337 12c4 d9b9 cf99 c039
000003b0: aa2f 093a 6610 1eb9 6bd9 1e38 09ee d3b8
000003c0: 4eae 86b9 00d5 a333 50ae 86b9 cddc a3b3
000003d0: 19c6 93ba 5618 763a a2d0 03b9 8a61 833a
000003e0: 2c17 68ba 6b96 a33a aa6d 1139 051f adb9
000003f0: dc0f 4bb9 db06 e738 0117 9cb8 7f83 eeb8
1.9845576e-05 -2.3193388e-05 8.748272e-06 -2.4939292e-05 1.88287e-05 -2.7963046e-05 9.574822e-06 -3.0853002e-06
3.7031914e-05 -6.827202e-05 1.1403658e-05 -7.515937e-05 -1.1473713e-06 4.2974645e-07 -1.0785193e-07 -2.9918026e-06
6.4829173e-06 -2.9917976e-06 -6.4829155e-06 9.7572e-05 -0.00010876 5.3944943e-05 -8.3793675e-05 6.482765e-05
-0.00013394562 -3.422392e-05 0.00024657146 0.00037982964 -0.00042162996 0.00046116972 -0.00028646208 0.0001658152
-0.00017027462 -0.0003915656 -0.0007315002 0.00050616305 -0.0011001689 0.000102310805 4.4397375e-06 4.9123755e-05
0.00018175777 9.013147e-05 0.00018175777 -9.013146e-05 0.00022313576 0.0001454536 0.00043002985 -0.0011175895
0.0012010874 -0.0008519219 -3.3949486e-06 -1.298385e-06 -1.8890223e-06 -1.4860907e-06 -9.707974e-08 5.776713e-07
-1.9442982e-06 -1.9214627e-05 -2.3768078e-05 -4.9093134e-05 2.6845915e-05 -9.535678e-05 -5.706484e-06 3.7201326e-06
-4.2303063e-06 -1.4857407e-05 8.1210455e-06 -1.4857403e-05 -8.1210455e-06 2.829897e-06 -2.4491479e-05 5.481912e-06
-2.087412e-05 2.9436264e-05 -3.0605475e-05 -0.0001795559 8.870975e-05 -0.00020274687 0.00038481556 -0.00036545895
0.00033167002 -0.00028391829 -6.2277264e-05 0.0002722579 0.00033181167 0.00017776784 0.00017638571 -9.3476505e-05
-3.0357e-05 -5.808545e-05 -0.00016364786 -1.8088367e-05 -0.00016364777 1.8088364e-05 -0.0008106395 0.00017713655
-0.00016984284 0.0009978692 -0.00070109713 0.00076543237 9.469214e-05 -4.3062035e-05 3.5874677e-06 0.00019858699
2.9676654e-05 -0.00018835191 -3.2702752e-05 0.00020092321 -0.00026531145 0.0011554951 0.00037801883 0.00060835306
-6.6653454e-05 -2.9769277e-05 -0.00010127411 -1.8117942e-06 -3.3712495e-05 -1.811928e-06 3.371248e-05 0.00040556418
3.3090262e-05 -0.00017621781 0.0005831075 -0.000112798385 -0.0004426658 0.00021580771 -0.00024675357 5.665858e-05
-0.00025030933 0.00025424125 -0.00031989624 -1.6590317e-06 5.1505203e-06 -0.00013227099 -0.00018301535 -0.00025198166
-0.00019947528 4.9046426e-05 -4.149043e-05 3.9472052e-05 0.00012918035 6.245021e-06 0.00012918036 -6.245015e-06
0.00062210223 -0.00056271726 0.00011544959 -0.0005741064 0.00046468677 -0.0008254405 -5.291308e-05 -9.759187e-05
-0.00021372935 0.0003776751 -0.00022917798 0.000110095105 -1.531523e-06 7.1206814e-05 -0.00014424087 0.00036505118
-0.00043536478 -7.872849e-06 -6.208162e-05 -3.3295782e-05 -8.78221e-05 -0.0001250944 -2.9664297e-05 -0.00012509436
2.9664292e-05 -0.00017700001 -1.4639295e-05 -0.00041288626 0.0009396657 -0.0006729876 0.0003080016 -0.00038103524
-2.0299183e-05 -0.001029174 0.0017993386 -0.0017168253 0.0012016477 -0.00016765979 -0.0003313732 0.00028902697
0.00034959873 3.979903e-06 0.00023399635 -0.00031923802 1.1924513e-05 -0.00011452037 -0.00072131655 -0.00023250349
-0.00072131655 0.00023250349 -0.0016444874 0.00030288004 -0.0015128461 0.003961885 -0.0031959263 0.0027416707
0.00010679919 -5.063434e-05 -4.5022734e-05 -9.884635e-06 -7.065081e-05 1.0464448e-05 -0.00015869898 -9.792233e-05
0.0002816349 -8.3916595e-05 -3.3919772e-05 0.00040118917 -1.2661773e-05 -5.1771036e-07 3.6558602e-05 -7.226973e-06
-5.58148e-05 -7.227029e-06 5.5814795e-05 -5.1468694e-05 -0.00020494474 -1.7386983e-05 2.5005054e-05 -0.0002052453
0.00016258899 -0.0005174924 0.00063245685 -7.7899014e-05 0.0005246875 -0.0004992545 0.00061729783 -0.000105133426
-0.0004481423 1.7550565e-05 -0.0004153555 0.0003673569 0.0005233238 -0.00015074163 3.787262e-05 -0.000101056015
-0.0002568834 7.6290235e-08 -0.00025688345 -7.6304424e-08 -0.0011274248 0.00093877816 -0.00012570855 0.0010023576
-0.00088535505 0.0012480741 0.0001386913 -0.00033020243 -0.00019365497 0.00011016215 -7.4429445e-05 -0.000113732174
