04-goal-pose-l6/logs/rsl_rl/joint_position/2026-02-19_13-16-49/model_4350.pt (torch, 161397 bytes, 36 tensors)

std f4 [6]
0.06615311 0.05478378 0.062345803 0.0018691637 0.043498937 0.021655574
00000000: 487b 873d f564 603d 505e 7f3d bafe f43a
00000010: f12b 323d 0867 b13c

actor.0.weight f4 [64, 25]
0.54107195 -0.23563452 -0.13472143 0.12701048 0.318057 -0.26861572 -0.12720075 -0.13613991
-0.09567439 0.19836211 -0.12119911 -0.107597046 -0.3838259 0.73458153 -0.3734716 -0.05623784
1.1453338 -0.12415533 -1.401843 -0.32391334 -0.07477293 0.17805688 0.25938436 0.010471673
-0.0695383 -0.47645488 0.053771663 0.12244743 0.452052 -0.41184026 -0.15097664 0.17002808
0.02579223 -0.057044756 -0.05889215 -0.0834425 -0.04476472 -0.12833913 -0.5701376 -0.6148847
-0.15519235 -0.99179316 -0.11899491 1.1497405 0.07170715 0.29176626 -0.14575224 0.18428093
0.037390787 -0.10699314 -1.0624622 0.14323968 0.11462123 0.64469993 -0.66244507 0.80962974
-0.088790715 0.06833418 0.04948357 0.29400438 -0.071025185 0.05984687 0.23588543 -0.9130501
0.07078364 0.27000287 -2.0799797 0.04445385 2.0941415 -0.12211424 -0.15205166 -0.0019978771
0.19912603 -0.13912842 0.14098218 0.54160416 -0.1307637 -0.4542387 -0.5086814 -0.24519953
-0.5418941 0.2079629 -0.26719254 0.121925004 -0.23301513 0.38932082 -0.03286104 -0.10998182
1.5169712 -0.070422746 -0.042522684 1.2524674 0.10911976 -1.0539964 -0.0013849682 -0.06917629
-0.01887945 -0.1380247 -0.14701687 -0.22018431 0.06407383 -0.06703991 -0.6232199 0.023832196
-0.053173095 0.012472936 0.118388295 0.08895782 -0.13674816 0.25320888 -0.14039719 0.025678448
-0.23757447 2.0948346 -0.23887433 -0.07318349 0.54880023 -0.12799624 -0.5370205 -0.03548686
0.0831736 0.048264265 0.071472034 0.030480143 0.17067476 0.082327135 -0.33785543 0.5004131
0.1611142 -0.0072366786 -0.36016273 -0.436672 0.018097248 -0.09870975 0.26147348 0.052589476
0.19559288 -0.10961345 -1.3443257 0.0701612 0.17084374 -0.07561873 0.15556858 0.16497491
-0.084426515 0.00228934 -0.15243644 -0.0824683 -0.09840081 -0.0050478713 -0.1877281 0.19929591
0.9229663 0.23025307 -0.25558868 0.3937535 -0.3904158 -0.04578595 -0.052390233 0.08052857
0.05414723 -0.041141406 -0.13549007 -1.7142851 -0.38687482 0.13869306 0.11535013 0.05457302
-0.089836664 0.074519865 0.5505313 -0.0051661488 -0.038878758 0.030783966 -0.3433599 -0.064040355
0.4629705 -0.24852534 -0.31528714 -0.06231878 -0.32016936 -0.16738541 -0.22654101 0.0377116
-0.089762986 0.11314653 -0.031710714 -0.28683898 0.41875103 -0.10687824 -0.036895048 1.1092584
-0.17836967 -0.8530799 0.20740753 -0.18755326 -0.15002088 -0.19797885 -0.057104684 -0.12774232
-0.113959216 -0.31285092 0.14330705 -0.09952816 -0.008311051 -0.43458304 0.08187714 -0.038644493
-0.15209952 -0.06047278 0.09755991 0.10993634 -0.10554654 -1.1483532 -0.23815458 -0.045505434
1.1497298 0.21380995 -1.1409684 -0.2191025 -0.12905662 0.04023417 0.11966513 -0.39476153
-0.0611793 0.2188472 -0.29754242 -0.48508292 0.042186256 -0.79530114 0.16199736 -0.48469347
0.2642138 0.076576054 0.13804947 0.005337908 0.040293008 0.016391834 0.5175425 -0.041487996
-0.17462923 0.4560454 -0.07814503 -0.349827 0.14738561 -0.11967051 0.18754095 -0.19920525
0.28859052 0.014842679 -0.055496186 0.23213455 0.021601794 -0.25833806 -0.12843949 -0.2781922
00000000: b183 0a3f 2d4a 71be 6af4 09be 090f 023e
00000010: 5ed8 a23e 0088 89be ea40 02be 4368 0bbe
00000020: eff0 c3bd 701f 4b3e 3d37 f8bd d75b dcbd
00000030: d484 c4be 890d 3c3f ab37 bfbe a659 66bd
00000040: 4c9a 923f 2645 febd 976f b3bf f8d7 a5be
00000050: 8d22 99bd 8b54 363e 07ce 843e 6191 2b3c
00000060: 196a 8ebd e5f1 f3be ad3f 5c3d b8c5 fa3d
00000070: 5c73 e73e badc d2be 9f99 1abe d71b 2e3e
00000080: 3a4a d33c c3a7 69bd e538 71bd e7e3 aabd
00000090: 365b 37bd 556b 03be 8af4 11bf 1569 1dbf
000000a0: beea 1ebe 28e6 7dbf 9ab3 f3bd b22a 933f
000000b0: 33db 923d 6362 953e 1340 15be 24b4 3c3e
000000c0: 1527 193d 381f dbbd c3fe 87bf 6cad 123e
000000d0: 89be ea3d 0e0b 253f 0096 29bf e543 4f3f
000000e0: e8d7 b5bd caf2 8b3d 49af 4a3d be87 963e
000000f0: a775 91bd fe21 753d f38b 713e a7bd 69bf
00000100: 03f7 903d d13d 8a3e 631e 05c0 3d15 363d
00000110: 6a06 0640 0817 fabd 6eb3 1bbe d1ee 02bb
00000120: b2e7 4b3e ae77 0ebe a25d 103e 92a6 0a3f
00000130: ebe6 05be fa91 e8be f238 02bf 9615 7bbe
00000140: 92b9 0abf 3af4 543e 76cd 88be d1b3 f93d
00000150: 859b 6ebe 0f55 c73e 4c99 06bd 263e e1bd
00000160: 1d2c c23f cd39 90bd 442c 2ebd da50 a03f
00000170: 2e7a df3d 5be9 86bf d287 b5ba 4cac 8dbd
00000180: 14a9 9abc 5956 0dbe 978b 16be ff77 61be
00000190: 2439 833d 384c 89bd 578b 1fbf bd3b c33c
000001a0: 08cc 59bd 495b 4c3c 9075 f23d 842f b63d
000001b0: b607 0cbe 98a4 813e 48c4 0fbe 9c5b d23c
000001c0: b946 73be c511 0640 799b 74be 3ae1 95bd
000001d0: 2c7e 0c3f 7211 03be 2d7a 09bf ab5a 11bd
000001e0: ec56 aa3d c0b0 453d ee5f 923d 7eb1 f93c
000001f0: 5dc5 2e3e 219b a83d 63fb acbe 131b 003f
00000200: 1ffb 243e a921 edbb 4067 b8be 7993 dfbe
00000210: ae40 943c 5628 cabd dadf 853e 1068 573d
00000220: 8049 483e 047d e0bd dd12 acbf adb0 8f3d
00000230: a9f1 2e3e fedd 9abd 5f4d 1f3e 2fef 283e
00000240: cfe7 acbd c008 163b 4c18 1cbe 24e5 a8bd
00000250: 5d86 c9bd 9d68 a5bb cc3b 40be 3a14 4c3e
00000260: 8547 6c3f 76c7 6b3e 85dc 82be 0f9a c93e
00000270: 94e4 c7be 0c8a 3bbd 2497 56bd 2aec a43d
00000280: 7cc9 5d3d e483 28bd e9bd 0abe b26d dbbf
00000290: 7514 c6be 8e05 0e3e b03c ec3d f687 5f3d
000002a0: 49fc b7bd df9d 983d 9fef 0c3f cc48 a9bb
000002b0: 553f 1fbd a82e fc3c decc afbe 9727 83bd
000002c0: 780a ed3e 6d7d 7ebe 516d a1be fa41 7fbd
000002d0: 3ded a3be 1567 2bbe 5efa 67be 7b77 1a3d
000002e0: a8d5 b7bd 5eb9 e73d 18e3 01bd 8fdc 92be
000002f0: 8966 d63e fbe2 dabd 431f 17bd 2efc 8d3f
00000300: 8aa6 36be 7263 5abf a462 543e f60d 40be
00000310: 139f 19be f8ba 4abe 9ae6 69bd e2ce 02be
00000320: 7363 e9bd ff2d a0be 15bf 123e 6cd5 cbbd
00000330: 132b 08bc ab81 debe 34af a73d b049 1ebd
00000340: fabf 1bbe 4eb2 77bd 7dcd c73d 4e26 e13d
00000350: c928 d8bd 3dfd 92bf cbde 73be e863 3abd
00000360: 592a 933f fff0 5a3e 410b 92bf 685c 60be
00000370: 6b27 04be 96cc 243d fe12 f53d 2f1e cabe
00000380: 2597 7abd 7b19 603e 7b57 98be ca5c f8be
00000390: 7fcb 2c3d db98 4bbf a3e2 253e be29 f8be
000003a0: 0847 873e e8d3 9c3d d75c 0d3e 9ee9 ae3b
000003b0: 480a 253d 2b48 863c aa7d 043f 51ef 29bd
000003c0: 01d2 32be c87e e93e 800a a0bd 861c b3be
000003d0: 41ec 163e d015 f5bd bc0a 403e 76fc 4bbe
000003e0: 23c2 933e b52e 733c f84f 63bd aeb4 6d3e
000003f0: 3ff6 b03c e344 84be a485 03be 356f 8ebe

actor.0.bias f4 [64]
-0.2948646 -0.15227866 0.13813502 0.09887809 0.015539432 0.071712434 -0.1209547 -0.09943717
0.10192612 -0.04277066 -0.2990154 -0.046678018 -0.21419357 0.0347001 -0.030270478 -0.09281054
0.048917055 -0.2727725 -0.022599094 -0.10112156 -0.12159991 0.030946692 -0.25493586 -0.2920951
-0.061450977 0.2532035 -0.18688926 0.19562705 -0.061501987 -0.1017147 -0.14727569 -0.35956272
-0.11892515 -0.2469572 0.019335112 -0.3950857 -0.02964448 -0.27288735 0.22992468 0.09713185
-0.01604678 -0.19451655 -0.13833655 0.08249975 -0.057624254 -0.23726504 -0.016041916 -0.19892657
0.042279683 -0.046217468 -0.2966961 -0.26041514 -0.19745043 0.07026213 0.08905634 -0.20825851
0.11368265 0.31141344 0.29194257 -0.11143973 -0.047647614 0.11505885 -0.3199028 -0.42770714
00000000: 7ef8 96be f0ee 1bbe 4473 0d3e 9980 ca3d
00000010: 1a99 7e3c f8dd 923d 19b7 f7bd b7a5 cbbd
00000020: a4be d03d 4a30 2fbd 8c18 99be 7331 3fbd
00000030: 8f55 5bbe b121 0e3d cbf9 f7bc 7413 bebd
00000040: 405d 483d d6a8 8bbe bc21 b9bc d218 cfbd
00000050: 6009 f9bd eb83 fd3c f486 82be 7d8d 95be
00000060: 05b4 7bbd e4a3 813e e65f 3fbe 7552 483e
00000070: 82e9 7bbd cc4f d0bd 70cf 16be 9b18 b8be
00000080: 078f f3bd 59e2 7cbe ab64 9e3c ac48 cabe
00000090: fbd8 f2bc e4b7 8bbe 6071 6b3e 10ed c63d
000000a0: 8974 83bc 592f 47be 19a8 0dbe a1f5 a83d
000000b0: 6907 6cbd 9bf5 72be 566a 83bc 68b3 4bbe
000000c0: 762d 2d3d 874e 3dbd 8de8 97be 2255 85be
000000d0: 7230 4abe 97e5 8f3d 2c63 b63d b841 55be
000000e0: 73d2 e83d 9571 9f3e 7f79 953e 833a e4bd
000000f0: 252a 43bd f9a3 eb3d 4dca a3be 6efc dabe

actor.2.weight f4 [64, 64]
-0.17867446 0.0648554 -0.11560601 0.002332381 -0.015805323 -0.22775613 -0.21746476 -0.05723638
0.064128555 -0.12865825 0.10303968 0.008445573 0.061367005 0.01790707 -0.06816176 -0.18621528
-0.06476049 -0.052070513 0.06323313 0.09951597 0.2055071 0.025762964 0.11151146 -0.061598912
0.011119251 -0.19618744 0.00073687424 -0.008227887 0.020576978 0.021313723 -0.16343597 0.05890928
0.02873514 -0.13899289 -0.09045916 0.23343924 -0.06270851 -0.039365742 -0.17805757 -0.060409643
0.08165918 -0.019092562 0.06860555 -0.10079608 0.12219659 0.07554638 -0.2471238 -0.031717353
0.14843999 -0.11424127 0.039139863 -0.043494303 0.15576285 -0.031949263 -0.10574163 -0.08655123
-0.10217985 -0.16730338 -0.14483196 0.18441202 -0.09459086 -0.053218205 0.09007855 -0.094783954
-0.12942828 -0.17881392 0.07089114 0.04370902 -0.08227435 -0.025818879 -0.06366601 0.19745117
-0.11565976 0.1203386 0.006246815 0.00043814594 0.14545922 0.12102801 0.09678823 -0.016725902
0.19711304 -0.031901143 0.02980851 0.04963198 -0.08118399 -0.007742891 -0.19946119 -0.11404823
-0.029613487 0.13255304 0.16623168 0.11877299 0.19195057 -0.098986425 0.22390409 0.24421982
0.11035571 -0.07704067 -0.031055886 -0.28664848 -0.099641286 0.03701727 -0.004486718 -0.01682773
-0.2594251 0.07155354 0.028817184 0.09716708 -0.2567761 0.0031065417 0.18144482 0.11153742
0.0762204 -0.15523472 0.0040803268 -0.021658106 -0.023370741 -0.11237553 -0.08279228 -0.109433375
-0.1402166 0.10400528 -0.061351962 -0.047448702 -0.18357532 0.05336897 -0.12523444 0.17080595
0.04041647 -0.13107581 -0.038143545 -0.08344163 -0.12499237 -0.2835275 -0.02422953 0.005031563
-0.18707801 -0.008987762 0.065179266 0.12654802 -0.07649649 -0.17374681 0.036143113 0.09622376
-0.13654757 0.0368392 -0.19888963 0.1852617 0.02149649 -0.13885055 -0.09430072 -0.014907397
-0.19852754 -0.21404454 0.015181865 0.15841982 0.5384631 -0.14052616 -0.13365494 -0.023003383
-0.1834531 -0.037086654 -0.16056271 0.24000256 -0.178986 -0.029615963 0.095234044 -0.24290957
-0.05525844 0.117935866 -0.09385003 -0.040201806 0.024905056 0.5321399 -0.24107496 -0.093178086
-0.10487961 -0.14408943 -0.038928524 0.104209945 0.101930015 0.1892392 0.20039864 -0.005600126
-0.12664206 0.011933784 0.102716304 0.13948128 -0.23912008 0.09622564 0.37568596 0.19568454
-0.09908549 0.11347627 -0.053291496 -0.028444448 0.07794861 -0.038060345 0.17894585 0.025653495
-0.06273073 -0.08825326 0.0070957593 0.034365114 0.10810837 -0.19409837 0.028300887 -0.008881865
-0.19971865 -0.16473405 -0.14010736 0.08100018 -0.033917688 -0.10675205 0.20488231 -0.14209956
-0.1486018 -0.39396942 0.035148133 -0.017437264 -0.05267742 -0.0030682038 -0.19693668 0.03958063
0.08760512 -0.057797305 0.12857139 0.30948836 0.016600836 -0.038042746 0.23210534 -0.27002048
0.10788866 0.110050775 -0.09529064 -0.06779049 0.009223327 0.11025551 -0.1489377 -0.1254111
-0.04159716 0.087798715 0.19920385 0.04678404 0.030137217 0.0461679 0.0032934516 0.13506886
0.081433535 0.022682432 0.07948809 -0.1718749 -0.16891666 -0.08428038 0.1876173 0.14556648
00000000: 70f6 36be e8d2 843d d8c2 ecbd dcda 183b
00000010: 2a7a 81bc e738 69be 15af 5ebe b270 6abd
00000020: d555 833d fdbe 03be 7806 d33d 4d5f 0a3c
00000030: f85b 7b3d d9b1 923c 6598 8bbd 38af 3ebe
00000040: 26a1 84bd e447 55bd 5f80 813d 07cf cb3d
00000050: 7470 523e da0c d33c 1f60 e43d 244f 7cbd
00000060: 852d 363c 5ce5 48be cb2a 413a 42ce 06bc
00000070: 0d91 a83c 1e9a ae3c c25b 27be db4a 713d
00000080: f565 eb3c 2754 0ebe a742 b9bd b20a 6f3e
00000090: 526d 80bd f93d 21bd b954 36be 1a70 77bd
000000a0: ee3c a73d 0168 9cbc 1181 8c3d 2d6e cebd
000000b0: 3542 fa3d 0fb8 9a3d 050e 7dbe 0eea 01bd
000000c0: a700 183e 54f7 e9bd 1f51 203d 1527 32bd
000000d0: 4c80 1f3e 3bdd 02bd 118f d8bd c541 b1bd
000000e0: ab43 d1bd 9451 2bbe d44e 14be 81d6 3c3e
000000f0: dab8 c1bd 55fb 59bd 1a7b b83d 171e c2bd
00000100: d988 04be ff1a 37be 602f 913d 3b08 333d
00000110: 747f a8bd 1d82 d3bc 5363 82bd a430 4a3e
00000120: 06df ecbd 1574 f63d 15b2 cc3b f4b6 e539
00000130: 43f3 143e 89dd f73d e838 c63d c204 89bc
00000140: 00d8 493e c6aa 02bd fa30 f43c e74a 4b3d
00000150: cb43 a6bd 14b8 fdbb 8e3f 4cbe 1e92 e9bd
00000160: fc97 f2bc fcbb 073e a338 2a3e 413f f33d
00000170: b18e 443e 65b9 cabd 1d47 653e c314 7a3e
00000180: 2d02 e23d 80c7 9dbd ea68 febc 97c3 92be
00000190: bb10 ccbd 6c9f 173d 5205 93bb 4fda 89bc
000001a0: 5ed3 84be aa8a 923d 0412 ec3c 89ff c63d
000001b0: 2878 83be 1f97 4b3b accc 393e bb6d e43d
000001c0: 7119 9c3d daf5 1ebe 43b4 853b 576c b1bc
000001d0: ff73 bfbc 2425 e6bd 008f a9bd 9b1e e0bd
000001e0: f194 0fbe b800 d53d 324c 7bbd 9259 42bd
000001f0: 2bfb 3bbe 6c99 5a3d 753d 00be c1e7 2e3e
00000200: be8b 253d bd38 06be 683c 1cbd 72e3 aabd
00000210: 00fc ffbd 842a 91be 027d c6bc cfdf a43b
00000220: 6191 3fbe 6841 13bc b57c 853d ce95 013e
00000230: 31aa 9cbd afea 31be cd0a 143d f610 c53d
00000240: 20d3 0bbe b3e4 163d b9a9 4bbe 3eb5 3d3e
00000250: 6819 b03c d72e 0ebe bc20 c1bd 283e 74bc
00000260: ce4a 4bbe 7e2e 5bbe 5bbd 783c ce38 223e
00000270: b8d8 093f 17e6 0fbe d7dc 08be 9771 bcbc
00000280: 21db 3bbe 2de8 17bd 8d6a 24be 3bc3 753e
00000290: 1b48 37be 2d9d f2bc 110a c33d 49bd 78be
000002a0: ad56 62bd 5c88 f13d 7234 c0bd a6aa 24bd
000002b0: b005 cc3c 523a 083f 5bdc 76be 27d4 bebd
000002c0: 1fcb d6bd 2e8c 13be 8473 1fbd 066c d53d
000002d0: afc0 d03d ecc7 413e 4d35 4d3e 4381 b7bb
000002e0: 75ae 01be eb85 433c ed5c d23d 2ed4 0e3e
000002f0: e5db 74be f311 c53d e959 c03e 8761 483e
00000300: 55ed cabd 3f66 e83d 2f48 5abd 5504 e9bc
00000310: 85a3 9f3d 2ae5 1bbd 953d 373e 4727 d23c
00000320: f878 80bd 20be b4bd 8b83 e83b 6fc2 0c3d
00000330: ec67 dd3d b9c1 46be 43d7 e73c 3e85 11bc
00000340: 0c83 4cbe 0bb0 28be 4e78 0fbe 6ce3 a53d
00000350: 46ed 0abd d2a0 dabd abcc 513e 8c82 11be
00000360: 122b 18be 5cb6 c9be 7df7 0f3d 98d8 8ebc
00000370: 47c4 57bd eb13 49bb c5a9 49be 4c1f 223d
00000380: 506a b33d debc 6cbd 38a8 033e 4275 9e3e
00000390: 7afe 873c b6d2 1bbd 06ad 6d3e 2040 8abe
000003a0: bbf4 dc3d 4d62 e13d bd27 c3bd bed5 8abd
000003b0: 701d 173c a4cd e13d 2083 18be c46b 00be
000003c0: c961 2abd d0cf b33d 18fc 4b3e 9fa0 3f3d
000003d0: 53e2 f63c 8d1a 3d3d f3d6 573b 7e4f 0a3e
000003e0: a0c6 a63d 82d0 b93c a7ca a23d f9ff 2fbe
000003f0: 7df8 2cbe 319b acbd c01e 403e 610f 153e

actor.2.bias f4 [64]
-0.18024789 0.09218957 -0.12520984 -0.19108841 -0.11648918 -0.09999577 -0.124010526 -0.06783632
0.12373306 0.020308334 -0.04180173 -0.15186132 -0.24031408 0.05978797 -0.079996794 -0.15006849
-0.23102395 0.017442886 -0.10261119 0.015464765 -0.16062538 0.21558787 -0.23542298 -0.0945555
-0.17546028 -0.13459197 0.0017172333 -0.108086795 -0.026510328 0.051610723 -0.0362262 0.13187642
-0.1775195 -0.23387916 -0.24013226 0.015533894 -0.42148873 0.029677931 -0.16959578 -0.049460538
-0.12478076 -0.31964064 -0.1585971 0.07809239 -0.12795255 0.14826894 -0.2364263 -0.3074281
0.028932147 -0.19707353 -0.2273976 -0.03844278 -0.0021763684 0.1863102 -0.095795594 -0.1988243
0.0458032 -0.027878953 0.129065 0.01237714 -0.30632395 0.025973931 -0.021015625 -0.18494312
00000000: e792 38be e3cd bc3d 0237 00be aeac 43be
00000010: e191 eebd 95ca ccbd 3bf9 fdbd c5ed 8abd
00000020: c267 fd3d aa5d a63c 4a38 2bbd 8981 1bbe
00000030: e514 76be 3be4 743d 5cd5 a3bd 8eab 19be
00000040: 8b91 6cbe 62e4 8e3c d125 d2bd ed5f 7d3c
00000050: fb7a 24be 11c3 5c3e b912 71be 50a6 c1bd
00000060: dcab 33be 7ad2 09be ca14 e13a 9c5c ddbd
00000070: 302c d9bc c465 533d ed61 14bd 9d0a 073e
00000080: acc7 35be 057e 6fbe 3be5 75be e081 7e3c
00000090: 5fcd d7be 221f f33c 84aa 2dbe 2297 4abd
000000a0: 0e8d ffbd f0a7 a3be 4767 22be e7ee 9f3d
000000b0: fe05 03be d0d3 173e bc19 72be 3767 9dbe
000000c0: 1c03 ed3c a5cd 49be ebda 68be 2d76 1dbd
000000d0: 67a1 0ebb 1ac8 3e3e 7b30 c4bd 9998 4bbe
000000e0: 239c 3b3d 6762 e4bc 9e29 043e 7dc9 4a3c
000000f0: 7ed6 9cbe 48c7 d43c f628 acbc bb61 3dbe

actor.4.weight f4 [6, 64]
0.06986359 -0.072871685 -0.06191871 -0.047920447 -0.045901768 0.0947982 0.089941904 -0.04204583
0.0665062 -0.08994928 -0.14384651 -0.2600018 0.03607604 -0.1151655 -0.032261472 -0.08534053
0.048760116 0.08162998 0.01893512 0.030675229 -0.05089196 -0.078316964 0.04186843 0.026164807
0.1170843 -0.07002708 -0.0394849 0.0050332826 0.015030346 -0.087811396 -0.1438748 -0.030844567
0.030936021 0.18070449 0.048426405 0.07319764 0.08118202 -0.033287697 0.040024735 -0.16300061
-0.105495125 0.06935787 -0.107410625 0.14957419 0.0367655 -0.12241562 0.05635321 -0.026184017
-0.11262873 0.15689845 0.023730267 0.0897067 -0.1395288 -0.04615748 -0.14970079 0.026828377
0.12635143 0.038022686 0.118706614 0.12478081 -0.0023859215 -0.2386677 0.0754488 0.033716388
0.025015984 -0.109493084 0.1541835 0.11180988 0.034365963 0.036975484 0.102054715 0.013239926
0.050761506 -0.11048093 -0.017263358 -0.12807769 -0.07401499 0.011481206 -0.100127466 0.06640326
0.027766546 0.025699861 0.09807665 -0.1336483 0.0255167 -0.08317912 -0.035466865 0.13231866
-0.10990775 -0.1798691 -0.16166414 -0.0783857 -0.00034214288 0.004086535 0.030508813 -0.04550417
0.11132433 0.05635923 -0.01893998 -0.041888822 0.09827353 0.13081226 -0.05273782 0.028351491
0.02224102 0.14082806 0.097632475 -0.21417654 0.1356339 -0.10805265 0.047256015 0.042460848
0.06939806 0.12591094 0.06138149 0.08448731 -0.3264479 -0.08574403 -0.0011928865 -0.04058173
0.030441869 -0.06890641 -0.056669988 0.033596534 0.08509968 -0.15505615 -0.058272094 -0.028178822
0.009919073 0.06257962 0.039878964 -0.030186355 -0.04651123 -0.14447755 -0.030007206 -0.11638774
0.15586355 0.046371356 -0.21410455 -0.008757388 -0.10057125 -0.038609356 0.0154604195 0.002437393
-0.112646416 0.023308557 0.08847864 -0.007019544 -0.12513022 0.08193151 0.00902654 0.008753434
-0.12829792 0.03755133 0.07896786 0.024498736 0.045718364 -0.051961936 0.10675503 0.02024386
-0.18182617 -0.19086446 -0.081939034 0.043492332 -0.15295257 -0.079085566 -0.15540794 0.009151855
-0.057576094 -0.16309866 0.09898527 0.13823824 0.08079442 -0.0034241732 -0.018310199 -0.08160472
0.061031304 0.04888477 -0.09596279 0.040964622 -0.02132328 0.0295574 -0.0022044743 -0.03165421
0.13626067 0.048277754 0.06567624 -0.026968727 -0.07152359 0.057541583 -0.0015565502 -0.032979097
-0.07397861 -0.03119351 -0.07108098 0.0010928275 -0.12812947 0.0016737789 -0.22343674 -0.0983269
-0.08372321 -0.12084271 -0.084435016 -0.09302121 -0.11807472 -0.21176866 -0.17132312 -0.008375411
-0.11704987 -0.29046988 -0.053100675 -0.12530328 -0.1358171 -0.08093742 -0.028634159 -0.15996166
-0.23476607 -0.045508876 -0.10137922 0.026134003 -0.011993746 -0.23638327 -0.103478484 -0.026617024
0.053001404 0.034919262 -0.095472 -0.18801011 -0.15368126 0.20019135 -0.07586437 0.08267036
-0.09748872 -0.21035662 0.078094624 0.120760806 0.11705664 0.005595275 -0.11329598 -0.06473844
-0.021625822 0.2064254 -0.13298722 0.031076103 -0.07232321 0.050262716 -0.12758318 -0.09143832
-0.036346443 -0.07204722 0.018585954 -0.22979935 -0.14063196 -0.013990808 -0.049028516 -0.090209104
00000000: a414 8f3d c03d 95bd 799e 7dbd 3b48 44bd
00000010: 7e03 3cbd 8f25 c23d 7633 b83d 4038 2cbd
00000020: 6734 883d 5437 b8bd 804c 13be f51e 85be
00000030: 78c4 133d e4db ebbd 9b24 04bd 04c7 aebd
00000040: b0b8 473d 9e2d a73d d31d 9b3c 9e4a fb3c
00000050: 1674 50bd a564 a0bd 3b7e 2b3d 9457 d63c
00000060: e5c9 ef3d 5c6a 8fbd ebba 21bd 3cee a43b
00000070: d741 763c 76d6 b3bd ea53 13be bfad fcbc
00000080: 8a6d fd3c 990a 393e c45a 463d a5e8 953d
00000090: c242 a63d ae58 08bd faf0 233d a2e9 26be
000000a0: d40d d8bd 800b 8e3d 1afa dbbd fa29 193e
000000b0: 6c97 163d 0ab5 fabd a0d2 663d dd7f d6bc
000000c0: e4a9 e6bd fda9 203e fa65 c23c 25b8 b73d
000000d0: a3e0 0ebe a00f 3dbd 2a4b 19be 2fc7 db3c
000000e0: 4562 013e adbd 1b3d 741c f33d 158d ff3d
000000f0: 1f5d 1cbb 4e65 74be e784 9a3d 321a 0a3d
00000100: 52ee cc3c e93d e0bd 48e2 1d3e 94fc e43d
00000110: 53c3 0c3d 9b73 173d 1002 d13d 46ec 583c
00000120: 4ceb 4f3d d343 e2bd e36b 8dbc cc26 03be
00000130: 2c95 97bd ab1b 3c3c a10f cdbd 6ffe 873d
00000140: ab76 e33c 8488 d23c 69dc c83d 1adb 08be
00000150: 6608 d13c d159 aabd b445 11bd 8b7e 073e
00000160: 5017 e1bd 9b2f 38be 498b 25be af88 a0bd
00000170: a461 b3b9 57e8 853b 9eed f93c 9562 3abd
00000180: 03fe e33d f0d8 663d 0428 9bbc 9d93 2bbd
00000190: a243 c93d a6f3 053e 9d03 58bd 6341 e83c
000001a0: cd32 b63c 3b35 103e 89f3 c73d 1851 5bbe
000001b0: 9de3 0a3e b54a ddbd 868f 413d 6deb 2d3d
000001c0: 9220 8e3d ccee 003e 286b 7b3d af07 ad3d
000001d0: 2e24 a7be 919a afbd a15a 9cba 0739 26bd
000001e0: 3a61 f93c ce1e 8dbd ca1e 68bd 859c 093d
000001f0: be48 ae3d 0ac7 1ebe b8ae 6ebd 46d7 e6bc
00000200: 9c83 223c be29 803d 2058 233d 6049 f7bc
00000210: 8f82 3ebd ecf1 13be acd1 f5bc b25c eebd
00000220: b29a 1f3e e4ef 3d3d 393e 5bbe 267b 0fbc
00000230: 4df8 cdbd d824 1ebd b34d 7d3c abbc 1f3b
00000240: 2ab3 e6bd 96f1 be3c 4a34 b53d 3404 e6bb
00000250: 2322 00be b5cb a73d 0ee4 133c 906a 0f3c
00000260: 8860 03be 6ccf 193d e7b9 a13d 93b1 c83c
00000270: 2e43 3b3d 0ad6 54bd 62a2 da3d 74d6 a53c
00000280: a430 3abe f971 43be a7cf a7bd 0425 323d
00000290: 999f 1cbe 9df7 a1bd 4223 1fbe a9f1 153c
000002a0: e9d4 6bbd 5603 27be cab8 ca3d 538e 0d3e
000002b0: 8b77 a53d 1868 60bb 45ff 95bc 6020 a7bd
000002c0: f6fb 793d 663b 483d 2488 c4bd 85ca 273d
000002d0: 29ae aebc 5c22 f23c f178 10bb d8a7 01bd
000002e0: eb87 0b3e e5be 453d 4481 863d 85ed dcbc
000002f0: f67a 92bd b9b0 6b3d 2805 ccba 1715 07bd
00000300: 1982 97bd 8889 ffbc e892 91bd 353d 8f3a
00000310: 5f34 03be b362 db3a 9acc 64be 9d5f c9bd
00000320: 1377 abbd 627c f7bd 44ec acbd e781 bebd
00000330: 29d1 f1bd e2d9 58be 546f 2fbe 0539 09bc
00000340: d8b7 efbd 78b8 94be 1880 59bd 814f 00be
00000350: a313 0bbe 85c2 a5bd 2f92 eabc fdcc 23be
00000360: 8466 70be 8467 3abd e99f cfbd fa16 d63c
00000370: 6b81 44bc 750e 72be 87ec d3bd f20b dabc
00000380: 0018 593d 8007 0f3d d386 c3bd b985 40be
00000390: 9f5e 1dbe f6fe 4c3e c75e 9bbd 144f a93d
000003a0: 2ba8 c7bd ba67 57be 13f0 9f3d 7151 f73d
000003b0: 64bb ef3d 9258 b73b b907 e8bd 9695 84bd
000003c0: a328 b1bc 2e61 533e cd2d 08be 5093 fe3c
000003d0: 311e 94bd 47e0 4d3d 2aa5 02be 0444 bbbd
000003e0: 02e0 14bd 7e8d 93bd 9241 983c 8550 6bbe
000003f0: d301 10be b439 65bc 20d2 48bd 8dbf b8bd

actor.4.bias f4 [6]
0.043962248 -0.037566874 0.29280838 0.18550526 0.017725317 0.21758431
00000000: c211 343d b9df 19bd fbea 953e 17f5 3d3e
00000010: af34 913c 6cce 5e3e

critic.0.weight f4 [64, 25]
0.05249248 0.06757138 0.035202857 -0.062462807 0.028166762 -0.060174096 -0.028556786 -0.15330394
-0.0049174456 0.1118827 0.09713489 0.112819836 -0.3862308 -1.5329691 0.71009934 0.008248004
0.15092939 -0.105542205 0.03709705 -0.06472189 0.03917207 -0.12429797 0.10979044 0.06622246
-0.09425425 -0.26468888 -0.1784983 -0.09604058 0.124541365 -0.0065708105 -0.005258592 -0.07873816
-0.02983133 0.0043065883 0.051531926 0.01091666 0.0262189 0.15093742 4.1757927 -0.27838817
-0.11930475 1.6887538 -0.027587196 -1.841925 0.16208783 0.0545663 0.10899246 -0.03702971
-0.024261335 -0.005942604 0.17604819 0.012592968 0.08632574 -0.26188904 -0.06557742 0.088914
-0.012135832 -0.06972499 0.049417622 -0.014856514 0.01320656 -0.033897053 0.43119517 2.3824472
-0.49361908 0.031537734 0.7872565 0.14067021 -0.6276409 -0.054050017 0.021160265 -0.11570359
0.06896745 0.083010346 0.008290822 0.04759013 -0.10313716 -0.2440432 -0.1520325 -0.06372457
0.14420101 -0.121025614 -0.13820955 0.35949436 -0.019508839 0.3877926 -0.16030768 0.60942304
-0.6624799 -0.17663355 0.30294782 -0.100997165 0.2770088 0.18320198 0.16374165 -0.00570424
0.11364036 0.069519356 0.13038471 0.07608652 -0.0039800787 0.010655993 -0.23939124 -0.31025034
0.15948404 0.0539786 -0.016022237 -0.007848729 -0.1353654 -0.008251642 0.043882605 -0.057646703
0.2519428 0.5242172 -0.45760387 -0.12549673 -0.1044555 0.022688702 0.16286357 -0.15647681
0.015854629 0.1659007 -0.06616632 -0.057051238 -0.08296451 0.11326891 0.23309322 0.077853106
0.05145409 0.004005255 0.09354077 0.036574 0.037170116 0.11503423 -0.07752498 0.028527336
-0.010840481 -0.20578621 0.78233546 0.57690483 -0.043069396 -0.61339086 0.10553417 0.7133608
0.04806858 0.08410455 -0.056765925 0.04368185 -0.120921515 -0.08256992 0.2754393 0.17847618
-0.15800145 0.25090393 -0.41899082 -0.18216532 0.06699843 -0.04299814 0.049552463 -0.010105664
0.15767857 -0.100175105 0.219765 -2.5912843 -0.21186136 -0.092667155 -1.4102461 -0.059530005
1.6352886 0.15549238 0.14456598 0.17240167 0.20906936 -0.09708918 0.12931116 0.15174863
0.28278577 -0.101124555 -0.2646374 -0.41646618 -0.01762627 0.08062028 0.011166178 -0.040932886
0.028688425 -0.0053989287 -0.12617788 0.14631273 1.1616834 0.14697868 -0.00087210996 0.094514996
-0.1120173 -0.23704499 0.03899241 -0.0873485 -0.0075889835 -0.10237504 -0.10181654 -0.072059475
-0.23197526 0.24196832 -0.041542653 0.048595436 0.12402099 -0.13251927 0.0235951 0.0015201962
-0.025332564 0.0057004485 0.020789199 0.04630754 0.25860828 0.07121393 -0.40541494 -0.18163176
0.82042986 -0.085206226 -1.0373276 0.00074458687 -0.07681369 0.059365015 -0.028360493 0.033627074
0.005215631 0.25148004 -0.10757447 0.041086864 0.057296515 0.13786238 -0.0042611444 -0.1191698
-0.09433115 0.059141304 0.08657316 -0.09007473 -0.029151237 0.38902652 -0.029194657 0.23077753
0.20820442 -0.2174209 0.09802482 0.05385863 0.10127905 0.056446206 -0.060387444 -0.118134744
0.10477436 0.1298774 0.08102531 -0.29685727 -0.0577985 -0.08145417 0.038498607 0.10354517
00000000: 5b02 573d dd62 8a3d df30 103d 00d9 7fbd
00000010: fbbd e63c 1d79 76bd ecef e9bc b5fb 1cbe
00000020: 8622 a1bb c222 e53d a8ee c63d 160e e73d
00000030: 0bc0 c5be 5538 c4bf 12c9 353f a322 073c
00000040: 3c8d 1a3e 8326 d8bd 14f3 173d e98c 84bd
00000050: e472 203d ef8f febd cfd9 e03d a49f 873d
00000060: 5f08 c1bd 4d85 87be 42c8 36be ecb0 c4bd
00000070: 8b0f ff3d f44f d7bb 4450 acbb 7941 a1bd
00000080: d560 f4bc 481e 8d3b 2413 533d cadb 323c
00000090: 05c9 d63c 578f 1a3e 18a0 8540 e588 8ebe
000000a0: 0c56 f4bd 1629 d83f 8bfe e1bc 33c4 ebbf
000000b0: 5afa 253e ea80 5f3d 7037 df3d 77ac 17bd
000000c0: b5bf c6bc 2dba c2bb fa45 343e bc52 4e3c
000000d0: 8dcb b03d 5216 86be 744d 86bd 8b18 b63d
000000e0: 5ed5 46bc facb 8ebd 226a 4a3d bc68 73bc
000000f0: 5460 583c a3d7 0abd 9dc5 dc3e 047a 1840
00000100: a4bb fcbe b62d 013d a489 493f da0b 103e
00000110: 13ad 20bf 8d63 5dbd 4b58 ad3c 01f6 ecbd
00000120: ce3e 8d3d 5401 aa3d 3ad6 073c deed 423d
00000130: 9339 d3bd 76e6 79be 68ae 1bbe 0782 82bd
00000140: 6ea9 133e 47dc f7bd ce86 0dbe a50f b83e
00000150: 00d1 9fbc c08c c63e b227 24be 2603 1c3f
00000160: 4898 29bf 6ddf 34be fa1b 9b3e 9ad7 cebd
00000170: 19d4 8d3e 4d99 3b3e e4ab 273e a2ea babb
00000180: 47bc e83d 2a60 8e3d 9283 053e 40d3 9b3d
00000190: 526b 82bb 7996 2e3c fa22 75be 22d9 9ebe
000001a0: c94f 233e aa18 5d3d 1141 83bc f597 00bc
000001b0: 3a9d 0abe e531 07bc 3fbe 333d f31e 6cbd
000001c0: a6fe 803e 1933 063f 0e4b eabe 3782 00be
000001d0: c4ec d5bd a8dd b93c b5c5 263e 753b 20be
000001e0: 91e1 813c e0e1 293e 3582 87bd 8fae 69bd
000001f0: 4ce9 a9bd 88f9 e73d fdaf 6e3e 7371 9f3d
00000200: 86c1 523d 843e 833b 4e92 bf3d 9ece 153d
00000210: b13f 183d 1197 eb3d 6bc5 9ebd 29b2 e93c
00000220: 469c 31bc 9fb9 52be 2347 483f 09b0 133f
00000230: 8969 30bd 2f07 1dbf 4d22 d83d d09e 363f
00000240: 8fe3 443d 023f ac3d 6383 68bd bdeb 323d
00000250: b3a5 f7bd 6b1a a9bd 6106 8d3e 76c2 363e
00000260: 22cb 21be 7b76 803e f785 d6be 8c89 3abe
00000270: 7936 893d d11e 30bd 86f7 4a3d 3a92 25bc
00000280: 7e76 213e 9b28 cdbd 130a 613e 9ad7 25c0
00000290: 2ff2 58be 47c8 bdbd f282 b4bf bcd5 73bd
000002a0: 2351 d13f 6539 1f3e 1b09 143e 108a 303e
000002b0: 4716 563e b1d6 c6bd 256a 043e fe63 1b3e
000002c0: 4cc9 903e 641a cfbd 8e7e 87be 0e3b d5be
000002d0: f864 90bc 3f1c a53d 58f2 363c 3ea9 27bd
000002e0: fd03 eb3c 7fe9 b0bb c634 01be 01d3 153e
000002f0: 0bb2 943f 9481 163e 4f9e 64ba 1491 c13d
00000300: 5469 e5bd ecbb 72be 81b6 1f3d c5e3 b2bd
00000310: 02ad f8bb 01aa d1bd 3185 d0bd eb93 93bd
00000320: ec8a 6dbe 8bc6 773e a128 2abd 020c 473d
00000330: b8fe fd3d 22b3 07be 834a c13c 5241 c73a
00000340: 3d86 cfbc d4ca ba3b 1c4e aa3c faac 3d3d
00000350: 4e68 843e 9cd8 913d 8c92 cfbe adfd 39be
00000360: b107 523f 9a80 aebd 27c7 84bf 6130 433a
00000370: 7f50 9dbd bb28 733d 4454 e8bc 8bbc 093d
00000380: e2e7 aa3b fec1 803e 0150 dcbd b34a 283d
00000390: c0af 6a3d cc2b 0d3e 12a1 8bbb 4c0f f4bd
000003a0: b130 c1bd 273e 723d 454d b13d 1a79 b8bd
000003b0: 93ce eebc 7c2e c73e a229 efbc f250 6c3e
000003c0: 8a33 553e 96a3 5ebe 3dc1 c83d de9a 5c3d
000003d0: 646b cf3d 2334 673d d358 77bd a1f0 f1bd
000003e0: f193 d63d 95fe 043e 99f0 a53d adfd 97be
000003f0: 1fbe 6cbd 72d1 a6bd b7b0 1d3d 7d0f d43d

critic.0.bias f4 [64]
-0.051977657 0.18716319 -0.07118901 0.014514682 0.14210367 -0.106048934 0.11299066 0.108407594
0.026808301 -0.120579176 -0.17820068 -0.16484846 -0.09897658 0.09335087 -0.010230388 -0.067420125
0.08607819 0.1721947 -0.19018272 -0.034000453 -0.05145445 0.08077669 0.08811023 -0.031434
-0.06941229 0.0010042985 0.1438709 0.16191067 0.17230941 0.05909598 -0.17117289 0.18284471
0.17355148 -0.050223857 0.07325481 -0.095292956 -0.06752479 0.16128032 -0.14345466 -0.1267455
-0.048723634 0.12025118 -0.0941846 -0.124413334 -0.091000766 0.07283246 -0.05843708 -0.06349298
-0.035658177 -0.16104199 0.03941806 -0.10332571 -0.18552417 0.16176632 -0.074608624 -0.022102881
0.087664105 -0.24705021 -0.03046385 -0.02012117 0.157449 0.08056899 0.004522592 0.16906278
00000000: 86e6 54bd b5a7 3f3e 8bcb 91bd fdce 6d3c
00000010: a083 113e 2f30 d9bd a667 e73d cd04 de3d
00000020: 159d db3c 37f2 f6bd 3d7a 36be 09ce 28be
00000030: 3cb4 cabd be2e bf3d 5b9d 27bc 9013 8abd
00000040: c349 b03d cf53 303e 42bf 42be 0f44 0bbd
00000050: e7c1 52bd 406e a53d 2373 b43d f0c0 00bd
00000060: 0828 8ebd aaa2 833a e552 133e e9cb 253e
00000070: e171 303e a00e 723d f247 2fbe a53b 3b3e
00000080: 7bb7 313e 88b7 4dbd 9e06 963d f428 c3bd
00000090: 704a 8abd ab26 253e c7e5 12be 93c9 01be
000000a0: 6f92 47bd 4046 f63d dbe3 c0bd 6bcc febd
000000b0: 9c5e babd 2f29 953d b85b 6fbd 9c08 82bd
000000c0: 4f0e 12bd 31e8 24be d574 213d 6e9c d3bd
000000d0: 0cfa 3dbe 12a6 253e 68cc 98bd 1a11 b5bc
000000e0: 3d89 b33d bbfa 7cbe 538f f9bc 27d5 a4bc
000000f0: 503a 213e 5b01 a53d 4032 943b cb1e 2d3e

critic.2.weight f4 [64, 64]
-0.04286976 0.089280896 0.040992763 -0.014888814 0.006245569 -0.049518388 -0.01831118 -0.0044706543
-0.008187899 -0.08648908 0.032850116 0.12581554 -0.08990049 0.06402995 0.050148398 -0.03977314
-0.023306688 0.1177743 0.10916029 -0.11852801 0.062282145 -0.041315127 0.017025946 0.053777076
-0.0022060468 -0.11615676 -0.059123356 0.059912417 -0.07305284 0.008802605 0.089601085 -0.038943686
0.009929101 -0.008009697 -0.16094247 -0.056348346 -0.06697931 -0.107980736 -0.091103435 -0.015346228
-0.15067336 -0.12898427 -0.0704506 0.015224308 0.027783161 -0.15006396 0.08468875 -0.12782194
0.07271528 0.0897716 -0.061989333 -0.10046382 -0.09427989 0.015325822 0.15974438 -0.0072363936
-0.030704282 0.04877091 0.06853775 0.023707684 0.06648236 0.05544946 -0.028237185 0.05364554
0.10939236 -0.20211682 0.0032579743 -0.12249672 -0.021127094 0.04750063 -0.06849507 0.15785144
-0.025831465 0.05925362 -0.01407067 0.036479574 0.002658633 -0.08131419 0.07889719 0.075948276
-0.10265388 0.033449404 0.13998178 0.07480515 -0.04876866 -0.035305668 -0.042174935 -0.028938917
0.07435968 -0.10152237 0.08631437 0.09972798 -0.027433522 -0.16471158 -0.027515503 -0.06263349
-0.124678984 -0.061849456 -0.015408008 0.107188895 -0.028744284 -0.1289827 0.2496095 0.050612558
0.021372784 0.07175948 0.06435372 -0.027233537 0.09780299 0.08071675 0.0028795493 0.123885095
0.24033256 0.063779086 -0.017361924 0.061676264 0.097260155 -0.03815087 0.027874967 0.10360931
-0.08583373 -0.06208796 -0.00060447515 0.03015621 0.023158928 -0.038462043 0.0611932 0.026429903
-0.10692517 0.08285377 0.028982408 -0.101206146 -0.03502878 -0.119076915 0.1285143 -0.07475349
0.02592603 -0.07333567 0.071757756 -0.1254094 -0.067705676 -0.06413036 0.032277334 -0.048626587
-0.07702772 0.20472099 0.014440238 -0.036246076 0.091106884 0.025602298 -0.07513598 -0.040820584
0.0605273 0.0870795 -0.008654466 0.12515242 0.11104697 -0.03215663 0.13936086 -0.11328811
-0.063009314 -0.09638049 -0.079116665 -0.09080227 -0.01915276 -0.18847351 0.10361476 0.14883763
-0.087337814 0.053784024 -0.066842414 -0.08710569 0.09881632 0.07000043 -0.069019906 0.14591993
-0.038008988 -0.056951724 -0.044785272 -0.15018219 -0.03129424 0.08776951 0.1517646 0.118000925
0.027349396 -0.0015283575 0.101781435 0.0077682836 -0.0183674 0.015746351 0.029321188 -0.10614796
0.04217259 0.08544632 -8.380452e-05 -0.11104964 0.07334547 -0.09368215 -0.03208058 0.054119937
-0.15180579 0.07496736 0.028901305 -0.07943052 -0.08660356 -0.058659486 0.10665366 -0.20534992
0.05232617 0.004439639 0.029129893 -0.068406604 -0.021848926 -0.01987836 0.085651495 0.120764315
-0.16249697 -0.02807734 0.046942655 0.06340951 -0.110570244 -0.021384442 0.054207865 0.04580275
-0.05471493 -0.14637187 -0.067620836 0.09384457 -0.06767402 0.09616007 0.10042211 0.09341821
-0.017165735 -0.10828376 0.04219691 -0.06544746 -0.11419125 -0.021012153 0.056041542 -0.015892575
0.13427366 0.06870659 0.007980079 -0.03579989 0.13084476 -0.051106762 0.038819876 0.090811424
0.0533276 0.020125069 0.03356966 -0.047194272 -0.08894223 -0.08208959 -0.10532139 -0.07204888
00000000: 3498 2fbd e7d8 b63d 07e8 273d 36f0 73bc
00000010: a1a7 cc3b cbd3 4abd 5401 96bc 917e 92bb
00000020: 8a26 06bc 3021 b1bd d88d 063d cad5 003e
00000030: c01d b8bd 2222 833d 6868 4d3d 29e9 22bd
00000040: abed bebc a733 f13d 6e8f df3d d0be f2bd
00000050: 901b 7f3d 0d3a 29bd ff79 8b3c 5a45 5c3d
00000060: 5393 10bb 98e3 edbd 552b 72bd b966 753d
00000070: ba9c 95bd cd38 103c c680 b73d 6a83 1fbd
00000080: abad 223c 1b3b 03bc 1ace 24be 86cd 66bd
00000090: 732c 89bd 0125 ddbd 7094 babd bf6e 7bbc
000000a0: 1e4a 1abe 7414 04be 6748 90bd 606f 793c
000000b0: 8399 e33c 5eaa 19be 4c71 ad3d c1e3 02be
000000c0: c0eb 943d 2cda b73d 87e8 7dbd fabf cdbd
000000d0: d115 c1bd 2819 7b3c 0894 233e 451f edbb
000000e0: 8c87 fbbc 01c4 473d 855d 8c3d 9e36 c23c
000000f0: e727 883d f91e 633d ab51 e7bc 6dbb 5b3d
00000100: 1a09 e03d b6f7 4ebe bd83 553b 8fdf fabd
00000110: ba12 adbc 0590 423d 2547 8cbd cfa3 213e
00000120: 829c d3bc edb3 723d ab88 66bc 9b6b 153d
00000130: 763c 2e3b 0e88 a6bd da94 a13d c58a 9b3d
00000140: 333c d2bd 3e02 093d 6257 0f3e 7133 993d
00000150: a5c1 47bd ad9c 10bd a0bf 2cbd 4f11 edbc
00000160: e349 983d f6ea cfbd 97c5 b03d 2f3e cc3d
00000170: 44bc e0bc 27aa 28be 3168 e1bc fd45 80bd
00000180: b257 ffbd db55 7dbd df71 7cbc da85 db3d
00000190: 2279 ebbc 0a14 04be a299 7f3e 1d4f 4f3d
000001a0: fa15 af3c a2f6 923d e2cb 833d de18 dfbc
000001b0: ef4c c83d d34e a53d d2b6 3c3b 78b7 fd3d
000001c0: bd19 763e 9c9e 823d 983a 8ebc 40a0 7c3d
000001d0: 5530 c73d 1644 1cbd 0b5a e43c 1e31 d43d
000001e0: 98c9 afbd f24f 7ebd a475 1eba 280a f73c
000001f0: cbb7 bd3c 608a 1dbd b9a5 7a3d 8683 d83c
00000200: 95fb dabd 3daf a93d 846c ed3c 2b45 cfbd
00000210: 577a 0fbd 99de f3bd 4199 033e 5c18 99bd
00000220: d362 d43c 0331 96bd bbf5 923d 526b 00be
00000230: 46a9 8abd c756 83bd 3d35 043d ac2c 47bd
00000240: b6c0 9dbd 61a2 513e bf96 6c3c c476 14bd
00000250: 3f96 ba3d e9bb d13c e5e0 99bd 7c33 27bd
00000260: 79eb 773d bd56 b23d 76cb 0dbc f527 003e
00000270: 986c e33d acb6 03bd 9db4 0e3e 9903 e8bd
00000280: 070b 81bd 2263 c5bd eb07 a2bd 8af6 b9bd
00000290: 40e6 9cbc 33ff 40be fa33 d43d e468 183e
000002a0: 2bde b2bd a34c 5c3d ade4 88bd 7864 b2bd
000002b0: 3660 ca3d 635c 8f3d 4f5a 8dbd 096c 153e
000002c0: 50af 1bbd 3646 69bd c370 37bd 5cc9 19be
000002d0: 642e 00bd 80c0 b33d 2e68 1b3e 78aa f13d
000002e0: d70b e03c 2b53 c8ba c972 d03d 168d fe3b
000002f0: 3b77 96bc 7efe 803c fd32 f03c 1a64 d9bd
00000300: 2abd 2c3d 7bfe ae3d 36c0 afb8 fe6d e3bd
00000310: 2636 963d 6ddc bfbd ed66 03bd deac 5d3d
00000320: fa72 1bbe 7d88 993d 6ec2 ec3c 78ac a2bd
00000330: 355d b1bd ee44 70bd 3c6d da3d 4047 52be
00000340: f753 563d 647a 913b d0a1 ee3c c318 8cbd
00000350: 85fc b2bc f1d7 a2bc 0d6a af3d 4853 f73d
00000360: 9b65 26be 7302 e6bc f146 403d d8dc 813d
00000370: a772 e2bd 6d2e afbc 1109 5e3d aa9b 3b3d
00000380: c31c 60bd 82e2 15be cb7c 8abd 9531 c03d
00000390: ad98 8abd 92ef c43d 1baa cd3d 0c52 bf3d
000003a0: 289f 8cbc e0c3 ddbd abd6 2c3d 5109 86bd
000003b0: 1add e9bd ae21 acbc d18b 653d 2531 82bc
000003c0: 097f 093e 0ab6 8c3d e1be 023c e8a2 12bd
000003d0: 2bfc 053e 5355 51bd 9701 1f3d 57fb b93d
000003e0: 0b6e 5a3d 54dd a43c 5780 093d c84e 41bd
000003f0: 5827 b6bd 961e a8bd beb2 d7bd 5d8e 93bd

critic.2.bias f4 [64]
0.07962052 -0.05850217 -0.020425469 -0.15725787 -0.29156688 -0.19810392 -0.050564237 0.062902406
0.00971452 -0.03375665 0.10923452 -0.17033733 -0.023391524 -0.033097364 -0.057788596 -0.10845406
-0.039773475 0.10467033 0.17483045 -0.1320503 0.14982215 0.07692217 -0.012610278 -0.027078565
0.07060205 -0.15419151 -0.026531791 -0.07773341 -0.11964902 0.05126302 -0.101588555 0.021914765
0.03158761 -0.09167381 -0.09398104 -0.055191092 0.04749878 -0.12041465 -0.08949574 -0.004829751
-0.040657803 -0.10160346 -0.11166078 -0.031461123 0.028457062 0.13085018 -0.090813786 0.16598399
0.06378044 0.055750925 0.111742236 0.006700164 -0.12038535 -0.07158138 -0.042248785 0.028119376
0.038892724 -0.028640168 -0.098354265 -0.09765803 0.09132162 -0.16207957 0.005605637 0.15177798
00000000: 1510 a33d f99f 6fbd 5053 a7bc 3508 21be
00000010: 4148 95be c1db 4abe 721c 4fbd fad2 803d
00000020: a629 1f3c 6a44 0abd 59b6 df3d e96c 2ebe
00000030: 959f bfbc 1a91 07bd bcb3 6cbd 2a1d debd
00000040: 83e9 22bd 665d d63d c106 333e 3238 07be
00000050: fa6a 193e 5f89 9d3d 579b 4ebc ded3 ddbc
00000060: cf97 903d 61e4 1dbe 3359 d9bc b232 9fbd
00000070: 8c0a f5bd 2cf9 513d a90d d0bd 9886 b33c
00000080: 0262 013d 7abf bbbd 2279 c0bd 0e10 62bd
00000090: 158e 423d f59b f6bd 8b49 b7bd e342 9ebb
000000a0: cc88 26bd 7a15 d0bd 68ae e4bd 61dd 00bd
000000b0: c91e e93c 97fd 053e 94fc b9bd b5f7 293e
000000c0: 529f 823d 155b 643d 1dd9 e43d 0d8d db3b
000000d0: 988c f6bd 4299 92bd 100d 2dbd 9b5a e63c
000000e0: fa4d 1f3d c99e eabc f66d c9bd ef00 c8bd
000000f0: d406 bb3d 30f8 25be 7eaf b73b b06b 1b3e

critic.4.weight f4 [1, 64]
0.014656281 -0.05392288 0.03292802 0.039012074 0.12525946 0.057847716 -0.021540336 0.065829165
-0.037952915 0.010584149 -0.06944246 -0.0057701394 -0.05815594 -0.031634375 0.07682271 0.03421711
-0.028616346 -0.033445615 -0.12993264 0.10893405 0.045472015 0.03493572 -0.032586314 0.03643757
-0.08056484 -0.07802473 0.0054838727 -0.059772547 0.10483127 -0.06845215 0.11070357 -0.17323278
0.044559386 -0.037883528 -0.058658775 0.027001984 7.409653e-05 0.10971988 0.030206367 0.0324411
-0.03109941 0.045324214 -0.03344344 -0.11176462 -0.013525171 -0.041306768 -0.0690762 -0.14273651
0.0037179878 -0.0010848487 -0.029879352 -0.020419426 0.022527536 0.01090949 -0.06656027 -0.072262645
-0.023166765 0.025803464 -0.054324623 0.0141838435 -0.0019975416 0.048372842 0.029937072 -0.076110594
00000000: e620 703c 3dde 5cbd 88df 063d 20cb 1f3d
00000010: 0444 003e baf1 6c3d 5c75 b0bc 71d1 863d
00000020: 8474 1bbd 2369 2d3c d937 8ebd 7013 bdbb
00000030: ec34 6ebd 0c93 01bd 3a55 9d3d 3e27 0c3d
00000040: d46c eabc 45fe 08bd 100d 05be d118 df3d
00000050: dd40 3a3d c218 0f3d 3a79 05bd 903f 153d
00000060: 2eff a4bd 6ecb 9fbd 0fb2 b33b 0fd4 74bd
00000070: c7b1 d63d a430 8cbd 8eb8 e23d ef63 31be
00000080: e783 363d c22b 1bbd 2f44 70bd 4433 dd3c
00000090: 4664 9b38 d1b4 e03d 5873 f73c f5e0 043d
000000a0: 31c4 febc e2a5 393d fdfb 08bd d9e4 e4bd
000000b0: ae98 5dbc 4931 29bd d377 8dbd 8529 12be
000000c0: 7ca9 733b 7b31 8eba 8bc5 f4bc a446 a7bc
000000d0: ab8b b83c b8bd 323c c050 88bd 70fe 93bd
000000e0: 3ac8 bdbc c961 d33c 7f83 5ebd 5a63 683c
000000f0: 30e9 02bb 9a22 463d 973e f53c dfdf 9bbd

exp_avg f4 [6]
-7.895119e-05 -0.000305468 -3.8770406e-05 -0.0075733364 0.0001839103 -0.00020617561
00000000: 9992 a5b8 3927 a0b9 689d 22b8 c029 f8bb
00000010: 0cd8 4039 d830 58b9

exp_avg_sq f4 [6]
4.9853697e-06 6.3471653e-06 5.673506e-06 0.0048615024 9.363656e-06 3.7851612e-05
00000000: 0048 a736 bcf9 d436 0c5f be36 3d4d 9f3b
00000010: 9918 1d37 dcc2 1e38

exp_avg f4 [64, 25]
-0.00016600672 -6.256882e-07 -5.3924286e-05 0.00016282323 8.207914e-06 8.4628235e-05 -3.2460033e-05 2.0717234e-06
1.9134548e-05 7.34248e-05 -6.672721e-06 -2.786797e-05 -1.2071048e-05 -5.0924933e-05 -1.2322316e-05 -1.9221687e-05
1.0947593e-05 -1.9221687e-05 -1.0947564e-05 -0.00037167867 -1.5687805e-06 -6.613031e-05 0.0002912893 1.8450419e-05
0.00015717802 -0.00016605851 1.246444e-05 -2.6775258e-05 4.6942863e-05 9.0181995e-05 6.804105e-05 -8.631856e-05
-7.633519e-06 -1.7412938e-06 0.00016963096 0.00011621605 4.322796e-05 -2.3909926e-05 -5.9668084e-05 -1.231391e-05
-2.191437e-05 -1.6286325e-05 -2.191437e-05 1.6286322e-05 -0.0004019225 -1.4098807e-05 -2.4220772e-05 0.00013875462
0.00021174071 0.00015488104 2.1360009e-05 -1.3644724e-05 -8.635098e-05 -3.292072e-05 -4.3676293e-05 2.1634585e-06
8.250194e-05 -1.1344166e-05 -4.4132117e-05 0.00014928084 -1.2781503e-05 0.00014009421 -8.022802e-05 1.838757e-05
-8.736809e-05 -0.00018466356 -2.9627328e-05 -0.00018466356 2.9627327e-05 0.00014559965 -3.3717524e-06 -0.00017005364
-0.00014255241 -0.000115307965 -5.664506e-05 -2.6733098e-06 -3.1703144e-06 -3.0451949e-05 8.2789935e-05 -2.5905076e-05
4.4991204e-05 2.792023e-05 2.7427039e-05 -5.4669854e-05 -1.47520395e-05 -4.0231604e-05 -6.372501e-05 -1.2818785e-05
4.8653433e-06 -4.838969e-06 -1.2517756e-05 5.1391835e-06 -1.2517756e-05 -5.13918e-06 1.3321974e-05 5.823448e-06
-8.859416e-05 0.00015132761 -6.055151e-05 7.695705e-05 -0.00011718012 3.035508e-05 9.367635e-05 0.00020707432
0.00010070173 7.166326e-05 -1.3038979e-05 2.2303497e-05 -1.777665e-05 3.428342e-06 2.1680193e-05 -3.797027e-05
3.0714487e-05 -3.5633275e-05 3.1713203e-05 7.282176e-05 1.7051509e-05 7.282176e-05 -1.7051503e-05 -0.00023413224
6.2530555e-05 0.00020012814 0.00044584819 0.0001888758 0.00015716132 -7.188848e-05 2.5183732e-05 6.949283e-05
0.00026648375 7.623047e-05 0.00012445405 2.8121061e-05 1.6315522e-06 1.9234292e-06 0.000108045475 -5.6795267e-05
-2.4075985e-05 -1.3969882e-06 -1.3167911e-05 9.649844e-06 2.8689743e-05 -2.232319e-05 2.8689743e-05 2.2323185e-05
-0.00014246821 3.932486e-05 0.00014280468 0.0005140075 0.00014623937 0.00023490014 -0.00028656673 5.3542844e-05
0.00010212463 0.0002569063 0.0002531844 0.00018470106 -7.854961e-05 3.8070192e-07 8.441927e-05 0.00025346852
5.6078843e-05 1.3849384e-06 6.568952e-06 -9.043945e-05 2.2690445e-05 5.7391368e-05 -2.6464064e-05 5.7391368e-05
2.6464093e-05 -0.0006727672 4.1492614e-05 0.00028280664 0.00049373775 0.00051741005 0.00033841256 -3.2424145e-05
-1.6601549e-05 -0.0001077697 0.00013864269 -8.212251e-05 9.514572e-05 1.6502798e-05 3.247475e-05 -6.664196e-05
5.521852e-05 -3.9924227e-05 -1.128307e-05 -3.246157e-05 -1.6774178e-06 -3.120339e-05 -7.014078e-05 8.818913e-07
-7.014078e-05 -8.81879e-07 -5.9626545e-05 -1.03333905e-05 -0.00024583936 0.00030238726 -0.00016988056 0.00020578946
2.4726585e-05 1.35064465e-05 4.4785105e-05 5.582445e-05 6.8511654e-06 3.4585995e-05 2.4918818e-05 -1.6033078e-05
1.2147658e-05 2.5287469e-05 -4.9690832e-05 -2.4773059e-05 8.18742e-06 1.1390143e-05 8.024775e-06 1.4392367e-05
-1.26182385e-05 1.4392367e-05 1.2618245e-05 6.657264e-05 1.4619173e-05 9.6054995e-05 8.284293e-05 7.5449298e-06
4.716156e-05 1.1391379e-05 -1.6524727e-05 -2.2538115e-05 5.4199586e-06 -5.5540466e-05 -4.107322e-06 8.584185e-06
-3.222762e-06 -4.8705115e-05 -5.8785106e-05 -6.800304e-05 -6.808194e-05 5.9332383e-06 7.407505e-06 -3.5625997e-06
-7.867385e-06 4.1748095e-07 -7.867385e-06 -4.1745113e-07 5.331076e-05 -1.5324486e-05 -7.2213785e-05 -4.0364375e-05
-0.00013445933 -5.5418514e-05 3.3716304e-05 -1.1859079e-05 -3.0749907e-05 -7.290446e-05 -5.0052215e-05 -2.3738005e-05
00000000: 1712 2eb9 f7f4 27b5 c32c 62b8 87bb 2a39
00000010: b9b4 0937 707a b138 b225 08b8 f007 0b36
00000020: 2183 a037 a4fb 9938 3de6 dfb6 03c6 e9b7
00000030: c284 4ab7 3b98 55b8 f2bb 4eb7 423e a1b7
00000040: 8eab 3737 423e a1b7 6eab 37b7 dedd c2b9
00000050: e38e d2b5 71af 8ab8 30b8 9839 f9c5 9a37
00000060: 27d0 2439 fe1f 2eb9 5d1e 5137 6e9b e0b7
00000070: 84e4 4438 1720 bd38 43b1 8e38 ed05 b5b8
00000080: b711 00b7 66b6 e9b5 f7de 3139 04b9 f338
00000090: ab4f 3538 2d92 c8b7 1e44 7ab8 d797 4eb7
000000a0: c0d4 b7b7 9e9e 88b7 c0d4 b7b7 9c9e 8837
000000b0: 20b9 d2b9 ea89 6cb7 b62d cbb7 a97e 1139
000000c0: b706 5e39 9067 2239 452e b337 a5eb 64b7
000000d0: 5417 b5b8 5b14 0ab8 1031 37b8 ef2f 1136
000000e0: e404 ad38 d252 3eb7 801a 39b8 4588 1c39
000000f0: 2370 56b7 41e6 1239 1740 a8b8 023f 9a37
00000100: 6339 b7b8 3fa2 41b9 3488 f8b7 3fa2 41b9
00000110: 3388 f837 1cac 1839 4446 62b6 6d50 32b9
00000120: 1f7a 15b9 7ed1 f1b8 2c96 6db8 1d67 33b6
00000130: 96c1 54b6 1073 ffb7 829f ad38 ba4e d9b7
00000140: f0b4 3c38 3d36 ea37 1e13 e637 4f4d 65b8
00000150: 877f 77b7 5bbe 28b8 1ba4 85b8 4310 57b7
00000160: fb40 a336 6d5e a2b6 5a03 52b7 4071 ac36
00000170: 5a03 52b7 3871 acb6 7181 5f37 0a67 c336
00000180: a1cb b9b8 b2ad 1e39 b0f8 7db8 0064 a138
00000190: 99be f5b8 0aa3 fe37 1c74 c438 1722 5939
000001a0: d42f d338 eb49 9638 fdc1 5ab7 6518 bb37
000001b0: 111f 95b7 7812 6636 dcdd b537 4442 1fb8
000001c0: 6ed3 0038 f074 15b8 cb03 0538 e2b7 9838
000001d0: d609 8f37 e2b7 9838 d309 8fb7 6581 75b9
000001e0: d622 8338 7dd9 5139 bbc0 e939 f60c 4639
000001f0: accb 2439 d5c2 96b8 a741 d337 aebc 9138
00000200: d8b6 8b39 ecdd 9f38 e17f 0239 85e5 eb37
00000210: b5fb da35 4314 0136 7996 e238 7437 6eb8
00000220: c9f6 c9b7 2680 bbb5 bfeb 5cb7 c4e5 2137
00000230: c1aa f037 af42 bbb7 c1aa f037 ad42 bb37
00000240: 8563 15b9 bff0 2438 d7bd 1539 76be 063a
00000250: d557 1939 874f 7639 563e 96b9 3193 6038
00000260: be2b d638 61b1 8639 d6bd 8439 50ac 4139
00000270: 00bb a4b8 4663 cc34 400a b138 f8e3 8439
00000280: 3336 6b38 1fe2 b935 de6a dc36 4faa bdb8
00000290: 5c57 be37 83b7 7038 25ff ddb7 83b7 7038
000002a0: 35ff dd37 a45c 30ba 5b08 2e38 aa45 9439
000002b0: 2e6e 013a cda2 073a f76c b139 29ff 07b8
000002c0: 8e43 8bb7 6b02 e2b8 9d60 1139 3039 acb8
000002d0: f888 c738 7d6f 8a37 7f35 0838 21c2 8bb8
000002e0: 6f9a 6738 5074 27b8 6b4c 3db7 5827 08b8
000002f0: a323 e1b5 63e0 02b8 8b18 93b8 1cbb 6c35
00000300: 8b18 93b8 43ba 6cb5 8417 7ab8 935d 2db7
00000310: 00e4 80b9 bb89 9e39 f721 32b9 30c9 5739
00000320: f06b cf37 bf99 6237 a4d7 3b38 0c25 6a38
00000330: 10e3 e536 6e10 1138 c108 d137 c67e 86b7
00000340: cbcd 4b37 6d20 d437 206b 50b8 bdcf cfb7
00000350: b35c 0937 4b18 3f37 25a2 0637 bf76 7137
00000360: ecb2 53b7 bf76 7137 f3b2 5337 ea9c 8b38
00000370: df44 7537 2271 c938 f6bb ad38 742a fd36
00000380: 57cf 4538 9a1d 3f37 959e 8ab7 3c10 bdb7
00000390: 17dd b536 1ff4 68b8 a1d1 89b6 cb04 1037
000003a0: a146 58b6 b848 4cb8 0790 76b8 db9c 8eb8
000003b0: 37c7 8eb8 2116 c736 fc8d f836 ff14 6fb6
000003c0: 29fe 03b7 2522 e034 29fe 03b7 0c1e e0b4
000003d0: fe99 5f38 158d 80b7 7b71 97b8 eb4c 29b8
000003e0: a7fd 0cb9 2d71 68b8 9b6a 0d38 5bf6 46b7
000003f0: 76f9 00b8 49e4 98b8 28ef 51b8 fa20 c7b7
