04-goal-pose-l6/logs/rsl_rl/joint_position/2026-02-19_13-16-49/model_2050.pt (torch, 161397 bytes, 36 tensors)

std f4 [6]
0	0x3d1a93b5	0.03773852
1	0x3d06fe09	0.03295711
2	0x3d0caa5f	0.034342166
3	0x3b1f9ee1	0.0024356174
4	0x3ca6372f	0.020289985
5	0x3c20e339	0.009819799

actor.0.weight f4 [64, 25]
0	0x3f0a860f	0.5411081
1	0xbe73516d	-0.2376153
2	0xbe09f293	-0.13471441
3	0x3e0227d3	0.12710504
4	0x3ea30640	0.31840706
5	0xbe898ec4	-0.26866734
6	0xbe02f528	-0.12788832
7	0xbe0a7479	-0.13520993
8	0xbdc023fa	-0.09381862
9	0x3e4d37a1	0.20040752
10	0xbdf7eb72	-0.121054545
11	0xbdd59c0c	-0.10430154
12	0xbec430f3	-0.38318595
13	0x3f3c0b8d	0.73455125
14	0xbebec04d	-0.3725609
15	0xbd659436	-0.056049548
16	0x3f92b5cb	1.1461729
17	0xbdfde1f7	-0.12396615
18	0xbfb38b15	-1.402682
19	0xbea5f0c7	-0.3241026
20	0xbd9e9b18	-0.077444255
21	0x3e366c2c	0.17814702
22	0x3e84e310	0.25954485
23	0x3c32bbb0	0.010909006
24	0xbd8e1b22	-0.06938769
25	0xbef3147e	-0.47476572
26	0x3d561116	0.05226239
27	0x3dfb4566	0.12269096
28	0x3ee79726	0.45232505
29	0xbed2da24	-0.41182053
30	0xbe1a4c1b	-0.15068094
31	0x3e2f686d	0.17129679
32	0x3cd1bcf9	0.025602804
33	0xbd6c8715	-0.05774601
34	0xbd6e64ff	-0.058201786
35	0xbdab1de6	-0.08355312
36	0xbd35aecd	-0.044356156
37	0xbe03babb	-0.12864201
38	0xbf1192c4	-0.5686457
39	0xbf1d122b	-0.6135585
40	0xbe1ebd34	-0.15501863
41	0xbf7e35c0	-0.99300766
42	0xbdf3591b	-0.1188223
43	0x3f93523d	1.1509472
44	0x3d96a819	0.07356281
45	0x3e946bc2	0.28988463
46	0xbe15031a	-0.14551964
47	0x3e3cf26b	0.1845185
48	0x3d197d15	0.037472803
49	0xbddaa432	-0.10675849
50	0xbf881f98	-1.0634642
51	0x3e1294fc	0.14314646
52	0x3dec0f02	0.115263
53	0x3f2525db	0.6451089
54	0xbf2968e9	-0.66175705
55	0x3f4f1414	0.8089001
56	0xbdc13295	-0.09433476
57	0x3d883479	0.06650633
58	0x3d487572	0.04894013
59	0x3e9669c3	0.29377565
60	0xbd927393	-0.0715095
61	0x3d77f523	0.060536515
62	0x3e71fc10	0.2363131
63	0xbf6a7fe6	-0.9160141
64	0x3d8d2231	0.06891287
65	0x3e8a1a7d	0.26973334
66	0xc0053ccc	-2.0818357
67	0x3d34fab5	0.044184405
68	0x400624d2	2.0959973
69	0xbe0043e7	-0.12525903
70	0xbe1edc52	-0.15513733
71	0xbae53d81	-0.0017489643
72	0x3e4ad249	0.1980678
73	0xbe0e2a54	-0.13883334
74	0x3e1056b9	0.14095582
75	0x3f0aa4cb	0.54157704
76	0xbe04499f	-0.12918709
77	0xbee84e24	-0.45372117
78	0xbf0267c5	-0.5093959
79	0xbe7a9959	-0.2447256
80	0xbf0addf9	-0.54244953
81	0x3e566525	0.20937021
82	0xbe8785ce	-0.26469272
83	0x3df3cebb	0.11904665
84	0xbe6cf5df	-0.23140667
85	0x3ec5901f	0.38586518
86	0xbd07e5a2	-0.03317798
87	0xbde0b9a5	-0.10972909
88	0x3fc1fea2	1.5155833
89	0xbd8ffb02	-0.07030298
90	0xbd2dd4a3	-0.042439114
91	0x3fa057fb	1.252685
92	0x3ddfa5cf	0.10920297
93	0xbf86f07c	-1.054214
94	0xba9f7cd2	-0.0012167937
95	0xbd87dd52	-0.066340104
96	0xbc98232f	-0.018571464
97	0xbe0de26c	-0.13855904
98	0xbe164c09	-0.14677443
99	0xbe61fe43	-0.2206965
100	0x3d84b959	0.06480665
101	0xbd8ce37e	-0.06879328
102	0xbf1f889c	-0.62317824
103	0x3cc3f889	0.023922222
104	0xbd585f24	-0.05282511
105	0x3c4b9ad6	0.0124270525
106	0x3de89882	0.113572136
107	0x3db0a760	0.08625674
108	0xbe0b1e05	-0.1358567
109	0x3e8002d3	0.25002155
110	0xbe0f819b	-0.14014284
111	0x3ce38928	0.027775362
112	0xbe73aa16	-0.23795351
113	0x40063141	2.0967562
114	0xbe733994	-0.23752433
115	0xbd95638e	-0.07294379
116	0x3f0c6cab	0.54853314
117	0xbe02d2a2	-0.12775663
118	0xbf0968af	-0.5367536
119	0xbd10dbe4	-0.035365954
120	0x3da2bb64	0.07945898
121	0x3d461ae2	0.04836548
122	0x3d927a12	0.07152189
123	0x3cfc681e	0.030811366
124	0x3e2ec6b5	0.17067988
125	0x3da97d7c	0.08275887
126	0xbead0572	-0.33793217
127	0x3f0019f1	0.50039583
128	0x3e243e83	0.16039471
129	0xbbf2bfbb	-0.00740811
130	0xbeb8bd6f	-0.36082026
131	0xbedea460	-0.43484783
132	0x3c96f71a	0.018428374
133	0xbdcf4e1c	-0.1012232
134	0x3e857b54	0.26070654
135	0x3d4905d8	0.04907784
136	0x3e45db46	0.19321927
137	0xbddfb171	-0.10922516
138	0xbfac1d58	-1.3446455
139	0x3d8ee5e5	0.06977443
140	0x3e2ec841	0.17068578
141	0xbd9cbf1e	-0.0765364
142	0x3e1f23f7	0.15541063
143	0x3e29dfb3	0.1658924
144	0xbdaae21e	-0.0834391
145	0x3af83586	0.001893685
146	0xbe1c3ffa	-0.1525878
147	0xbdaa7f80	-0.083251
148	0xbdc9f624	-0.09861401
149	0xbbbd8c71	-0.005784564
150	0xbe3fefd3	-0.1874383
151	0x3e4ad952	0.19809464
152	0x3f6c4af5	0.92301875
153	0x3e6bb175	0.23016913
154	0xbe82dec4	-0.25560582
155	0x3ec9714a	0.39344245
156	0xbec79838	-0.3898332
157	0xbd3a6244	-0.04550387
158	0xbd5a7f6d	-0.05334418
159	0x3da3cded	0.079982616
160	0x3d571f38	0.052520007
161	0xbd2f12e8	-0.04274264
162	0xbe0acc09	-0.13554396
163	0xbfdb66c4	-1.7140737
164	0xbec5d059	-0.3863552
165	0x3e0e21da	0.13880101
166	0x3ded65fb	0.11591717
167	0x3d5ff978	0.05468127
168	0xbdb925a0	-0.090403795
169	0x3d995f3b	0.07488867
170	0x3f0c84fc	0.5489042
171	0xbba6e6ec	-0.005093446
172	0xbd1ffce8	-0.03905955
173	0x3cfc0a8e	0.030766752
174	0xbeaffeba	-0.34374028
175	0xbd826a32	-0.063679114
176	0x3eed9810	0.46405077
177	0xbe7e25ea	-0.2481915
178	0xbea18dcc	-0.31553495
179	0xbd7d4b2e	-0.061839275
180	0xbea40f72	-0.32043034
181	0xbe29f634	-0.16597825
182	0xbe654cd4	-0.22392589
183	0x3d1622e8	0.036654383
184	0xbdb633e1	-0.08896614
185	0x3de36a83	0.111043
186	0xbd0369f1	-0.032083455
187	0xbe92c681	-0.2866707
188	0x3ed66cb9	0.41879824
189	0xbdda6948	-0.10664612
190	0xbd16a185	-0.03677513
191	0x3f8e04ab	1.1095175
192	0xbe3686f0	-0.17824912
193	0xbf5a7475	-0.8533395
194	0x3e5522d9	0.20814075
195	0xbe3ebad0	-0.18625951
196	0xbe195fdf	-0.14977978
197	0xbe4af2a5	-0.19819124
198	0xbd68260a	-0.056676902
199	0xbe03113d	-0.12799545
200	0xbde862af	-0.113469474
201	0xbea0792b	-0.31342444
202	0x3e133509	0.143757
203	0xbdcc9af5	-0.09990493
204	0xbc10cd85	-0.008838062
205	0xbedecd35	-0.43515936
206	0x3db1ccfa	0.08681674
207	0xbd09a241	-0.033602003
208	0xbe1a66bc	-0.15078253
209	0xbd87f485	-0.06638435
210	0x3dc3bf8c	0.09558019
211	0x3dd64e1c	0.10464117
212	0xbdd7dcd5	-0.10540167
213	0xbf9322f5	-1.1495043
214	0xbe726643	-0.23671822
215	0xbd3a3c00	-0.045467377
216	0x3f933140	1.1499405
217	0x3e5afafb	0.21384804
218	0xbf921227	-1.141179
219	0xbe5fc5c2	-0.21852782
220	0xbe039caf	-0.12852739
221	0x3d268609	0.04065517
222	0x3df44cb6	0.11928694
223	0xbeca6aed	-0.39534703
224	0xbd7df165	-0.06199779
225	0x3e60e742	0.21963218
226	0xbe98539d	-0.29751292
227	0xbef8261d	-0.48466578
228	0x3d2a03d8	0.041507572
229	0xbf4b5763	-0.79430217
230	0x3e258906	0.16165552
231	0xbef8fc7a	-0.48630124
232	0x3e8705cc	0.2637161
233	0x3da019f6	0.07817452
234	0x3e10c133	0.141362
235	0x3c099d03	0.008399251
236	0x3d3080d6	0.043091618
237	0x3c938a4d	0.018010283
238	0x3f05206c	0.52002597
239	0xbd2a0b9f	-0.04151499
240	0xbe3234b4	-0.17402917
241	0x3ee955ce	0.45573276
242	0xbd9ecf83	-0.077544235
243	0xbeb2f38e	-0.34951442
244	0x3e17a695	0.1480964
245	0xbdf428d3	-0.11921849
246	0x3e408ce7	0.1880375
247	0xbe4c6de8	-0.19963801
248	0x3e944f0b	0.28966555
249	0x3c727ee5	0.014800762
250	0xbd670424	-0.056400433
251	0x3e6af8a6	0.22946414
252	0x3cab8955	0.020939508
253	0xbe841ba2	-0.25802332
254	0xbe04514e	-0.1292164
255	0xbe8e0b1b	-0.27742848

actor.0.bias f4 [64]
0	0xbe96df27	-0.29467127
1	0xbe1bc143	-0.15210442
2	0x3e0d5e31	0.13805462
3	0x3dcab799	0.098983
4	0x3c80d9b0	0.015728801
5	0x3d92a39b	0.071601115
6	0xbdf785ef	-0.12086093
7	0xbdcb5a28	-0.09929305
8	0x3dd0c0f1	0.10193051
9	0xbd2c566c	-0.042074606
10	0xbe9948e6	-0.2993843
11	0xbd409a1e	-0.047021978
12	0xbe5b1fbe	-0.21398827
13	0x3d0d2d8b	0.03446726
14	0xbced45d4	-0.02896396
15	0xbdbcf535	-0.09226457
16	0x3d4a6235	0.049410064
17	0xbe8b740a	-0.27236968
18	0xbcc3dd71	-0.023909302
19	0xbdd075f4	-0.10178748
20	0xbdf9441e	-0.121711954
21	0x3cfe74de	0.031061586
22	0xbe82972e	-0.25505966
23	0xbe955efa	-0.29174024
24	0xbd7a9f90	-0.061187327
25	0x3e81a951	0.2532449
26	0xbe3f9229	-0.187081
27	0x3e490f0c	0.19634646
28	0xbd7af620	-0.06126988
29	0xbdcfc322	-0.101446405
30	0xbe16936e	-0.14704677
31	0xbeb827be	-0.3596782
32	0xbdf31084	-0.118683845
33	0xbe7d361f	-0.24727677
34	0x3ca00f3b	0.019538512
35	0xbeca68a2	-0.39532954
36	0xbcf10f0c	-0.02942612
37	0xbe8b50b8	-0.2721002
38	0x3e6c8081	0.23095895
39	0x3dc68f17	0.09695261
40	0xbc86d9b3	-0.016461229
41	0xbe4734c6	-0.19453725
42	0xbe0dc5f6	-0.13845047
43	0x3daa2412	0.08307661
44	0xbd6c4007	-0.05767825
45	0xbe72d4a9	-0.23713936
46	0xbc82dc60	-0.015974224
47	0xbe4baed0	-0.19890904
48	0x3d2c9a8a	0.042139567
49	0xbd3f4126	-0.04669299
50	0xbe97efa2	-0.29675013
51	0xbe851f44	-0.26000416
52	0xbe4a5e51	-0.19762541
53	0x3d8fdef5	0.070249476
54	0x3db5f30b	0.088842474
55	0xbe550d85	-0.20805939
56	0x3de94fcd	0.11392174
57	0x3e9f76c4	0.31145298
58	0x3e95646d	0.2917818
59	0xbde4a0bd	-0.11163471
60	0xbd43ebab	-0.047832172
61	0x3dec4f5b	0.11538573
62	0xbea3c32b	-0.3198484
63	0xbedab78c	-0.4271816

actor.2.weight f4 [64, 64]
0	0xbe37380d	-0.17892475
1	0x3d84b3de	0.064796194
2	0xbdec99f3	-0.11552801
3	0x3b1a2421	0.002352007
4	0xbc80c4e6	-0.015718888
5	0xbe69525d	-0.22785325
6	0xbe5ee589	-0.21767248
7	0xbd6af2c9	-0.057360444
8	0x3d84f83f	0.06492662
9	0xbe03c618	-0.12868536
10	0x3dd2ea45	0.102985896
11	0x3c0b060d	0.008485329
12	0x3d7b4e11	0.061353747
13	0x3c96e81e	0.018421229
14	0xbd8c5295	-0.06851689
15	0xbe3ee4a4	-0.18641907
16	0xbd84d7b3	-0.06486454
17	0xbd55b5ef	-0.05217546
18	0x3d817544	0.06321195
19	0x3dcbc58b	0.09949788
20	0x3e5200a0	0.20508051
21	0x3cd1f510	0.02562955
22	0x3de4380b	0.11143502
23	0xbd7bf0c9	-0.061508927
24	0x3c342d72	0.010997163
25	0xbe489367	-0.1958748
26	0x3a31844d	0.00067717285
27	0xbc022332	-0.0079429615
28	0x3ca1f789	0.019771354
29	0x3cae266c	0.021258555
30	0xbe275094	-0.16339332
31	0x3d6e0265	0.058107752
32	0x3ceca4ed	0.028887236
33	0xbe0e490c	-0.13895053
34	0xbdb98be8	-0.09059888
35	0x3e6ed194	0.23322135
36	0xbd80e9f1	-0.06294621
37	0xbd2222ec	-0.039584085
38	0xbe362b8d	-0.17790051
39	0xbd76b250	-0.060228646
40	0x3da6e9f3	0.08150091
41	0xbc9c1a03	-0.019055372
42	0x3d8ce033	0.068787
43	0xbdceb5d6	-0.10093276
44	0x3df99b36	0.12187807
45	0x3d9adae1	0.07561279
46	0xbe7d52b4	-0.2473858
47	0xbd019cde	-0.03164374
48	0x3e17cd7b	0.14824478
49	0xbde9e1dd	-0.11420033
50	0x3d1f428c	0.038881823
51	0xbd32263e	-0.0434935
52	0x3e1f5f7c	0.15563768
53	0xbd02aeb0	-0.031904876
54	0xbdd86884	-0.1056681
55	0xbdb12e90	-0.08651459
56	0xbdd0e2bd	-0.10199497
57	0xbe2b3889	-0.16720785
58	0xbe142207	-0.14466105
59	0x3e3d2198	0.18469846
60	0xbdc1a5c3	-0.09455445
61	0xbd5b4347	-0.053530958
62	0x3db89760	0.090132475
63	0xbdc1d250	-0.09463942
64	0xbe053669	-0.13009037
65	0xbe37404d	-0.17895623
66	0x3d90e16b	0.07074245
67	0x3d33d240	0.043901682
68	0xbda96dbd	-0.08272884
69	0xbccefb23	-0.025266236
70	0xbd823e9c	-0.06359598
71	0x3e4a495f	0.19754551
72	0xbdec2f79	-0.11532492
73	0x3df7548c	0.12076673
74	0x3bcfbb6d	0.0063394816
75	0x3a3a493d	0.000710625
76	0x3e14ced9	0.14532031
77	0x3df7f40a	0.12107094
78	0x3dc7644d	0.09735928
79	0xbc940006	-0.018066417
80	0x3e490d8d	0.19634075
81	0xbd00e087	-0.031464126
82	0x3cf6916e	0.030098643
83	0x3d4bf752	0.04979641
84	0xbda8838b	-0.08228215
85	0xbbf90ea3	-0.007600622
86	0xbe4c2551	-0.1993611
87	0xbde953a3	-0.113929056
88	0xbcf1b878	-0.029506907
89	0x3e06883f	0.13137911
90	0x3e2a40a4	0.16626221
91	0x3df41870	0.119187236
92	0x3e4551aa	0.19269434
93	0xbdcbb699	-0.09946937
94	0x3e659790	0.22421098
95	0x3e7a66f8	0.24453342
96	0x3de229c6	0.11043124
97	0xbd9ce654	-0.07661119
98	0xbcfc5402	-0.030801777
99	0xbe924392	-0.28567177
100	0xbdcd6fed	-0.10031114
101	0x3d179d8b	0.03701548
102	0xbba119b3	-0.0049163937
103	0xbc91504b	-0.017738482
104	0xbe85505f	-0.2603788
105	0x3d9495fb	0.07255169
106	0x3cf3e508	0.029772297
107	0x3dc5fd8a	0.09667499
108	0xbe835a33	-0.25654754
109	0x3b61074e	0.003433663
110	0x3e3957eb	0.18099944
111	0x3de40aae	0.111348495
112	0x3d9976bf	0.07493352
113	0xbe1ead5f	-0.15495823
114	0x3b8e7f7a	0.0043486925
115	0xbcb3b48e	-0.021936681
116	0xbcbd745a	-0.02312677
117	0xbde59df9	-0.112117715
118	0xbda8ba53	-0.082386635
119	0xbde099ba	-0.10966821
120	0xbe0f980e	-0.14022848
121	0x3dd4b95e	0.103869185
122	0xbd78af55	-0.060714085
123	0xbd3d8b99	-0.04627571
124	0xbe3bcb29	-0.18339218
125	0x3d586e6f	0.052839693
126	0xbe006d4b	-0.12541692
127	0x3e2fb2c0	0.17158031
128	0x3d28d2dc	0.041216716
129	0xbe05d4cd	-0.13069458
130	0xbd1b29a3	-0.037881505
131	0xbdabc25a	-0.08386679
132	0xbe011be8	-0.12608302
133	0xbe90cbe3	-0.28280553
134	0xbcbe2164	-0.023209281
135	0x3b98c07e	0.0046616187
136	0xbe3d8e21	-0.18511249
137	0xbc1aec8c	-0.009455811
138	0x3d84a1ad	0.0647615
139	0x3e0121e2	0.12610582
140	0xbd9abcb0	-0.075555205
141	0xbe31fdba	-0.17381945
142	0x3d18b9d3	0.03728659
143	0x3dcbbb13	0.09947791
144	0xbe09c774	-0.13454992
145	0x3d15e12b	0.03659169
146	0xbe4b2c59	-0.19841136
147	0x3e3d7798	0.18502653
148	0x3ca78821	0.020450654
149	0xbe0eaaab	-0.13932292
150	0xbdbe8275	-0.093022265
151	0xbc77e379	-0.015129917
152	0xbe4bbac7	-0.19895469
153	0xbe5e4f32	-0.21709898
154	0x3c74163c	0.014897879
155	0x3e254e0d	0.16143055
156	0x3f09d1db	0.5383584
157	0xbe0f36a8	-0.13985693
158	0xbe093969	-0.13400806
159	0xbcd634bb	-0.02614819
160	0xbe3bae7c	-0.1832828
161	0xbd19e342	-0.037570246
162	0xbe24c72e	-0.16091606
163	0x3e75f1eb	0.24018066
164	0xbe37298a	-0.1788694
165	0xbcf52017	-0.029922528
166	0x3dca572e	0.098799095
167	0xbe798089	-0.24365439
168	0xbd6cc436	-0.05780431
169	0x3df1505a	0.11782904
170	0xbdc2e5c5	-0.09516481
171	0xbd2187d2	-0.03943617
172	0x3ccda8f8	0.025104985
173	0x3f087796	0.53307474
174	0xbe769646	-0.24080762
175	0xbdbe55f7	-0.0929374
176	0xbdd4fab0	-0.10399377
177	0xbe12acd9	-0.14323749
178	0xbd1eabc6	-0.038738035
179	0x3dd532d6	0.10410087
180	0x3dd1e6b0	0.10249078
181	0x3e42ba9f	0.19016503
182	0x3e4cabcf	0.19987415
183	0xbbd3fce7	-0.0064693573
184	0xbdfcfe28	-0.12353164
185	0x3c497ee1	0.012298317
186	0x3dd40bf4	0.103538424
187	0x3e0f4ffb	0.13995354
188	0xbe74c9b7	-0.23905073
189	0x3dc67fc3	0.09692337
190	0x3ec15f65	0.37768093
191	0x3e496fc5	0.19671543
192	0xbdcc9f89	-0.099913664
193	0x3dde7a98	0.10863227
194	0xbd736e13	-0.059431147
195	0xbcc0eb29	-0.023549633
196	0x3db14e9f	0.08657574
197	0xbd6fb72c	-0.058524296
198	0x3e35002c	0.17675847
199	0x3d00466d	0.031317163
200	0xbd7c6c5c	-0.061626777
201	0xbdaddb15	-0.08489052
202	0x3c3bacf2	0.011454808
203	0x3d1bfb96	0.038081728
204	0x3dd44c97	0.10366171
205	0xbe3f4fd3	-0.18682794
206	0x3d09a899	0.033608053
207	0x3bf5b41e	0.0074982783
208	0xbe42aa5f	-0.19010304
209	0xbe2289ed	-0.15872927
210	0xbe181d46	-0.14854917
211	0x3db06da7	0.086146645
212	0xbc97e6e3	-0.018542713
213	0xbdd07da7	-0.10180216
214	0x3e4842a3	0.1955667
215	0xbe0be740	-0.13662434
216	0xbe1229c0	-0.14273739
217	0xbec9a40c	-0.3938297
218	0x3d231055	0.039810497
219	0xbc82339e	-0.015893754
220	0xbd538a5f	-0.051645633
221	0xbbb491f3	-0.0055105626
222	0xbe452d98	-0.19255674
223	0x3d0510d1	0.03248674
224	0x3dbf70bd	0.09347675
225	0xbd5b407e	-0.0535283
226	0x3e09520f	0.13410209
227	0x3e997253	0.29970035
228	0x3cded48d	0.027200961
229	0xbd04851e	-0.032353513
230	0x3e708792	0.23489216
231	0xbe89de38	-0.26927352
232	0x3dd35b9f	0.1032021
233	0x3ddcb3b3	0.107764624
234	0xbdbff8e4	-0.09373644
235	0xbd8b260c	-0.06794366
236	0x3c17ef6d	0.009273392
237	0x3dd24890	0.102677464
238	0xbe1ab101	-0.15106584
239	0xbe05cd0a	-0.13066497
240	0xbd027908	-0.031853706
241	0x3dab7d64	0.08373526
242	0x3e4549d4	0.19266444
243	0x3d647706	0.055777572
244	0x3cd8585a	0.026409317
245	0x3d218666	0.039434813
246	0x3b0b5dd3	0.002126564
247	0x3e02b2b7	0.12763487
248	0x3db22b83	0.086997055
249	0x3c86fc8e	0.01647785
250	0x3d8cb80e	0.06871043
251	0xbe359153	-0.17731218
252	0xbe26260b	-0.1622545
253	0xbda2840c	-0.07935342
254	0x3e3d285c	0.18472427
255	0x3e17137c	0.14753526

actor.2.bias f4 [64]
0	0xbe389476	-0.18025383
1	0x3dbcb2d2	0.09213795
2	0xbe000b93	-0.12504415
3	0xbe49e1c5	-0.1971503
4	0xbdeef763	-0.11668279
5	0xbdede056	-0.11615054
6	0xbdfe274c	-0.12409839
7	0xbd8b5b91	-0.06804574
8	0x3dfd3bc1	0.12364913
9	0x3ca79c21	0.02046019
10	0xbd2a9954	-0.04165013
11	0xbe188a51	-0.14896514
12	0xbe764541	-0.24049856
13	0x3d73c019	0.05950937
14	0xbda49d0c	-0.08037767
15	0xbe1b2e89	-0.1515447
16	0xbe6cc0e3	-0.23120455
17	0x3c8e881b	0.017398885
18	0xbdd0cf2d	-0.10195766
19	0x3c7ac368	0.015305378
20	0xbe24bb26	-0.16087016
21	0x3e5cd429	0.21565308
22	0xbe713f20	-0.23559237
23	0xbdc1ad6c	-0.09456906
24	0xbe32d56a	-0.17464224
25	0xbe098df3	-0.13433056
26	0x3b05df44	0.0020427266
27	0xbddcff8b	-0.107909285
28	0xbcd7c45c	-0.026338749
29	0x3d5347ec	0.051582262
30	0xbd14651b	-0.036229234
31	0x3e072166	0.13196334
32	0xbe35faf1	-0.17771508
33	0xbe70b255	-0.23505528
34	0xbe75e550	-0.24013257
35	0x3c7b0a86	0.015322333
36	0xbed7ef7d	-0.42174903
37	0x3cf12323	0.0294357
38	0xbe2d9417	-0.16951023
39	0xbd48f3c0	-0.049060583
40	0xbdffa4bd	-0.12482593
41	0xbea3c325	-0.3198482
42	0xbe21def4	-0.15807706
43	0x3d9fee05	0.078090705
44	0xbe02b592	-0.12764576
45	0x3e183920	0.14865541
46	0xbe721bfc	-0.23643488
47	0xbe9d8558	-0.30765796
48	0x3cefc35b	0.029267957
49	0xbe49a628	-0.1969229
50	0xbe68b617	-0.22725712
51	0xbd1da570	-0.03848785
52	0xbacb4c78	-0.001551046
53	0x3e3ee7be	0.1864309
54	0xbdc42133	-0.09576645
55	0xbe4b8d15	-0.19878037
56	0x3d3b1b26	0.045680188
57	0xbce2f927	-0.027706696
58	0x3e045e03	0.12926488
59	0x3c4afa4f	0.01238878
60	0xbe9ce70a	-0.3064502
61	0x3cd329eb	0.025776824
62	0xbca810ce	-0.020515826
63	0xbe3d53e4	-0.18489033

actor.4.weight f4 [6, 64]
0	0x3d8dcea2	0.06924178
1	0xbd86de0b	-0.0658532
2	0xbd63ed60	-0.0556463
3	0xbd3e28ec	-0.046425745
4	0xbd3654d7	-0.044514503
5	0x3dc3416f	0.09533965
6	0x3db830e9	0.08993704
7	0xbd275805	-0.040855426
8	0x3d92102e	0.07131992
9	0xbdb279a0	-0.087146044
10	0xbe0e835b	-0.13917296
11	0xbe854695	-0.26030412
12	0x3d19fd60	0.037595153
13	0xbde7b74d	-0.11314259
14	0xbcfeb341	-0.031091334
15	0xbdae234e	-0.085028276
16	0x3d4c3d67	0.049863245
17	0x3da42e99	0.080167
18	0x3c9ffee4	0.019530721
19	0x3d0184ca	0.03162078
20	0xbd41c1ea	-0.04730407
21	0xbd973ebd	-0.07385013
22	0x3d2feac5	0.042948503
23	0x3ccdb626	0.02511127
24	0x3df20efe	0.11819266
25	0xbd9545ca	-0.07288702
26	0xbd1e5779	-0.03865764
27	0x3c19a3d1	0.009377436
28	0x3c195645	0.009358947
29	0xbdb665d9	-0.08906145
30	0xbe100aa1	-0.14066555
31	0xbcee3543	-0.029078132
32	0x3d12cb29	0.03583828
33	0x3e384ce5	0.17998083
34	0x3d4af81d	0.049553026
35	0x3d9546d2	0.072888985
36	0x3da6b390	0.081397176
37	0xbcf74051	-0.030182036
38	0x3d279816	0.040916525
39	0xbe383052	-0.17987183
40	0xbdd500fe	-0.1040058
41	0x3d90258f	0.07038414
42	0xbdc733d3	-0.097266816
43	0x3e1a3afd	0.15061565
44	0x3d15abab	0.03654067
45	0xbe069a48	-0.13144791
46	0x3d6d36a2	0.05791343
47	0xbcc8db47	-0.024518622
48	0xbdde50df	-0.10855269
49	0x3e203108	0.15643704
50	0x3cca81cd	0.024720097
51	0x3dbcbbcc	0.09215507
52	0xbe0f1daf	-0.13976167
53	0xbd682ff7	-0.056686368
54	0xbe188f82	-0.14898494
55	0x3ce7f92d	0.028317058
56	0x3e09f002	0.13470462
57	0x3d1fdfee	0.039031915
58	0x3debe1cc	0.11517677
59	0x3dfc475a	0.12318297
60	0xbaaac369	-0.0013028207
61	0xbe7288cc	-0.23684996
62	0x3d9e4bf4	0.07729331
63	0x3d0dd161	0.034623507
64	0x3cc0a1b5	0.023514608
65	0xbde61bef	-0.11235797
66	0x3e200146	0.15625486
67	0x3dd7be2d	0.1053432
68	0x3d1c88ba	0.03821633
69	0x3d223b2f	0.039607223
70	0x3dd68c8c	0.10476026
71	0x3c5d50ce	0.013508035
72	0x3d23e16a	0.040009893
73	0xbdef227c	-0.11676499
74	0xbd024cb8	-0.031811446
75	0xbe00d1bd	-0.12580009
76	0xbd9ac6eb	-0.07557472
77	0x3bc34263	0.0059588416
78	0xbdcf43c8	-0.1012035
79	0x3d6a9663	0.057272326
80	0x3cedbbc3	0.029020196
81	0x3cf69ef5	0.030105093
82	0x3dde9ed4	0.10870138
83	0xbe088f44	-0.13335901
84	0x3c529d08	0.012854822
85	0xbdbcdcde	-0.092218146
86	0xbd03962c	-0.032125637
87	0x3e0c2d39	0.13689126
88	0xbddf844b	-0.10913905
89	0xbe387401	-0.18013002
90	0xbe259ff8	-0.16174304
91	0xbdabfcb1	-0.083978064
92	0x3b42b6f2	0.0029711095
93	0x3c13aa9d	0.009012845
94	0x3cd7c219	0.02633767
95	0xbd544cf8	-0.051831216
96	0x3dc996de	0.09843229
97	0x3d6a8a2b	0.057260673
98	0xbca45e64	-0.02006454
99	0xbd22073e	-0.039557688
100	0x3dcc049c	0.09961817
101	0x3dfd1a76	0.12358563
102	0xbd5f5690	-0.05452591
103	0x3d2d5ebe	0.04232668
104	0x3cc0c04d	0.023529196
105	0x3e12a5f8	0.14321125
106	0x3dcdde6b	0.100521885
107	0xbe5953a6	-0.21223316
108	0x3e1cfc22	0.15330556
109	0xbdda3e2e	-0.10656391
110	0x3d1476d5	0.03624614
111	0x3d28d68e	0.04122024
112	0x3d90669a	0.0705082
113	0x3e116469	0.1419846
114	0x3d805b44	0.062674075
115	0x3da4d092	0.08047594
116	0xbea6b236	-0.3255784
117	0xbd8b43b0	-0.0680002
118	0x3af9312f	0.001901185
119	0xbd239ccb	-0.03994445
120	0x3d14d72f	0.036338028
121	0xbd8ccd12	-0.068750516
122	0xbd56223c	-0.052278742
123	0x3d1997ef	0.03749841
124	0x3db227af	0.08698975
125	0xbe25b11c	-0.16180843
126	0xbd82890d	-0.063737966
127	0xbcd896ca	-0.02643909
128	0x3b958af3	0.004563683
129	0x3d3b082b	0.045662086
130	0x3d1c93d7	0.03822693
131	0xbcaccbbd	-0.021093244
132	0xbd38f3e1	-0.045154456
133	0xbe18ee61	-0.14934684
134	0xbcfa578e	-0.030559327
135	0xbdf94663	-0.12171628
136	0x3e1b2bf0	0.1515348
137	0x3d3a1a98	0.045435518
138	0xbe648b40	-0.22318745
139	0xbc34a8c1	-0.011026562
140	0xbdd29ebc	-0.102841824
141	0xbd06b8de	-0.032891147
142	0x3c382302	0.011238815
143	0x3bfdb936	0.007743026
144	0xbdf2263e	-0.118237
145	0x3cc8146a	0.024423797
146	0x3dd048a5	0.10170106
147	0xbbf8bdb7	-0.007590975
148	0xbe06d770	-0.1316812
149	0x3da7b028	0.08187896
150	0x3c3d8526	0.01156739
151	0x3c04d7d1	0.008108095
152	0xbe08644b	-0.13319509
153	0x3cc6766e	0.024226394
154	0x3d9bce5c	0.07607719
155	0x3c3e36cd	0.011609745
156	0x3cc08574	0.023501135
157	0xbd5b8ed9	-0.053603027
158	0x3ddc5769	0.1075886
159	0x3c979a5a	0.018506218
160	0xbe398e45	-0.18120678
161	0xbe4aadae	-0.19792816
162	0xbdb6911d	-0.08914397
163	0x3d1c4da3	0.038159978
164	0xbe24140d	-0.16023274
165	0xbda7813a	-0.08178945
166	0xbe245d5f	-0.16051243
167	0x3cebb486	0.028772604
168	0xbd796ee1	-0.060896758
169	0xbe2cbcd0	-0.16868901
170	0x3ddb9f26	0.107237145
171	0x3e05f599	0.1308197
172	0x3daa6d3b	0.08321615
173	0x3b078578	0.0020678919
174	0xbcb88892	-0.02252606
175	0xbdb2314e	-0.087008104
176	0x3d8d0bcc	0.06887016
177	0x3d51ae07	0.051191356
178	0xbdce50c1	-0.10073996
179	0x3d25f17d	0.040513504
180	0xbcc08aa9	-0.023503618
181	0x3d3a68ee	0.045510225
182	0xbaa60f58	-0.0012669368
183	0xbcf6bcad	-0.030119264
184	0x3df7d38f	0.121008985
185	0x3d27760c	0.040884063
186	0x3d6f6bf8	0.058452576
187	0xbcd6d0a9	-0.026222544
188	0xbd9ad45f	-0.07560038
189	0x3d6a93a2	0.0572697
190	0xbc305662	-0.010762783
191	0xbd1c164b	-0.038107198
192	0xbd979679	-0.07401747
193	0xbd006ca2	-0.0313536
194	0xbd91f816	-0.07127397
195	0x3a3c1e3a	0.0007176135
196	0xbe0316f8	-0.1280173
197	0x3ad55f67	0.0016279042
198	0xbe64e77f	-0.22353934
199	0xbdc9483a	-0.09828229
200	0xbdac230c	-0.08405122
201	0xbdf7d227	-0.1210063
202	0xbdacaaf9	-0.08431048
203	0xbdbed23c	-0.09317443
204	0xbdf21561	-0.11820484
205	0xbe590eeb	-0.21197097
206	0xbe2f5251	-0.17121245
207	0xbc0b31e1	-0.008495779
208	0xbdefa7c6	-0.11701922
209	0xbe94ba27	-0.29048273
210	0xbd5bbd33	-0.05364723
211	0xbe002d5b	-0.12517302
212	0xbe0b4650	-0.13601041
213	0xbda5b18e	-0.080905065
214	0xbcea6dac	-0.028616749
215	0xbe23ef4e	-0.16009256
216	0xbe707364	-0.23481518
217	0xbd397079	-0.045273278
218	0xbdcf50d7	-0.10122841
219	0x3cd7a188	0.026322141
220	0xbc4a0cdb	-0.012332167
221	0xbe72188a	-0.23642173
222	0xbdd436ec	-0.10362038
223	0xbcdbbdd5	-0.026823917
224	0x3d59240b	0.05301289
225	0x3d0e9148	0.03480652
226	0xbdc36fe0	-0.09542823
227	0xbe40b9aa	-0.18820825
228	0xbe1d5292	-0.1536353
229	0x3e4d07ee	0.20022556
230	0xbd9b1cf3	-0.07573881
231	0x3da90875	0.08253566
232	0xbdc79759	-0.09745664
233	0xbe576247	-0.21033584
234	0x3d9eefad	0.07760558
235	0x3df76bea	0.1208113
236	0x3defe400	0.117134094
237	0x3bca8a7f	0.006181061
238	0xbde86667	-0.11347657
239	0xbd848e02	-0.06472398
240	0xbcb413b5	-0.021982053
241	0x3e536b1d	0.20646329
242	0xbe082e3c	-0.13298887
243	0x3cfd29e0	0.030903757
244	0xbd94be73	-0.07262888
245	0x3d4dc7dc	0.05023943
246	0xbe029875	-0.1275347
247	0xbdbb0b5c	-0.09133026
248	0xbd18758f	-0.037221488
249	0xbd936f23	-0.07198932
250	0x3c9802dc	0.018556051
251	0xbe6b5d70	-0.22984862
252	0xbe0ff85c	-0.14059585
253	0xbc64fd80	-0.013976455
254	0xbd49071c	-0.049079046
255	0xbdb8a640	-0.09016085

actor.4.bias f4 [6]
0	0x3d2f95f0	0.0428676
1	0xbd26049b	-0.040531736
2	0x3e98d03c	0.2984637
3	0x3e3def56	0.1854833
4	0x3c7086d4	0.014680583
5	0x3e5dbefd	0.21654887

critic.0.weight f4 [64, 25]
0	0x3d99e330	0.07514036
1	0x3d5e0344	0.054202333
2	0x3d17b13b	0.037034255
3	0xbd773806	-0.060356162
4	0x3cfb3406	0.030664455
5	0xbd890dee	-0.0669211
6	0xbd289bdb	-0.04116426
7	0xbe27085d	-0.16311784
8	0xbc14ea03	-0.009088996
9	0x3dcdf05d	0.10055611
10	0x3dbd83ea	0.09253676
11	0x3dee1c4f	0.11626493
12	0xbeb4239f	-0.35183427
13	0xbfc444e2	-1.5333521
14	0x3f36fcf5	0.7147973
15	0x3c5d6110	0.013511911
16	0x3e310f06	0.17290887
17	0xbdcd5eed	-0.10027871
18	0x3c77abed	0.015116674
19	0xbd607ae0	-0.054804683
20	0x3d478cf7	0.04871842
21	0xbdf7501b	-0.12075826
22	0x3de8bf4d	0.11364613
23	0x3d909e5c	0.07061455
24	0xbdd4eff0	-0.10397327
25	0xbe83ed16	-0.2576682
26	0xbe184f25	-0.14873941
27	0xbdb712cf	-0.08939134
28	0x3e006159	0.12537135
29	0xbb870f6d	-0.004121712
30	0xbc48afaf	-0.0122489175
31	0xbd84e0bb	-0.064881764
32	0xbcf8ea3b	-0.030385127
33	0xb9c910db	-0.00038350266
34	0x3d677a41	0.056513075
35	0x3c8ef288	0.017449632
36	0x3d0eddbe	0.03487944
37	0x3e12157e	0.14266011
38	0x40853a58	4.163372
39	0xbe946979	-0.2898672
40	0xbde2b6bd	-0.11070011
41	0x3fda7d42	1.7069476
42	0xbc9b7f37	-0.01898156
43	0xbfee185c	-1.8601184
44	0x3e2c0e31	0.16802289
45	0x3d898d6b	0.067164265
46	0x3de57ca0	0.11205411
47	0xbd1b8298	-0.03796634
48	0xbcb26b84	-0.021779783
49	0xbc4cf2ba	-0.012509042
50	0x3e3481d6	0.17627653
51	0x3cc25bb4	0.023725368
52	0x3dba21c5	0.09088472
53	0xbe833410	-0.25625658
54	0xbd8032e4	-0.062597066
55	0x3daab195	0.08334652
56	0xbb6439b3	-0.003482443
57	0xbda7f132	-0.08200301
58	0x3d65ea8f	0.056131896
59	0x3bd1044d	0.0063786865
60	0x3c42a81a	0.011880899
61	0xbd19d72a	-0.037558712
62	0x3ee2f3d6	0.44326657
63	0x4018ac1b	2.3855045
64	0xbf032929	-0.5123468
65	0x3d0cc771	0.03436989
66	0x3f49730d	0.7869118
67	0x3e12f1e2	0.14350083
68	0xbf209677	-0.6272959
69	0xbd696440	-0.05698037
70	0x3d0cf673	0.03441472
71	0xbde9410f	-0.11389362
72	0x3d8cf186	0.068820044
73	0x3db169fb	0.08662792
74	0x3c0457f0	0.008077607
75	0x3d1d077f	0.038337227
76	0xbdacb59c	-0.08433077
77	0xbe759706	-0.23983392
78	0xbe1c8149	-0.15283693
79	0xbd62cee7	-0.0553731
80	0x3e142ba8	0.14469779
81	0xbe07311e	-0.1320233
82	0xbe379ec3	-0.17931657
83	0x3eb06d5b	0.34458432
84	0xbc1543bb	-0.0091103865
85	0x3ecca4e9	0.39969566
86	0xbe12bbff	-0.14329527
87	0x3f1682ec	0.5879352
88	0xbf281115	-0.65651065
89	0xbe3f2c89	-0.18669333
90	0x3e98e9f4	0.29865992
91	0xbdf01095	-0.11721913
92	0x3e8ba215	0.27272096
93	0x3e4c35c6	0.19942388
94	0x3e18cf3f	0.14922808
95	0xbbe80d17	-0.0070816386
96	0x3dec4eff	0.11538505
97	0x3d865c31	0.06560553
98	0x3e0bd278	0.13654506
99	0x3da38a78	0.07985395
100	0xbb6f61e0	-0.0036526844
101	0x3bdb22f3	0.006687516
102	0xbe7408b6	-0.23831448
103	0xbe9d2ec4	-0.30699742
104	0x3e2e6db3	0.17034034
105	0x3d86a472	0.06574334
106	0xbd51fb04	-0.051264778
107	0xbc77782e	-0.015104337
108	0xbe168dc6	-0.1470252
109	0x3c8116fb	0.015758028
110	0x3d13f943	0.036126386
111	0xbd5a7149	-0.053330693
112	0x3e684c0f	0.22685264
113	0x3f04c5be	0.5186423
114	0xbeedb79d	-0.46429148
115	0xbdeb5423	-0.11490657
116	0xbde4ca95	-0.11171452
117	0x3d084fda	0.033279277
118	0x3e2e3465	0.17012174
119	0xbe2f4fab	-0.17120235
120	0x3c042cee	0.008067353
121	0x3e2c8818	0.1684879
122	0xbd73efdb	-0.059554916
123	0xbd5c0ae1	-0.053721312
124	0xbd9e14dd	-0.07718823
125	0x3df4f2d0	0.11960375
126	0x3e5d4a38	0.21610343
127	0x3d9264e4	0.071481496
128	0x3d423047	0.047409322
129	0xbc28954c	-0.010289501
130	0x3db063f9	0.08612818
131	0x3d137e64	0.036009207
132	0x3cc20a40	0.023686528
133	0x3dd64f46	0.10464339
134	0xbd96229f	-0.07330822
135	0x3c9a4e12	0.018836055
136	0x3bfd9307	0.0077384743
137	0xbe211128	-0.15729201
138	0x3f4540a7	0.77051777
139	0x3f179fd2	0.5922824
140	0xbd59b3f3	-0.05315013
141	0xbf1d5a57	-0.6146597
142	0x3dc37cc6	0.09545283
143	0x3f36f1fa	0.71462977
144	0x3d3da56e	0.046300344
145	0x3db24800	0.08705139
146	0xbd7cfb3d	-0.061763037
147	0x3d174443	0.036930334
148	0xbe052b79	-0.13004865
149	0xbdb5fe3c	-0.08886382
150	0x3e91edac	0.28501642
151	0x3e324418	0.17408788
152	0xbe2a156a	-0.16609731
153	0x3e7c8acc	0.24662322
154	0xbeda3214	-0.42616332
155	0xbe3cf76c	-0.18453759
156	0x3daf92b3	0.085729025
157	0xbcda92cd	-0.026681328
158	0x3d260620	0.040533185
159	0xbb96ba92	-0.0045998776
160	0x3e1e6ebc	0.1547193
161	0xbd9c9191	-0.07644952
162	0x3e472d0d	0.1945078
163	0xc025a4bd	-2.5881798
164	0xbe687ce5	-0.22703893
165	0xbdbe8bf4	-0.09304038
166	0xbfb548a6	-1.4162796
167	0xbd755d18	-0.059903234
168	0x3fd216d7	1.641322
169	0x3e2f378d	0.17111035
170	0x3e0f0ece	0.13970491
171	0x3e240df2	0.16020945
172	0x3e523986	0.20529756
173	0xbddae2af	-0.10687768
174	0x3e05a77b	0.1305217
175	0x3e199052	0.1499646
176	0x3e88204f	0.2658715
177	0xbdca60f7	-0.09881776
178	0xbe85d765	-0.26140895
179	0xbed39e6a	-0.41331798
180	0xbcd039d9	-0.025418209
181	0x3da6f2de	0.08151792
182	0x3d135b7e	0.035975926
183	0xbc914180	-0.017731428
184	0x3c86eb28	0.016469553
185	0x3a81c0da	0.0009899393
186	0xbdf78597	-0.12086027
187	0x3e43a4b6	0.19105801
188	0x3f947ff6	1.160155
189	0x3e04ff25	0.12987955
190	0xba8ba8de	-0.0010655185
191	0x3de70183	0.11279585
192	0xbde5cebb	-0.11221071
193	0xbe82b9da	-0.25532418
194	0x3d0201e6	0.03174009
195	0xbdaca81d	-0.084305026
196	0xbbef9f05	-0.007312658
197	0xbdd39e07	-0.10332876
198	0xbdc0f178	-0.094210565
199	0xbd992b92	-0.074790135
200	0xbe6f2b61	-0.23356391
201	0x3e715794	0.23568565
202	0xbd252e3d	-0.0403273
203	0x3d3acfe9	0.045608435
204	0x3e074a80	0.13212013
205	0xbe07c786	-0.13259706
206	0x3d0eaca7	0.034832623
207	0xbbe1aad4	-0.0068868194
208	0xbbedb4e2	-0.007254229
209	0x3c4d94e1	0.0125477025
210	0x3cb70992	0.02234343
211	0x3d031c85	0.03200962
212	0x3e7ed07b	0.24884216
213	0x3d877b12	0.06615271
214	0xbed9bacf	-0.42525336
215	0xbe2f9c28	-0.17149413
216	0x3f4ec156	0.8076376
217	0xbd99bcd7	-0.075067215
218	0xbf8323cc	-1.0245299
219	0xbb77a0a7	-0.0037784965
220	0xbd8bb8d8	-0.068223655
221	0x3d7a0198	0.061036676
222	0xbcf7a415	-0.030229608
223	0x3d1c9890	0.038231432
224	0x39038910	0.00012544193
225	0x3e69c13c	0.2282762
226	0xbdc6bb38	-0.09703678
227	0x3d382417	0.044956293
228	0x3d8331a6	0.06405954
229	0x3e17eadf	0.1483569
230	0x3c2e73dc	0.01064774
231	0xbdf8fca4	-0.121575624
232	0xbde6c13a	-0.11267324
233	0x3d628bf2	0.055309244
234	0x3da43b3c	0.080191106
235	0xbdc516a7	-0.09623461
236	0xbd11cb04	-0.035594
237	0x3eb62874	0.35577738
238	0xbceb730e	-0.028741386
239	0x3e58860f	0.2114489
240	0x3e4fa691	0.20278384
241	0xbe696665	-0.22792967
242	0x3dbda662	0.09260251
243	0x3d83d2d2	0.06436695
244	0x3da98107	0.08276563
245	0x3d373872	0.044731565
246	0xbd767ba4	-0.060176507
247	0xbdebb058	-0.11508244
248	0x3dde86f1	0.10865582
249	0x3e14a96e	0.14517757
250	0x3d836f60	0.064177275
251	0xbe91af65	-0.28454128
252	0xbd60f64a	-0.05492238
253	0xbd978bc0	-0.07399702
254	0x3d2186d1	0.03943521
255	0x3df080cb	0.11743315

critic.0.bias f4 [64]
0	0xbd3e8cd4	-0.046521023
1	0x3e497308	0.19672787
2	0xbd89d525	-0.06730107
3	0x3c308d51	0.01077588
4	0x3e1bfe2e	0.1523368
5	0xbded52d7	-0.11588066
6	0x3de77735	0.11302034
7	0x3de04b5a	0.10951872
8	0x3d1833ce	0.03715878
9	0xbe0099b3	-0.12558632
10	0xbe34c76b	-0.17654197
11	0xbe27bd87	-0.16380893
12	0xbd9ef171	-0.07760895
13	0x3da40fe3	0.08010843
14	0xbc8a54d0	-0.016886145
15	0xbd6a6178	-0.05722186
16	0x3da84531	0.08216322
17	0x3e2eed24	0.1708265
18	0xbe46baee	-0.19407246
19	0xbce411ec	-0.027840577
20	0xbd83d731	-0.06437529
21	0x3dae8ddc	0.08523151
22	0x3dbbca08	0.09169394
23	0xbd0bcc7b	-0.034130555
24	0xbd8e8ae5	-0.06960086
25	0xbc2a1597	-0.010381124
26	0x3e08fd1a	0.133778
27	0x3e258492	0.16163853
28	0x3e39622e	0.18103859
29	0x3d86ebb9	0.06587929
30	0xbe2ecf79	-0.17071332
31	0x3e3b198b	0.18271463
32	0x3e346c7b	0.17619507
33	0xbd58252a	-0.052769817
34	0x3d7657d4	0.060142353
35	0xbdbd1597	-0.092326336
36	0xbd8447ae	-0.06458984
37	0x3e24a9b1	0.16080357
38	0xbe1a9904	-0.15097433
39	0xbe0cbc52	-0.13743713
40	0xbd3841ca	-0.044984616
41	0x3e026542	0.1273394
42	0xbdb8412e	-0.08996807
43	0xbdf1acd2	-0.11800541
44	0xbda1056a	-0.07862361
45	0x3db0c681	0.086316116
46	0xbd5eb0f4	-0.054367974
47	0xbd483584	-0.04887916
48	0xbd452017	-0.048126306
49	0xbe25fb80	-0.16209221
50	0x3d3b3932	0.045708843
51	0xbdd7c60e	-0.10535823
52	0xbe45d7cd	-0.19320603
53	0x3e319857	0.1734327
54	0xbdb6151b	-0.08890744
55	0xbcb8449b	-0.022493651
56	0x3dadbb8f	0.084830396
57	0xbe822068	-0.2541535
58	0xbd17b07d	-0.037033547
59	0xbc93b544	-0.01803077
60	0x3e1eb72e	0.15499565
61	0x3da4d96a	0.08049281
62	0x3c61a001	0.013771058
63	0x3e2f8c40	0.17143345

critic.2.weight f4 [64, 64]
0	0xbd1dfef7	-0.03857323
1	0x3dc4af65	0.09603766
2	0x3d39ea0d	0.045389224
3	0xbc55d00c	-0.0130500905
4	0x3a111a83	0.00055352616
5	0xbd2e4203	-0.042543422
6	0xbc8a3507	-0.016870989
7	0xbbe24de4	-0.006906258
8	0xbbb57b82	-0.005538405
9	0xbdada2f4	-0.084783465
10	0x3d086806	0.03330233
11	0x3e0416d3	0.12899332
12	0xbdac4006	-0.08410649
13	0x3d772b71	0.060344163
14	0x3d3eca24	0.046579495
15	0xbd2f6b17	-0.04282674
16	0xbcae5d05	-0.02128459
17	0x3df8c03e	0.12146042
18	0x3ddf4205	0.10901264
19	0xbde24347	-0.110479884
20	0x3d7d5080	0.06184435
21	0xbd35dba3	-0.044398915
22	0x3a9ee3db	0.001212235
23	0x3d786b4a	0.060649194
24	0xb9dccad0	-0.00042112777
25	0xbde32a09	-0.11092002
26	0xbd7c0802	-0.061531074
27	0x3d6ca926	0.0577785
28	0xbdaa8ae6	-0.08327274
29	0x3b58fd92	0.0033110124
30	0x3dc5b414	0.09653488
31	0xbd2821df	-0.041047927
32	0x3c521d6a	0.012824396
33	0xbb8d7722	-0.0043171803
34	0xbe257e80	-0.16161537
35	0xbd76d9eb	-0.060266417
36	0xbd8b44bb	-0.06800219
37	0xbdee0878	-0.11622709
38	0xbdb57bf9	-0.088615365
39	0xbc35aa22	-0.011087926
40	0xbe16b403	-0.14717107
41	0xbe054286	-0.13013658
42	0xbd89d4f9	-0.067300744
43	0x3ca4a27a	0.020097006
44	0x3d0667e7	0.032813933
45	0xbe0e4e1e	-0.13896987
46	0x3dc7dfc7	0.09759479
47	0xbdf2fd99	-0.11864776
48	0x3da167f1	0.078811534
49	0x3dcaa380	0.098944664
50	0xbd862edc	-0.065519065
51	0xbdc6faf1	-0.09715832
52	0xbdc070e0	-0.09396529
53	0x3c3e36a4	0.011609707
54	0x3e20b5b0	0.15694308
55	0xbbdfd652	-0.006830969
56	0xbd02f4da	-0.03197179
57	0x3d3363f0	0.04379648
58	0x3d8fe1e6	0.070255086
59	0x3ccad382	0.024759058
60	0x3d855239	0.06509823
61	0x3d2fba59	0.042902324
62	0xbcd65d8c	-0.026167654
63	0x3d6bf853	0.057609867
64	0x3dccdfb6	0.10003607
65	0xbe4502c7	-0.1923934
66	0xbb7b4330	-0.0038339607
67	0xbdf3bd90	-0.119013906
68	0xbccf1efa	-0.025283325
69	0x3d429ba6	0.04751172
70	0xbd6e43bb	-0.05817006
71	0x3e1a338c	0.15058726
72	0xbd0255ea	-0.031820215
73	0x3d6cee70	0.05784458
74	0xbca3839d	-0.019960219
75	0x3d23ca61	0.039987925
76	0x3bf0313a	0.007330087
77	0xbdb1cdee	-0.08681856
78	0x3d9f8161	0.07788349
79	0x3d9f7060	0.07785106
80	0xbdb80437	-0.08985179
81	0x3d0a3b90	0.03374821
82	0x3e17c62d	0.14821692
83	0x3d98d55a	0.074625686
84	0xbd4fa5eb	-0.05069534
85	0xbd03e721	-0.032202844
86	0xbd1aa17b	-0.037751656
87	0xbd137b89	-0.036006484
88	0x3dafc873	0.085831545
89	0xbdc8f6e2	-0.09812714
90	0x3da361b3	0.07977619
91	0x3dd292d6	0.10281913
92	0xbced281c	-0.02894979
93	0xbe168979	-0.14700879
94	0xbced1762	-0.028941814
95	0xbd4c94fc	-0.04994677
96	0xbdec2452	-0.11530365
97	0xbd7d4864	-0.061836615
98	0xbc314eb7	-0.01082199
99	0x3dd52b42	0.104086414
100	0xbc7ec33e	-0.015549479
101	0xbdfe4899	-0.12416191
102	0x3e7a7cd7	0.24461685
103	0x3d0f79ab	0.03502814
104	0x3b02c481	0.0019953551
105	0x3d7e8b7b	0.062144738
106	0x3d80d1e4	0.062900335
107	0xbcdb05eb	-0.02673622
108	0x3dc577c2	0.096419826
109	0x3d8a109c	0.06741449
110	0xb9a8815a	-0.00032139831
111	0x3de23cf4	0.11046782
112	0x3e58a69e	0.2115731
113	0x3d7e41c8	0.062074453
114	0xbc83b444	-0.016077168
115	0x3d88f42d	0.06687198
116	0x3dbf9fca	0.09356649
117	0xbd367814	-0.04454811
118	0x3cc1c8cd	0.02365532
119	0x3dc2cc01	0.09511567
120	0xbda16b34	-0.078817755
121	0xbd84b0b1	-0.06479014
122	0x3b8fc320	0.0043872744
123	0x3d287f5f	0.041137096
124	0x3d1bd4fa	0.038044907
125	0xbd1a870e	-0.037726454
126	0x3d8ea7f5	0.06965629
127	0x3d01f9af	0.031732257
128	0xbdd51b5e	-0.104056105
129	0x3db363af	0.087592475
130	0x3d1d49d1	0.038400475
131	0xbddb340d	-0.10703287
132	0xbd1bc039	-0.038025115
133	0xbdcf5529	-0.10123665
134	0x3dffe285	0.12494377
135	0xbd94c5c3	-0.072642826
136	0x3cd3fbd1	0.025876911
137	0xbd880795	-0.06642071
138	0x3d9cedf8	0.076625764
139	0xbe04a3a9	-0.12953056
140	0xbd8640b2	-0.065553084
141	0xbd7bef84	-0.061507717
142	0x3d077cba	0.033077933
143	0xbd437185	-0.047715683
144	0xbd954d38	-0.07290119
145	0x3e58676e	0.21133205
146	0x3c3e6ae2	0.011622163
147	0xbce2a18f	-0.027664928
148	0x3db83b1e	0.08995651
149	0x3c98cb33	0.01865158
150	0xbdba5d9d	-0.090998866
151	0xbce1a597	-0.02754478
152	0x3d6e5e11	0.058195177
153	0x3dbc215d	0.09186051
154	0xbc019ff4	-0.007911671
155	0x3df320ed	0.118715145
156	0x3dcb9f77	0.09942525
157	0xbd3f6045	-0.04672267
158	0x3e127f2a	0.14306322
159	0xbdf415db	-0.11918231
160	0xbd878917	-0.06617945
161	0xbda4941e	-0.080360636
162	0xbd9f751e	-0.0778601
163	0xbdc64221	-0.09680582
164	0xbcbb8d8a	-0.02289464
165	0xbe4e3b50	-0.20139813
166	0x3dcfa14d	0.101381876
167	0x3e1de191	0.15418078
168	0xbd9d09ef	-0.0766791
169	0x3d72b020	0.059249997
170	0xbd7902ff	-0.060793873
171	0xbdb7f1c4	-0.0898166
172	0x3dd7425d	0.10510705
173	0x3d9e2b49	0.077231
174	0xbd6c1e5a	-0.057646133
175	0x3e1e7f10	0.15478158
176	0xbce84684	-0.028353937
177	0xbd3ffaca	-0.04687003
178	0xbd2a7b7d	-0.041621674
179	0xbe195db1	-0.14977147
180	0xbcebca79	-0.02878307
181	0x3db42b84	0.087973624
182	0x3e1a48a6	0.15066776
183	0x3dfee406	0.12445836
184	0x3ca90d54	0.020636238
185	0x3a431f82	0.00074433547
186	0x3dcfde85	0.10149864
187	0x3c19081d	0.009340313
188	0xbcb4bd6a	-0.022062976
189	0x3b583058	0.00329878
190	0x3cdf0d0c	0.0272279
191	0xbdd74c51	-0.10512603
192	0x3d7e5e5d	0.06210171
193	0x3da1caf4	0.07900038
194	0xbbbcba39	-0.005759504
195	0xbde16d32	-0.110071555
196	0x3d877d0e	0.06615649
197	0xbdaca6f5	-0.08430282
198	0xbd04adcf	-0.03239232
199	0x3d52100f	0.051284846
200	0xbe11a36d	-0.14222498
201	0x3d998612	0.07496275
202	0x3cd294c6	0.025705706
203	0xbd9e0e11	-0.07717527
204	0xbdabc22a	-0.08386643
205	0xbd7d6ea5	-0.061873097
206	0x3dec46d7	0.11536949
207	0xbe531bf9	-0.2061614
208	0x3d28a2ac	0.04117076
209	0x3c916f08	0.01775314
210	0x3ca606d8	0.020266935
211	0xbd333349	-0.04375008
212	0xbc481d09	-0.012213954
213	0xbc55af13	-0.013042229
214	0x3d8603ed	0.065437175
215	0x3df01790	0.11723244
216	0xbe2e6b2e	-0.17033073
217	0xbcf29462	-0.02961177
218	0x3d63d4a6	0.05562272
219	0x3d8ea0d3	0.069642685
220	0xbdf51526	-0.11966924
221	0xbd213096	-0.039352976
222	0x3d7b03a7	0.06128278
223	0x3d45f757	0.048331585
224	0xbd577d01	-0.052609447
225	0xbe1b0dc6	-0.15141973
226	0xbd7567bb	-0.05991338
227	0x3dce3021	0.100677736
228	0xbd8f2f41	-0.06991435
229	0x3dbb2a19	0.09138889
230	0x3ddecceb	0.10878929
231	0x3deae8ef	0.1147021
232	0xbc36456b	-0.011124949
233	0xbddd1562	-0.10795094
234	0x3d2a004a	0.041504182
235	0xbd8059d0	-0.062671304
236	0xbde848f5	-0.113420404
237	0xbc186a12	-0.009302633
238	0x3d1ca79b	0.03824578
239	0xbbf8e926	-0.007596153
240	0x3e2a7604	0.16646582
241	0x3d8dc572	0.06922425
242	0x3b40ee35	0.0029438857
243	0xbce42b7c	-0.027852766
244	0x3e0e5bd3	0.13902216
245	0xbd5bd562	-0.053670295
246	0x3d3be73f	0.04587483
247	0x3dc0b0d4	0.09408727
248	0x3d4635a8	0.048391014
249	0x3c77a7e6	0.015115714
250	0x3d0afa8e	0.033930354
251	0xbd537118	-0.051621526
252	0xbdb43488	-0.08799082
253	0xbdbe6106	-0.092958495
254	0xbdd93252	-0.10605301
255	0xbd811d21	-0.06304384

critic.2.bias f4 [64]
0	0x3d9b4c65	0.075829305
1	0xbd3cdef2	-0.046111055
2	0xbce13734	-0.027492143
3	0xbe228fa8	-0.15875113
4	0xbe97f3a6	-0.29678077
5	0xbe5441eb	-0.2072827
6	0xbd39fb63	-0.045405757
7	0x3d7a125a	0.061052658
8	0x3c59abb6	0.013285568
9	0xbd162e51	-0.036665265
10	0x3df041b8	0.11731285
11	0xbe292063	-0.16516261
12	0xbca89525	-0.02057893
13	0xbcddac1e	-0.027059611
14	0xbd766712	-0.06015689
15	0xbdefcdfe	-0.11709212
16	0xbd19bfa6	-0.037536286
17	0x3dde4af4	0.1085414
18	0x3e39fcc2	0.18162826
19	0xbe07c746	-0.1325961
20	0x3e128c70	0.14311385
21	0x3d980211	0.07422269
22	0xbc1a354c	-0.009412121
23	0xbd0d0c2b	-0.034435432
24	0x3da48df9	0.08034892
25	0xbe214e36	-0.15752491
26	0xbce571d5	-0.02800838
27	0xbd963dd8	-0.073360145
28	0xbdf65c82	-0.12029363
29	0x3d48bd5e	0.04900872
30	0xbde43f9a	-0.111449435
31	0x3cd106f0	0.025516003
32	0x3ce7b835	0.028286079
33	0xbdb71aef	-0.08940684
34	0xbdb61700	-0.08891106
35	0xbd6bb76e	-0.05754798
36	0x3d4662d0	0.04843408
37	0xbe00b719	-0.12569846
38	0xbdc2ceda	-0.0951211
39	0xbc17ccd0	-0.00926514
40	0xbd21c4ca	-0.039494313
41	0xbdd93a26	-0.10606794
42	0xbdea9708	-0.11454588
43	0xbcc985a1	-0.024599852
44	0x3d06f4e7	0.0329484
45	0x3e0e0a4a	0.13871112
46	0xbdad23de	-0.08454107
47	0x3e2a0b7a	0.1660594
48	0x3d781672	0.06056828
49	0x3d69098e	0.056893878
50	0x3de87c12	0.113517895
51	0x3c0c1e81	0.008552195
52	0xbe01d765	-0.12679823
53	0xbd9f46d5	-0.07777182
54	0xbd2d44dd	-0.042302
55	0x3d093c03	0.033504497
56	0x3d34f170	0.044175565
57	0xbd0b994d	-0.034081746
58	0xbdc4d7d0	-0.096114755
59	0xbdce121c	-0.10062048
60	0x3dba93a9	0.09110195
61	0xbe33bbe0	-0.17552137
62	0x3b402223	0.0029317222
63	0x3e22ad70	0.15886474

critic.4.weight f4 [1, 64]
0	0x3c313b83	0.010817411
1	0xbcbc0da5	-0.022955725
2	0x3d3fee28	0.046857983
3	0x3d448f40	0.047988176
4	0x3dfa27eb	0.12214645
5	0x3d8b66e5	0.06806735
6	0xbc185f4c	-0.009300064
7	0x3d38f0f5	0.04515167
8	0xbcf87d7b	-0.030333271
9	0x3c84be7b	0.01620411
10	0xbd98bb90	-0.0745765
11	0x3a606338	0.00085597066
12	0xbd7b52ac	-0.06135814
13	0xbc5f18a2	-0.013616713
14	0x3db83d11	0.089960225
15	0x3d44161b	0.047872644
16	0xbcb8950c	-0.022532009
17	0xbd03f9c8	-0.03222063
18	0xbe04fa2d	-0.1298606
19	0x3df88e8b	0.12136563
20	0x3cfef211	0.031121286
21	0x3c815a25	0.015790055
22	0xbd31a33f	-0.043368574
23	0x3d21fae6	0.039545916
24	0xbdb4d9e8	-0.08830625
25	0xbda88e57	-0.08230274
26	0x3c980feb	0.018562278
27	0xbd4ba7d7	-0.04972061
28	0x3dcfeb16	0.10152261
29	0xbd9cdc39	-0.07659192
30	0x3de9f3f2	0.11423482
31	0xbe16c3e3	-0.14723162
32	0x3d12f781	0.03588057
33	0xbcce2535	-0.025164226
34	0xbcdb1292	-0.026742253
35	0x3d214956	0.03937658
36	0xbc2c6c4e	-0.010523869
37	0x3dd167b0	0.10224855
38	0x3d0c928f	0.034319457
39	0x3cba1d20	0.022718966
40	0xbd0b43f6	-0.03400036
41	0x3d5d47a8	0.054023415
42	0xbd3894c5	-0.045063753
43	0xbde9cd26	-0.11416082
44	0xbc5f8f1a	-0.013644958
45	0xbd27d346	-0.04097297
46	0xbd413c32	-0.047176547
47	0xbe14eb3f	-0.14542864
48	0x3bcd75b9	0.006270137
49	0x3c0bf192	0.008541482
50	0xbd0cc99a	-0.03437195
51	0xbcbba248	-0.02290453
52	0x3cb1b5f3	0.021693205
53	0x3c9e6a70	0.019337863
54	0xbd73d019	-0.05952463
55	0xbd93373e	-0.07188271
56	0xbb952d59	-0.004552525
57	0x3cf78342	0.030213956
58	0xbd1867ee	-0.03720849
59	0x3ca15881	0.019695522
60	0xbb420e99	-0.0029610752
61	0x3d671eef	0.056425985
62	0x3cd5439c	0.026033215
63	0xbda0132a	-0.07816155

exp_avg f4 [6]
0	0x3985a21a	0.00025488512
1	0xbabb8ff7	-0.0014309873
2	0x392c9cbf	0.0001646159
3	0xbb64c09d	-0.0034904846
4	0x3b1a9739	0.002358867
5	0xba6b76d3	-0.0008982245

exp_avg_sq f4 [6]
0	0x3805fdd8	3.194608e-05
1	0x3826ff0f	3.9815026e-05
2	0x3803766b	3.134312e-05
3	0x3bac4680	0.0052574277
4	0x38ae3a19	8.307788e-05
5	0x39b5ec4f	0.00034699074

exp_avg f4 [64, 25]
0	0x38a14ac4	7.6910044e-05
1	0xb8ea2bac	-0.00011166124
2	0xb9f4c6fe	-0.00046687567
3	0xb8ee7c3a	-0.000113718634
4	0xb9861589	-0.00025574517
5	0x38f3c115	0.00011623107
6	0x37f5af0a	2.9287785e-05
7	0xb72b8402	-1.022313e-05
8	0x37de3c6d	2.64926e-05
9	0x36be69d8	5.674763e-06
10	0x38de826f	0.0001061008
11	0x394db281	0.00019616821
12	0xb932211e	-0.0001698774
13	0x37feb153	3.0361733e-05
14	0xb90591f8	-0.00012738246
15	0xb9a171b3	-0.00030793026
16	0xb899c8f2	-7.3330375e-05
17	0xb9a171b3	-0.00030793026
18	0x3899c8b7	7.3329946e-05
19	0x390a8ee5	0.00013213938
20	0xb8fb5c20	-0.00011985772
21	0xba71d5c3	-0.00092252734
22	0xb99dbbf4	-0.0003008541
23	0xb9f19662	-0.00046079146
24	0x39b3c10e	0.00034285377
25	0x38b805b2	8.7748645e-05
26	0xb8bf48cb	-9.1211485e-05
27	0xb9ba572a	-0.00035541627
28	0xb96877ed	-0.0002216992
29	0xb8daffc9	-0.00010442694
30	0x384a167c	4.8181493e-05
31	0xb76e67fa	-1.4210114e-05
32	0xb8a9ee61	-8.1029495e-05
33	0xb84505de	-4.6973924e-05
34	0xb9084bc6	-0.00012998199
35	0x3721f52f	9.653434e-06
36	0x3817a864	3.615803e-05
37	0xb90dcbc2	-0.00013522714
38	0x37919216	1.7353374e-05
39	0xb8c65ad4	-9.458294e-05
40	0xb98917be	-0.00026148366
41	0xb84c4b94	-4.8707778e-05
42	0xb98917be	-0.00026148366
43	0x384c4b5c	4.8707574e-05
44	0x38d352fd	0.00010076722
45	0xb8cb223b	-9.68617e-05
46	0xba4582cc	-0.0007534444
47	0xba05af65	-0.0005099683
48	0xb9362fc9	-0.00017374674
49	0x38c662a0	9.459746e-05
50	0x38ff8960	0.000121849356
51	0xb88e8800	-6.7964196e-05
52	0xba176888	-0.0005775769
53	0x399c16ee	0.00029771723
54	0xb9bcc1e3	-0.0003600261
55	0x393b3160	0.00017852103
56	0x3913c266	0.00014091432
57	0x391d4198	0.00014997122
58	0x37e353ad	2.7099473e-05
59	0xb9171bbb	-0.00014410813
60	0x39095c39	0.00013099694
61	0xb83a14e5	-4.4365315e-05
62	0xb982bf63	-0.00024938126
63	0x38f0ae87	0.000114766
64	0xb98bab53	-0.00026639792
65	0xba111a22	-0.0005535205
66	0xb8034ca2	-3.1304204e-05
67	0xba111a22	-0.0005535205
68	0x38034c94	3.1304153e-05
69	0x39b66c08	0.00034794235
70	0xb6031627	-1.9533416e-06
71	0xba91b8f8	-0.0011117747
72	0x3a01d51f	0.0004952717
73	0xba1d2156	-0.0005994042
74	0x39b20e1c	0.00033961318
75	0x3762f07a	1.352664e-05
76	0x3587e16e	1.0123892e-06
77	0xb981cf85	-0.00024759411
78	0x3a41cde4	0.0007393046
79	0xb8df91c1	-0.000106606174
80	0x39cabe66	0.000386703
81	0x3794a8c6	1.7721566e-05
82	0xb68d23c4	-4.206291e-06
83	0xb72e9c5c	-1.0407613e-05
84	0xb8a87974	-8.033487e-05
85	0x379115e7	1.7295546e-05
86	0xb87ef8d6	-6.0790066e-05
87	0xb87289cb	-5.7825626e-05
88	0x377d535a	1.5099382e-05
89	0xb8a15c41	-7.694262e-05
90	0xb905688f	-0.0001272282
91	0x3692eb00	4.3784967e-06
92	0xb905688f	-0.0001272282
93	0xb692eae9	-4.378486e-06
94	0x385ce6de	5.26671e-05
95	0x380e283f	3.389292e-05
96	0xba087063	-0.0005204735
97	0x3ac02ae8	0.0014661225
98	0xb92e9ea5	-0.00016653033
99	0x3a3c7686	0.0007189292
100	0x37a2f484	1.9425766e-05
101	0xb9085520	-0.00013001682
102	0xba0d953e	-0.0005400962
103	0xbaa1d3c2	-0.0012346434
104	0xb9939bd8	-0.00028154138
105	0xb997fcad	-0.00028989222
106	0x37dd9c2b	2.6417974e-05
107	0x3851a9ce	4.9987626e-05
108	0xb89f3be8	-7.592869e-05
109	0xb89a8aba	-7.369132e-05
110	0xb841fff9	-4.625318e-05
111	0x35dbba1a	1.6370934e-06
112	0xb90948cf	-0.00013092461
113	0xb7be0f76	-2.2656965e-05
114	0xb91d13ff	-0.00014980136
115	0xb9ade3b8	-0.00033166795
116	0xb838eb81	-4.408835e-05
117	0xb9ade3b8	-0.00033166795
118	0x3838eb50	4.408817e-05
119	0x38a8764a	8.032897e-05
120	0xb915a8a0	-0.00014272565
121	0xba97ec27	-0.0011590765
122	0xbb2346d7	-0.002491405
123	0xba1b77c9	-0.000593063
124	0xba25ddfa	-0.00063273276
125	0x3906a6b3	0.00012841336
126	0xb65d54eb	-3.2980995e-06
127	0xb9b7728e	-0.0003498983
128	0x3a8f7d43	0.0010947365
129	0xb9849490	-0.0002528769
130	0x39e72c94	0.00044092967
131	0x3860f19f	5.363079e-05
132	0x379c548a	1.8636016e-05
133	0x37118c85	8.675391e-06
134	0xb80b2e96	-3.318357e-05
135	0x3712ff8e	8.761779e-06
136	0x375b09e2	1.3055718e-05
137	0xb91e7f9c	-0.00015115592
138	0x38857cd7	6.3651874e-05
139	0xb8fbf60b	-0.00012014442
140	0xb988a14f	-0.00026060126
141	0x3822ab63	3.8783426e-05
142	0xb988a14f	-0.00026060126
143	0xb822ab5c	-3.87834e-05
144	0x39890454	0.000261339
145	0x381857aa	3.6321268e-05
146	0xba34cadc	-0.00068966835
147	0x3b0e8ac8	0.00217502
148	0xb9e98060	-0.0004453687
149	0x3a6df070	0.00090766605
150	0x39979f1d	0.00028919513
151	0xb961c638	-0.00021531514
152	0xba9e41b3	-0.0012074023
153	0xbaa0a8ad	-0.00122573
154	0xba63d343	-0.0008690843
155	0xb991e8e7	-0.0002783008
156	0x3889871b	6.5578344e-05
157	0x377fa3b3	1.5237299e-05
158	0xb88d8b77	-6.749381e-05
159	0xb99fae9a	-0.00030456932
160	0x393026f5	0.0001679918
161	0xb7a5bd8f	-1.9757803e-05
162	0xb9d6ee09	-0.0004099461
163	0x3890b06c	6.899316e-05
164	0xb9c5c5b1	-0.0003772206
165	0xba63f80d	-0.0008696325
166	0x386ba118	5.6178396e-05
167	0xba63f80d	-0.0008696325
168	0xb86ba173	-5.6178727e-05
169	0x3a18b94c	0.0005825951
170	0xb919d55a	-0.00014670697
171	0xbb243a71	-0.0025059248
172	0xbb20ef8b	-0.0024556841
173	0xbad6352e	-0.0016342753
174	0xba107fb0	-0.0005512191
175	0x386884ef	5.5436914e-05
176	0xb7921243	-1.741306e-05
177	0xba0ce91c	-0.0005375312
178	0x3aa9f3ab	0.0012966295
179	0xb96daa04	-0.00022665417
180	0x3a3b4bca	0.00071447773
181	0x38447070	4.6834757e-05
182	0xb7004c88	-7.647213e-06
183	0xb807432e	-3.2249074e-05
184	0xb8f4f141	-0.00011679764
185	0x37e44240	2.7210568e-05
186	0xb88c0a90	-6.6776876e-05
187	0xb91daebd	-0.00015037782
188	0x383c2929	4.4861026e-05
189	0xb9411874	-0.00018415024
190	0xb9a3a353	-0.0003121147
191	0xb80b93d6	-3.3277865e-05
192	0xb9a3a353	-0.0003121147
193	0x380b93dc	3.3277887e-05
194	0x394f837b	0.00019790039
195	0x37897ff0	1.6391248e-05
196	0xba904050	-0.0011005495
197	0x3b249903	0.0025115616
198	0xb9bb1f2c	-0.00035690644
199	0x3ab020df	0.0013437531
200	0xb89d5536	-7.502215e-05
201	0x38b81620	8.777925e-05
202	0x3a571729	0.000820505
203	0x38e01999	0.0001068592
204	0x39cdb62c	0.00039236376
205	0xb99f782e	-0.00030416384
206	0x3625fcde	2.4734104e-06
207	0xb7965d3c	-1.7924809e-05
208	0x3904faf9	0.00012681996
209	0x38e93507	0.00011120183
210	0xb75e784d	-1.3260241e-05
211	0x36942633	4.4151907e-06
212	0x3959aed7	0.00020759866
213	0xb7f5b3d0	-2.9290008e-05
214	0x398ac26e	0.00026466273
215	0x3a09dd86	0.0005259145
216	0x38c3f93d	9.344749e-05
217	0x3a09dd86	0.0005259145
218	0xb8c3f92f	-9.344739e-05
219	0xb92c2d36	-0.0001642004
220	0x389f2647	7.5888405e-05
221	0x3ae176bc	0.0017201523
222	0x3962acdb	0.00021617433
223	0x3a4c1c9d	0.0007786246
224	0xba1ad4fa	-0.000590637
225	0xb78cb2e5	-1.6772605e-05
226	0x381c4178	3.725427e-05
227	0x38cf1ac5	9.8755154e-05
228	0x39cf6009	0.00039553668
229	0x382d39d5	4.1300274e-05
230	0x39090376	0.00013066627
231	0xb7ec3247	-2.8156805e-05
232	0x3732e9a3	1.0664025e-05
233	0xb8bf75f6	-9.129562e-05
234	0xb6c26a4c	-5.794025e-06
235	0xb8ea8c71	-0.00011184149
236	0x368b6636	4.1544217e-06
237	0x381449a6	3.535454e-05
238	0xb6e7e9bd	-6.911547e-06
239	0x37e5ad71	2.7379692e-05
240	0x38cb50bb	9.6948315e-05
241	0xb80f54d5	-3.4172863e-05
242	0x38cb50bb	9.6948315e-05
243	0x380f54df	3.41729e-05
244	0xb6876dd9	-4.0361015e-06
245	0x3885f564	6.387642e-05
246	0x3930e17b	0.00016868666
247	0x3a303d6a	0.00067230186
248	0x37d69d16	2.5583937e-05
249	0x3974c8e5	0.00023344492
250	0xb8a97e64	-8.08209e-05
251	0x38109425	3.4470246e-05
252	0x39ec6d26	0.0004509475
253	0xb9cf7f85	-0.00039577126
254	0x395a6b3c	0.00020830048
255	0xb995670f	-0.0002849628
