04-goal-pose-l6/logs/rsl_rl/joint_position/2026-02-19_13-16-49/model_1400.pt (torch, 161397 bytes, 36 tensors)

std f4 [6]
0.03794217 0.032698024 0.030506805 0.012257867 0.023023399 0.016363597
00000000: 4069 1b3d 5dee 053d 68e9 f93c 38d5 483c
00000010: 919b bc3c f30c 863c

actor.0.weight f4 [64, 25]
0.5400416 -0.24133778 -0.13505036 0.127463 0.31848782 -0.268293 -0.12525645 -0.12934092
-0.087475255 0.20067981 -0.12542492 -0.09403612 -0.38346753 0.73360026 -0.37080094 -0.05579613
1.1464473 -0.12371262 -1.4029561 -0.32430908 -0.07951702 0.17801347 0.2598979 0.0110627925
-0.06876387 -0.47508243 0.053728577 0.123776555 0.4532577 -0.4113109 -0.1497843 0.168983
0.021187184 -0.05887863 -0.057646483 -0.091797486 -0.053860035 -0.13079251 -0.56911975 -0.61107576
-0.15492827 -0.9903788 -0.118732 1.1483217 0.07360471 0.29225773 -0.14452437 0.18522888
0.038003355 -0.105970256 -1.0624955 0.14686574 0.115654126 0.64589596 -0.6622975 0.81023085
-0.09492494 0.06519922 0.05450509 0.3012749 -0.07547147 0.06514372 0.2371442 -0.92199713
0.06622388 0.268136 -2.0769432 0.042588145 2.091105 -0.12364315 -0.14992766 -0.0009831701
0.1994934 -0.1395081 0.14255723 0.5399114 -0.13063759 -0.45338905 -0.5104962 -0.24380285
-0.54321927 0.21833107 -0.2617397 0.12111192 -0.23089206 0.37963483 -0.026395548 -0.10864757
1.513787 -0.069861636 -0.041412108 1.2548016 0.11023005 -1.0563301 -0.0014271509 -0.065090396
-0.018047146 -0.13926592 -0.14628471 -0.22122443 0.0658336 -0.069454506 -0.6222778 0.024608407
-0.051571213 0.012606856 0.10963423 0.09752704 -0.13496391 0.24659277 -0.13836886 0.028688679
-0.24049488 2.099438 -0.23515056 -0.07250452 0.5486379 -0.12731744 -0.5368585 -0.035522923
0.08041606 0.049172282 0.07200487 0.031976167 0.17073685 0.08135246 -0.342801 0.4992238
0.15988865 -0.008953193 -0.36062723 -0.42575732 0.019728014 -0.10086859 0.25727507 0.044890806
0.19890708 -0.10710352 -1.3458003 0.069517694 0.17023918 -0.08079381 0.15496397 0.17015052
-0.08220768 -0.004179536 -0.15358046 -0.08370656 -0.1000981 -0.005567793 -0.1888633 0.19640681
0.9225953 0.23022592 -0.2560077 0.39389837 -0.38424298 -0.045212444 -0.053421244 0.08110977
0.048118483 -0.045718484 -0.13717502 -1.7164279 -0.38550615 0.13861811 0.115449905 0.05449853
-0.089936525 0.07564371 0.54814374 -0.005372687 -0.038935747 0.03029783 -0.34317207 -0.063067764
0.46357816 -0.24819425 -0.3155481 -0.061963942 -0.3205843 -0.16558713 -0.21985406 0.03639038
-0.09354395 0.10680879 -0.02761517 -0.28720823 0.41888145 -0.10622722 -0.036776353 1.10972
-0.17824952 -0.8535371 0.20891184 -0.18487717 -0.14972363 -0.19817805 -0.05661063 -0.12806359
-0.10909116 -0.31489086 0.14430006 -0.100910865 -0.009480166 -0.43646643 0.08318638 -0.040133946
-0.14695968 -0.07046775 0.10061495 0.10641021 -0.104356006 -1.1453079 -0.23326346 -0.045350436
1.1476403 0.21396545 -1.138879 -0.21361731 -0.13200022 0.041224904 0.11815114 -0.39572185
-0.0633734 0.21876633 -0.30108562 -0.48497185 0.040503096 -0.79369456 0.16142672 -0.4858157
0.28759828 0.075669974 0.14102316 0.0033330992 0.04989157 0.020126656 0.52016133 -0.04174445
-0.17302322 0.45407748 -0.076539114 -0.34785885 0.14724249 -0.11805775 0.18759848 -0.20033704
0.28978094 0.014630788 -0.055577 0.2262953 0.020507751 -0.2580528 -0.13063386 -0.2772251
00000000: 2b40 0a3f 4021 77be a44a 0abe a985 023e
00000010: d610 a33e b35d 89be 3a43 00be f271 04be
00000020: 3a26 b3bd 027f 4d3e 646f 00be 0296 c0bd
00000030: db55 c4be 3acd 3b3f 9fd9 bdbe 7c8a 64bd
00000040: c9be 923f 0b5d fdbd 1194 b3bf d70b a6be
00000050: d2d9 a2bd 2a49 363e 5611 853e b740 353c
00000060: 12d4 8cbd 013e f3be 7f12 5c3d 907e fd3d
00000070: 6511 e83e 5897 d2be 0e61 19be e109 2d3e
00000080: bf90 ad3c b82a 71bd b81e 6cbd 5200 bcbd
00000090: 579c 5cbd 79ee 05be d5b1 11bf 766f 1cbf
000000a0: 84a5 1ebe 7789 7dbf c329 f3bd 35fc 923f
000000b0: 11be 963d cea2 953e 32fe 13be a4ac 3d3e
000000c0: 68a9 1b3d ef06 d9bd daff 87bf f963 163e
000000d0: 12dc ec3d 7059 253f 548c 29bf 4a6b 4f3f
000000e0: 0268 c2bd 2b87 853d bb40 5f3d b440 9a3e
000000f0: c990 9abd 126a 853d eed5 723e 0108 6cbf
00000100: 63a0 873d 1f49 893e a3ec 04c0 e870 2e3d
00000110: aad4 0540 9f38 fdbd a386 19be b7dd 80ba
00000120: ff47 4c3e 36db 0ebe 86fa 113e a237 0a3f
00000130: dcc5 05be 9c22 e8be e1af 02bf 74a7 79be
00000140: 6b10 0bbf 2e92 5f3e bf02 86be 8709 f83d
00000150: f86e 6cbe 7f5f c23e 7a3b d8bc 9e82 debd
00000160: c6c3 c13f 9e13 8fbd be9f 29bd 579d a03f
00000170: 4bc0 e13d d335 87bf 3d0f bbba 1d4e 85bd
00000180: 9cd7 93bc ba9b 0ebe a9cb 15be a888 62be
00000190: c4d3 863d 2a3e 8ebd 994d 1fbf 9297 c93c
000001a0: 563c 53bd fd8c 4e3c e987 e03d 42bc c73d
000001b0: fb33 0abe d182 7c3e 91b0 0dbe 8504 eb3c
000001c0: 4a44 76be 315d 0640 4fcb 70be 407d 94bd
000001d0: 8973 0c3f 815f 02be 8f6f 09bf 7c80 11bd
000001e0: 2db1 a43d e068 493d 4a77 933d 71f9 023d
000001f0: a4d5 2e3e 1e9c a63d 9d83 afbe 439a ff3e
00000200: dab9 233e 6ab0 12bc 22a4 b8be ddfc d9be
00000210: a59c a13c 3194 cebd 8fb9 833e 6cdf 373d
00000220: 4cae 4b3e 1759 dbbd 2f43 acbf 4b5f 8e3d
00000230: 2e53 2e3e 3a77 a5bd e0ae 1e3e f03b 2e3e
00000240: 805c a8bd 7df4 88bb 3244 1dbe 586e abbd
00000250: 3c00 cdbd 0872 b6bb 6265 41be de1e 493e
00000260: 352f 6c3f 58c0 6b3e 7113 83be 0cad c93e
00000270: 7fbb c4be af30 39bd 3cd0 5abd e11c a63d
00000280: e317 453d 4e43 3bbd 9c77 0cbe e9b3 dbbf
00000290: 1061 c5be e8f1 0d3e 0071 ec3d da39 5f3d
000002a0: a430 b8bd 17eb 9a3d 2653 0c3f 5d0d b0bb
000002b0: 177b 1fbd 2833 f83c 40b4 afbe ac29 81bd
000002c0: 1e5a ed3e a226 7ebe 858f a1be e7cd 7dbd
000002d0: a023 a4be ac8f 29be 6c21 61be 140e 153d
000002e0: f893 bfbd 91be da3d 3639 e2bc f50c 93be
000002f0: a177 d63e a88d d9bd cda2 16bd 4e0b 8e3f
00000300: 0b87 36be 6881 5abf fcec 553e 7150 3dbe
00000310: 2751 19be 30ef 4abe 8ce0 67bd 1a23 03be
00000320: 306b dfbd 6039 a1be 65c3 133e 5baa cebd
00000330: b352 1bbc 8778 dfbe 9f5d aa3d 7e63 24bd
00000340: 997c 16be 6551 90bd 360f ce3d 99ed d93d
00000350: 9ab8 d5bd 7399 92bf 9edc 6ebe 61c1 39bd
00000360: e1e5 923f c219 5b3e c9c6 91bf 7fbe 5abe
00000370: 112b 07be 72db 283d 3af9 f13d 0e9c cabe
00000380: eac9 81bd 4804 603e e527 9abe 3b4e f8be
00000390: 93e6 253d 912f 4bbf 0c4d 253e d6bc f8be
000003a0: 1540 933e dcf8 9a3d 6068 103e 2070 5a3b
000003b0: 1a5b 4c3d a8e0 a43c 4b29 053f 3afc 2abd
000003c0: 002d 31be d87c e83e 8ac0 9cbd 8e1a b2be
000003d0: bcc6 163e 43c8 f1bd d119 403e 2725 4dbe
000003e0: 2b5e 943e f9b5 6f3c b5a4 63bd f5b9 673e
000003f0: dfff a73c 7f1f 84be e2c4 05be 73f0 8dbe

actor.0.bias f4 [64]
-0.29445446 -0.15192379 0.13648982 0.09996819 0.016293935 0.07110514 -0.121027365 -0.09932275
0.10203794 -0.041077785 -0.29903266 -0.047161534 -0.2135234 0.03509616 -0.029630268 -0.092371605
0.049811292 -0.27125737 -0.023797195 -0.101931795 -0.12178481 0.03155738 -0.254796 -0.29374903
-0.060476076 0.25423428 -0.18689589 0.19673975 -0.06218408 -0.10170629 -0.14606264 -0.35996854
-0.11798735 -0.24740289 0.01966711 -0.3959218 -0.02890589 -0.2717561 0.23235008 0.096596606
-0.01707781 -0.19383873 -0.13883024 0.08359356 -0.058845315 -0.23698068 -0.016155146 -0.19907102
0.0413479 -0.047675963 -0.29716644 -0.2599644 -0.19768223 0.070436776 0.089026034 -0.20743112
0.11253721 0.31180736 0.29248175 -0.112084195 -0.047936153 0.11522187 -0.31921345 -0.4272711
00000000: bcc2 96be e991 1bbe fdc3 0b3e 1fbc cc3d
00000010: dc7a 853c 929f 913d 32dd f7bd ba69 cbbd
00000020: 44f9 d03d 2e41 28bd cf1a 99be 742c 41bd
00000030: e1a5 5abe fec0 0f3d 2dbb f2bc 532d bdbd
00000040: ed06 4c3d 3fe2 8abe 56f2 c2bc 9ec1 d0bd
00000050: 516a f9bd 5042 013d 9f74 82be 4666 96be
00000060: c3b5 77bd ff2a 823e a361 3fbe 2576 493e
00000070: bcb4 7ebd 634b d0bd 7291 15be cc4d b8be
00000080: 5aa3 f1bd 2f57 7dbe eb1c a13c 43b6 cabe
00000090: 0ccc ecbc 9e23 8bbe 2eed 6d3e 71d4 c53d
000000a0: c3e6 8bbc a97d 46be 8429 0ebe 1a33 ab3d
000000b0: c907 71bd 10ab 72be cc57 84bc 46d9 4bbe
000000c0: 6a5c 293d df47 43bd 3326 98be 0e1a 85be
000000d0: 366d 4abe 2841 903d 4853 b63d d368 54be
000000e0: e979 e63d 37a5 9f3e 2bc0 953e 668c e5bd
000000f0: b358 44bd 72f9 eb3d f26f a3be 47c3 dabe

actor.2.weight f4 [64, 64]
-0.17870198 0.064383335 -0.11629781 0.0024417806 -0.015446741 -0.22816087 -0.21747941 -0.057176854
0.06593261 -0.12886046 0.10319291 0.0077549457 0.06103098 0.01902035 -0.068100005 -0.18514252
-0.064012654 -0.051336452 0.06321089 0.09955603 0.20692708 0.025962474 0.11135722 -0.06143388
0.011088361 -0.1948891 0.0009685377 -0.008266993 0.019301184 0.021102356 -0.16325012 0.058493715
0.029352278 -0.13935131 -0.0903979 0.23156138 -0.06101777 -0.03956349 -0.17806485 -0.059394524
0.08066637 -0.019037588 0.06937814 -0.10030879 0.121567406 0.07487891 -0.24733822 -0.032378163
0.14785989 -0.11431749 0.038828332 -0.043112725 0.15548462 -0.033052757 -0.10541938 -0.08667276
-0.10202662 -0.16799909 -0.14539044 0.18502066 -0.094306864 -0.053346865 0.089911476 -0.09447214
-0.13163085 -0.1798858 0.06988924 0.04469436 -0.08280494 -0.02345479 -0.06515389 0.19815831
-0.11469548 0.12207862 0.0068942304 0.001580236 0.14431803 0.120881744 0.097901955 -0.022486314
0.19456227 -0.030104648 0.029827425 0.05041944 -0.08328443 -0.007200312 -0.19874644 -0.11324628
-0.02887185 0.13194042 0.16697554 0.119472146 0.19239062 -0.10018867 0.22504197 0.24299254
0.1100555 -0.07568672 -0.029949576 -0.2855392 -0.10067845 0.037983324 -0.0073849405 -0.019114003
-0.26121357 0.07451317 0.031591922 0.09540981 -0.25635108 0.0031749266 0.17912184 0.11031774
0.06690954 -0.15461984 0.0038083352 -0.021427257 -0.024317274 -0.11173933 -0.081120975 -0.110406764
-0.14056292 0.10309785 -0.060770098 -0.045223147 -0.18326344 0.051965673 -0.12568988 0.17204104
0.041453607 -0.13082936 -0.037618775 -0.08434933 -0.12679483 -0.27900067 -0.022513403 0.0042544845
-0.18379268 -0.009730167 0.06442198 0.12572289 -0.07493542 -0.17376405 0.040529985 0.09897897
-0.13499226 0.03645498 -0.19781753 0.18526682 0.018832762 -0.13984331 -0.090953775 -0.015061539
-0.19965942 -0.217123 0.014769216 0.16485108 0.53920394 -0.1399253 -0.13357519 -0.029687101
-0.18311314 -0.037437335 -0.16131744 0.24012467 -0.17959602 -0.030432196 0.10190229 -0.24656877
-0.061379828 0.12018364 -0.096317254 -0.039567642 0.023781858 0.5350137 -0.24136536 -0.092603005
-0.102379605 -0.14113572 -0.038931824 0.10412171 0.10268509 0.19068673 0.20080319 -0.006001789
-0.12291218 0.012752469 0.105282664 0.1409614 -0.23968524 0.0964772 0.37957162 0.197613
-0.100903444 0.10690738 -0.059991006 -0.023524916 0.08577509 -0.060398713 0.1771641 0.03171408
-0.06618636 -0.08462285 0.011848072 0.038271952 0.1021224 -0.1857823 0.036879007 0.0088344095
-0.19012074 -0.15825658 -0.14863351 0.08699297 -0.019665381 -0.10151628 0.19076502 -0.13580982
-0.14285932 -0.39568165 0.040312555 -0.016333507 -0.04926459 -0.008459202 -0.19191593 0.0374983
0.092432834 -0.05227121 0.13398066 0.30004695 0.026449405 -0.03242347 0.23445627 -0.27135968
0.10058278 0.10869922 -0.0923979 -0.06906607 0.008968763 0.10393943 -0.15022872 -0.13052371
-0.019997805 0.08062576 0.19239902 0.055368315 0.027609488 0.03865289 0.0011076068 0.12708405
0.08406059 0.015850836 0.06804389 -0.17869654 -0.16013224 -0.0801066 0.18146525 0.14617051
00000000: a7fd 36be 69db 833d 8c2d eebd 4806 203b
00000010: 5414 7dbc 01a3 69be ecb2 5ebe 4732 6abd
00000020: ad07 873d fff3 03be ce56 d33d 331d fe3b
00000030: 9ffb 793d 91d0 9b3c 0478 8bbd 0096 3dbe
00000040: 1119 83bd 2c46 52bd b674 813d 08e4 cb3d
00000050: b1e4 533e 41af d43c 410f e43d 18a2 7bbd
00000060: f5ab 353c 0291 47be 77e5 7d3a 4872 07bc
00000070: 841d 9e3c d9de ac3c 0a2b 27be 1b97 6f3d
00000080: 3074 f03c 1cb2 0ebe 8922 b9bd 6d1e 6d3e
00000090: c5ed 79bd 530d 22bd a256 36be ac47 73bd
000000a0: 6934 a53d b7f4 9bbc 2016 8e3d b26e cdbd
000000b0: 55f8 f83d 1d5a 993d 3b46 7dbe f79e 04bd
000000c0: 9568 173e 4a1f eabd 750a 1f3d f896 30bd
000000d0: 5c37 1f3e 5462 07bd 1ee6 d7bd 7d81 b1bd
000000e0: 55f3 d0bd f407 2cbe 3be1 14be 0e76 3d3e
000000f0: f523 c1bd 3e82 5abd 8223 b83d 9c7a c1bd
00000100: 3dca 06be fc33 38be 1722 8f3d 6f11 373d
00000110: a395 a9bd 4224 c0bc 676f 85bd 03ea 4a3e
00000120: 77e5 eabd 5b04 fa3d ffe8 e13b ec1f cf3a
00000130: 1bc8 133e d990 f73d d280 c83d 3835 b8bc
00000140: 553b 473e 069e f6bc a558 f43c 9d84 4e3d
00000150: 0791 aabd 98f0 ebbb 3084 4bbe aaed e7bd
00000160: a884 ecbc 641b 073e a3fb 2a3e d0ad f43d
00000170: 0c02 453e b82f cdbd 6771 663e 09d3 783e
00000180: c764 e13d a401 9bbd d058 f5bc 3232 92be
00000190: 8130 cebd 6794 1b3d 5ffd f1bb f894 9cbc
000001a0: c9bd 85be 5c9a 983d 8866 013d 3866 c33d
000001b0: 7340 83be 6e12 503b b76b 373e 44ee e13d
000001c0: de07 893d aa54 1ebe 4395 793b 3788 afbc
000001d0: 0535 c7bc 97d7 e4bd c122 a6bd f11c e2bd
000001e0: baef 0fbe f724 d33d 11ea 78bd e83b 39bd
000001f0: 69a9 3bbe f5d9 543d d9b4 00be 872b 303e
00000200: 42cb 293d 22f8 05be 2516 1abd 57bf acbd
00000210: 81d6 01be 2dd9 8ebe 076e b8bc 3469 8b3b
00000220: 2634 3cbe 476b 1fbc acef 833d 80bd 003e
00000230: be77 99bd 34ef 31be c502 263d 7cb5 ca3d
00000240: 693b 0abe d151 153d ae90 4abe 96b6 3d3e
00000250: 2a47 9a3c 1633 0fbe f945 babd acc4 76bc
00000260: 8573 4cbe 7e55 5ebe 95fa 713c b9ce 283e
00000270: 4509 0a3f 9448 0fbe efc7 08be 5d32 f3bc
00000280: 0382 3bbe e457 19bd 6630 25be 3ee3 753e
00000290: 05e8 37be f14c f9bc 26b2 d03d 867c 7cbe
000002a0: 6a69 7bbd d722 f63d fb41 c5bd ae11 22bd
000002b0: 2cd2 c23c a8f6 083f 7b28 77be a5a6 bdbd
000002c0: 66ac d1bd e285 10be fa76 1fbd c33d d53d
000002d0: 8f4c d23d 6243 433e 5a9f 4d3e a8aa c4bb
000002e0: 62b9 fbbd bbef 503c 709e d73d 2f58 103e
000002f0: 0c70 75be d795 c53d 3657 c23e 105b 4a3e
00000300: 77a6 cebd 42f2 da3d 21b9 75bd 53b7 c0bc
00000310: daaa af3d a464 77bd 816a 353e a0e6 013d
00000320: b78c 87bd bf4e adbd 6a1e 423c 0dc3 1c3d
00000330: 8d25 d13d b73d 3ebe 710e 173d 33be 103c
00000340: 03af 42be 030e 22be 6233 18be 5f29 b23d
00000350: 4b19 a1bc c4e7 cfbd e857 433e bb11 0bbe
00000360: b749 12be c996 cabe c71e 253d d9cd 85bc
00000370: abc9 49bd 7798 0abc 9c85 44be d197 193d
00000380: 6d4d bd3d 561a 56bd 3a32 093e c19f 993e
00000390: 6cac d83c 79ce 04bd 4e15 703e a8ef 8abe
000003a0: 58fe cd3d b29d de3d 1c3b bdbd 8372 8dbd
000003b0: b8f1 123c 32de d43d 8fd5 19be 02a8 05be
000003c0: 70d2 a3bc 1e1f a53d 4004 453e e3c9 623d
000003d0: 4b2d e23c 7e52 1e3d 1e2d 913a 5222 023e
000003e0: f527 ac3d 9dd9 813c 985a 8b3d 3afc 36be
000003f0: b5f9 23be ee0e a4bd 07d2 393e b9ad 153e

actor.2.bias f4 [64]
-0.18052106 0.09175677 -0.12518936 -0.19822846 -0.116731815 -0.120111875 -0.12410391 -0.06787207
0.12389451 0.020263286 -0.038821347 -0.14475904 -0.24069308 0.059416845 -0.07963926 -0.1509241
-0.23105712 0.017401388 -0.10064285 0.01496891 -0.16068581 0.21603301 -0.23504317 -0.094627365
-0.17459154 -0.13333459 0.001904163 -0.108007886 -0.02597977 0.051713947 -0.035635646 0.13233271
-0.17853971 -0.23890318 -0.24071996 0.01568056 -0.42151615 0.029216476 -0.16896349 -0.048720494
-0.12506346 -0.32065016 -0.15786813 0.078023955 -0.12768628 0.14979936 -0.23672932 -0.30800974
0.030407008 -0.19642341 -0.22759897 -0.038697332 -0.00089691475 0.18625961 -0.0956248 -0.19917087
0.04575232 -0.02719398 0.12951644 0.012430455 -0.3067666 0.02671165 -0.020621397 -0.18475173
00000000: 83da 38be f9ea bb3d a431 00be 67fc 4abe
00000010: 1711 efbd 37fd f5bd 312a febd 8300 8bbd
00000020: 68bc fd3d 31ff a53c 2203 1fbd b73b 14be
00000030: 3f78 76be 145f 733d e919 a3bd d98b 1abe
00000040: 3d9a 6cbe 5b8d 8e3c d71d cebd 2940 753c
00000050: d28a 24be c237 5d3e 28af 70be fecb c1bd
00000060: 20c8 32be dd88 08be 1c95 f93a 3d33 ddbd
00000070: 87d3 d4bc 01d2 533d aff6 11bd 3a82 073e
00000080: 1dd3 36be 09a3 74be 4b7f 76be 8574 803c
00000090: f7d0 d7be 6457 ef3c c404 2dbe 248f 47bd
000000a0: a310 00be 422c a4be 2fa8 21be 06cb 9f3d
000000b0: 31c0 02be 0165 193e 2c69 72be 74b3 9dbe
000000c0: 1e18 f93c 3823 49be b40f 69be 1881 1ebd
000000d0: ee1e 6bba d7ba 3e3e efd6 c3bd 73f3 4bbe
000000e0: c966 3b3d e9c5 debc f59f 043e 1ba9 4b3c
000000f0: 8310 9dbe 64d2 da3c 34ee a8bc 8f2f 3dbe

actor.4.weight f4 [6, 64]
0.06854991 -0.06255952 -0.05305665 -0.044380862 -0.04421121 0.09547831 0.08958738 -0.04077168
0.072782256 -0.087678395 -0.13967277 -0.26085842 0.03754936 -0.111253075 -0.03144386 -0.08595642
0.04984838 0.08117801 0.02349313 0.028971082 -0.045234997 -0.07346697 0.04162575 0.026500665
0.11784543 -0.07354742 -0.041231025 0.008626235 0.0102361655 -0.08868154 -0.14231992 -0.028469391
0.037096422 0.17879288 0.049409244 0.07366447 0.08109495 -0.029691806 0.040834963 -0.18097909
-0.10391923 0.0706332 -0.09438982 0.15055767 0.03623341 -0.13586244 0.05917784 -0.024184076
-0.106778815 0.15619498 0.024573369 0.09306686 -0.14082168 -0.054004207 -0.14977622 0.025867779
0.13872164 0.038983107 0.1148077 0.12388885 -0.001312526 -0.23690997 0.07816595 0.034664225
0.023765702 -0.111443885 0.15900636 0.10643843 0.03778404 0.040479105 0.10504453 0.013252416
0.03815143 -0.11622122 -0.03560079 -0.124703124 -0.07721705 0.0020332723 -0.10294914 0.057032615
0.02937433 0.029644437 0.11001704 -0.13397166 0.011639885 -0.09777406 -0.032972995 0.13698378
-0.108709484 -0.18119514 -0.1624847 -0.08652582 0.005947905 0.009602572 0.02903002 -0.05350945
0.09377546 0.05757586 -0.019511212 -0.03909186 0.10034632 0.12270815 -0.054355666 0.047329556
0.02312276 0.14393221 0.10249154 -0.21125937 0.15821983 -0.10278692 0.035731897 0.04128569
0.07173994 0.14605516 0.06285624 0.080280125 -0.32483006 -0.06573898 0.0018528387 -0.04121485
0.03745055 -0.06867273 -0.05022254 0.037050683 0.08661302 -0.16193762 -0.06447527 -0.026055573
0.005078002 0.04276119 0.038055893 -0.018286573 -0.04512626 -0.15060373 -0.029839152 -0.12324033
0.15288317 0.04627241 -0.2263824 -0.011752865 -0.1046264 -0.03279826 0.008942025 0.009652249
-0.11962845 0.024829557 0.103018604 -0.008608993 -0.13372599 0.07998836 0.0111245345 0.009008654
-0.13412082 0.020960202 0.074641414 0.006818864 0.024176149 -0.053849068 0.10935098 0.017967043
-0.18191522 -0.19968747 -0.09004338 0.038931493 -0.16192316 -0.08293479 -0.16153029 0.033780728
-0.06229009 -0.16985409 0.10578664 0.12877454 0.0800722 0.005314295 -0.024191625 -0.087852664
0.068552375 0.047195293 -0.101784915 0.04081419 -0.024164133 0.048598196 -0.0017870347 -0.03105784
0.11612293 0.039168295 0.05761285 -0.025823548 -0.076978624 0.05764475 -0.012054501 -0.039298914
-0.07376493 -0.031497255 -0.07150133 0.00023070283 -0.12803364 0.0017336485 -0.2239739 -0.098167606
-0.08405503 -0.12116295 -0.083911486 -0.0932374 -0.11797377 -0.21191965 -0.1709875 -0.009329152
-0.11696735 -0.2906447 -0.054316085 -0.12513226 -0.13584848 -0.08066569 -0.028607087 -0.16035317
-0.23486567 -0.04521283 -0.10119065 0.026568605 -0.01203887 -0.23648818 -0.10373466 -0.027267653
0.053657096 0.03487658 -0.09520525 -0.18871419 -0.1535505 0.20022668 -0.075624466 0.08328014
-0.09721883 -0.21024151 0.07754312 0.12112962 0.11603688 0.0064998544 -0.11209635 -0.064717926
-0.022765614 0.20586002 -0.13301101 0.030767625 -0.072726734 0.050193664 -0.12740137 -0.09129415
-0.037108213 -0.07194232 0.018756868 -0.22997342 -0.14043994 -0.01389325 -0.04904849 -0.09007411
00000000: e563 8c3d 351f 80bd ee51 59bd b5c8 35bd
00000010: d016 35bd 228a c33d 9779 b73d 3500 27bd
00000020: dd0e 953d bb90 b3bd 6106 0fbe 3c8f 85be
00000030: 5ccd 193d a7d8 e3bd 47cb 00bd eb09 b0bd
00000040: d12d 4c3d a840 a63d aa74 c03c c354 ed3c
00000050: 5548 39bd da75 96bd c37f 2a3d ec17 d93c
00000060: f258 f13d 08a0 96bd dde1 28bd 0d55 0d3c
00000070: 97b5 273c ab9e b5bd 50bc 11be a438 e9bc
00000080: 6bf2 173d 7b15 373e 5961 4a3d 66dd 963d
00000090: 1c15 a63d 3b3c f3bc 9042 273d 9552 39be
000000a0: 9bd3 d4bd 24a8 903d 734f c1bd ca2b 1a3e
000000b0: 7c69 143d 861f 0bbe 7664 723d af1d c6bc
000000c0: daae dabd 94f1 1f3e 174e c93c d799 be3d
000000d0: 8f33 10be 8433 5dbd f05e 19be aae8 d33c
000000e0: 0c0d 0e3e c0ac 1f3d 4d20 eb3d 70b9 fd3d
000000f0: 1009 acba 8798 72be 7815 a03d 13fc 0d3d
00000100: 4ab0 c23c b13c e4bd 90d2 223e 64fc d93d
00000110: 70c3 1a3d 6bcd 253d 9621 d73d a920 593c
00000120: ad44 1c3d 6405 eebd 22d2 11bd 5a64 ffbd
00000130: f923 9ebd a640 053b 00d7 d2bd 089b 693d
00000140: 6fa2 f03c e4d8 f23c 9d50 e13d de2f 09be
00000150: 37b5 3e3c c43d c8bd b10e 07bd 7a45 0c3e
00000160: 14a3 debd 388b 39be 6462 26be 7334 b1bd
00000170: a5e6 c23b 1b54 1d3c 5dd0 ed3c ba2c 5bbd
00000180: 590d c03d aad4 6b3d fad5 9fbc c91e 20bd
00000190: 5f82 cd3d 694e fb3d 0ca4 5ebd a3dc 413d
000001a0: f16b bd3c f762 133e 16e7 d13d 6054 58be
000001b0: 6104 223e f381 d2bd 9c5b 123d 2f1b 293d
000001c0: 64ec 923d 7c8f 153e c6ba 803d e869 a43d
000001d0: 2050 a6be 29a2 86bd f3da f23a e7d0 28bd
000001e0: bf65 193d 4aa4 8cbd 26b6 4dbd 75c2 173d
000001f0: 2b62 b13d fad2 25be 9c0b 84bd 7f72 d5bc
00000200: 5e65 a63b 5c26 2f3d 7fe0 1b3d b9cd 95bc
00000210: 50d6 38bd dd37 1abe 3d71 f4bc 6d65 fcbd
00000220: 688d 1c3e 2388 3d3d cad0 67be 178f 40bc
00000230: 5e46 d6bd 7857 06bd 9281 123c 7724 1e3c
00000240: c3ff f4bd 5b67 cb3c 6bfb d23d bc0c 0dbc
00000250: 77ef 08be f0d0 a33d ae43 363c 0999 133c
00000260: f856 09be bbb4 ab3c 99dd 983d c770 df3b
00000270: 0f0d c63c d790 5cbd 68f3 df3d 9f2f 933c
00000280: fc47 3abe df7a 4cbe aa68 b8bd a176 1f3d
00000290: 2fcf 25be b7d9 a9bd 3268 25be a95d 0a3d
000002a0: e523 7fbd 3bee 2dbe aaa6 d83d 79dd 033e
000002b0: e5fc a33d 8a23 ae3b 842d c6bc 19ec b3bd
000002c0: 3065 8c3d da4f 413d 9c74 d0bd c82c 273d
000002d0: dcf3 c5bc e70e 473d ef3a eaba 036d febc
000002e0: dcd1 ed3d ef6e 203d 74fb 6b3d e88b d3bc
000002f0: f8a6 9dbd e71c 6c3d 3e80 45bc e6f7 20bd
00000300: 1112 97bd 4403 01bd 4a6f 92bd d2e8 7139
00000310: 401b 03be 973b e33a 6a59 65be 190c c9bd
00000320: 0b25 acbd 4824 f8bd c9d9 abbd 40f3 bebd
00000330: 3b9c f1bd 7701 59be 5917 2fbe 4dd9 18bc
00000340: 948c efbd 62cf 94be 8b7a 5ebd ac22 00be
00000350: dd1b 0bbe 0e34 a5bd 6959 eabc 9f33 24be
00000360: a080 70be 1731 39bd 0b3d cfbd 67a6 d93c
00000370: ae3e 45bc f529 72be d672 d4bd 6a60 dfbc
00000380: 8bc7 5b3d bfda 0e3d f8fa c2bd 4b3e 41be
00000390: 583c 1dbe 3908 4d3e 00e1 9abd c78e aa3d
000003a0: aa1a c7bd 8d49 57be edce 9e3d ce12 f83d
000003b0: bea4 ed3d bbfc d43b c592 e5bd d58a 84bd
000003c0: f47e babc f8cc 523e 0a34 08be 630c fc3c
000003d0: c1f1 94bd df97 4d3d 8175 02be 6df8 babd
000003e0: c8fe 17bd 7f56 93bd 01a8 993c 277e 6bbe
000003f0: 7dcf 0fbe 84a0 63bc 12e7 48bd c678 b8bd

actor.4.bias f4 [6]
0.042437334 -0.04145212 0.29966307 0.18538825 0.013683114 0.21664736
00000000: c5d2 2d3d b3c9 29bd 706d 993e 6bd6 3d3e
00000010: 242f 603c ced8 5d3e

critic.0.weight f4 [64, 25]
0.095167376 0.029977119 0.030621953 -0.060153447 0.020314967 -0.07260476 -0.07312462 -0.17118134
-0.013418684 0.085753866 0.09366894 0.11785331 -0.2888966 -1.5272894 0.69362456 0.00976859
0.18204346 -0.10402238 0.0059816632 -0.05274918 0.046210036 -0.12482557 0.114450246 0.066637136
-0.111153014 -0.26345143 -0.12925456 -0.0877464 0.121835545 -0.0020135767 -0.014372268 -0.06288699
-0.0197065 -0.0042201323 0.052728277 0.021755511 0.03316278 0.12450212 4.146312 -0.2952965
-0.10819187 1.7008619 -0.016473617 -1.8540325 0.16172533 0.0542097 0.11109952 -0.04246342
-0.020125581 -0.015431491 0.17236811 0.039999686 0.09710529 -0.25424916 -0.05550259 0.081888914
0.0017862762 -0.06851917 0.055261534 0.008653295 0.00047123263 -0.021767523 0.38969004 2.3796418
-0.4966671 0.04088367 0.7791354 0.1500136 -0.6195191 -0.060330354 0.03484478 -0.11211671
0.06913807 0.09120978 0.011919326 0.03495019 -0.064071245 -0.24075247 -0.15673907 -0.052291155
0.13808228 -0.14729778 -0.18566298 0.29621848 -0.026328092 0.3836306 -0.11269771 0.5086883
-0.6571683 -0.17930989 0.2892555 -0.11689528 0.26331607 0.19909984 0.14615077 -0.0004878685
0.11038552 0.061139833 0.13194399 0.07734542 -0.00020832453 0.0033241366 -0.23783468 -0.30715433
0.17298812 0.06772215 -0.06384585 -0.012949825 -0.15011474 0.022374798 0.032346692 -0.047870528
0.21096471 0.5151967 -0.4609482 -0.108813286 -0.117262706 0.039372288 0.17567022 -0.17520675
0.015148781 0.16977699 -0.05787204 -0.053787526 -0.07572298 0.1247965 0.19546747 0.06737137
0.04795907 -0.014527892 0.084776804 0.029778337 0.008023934 0.09759607 -0.08109484 0.008304649
0.00013928735 -0.112281546 0.7766847 0.5834069 -0.05936997 -0.6160913 0.08923281 0.71606165
0.04858564 0.082844526 -0.06399229 0.03644615 -0.13118994 -0.09119387 0.2861543 0.18064727
-0.1653943 0.2489005 -0.4242554 -0.18153165 0.09067697 -0.019434992 0.049535517 0.038187258
0.14728524 -0.07082961 0.13062027 -2.6066034 -0.2114561 -0.087321654 -1.4307078 -0.054183956
1.6557503 0.17461684 0.13038191 0.15867434 0.2096555 -0.10714579 0.13856617 0.15063806
0.25581935 -0.09823191 -0.26314047 -0.41119006 -0.029855205 0.08782002 0.061051548 -0.008108538
0.025661651 0.005152582 -0.10754714 0.20162612 1.1662445 0.12110598 0.00093507377 0.114626944
-0.11020943 -0.25715488 0.027901988 -0.09065671 -0.008562582 -0.10563389 -0.09096837 -0.075631246
-0.23758803 0.22539538 -0.043685026 0.042918544 0.13258247 -0.1330802 0.034575164 -0.008948521
0.006120873 0.012864347 0.021222157 0.02752774 0.22675239 0.062132567 -0.4301244 -0.16833001
0.79229313 -0.071904354 -1.0091791 -0.0072519905 -0.082363285 0.05794455 -0.032438602 0.037395105
-0.0014626754 0.22625151 -0.09309446 0.04525562 0.065181635 0.14906932 0.010094319 -0.11786959
-0.111746944 0.05005535 0.07485345 -0.1047484 -0.044502307 0.3360659 -0.02955688 0.21536961
0.19884372 -0.21548171 0.08866226 0.05191837 0.08357697 0.051095527 -0.06076151 -0.11497659
0.10783632 0.14537676 0.056558017 -0.26021683 -0.04900734 -0.07272225 0.043761007 0.120291404
00000000: 1de7 c23d 9392 f53c e4da fa3c 7663 76bd
00000010: 936b a63c ceb1 94bd 5cc2 95bd 294a 2fbe
00000020: 0ada 5bbc b99f af3d 80d5 bf3d 145d f13d
00000030: 41ea 93be 387e c3bf 6191 313f 700c 203c
00000040: 9a69 3a3e b009 d5bd d401 c43b 860f 58bd
00000050: bc46 3d3d 8ca4 ffbd e464 ea3d 0d79 883d
00000060: 31a4 e3bd 1be3 86be 4f5b 04be 62b4 b3bd
00000070: ea84 f93d 36f6 03bb a979 6bbc e5ca 80bd
00000080: 876f a1bc 0949 8abb 9bf9 573d 9d38 b23c
00000090: b2d5 073d f8fa fe3d 97ae 8440 1a31 97be
000000a0: b393 ddbd d8b5 d93f aef3 86bc f050 edbf
000000b0: 539b 253e fe0a 5e3d 2588 e33d 20ee 2dbd
000000c0: 67de a4bc 5dd4 7cbc 4481 303e b6d6 233d
000000d0: 23df c63d f22c 82be af56 63bd 60b5 a73d
000000e0: 7c21 ea3a c753 8cbd eb59 623d 8dc6 0d3c
000000f0: c60f f739 ce51 b2bc 7485 c73e 0d4c 1840
00000100: 264b febe a375 273d 6b75 473f 2a9d 193e
00000110: ce98 1ebf f61c 77bd 66b9 0e3d 729d e5bd
00000120: 4398 8d3d 31cc ba3d 4749 433c ee27 0f3d
00000130: c937 83bd d187 76be 3580 20be 402f 56bd
00000140: 7165 0d3e 3bd5 16be 701e 3ebe f3a9 973e
00000150: 03ae d7bc 3b6b c43e 0fce e6bd 6539 023f
00000160: 2f3c 28bf 039d 37be 4c19 943e cb66 efbd
00000170: 5dd1 863e d4e0 4b3e 8ca8 153e 9ac8 ffb9
00000180: ce11 e23d c36d 7a3d 531c 073e 4767 9e3d
00000190: b171 5ab9 c2d9 593b ef8a 73be 5543 9dbe
000001a0: cc23 313e e9b1 8a3d 9dc1 82bd 812b 54bc
000001b0: aeb7 19be 5a4b b73c f77d 043d e313 44bd
000001c0: 2207 583e eee3 033f 6701 ecbe 80d9 debd
000001d0: 6e27 f0bd d644 213d e5e2 333e 6669 33be
000001e0: 9832 783c 05da 2d3e 3b0b 6dbd 4f50 5cbd
000001f0: a614 9bbd 4f95 ff3d a028 483e 00fa 893d
00000200: bb70 443d 6506 6ebc 769f ad3d b3f1 f33c
00000210: d276 033c 73e0 c73d 0d15 a6bd 3910 083c
00000220: aa0d 1239 def3 e5bd cfd4 463f 285a 153f
00000230: ed2d 73bd 29b8 1dbf b1bf b63d d14f 373f
00000240: bc01 473d 64aa a93d 640e 83bd 8f48 153d
00000250: a856 06be dac3 babd d182 923e 99fb 383e
00000260: 205d 29be c6df 7e3e 0138 d9be 6fe3 39be
00000270: d9b4 b93d 2236 9fbc c1e5 4a3d 3e6a 1c3d
00000280: f1d1 163e 1d0f 91bd 52c1 053e 97d2 26c0
00000290: f387 58be b2d5 b2bd 6f21 b7bf ffef 5dbd
000002a0: a0ef d33f c2ce 323e d682 053e 877b 223e
000002b0: eeaf 563e 406f dbbd 4ae4 0d3e dd40 1a3e
000002c0: c1fa 823e d02d c9bd 59ba 86be 8187 d2be
000002d0: e792 f4bc fcda b33d 3011 7a3d acd9 04bc
000002e0: 6238 d23c fed6 a83b ad41 dcbd 1477 4e3e
000002f0: 8047 953f 6906 f83d bd1f 753a 88c1 ea3d
00000300: 7bb5 e1bd cea9 83be b692 e43c 3aaa b9bd
00000310: 124a 0cbc 9556 d8bd a04d babd 8ee4 9abd
00000320: 474a 73be 0cce 663e 12ef 32bd 5bcb 2f3d
00000330: b3c3 073e 2d46 08be b09e 0d3d d19c 12bc
00000340: 9b91 c83b fbc4 523c 17da ad3c db81 e13c
00000350: c731 683e b87e 7e3d 4439 dcbe b45e 2cbe
00000360: b9d3 4a3f 9742 93bd c82c 81bf 1ba2 edbb
00000370: 15ae a8bd 4457 6d3d 57de 04bd 9c2b 193d
00000380: 3eb7 bfba 7aae 673e 4fa8 bebd f55d 393d
00000390: f37d 853d a1a5 183e a462 253c 9d65 f1bd
000003a0: 95db e4bd d706 4d3d c44c 993d 5486 d6bd
000003b0: 0d48 36bd d410 ac3e 4521 f2bc da89 5c3e
000003c0: b09d 4b3e 3da7 5cbe 8f94 b53d 5ba8 543d
000003d0: 672a ab3d 8b49 513d 10e1 78bd d978 ebbd
000003e0: 4ad9 dc3d a5dd 143e 61a9 673d 243b 85be
000003f0: ecbb 48bd 67ef 94bd be3e 333d 575b f63d

critic.0.bias f4 [64]
-0.049072705 0.19942589 -0.06124486 0.00022100558 0.15829912 -0.121452235 0.117981374 0.11183648
0.040325206 -0.12987716 -0.17149997 -0.16166319 -0.06384375 0.091780975 -0.019712526 -0.051544566
0.09046799 0.16883737 -0.19368686 -0.029627949 -0.06994523 0.08516576 0.09596856 -0.03372367
-0.07762268 -0.018377831 0.12803903 0.1595378 0.18723048 0.07083971 -0.17550865 0.18452215
0.17306922 -0.052856196 0.05512135 -0.090815306 -0.05937982 0.16080333 -0.1565034 -0.14410347
-0.04167867 0.13427356 -0.08617971 -0.114758775 -0.074297585 0.090033434 -0.05378055 -0.03635868
-0.05500578 -0.15464994 0.049379524 -0.11563833 -0.19799782 0.17928706 -0.09350636 -0.02106344
0.08460117 -0.25601906 -0.040588833 -0.017765176 0.14596231 0.082425974 0.017741336 0.1699146
00000000: 7600 49bd 4d36 4c3e e4db 7abd bcbd 6739
00000010: 2a19 223e f3bb f8bd 38a0 f13d 860a e53d
00000020: 0b2c 253d 85fe 04be b09d 2fbe 098b 25be
00000030: 83c0 82bd aaf7 bb3d 2a7c a1bc 6520 53bd
00000040: 4847 b93d b4e3 2c3e d955 46be 50b6 f2bc
00000050: 723f 8fbd 636b ae3d 2a8b c43d d521 0abd
00000060: a4f8 9ebd 1b8d 96bc aa1c 033e e15d 233e
00000070: 59b9 3f3e 6914 913d 8ab8 33be 60f3 3c3e
00000080: 0f39 313e bd7f 58bd edc6 613d 60fd b9bd
00000090: 4138 73bd a1a9 243e 6d42 20be dc8f 13be
000000a0: 41b7 2abd 027f 093e fd7e b0bd a606 ebbd
000000b0: 5529 98bd 7363 b83d fe48 5cbd d7ec 14bd
000000c0: be4d 61bd 8e5c 1ebe 2f42 4a3d cad3 ecbd
000000d0: f1bf 4abe 0797 373e 4380 bfbd 3c8d acbc
000000e0: 6143 ad3d ee14 83be 7a40 26bd 4688 91bc
000000f0: 2577 153e f3ce a83d 4756 913c 18fe 2d3e

critic.2.weight f4 [64, 64]
-0.034704287 0.09786531 0.04531922 -0.012277502 0.0004981077 -0.042919733 -0.017311309 -0.006374474
-0.00034948578 -0.079952024 0.03513083 0.13256145 -0.08154975 0.061177317 0.047747847 -0.037489615
-0.021895733 0.12373339 0.10832285 -0.10736728 0.062552005 -0.046235755 -0.0025753735 0.061721496
-0.0015737078 -0.11090777 -0.058395766 0.058600258 -0.0872662 0.0021444047 0.098663256 -0.04266769
0.012788269 -0.0022831662 -0.16038142 -0.05738039 -0.06884096 -0.121563844 -0.08295783 -0.0033807014
-0.14036538 -0.13096014 -0.06361114 0.022275513 0.036552772 -0.13455106 0.10195236 -0.1134933
0.080998786 0.099966325 -0.06537467 -0.09633534 -0.090431966 0.012054053 0.15718088 -0.006303435
-0.03610301 0.043965932 0.06899085 0.027615076 0.06442132 0.043220747 -0.022651598 0.05756573
0.101113565 -0.18915184 -0.0101252 -0.12266293 -0.030737916 0.048355453 -0.053242166 0.14572713
-0.035327002 0.046947952 -0.024831403 0.038779937 0.016552178 -0.092405744 0.07378594 0.076194085
-0.08283644 0.034956057 0.15235491 0.077031374 -0.05341272 -0.025015056 -0.04124423 -0.041959606
0.08816872 -0.08929141 0.0709944 0.10429241 -0.025967259 -0.13219738 -0.024708375 -0.04173755
-0.11104154 -0.06796979 -0.012203713 0.10109115 -0.011207493 -0.12564631 0.23788884 0.023391107
-0.016200084 0.05737606 0.060498238 -0.025537767 0.101550974 0.06742792 -0.010906216 0.11165934
0.20126878 0.06678729 -0.017311418 0.06673276 0.08578268 -0.049737025 0.017895471 0.0912149
-0.072616674 -0.06864561 0.0074721966 0.03943265 0.044160835 -0.047369413 0.074734166 0.03554901
-0.10082948 0.08307151 0.0386746 -0.10856256 -0.03724913 -0.09511616 0.12241872 -0.07073777
0.026748646 -0.06047352 0.07929065 -0.12694836 -0.07080723 -0.05883226 0.035710555 -0.03805016
-0.07905644 0.21630733 0.010716835 -0.026930071 0.09124705 0.014823701 -0.092338696 -0.020849686
0.05559361 0.092884995 -0.0022031649 0.1172471 0.09641337 -0.05615317 0.14648286 -0.122308165
-0.06837496 -0.07174116 -0.0746732 -0.09542047 -0.026576007 -0.20505881 0.1041392 0.16309276
-0.07117622 0.060448185 -0.058197435 -0.0855018 0.09916956 0.072446115 -0.053675354 0.14985801
-0.022603411 -0.043629553 -0.04150873 -0.14717668 -0.024573741 0.08892122 0.1528566 0.123680316
0.016764317 0.0027166684 0.101656854 0.010633553 -0.024185074 0.0036345904 0.023545044 -0.10819957
0.06355276 0.08404104 -0.0030032129 -0.10542173 0.06534236 -0.089841865 -0.03345446 0.051234856
-0.1266744 0.07953142 0.026879618 -0.070031784 -0.080780275 -0.060792267 0.119400695 -0.18644974
0.035085108 0.019384675 0.013625507 -0.034420643 -0.008771382 -0.01694342 0.05626834 0.116402954
-0.17102323 -0.0363221 0.060246516 0.07506285 -0.12540148 -0.050216824 0.057510745 0.0473335
-0.05056878 -0.14960013 -0.05423533 0.10639001 -0.06749085 0.08742191 0.1171771 0.12766054
0.0016918178 -0.10885449 0.041950658 -0.06024143 -0.10816359 0.004024998 0.04041865 0.0010981691
0.1723438 0.06407204 0.003409219 -0.024635697 0.14461702 -0.053309005 0.04687835 0.09939586
0.045598246 0.014036327 0.03040795 -0.03137907 -0.08406257 -0.0898782 -0.09964738 -0.056790162
00000000: 1526 0ebd 9c6d c83d a5a0 393d 9327 49bc
00000010: 7193 023a 9acc 2fbd 72d0 8dbc f7e0 d0bb
00000020: 303b b7b9 e3bd a3bd 58e5 0f3d 30be 073e
00000030: 8e03 a7bd 1195 7a3d 3f93 433d b68e 19bd
00000040: ae5e b3bc ee67 fd3d 5fd8 dd3d 60e3 dbbd
00000050: 441b 803d b461 3dbd 99c7 28bb aecf 7c3d
00000060: df44 ceba 9d23 e3bd 6630 6fbd d306 703d
00000070: 9fb8 b2bd 2489 0c3b f60f ca3d 51c4 2ebd
00000080: e385 513c 2ca1 15bb 073b 24be b307 6bbd
00000090: 7dfc 8cbd 77f6 f8bd cbe5 a9bd c28e 5dbb
000000a0: f1bb 0fbe 6a1a 06be 8f46 82bd 237b b63c
000000b0: 5cb8 153d c1c7 09be 66cc d03d 2d6f e8bd
000000c0: b1e2 a53d 25bb cc3d 28e3 85bd 764b c5bd
000000d0: 6534 b9bd 5d7e 453c 06f4 203e 0c8d cebb
000000e0: c0e0 13bd 9f15 343d 134b 8d3d 0339 e23c
000000f0: 53ef 833d 3d08 313d d88f b9bc 0bca 6b3d
00000100: a114 cf3d 05b1 41be 2be4 25bc b436 fbbd
00000110: 15ce fbbc 5e10 463d 7514 5abd 7e39 153e
00000120: 0cb3 10bd 7f4c 403d 3a6b cbbc b6d7 1e3d
00000130: 6f98 873c 393f bdbd 151d 973d a50b 9c3d
00000140: 27a6 a9bd 152e 0f3d ed02 1c3e a0c2 9d3d
00000150: 4cc7 5abd 60ec ccbc b6ef 28bd d6dd 2bbd
00000160: cd91 b43d 6ade b6bd 8365 913d 4297 d53d
00000170: 4ab9 d4bc c05e 07be 3869 cabc fef4 2abd
00000180: bf69 e3bd bf33 8bbd 15f2 47bc e008 cf3d
00000190: a29f 37bc 6da9 00be 2299 733e b59e bf3c
000001a0: 0ab6 84bc 2903 6b3d 00cd 773d 9434 d1bc
000001b0: f5f9 cf3d a617 8a3d fcaf 32bc a7ad e43d
000001c0: 6719 4e3e c6c7 883d add0 8dbc 2fab 883d
000001d0: d4ae af3d 0db9 4bbd 8699 923c e1ce ba3d
000001e0: 0db8 94bd 1296 8cbd 54d9 f43b 2184 213d
000001f0: fee1 343d 6e06 42bd 3a0e 993d d79b 113d
00000200: b07f cebd 6521 aa3d 4269 1e3d 0c56 debd
00000210: 8b92 18bd 43cc c2bd aab6 fa3d f7de 90bd
00000220: fa1f db3c 15b3 77bd 2363 a23d c0fe 01be
00000230: 6203 91bd 19fa 70bd 3b45 123d 7cda 1bbd
00000240: 58e8 a1bd ab7f 5d3e aa95 2f3c 749c dcbc
00000250: bcdf ba3d 1cdf 723c 121c bdbd f6cc aabc
00000260: 20b6 633d 7d3a be3d f962 10bb 3f1f f03d
00000270: 5f74 c53d de00 66bd 9aff 153e b47c fabd
00000280: 2c08 8cbd 07ed 92bd 43ee 98bd cf6b c3bd
00000290: edb5 d9bc f0fa 51be ef46 d53d ca01 273e
000002a0: d7c4 91bd 8498 773d 6f60 6ebd 911b afbd
000002b0: 6919 cb3d a15e 943d b0da 5bbd 6174 193e
000002c0: ca2a b9bc e7b4 32bd 0f05 2abd 7cb5 16be
000002d0: df4e c9bc 541c b63d 7186 1c3e 1b4c fd3d
000002e0: 5255 893c 220a 323b 7831 d03d 5b38 2e3c
000002f0: c71f c6bc 4f32 6e3b 89e1 c03c bc97 ddbd
00000300: f327 823d b51d ac3d 8dd1 44bb 59e7 d7bd
00000310: 37d2 853d 03ff b7bd 8b07 09bd a4db 513d
00000320: efb6 01be 5ee1 a23d a532 dc3c d36c 8fbd
00000330: 2170 a5bd 5001 79bd 5a88 f43d aeec 3ebe
00000340: 67b5 0f3d 9ccc 9e3c 853d 5f3c a9fc 0cbd
00000350: d8b5 0fbc edcc 8abc a279 663d ac64 ee3d
00000360: b720 2fbe 7bc6 14bd 0dc5 763d 8dba 993d
00000370: 3f69 00be 28b0 4dbd 6390 6b3d c6e0 413d
00000380: 3621 4fbd c730 19be de25 5ebd 01e3 d93d
00000390: a538 8abd 420a b33d 8cfa ef3d 72b9 023e
000003a0: fcbf dd3a 1aef debd 74d4 2b3d b8bf 76bd
000003b0: df84 ddbd 21e4 833b 078e 253d 71f0 8f3a
000003c0: e57a 303e 3438 833d 346d 5f3b cdd0 c9bc
000003d0: 7c16 143e 8b5a 5abd 8303 403d 0f90 cb3d
000003e0: 3ac5 3a3d 9ff8 653c 181a f93c 5787 00bd
000003f0: ff28 acbd 1012 b8bd ed13 ccbd cd9c 68bd

critic.2.bias f4 [64]
0.07319161 -0.042572957 -0.031436175 -0.1581815 -0.30006337 -0.21227427 -0.044237655 0.06087099
0.016464803 -0.03768782 0.1216935 -0.16646689 -0.01751508 -0.024487404 -0.05614411 -0.11854553
-0.035195146 0.11104208 0.18076162 -0.13032672 0.13969688 0.07172286 -0.0061988803 -0.03407255
0.08592435 -0.15629669 -0.028685296 -0.07038486 -0.121055596 0.05163238 -0.11802889 0.028545618
0.027678445 -0.08874165 -0.086439185 -0.059088536 0.05113539 -0.12285607 -0.098610975 -0.012819937
-0.03699393 -0.10721648 -0.11311043 -0.019639235 0.037629142 0.14399683 -0.07932668 0.16525759
0.058886893 0.05899122 0.11440638 0.011774312 -0.13042898 -0.07959406 -0.039433192 0.038207624
0.047587104 -0.03593328 -0.09254363 -0.10228241 0.09341538 -0.17997791 0.0010867111 0.16383766
00000000: 7ce5 953d fb60 2ebd 38c3 00bd 55fa 21be
00000010: e8a1 99be 6d5e 59be 8b32 35bd dc53 793d
00000020: 32e1 863c 8b5e 1abd 713a f93d 4c76 2abe
00000030: c97b 8fbc cf99 c8bc 5ef7 65bd 00c8 f2bd
00000040: c928 10bd 086a e33d 9319 393e 5e74 05be
00000050: b30c 0f3e 6fe3 923d fa1f cbbb a88f 0bbd
00000060: 1bf9 af3d 3d0c 20be 6dfd eabc f025 90bd
00000070: ffeb f7bd 797c 533d 21b9 f1bd 80d8 e93c
00000080: e8bd e23c 2fbe b5bd 0707 b1bd d206 72bd
00000090: 5873 513d f79b fbbd 8df4 c9bd b70a 52bc
000000a0: f286 17bd 5094 dbbd 71a6 e7bd 76e2 a0bc
000000b0: 0421 1a3d e873 133e 0776 a2bd 4939 293e
000000c0: 6233 713d c7a0 713d e44d ea3d 0be9 403c
000000d0: 2d8f 05be 3602 a3bd b384 21bd 997f 1c3d
000000e0: b2ea 423d c62e 13bd 8487 bdbd 7179 d1bd
000000f0: 9050 bf3d 214c 38be f96f 8e3a 0fc5 273e

critic.4.weight f4 [1, 64]
0.006879305 -0.008013653 0.047655296 0.050138075 0.12337406 0.055440724 -0.0035006434 0.026720192
-0.01962004 0.020233506 -0.07694934 0.003369511 -0.055777226 -0.0065778275 0.084765315 0.042604104
-0.019938344 -0.03210802 -0.1228309 0.11325245 0.01999367 0.006456123 -0.04595896 0.034604196
-0.08496724 -0.07094398 0.022130908 -0.042874508 0.100046605 -0.06969397 0.107391715 -0.12291676
0.026177647 -0.01482054 -0.011645932 0.04231386 -0.011766048 0.10158331 0.031848356 0.01109524
-0.032512754 0.05337335 -0.041581966 -0.10743645 -0.014132483 -0.036700882 -0.030529069 -0.13489783
0.004865662 0.007871027 -0.026449716 -0.020776808 0.022419533 0.019827683 -0.054259807 -0.070382975
-0.00019917845 0.030388491 -0.029367108 0.017228369 -0.0060505974 0.053785272 0.016755624 -0.0772594
00000000: cb6b e13b b24b 03bc 3332 433d 955d 4d3d
00000010: 8aab fc3d d015 633d 0d6b 65bb 4ee4 da3c
00000020: 35ba a0bc bdc0 a53c 9e97 9dbd 04d3 5c3b
00000030: a976 64bd d18a d7bb 7099 ad3d a481 2e3d
00000040: bd55 a3bc b383 03bd c48e fbbd e7f0 e73d
00000050: c4c9 a33c e38d d33b 763f 3cbd 21bd 0d3d
00000060: 4e03 aebd 144b 91bd e14b b53c 2e9d 2fbd
00000070: 3ce5 cc3d b6bb 8ebd 30f0 db3d c8bb fbbd
00000080: 8172 d63c dad1 72bc 94ce 3ebc 4c51 2d3d
00000090: 62c6 40bc e90a d03d 6c73 023d cfc8 353c
000000a0: 182c 05bd 049e 5a3d da51 2abd a407 dcbd
000000b0: ee8b 67bc aa53 16bd 1918 fabc a822 0abe
000000c0: 2270 9f3b 7bf5 003c 13ad d8bc 2034 aabc
000000d0: 2ba9 b73c aa6d a23c 883f 5ebd f324 90bd
000000e0: 8fda 50b9 49f1 f83c 4a93 f0bc 8222 8d3c
000000f0: 1744 c6bb f24d 5c3d 1743 893c 2d3a 9ebd

exp_avg f4 [6]
-0.00092474534 -0.0009633921 0.0012866013 -0.008326289 -0.0005562144 0.0016338268
00000000: 9c6a 72ba 268c 7cba 2da3 a83a fd6a 08bc
00000010: ebce 11ba 2126 d63a

exp_avg_sq f4 [6]
0.00022664304 0.0003772789 0.00031296661 0.002032189 0.00062632276 0.0013445878
00000000: 07a7 6d39 84cd c539 ab15 a439 792e 053b
00000010: cf2f 243a e13c b03a

exp_avg f4 [64, 25]
0.0002659994 1.5335605e-05 0.0005646147 0.0007484562 0.0004342785 3.4653778e-05 3.114081e-05 1.9132398e-05
-9.645143e-06 -1.5104497e-05 -0.00020417574 -9.379065e-05 9.892863e-05 0.0001174283 0.00016779233 0.0003044325
4.5668803e-05 0.00030443232 -4.566931e-05 0.0005993 -7.609205e-05 0.0011459005 0.0013319463 0.00075646094
-9.219046e-06 0.00014209324 5.5610202e-05 0.0001461739 0.00012563265 0.0001621243 -0.00011081419 5.8380763e-05
4.841487e-05 -5.981688e-05 -0.00020121028 2.3397144e-05 -0.00015555392 -6.5510394e-06 5.6317727e-05 5.110886e-05
7.0883085e-05 -4.495304e-05 7.088429e-05 4.49528e-05 0.00033819216 3.576019e-05 0.00025381104 0.0001019166
0.00033482112 -0.00017870228 0.00012601707 1.0376355e-05 -0.00024352023 -0.00040165472 -0.00016592555 -0.00016976401
9.493069e-05 -1.8999486e-05 -0.00015375951 5.5603035e-05 -3.2464315e-05 0.00011839382 2.1405564e-05 2.6302729e-05
-6.134659e-05 -1.3870471e-05 2.3433554e-06 -1.3870813e-05 -2.343518e-06 0.00026807576 6.004866e-05 -0.0006325195
-0.00061047083 -0.00032504427 -0.00018436938 3.304425e-05 1.7606624e-05 4.880666e-05 -2.9179962e-05 0.00010495776
-5.5271492e-05 -8.512651e-05 5.218521e-05 9.571327e-05 8.379521e-06 -7.201769e-05 -4.72322e-06 -1.1783871e-05
-5.838893e-06 -1.0699602e-05 -2.6043781e-05 1.432334e-05 -2.6043888e-05 -1.4323338e-05 3.133305e-05 4.2193195e-05
0.00015488331 -5.747538e-05 0.0002107757 -0.00011639901 0.00016549008 2.5496262e-05 -8.416224e-05 -0.0010259476
9.872091e-05 -0.00048605638 -1.5291756e-05 -8.697863e-06 9.516256e-05 -3.7459984e-05 9.343125e-05 5.2584244e-05
-2.9113804e-05 3.4706663e-05 -7.0565657e-06 -4.3891618e-05 -4.027073e-05 -4.3890523e-05 4.027056e-05 0.0002792715
5.814452e-05 -0.000102406964 -0.0020549558 0.00023385898 -0.00094089645 -3.0004334e-05 6.723626e-05 0.00015396801
0.001955565 -4.706761e-05 0.000667116 8.432074e-05 -1.397877e-05 -5.5102093e-05 5.5765948e-05 -3.0428717e-05
-0.00011283072 2.7781638e-05 1.7922064e-05 2.9586648e-05 8.508402e-05 4.525494e-05 8.508319e-05 -4.5254976e-05
3.771554e-05 6.259815e-05 0.00028099515 0.0038966918 -0.0001290753 0.00128602 0.0001815026 -3.2345088e-05
-0.00045854165 0.0007923521 -0.0005219548 0.0002074614 0.00012202465 8.338504e-05 -0.00013352315 -0.00013358353
-0.00022837857 -0.0003236791 -0.00015968694 8.5045474e-05 -0.00015288506 -0.0003140336 3.7447084e-05 -0.0003140332
-3.744712e-05 0.00052954914 -2.3238612e-05 -0.0009875038 0.0014473317 -0.0011371208 0.00034707267 0.000312566
0.00013839577 0.00047228637 -0.00041095144 0.00050699577 -0.00045888074 1.2997255e-05 3.570071e-05 0.00013222713
-7.786586e-05 8.272756e-05 -4.8205613e-05 7.512922e-05 7.010663e-05 0.00011493365 0.0002202459 6.405967e-05
0.00022024581 -6.405968e-05 0.0006236314 0.0002779346 0.0010214738 -0.0008558615 0.001091086 -0.00093188003
-0.0002715201 0.00018804382 0.00076755864 0.0033266512 0.0002919223 0.0010926777 8.857652e-05 -5.7956473e-05
2.672766e-05 0.00012631358 0.0001254662 4.190502e-06 0.00021155362 -4.5727887e-05 0.00026055519 0.0004834875
5.411034e-05 0.0004834867 -5.4110165e-05 -0.00048936484 0.00022054551 0.0015865357 0.0066287396 0.00055315514
0.0021629524 0.00033304235 0.00021768303 0.0006869502 -0.0005924722 0.00059835543 -0.0006080878 -5.622132e-05
-1.3792882e-05 0.0002816044 8.33929e-05 0.00023204072 0.00011674638 0.00016185276 5.0467883e-05 0.00019856033
0.00038321462 2.8761131e-05 0.00038321444 -2.8761162e-05 0.0005789442 0.00031445303 0.0015184679 -0.0011138075
0.0013138223 -0.0011389119 9.6994445e-05 8.0425074e-05 0.00028696944 -0.00015617537 0.00016666054 -0.0001318769
00000000: d675 8b39 f6a4 8037 a702 143a 0c34 443a
00000010: e0af e339 3659 1138 319d 0238 837e a037
00000020: 93d1 21b7 5269 7db7 0218 56b9 79b1 c4b8
00000030: e777 cf38 d743 f638 69f1 2f39 3d9c 9f39
00000040: 818c 3f38 379c 9f39 0c8d 3fb8 581a 1d3a
00000050: 9c93 9fb8 0a32 963a b494 ae3a 3c4d 463a
00000060: 80ab 1ab7 ddfe 1439 003f 6938 4246 1939
00000070: 42bc 0339 e9ff 2939 ea64 e8b8 dedd 7438
00000080: 1211 4b38 e3e3 7ab8 f9fb 52b9 fc44 c437
00000090: 301c 23b9 00d1 dbb6 b336 6c38 b85d 5638
000000a0: 11a7 9438 f68b 3cb8 b7a7 9438 b48b 3c38
000000b0: 624f b139 36fd 1538 f111 8539 0fbc d538
000000c0: ee8a af39 0762 3bb9 7323 0439 1b16 2e37
000000d0: 7759 7fb9 2f95 d2b9 4dfc 2db9 ae02 32b9
000000e0: 8715 c738 1661 9fb7 813a 21b9 4e37 6938
000000f0: 4b2a 08b8 334a f838 1990 b337 aea4 dc37
00000100: 33a7 80b8 38b5 68b7 8a42 1d36 b0b6 68b7
00000110: 5545 1db6 858c 8c39 c2dc 7b38 aacf 25ba
00000120: 0108 20ba b46a aab9 4753 41b9 fe98 0a38
00000130: f0b1 9337 c1b5 4c38 7ec7 f4b7 c51c dc38
00000140: 50d3 67b8 f285 b2b8 71e1 5a38 acb9 c838
00000150: c595 0c37 3408 97b8 277c 9eb6 57b3 45b7
00000160: b5eb c3b6 7182 33b7 9878 dab7 474e 7037
00000170: d378 dab7 454e 70b7 9b6b 0338 99f8 3038
00000180: 2c68 2239 b811 71b8 ac03 5d39 3e1b f4b8
00000190: 6887 2d39 cee0 d537 4280 b0b8 1779 86ba
000001a0: 6308 cf38 62d5 feb9 cc46 80b7 0aed 11b7
000001b0: 0392 c738 5a1e 1db8 85f0 c338 e78d 5c38
000001c0: 6b39 f4b7 ff91 1138 70c7 ecb6 4418 38b8
000001d0: 5ee8 28b8 1717 38b8 2fe8 2838 306b 9239
000001e0: 34e0 7338 52c3 d6b8 70ac 06bb 0b38 7539
000001f0: 7ea6 76ba d1b1 fbb7 3101 8d38 7972 2139
00000200: f028 003b 766a 45b8 66e1 2e3a 5ad5 b038
00000210: 5c86 6ab7 6c1d 67b8 3be6 6938 2c41 ffb7
00000220: 889f ecb8 9d0c e937 5757 9637 d830 f837
00000230: 236f b238 1fd0 3d38 b16e b238 29d0 3db8
00000240: c130 1e38 2047 8338 8852 9339 a45f 7f3b
00000250: 6358 07b9 ac8f a83a bc51 3e39 46aa 07b8
00000260: 6b68 f0b9 d9b5 4f3a cbd3 08ba ff89 5939
00000270: 7ce7 ff38 01df ae38 5902 0cb9 8e12 0cb9
00000280: e878 6fb9 79b3 a9b9 a371 27b9 715a b238
00000290: c54f 20b9 e0a4 a4b9 8010 1d38 d3a4 a4b9
000002a0: 8a10 1db8 71d1 0a3a 8af0 c2b7 216f 81ba
000002b0: 65b4 bd3a 710b 95ba 4ef7 b539 e6df a339
000002c0: 551e 1139 349d f739 f874 d7b9 e9e7 043a
000002d0: ee95 f0b9 c90e 5a37 58bd 1538 73a6 0a39
000002e0: ea4b a3b8 057e ad38 6230 4ab8 b18e 9d38
000002f0: 3606 9338 8908 f138 cff1 6639 c657 8638
00000300: c9f1 6639 c757 86b8 327b 233a c0b7 9139
00000310: f9e2 853a e55b 60ba c502 8f3a 6949 74ba
00000320: d05a 8eb9 a12d 4539 fd35 493a f203 5a3b
00000330: 260d 9939 2e38 8f3a 28c2 b938 4a16 73b8
00000340: 3635 e037 0b73 0439 948f 0339 239c 8c36
00000350: 7ed4 5d39 f2cb 3fb8 209b 8839 987c fd39
00000360: 89f4 6238 7d7c fd39 59f4 62b8 b848 00ba
00000370: 3c42 6739 4ef3 cf3a e635 d93b 9d01 113a
00000380: 52c0 0d3b 309c ae39 d841 6439 7314 343a
00000390: 2350 1bba f4da 1c3a 1568 1fba 2fcf 6bb8
000003a0: fa67 67b7 4ea4 9339 39e3 ae38 f54f 7339
000003b0: bcd5 f438 05b7 2939 7aad 5338 a234 5039
000003c0: 32ea c839 0f44 f137 2cea c839 2044 f1b7
000003d0: 4ac4 173a 2cdd a439 5407 c73a 2efd 91ba
000003e0: 9034 ac3a 8b47 95ba 7f69 cb38 e2a9 a838
000003f0: 6374 9639 02c3 23b9 99c1 2e39 7048 0ab9
