04-goal-pose-l6/logs/rsl_rl/joint_position/2026-02-19_13-16-49/model_4550.pt (torch, 161397 bytes, 36 tensors)

std f4 [6]
00000000: 16fd 8d3d e7f6 6a3d 3013 853d 304f d53a
00000010: ae81 293d cbaf a43c
0.06933038 0.05736437 0.064978 0.001627421 0.041383438 0.020103356

actor.0.weight f4 [64, 25]
00000000: 7d94 0a3f 7efa 70be 2ed7 09be 2f10 023e
00000010: 43e2 a23e 3b91 89be 3514 02be b39a 0bbe
00000020: 441c c3bd 76bb 4a3e e0d0 f7bd cdea debd
00000030: 0d7e c4be e913 3c3f 2d31 bfbe 9f07 66bd
00000040: 459c 923f 1c1c febd 9071 b3bf 98d3 a5be
00000050: 6cc2 98bd c46c 363e d1cf 843e 566c 2c3c
00000060: 2f86 8ebd ffe5 f3be 5573 5d3d 23c7 fa3d
00000070: 126f e73e 65d6 d2be 04a3 1abe 1fed 2d3e
00000080: 0e05 cf3c 0cdd 6abd 46d6 70bd b554 abbd
00000090: 471e 34bd dd68 03be 92f1 11bf e46d 1dbf
000000a0: 2ef7 1ebe 9df2 7dbf 0fcc f3bd 0a31 933f
000000b0: 307e 923d e45a 953e f046 15be ecae 3c3e
000000c0: 3334 193d ef19 dbbd a008 88bf 2f00 123e
000000d0: d399 ea3d 4e0c 253f 8997 29bf d85a 4f3f
000000e0: 8207 b5bd aa4e 8e3d 0a96 4a3d b52a 963e
000000f0: afbf 90bd e0e9 713d a66b 713e ca7c 69bf
00000100: 6751 903d bd1e 8a3e ce12 05c0 4d1c 353d
00000110: d5fa 0540 2d46 fabd 6e12 1cbe 6d25 0abb
00000120: d3ca 4b3e c4a1 0ebe 146b 103e 229a 0a3f
00000130: 7efd 05be 1c8e e8be 9841 02bf d807 7bbe
00000140: 29bc 0abf abc2 533e 2563 89be 86db f83d
00000150: 9f60 6ebe ed6a c73e 01b5 03bd 9312 e1bd
00000160: d916 c23f 791e 90bd 01a2 2dbd f251 a03f
00000170: 37bf df3d 73ea 86bf 5647 e6ba 0f9d 8ebd
00000180: b456 9abc 126e 0dbe f275 16be 197f 61be
00000190: 11e3 833d 2f01 89bd 2e8f 1fbf 4e89 c23c
000001a0: 980e 5abd 90ac 4a3c 6be1 f23d d28e b63d
000001b0: 9035 0cbe 4bc3 813e 01a6 0fbe 3e57 cc3c
000001c0: c75d 73be f713 0640 f0af 74be 171b 96bd
000001d0: d66f 0c3f 852e 03be d76b 09bf 636f 10bd
000001e0: 7175 aa3d c65d 453d a630 923d aa40 f93c
000001f0: 88a4 2e3e 3128 a83d d714 adbe 9e1b 003f
00000200: 41ea 243e 2a9a ecbb 176b b8be b6dc dfbe
00000210: 87f7 8f3c d96d cabd bf70 853e aba1 593d
00000220: 8c3c 463e b56b e0bd ac1f acbf 10c4 8f3d
00000230: 7c04 2f3e bfd1 9abd 3160 1f3e f5e8 283e
00000240: e09c adbd 124a f93a e818 1cbe a509 a9bd
00000250: e482 c9bd e5da a6bb 4c14 40be ae44 4c3e
00000260: f149 6c3f b7c3 6b3e 8fde 82be 6d8f c93e
00000270: c5b8 c7be 9ce8 3dbd 5d7f 56bd 11d2 a43d
00000280: 2cfc 5d3d c995 2abd d4aa 0abe 1c6a dbbf
00000290: 3c11 c6be 240b 0e3e 9c4c ec3d fa9d 5f3d
000002a0: 350c b8bd 7b9f 983d a2e0 0c3f c9fe a8bb
000002b0: 2b53 1fbd 6ddf fb3c 25d7 afbe 96f3 82bd
000002c0: dd0e ed3e 967b 7ebe f673 a1be 2fe4 7ebd
000002d0: eeeb a3be 3130 2cbe f164 68be 4edc 173d
000002e0: af34 b8bd 8bbd e73d a476 00bd 9ae2 92be
000002f0: b45c d63e 6703 dbbd 420c 17bd f7f8 8d3f
00000300: c5a1 36be fd5c 5abf 6f51 543e d719 40be
00000310: 5ca2 19be bbbf 4abe 4ca5 69bd a3c8 02be
00000320: 2e69 eabd 0e04 a0be 64bb 123e c3c0 cbbd
00000330: 0058 08bc 1f7a debe 7ccc a33d 0650 1cbd
00000340: af0f 1bbe f5cb 75bd 7bee c73d c4f3 dc3d
00000350: d0fc d7bd 4308 93bf 4c07 74be c436 3abd
00000360: b821 933f 39fc 5a3e a002 92bf 40d5 60be
00000370: e033 03be c2df 243d a332 f53d 7b18 cabe
00000380: 484a 7abd 6621 603e 4073 98be 6a5a f8be
00000390: 4bac 2d3d e689 4bbf e723 263e e93d f8be
000003a0: a4b8 873e ae0a 9d3d aa7d 0d3e ed18 a23b
000003b0: 50fb 203d 9e9b 853c 938e 043f c0de 29bd
000003c0: 06c8 32be 14a8 e93e 9ff6 9fbd d245 b3be
000003d0: cffb 163e e159 f5bd f616 403e 8ccd 4bbe
000003e0: e7e4 933e a29c 763c fac8 61bd 9f04 6e3e
000003f0: bb97 b03c f233 84be 9767 03be 6e64 8ebe
0.54132825 -0.23533055 -0.13460991 0.12701486 0.3181325 -0.26868615 -0.12703021 -0.13633232
-0.095268756 0.19798073 -0.121003866 -0.108846284 -0.3837742 0.7346788 -0.37342206 -0.05615961
1.145394 -0.12407705 -1.4019032 -0.32387996 -0.07458958 0.17814928 0.259398 0.010523876
-0.06959187 -0.4763641 0.054065067 0.122450136 0.45201927 -0.41179195 -0.15101248 0.16984986
0.025270965 -0.057339713 -0.058798097 -0.08365766 -0.043974187 -0.12832971 -0.5700923 -0.61495805
-0.15523979 -0.99198323 -0.119041555 1.149934 0.071529746 0.29170907 -0.14577842 0.18426102
0.037403297 -0.10698306 -1.0627632 0.14257883 0.11455121 0.644719 -0.6624685 0.8099799
-0.088393226 0.06948598 0.049459495 0.29329458 -0.07067811 0.05906093 0.23576221 -0.9120604
0.07046776 0.26976576 -2.0792727 0.044216443 2.0934346 -0.12220416 -0.15241405 -0.0021079436
0.1990159 -0.13928896 0.14103347 0.5414144 -0.13084981 -0.4542092 -0.5088134 -0.24514711
-0.5419336 0.20679729 -0.26833454 0.12151246 -0.23279046 0.38948765 -0.03215504 -0.10989871
1.5163223 -0.07037062 -0.042390827 1.2525008 0.10925143 -1.0540298 -0.0017568867 -0.0696355
-0.018840171 -0.1381152 -0.1469343 -0.2202114 0.06439794 -0.06689679 -0.6232785 0.023747113
-0.053236574 0.012370244 0.11859401 0.089139596 -0.13692307 0.2534431 -0.14028169 0.024943944
-0.23766242 2.0949686 -0.2389524 -0.07329386 0.5485815 -0.12810715 -0.53680176 -0.035262477
0.083231814 0.048185132 0.07138185 0.030426342 0.17054951 0.08210791 -0.33804962 0.5004214
0.16104986 -0.007220526 -0.36019203 -0.43723077 0.017574085 -0.09884233 0.2606258 0.053132694
0.19359034 -0.109580435 -1.3447165 0.07019818 0.17091554 -0.07559537 0.15564038 0.16495116
-0.08477187 0.0019019267 -0.15243876 -0.08253793 -0.098394185 -0.005092012 -0.18757743 0.19948074
0.92300326 0.23023878 -0.25560424 0.39367238 -0.39008155 -0.04636441 -0.052367557 0.080478795
0.054195568 -0.041646753 -0.13541728 -1.7141757 -0.38685024 0.13871437 0.115380496 0.054594018
-0.08986703 0.074522935 0.5503026 -0.005157326 -0.038897675 0.030746186 -0.3434383 -0.063941166
0.46300402 -0.24851832 -0.31533784 -0.06222933 -0.32015938 -0.16815259 -0.22694756 0.037075333
-0.089944236 0.11315449 -0.031363145 -0.28688508 0.41867602 -0.10694008 -0.036876924 1.1091603
-0.17835148 -0.8529814 0.2073419 -0.18759857 -0.15003341 -0.19799702 -0.057042405 -0.1277185
-0.11445843 -0.31253093 0.14329296 -0.09948876 -0.008321762 -0.43452546 0.07997987 -0.038162254
-0.15142702 -0.06000896 0.097622834 0.10788682 -0.10546267 -1.1486896 -0.23830909 -0.045462385
1.1494665 0.21385278 -1.1407051 -0.21956348 -0.12812757 0.040252455 0.11972549 -0.39471802
-0.061105996 0.2188774 -0.2977543 -0.4850648 0.04240064 -0.7950729 0.16224633 -0.48484734
0.26508057 0.076680526 0.13817468 0.004946819 0.03930217 0.016309556 0.5178005 -0.041472197
-0.17459115 0.45636046 -0.07810711 -0.35014206 0.14744495 -0.11980034 0.18758759 -0.19902629
0.28885576 0.015051993 -0.055123307 0.2324395 0.021556726 -0.2582088 -0.12832485 -0.27810997

actor.0.bias f4 [64]
00000000: f6ef 96be eafb 1bbe f42f 0d3e 6fc1 ca3d
00000010: f1e2 7c3c 8ef3 923d 6cb2 f7bd 87a1 cbbd
00000020: 0bce d03d 260b 2fbd dd1f 99be ad20 3fbd
00000030: 5d52 5bbe 847c 0e3d df1a f6bc f8c9 bdbd
00000040: e2e3 473d 3caf 8bbe 5aed b8bc 1a2a cfbd
00000050: 8afe f8bd add0 fd3c ba81 82be 029d 95be
00000060: bb9d 7bbd ae9f 813e a470 3fbe 822b 483e
00000070: 7ac5 7bbd 85b2 d0bd 92bd 16be bc1a b8be
00000080: 10b1 f3bd dbe2 7cbe 7d4c 9f3c 1040 cabe
00000090: 22b3 f2bc a2a4 8bbe 4579 6b3e 99dc c63d
000000a0: 76bd 82bc 991a 47be 81a7 0dbe c0d4 a83d
000000b0: 73c3 6bbd 08ed 72be 9fa4 83bc 49b4 4bbe
000000c0: c481 2d3d fa66 3dbd 57df 97be a859 85be
000000d0: 9932 4abe a6cb 8f3d 9685 b63d 6732 55be
000000e0: 3739 e93d 5360 9f3e b079 953e f01a e4bd
000000f0: d5fd 42bd 2596 eb3d e3b2 a3be 48f7 dabe
-0.2947995 -0.15232816 0.13787824 0.09900176 0.015434966 0.071753606 -0.12094578 -0.09942918
0.101955496 -0.04273524 -0.29907122 -0.04666202 -0.21418138 0.034786716 -0.03004211 -0.09267038
0.04880131 -0.2728213 -0.022574116 -0.10115452 -0.121579245 0.030983293 -0.254896 -0.2922135
-0.06142972 0.25317138 -0.18695313 0.19547847 -0.061467625 -0.101903 -0.14720753 -0.35957897
-0.11899006 -0.24695913 0.019445652 -0.39502 -0.029626433 -0.27274042 0.2299548 0.097100444
-0.015959483 -0.1944374 -0.13833429 0.08243704 -0.05755944 -0.23723233 -0.016069708 -0.19892992
0.042360082 -0.046240784 -0.29662582 -0.26044965 -0.19745864 0.07021265 0.08912198 -0.20820008
0.11387866 0.31128177 0.29194403 -0.111379504 -0.047605354 0.11503247 -0.31972417 -0.42766786

actor.2.weight f4 [64, 64]
00000000: d107 37be 1006 853d 6988 ecbd 2bb0 153b
00000010: 93bd 81bc b538 69be 0b9a 5ebe d6cf 6abd
00000020: c04e 833d d3cf 03be 40eb d23d 7a32 093c
00000030: 62b6 7b3d 25d0 923c 1cca 8bbd e5ee 3ebe
00000040: d2ff 84bd 14f5 55bd 25a9 813d 99bd cb3d
00000050: 372d 523e 66a8 d23c 259d e43d 708c 7cbd
00000060: b2fc 343c 0609 49be 5d61 253a cf24 08bc
00000070: 04a7 a83c f2a9 ae3c 0860 27be 516a 713d
00000080: 223c eb3c 238a 0ebe f16c b9bd fd4c 6f3e
00000090: 6317 81bd 40ab 21bd 9374 36be f830 77bd
000000a0: 2087 a73d 956b 9cbc a56d 8c3d 349d cebd
000000b0: 8d37 fa3d a3f5 9a3d c3e0 7cbe 6d6c 01bd
000000c0: 2dd3 173e 41df e9bd 8add 203d 143f 32bd
000000d0: 3c9f 1f3e 8968 02bd a891 d8bd de22 b1bd
000000e0: 965b d1bd 9e35 2bbe 0337 14be 7cd8 3c3e
000000f0: f5b2 c1bd ed67 5abd a9a3 b83d 5c13 c2bd
00000100: 58a8 04be d113 37be 1845 913d 19c7 323d
00000110: c05a a8bd 4219 d3bc da7f 82bd aa22 4a3e
00000120: a417 edbd 0c95 f63d 0802 cc3b 6c57 f339
00000130: 29e5 143e 9011 f83d f806 c63d 2582 89bc
00000140: cb9b 493e 7808 03bd 4acf f43c 4951 4b3d
00000150: bd20 a6bd ff01 ffbb 0431 4cbe 679a e9bd
00000160: b11f f3bc 0ed9 073e f931 2a3e 4a3e f33d
00000170: 73d6 443e 20d3 cabd 9556 653e 112d 7a3e
00000180: 55f8 e13d c3ab 9dbd e4e7 febc 98bb 92be
00000190: 0b22 ccbd 5288 173d 56df 99bb fd31 89bc
000001a0: 57b1 84be a3ef 923d 67f7 ec3c 7cdf c63d
000001b0: af72 83be dd77 513b 9fdb 393e 6a89 e43d
000001c0: 7d4e 9c3d 31ef 1ebe 38df 873b 1b74 b1bc
000001d0: f446 bfbc e512 e6bd 3576 a9bd 29ec dfbd
000001e0: 7b9e 0fbe 8f12 d53d de62 7bbd 7506 42bd
000001f0: c7ee 3bbe 847b 5a3d 863c 00be fcd4 2e3e
00000200: 3c8a 253d 9a1a 06be bdc3 1bbd 891d abbd
00000210: dfc7 ffbd aa19 91be 2361 c6bc c513 a13b
00000220: 5c96 3fbe 52f1 13bc 8e3d 853d 8983 013e
00000230: da7e 9cbd b0fc 31be 2daa 123d f0f3 c43d
00000240: 2c16 0cbe 5468 163d 519b 4bbe 0aa1 3d3e
00000250: 7008 b03c 174b 0ebe 6d85 c0bd d4fd 75bc
00000260: cc6b 4bbe fce3 5abe 5b02 773c d214 223e
00000270: d8da 093f e1de 0fbe 19e6 08be 674e b9bc
00000280: f8ea 3bbe 7d8c 18bd 8787 24be e9da 753e
00000290: 9153 37be 6891 f3bc 9a6a c23d d2ac 78be
000002a0: a113 60bd 1f9e f13d 2830 c0bd dc6f 24bd
000002b0: bcc4 cc3c 893b 083f 14c8 76be fd99 bebd
000002c0: f5d5 d6bd 4250 13be d0e7 1ebd fb2a d53d
000002d0: 52d8 d03d 04bf 413e 0139 4d3e ad22 aebb
000002e0: f2c3 01be 0c1e 453c 046f d23d 90eb 0e3e
000002f0: 02fb 74be ca48 c53d 2960 c03e da3c 483e
00000300: 2bd3 cabd a20f e93d cf65 58bd 7f22 ebbc
00000310: 10a7 9e3d 4f38 19bd 5f4f 373e 5a2c cf3c
00000320: 8b13 81bd 5d29 b5bd f54e de3b 4200 0c3d
00000330: 597a de3d e569 47be 799d e63c 9e71 31bc
00000340: e37d 4dbe f4e9 28be 9531 0fbe e96a a53d
00000350: 03b5 12bd bb48 dbbd accd 513e aac9 11be
00000360: 1498 18be 93f0 c9be 04cb 0e3d efb7 8cbc
00000370: 8306 5abd 18a0 48bb abc2 49be 7db8 2a3d
00000380: 5522 b13d cadf 6dbd c135 033e 3ee8 9e3e
00000390: 86db 773c e405 1ebd 071b 6d3e 0298 8abe
000003a0: 1f01 dd3d 93a2 e13d 2ec5 c2bd 2ba4 8bbd
000003b0: 023d 143c e2e3 e33d 343f 18be 44c6 ffbd
000003c0: d6fd 27bd 330f b63d 9c46 4c3e f32c 3b3d
000003d0: ff1f fa3c 3211 3f3d 068d 643b c0c9 0a3e
000003e0: 9ee8 a43d 5d40 bd3c 3bbf a43d 01af 2fbe
000003f0: 9288 2dbe 2f61 aebd dec1 3f3e c6ee 153e
-0.17874075 0.06495297 -0.11549456 0.00228406 -0.015837466 -0.22775538 -0.2173845 -0.057327114
0.06411505 -0.12872247 0.102987766 0.008373851 0.06145323 0.017921517 -0.06825659 -0.18645819
-0.06494106 -0.052235678 0.0633109 0.09948272 0.2052506 0.025715064 0.111627854 -0.06165737
0.011046575 -0.19632348 0.0006308759 -0.008309557 0.020587452 0.02132127 -0.16345227 0.05893928
0.028715197 -0.13919882 -0.09053982 0.23369212 -0.06303289 -0.039469957 -0.17817907 -0.060349435
0.0818007 -0.019094268 0.068568505 -0.10088578 0.12217627 0.07566383 -0.24695115 -0.031597544
0.14826651 -0.114195354 0.039273776 -0.043517187 0.15588087 -0.031837974 -0.10574657 -0.086492285
-0.10222547 -0.16719672 -0.1447411 0.18441957 -0.094579615 -0.053321768 0.09015591 -0.09476349
-0.12954843 -0.17878653 0.07093257 0.043646906 -0.08220434 -0.02576888 -0.06372042 0.19739786
-0.11576775 0.12040147 0.006225828 0.00046413706 0.14540543 0.12112725 0.09669298 -0.01678569
0.19688337 -0.0319905 0.029884 0.049638066 -0.08111713 -0.0077822204 -0.19940573 -0.11406403
-0.029678198 0.13266394 0.16620626 0.11877115 0.19222431 -0.0990355 0.2239631 0.24431254
0.11033694 -0.076987766 -0.031116433 -0.28658748 -0.09967431 0.03699524 -0.004695813 -0.01674747
-0.2591655 0.07174613 0.028926564 0.09710595 -0.25673434 0.0031962313 0.18150185 0.11159022
0.07632158 -0.15520932 0.004146483 -0.021661809 -0.023349263 -0.112340726 -0.08274499 -0.10933716
-0.14025299 0.104039304 -0.061373584 -0.04736944 -0.18352805 0.05334045 -0.12523088 0.17073435
0.040415034 -0.13096085 -0.038028467 -0.08355243 -0.12489294 -0.28339893 -0.02421624 0.004915687
-0.18709701 -0.009029703 0.06505881 0.12647833 -0.076413825 -0.17381549 0.035806824 0.0961684
-0.13680333 0.03672059 -0.19883467 0.18518463 0.021488398 -0.13895832 -0.09400449 -0.015014131
-0.1986534 -0.21376032 0.015076245 0.15828255 0.53849554 -0.14049865 -0.13369025 -0.022620393
-0.18351352 -0.037243355 -0.16067325 0.24009289 -0.17902972 -0.029732421 0.09492989 -0.24284676
-0.05470622 0.11797737 -0.09384185 -0.04014574 0.024996154 0.53215843 -0.24099761 -0.09306715
-0.10490028 -0.14386085 -0.038795292 0.104085885 0.1019751 0.18920523 0.20041277 -0.0053141923
-0.12672403 0.0120310895 0.10275081 0.13957047 -0.23923877 0.09633024 0.37573364 0.19554463
-0.09903558 0.11379935 -0.052831467 -0.028702972 0.077467084 -0.037407216 0.17901371 0.025289703
-0.06302556 -0.0884578 0.0067843148 0.034179933 0.1086318 -0.1947399 0.02815126 -0.010830311
-0.20067553 -0.16495496 -0.13983758 0.08077032 -0.035817157 -0.107072316 0.20488614 -0.14237085
-0.14901763 -0.39441356 0.03486158 -0.01717755 -0.053228866 -0.0030613001 -0.19703166 0.041679848
0.086491264 -0.05807475 0.12813474 0.31036562 0.015128022 -0.038579836 0.23154841 -0.27069098
0.107912295 0.11017337 -0.09510265 -0.06818422 0.0090477485 0.111274496 -0.1486786 -0.12488988
-0.04101356 0.08889618 0.1994881 0.045697164 0.030532835 0.046647258 0.0034874096 0.13553524
0.08052181 0.02310198 0.08044287 -0.17156602 -0.16946629 -0.0851463 0.18726298 0.14641866

actor.2.bias f4 [64]
00000000: 478d 38be 2fce bc3d 391a 00be 3d67 43be
00000010: 7b8a eebd 929d ccbd e7f9 fdbd 51f4 8abd
00000020: 2c57 fd3d 3a52 a63c 429d 2bbd c98f 1bbe
00000030: 4321 76be 433b 753d 7ff5 a3bd d56b 19be
00000040: 3995 6cbe dd05 8f3c 0c3d d2bd 6688 7d3c
00000050: 2559 24be 93b5 5c3e c315 71be f7a2 c1bd
00000060: 5aaf 33be 17ca 09be c381 ee3a d756 ddbd
00000070: 942b d9bc 096d 533d 936d 14bd 1407 073e
00000080: cbc9 35be 4f7d 6fbe a1d0 75be 22da 7d3c
00000090: 93c6 d7be c406 f33c 4aaf 2dbe a879 4bbd
000000a0: 4c8e ffbd 2da0 a3be 8e66 22be 92f0 9f3d
000000b0: e105 03be b705 183e be3d 72be 155d 9dbe
000000c0: fbc4 ed3c 58ca 49be abda 68be 8056 1dbd
000000d0: 4eea 1dbb 6dd7 3e3e 762f c4bd 2e85 4bbe
000000e0: 8709 3c3d d185 e4bc a424 043e 09d5 4a3c
000000f0: a4d7 9cbe 02e6 d53c 3fe9 abbc e564 3dbe
-0.18022643 0.09219014 -0.12510003 -0.19082351 -0.11647507 -0.09990992 -0.12401181 -0.06784881
0.12370142 0.02030288 -0.04189802 -0.15191568 -0.24036126 0.05987097 -0.08005809 -0.14982541
-0.23103799 0.01745885 -0.1026555 0.015474414 -0.16049631 0.2155364 -0.23543458 -0.09454911
-0.1754736 -0.13455997 0.0018196631 -0.10807579 -0.026510037 0.051617656 -0.03623731 0.13186294
-0.17752759 -0.23387645 -0.24005367 0.015493901 -0.42143688 0.029666312 -0.16961399 -0.049676567
-0.12478313 -0.31958142 -0.15859434 0.07809557 -0.12795211 0.1484593 -0.23656365 -0.30735078
0.029024592 -0.19706094 -0.22739665 -0.03841257 -0.0024095955 0.18636866 -0.09579365 -0.19875023
0.045907523 -0.02789584 0.12904602 0.012379893 -0.3063327 0.026110653 -0.020985244 -0.1849552

actor.4.weight f4 [6, 64]
00000000: d2db 8e3d ddb5 95bd 226b 7dbd 03f1 46bd
00000010: 4b66 3abd 3a33 c23d 0b79 b83d 05c6 2bbd
00000020: aede 863d eff4 b8bd f534 14be 8ff3 84be
00000030: 17ca 133d ce86 eabd d9c0 02bd d7cb b1bd
00000040: addf 473d 7d93 a83d ff7f a43c ee9b fb3c
00000050: 6fbf 52bd d42f a2bd a4ed 2b3d dba3 da3c
00000060: 7df5 ef3d a649 91bd 3ab1 21bd 451b 693b
00000070: b17c 833c e32a b2bd 0714 13be a8bb 00bd
00000080: b384 f63c 3a58 393e c2e7 453d 96b7 953d
00000090: ee3a a63d 02ad 0bbd 323e 233d 1d8b 24be
000000a0: 4392 d7bd 0544 8e3d dc99 debd b31d 193e
000000b0: 894c 203d b6fa f8bd 03d0 673d ed7c d7bc
000000c0: d1a4 e8bd 2caa 223e b740 c23c 7fdf b63d
000000d0: 359a 0ebe 5ef2 35bd 00c4 18be 88d5 db3c
000000e0: 0d93 013e d916 1b3d ad06 f43d 6670 003e
000000f0: 353b 12bb 9561 75be 382d 993d 4d9a 0a3d
00000100: f8e1 d03c f0a1 debd f5f3 1c3e 3967 e63d
00000110: 5730 0c3d ee19 153d 3dd9 d13d c619 563c
00000120: 27f8 543d b49b e0bd c933 7ebc abea 03be
00000130: 75a5 98bd 7f80 463c 95ef cdbd 9cfe 893d
00000140: 23fb e13c 0016 d53c 19bd c63d 3ee7 08be
00000150: 6eec d13c 2acc a7bd 8595 12bd 5cfe 073e
00000160: 2034 e1bd c6a1 38be 7ba0 25be c74d a0bd
00000170: ba47 a239 c22c 8b3b 34f3 fd3c e047 38bd
00000180: 0b4a e43d f92d 663d fc4c 9abc c0bb 28bd
00000190: 5921 c93d 8a1f 063e 289a 57bd f247 d73c
000001a0: 846d b33c badc 0f3e 934e c73d e149 5bbe
000001b0: 95a5 083e 106c debd b5b8 3d3d aaf0 2d3d
000001c0: 9d92 8e3d 6c34 fd3d 97a7 7a3d 5cb7 ad3d
000001d0: 5173 a7be 3430 b2bd 2402 9bba 35b2 27bd
000001e0: 1923 f83c 6715 8dbd b96c 68bd ec0a 0b3d
000001f0: 41bb ad3d bf57 1ebe 809e 6cbd bc45 e9bc
00000200: 03bf 213c bfd7 813d 7867 1c3d b5ff febc
00000210: 09d4 3fbd 8926 14be 4d0d f5bc 65d5 eebd
00000220: 6a37 1f3e d337 3c3d 9cce 5abe 64e0 16bc
00000230: 9849 cdbd a31f 1fbd d12f 813c c29a 3b3b
00000240: 8519 e7bd 458b bc3c c244 b33d a0b3 dbbb
00000250: c426 01be 59cc aa3d 2afc 123c 15d8 0a3c
00000260: f49e 03be ba13 233d b74b a23d 728e d23c
00000270: b0be 3a3d 2ad5 56bd 4e21 d73d ebc8 ac3c
00000280: 599c 3bbe b868 43be 6440 a8bd cabb 323d
00000290: 7d91 1cbe 2921 a1bd 6e63 1fbe 04ae eb3b
000002a0: 289f 6cbd 9c53 27be 2c2c cb3d 9b42 0e3e
000002b0: b493 a13d e7de 6cbb 9a74 a4bc 6136 a8bd
000002c0: 0b5d 7c3d f8b2 423d 9609 c5bd 217d 273d
000002d0: f236 b0bc 0a9c ed3c 3827 1ebb ec9f ffbc
000002e0: 00e4 0b3e 784f 463d 33a9 873d fc8f debc
000002f0: ff7e 92bd 5855 6d3d bda7 a3ba 0d04 08bd
00000300: e494 97bd 920d febc adc3 91bd 628d 833a
00000310: fb2f 03be 65bc da3a dfc5 64be 7f57 c9bd
00000320: 9076 abbd 159d f7bd 2fe5 acbd 2e91 bebd
00000330: 86d0 f1bd 27d7 58be 8c63 2fbe 1726 09bc
00000340: 1fb2 efbd 66b5 94be 8053 59bd 0257 00be
00000350: 9c34 0bbe 79a4 a5bd 757a eabc 35c2 23be
00000360: fd63 70be 8b4d 3abd ccaf cfbd 5ace d63c
00000370: 0ee9 3fbc 4c09 72be e813 d4bd 32cd d9bc
00000380: f3cd 583d 1d0d 0f3d 9997 c3bd fe75 40be
00000390: 7c5f 1dbe a2f7 4c3e ae5c 9bbd 0efc a83d
000003a0: 5f9f c7bd 6565 57be b6c7 9f3d 6964 f73d
000003b0: b3d0 ef3d 7b07 b83b a776 e8bd 469c 84bd
000003c0: 0c0a b1bc 356d 533e b32c 08be 1779 fe3c
000003d0: f32a 94bd 2e31 4e3d b1ab 02be 3a5c bbbd
000003e0: d0ab 14bd a98d 93bd dbc6 983c 3e4a 6bbe
000003f0: d8f8 0fbe d73d 65bc 5fee 48bd 58b9 b8bd
0.06975521 -0.07310078 -0.061869748 -0.04856969 -0.04550771 0.09482427 0.09007462 -0.041936893
0.065854415 -0.090310924 -0.14473327 -0.2596707 0.0360814 -0.11451493 -0.031922195 -0.086814575
0.0487973 0.08231256 0.020080565 0.030714002 -0.051452097 -0.07919279 0.04197468 0.02668946
0.11716745 -0.070941254 -0.039475657 0.0035569232 0.016050668 -0.08699586 -0.14363109 -0.031428963
0.030092573 0.18100062 0.048316725 0.07310407 0.08116709 -0.03410054 0.039854236 -0.16068693
-0.10525944 0.069465674 -0.1086919 0.14952736 0.03913549 -0.12157194 0.05659486 -0.026304686
-0.11359561 0.15885228 0.023712499 0.08929347 -0.13926013 -0.044420592 -0.14918518 0.026835218
0.12653752 0.037863586 0.11915336 0.12542877 -0.0022313122 -0.23963006 0.07479328 0.03383856
0.025498375 -0.10870731 0.15327437 0.11250157 0.034225788 0.03640168 0.10246513 0.013067668
0.05199447 -0.10967198 -0.015515276 -0.12882487 -0.074534334 0.012115597 -0.10055462 0.06738016
0.027585572 0.026011467 0.09704036 -0.13369462 0.025625434 -0.08193238 -0.035787124 0.13280624
-0.1099627 -0.18030462 -0.161745 -0.07827335 0.00030952488 0.004247279 0.030999757 -0.04499042
0.11146935 0.056196187 -0.018835537 -0.041194677 0.09820814 0.13097969 -0.05263725 0.026279423
0.021902807 0.14049044 0.09731784 -0.21414901 0.13344415 -0.10860455 0.04631873 0.042465843
0.06961558 0.12363514 0.061194982 0.08482239 -0.32705167 -0.087006 -0.00118262 -0.040941436
0.030290173 -0.06888848 -0.05674431 0.033945963 0.084829815 -0.1546316 -0.057768345 -0.028475635
0.009872201 0.063399784 0.038184613 -0.03112779 -0.04683307 -0.14467825 -0.029913569 -0.116617955
0.15548483 0.045951676 -0.21367878 -0.009208772 -0.100238025 -0.03884853 0.015769871 0.0028626178
-0.11284164 0.023015628 0.08753349 -0.0067047626 -0.12612444 0.083397575 0.008971253 0.0084743695
-0.12853605 0.039813735 0.07924598 0.025702689 0.04559201 -0.052449383 0.10504399 0.021091899
-0.1832136 -0.19082916 -0.082154065 0.04363612 -0.15289874 -0.07867653 -0.15565273 0.007192375
-0.05776897 -0.16340488 0.099205345 0.13892595 0.078895 -0.0036143602 -0.020075131 -0.08213497
0.06161217 0.04753396 -0.09620969 0.040890817 -0.021510575 0.02900507 -0.0024132263 -0.031204186
0.13661194 0.04841563 0.06624069 -0.027168266 -0.07153129 0.05794272 -0.0012485903 -0.033206988
-0.074014455 -0.03101233 -0.071174 0.0010036642 -0.12811272 0.0016688226 -0.22341107 -0.09831142
-0.083722234 -0.12090508 -0.08442151 -0.093050346 -0.11807351 -0.21175824 -0.17127818 -0.008370898
-0.11703896 -0.29044646 -0.053058147 -0.12533191 -0.13594288 -0.08088011 -0.028622845 -0.15992053
-0.23475643 -0.045484107 -0.101409525 0.026221443 -0.011713279 -0.23636359 -0.10355359 -0.026587103
0.052930783 0.034924615 -0.09550399 -0.1879501 -0.15368456 0.2001634 -0.075860366 0.082512006
-0.097471945 -0.21034773 0.07801764 0.120796986 0.11709728 0.005616126 -0.11350756 -0.06475119
-0.021611236 0.20647128 -0.13298301 0.0310636 -0.072347544 0.05033987 -0.12760808 -0.0914845
-0.036296666 -0.07204754 0.01864951 -0.2297754 -0.1405977 -0.013991795 -0.049055453 -0.090197265

actor.4.bias f4 [6]
00000000: 498a 333d cb35 18bd 1714 963e 43f2 3d3e
00000010: 4bfa 933c 2385 5e3e
0.04383305 -0.037160676 0.29312202 0.18549447 0.018063685 0.21730475

critic.0.weight f4 [64, 25]
00000000: 2d16 523d b98a 8a3d fc6b 0f3d 5a7e 80bd
00000010: 4fde ea3c b41b 78bd f256 ebbc 9700 1bbe
00000020: a5b9 a5bb 7ebb df3d ed9c c73d 76dd e23d
00000030: 33b1 c6be 0f34 c4bf b212 363f 1e3e fd3b
00000040: 974a 183e f736 d9bd f7fd 203d 6ce4 85bd
00000050: e92b 173d be03 ffbd b4f3 df3d 38e4 883d
00000060: f993 c0bd 5bbe 87be 3211 36be 780d c6bd
00000070: e91f fe3d 3ced cebb 8d7f c3bb 6c37 a2bd
00000080: 5c38 01bd af68 a73b c357 513d c060 283c
00000090: b6e4 d33c 3796 193e 519f 8540 012a 8ebe
000000a0: ef8a f5bd d905 d83f edd2 e6bc f5a0 ebbf
000000b0: 13cd 243e fd2f 623d 728b de3d 851f 19bd
000000c0: c2d5 c4bc 5fe0 d4bb a171 353e 6dec 563c
000000d0: 3823 b13d 73f2 85be 7d8c 86bd f758 b63d
000000e0: 0e4c 53bc a294 90bd ceaf 513d 4922 92bc
000000f0: 627e 423c 6aee 05bd 6823 db3e 3170 1840
00000100: e0a7 fbbe b695 053d ccb1 493f 0726 113e
00000110: 3bd5 20bf 5301 5bbd 1e12 ab3c e9a3 ecbd
00000120: 4480 8e3d c059 a93d 477e 033c 5e12 453d
00000130: d806 d8bd fba1 7abe c295 1bbe fe7a 85bd
00000140: cc0c 143e 29ad f6bd 91bf 07be 0e3a b93e
00000150: 1d6c b0bc 5528 c63e 8df9 22be a42e 1c3f
00000160: 9acf 29bf d24a 35be 7538 9b3e ad5f cbbd
00000170: 94f0 8d3e 4edd 393e 31b7 283e 7927 9cbb
00000180: 5a43 e73d fff4 8e3d 79e8 033e 75c6 9b3d
00000190: 37f2 7dbb aa22 2b3c 3d89 75be ce45 9fbe
000001a0: 3cfd 213e 52db 583d 4ff9 57bc b1f0 dabb
000001b0: 21c7 08be eb3a 49bc ebc2 3a3d 1ee1 64bd
000001c0: a285 813e 23a0 063f 4586 e9be cb16 02be
000001d0: 8cca d5bd 0c39 ad3c a9b4 263e 6175 1dbe
000001e0: b05c 7e3c 2f74 293e 0343 89bd eaf2 6bbd
000001f0: b452 aabd 8675 e33d b756 6e3e 2bfd 9f3d
00000200: 019e 563d 4185 b43b f68c c13d 3f00 123d
00000210: ecb1 133d ae9e ec3d a4a6 a1bd e028 eb3c
00000220: 01d7 3ebc f1e9 55be 1554 483f e095 133f
00000230: 0b36 2dbd 41e3 1cbf 1abc d93d e17a 363f
00000240: a20c 3c3d 6ed1 a63d 9961 67bd 85b4 373d
00000250: 8162 f5bd 301a a6bd 80ee 8b3e 87e9 373e
00000260: 020f 21be 81b7 803e e4c3 d5be 422d 3abe
00000270: fc9c 853d 5917 31bd 0407 543d 3b5c a8bb
00000280: 5104 213e 7382 d2bd dfdb 5f3e d6fc 25c0
00000290: 924c 57be 7c2a bdbd 8985 b4bf 479a 72bd
000002a0: b953 d13f db7a 1c3e ce3f 153e f984 313e
000002b0: c0c1 563e dd98 c3bd cac7 043e a00f 1d3e
000002c0: 6aa5 913e d8b4 cebd 11dc 87be 4afd d4be
000002d0: 402c 91bc 1c73 a63d 0445 053c 528e 2fbd
000002e0: 101b fc3c 3c8b e3bb 5b01 00be 8fce 113e
000002f0: 60d6 943f 46e3 173e e918 b339 949a be3d
00000300: ecec e2bd a040 71be 14ca 243d 05f8 b0bd
00000310: 3680 f5bb 078a d2bd 7985 d0bd 4e35 94bd
00000320: 023c 6cbe 397b 783e 910b 2dbd 902d 473d
00000330: 3a56 fb3d 7c55 08be 1c45 bd3c dc06 773b
00000340: a66b d6bc 1f18 773b c656 a93c abfc 3f3d
00000350: 71ed 833e b4de 943d 308f cebe be99 3bbe
00000360: 6e59 523f 98b8 b1bd 33f0 84bf 52a9 283b
00000370: 4422 a2bd 3fc3 6f3d 516a e9bc 3cc4 053d
00000380: 245d ad3b a02e 823e f1c5 e0bd b08d 233d
00000390: f9ae 6c3d 1da0 093e 3b8e b7bb f616 f8bd
000003a0: 4d68 bebd 20cf 6e3d 938f ae3d 9bee b5bd
000003b0: d051 f1bc c256 c83e 52bc f4bc b11c 6f3e
000003c0: 2728 553e 5dee 5cbe a3aa c83d 34c6 553d
000003d0: 6697 d33d e209 6e3d f55b 7cbd b7ec f0bd
000003e0: 86a5 d03d 59f9 033e 453a a93d 02fd 97be
000003f0: b2d9 6fbd 0fe2 a8bd 1933 1b3d 5d85 d03d
0.05129068 0.067647405 0.03501509 -0.062741 0.028670458 -0.060573295 -0.028727982 -0.15136944
-0.005057531 0.10924433 0.09746728 0.110773966 -0.38807067 -1.5328387 0.71122277 0.007728352
0.14872204 -0.10606187 0.0393047 -0.06537709 0.03690711 -0.12451886 0.109351546 0.06684154
-0.094032235 -0.26512417 -0.17779997 -0.09670538 0.1240843 -0.0063149016 -0.005966133 -0.07920727
-0.03154789 0.005108915 0.051109087 0.010276973 0.025865894 0.14998709 4.175698 -0.2776642
-0.1198939 1.6876785 -0.02817675 -1.8408495 0.16093855 0.055221546 0.10866441 -0.037383575
-0.024027709 -0.0064964737 0.17719127 0.013117892 0.086492956 -0.26161537 -0.06569765 0.089036874
-0.012896551 -0.070595995 0.05119305 -0.017838614 0.011870952 -0.032698072 0.4280045 2.3818476
-0.49151516 0.03261348 0.7878692 0.14174663 -0.62825364 -0.05346806 0.020882662 -0.11554701
0.069580585 0.082690716 0.008025712 0.04811322 -0.1054818 -0.24475853 -0.15193847 -0.065175995
0.14458007 -0.120447464 -0.1325667 0.36177105 -0.021535927 0.38702646 -0.15915509 0.6100867
-0.663324 -0.17704323 0.3031651 -0.09930358 0.2772261 0.18150827 0.16476132 -0.0047654477
0.11292143 0.06980323 0.1288165 0.07606212 -0.0038749108 0.010445276 -0.23978133 -0.31107944
0.15819257 0.052943535 -0.013181998 -0.0066815247 -0.13357212 -0.012282114 0.045596045 -0.05587875
0.25297266 0.525881 -0.45610252 -0.12704007 -0.104390234 0.021145366 0.16279854 -0.15376808
0.015525028 0.16548227 -0.067022346 -0.057604708 -0.083165556 0.111064 0.23275267 0.0781196
0.052396778 0.005509049 0.09450714 0.035644766 0.03605835 0.11553703 -0.07893112 0.028706014
-0.011647941 -0.20890023 0.782533 0.57650566 -0.042287868 -0.6128426 0.10631581 0.7128125
0.045910485 0.08145414 -0.05648956 0.04484989 -0.11981679 -0.081104636 0.273304 0.17960177
-0.15728381 0.25140002 -0.41751015 -0.18181327 0.06524083 -0.043235157 0.051764503 -0.005137948
0.15724303 -0.102787875 0.21861218 -2.593557 -0.21025303 -0.09236619 -1.4103252 -0.05922916
1.6353675 0.1528124 0.14575121 0.17335881 0.20972347 -0.09550641 0.12966838 0.15337992
0.28446513 -0.10093087 -0.26535085 -0.41599494 -0.017721295 0.08127424 0.00813413 -0.042860337
0.030774623 -0.0069440883 -0.12500517 0.14238952 1.1627922 0.14832792 0.000341601 0.09306827
-0.110803455 -0.23559809 0.04023178 -0.08641056 -0.0074920906 -0.10280233 -0.10181708 -0.072367296
-0.23069766 0.24265756 -0.04224736 0.048627436 0.12272306 -0.1331386 0.023104243 0.0037693297
-0.026174378 0.0037703586 0.02067126 0.046871822 0.2576709 0.0726904 -0.40343618 -0.18320367
0.8216771 -0.086777866 -1.0385803 0.0025735688 -0.07916692 0.05853581 -0.028493078 0.032657847
0.0052906442 0.25426197 -0.10975254 0.039930046 0.057784054 0.13439985 -0.005601672 -0.121137545
-0.092972375 0.058303 0.08523478 -0.08883401 -0.029457957 0.3912869 -0.029874954 0.23350789
0.20816098 -0.21575303 0.09798171 0.052190974 0.10331611 0.058114894 -0.061611135 -0.117639
0.10187821 0.12888087 0.08263067 -0.29685217 -0.05855722 -0.08246242 0.037890527 0.10181687

critic.0.bias f4 [64]
00000000: 13f0 56bd acfb 3e3e a7dc 8fbd 0018 703c
00000010: 4912 103e 22a0 d7bd 5ef4 e73d 8731 e03d
00000020: 1314 cf3c d336 f7bd 1ddd 36be 21df 28be
00000030: df4b cdbd a400 c03d 0a15 1cbc f959 8bbd
00000040: 624e b23d cc72 303e 82aa 42be 39fd 0cbd
00000050: b932 4ebd 40d4 a33d 63f7 b23d 81ab fcbc
00000060: 60da 8ebd 17bc d03a 629e 133e 2b91 253e
00000070: 5606 2f3e 4509 733d 9e48 30be 4dfd 3a3e
00000080: f879 313e 994b 4cbd c056 983d 1f27 c3bd
00000090: 4717 8abd 50eb 243e 2e51 12be 4561 01be
000000a0: 7b36 49bd 8943 f53d 92b0 c1bd d533 ffbd
000000b0: d94f bcbd 55b8 913d 1a7f 6fbd 21fa 83bd
000000c0: 21be 0dbd bd1b 25be ff9b 1e3d 8a40 d5bd
000000d0: 5ffa 3cbe c965 243e aff9 95bd e6a7 b1bc
000000e0: 0142 b43d ade6 7bbe 0e28 f6bc f9a5 a7bc
000000f0: 3390 213e edfe a43d 6ee4 813b 1cd6 2c3e
-0.052475046 0.18650693 -0.07024508 0.01465416 0.14069475 -0.1052859 0.11325906 0.109469466
0.025278127 -0.12071004 -0.17857786 -0.16491367 -0.10024237 0.09375122 -0.0095265005 -0.0680427
0.087063566 0.17231292 -0.19010356 -0.03442118 -0.05034134 0.07999468 0.087385915 -0.030843498
-0.069752455 0.0015925196 0.14415887 0.16168658 0.1709226 0.059335012 -0.17215201 0.18260689
0.17331684 -0.049876783 0.07438421 -0.09528946 -0.06742721 0.1610539 -0.1428878 -0.12634762
-0.049124222 0.11975772 -0.09457506 -0.12461058 -0.09194917 0.07115237 -0.058470823 -0.06444193
-0.03460515 -0.16123863 0.03872299 -0.104127005 -0.18454884 0.16054453 -0.07323014 -0.021686506
0.08801652 -0.24599715 -0.030048396 -0.020464884 0.15777664 0.08056436 0.0039639985 0.16878551

critic.2.weight f4 [64, 64]
00000000: 978a 35bd cc5f b63d fc97 273d 2d8d 71bc
00000010: e7c5 e13b 129b 50bd df0f 97bc 5192 89bb
00000020: 89ec 02bc 02df b0bd 0a8d 063d 5706 013e
00000030: b472 b9bd 5557 843d 0516 4e3d 25c9 1fbd
00000040: 8839 bcbc 52cf ee3d b693 df3d a786 f4bd
00000050: b6f0 7d3d 0fdc 29bd 2d3d 983c 2a35 583d
00000060: aedd 08bb 460e eebd 9ba2 72bd 8f7a 773d
00000070: 43b1 93bd 407f 163c c5fd b53d 8833 1fbd
00000080: a488 213c 6ff7 08bc 72c3 24be 1bce 64bd
00000090: b458 88bd 38d0 dbbd 5666 babd 4374 81bc
000000a0: 88dc 19be 191c 04be 4b27 91bd 71cb 673c
000000b0: 5666 e13c 9c70 1abe 0e20 ac3d 1d94 03be
000000c0: e3b0 913d 3efe b43d 8108 7cbd 3dd3 cebd
000000d0: 0455 c1bd 0e82 823c 9186 233e 4e45 e4bb
000000e0: 1f70 fabc a744 4a3d 4acc 8b3d d90e ca3c
000000f0: 7ba0 883d 2f68 6b3d 2c62 e5bc 75b5 5b3d
00000100: 1d46 e63d 4ce5 4fbe b0cd 523b 9c64 fcbd
00000110: 6e1f acbc 4381 463d 3930 8ebd b835 223e
00000120: 69e3 cbbc 7e0c 723d 60ee 5bbc 2873 113d
00000130: 7578 4e3b a3ed a5bd 6e47 a23d 840c 9a3d
00000140: f306 d6bd 39ec 0e3d 4c1a 0e3e fbd3 9c3d
00000150: d32f 46bd 605b 0ebd d874 31bd a208 e5bc
00000160: f0c3 943d 253d d2bd 7deb b23d 5904 cb3d
00000170: a2c1 dfbc 977f 29be 7232 e0bc 1e30 82bd
00000180: 25a5 00be 77c1 7dbd 7631 84bc 83fa db3d
00000190: 1eef f7bc 5f08 05be a693 7f3e e337 563d
000001a0: 74e4 b33c 25e8 943d 0fcd 853d 8c82 d1bc
000001b0: 6340 c93d 28cc a73d 86a3 b43a 6f59 003e
000001c0: 849b 7a3e 30fb 833d 88a0 8dbc 2039 7c3d
000001d0: f941 c83d 05ed 1abd e32c e83c a36a d53d
000001e0: 32bf b1bd 28c2 7dbd 8308 9fba d07f de3c
000001f0: 0074 b23c e06d 24bd d9c3 793d 4b8a d33c
00000200: 3e8c ddbd 0c84 a83d 2edb e83c f58b cdbd
00000210: 36b4 0cbd a2bb fabd 52a7 033e 31f8 98bd
00000220: 52ae db3c 3552 97bd 4115 923d 20f3 febd
00000230: a2c1 8cbd 2908 83bd 3634 043d c178 43bd
00000240: b102 a0bd 116b 503e 59ee 6e3c 2ce2 1bbd
00000250: cce9 ba3d d3de d43c 73cb 95bd ee60 2ebd
00000260: a233 783d b61f b23d 4bb2 0abc ae3b 013e
00000270: e108 e63d bb8a 00bd 4ede 0d3e 7849 e7bd
00000280: 4864 80bd 2cbf c8bd 1a76 a1bd 4b57 b7bd
00000290: 7d33 98bc 2d75 3fbe 390c d63d fa6b 183e
000002a0: 062d b2bd 896b 5a3d 0eba 8abd c5f5 b2bd
000002b0: 3ad1 c83d bc80 8e3d 1481 8fbd a179 143e
000002c0: ad36 22bd 8c25 72bd 36f8 38bd 5417 1abe
000002d0: 0172 00bd 428a b43d dcc0 1b3e 3029 f13d
000002e0: 2fce e83c 775a c2ba 0956 d03d aa97 133c
000002f0: 7748 93bc 786c 973c a351 f33c 9783 d9bd
00000300: 0424 203d fa29 b03d 2229 6f3a 5ba8 e3bd
00000310: dce6 973d 0763 c5bd 8b2a 04bd 3ecc 5f3d
00000320: 73b3 1bbe 83c7 983d 3948 ed3c 2965 a2bd
00000330: eda3 b1bd a57c 6ebd bd05 d83d 5f19 51be
00000340: 9d45 5c3d 8cae ed3a d8f1 f43c 0fa3 92bd
00000350: cebd bcbc 8701 abbc 571f b43d 8223 f73d
00000360: 6dba 25be f181 dbbc b133 3a3d ec13 823d
00000370: 5b30 e0bd ea63 a3bc 16d0 593d 7838 3a3d
00000380: 85ec 60bd c8cc 15be 7cb2 8bbd 0438 bf3d
00000390: f189 89bd fccf c53d 93f8 cc3d a3ff ba3d
000003a0: 2023 8ebc e711 debd 5022 2a3d 54c4 88bd
000003b0: 9655 e8bd 2bdf a6bc 67b0 6d3d 84e4 81bc
000003c0: acfe 043e 4448 8b3d 538c 0b3c b98c 18bd
000003d0: 98d7 043e 04d9 4ebd a6c6 1a3d 155c ba3d
000003e0: 4d5f 5e3d 2765 a93c 444a 083d 4ca9 37bd
000003f0: 1c7c b6bd 2e87 a3bd c70b d7bd 6ab1 94bd
-0.044321623 0.089049906 0.040916428 -0.014743132 0.006890047 -0.050929137 -0.018440185 -0.0041983505
-0.007990965 -0.08636285 0.03284935 0.12600075 -0.09055081 0.0646197 0.05031397 -0.039010186
-0.022976652 0.11660637 0.109168455 -0.119397454 0.061997138 -0.04146963 0.018583858 0.052785076
-0.0020884085 -0.11623816 -0.059237104 0.060419615 -0.07211544 0.009185612 0.08886293 -0.038867503
0.009859238 -0.008359774 -0.16090181 -0.05586062 -0.06657544 -0.10733074 -0.0910155 -0.015802508
-0.15025532 -0.12901343 -0.07087573 0.014147625 0.027514618 -0.1508202 0.084045514 -0.1284947
0.071138166 0.08837555 -0.061531547 -0.10098884 -0.094400436 0.015931156 0.15969302 -0.0069662696
-0.030571042 0.04938188 0.068260744 0.024665283 0.06671234 0.057472404 -0.028000914 0.053639848
0.11243842 -0.20302314 0.0032166056 -0.12323877 -0.02101108 0.048463117 -0.069427915 0.15840805
-0.024888711 0.059093945 -0.013423532 0.035510212 0.0031504903 -0.08101966 0.079237804 0.075219184
-0.10450544 0.03489325 0.13877219 0.076576196 -0.048385452 -0.03475511 -0.04332432 -0.027958218
0.072639346 -0.10265569 0.08736322 0.099129386 -0.027314011 -0.16552578 -0.027367804 -0.06356834
-0.12562998 -0.06195208 -0.016136866 0.10741141 -0.030265387 -0.12991475 0.24958667 0.05229939
0.02195952 0.072708406 0.065332524 -0.025574945 0.09826734 0.081932366 0.0013781644 0.12534116
0.24473387 0.064443946 -0.017288461 0.061577916 0.09778208 -0.037823696 0.028341716 0.1042073
-0.08679046 -0.06195274 -0.0012133274 0.027160555 0.021783829 -0.040143847 0.06097779 0.02582278
-0.10817765 0.08228311 0.028424826 -0.1003646 -0.03435155 -0.12242819 0.12856796 -0.07469214
0.02681652 -0.073887266 0.0713296 -0.12448716 -0.0687287 -0.06398041 0.032276355 -0.04772258
-0.07813013 0.20353343 0.014583194 -0.03805749 0.091266245 0.025985157 -0.073141955 -0.042572908
0.060596116 0.08697455 -0.00846536 0.12620422 0.11232162 -0.031382304 0.13854334 -0.1129331
-0.06269127 -0.09802088 -0.07883854 -0.08952197 -0.018579239 -0.18697043 0.1045155 0.1488494
-0.08699994 0.05332521 -0.06773768 -0.08738283 0.09805532 0.06958148 -0.070070416 0.14499523
-0.039602924 -0.05911784 -0.045158587 -0.15047961 -0.031358723 0.08815433 0.15210289 0.11775434
0.028418628 -0.0014827986 0.1017266 0.0090083275 -0.01797889 0.01848434 0.029702013 -0.10620802
0.039096847 0.086017564 0.0009123256 -0.11116096 0.0741708 -0.096380286 -0.032267135 0.05463814
-0.15205173 0.07459929 0.028965103 -0.07929451 -0.086738445 -0.05822434 0.105479695 -0.20419835
0.053777326 0.0018133684 0.029900476 -0.07160007 -0.023039725 -0.020874752 0.0879504 0.120673195
-0.16184397 -0.02679536 0.045459453 0.06351456 -0.10946723 -0.019945104 0.05317696 0.04546401
-0.054913063 -0.14628899 -0.068211526 0.09336856 -0.06715763 0.096588105 0.10008349 0.0913079
-0.017350733 -0.10843258 0.04153663 -0.066780716 -0.11344449 -0.020370087 0.05802956 -0.015856035
0.12987775 0.06800893 0.008517343 -0.03724358 0.12972867 -0.05049993 0.037787102 0.090995945
0.054290105 0.020678116 0.03327395 -0.04483919 -0.08910391 -0.07984768 -0.10500293 -0.072604015

critic.2.bias f4 [64]
00000000: 0bfe a33d 067b 74bd 1e0b a1bc 2f1e 21be
00000010: 622f 95be b6fd 49be 671c 52bd e1f8 803d
00000020: 4f82 1b3c 91de 08bd eda4 dd3d 7627 2fbe
00000030: bf6e c1bc 65af 09bd fe80 69bd ed11 ddbd
00000040: 1778 23bd 3724 d63d 0624 323e 05e5 05be
00000050: 8c2a 1a3e 5e84 9d3d c292 53bc b098 d3bc
00000060: 60ff 8d3d 0dc4 1dbe e6d7 d8bc f7f0 9fbd
00000070: 9fd0 f4bd 7960 523d eb4f cebd 59d0 b13c
00000080: bb7b 023d ed54 bcbd 32b8 c1bd 8503 61bd
00000090: 72c6 423d 343a f4bd 7256 b6bd 649d 8ebb
000000a0: 9ac3 27bd 101a cfbd 4285 e4bd dc90 05bd
000000b0: 1c3c e63c 90a5 053e 0410 bbbd 35b3 293e
000000c0: 4f7d 833d 7d54 653d 580a e43d b714 d33b
000000d0: 9c18 f6bd 4f87 91bd b434 2dbd 4236 e33c
000000e0: 1de8 1c3d 8c9d e8bc 8671 cabd 0b20 c7bd
000000f0: d639 bb3d 25ad 24be 4462 c43b fc95 1a3e
0.08007439 -0.059687637 -0.019658621 -0.1573417 -0.29137713 -0.1972569 -0.051296618 0.0629747
0.009491517 -0.03341538 0.10822473 -0.17104897 -0.023612378 -0.033614535 -0.057007782 -0.10794435
-0.03990945 0.10456126 0.17396554 -0.13075645 0.15055293 0.07691263 -0.012913408 -0.025829643
0.069334745 -0.15406819 -0.026470136 -0.07809632 -0.11953854 0.051361535 -0.10073837 0.021705793
0.03185628 -0.09195886 -0.094589606 -0.054934997 0.047552533 -0.11925164 -0.08903207 -0.0043522585
-0.040958025 -0.10112393 -0.111582294 -0.03260885 0.028104834 0.13051438 -0.09133914 0.16572268
0.06420385 0.055988777 0.111347854 0.0064416784 -0.120164126 -0.07105886 -0.04228659 0.027735833
0.038307298 -0.028395437 -0.09884934 -0.097229086 0.09141891 -0.16081674 0.0059931595 0.15096277

critic.4.weight f4 [1, 64]
00000000: cc97 773c 60f2 6cbd 35f9 033d a8f2 1a3d
00000010: 2d8c 003e 8622 643d 45b8 bbbc ced7 8f3d
00000020: 2c05 1cbd 3e42 1d3c fc57 8cbd 6f85 f7bb
00000030: 3d39 6cbd 41a1 07bd 6758 9b3d 50e5 003d
00000040: 6ea0 f0bc 3c71 0bbd 29f1 04be 59c2 dc3d
00000050: 4927 403d c144 173d 525f 00bd 635e 143d
00000060: 49bc a1bd 6a64 9dbd ec82 a93b 9a32 7dbd
00000070: 16c0 d63d 9ebb 89bd 5d62 df3d 01ba 34be
00000080: 6a1b 3d3d 882d 22bd 2edd 7dbd c1e2 dd3c
00000090: 91ab d03a 865f e23d 2a7b ea3c ca77 0c3d
000000a0: 9c8f fdbc 4352 323d bb43 02bd 1ac6 e3bd
000000b0: 25e6 5fbc 30fc 29bd cfa0 91bd 0755 10be
000000c0: 2804 a73b 6811 70ba 77da e8bc 8d9f aabc
000000d0: 34d6 ba3c 66b5 423c 6aba 8abd 200f 94bd
000000e0: 7368 d4bc 60e6 d43c def2 73bd bdd4 623c
000000f0: 82d1 47bb 65bc 3e3d 1d53 f93c 9f1a 9bbd
0.015111875 -0.057848334 0.032220084 0.03782907 0.12553473 0.055696987 -0.022915015 0.07023583
-0.03809087 0.009598313 -0.06852719 -0.0075537483 -0.057671774 -0.033112768 0.07585221 0.03146869
-0.029373374 -0.034043536 -0.1298262 0.107792564 0.046912465 0.036930803 -0.031340905 0.036222827
-0.07897241 -0.07685168 0.005173078 -0.061815836 0.10485856 -0.06725238 0.10907433 -0.1764908
0.046168722 -0.039594203 -0.06197851 0.027085664 0.0015920271 0.11053376 0.028623182 0.034293927
-0.030952267 0.043535482 -0.031802874 -0.11121769 -0.013665711 -0.04150027 -0.0711075 -0.14094935
0.005096931 -0.0009157867 -0.028424485 -0.020828033 0.022807218 0.011884069 -0.06773837 -0.07229447
-0.025928712 0.025988758 -0.059557788 0.013844666 -0.0030489867 0.046566386 0.03043514 -0.07573437

exp_avg f4 [6]
00000000: 11d0 b839 c101 f239 3b19 27b9 2319 9aba
00000010: 05a2 0dba c0df 52ba
0.00035250236 0.00046159144 -0.0001593576 -0.0011756759 -0.0005402866 -0.00080442056

exp_avg_sq f4 [6]
00000000: c7fe 3036 bacf 7636 e297 4e36 7598 6f3b
00000010: 3a66 f736 aa9a db37
2.6374344e-06 3.677777e-06 3.07848e-06 0.0036559377 7.3730744e-06 2.6178855e-05

exp_avg f4 [64, 25]
00000000: f3fe 8b37 973b 0638 aa7a 0339 e0b9 873a
00000010: 6bc4 aa38 649c cc39 6442 59b8 a4cc 03b8
00000020: 35bd c636 8490 8238 f96a 4ab7 8659 fcb5
00000030: dd1e 4838 272c bf37 5f4f 5738 7eac 4e38
00000040: d245 80b5 7eac 4e38 9945 8035 bf17 06b7
00000050: 15be 4c37 9967 8d39 a4c6 073b 3e4d 6039
00000060: 0775 4d3a 8b77 28b8 7218 7838 a260 b139
00000070: f7ce af3a 3df5 4139 98f5 dc39 a90d 6f38
00000080: 8e82 2db9 c2ae a9b8 e548 94b8 939c b3b8
00000090: 82e6 22b9 a274 c838 3912 b736 7c75 f638
000000a0: b57a 3939 d454 3138 b57a 3939 d754 31b8
000000b0: 90f4 05b8 1cfc c837 b8f5 373a cd42 2c3b
000000c0: c49b d239 eba1 463a ee18 98b5 ef00 4ab8
000000d0: 1dcd 07b9 1b70 c0b8 89f3 54b6 ab3d 2e39
000000e0: 5a6d 0e39 f1d0 b136 dda6 9f39 3f02 9139
000000f0: 8a5e 3839 7977 a939 53d0 ccb8 d47c bc36
00000100: 1ed3 e6b8 d7b8 80b9 786c 41b8 d7b8 80b9
00000110: 7b6c 4138 4fa7 d438 9d23 c637 a939 c237
00000120: c2f1 aa39 f452 6539 5a65 c839 65b2 0137
00000130: 8e56 edb6 d441 36b9 1994 4b39 e164 d5b8
00000140: 02a0 0539 a83b 44b7 5f05 fa37 3e09 89b8
00000150: c368 f1b8 64c1 6cb8 01c3 36b9 f005 44b8
00000160: 27e8 9636 2a18 8db8 bb89 09b9 48c1 8ab7
00000170: bb89 09b9 49c1 8a37 a922 3d38 d183 a737
00000180: 5ae7 ccb9 16fe 7e39 9160 7ab9 3e9c 3e39
00000190: 9e33 13b8 c470 9a38 8037 9639 0d9c 543a
000001a0: 383d 2d39 21dc 3d39 6ffd 8ab8 f025 8338
000001b0: ed8a 1db8 90a3 3ab8 3fa2 e0b8 7c94 32b8
000001c0: 78c2 cc38 b5f4 51b7 496e e638 04f6 5839
000001d0: c6dc fe37 04f6 5839 d2dc feb7 a5b8 feb8
000001e0: 2b37 1239 c03e 083a 00ad d23a a7af 8c39
000001f0: 73f5 af39 ccb1 a537 2b7d 1bb8 37a8 6cb9
00000200: db8d 5539 e326 deb8 9370 4139 106b 3a38
00000210: 31c6 f5b7 a005 0638 ed2a 6538 ace4 4338
00000220: a78e 4ab8 4cf5 8db8 e497 a637 3a1c a3b8
00000230: 35c1 49b9 7f8e ceb7 35c1 49b9 8c8e ce37
00000240: c915 c438 ea85 3ab8 bb7d ddb9 8881 ce39
00000250: 79ec 29b9 8d77 b139 5672 2438 2cbc 2738
00000260: cec4 9739 ebb2 d93a 57af 3639 e9f7 0c3a
00000270: fd15 cc37 0a77 37b9 ef41 97b8 6a35 6db8
00000280: 4937 32b9 3ca3 65b9 4db5 aa38 ee75 3138
00000290: a5ca ef38 38a2 e838 444a 8737 38a2 e838
000002a0: 504a 87b7 8a1b 0739 1038 81b7 aaf9 233a
000002b0: 13bb 523b 7d03 c739 9904 723a 9180 04b5
000002c0: a069 51b7 15ba 9fb9 1dff d639 5380 43b9
000002d0: 39a5 9b39 a28b 7ab7 54e1 af37 de5a 57b8
000002e0: 0f43 d2b7 c041 feb7 fd99 09b9 0204 99b8
000002f0: 4226 b036 bee4 efb8 4268 62b9 c2a7 00b8
00000300: 4268 62b9 c1a7 0038 0a15 e437 3153 9d37
00000310: 96d5 24ba 7778 453a 5daf beb9 9c94 0b3a
00000320: e94e 32b8 5d76 36b6 73ed 4ab8 63c3 4fba
00000330: e72d 30b8 8a05 a9b9 18ac cf37 c293 e437
00000340: 78a0 7037 9f06 7636 50e8 a237 900e 1437
00000350: d562 c2b7 f7d8 d4b7 daa2 90b7 b8ce 05b8
00000360: e927 06b7 b8ce 05b8 ef27 0637 f68d 1cb8
00000370: 0d97 54b6 33e0 8cb8 243e d2ba 4a78 99b8
00000380: d123 25ba 1a8a a937 c8e0 2838 1b04 b5b8
00000390: ff9d fcb8 7f4d a0b8 04e0 0eb8 1341 99b7
000003a0: 054d e838 67d2 96b8 902d f837 45e7 fdb8
000003b0: 9dd0 f037 d9fa c1b7 4dce f8b6 2c03 20b8
000003c0: 519d 73b8 bcad 7ab7 519d 73b8 c2ad 7a37
000003d0: 5645 6238 796f 0539 708b 84b9 5a3f 75b9
000003e0: 3610 6ab9 9420 8eb8 6401 d7b7 d8ac 9b37
000003f0: 1fbf b738 bed4 99b9 bb9f e137 1ca7 11b9
1.6688811e-05 3.2003587e-05 0.0001253883 0.0010355078 8.1428174e-05 0.00039026432 -5.1798663e-05 -3.142342e-05
5.9228864e-06 6.225801e-05 -1.2065045e-05 -1.8801518e-06 4.771246e-05 2.2789534e-05 5.1333915e-05 4.9274873e-05
-9.557064e-07 4.9274873e-05 9.556999e-07 -7.992551e-06 1.22036045e-05 0.00026970802 0.0020717764 0.0002139108
0.0007837568 -4.0165654e-05 5.9150574e-05 0.00033832068 0.0013413121 0.00018497273 0.00042144652 5.6994762e-05
-0.00016547201 -8.091099e-05 -7.0707676e-05 -8.564549e-05 -0.00015535395 9.558468e-05 5.4559464e-06 0.00011752077
0.00017688687 4.227909e-05 0.00017688687 -4.22791e-05 -3.1937438e-05 2.3959255e-05 0.0007017511 0.0026284934
0.00040170376 0.0007577228 -1.1332138e-06 -4.8161422e-05 -0.00012951014 -9.176155e-05 -3.1732218e-06 0.00016616906
0.00013582912 5.299335e-06 0.00030451166 0.0002765823 0.00017582826 0.00032323206 -9.7662814e-05 5.6173685e-06
-0.00011006578 -0.0002455178 -4.6115805e-05 -0.0002455178 4.6115816e-05 0.000101401114 2.3620023e-05 2.3153452e-05
0.0003260505 0.00021870044 0.00038222485 7.730535e-06 -7.0732267e-06 -0.00017381395 0.0001941476 -0.000101754216
0.00012743476 -1.16964e-05 2.9804823e-05 -6.5343906e-05 -0.00011511289 -5.6446894e-05 -0.00017429517 -4.673557e-05
4.4973744e-06 -6.727905e-05 -0.00013116647 -1.6540886e-05 -0.00013116647 1.6540887e-05 4.509339e-05 1.9969333e-05
-0.00039082282 0.00024317982 -0.00023877832 0.00018178017 -3.5095603e-05 7.3642965e-05 0.0002865158 0.00081104116
0.00016521371 0.00018106449 -6.6275585e-05 6.253633e-05 -3.75611e-05 -4.4498185e-05 -0.00010711373 -4.2576794e-05
9.763701e-05 -1.2514346e-05 0.00010987797 0.00020691013 3.0381965e-05 0.00020691013 -3.0381987e-05 -0.000121460565
0.00013944197 0.0005197339 0.0016073287 0.00026833752 0.00033561475 1.9752326e-05 -3.707145e-05 -0.00022569379
0.00020366108 -0.00010593028 0.00018447851 4.4445565e-05 -2.9298566e-05 3.195333e-05 5.4637832e-05 4.670459e-05
-4.829341e-05 -6.769094e-05 1.9859472e-05 -7.777703e-05 -0.00019240829 -2.4623469e-05 -0.00019240829 2.4623492e-05
9.350066e-05 -4.4470573e-05 -0.0004224608 0.0003938789 -0.00016205189 0.00033849143 3.920713e-05 3.999115e-05
0.00028947595 0.0016609108 0.00017422192 0.00053775177 2.4328934e-05 -0.00017496585 -7.212522e-05 -5.655495e-05
-0.00016995998 -0.00021899951 8.1400016e-05 4.230992e-05 0.000114341536 0.00011092838 1.6127837e-05 0.00011092838
-1.6127859e-05 0.00012884862 -1.5404104e-05 0.00062551594 0.0032154962 0.00037958837 0.00092322525 -4.936092e-07
-1.24819635e-05 -0.00030465485 0.00041007335 -0.00018644454 0.00029687004 -1.4933672e-05 2.0966552e-05 -5.134462e-05
-2.5065177e-05 -3.0309777e-05 -0.00013122703 -7.296355e-05 5.2496625e-06 -0.000114390146 -0.00021591879 -3.0673815e-05
-0.00021591879 3.067381e-05 2.7189515e-05 1.8754597e-05 -0.00062879303 0.0007532904 -0.0003637028 0.0005324574
-4.2511998e-05 -2.718901e-06 -4.8381695e-05 -0.0007925538 -4.200442e-05 -0.0003223832 2.475646e-05 2.7248523e-05
1.4342477e-05 3.666071e-06 1.9420084e-05 8.824878e-06 -2.3172624e-05 -2.5373402e-05 -1.7241971e-05 -3.1902193e-05
-7.996315e-06 -3.1902193e-05 7.99632e-06 -3.732551e-05 -3.1678385e-06 -6.7174806e-05 -0.0016040248 -7.318014e-05
-0.00062995875 2.0210678e-05 4.0263665e-05 -8.631517e-05 -0.000120457255 -7.643829e-05 -3.406407e-05 -1.8269324e-05
0.00011076968 -7.191748e-05 2.958512e-05 -0.000121070574 2.8707373e-05 -2.3124203e-05 -7.4149925e-06 -3.8149927e-05
-5.8082227e-05 -1.4941612e-05 -5.8082227e-05 1.4941617e-05 5.3947173e-05 0.00012725395 -0.0002528089 -0.00023388621
-0.00022322018 -6.777156e-05 -2.5630645e-05 1.8557927e-05 8.761719e-05 -0.0002934094 2.689647e-05 -0.0001389053
