04-goal-pose-l6/logs/rsl_rl/joint_position/2026-02-19_13-16-49/model_2100.pt (torch, 161397 bytes, 36 tensors)

std f4 [6]
00000000: bbd8 213d 4f2f 073d 09cd 0f3d f755 143b
00000010: 3199 b03c 8e24 213c
0.03951333 0.0330041 0.035107646 0.0022634247 0.021557422 0.0098353755

actor.0.weight f4 [64, 25]
00000000: 8382 0a3f 4732 73be e9f4 09be 2c23 023e
00000010: a902 a33e 2d8c 89be 4fc3 02be 73ae 0abe
00000020: 0244 c0bd 907f 4d3e ccdb f6bd 55be d5bd
00000030: 5837 c4be 7a03 3c3f d1c3 bebe 46a6 65bd
00000040: 82b6 923f fcea fdbd cc8b b3bf a701 a6be
00000050: 4a28 9ebd 6068 363e f9e0 843e 0f52 323c
00000060: 1816 8ebd 382a f3be be16 563d c43f fb3d
00000070: 9c98 e73e 2bd5 d2be 3547 1abe 3270 2f3e
00000080: 2394 cf3c 2a8f 6cbd edc7 6fbd 0365 abbd
00000090: 51cb 34bd adbb 03be 4e9a 11bf e515 1dbf
000000a0: fcbf 1ebe 4739 7ebf 9e5e f3bd f753 933f
000000b0: 191a 963d 565f 943e 9a09 15be b5f3 3c3e
000000c0: 6f89 193d a9a3 dabd 6917 88bf 8e86 123e
000000d0: f1d0 eb3d 9828 253f 7c6f 29bf bf1a 4f3f
000000e0: bdca c1bd 7783 883d 22a6 473d 4e71 963e
000000f0: 2df3 92bd 43b0 793d ecde 713e f14d 6abf
00000100: 3be2 8c3d 9c0e 8a3e cf44 05c0 f59b 343d
00000110: d52c 0640 9b5c 00be 6bab 1ebe 2eb2 fcba
00000120: 6de2 4a3e 7174 0ebe 4664 103e 38a2 0a3f
00000130: 4d43 04be 8051 e8be 3665 02bf cdae 7abe
00000140: b8db 0abf b903 573e f3d5 87be ef22 f43d
00000150: bf07 6dbe 6eba c53e cc73 07bd 7fb4 e0bd
00000160: dcfc c13f 45c0 8fbd c5b5 2dbd da5c a03f
00000170: 3fb5 df3d 5bf5 86bf 40d3 96ba f341 88bd
00000180: 4a35 98bc 02d8 0dbe 1754 16be 5ff5 61be
00000190: 5805 853d 9db1 8cbd 7f87 1fbf ee24 c43c
000001a0: 4f56 58bd 1486 4b3c 55de e83d ddd1 b03d
000001b0: c439 0bbe b0fe 7f3e 012f 0fbe fc2b e13c
000001c0: 59a6 73be 9d30 0640 a944 73be f36a 95bd
000001d0: 8262 0c3f 5dd6 02be 865e 09bf 0845 10bd
000001e0: e51e a33d e321 463d 2382 923d f977 fc3c
000001f0: 51c2 2e3e ac8e a93d d4f2 acbe 1e1c 003f
00000200: 1a56 243e 5c70 efbb 52b3 b8be 5a81 debe
00000210: 3507 953c 8c02 cfbd db52 853e e059 483d
00000220: c494 463e f4c2 dfbd 3619 acbf 8807 8f3d
00000230: ecc9 2e3e af8b 9cbd a225 1f3e 19c6 293e
00000240: 0707 abbd 1290 013b b734 1cbe c84c aabd
00000250: 3dc9 c9bd cdee babb 29eb 3fbe 52ed 4a3e
00000260: c04a 6c3f 3bb8 6b3e 85de 82be e577 c93e
00000270: 3e52 c7be 7f6a 3bbd 48cb 5abd cf9a a33d
00000280: 682c 563d 227c 2ebd 3ad9 0abe 6465 dbbf
00000290: b5d4 c5be f815 0e3e a25b ed3d c2c9 5f3d
000002a0: 481b b9bd 6a32 993d 8389 0c3f 634f a7bb
000002b0: 50e4 1fbd d8d8 fb3c fafa afbe af68 82bd
000002c0: 5f92 ed3e 6629 7ebe a18a a1be 2f71 7dbd
000002d0: 7e0d a4be d6d7 29be 356f 65be 997f 163d
000002e0: e95b b6bd e5a3 e43d c2ad 02bd 61c5 92be
000002f0: 8868 d63e 364d dabd d3a9 16bd 9204 8e3f
00000300: 0789 36be f973 5abf d723 553e 6cd5 3ebe
00000310: 6664 19be 22ed 4abe 6645 68bd f70d 03be
00000320: d65b e8bd 5167 a0be 9f3b 133e 184b ccbd
00000330: f6ac 0fbc acb2 debe de5f b33d 447d 09bd
00000340: e953 1abe 36ae 86bd 577f c33d a406 d43d
00000350: 99bb d7bd 001c 93bf 915c 72be 9cf3 39bd
00000360: 1338 933f 220d 5b3e fa18 92bf 4b9a 5fbe
00000370: 3365 03be 62b7 263d 7798 f43d f05e cabe
00000380: 8d4c 7dbd aeaf 603e 2d5a 98be 0f2a f8be
00000390: 732c 2a3d 535f 4bbf 8d89 253e 7513 f9be
000003a0: 3aef 863e 46ae 9f3d db58 103e b03c 0c3c
000003b0: 94c4 2e3d 329a 933c fe05 053f b0cc 29bd
000003c0: 8c32 32be f06c e93e 29cb 9ebd b00a b3be
000003d0: 3783 173e a542 f4bd 8585 403e 096a 4cbe
000003e0: ec3f 943e 8a08 723c b430 67bd da08 6b3e
000003f0: 3f63 ab3c 2b16 84be d344 04be 4a0b 8ebe
0.54105395 -0.23749648 -0.13472332 0.1270873 0.31837967 -0.26864758 -0.12769817 -0.1354311
-0.093879715 0.20068192 -0.12053642 -0.104366936 -0.38323474 0.73442805 -0.3725877 -0.056066774
1.1461947 -0.12398335 -1.4027038 -0.32423136 -0.07722528 0.17813253 0.2595289 0.010883822
-0.06937808 -0.47493148 0.052267782 0.12268022 0.4523362 -0.4117826 -0.15066226 0.17132643
0.025339192 -0.05775372 -0.058540273 -0.08368876 -0.04413921 -0.12864561 -0.56876075 -0.61361533
-0.15502924 -0.9930615 -0.11883281 1.1509999 0.073291965 0.28978986 -0.14554444 0.18452342
0.037484583 -0.10675747 -1.0632144 0.14309141 0.11514462 0.64515066 -0.66185737 0.80900186
-0.094624974 0.066657 0.04874242 0.2938332 -0.07175288 0.060959112 0.23620194 -0.9152518
0.068790875 0.2696427 -2.0823247 0.044094045 2.0964863 -0.12535326 -0.15495078 -0.0019279176
0.19812937 -0.13911606 0.14100751 0.54153776 -0.12916298 -0.4537468 -0.50935686 -0.24480744
-0.54241514 0.20997514 -0.26530418 0.119207256 -0.23147486 0.38618797 -0.033069417 -0.10971927
1.5155292 -0.070190944 -0.042409677 1.2528336 0.10923242 -1.0543627 -0.0011507049 -0.06653204
-0.018580098 -0.13851932 -0.14680515 -0.22066258 0.0649516 -0.068698145 -0.62316126 0.02394339
-0.052816685 0.012422103 0.113705315 0.08633778 -0.13596255 0.249995 -0.13982774 0.027486794
-0.23793925 2.0967171 -0.2375666 -0.072957896 0.5483781 -0.12777086 -0.53659856 -0.035222083
0.07964877 0.04837216 0.07153728 0.030818926 0.17066313 0.082791656 -0.33779013 0.50042903
0.1604847 -0.0073070955 -0.3607431 -0.43458062 0.018191913 -0.10107908 0.26039776 0.048913836
0.19392687 -0.10925856 -1.3445194 0.06983858 0.17069215 -0.0764383 0.155417 0.16579475
-0.0835095 0.001976971 -0.15254484 -0.08315426 -0.09852836 -0.005704737 -0.1874205 0.19817093
0.9230156 0.23019497 -0.25560394 0.39349285 -0.38929933 -0.04575586 -0.05341652 0.07988512
0.052288443 -0.04259885 -0.13559428 -1.7140317 -0.38638845 0.13875568 0.11589743 0.05463577
-0.090384066 0.07480319 0.54897326 -0.005105899 -0.039036095 0.030743048 -0.34371167 -0.06367623
0.46400735 -0.2482048 -0.31551078 -0.06187552 -0.32041544 -0.16586241 -0.22405703 0.03674278
-0.08904249 0.11164073 -0.03190399 -0.28666213 0.41876626 -0.10659258 -0.03678305 1.1095145
-0.1782571 -0.8533321 0.20814453 -0.18636101 -0.14979705 -0.19817021 -0.05670681 -0.12798296
-0.11345641 -0.31328824 0.14378212 -0.099752605 -0.008769264 -0.4349569 0.087585196 -0.03356673
-0.15071072 -0.06576197 0.095457725 0.10352829 -0.10533828 -1.149292 -0.23668124 -0.04539834
1.1501487 0.21391729 -1.1413872 -0.21836202 -0.12831573 0.04070223 0.11943143 -0.39525557
-0.061840583 0.21942016 -0.297563 -0.48469588 0.041546296 -0.7944233 0.16165753 -0.48647657
0.2635439 0.07796912 0.14096396 0.008559391 0.04266794 0.018017862 0.5196227 -0.04145497
-0.17402095 0.45590925 -0.077535935 -0.3496909 0.14796148 -0.11926774 0.18800934 -0.19962324
0.2895502 0.014772544 -0.05644293 0.22952595 0.020921348 -0.25798163 -0.1291688 -0.27742988

actor.0.bias f4 [64]
00000000: 73e1 96be 5cc3 1bbe 983f 0d3e a0c9 ca3d
00000010: a1c7 803c 21a7 923d ff9c f7bd 9f5c cbbd
00000020: f8e5 d03d f54e 2cbd a146 99be ae7f 40bd
00000030: 3228 5bbe 9e9f 0d3d d346 edbc deff bcbd
00000040: 7f34 4a3d 7566 8bbe 362a c3bc 988a d0bd
00000050: 953a f9bd 5ab2 fe3c 5e92 82be 805c 95be
00000060: d358 7abd 7997 813e ff87 3fbe 5404 493e
00000070: ba2c 7bbd 0cdc cfbd 4ba3 16be be29 b8be
00000080: 621c f3bd b836 7dbe c15e a03c da65 cabe
00000090: 9302 f1bc 1f46 8bbe 8e76 6c3e 1d88 c63d
000000a0: 127d 86bc c046 47be e4b8 0dbe 4e03 aa3d
000000b0: a012 6cbd cdd0 72be 24d3 82bc e1aa 4bbe
000000c0: 6ea3 2c3d f308 3fbd 50f1 97be 6a1c 85be
000000d0: e059 4abe d3c9 8f3d 57ad b53d 2612 55be
000000e0: f847 e93d 5963 9f3e 135a 953e 5e81 e4bd
000000f0: 57a7 43bd b241 ec3d ecc4 a3be 0dbe dabe
-0.2946888 -0.15211242 0.1379379 0.09901738 0.01572019 0.071607836 -0.120904915 -0.099297754
0.10200113 -0.042067487 -0.29936698 -0.046996765 -0.21402052 0.03457605 -0.028964436 -0.0922849
0.04936647 -0.27226606 -0.023823839 -0.10182685 -0.12169377 0.031090904 -0.25502294 -0.29172134
-0.061119866 0.25310877 -0.18704222 0.19630557 -0.06132195 -0.101493925 -0.14710729 -0.35969347
-0.11870648 -0.24727905 0.019576432 -0.39530832 -0.029420173 -0.27201936 0.230921 0.0969393
-0.01641706 -0.19460583 -0.13840061 0.083014116 -0.05763495 -0.23712464 -0.01596982 -0.19889404
0.042148046 -0.046639394 -0.29676294 -0.2599824 -0.19760847 0.07020917 0.088709526 -0.20807704
0.1139068 0.31130484 0.29170284 -0.11157487 -0.04776701 0.11535968 -0.31986177 -0.42723122

actor.2.weight f4 [64, 64]
00000000: 8639 37be f8be 843d dc96 ecbd 6261 1a3b
00000010: 29c9 80bc 7c5e 69be d1e8 5ebe 99e8 6abd
00000020: d4a1 843d 11bc 03be 98df d23d 0bf9 0a3c
00000030: af43 7b3d d5f5 963c 4654 8cbd 91f0 3ebe
00000040: ddb9 84bd 019d 55bd 4770 813d 1dbe cb3d
00000050: 6a1e 523e 9800 d23c 923d e43d 3a03 7cbd
00000060: 1766 343c 2a98 48be 8c4b 313a d907 03bc
00000070: 589e a13c ac46 ae3c 3654 27be 49ab 6f3d
00000080: 7161 ec3c 533d 0ebe f682 b9bd 21d3 6e3e
00000090: 03be 80bd 2d1f 22bd e543 36be 4556 76bd
000000a0: 061e a73d d1c5 9cbc 47e1 8c3d 8aa6 cebd
000000b0: f0b7 f93d 15d1 9a3d 8a48 7dbe 8a92 01bd
000000c0: 6b09 183e 15da e9bd ed56 1f3d 993f 32bd
000000d0: ce61 1f3e 90dc 02bd 2873 d8bd d32d b1bd
000000e0: 64f5 d0bd ce39 2bbe 6d26 14be 3c28 3d3e
000000f0: a5a6 c1bd 4f27 5bbd 5493 b83d d6db c1bd
00000100: 9c42 05be b443 37be 2ed8 903d 61e4 333d
00000110: 7753 a9bd e74c cebc 972f 82bd 184d 4a3e
00000120: 7762 ecbd a675 f73d ce52 d03b 6c5e 393a
00000130: 9ec5 143e cfee f73d 4b72 c73d ceec 93bc
00000140: 1d01 493e 8cce 00bd 95b2 f63c 1efc 4b3d
00000150: 3856 a8bd 5aca f8bb 7137 4cbe e74d e9bd
00000160: 44a7 f1bc e09f 063e 2c47 2a3e acfc f33d
00000170: 5247 453e 27ba cbbd c694 653e ac4a 7a3e
00000180: 9f38 e23d 60f9 9cbd de35 fcbc 7f49 92be
00000190: 6576 cdbd a6ad 173d d0aa a1bb 1db9 90bc
000001a0: 9e49 85be 8b89 943d 49b3 f33c bafa c53d
000001b0: 6862 83be d519 5c3b 9a5c 393e 0301 e43d
000001c0: af81 983d 49bf 1ebe b7a2 8f3b 9851 b3bc
000001d0: f6be bdbc cdaf e5bd 18bc a8bd ef96 e0bd
000001e0: 8b92 0fbe 56af d43d 6ee2 78bd 3791 3dbd
000001f0: bdc2 3bbe 4f76 583d a07e 00be 0fb2 2f3e
00000200: 6e22 293d fcd3 05be c62e 1bbd 7ab4 abbd
00000210: 10fa 00be 60bc 90be f46d bebc d078 993b
00000220: e776 3dbe c92d 1abc 65ab 843d 2a24 013e
00000230: 7daa 9abd 56f6 31be e2eb 183d ed00 cc3d
00000240: bfc3 09be 1aed 153d 2a3a 4bbe 4f78 3d3e
00000250: ba61 a83c b8a3 0ebe 2f22 bebd d8cd 77bc
00000260: 6cb5 4bbe 7eef 5dbe 8e66 743c d948 253e
00000270: 10be 093f e413 0fbe 7a37 09be 392b d7bc
00000280: 7e9a 3bbe ebfe 19bd bcc2 24be efd5 753e
00000290: 5d0b 37be da0c f5bc d2a4 ca3d 5964 79be
000002a0: 40c1 6bbd 302f f13d ebd6 c2bd 9478 21bd
000002b0: e4ce cc3c 996e 083f 29ad 76be 9c64 bebd
000002c0: 6d64 d5bd e6b5 12be a6cb 1ebd e944 d53d
000002d0: 54ac d13d 349c 423e 69b0 4c3e 094e d2bb
000002e0: 81bf fcbd e45e 493c bdfd d33d 4937 0f3e
000002f0: 05ee 74be 7577 c63d c366 c13e c55c 493e
00000300: 5868 cbbd ab09 df3d d665 72bd 5e93 c2bc
00000310: c392 b13d 3210 70bd 5619 353e ea92 fe3c
00000320: 47f7 7abd 706d aebd 58a8 373c fcfc 1a3d
00000330: 7f27 d53d 9c7d 3fbe ad9a 073d 936d 013c
00000340: 9d21 42be 9ccb 22be 101f 18be dfd1 af3d
00000350: e9e0 96bc 1803 d1bd 3105 493e 042e 0cbe
00000360: d75e 12be 955e c9be 1109 223d 8aa0 85bc
00000370: 0724 57bd bf7a a1bb 5c76 45be db3c 043d
00000380: 3aea bf3d 8cd4 5cbd 4714 093e fa5c 993e
00000390: 2974 e23c e8b3 05bd 13d7 703e 5daf 89be
000003a0: 9192 d43d f276 db3d 33b6 c0bd 976a 8abd
000003b0: 6929 173c afc7 d13d 22a1 1abe 50a1 05be
000003c0: 7759 02bd 3c54 ab3d a15c 453e 46f9 633d
000003d0: fd67 d73c 96e6 203d 6729 f23a 4fd5 023e
000003e0: 8b9c b23d 1909 893c c5dd 8c3d ef31 36be
000003f0: 1ddd 26be 1aec a1bd c0a9 3d3e a29d 163e
-0.17893037 0.06481737 -0.11552212 0.002355658 -0.01572092 -0.22789949 -0.217685 -0.05735073
0.06476179 -0.1286471 0.102965534 0.008482228 0.061343845 0.018427769 -0.068520114 -0.18646456
-0.06480763 -0.052151684 0.06320243 0.099483706 0.20519415 0.025635049 0.11144556 -0.061526515
0.011010668 -0.19589296 0.00067632715 -0.0079974765 0.019728824 0.021273933 -0.16340718 0.05851296
0.028855057 -0.13890581 -0.09058182 0.23322727 -0.06286242 -0.039580513 -0.17799337 -0.060140867
0.081600234 -0.019137295 0.06878906 -0.100903586 0.121932864 0.075594105 -0.24734703 -0.03163389
0.14847343 -0.11418549 0.03890126 -0.043517683 0.15564653 -0.031948626 -0.10568839 -0.086513184
-0.102030545 -0.1672127 -0.14467783 0.1847238 -0.09455613 -0.053504284 0.090124756 -0.094657585
-0.1301369 -0.1789692 0.07072483 0.04391897 -0.08267873 -0.025183154 -0.06356733 0.19755971
-0.11542218 0.120829865 0.0063575273 0.000707126 0.1452851 0.12106096 0.097385965 -0.018057253
0.19629331 -0.03144698 0.030114451 0.049800985 -0.0821957 -0.0075924816 -0.19943024 -0.11391812
-0.029498704 0.13146925 0.16628712 0.11913428 0.19265488 -0.09947615 0.22420034 0.24442548
0.11045956 -0.07664752 -0.030787405 -0.28571698 -0.100323476 0.03703084 -0.0049336925 -0.017666394
-0.26032728 0.07252797 0.029748576 0.09666963 -0.25661016 0.0033584733 0.18101731 0.111330055
0.0744661 -0.15502657 0.004383411 -0.021889493 -0.023162346 -0.11215172 -0.08239001 -0.10966288
-0.14020745 0.10385005 -0.060762815 -0.046281066 -0.18336006 0.052847203 -0.12548304 0.17157768
0.0412926 -0.13069147 -0.037886404 -0.083840325 -0.12595391 -0.2826872 -0.02324579 0.0046835914
-0.18502389 -0.00941033 0.064780034 0.12611452 -0.07552049 -0.17379126 0.03733433 0.09961114
-0.13453577 0.03660307 -0.19846407 0.18502925 0.020554412 -0.13929641 -0.09283864 -0.015124761
-0.19893426 -0.2167339 0.014917029 0.1614107 0.5380564 -0.13972431 -0.13400069 -0.026265727
-0.18320653 -0.037596624 -0.1608991 0.2400739 -0.17875428 -0.029913355 0.09894718 -0.24354686
-0.057557344 0.117765784 -0.095136486 -0.039421633 0.025000997 0.5329376 -0.24089493 -0.092965335
-0.10419545 -0.14327201 -0.038768433 0.10413534 0.10237947 0.190049 0.1998917 -0.006417994
-0.12341214 0.01229069 0.10351131 0.13985933 -0.23918922 0.09690753 0.37773713 0.19664295
-0.09932011 0.10890516 -0.05917915 -0.02375191 0.08670571 -0.058609195 0.17685446 0.031075913
-0.06127098 -0.08516967 0.01120957 0.03783892 0.10407924 -0.1870026 0.033106495 0.00789966
-0.18958135 -0.15897983 -0.148556 0.085849516 -0.018417792 -0.10205668 0.19630887 -0.13689429
-0.14293991 -0.39329973 0.039559428 -0.016311903 -0.052524593 -0.0049279626 -0.19283432 0.0322846
0.09370847 -0.053913638 0.13386641 0.29953748 0.02764328 -0.032642275 0.23519544 -0.26891604
0.10379518 0.107160464 -0.09409752 -0.06758612 0.009226182 0.10243165 -0.1510053 -0.13049817
-0.0318236 0.08365676 0.19273616 0.055657648 0.026294703 0.039282404 0.0018475474 0.12776683
0.087212645 0.01672797 0.06878237 -0.17792486 -0.16295286 -0.07906361 0.18521786 0.1470857

actor.2.bias f4 [64]
00000000: 608f 38be 1fae bc3d e00a 00be 3f96 49be
00000010: efe9 eebd 4000 edbd d521 febd f72e 8bbd
00000020: 4559 fd3d ab7c a73c 7aac 2abd bcbe 18be
00000030: df3c 76be 6408 743d ec99 a4bd 5c15 1bbe
00000040: 14be 6cbe b4ac 8e3c d4eb d0bd 120e 7b3c
00000050: 5db2 24be ccd1 5c3e 4442 71be f29e c1bd
00000060: dfd9 32be 3f8f 09be 921e 033b b917 ddbd
00000070: 57df d7bc 0f66 533d bf17 14bd cb1c 073e
00000080: 25f1 35be 43af 70be 35e2 75be 4179 7b3c
00000090: f1e6 d7be ad22 f13c fe8d 2dbe 61f2 48bd
000000a0: dea1 ffbd 47bd a3be 12e5 21be 53e5 9f3d
000000b0: e9ba 02be d43a 183e 4f0a 72be d37d 9dbe
000000c0: 2528 ef3c 8eac 49be deba 68be c4ba 1dbd
000000d0: c087 d4ba f9de 3e3e 6a12 c4bd ce94 4bbe
000000e0: e8da 3a3d 09f9 e2bc f153 043e 4f62 4b3c
000000f0: 48e4 9cbe cb3b d33c b7f3 a7bc 0850 3dbe
-0.18023443 0.092128985 -0.12504148 -0.1968622 -0.11665713 -0.11572313 -0.12408797 -0.06796067
0.123705424 0.020445189 -0.041668393 -0.1491651 -0.24046658 0.059578314 -0.08037171 -0.15144867
-0.23119384 0.017416336 -0.10201231 0.015323179 -0.16083665 0.21564406 -0.23560435 -0.094541445
-0.17465924 -0.1343355 0.0020007235 -0.1079554 -0.026351614 0.051611003 -0.03615546 0.13194577
-0.1776777 -0.23504357 -0.24012072 0.015348733 -0.42168382 0.02943548 -0.16948697 -0.049059276
-0.124820456 -0.31980345 -0.1581004 0.07807412 -0.12766613 0.14866191 -0.23636745 -0.3076006
0.029193947 -0.1969473 -0.22727534 -0.03850819 -0.0016214773 0.18639745 -0.09573825 -0.19880983
0.04561892 -0.02770664 0.12922646 0.012413575 -0.30642915 0.025785347 -0.020501954 -0.18487561

actor.4.weight f4 [6, 64]
00000000: 2802 8e3d 9e56 87bd 7cbc 62bd 47b6 3cbd
00000010: 4bf2 36bd 0b5d c33d 3008 b83d d545 27bd
00000020: 2c6d 923d afed b1bd 0476 0ebe 3b32 85be
00000030: 9c12 1a3d 3ed4 e7bd d2b7 febc 9787 adbd
00000040: 1153 4c3d d1c9 a33d ebc9 a23c e7b7 013d
00000050: 1e23 41bd 78b1 96bd fae4 2f3d fb12 cc3c
00000060: 4523 f23d c221 95bd b801 1ebd 38a5 163c
00000070: 78c5 1d3c 71c4 b6bd a7de 0fbe bf3c ebbc
00000080: b174 123d 146b 383e b43e 4b3d 2530 953d
00000090: cfd3 a63d f59a f5bc a1b8 273d f052 38be
000000a0: 380b d5bd ec2b 903d 50c7 c5bd 0d07 1a3e
000000b0: 4228 133d e8e5 06be 872c 6e3d 9b4b c8bc
000000c0: f8fe dcbd 40a5 1f3e 52cf ca3c 45d4 bc3d
000000d0: f4e1 0ebe 3432 6abd dcae 18be 09b6 e83c
000000e0: a7a1 093e 0f31 203d 40f1 eb3d b4e5 fb3d
000000f0: c970 adba 2f46 72be b36c 9e3d feea 0d3d
00000100: 4caa c03c 54c6 e6bd 086c 1f3e 12b6 d73d
00000110: b33e 1c3d 72ee 213d 3f58 d63d 24f9 5c3c
00000120: d32c 233d 638e efbd 6903 02bd 15f2 00be
00000130: 406b 9abd e99b c43b 1e18 cfbd 9a07 6b3d
00000140: a525 ed3c 692b f63c eb03 de3d f596 08be
00000150: 99be 553c 3926 bdbd 27dd 03bd ca1b 0c3e
00000160: d1d9 dfbd cf46 38be c5a3 25be 2aa3 abbd
00000170: c689 2c3b 5a89 113c a6c2 d43c a64d 54bd
00000180: e1d9 c93d a402 6a3d 1f45 a4bc 7440 22bd
00000190: 59f4 cb3d 3836 fd3d 5bc4 5fbd 1981 2e3d
000001a0: 95a2 c03c f18b 123e ab46 cd3d e375 59be
000001b0: 6079 1c3e 8c84 dabd 4e38 153d 5c7e 283d
000001c0: 3a76 903d 45f6 103e e427 803d 47c4 a43d
000001d0: 39c7 a6be a52a 8bbd 73df ea3a 6b96 23bd
000001e0: d8d4 133d fcd7 8cbd 0762 56bd d164 193d
000001f0: f22c b23d c0ab 25be e323 82bd 0935 d9bc
00000200: 1adb 9d3b 479f 3e3d 1fe4 1d3d 8250 b1bc
00000210: 28ac 38bd ba9c 18be fc5d fabc b3ad f8bd
00000220: 45a6 1b3e ce9c 3a3d f419 64be 574c 2ebc
00000230: d1e7 d1bd ade8 05bd 3bcb 3c3c 1ba5 e83b
00000240: c096 f1bd aa8a c73c d88d cf3d 2b49 f1bb
00000250: 561f 06be 14e7 a73d 1f50 3f3c 2666 033c
00000260: f920 08be 51a5 c93c 0d66 9c3d f94c 463c
00000270: 14e4 c63c b66d 5bbd eed3 dc3d 3c2f 993c
00000280: d202 39be db60 4abe f1c4 b5bd 0d91 1c3d
00000290: 79cc 23be 8523 a7bd 4b10 24be 97b1 e53c
000002a0: b787 78bd 0c77 2cbe 909e da3d b91a 063e
000002b0: d28f aa3d 56eb e43a 5b1c b1bc 499d b1bd
000002c0: 0a56 8b3d 8c08 523d 1cc7 cdbd 36e9 253d
000002d0: 1926 bdbc 0aab 363d baea 9aba e6f7 f4bc
000002e0: b821 f93d 33c9 283d c3d9 6f3d b174 d7bc
000002f0: e563 9abd ab4b 6a3d d11c 28bc aef9 1abd
00000300: 8195 97bd 0a48 00bd 6dce 91bd a250 3f3a
00000310: d01a 03be 178e d73a ebe9 64be b547 c9bd
00000320: 960d acbd 8fd2 f7bd 6598 acbd 00c4 bebd
00000330: f219 f2bd 7017 59be b752 2fbe cada 0bbc
00000340: d29f efbd a4bb 94be 29c1 5bbd 9d2d 00be
00000350: be55 0bbe a59c a5bd 6884 eabc 08f2 23be
00000360: e96e 70be da99 39bd 5e52 cfbd 4749 d73c
00000370: 83a1 49bc 371c 72be 1432 d4bd dea8 dbbc
00000380: 8822 593d 2096 0e3d f467 c3bd 88b6 40be
00000390: d64f 1dbe 6a0a 4d3e 6915 9bbd e616 a93d
000003a0: 4e95 c7bd b75e 57be eccc 9e3d 9678 f73d
000003b0: e2f5 ef3d 953e cb3b d94d e8bd 668f 84bd
000003c0: 778e b4bc 4770 533e b528 08be 2e2c fd3c
000003d0: 01ad 94bd 66b3 4d3d 289c 02be 4d13 bbbd
000003e0: f78e 18bd 7d67 93bd 8ef7 973c 6a60 6bbe
000003f0: d3f7 0fbe 04e9 64bc c201 49bd ec9f b8bd
0.06934005 -0.06608318 -0.055355534 -0.04607227 -0.044664662 0.09539231 0.08985937 -0.04083808
0.07149729 -0.08687913 -0.13912207 -0.26014885 0.037615404 -0.11319779 -0.031093512 -0.08473127
0.049883906 0.07997478 0.019871673 0.031669524 -0.04715263 -0.07358068 0.04294298 0.024911394
0.118231334 -0.072818294 -0.038575858 0.009194665 0.0096296 -0.08924187 -0.14049779 -0.02871549
0.035755817 0.18009597 0.049620345 0.072845735 0.08145868 -0.029981116 0.04094756 -0.18000388
-0.104025304 0.070396274 -0.096571565 0.15041752 0.035927065 -0.1317364 0.058147933 -0.024450114
-0.10790819 0.15590382 0.024757061 0.09220175 -0.13953382 -0.057176784 -0.14910454 0.028407114
0.13440572 0.039109286 0.11520624 0.12299672 -0.0013232465 -0.23659585 0.077355765 0.034647934
0.023518704 -0.11268297 0.15568554 0.10532774 0.038145732 0.03953404 0.1046605 0.013487134
0.03983767 -0.1169708 -0.031741533 -0.12592347 -0.075399876 0.0060000313 -0.10112022 0.057380296
0.028948614 0.030049996 0.10840591 -0.13338836 0.01304593 -0.09235806 -0.03219333 0.13682476
-0.10930217 -0.17995761 -0.16175754 -0.083807305 0.0026327237 0.008882845 0.025971722 -0.051831864
0.0985601 0.057131425 -0.02005249 -0.03961225 0.09958715 0.12363857 -0.05463062 0.042603586
0.023515025 0.14311196 0.100232445 -0.21236376 0.15280676 -0.106698126 0.03643065 0.04113613
0.070538 0.14156444 0.062576085 0.080452494 -0.3257387 -0.06795243 0.0017919376 -0.03993837
0.036091655 -0.06877133 -0.05233958 0.03744966 0.08699979 -0.16178799 -0.06354501 -0.026514547
0.0048173787 0.046538617 0.03854763 -0.021644834 -0.045086056 -0.14903536 -0.030562393 -0.121425055
0.15200146 0.045559697 -0.22275525 -0.010638318 -0.102492936 -0.0326926 0.011523063 0.00709976
-0.117963314 0.024358112 0.101344764 -0.0073634586 -0.13097891 0.081983715 0.011676817 0.00801996
-0.13293828 0.024614962 0.07636652 0.012103313 0.024278678 -0.053571425 0.1078261 0.01869928
-0.18067482 -0.1976351 -0.08875454 0.03822427 -0.15995969 -0.08161072 -0.1602184 0.028038783
-0.060676303 -0.16842288 0.10674775 0.13096131 0.08328213 0.0017465155 -0.021619966 -0.08672578
0.0680352 0.051277682 -0.10047743 0.04050561 -0.023089455 0.04459671 -0.0011819222 -0.029903363
0.121646345 0.041207504 0.058557283 -0.02630076 -0.075385846 0.05720107 -0.010260777 -0.03783577
-0.074015625 -0.0313187 -0.07119451 0.0007298087 -0.12803197 0.0016445544 -0.22354858 -0.0982813
-0.08401029 -0.12100708 -0.084275045 -0.09314728 -0.11821355 -0.21200347 -0.17121397 -0.00853605
-0.11700405 -0.29049408 -0.05365101 -0.125174 -0.13606927 -0.08086518 -0.02862759 -0.16010296
-0.23479809 -0.04531274 -0.10123132 0.026280059 -0.012306574 -0.23643576 -0.10361114 -0.02681392
0.053011447 0.03481114 -0.09541312 -0.1881963 -0.15362486 0.20023504 -0.07572443 0.08256321
-0.097452745 -0.21032225 0.077539295 0.12083547 0.1171682 0.0062025287 -0.11342973 -0.064726636
-0.022040589 0.20648299 -0.13296779 0.030904856 -0.072595604 0.050219916 -0.12754881 -0.09134541
-0.037245717 -0.07197473 0.01855066 -0.22985998 -0.14059381 -0.013971571 -0.049073942 -0.09014878

actor.4.bias f4 [6]
00000000: bc8a 2f3d 0095 25bd c7ad 983e 7feb 3d3e
00000010: 51ab 723c 3ccd 5d3e
0.042856917 -0.0404253 0.29820082 0.18546866 0.014811353 0.21660322

critic.0.weight f4 [64, 25]
00000000: 1055 973d 1732 603d e72a 183d 0be3 76bd
00000010: fb0b fd3c 96a0 88bd 9965 26bd 3db7 26be
00000020: affd 0dbc d105 cf3d 9a44 be3d 91cc ed3d
00000030: 5ed5 b4be 3b55 c4bf ab07 373f 42e0 5e3c
00000040: 67fc 303e fd2e cdbd 0bd6 783c a9b1 63bd
00000050: ef84 473d a833 f7bd f2dc e83d 74b8 903d
00000060: e34e d4bd cba3 83be e1a2 18be ec29 b7bd
00000070: 762c 003e 31b6 8ebb 8777 4ebc d100 85bd
00000080: 360e f9bc e3de d3b9 07bb 653d c7e2 8e3c
00000090: 3039 0b3d c9d1 123e 0a41 8540 b138 94be
000000a0: 644b e3bd fa78 da3f cad1 9dbc 1414 eebf
000000b0: 2ea1 2c3e 21fb 8a3d da97 e53d a967 1cbd
000000c0: b2fd b3bc 7d4f 52bc e1a9 353e f4c7 bf3c
000000d0: 3fe2 b93d e44f 83be 3c9e 80bd 6557 aa3d
000000e0: d22c 69bb 8bde a7bd 3ca0 633d e85e be3b
000000f0: f7ac 463c fec6 1ebd e087 e33e f2b5 1840
00000100: 892b 03bf 53a8 0b3d a37e 493f 1daa 123e
00000110: 0da2 20bf c633 65bd 2fe6 0d3d b64b e9bd
00000120: 8e72 8c3d 1911 b13d d349 fa3b cc73 203d
00000130: ee1b adbd be65 75be 651e 1cbe 7f39 62bd
00000140: 5e8b 143e 53ad 06be 4299 37be 249d b03e
00000150: 1cc9 14bc 17a5 cc3e e0a6 13be a5ef 163f
00000160: 8efe 27bf 8cf6 3ebe b114 993e f0db efbd
00000170: d3cc 8b3e 5f1b 4c3e b3a1 193e e408 e0bb
00000180: 29e2 ec3d c21b 873d 072a 0c3e 21f1 a33d
00000190: 431a 75bb c092 e93b ed0e 74be 8639 9dbe
000001a0: 7527 2e3e b10a 863d e741 50bd 898b 7bbc
000001b0: 378f 16be c2ec 813c 2408 123d 1b31 59bd
000001c0: 1bd9 683e 68ca 043f 9ca4 edbe 8ae0 ebbd
000001d0: 8575 e4bd 2237 073d e509 2e3e cd47 2fbe
000001e0: fb90 003c 597a 2c3e 8e73 74bd 656a 5cbd
000001f0: d060 9ebd 379a f43d 1eb2 5d3e 7fe9 923d
00000200: cc0a 443d 76ed 20bc d61b b13d cdf4 133d
00000210: f296 c43c e51e d73d ef47 96bd 4008 9d3c
00000220: 1e1a ed3b 1e4f 22be 3b43 453f 1897 173f
00000230: 58db 57bd d258 1dbf 0669 c43d 76f0 363f
00000240: c5ed 3d3d 00b3 b23d 0d4b 7cbd c745 193d
00000250: f6e5 04be 2055 b5bd a25c 923e 0d75 323e
00000260: c8f0 29be f593 7c3e 5644 dabe 0415 3dbe
00000270: 6717 ae3d 55dd debc 28ca 243d 7a00 a8bb
00000280: ffc6 1e3e 3b95 9cbd f213 493e 3b96 25c0
00000290: 014a 68be 7ed9 bebd 2345 b5bf 06f8 75bd
000002a0: 5413 d23f 90cc 2f3e 16aa 0f3e b44c 243e
000002b0: 252e 523e 19f1 dabd a16a 053e 6ee4 193e
000002c0: 662d 883e fe2e cabd 0bd2 85be 918d d3be
000002d0: 2f6f cfbc e279 a63d 5364 123d 7e7e 93bc
000002e0: 86eb 843c 61c8 6c3a c66e fabd 9b84 433e
000002f0: 257f 943f 0a68 053e abdb 85ba b455 e73d
00000300: 7db7 e5bd e8ce 82be d9e6 033d 18d8 abbd
00000310: 653f eabb 68b1 d3bd 89f0 c0bd 206e 99bd
00000320: 23e2 6ebe c8ce 713e ecff 24bd ca7f 3a3d
00000330: 7312 073e c10c 08be 2e87 0c3d 5854 d9bb
00000340: 3e9b 01bc bc0e 533c c011 b53c 5267 033d
00000350: 53ae 7f3e 53d1 873d e97e d9be cae7 2fbe
00000360: f8e2 4e3f f153 9abd a534 83bf a0e0 6cbb
00000370: 736c 8abd 3638 7a3d 33af f8bc 541f 1c3d
00000380: a133 feb7 3955 6a3e 4521 c7bd b55f 383d
00000390: a3cc 833d 910d 183e e217 343c 4c7e f8bd
000003a0: 7a2a e7bd 6bd3 623d 4529 a53d 2932 c4bd
000003b0: a6fa 10bd 27b0 b63e 1321 e9bc 6c7b 583e
000003c0: 83e7 4f3e f990 69be 6728 be3d c027 843d
000003d0: 6e71 aa3d dfc6 373d 0314 76bd 9709 ebbd
000003e0: 57e7 de3d bde9 143e 97e0 843d 11b1 91be
000003f0: 3656 61bd f47a 97bd 889b 203d 23dc ef3d
0.07389271 0.05473527 0.03715029 -0.06027512 0.030889502 -0.06671254 -0.040624235 -0.16280837
-0.00866644 0.10108531 0.092904285 0.116112836 -0.35319036 -1.533851 0.71496075 0.013603272
0.17283784 -0.10018728 0.015187751 -0.05558935 0.04871076 -0.120703995 0.11370267 0.07066432
-0.10366609 -0.25710902 -0.14905883 -0.08943543 0.1251696 -0.004355215 -0.01260174 -0.06494296
-0.030402284 -0.0004041112 0.056086566 0.01744212 0.033990085 0.14337839 4.1641893 -0.28949502
-0.11098364 1.7068169 -0.019265074 -1.8599877 0.1685836 0.0678618 0.11210604 -0.038184796
-0.021971557 -0.012836334 0.17740585 0.023410775 0.09076356 -0.2564689 -0.06280181 0.083174504
-0.0035579694 -0.081967436 0.055572733 0.0058096536 0.012126199 -0.038763992 0.44439602 2.386105
-0.51238304 0.034096073 0.7870886 0.14322706 -0.6274727 -0.055957578 0.03464335 -0.11391394
0.06857787 0.08645839 0.007638195 0.039172933 -0.08452593 -0.23964593 -0.1524597 -0.055230614
0.1450629 -0.13152055 -0.17929557 0.3449489 -0.009081151 0.39969704 -0.14419127 0.5895942
-0.65622795 -0.18648738 0.298986 -0.117118716 0.27304706 0.19932316 0.1500309 -0.0068369973
0.11566574 0.06597091 0.13687907 0.08004976 -0.0037399686 0.0071280897 -0.23833819 -0.3070795
0.17007239 0.06545008 -0.0508441 -0.015353092 -0.1470307 0.015859965 0.035652295 -0.053025346
0.22739069 0.5187135 -0.4641465 -0.11517437 -0.111552276 0.033011563 0.16995962 -0.17117234
0.007847066 0.16843547 -0.059680514 -0.053812403 -0.07733309 0.11943477 0.21649978 0.07173442
0.04786186 -0.00982224 0.086478874 0.036122132 0.023997758 0.105039395 -0.07337939 0.019168973
0.0072357794 -0.15850493 0.7705571 0.59214926 -0.052699417 -0.61463654 0.09590344 0.71460664
0.046369333 0.08725548 -0.06159501 0.03742006 -0.12978348 -0.08854127 0.28586298 0.17427464
-0.16595757 0.24665816 -0.4263026 -0.18465048 0.085005574 -0.027205149 0.040231854 -0.00512701
0.15505598 -0.07645651 0.19636515 -2.5872943 -0.2268448 -0.09318827 -1.4161724 -0.060050987
1.6412148 0.17167878 0.14029726 0.16044885 0.20525415 -0.10690517 0.13028957 0.15028545
0.26597136 -0.09872244 -0.26136813 -0.41318944 -0.025321571 0.08128716 0.035740208 -0.018004652
0.016225588 0.00090325443 -0.122281596 0.19093554 1.1601301 0.13027969 -0.0010212561 0.112956434
-0.11216638 -0.25548482 0.032202575 -0.08390826 -0.0071486705 -0.10336572 -0.094208784 -0.07491708
-0.23328452 0.23614037 -0.04028313 0.045532025 0.13190632 -0.13286115 0.034308605 -0.006632369
-0.007910548 0.012881931 0.02210319 0.032080956 0.24968843 0.06631722 -0.42479637 -0.17178264
0.80815077 -0.07535542 -1.0250441 -0.003614463 -0.06758966 0.061088763 -0.030356979 0.038115814
-3.0303201e-05 0.22884072 -0.097231425 0.04501315 0.06435516 0.14848925 0.010992022 -0.12133464
-0.11287399 0.055377405 0.08064512 -0.0957988 -0.035395287 0.3568127 -0.028458154 0.21140832
0.20303158 -0.22809209 0.0928505 0.06452894 0.08322416 0.044867393 -0.06007768 -0.114764385
0.10883968 0.14542289 0.064881496 -0.28455403 -0.055013858 -0.07396498 0.039210826 0.117119096

critic.0.bias f4 [64]
00000000: 3531 3ebd 482d 493e fd6a 8abd aed1 353c
00000010: 4abd 1b3e ba77 ecbd d436 e73d 0a5a e03d
00000020: 2f14 173d e359 00be a800 35be b5e1 27be
00000030: c61a a1bd 7a93 a33d a901 89bc d47f 6bbd
00000040: 7359 a83d 7c21 2f3e 8ca1 46be b4aa e4bc
00000050: aa93 83bd 29a2 ae3d c36a bb3d 2f1e 0bbd
00000060: 0541 8ebd 7ad8 26bc 125b 093e 7077 253e
00000070: f610 393e af14 863d 5f80 2ebe 63ff 3a3e
00000080: 6f66 343e 9068 57bd d094 783d ef7c bdbd
00000090: b5c1 84bd 6995 243e d76b 1abe 3c53 0cbe
000000a0: 69a9 38bd 744b 023e 172c b8bd 1d0b f2bd
000000b0: 4ab2 a1bd 6f49 b03d 6539 5ebd 7c17 4bbd
000000c0: c095 43bd 6b31 25be c602 3b3d 9cbe d6bd
000000d0: c998 45be 5354 313e 3d72 b5bd db0b b8bc
000000e0: 839d ad3d d311 82be 37b0 16bd 2842 94bc
000000f0: fdc4 1e3e 72af a43d 3c2e 5d3c b24b 2f3e
-0.046433646 0.1964618 -0.06758688 0.011097355 0.15208927 -0.115462735 0.112897545 0.109546736
0.036884483 -0.12534289 -0.17676032 -0.16394694 -0.07866435 0.07987113 -0.016724424 -0.057494953
0.08220186 0.17102617 -0.19397563 -0.027913429 -0.06424649 0.08527023 0.091512226 -0.033964332
-0.06945995 -0.010183448 0.13413647 0.16158843 0.18072876 0.06546914 -0.17041157 0.18261485
0.176172 -0.052589953 0.060688794 -0.09252345 -0.06482259 0.1607262 -0.150802 -0.13703626
-0.045083437 0.12724096 -0.089927845 -0.11818526 -0.07895334 0.08607756 -0.054253954 -0.049582943
-0.047750235 -0.16132133 0.04565694 -0.104855746 -0.19296564 0.17317323 -0.0885968 -0.02246659
0.084773086 -0.25404224 -0.036789145 -0.018097952 0.15504833 0.08041276 0.013499793 0.17118719

critic.2.weight f4 [64, 64]
00000000: 3a62 1ebd bb7f c43d 82ce 393d 7003 57bc
00000010: 86cf 1a3a 7a36 30bd 9a20 8bbc 81c5 e3bb
00000020: 1043 b9bb ba1d aebd 9378 083d 66eb 033e
00000030: c879 acbd 63f9 763d e288 3e3d 2606 2fbd
00000040: b4ce b0bc 1ec4 f83d 3d10 df3d 0fb4 e2bd
00000050: d544 7d3d 8f45 34bd a4d8 cf3a f837 773d
00000060: 6c85 1bba 9a6d e3bd 2de2 7bbd d771 6c3d
00000070: 84d5 a9bd 7767 693b f8ae c53d 4b05 28bd
00000080: 3c9f 513c 26ac 90bb f392 25be d972 76bd
00000090: a63b 8bbd 5d74 edbd 22dd b5bd 4a7b 39bc
000000a0: 511d 17be e047 05be b319 8abd f263 a43c
000000b0: c6c6 053d f294 0ebe 0190 c63d b14b f3bd
000000c0: 7135 a13d 478c ca3d a6f6 85bd 9446 c7bd
000000d0: 32c9 c0bd 2aa1 3e3c 26c3 203e fa7b dfbb
000000e0: c849 02bd 6452 333d 8fc9 8f3d 0fec c83c
000000f0: 296e 853d 01ef 2f3d 838b d6bc d938 6b3d
00000100: a3ee cc3d bb27 45be 0e1c 70bb 6ab3 f3bd
00000110: 35a7 cdbc fe85 443d 7ece 6ebd 3a71 1a3e
00000120: 847c 01bd 5b20 6e3d ff8f a2bc 451e 243d
00000130: f12f ea3b e848 b1bd 18d1 9f3d 6a71 9f3d
00000140: d9ea b7bd b5d1 093d dab7 173e 0bca 983d
00000150: 1b5b 4fbd 4ce2 05bd a93e 1bbd ccf5 11bd
00000160: 25c3 af3d 8f08 c9bd 4dac a33d fb87 d23d
00000170: a9da eebc 0622 17be d082 eebc f6b1 4dbd
00000180: 218e ecbd 77bd 7cbd fdf6 2fbc 4a2c d53d
00000190: 4f33 81bc ce98 febd 03b9 7a3e 6169 113d
000001a0: 60bc 393b b77d 7f3d c60b 813d ed4b dbbc
000001b0: fc94 c53d f770 8a3d 6662 b639 ab98 e23d
000001c0: 0420 593e bea6 7d3d 39ef 83bc 6ff6 883d
000001d0: bd18 c03d 0dba 35bd a2a6 c23c 492e c33d
000001e0: 9be6 a1bd e74d 84bd 96e9 8c3b 2233 293d
000001f0: 5f8a 1a3d 5a8b 19bd 5f5e 8e3d fb04 023d
00000200: c49f d5bd 7e8f b33d 4453 1d3d 2b10 dbbd
00000210: adc8 1bbd d227 d0bd 91ed ff3d 64f2 94bd
00000220: bf73 d13c 7f6f 88bd fbe4 9c3d 80c7 04be
00000230: b425 86bd 706d 7cbd 2cd7 063d eb17 44bd
00000240: 893e 95bd ca3b 583e a0af 3d3c e984 e3bc
00000250: 8b0c b83d 8c2b 9b3c dfb0 b9bd 243f e4bc
00000260: fa71 6e3d 5df1 bb3d 20f2 03bc 7502 f33d
00000270: 7d2a cc3d a1de 3dbd f18d 123e 72f9 f3bd
00000280: cb6b 87bd 0e00 a5bd a0ff 9fbd 7569 c6bd
00000290: 53f0 babc d3f2 4dbe 5e3b cf3d e66b 1d3e
000002a0: 5022 9ebd 544e 723d 4b93 79bd d823 b8bd
000002b0: 861d d73d d9c8 9d3d 1c9f 6dbd 6a6b 1e3e
000002c0: c1e0 eabc edd4 3fbd 9e30 2abd f177 19be
000002d0: 2c98 edbc 201a b43d 9e3b 1a3e f1cd fe3d
000002e0: 5797 a93c d86c 273a cbc9 cf3d b944 153c
000002f0: fef7 b3bc c0b0 583b de2c df3c 9f72 d7bd
00000300: 7c0a 7d3d 19de a13d 6300 babb d99f e1bd
00000310: 109f 873d 2d51 adbd 70c9 04bd 22ff 513d
00000320: e02f 12be d92b 993d e921 d33c d996 9ebd
00000330: f1d8 abbd 95c0 7dbd 32a7 eb3d cf64 53be
00000340: 9c2b 293d 46f0 8f3c b571 a73c 8e19 35bd
00000350: a765 4cbc 7e1e 52bc b107 873d 4006 f03d
00000360: e36b 2ebe 8c17 f2bc fefe 623d 2c10 8e3d
00000370: 3556 f4bd 12dc 1ebd cac5 7b3d 5ebb 453d
00000380: 51b9 57bd 7bfa 1abe 84e9 76bd f0b0 cd3d
00000390: ef47 8fbd 3b72 bb3d 4604 de3d 9782 e93d
000003a0: b16d 41bc 4b13 ddbd 15bf 293d c683 80bd
000003b0: cda2 e8bd 788b 20bc 036e 1c3d 5a9c 00bc
000003c0: ccdf 293e 6463 8e3d a0d5 463b 9ef9 e5bc
000003d0: 3b0c 0e3e c3ca 5bbd 1043 3b3d 8854 c03d
000003e0: 57a4 463d 0eac 773c 821e 0b3d 7e7f 55bd
000003f0: 994e b4bd 6187 bebd 179c d9bd 4fe5 81bd
-0.038667895 0.09594675 0.045362957 -0.013123378 0.0005905557 -0.043020703 -0.01698332 -0.0069510345
-0.0056537464 -0.08501764 0.033318114 0.12882766 -0.084216654 0.060296427 0.04651726 -0.042730473
-0.021582939 0.121467814 0.10891769 -0.110695 0.06183322 -0.04401165 0.0015857411 0.06035611
-0.0005932662 -0.11104889 -0.061494995 0.057725754 -0.08292678 0.0035614648 0.09652513 -0.041020673
0.012794312 -0.004415053 -0.16169338 -0.06016812 -0.067984864 -0.1159446 -0.08880068 -0.011320898
-0.14757277 -0.130157 -0.06743183 0.020067189 0.03266027 -0.13924006 0.09695435 -0.11879671
0.07871521 0.09890037 -0.06541185 -0.097302586 -0.09413375 0.011635104 0.15699443 -0.006820199
-0.031808645 0.043779746 0.07020866 0.024526624 0.06515152 0.04295254 -0.026189571 0.05742726
0.10006454 -0.19253437 -0.0036637816 -0.11899455 -0.025104145 0.047979347 -0.058302395 0.15082255
-0.031612888 0.058136325 -0.019844053 0.04006793 0.0071468283 -0.08656484 0.07803553 0.07785304
-0.089803405 0.033647258 0.14816228 0.07460412 -0.050623994 -0.032686517 -0.037901554 -0.0356348
0.08582143 -0.098160855 0.07991848 0.102798425 -0.029157 -0.14759073 -0.02911511 -0.050218545
-0.115505464 -0.061704125 -0.010740039 0.10408838 -0.015771536 -0.12431489 0.24484639 0.035500888
0.002834104 0.06237575 0.06301074 -0.026769603 0.09647557 0.067598276 0.00034787058 0.11064275
0.21203619 0.061926596 -0.016105281 0.066876285 0.093797185 -0.044366885 0.023761097 0.095303126
-0.07905313 -0.06460171 0.0043003066 0.04130853 0.037729617 -0.03748641 0.069515936 0.03174303
-0.104308635 0.08767603 0.038409486 -0.10696443 -0.038033176 -0.10163845 0.12496484 -0.07272795
0.025567887 -0.06661891 0.07660862 -0.12966728 -0.0655016 -0.061627805 0.032920048 -0.047874372
-0.07287318 0.21116558 0.011577517 -0.027773337 0.089867674 0.018941663 -0.090669386 -0.027862139
0.058214165 0.09176896 -0.008053333 0.11865703 0.099690415 -0.046354894 0.14311959 -0.11912812
-0.06612357 -0.08056651 -0.078124285 -0.09688083 -0.022819674 -0.20112161 0.10118745 0.15373191
-0.07721388 0.05915673 -0.060931485 -0.08991212 0.10503678 0.07704324 -0.058013067 0.15470663
-0.028671624 -0.04683392 -0.04155027 -0.1498716 -0.029003225 0.087940454 0.15061805 0.12441624
0.020702047 0.00063867634 0.10145911 0.009110623 -0.021968838 0.0033064336 0.027243074 -0.10519909
0.061777577 0.0790369 -0.0056763156 -0.11016817 0.06622136 -0.08462749 -0.03241867 0.051268704
-0.14276075 0.074790664 0.025773006 -0.07743616 -0.08390988 -0.06195124 0.11506499 -0.20643924
0.041301355 0.017570626 0.020439962 -0.044213824 -0.012475408 -0.012824653 0.06593264 0.11719942
-0.17033343 -0.029552244 0.05541896 0.06936678 -0.11930505 -0.038784094 0.061467923 0.04827439
-0.052666966 -0.15134613 -0.06028129 0.10043514 -0.06996142 0.09152647 0.10840659 0.11401861
-0.011805938 -0.107946955 0.041441996 -0.06275134 -0.11359177 -0.009798877 0.038190853 -0.007849777
0.16589278 0.06952551 0.0030339733 -0.028073128 0.13871853 -0.053660166 0.045718253 0.09391123
0.04849657 0.015116705 0.03396464 -0.05212354 -0.08804054 -0.09303165 -0.10625475 -0.06342565

critic.2.bias f4 [64]
00000000: db7a 9b3d 2ad4 3dbd 4e14 e0bc 338d 22be
00000010: 8ddb 97be 08e9 53be 4771 3abd bf70 7a3d
00000020: 8d36 583c a7ca 15bd 7ac3 ef3d 3a11 29be
00000030: 0266 a9bc 7b93 debc 1ad7 76bd fa79 efbd
00000040: 9e36 1abd 7309 de3d 31f2 393e 77db 07be
00000050: 55b3 123e 6c44 983d e54a 1bbc f791 0dbd
00000060: 283f a43d e247 21be 9514 e5bc 4464 96bd
00000070: dd81 f6bd 65d0 483d 1e98 e3bd fa88 cf3c
00000080: e08d e83c 6432 b7bd c040 b6bd f676 6bbd
00000090: bd2a 463d e6b6 00be 3d66 c2bd 983d 15bc
000000a0: 0bd0 21bd 3be0 d8bd a99d eabd 2d59 cbbc
000000b0: 864a 063d e5eb 0d3e e072 adbd 8108 2a3e
000000c0: 9f82 783d 1bbf 683d 8f5f e83d cd8f 093c
000000d0: dd93 01be fc14 9fbd c8e4 2dbd 465a 083d
000000e0: 097a 343d c23b 0bbd 7e02 c5bd d94e cebd
000000f0: c27d ba3d a25e 33be 8d83 453b 9f73 223e
0.07591792 -0.046344914 -0.027353432 -0.15874176 -0.2965969 -0.20694363 -0.045518186 0.06114268
0.0131966 -0.036570217 0.11707206 -0.16510478 -0.020678524 -0.027169934 -0.06026373 -0.11693187
-0.037649743 0.10841646 0.18158795 -0.13267313 0.14326222 0.074349254 -0.0094783055 -0.03456303
0.080198586 -0.15750077 -0.027963916 -0.07343343 -0.12036488 0.049026866 -0.111129984 0.02533387
0.028387964 -0.08945158 -0.08899069 -0.057486497 0.048380602 -0.1256977 -0.09492157 -0.009108923
-0.039505046 -0.105896436 -0.114558525 -0.024822796 0.032785915 0.13859518 -0.08469176 0.16604806
0.060671445 0.056822877 0.11346351 0.008396101 -0.12654062 -0.07767674 -0.04245451 0.033289216
0.044061694 -0.033992536 -0.09619616 -0.10073633 0.09106018 -0.17516568 0.0030138225 0.15864418

critic.4.weight f4 [1, 64]
00000000: 6c95 323c fcaf c2bc e369 3f3d c056 443d
00000010: 7028 fa3d 126c 8c3d d5a9 1cbc 793a 3c3d
00000020: f7bf fbbc 19c5 833c ed34 98bd 4d9d 553a
00000030: 2b5f 7bbd 13e3 6cbc fb70 b83d 7c9b 443d
00000040: c06a b6bc caa7 03bd d90f 05be 89ed f83d
00000050: 4228 023d 7566 893c 2078 30bd ce86 223d
00000060: 3369 b4bd e624 a9bd 37bb 953c e94d 4dbd
00000070: 8a37 d03d 271e 9dbd b62b ea3d d954 17be
00000080: 57bc 143d 2ae4 d4bc ca68 e6bc 4d90 1d3d
00000090: 683b 29bc 9785 d13d 79a7 0c3d eb6d c13c
000000a0: 1a30 0bbd 0b02 5d3d b9d6 37bd e9dc e9bd
000000b0: e291 5bbc c70b 28bd 9792 44bd f1fd 14be
000000c0: 8277 b93b 9d82 023c d02a 0dbd 6372 babc
000000d0: 737e b13c 4b98 9d3c 3698 73bd 9ee5 92bd
000000e0: d098 8abb eaef f33c e465 19bd b4f4 a03c
000000f0: e086 30bb be1f 673d 0743 da3c b3dc 9fbd
0.010899883 -0.023765557 0.04673184 0.047934294 0.12214744 0.0685655 -0.0095619755 0.0459542
-0.030731184 0.016085194 -0.0743197 0.0008148745 -0.061370056 -0.014458436 0.09005924 0.047999844
-0.0222677 -0.032142438 -0.12994327 0.12154681 0.031776674 0.016772488 -0.04308331 0.03967934
-0.08809128 -0.08258991 0.018277748 -0.05012313 0.10166843 -0.07671767 0.114341184 -0.1477846
0.036312427 -0.025987703 -0.02812614 0.038467694 -0.010329105 0.10230558 0.034339402 0.023611983
-0.03398142 0.053957026 -0.04488251 -0.114190884 -0.01340148 -0.041026857 -0.04799136 -0.14549996
0.0056599984 0.007965711 -0.034464657 -0.022759622 0.021666741 0.019237658 -0.05947133 -0.07172702
-0.0042296425 0.029777486 -0.037450686 0.019647934 -0.002693586 0.056426756 0.02664329 -0.07805767

exp_avg f4 [6]
00000000: 0515 14bb 8d9c 12bb 9095 e7ba 094d 693a
00000010: 8d3f d639 ff84 d9ba
-0.0022595536 -0.0022371144 -0.0017668474 0.0008899724 0.0004086461 -0.0016595422

exp_avg_sq f4 [6]
00000000: 6fd9 b637 0f65 fa37 4545 f837 5830 8c3b
00000010: dae3 8f38 1219 9939
2.1797341e-05 2.9849381e-05 2.959616e-05 0.004278224 6.861212e-05 0.00029201113

exp_avg f4 [64, 25]
00000000: 931e 0039 b02c 4039 9ea5 893a 1a76 0a3b
00000010: 59eb 3f3a b523 043a f162 c537 91ba 69b8
00000020: fd9e a4b6 b518 7bb7 9ca9 26b9 4de1 f6b7
00000030: 0522 9d39 2330 6438 2042 a739 14b2 1e3a
00000040: d781 0937 14b2 1e3a 5f82 09b7 d26b 9139
00000050: 8739 5539 ccb1 0a3b 5a27 883b dd8a b73a
00000060: 1297 7e3a 9e6e bd38 d86c a939 e011 b93a
00000070: eaf4 4c3b c0f5 433a 6822 663a d50f 05b6
00000080: 4d51 a8b8 052c 3639 e21e 8139 39c3 a7b8
00000090: e30e 2eb9 d993 d539 2cc4 9338 7107 e439
000000a0: 2f10 5c3a e38f 0838 2f10 5c3a ec8f 08b8
000000b0: 3314 8339 98a0 e039 60bf 3f3b cc04 cf3b
000000c0: e804 c23a faae e13a a7f9 3fb5 7bfe 3e38
000000d0: 2ba8 64b9 51a1 6db9 909d 27b9 1404 a7b8
000000e0: 242e 2db8 ba2b f937 befb a1b9 b14d 83b9
000000f0: 5d18 78b9 b90d a6b9 14eb 93b8 b1b2 8eb7
00000100: 2c30 d3b8 ee9c 3eb9 1382 4238 ee9c 3eb9
00000110: 1582 42b8 e6cc b5b8 b53f 2e39 808b 22ba
00000120: 3169 81ba 3eeb f3b9 7a59 06ba 8a82 0b37
00000130: d653 81b7 a3e4 4fb9 232c c5b8 f5a7 7eb8
00000140: 518e 2e38 22a8 0b37 2d2c a137 3d51 86b6
00000150: 179a 0738 e3a8 5638 b7ed 1638 e03f 75b8
00000160: 8e9e 0537 6f03 b3b8 8ddd 1bb9 03ea acb6
00000170: 8ddd 1bb9 65e9 ac36 fdb8 8238 2eac ca37
00000180: bfb9 d4b9 322e 02b9 352b c9b8 4a3e 0139
00000190: e263 a138 847d bd38 e5bd 6e3a 51b2 0b3b
000001a0: 1981 113a 1009 1d3a 6ed5 6136 fadb 44b8
000001b0: 2a45 2a39 9afb 1739 0672 db36 b025 9e37
000001c0: 8c03 9439 f614 8638 6342 b039 4de5 223a
000001d0: b094 e4b7 4de5 223a b294 e437 1fbd 4339
000001e0: 34af 4237 2370 fe3a 3bca 8d3b 16d3 933a
000001f0: f95b 9e3a 1bb6 55b9 8bdc 6337 01c0 86b9
00000200: 3ca1 23ba 4edd 6db8 b172 88b8 dac3 e835
00000210: 3676 3338 cf9e e6b8 ef38 7937 e2a7 ccb8
00000220: 6615 edb7 73b8 a7b8 91e3 8ab8 2237 05b9
00000230: 459b 57b9 0270 0038 459b 57b9 0f70 00b8
00000240: 746a c6b9 3f01 c638 16a9 16ba a6f7 a2ba
00000250: c1dc 1ab9 48cb 0cb9 920c 79b8 076b a939
00000260: 8f10 c43a d56e 633b 9d68 6a3a a296 863a
00000270: 25fb ac38 d927 d9b8 57d0 b838 72c7 ad39
00000280: bf09 eeb8 4c4b deb8 97fd df39 cb78 1a38
00000290: beab f839 b42e 6c3a 605d 7d38 b42e 6c3a
000002a0: 765d 7db8 db06 3c38 a35b c039 9950 493b
000002b0: befc e53b 3c3d e63a 06b1 063b 7e65 9b38
000002c0: ac3e 0738 8d11 a4b8 0f1e 36b9 7cc1 7c38
000002d0: af04 6bb8 2541 8fb8 78af 5338 676d 36b8
000002e0: fced 9938 a4b0 92b8 76a7 ad37 4549 f9b7
000002f0: c756 8237 bd00 8cb8 2c2b cab8 80b8 6c37
00000300: 2c2b cab8 e1b8 6cb7 9622 e838 dd9b 0239
00000310: f51d 4db9 dd3a 95b9 94cb e238 f5e4 b9b8
00000320: a20f 3bb9 dd75 b1b8 4167 a8b9 636f 88ba
00000330: 34e0 b7b8 1a39 83b9 ea6f 3238 a0bc 5238
00000340: 4e28 28b8 9360 2e38 0f88 2237 e6a2 3bb6
00000350: 0599 dcb8 4d43 85b8 9a4b e3b8 7297 4cb9
00000360: 3c0a 3636 7297 4cb9 8609 36b6 6aa4 9db9
00000370: ad3d b6b8 9c92 35ba 6f7d 07bb ea04 50b9
00000380: 4712 04ba ac2e 6838 f926 31b8 201f 0eb8
00000390: 00e2 e5b9 6741 c638 1a70 deb8 c90b c0b7
000003a0: 0813 d7b7 cc25 0538 5b0c 2eb8 5da0 f538
000003b0: 56cc 42b6 ee17 36b7 736a 0038 b312 58b7
000003c0: b3b9 f9b7 4731 ba37 b3b9 f9b7 7231 bab7
000003d0: c65f 0039 3c34 bbb8 5db5 7fb8 8e41 66ba
000003e0: e1bc 7c39 4cd0 3db9 c3c3 a138 08f7 ff37
000003f0: 9fe9 ea38 c732 08ba 830b aa38 7b88 93b9
0.00012218421 0.00018327194 0.0010501628 0.0021127523 0.00073211413 0.0005040721 2.3530303e-05 -5.5725282e-05
-4.9060895e-06 -1.4966518e-05 -0.00015894178 -2.9430399e-05 0.0002997072 5.4404267e-05 0.0003190199 0.00060537574
8.196067e-06 0.00060537574 -8.196191e-06 0.00027736888 0.00020334694 0.0021163104 0.0041550817 0.0014003176
0.0009711842 9.032826e-05 0.00032315287 0.0014119707 0.003127391 0.0007475279 0.00087789306 -1.982776e-06
-8.026008e-05 0.00017373271 0.00024627807 -7.9995436e-05 -0.00016599479 0.0004073668 7.046046e-05 0.00043493093
0.00083947455 3.255893e-05 0.00083947455 -3.2558964e-05 0.00025001317 0.0004284426 0.0029258355 0.0063177105
0.0014802488 0.0017218285 -7.1516337e-07 4.5536533e-05 -0.00021806422 -0.00022662176 -0.00015985058 -7.96394e-05
-4.1289386e-05 2.9703475e-05 -0.00030895876 -0.00025044152 -0.00023660199 -0.00031672211 -7.053293e-05 -1.7010929e-05
-0.00010070237 -0.00018178273 4.6374345e-05 -0.00018178273 -4.6374353e-05 -8.668918e-05 0.00016617666 -0.00062005967
-0.0009873268 -0.0004652384 -0.00051250274 8.315439e-06 -1.5417038e-05 -0.00019826232 -9.401913e-05 -6.071474e-05
4.1617375e-05 8.324192e-06 1.9213267e-05 -4.0029686e-06 3.2330016e-05 5.1178864e-05 3.5984176e-05 -5.847204e-05
7.964334e-06 -8.536025e-05 -0.00014864486 -5.153242e-06 -0.00014864486 5.15317e-06 6.23334e-05 2.4160454e-05
-0.00040574183 -0.00012414975 -9.592475e-05 0.00012325603 7.695683e-05 9.0356014e-05 0.0009107276 0.0021316002
0.0005550548 0.0005990425 3.3651845e-06 -4.693491e-05 0.00016238229 0.00014494211 6.5399827e-06 1.8852617e-05
0.00028231402 6.393522e-05 0.00033618798 0.0006213978 -2.7248956e-05 0.0006213978 2.724896e-05 0.00018667102
1.1604094e-05 0.0019412081 0.0043270863 0.0011278118 0.0012081853 -0.00020381103 1.35816035e-05 -0.00025701526
-0.00062419823 -5.671131e-05 -6.506348e-05 1.7342347e-06 4.2787018e-05 -0.00010996835 1.4854812e-05 -9.758749e-05
-2.8262566e-05 -7.997537e-05 -6.62274e-05 -0.00012704407 -0.0002056184 3.0621894e-05 -0.0002056184 -3.062194e-05
-0.00037844817 9.441608e-05 -0.00057472417 -0.0012433424 -0.00014768822 -0.00013427169 -5.9377933e-05 0.00032313933
0.0014958548 0.0034703512 0.000894198 0.0010268281 8.2483784e-05 -0.000103547885 8.81261e-05 0.0003314573
-0.0001135054 -0.0001059981 0.00042722814 3.682896e-05 0.00047430204 0.0009009645 6.0406863e-05 0.0009009645
-6.0406943e-05 4.4829078e-05 0.00036689368 0.0030718206 0.0070186546 0.0017565857 0.0020552292 7.40988e-05
3.2244876e-05 -7.8233985e-05 -0.0001736807 6.026168e-05 -5.6032728e-05 -6.8309055e-05 5.046974e-05 -4.349407e-05
7.3399366e-05 -6.9947244e-05 2.0701187e-05 -2.9717232e-05 1.5537616e-05 -6.675858e-05 -9.640152e-05 1.4109653e-05
-9.640152e-05 -1.4109742e-05 0.00011069064 0.0001245583 -0.00019561483 -0.0002846335 0.00010814439 -8.864134e-05
-0.00017839533 -8.4619714e-05 -0.00032120387 -0.0010409172 -8.767881e-05 -0.0002502881 4.2542735e-05 5.0243572e-05
-4.0091858e-05 4.1574775e-05 9.687631e-06 -2.795999e-06 -0.000105189196 -6.35447e-05 -0.000108382854 -0.00019511374
2.712607e-06 -0.00019511374 -2.7125657e-06 -0.00030067872 -8.689924e-05 -0.00069264486 -0.002067413 -0.00019838256
-0.0005038124 5.5356577e-05 -4.2236385e-05 -3.3884426e-05 -0.00043846667 9.453558e-05 -0.000106066655 -2.2893671e-05
-2.563886e-05 3.1744872e-05 -4.149634e-05 0.000117123804 -2.9027192e-06 -1.0853617e-05 3.0616717e-05 -1.2878957e-05
-2.9769586e-05 2.2195874e-05 -2.9769586e-05 -2.2195953e-05 0.0001224271 -8.926584e-05 -6.0965645e-05 -0.0008783572
0.00024102956 -0.00018102041 7.713542e-05 3.0513402e-05 0.00011201505 -0.00051955547 8.108376e-05 -0.0002813971
