04-goal-pose-l6/logs/rsl_rl/joint_position/2026-02-19_13-16-49/model_1200.pt (torch, 161397 bytes, 36 tensors)

std f4 [6]
0	0x3d403fc2	0.046935804
1	0x3d293996	0.041314684
2	0x3d17b1c6	0.037034772
3	0x3c9bfeb3	0.019042348
4	0x3cfc5280	0.030801058
5	0x3ca88fe8	0.020576432

actor.0.weight f4 [64, 25]
0	0x3f0a2df3	0.5397636
1	0xbe790d4a	-0.24321476
2	0xbe09d10b	-0.1345865
3	0x3e0299c7	0.12753974
4	0x3ea2e157	0.31812546
5	0xbe896fbc	-0.2684306
6	0xbdf77ecf	-0.12084734
7	0xbdfdaf56	-0.12386958
8	0xbda961f8	-0.08270639
9	0x3e4d7929	0.2006575
10	0xbe07e416	-0.13270602
11	0xbdafa8d2	-0.08577122
12	0xbec3737e	-0.3817405
13	0x3f3b8a59	0.73257977
14	0xbebcabfe	-0.3684997
15	0xbd6378dc	-0.055535182
16	0x3f92b357	1.146098
17	0xbdfcd422	-0.123451486
18	0xbfb3889e	-1.4026067
19	0xbea61a25	-0.32441822
20	0xbd9fbc34	-0.07799569
21	0x3e36e1b5	0.17859538
22	0x3e852515	0.26004854
23	0x3c29d5b2	0.01036589
24	0xbd8cafb2	-0.06869449
25	0xbef2b305	-0.47402206
26	0x3d5b5761	0.053550128
27	0x3dfed794	0.12443462
28	0x3ee874d3	0.4540163
29	0xbed26ebf	-0.41100118
30	0xbe190013	-0.14941435
31	0x3e316b73	0.17326145
32	0x3c98e5ca	0.01866426
33	0xbd855879	-0.065110154
34	0xbd671888	-0.05641988
35	0xbdb4d02f	-0.0882877
36	0xbd5a08ee	-0.053231172
37	0xbe07054d	-0.13185616
38	0xbf11bc19	-0.5692764
39	0xbf1b957b	-0.60774964
40	0xbe1ddfb9	-0.15417375
41	0xbf7da8df	-0.990858
42	0xbdf19dc2	-0.11797668
43	0x3f930bd8	1.148799
44	0x3d9aaf55	0.07552973
45	0x3e95c87c	0.2925452
46	0xbe1390f6	-0.14410767
47	0x3e3e322c	0.18573827
48	0x3d1d2744	0.038367525
49	0xbdd8cd28	-0.105860054
50	0xbf88453f	-1.0646132
51	0x3e1d5d0d	0.15367527
52	0x3df006ca	0.11720045
53	0x3f256069	0.64600235
54	0xbf2975d3	-0.6619541
55	0x3f4f8749	0.81065804
56	0xbdc06229	-0.093937226
57	0x3d85a411	0.06525434
58	0x3d619ed1	0.0550831
59	0x3e98a650	0.29814386
60	0xbd8ddc56	-0.06926791
61	0x3d85d357	0.065344505
62	0x3e73a2ea	0.23792616
63	0xbf6b6078	-0.91944075
64	0x3d7d5569	0.06184903
65	0x3e88d018	0.26721263
66	0xc004c25f	-2.0743635
67	0x3d2aa862	0.04166449
68	0x4005aa68	2.0885258
69	0xbdfd96c4	-0.12382272
70	0xbe0f3354	-0.13984424
71	0xb9c8998a	-0.00038261368
72	0x3e4cdddd	0.20006509
73	0xbe0ed9c5	-0.1395026
74	0x3e124968	0.14285815
75	0x3f0a4a0a	0.54019225
76	0xbe0589cd	-0.13040848
77	0xbee84e9b	-0.4537247
78	0xbf02ca13	-0.5108959
79	0xbe7a637e	-0.24452016
80	0xbf0b40ea	-0.54395926
81	0x3e5feddf	0.21868084
82	0xbe809d07	-0.25119802
83	0x3df7206a	0.12066729
84	0xbe71824d	-0.23584862
85	0x3ebfdefd	0.37474814
86	0xbd118b2c	-0.035533115
87	0xbddbf4d2	-0.10740055
88	0x3fc1e1cd	1.5147034
89	0xbd911bbf	-0.0708537
90	0xbd276942	-0.040871866
91	0x3f9ff1fb	1.2495722
92	0x3de2db68	0.11077005
93	0xbf868a77	-1.0511006
94	0xb9f61795	-0.00046938346
95	0xbd7801df	-0.06054866
96	0xbc9187c9	-0.017764943
97	0xbe0f0d03	-0.13969807
98	0xbe1698af	-0.14706682
99	0xbe631a32	-0.22177961
100	0x3d8d1321	0.06888414
101	0xbd9114a5	-0.07084016
102	0xbf1f420c	-0.62210155
103	0x3ccb8b8f	0.02484682
104	0xbd52930e	-0.051409774
105	0x3c4cd908	0.012502916
106	0x3de99fbe	0.114074215
107	0x3dc23721	0.09483171
108	0xbe0dc76c	-0.13845605
109	0x3e783494	0.24238807
110	0xbe13b954	-0.14426166
111	0x3d03399c	0.032037362
112	0xbe788331	-0.24268796
113	0x40065e02	2.0994878
114	0xbe6dd794	-0.23226768
115	0xbd949740	-0.07255411
116	0x3f0beefe	0.5466155
117	0xbe026c66	-0.12736663
118	0xbf08eb06	-0.5348362
119	0xbd05fb04	-0.03271009
120	0x3da15e00	0.07879257
121	0x3d49eee3	0.049300086
122	0x3d93bab9	0.07213349
123	0x3d037ad5	0.032099564
124	0x3e2ece9d	0.17071004
125	0x3da32036	0.07965128
126	0xbeaf5237	-0.34242412
127	0x3effa785	0.49932495
128	0x3e24afa8	0.16082633
129	0xbc123b23	-0.008925232
130	0xbeb889bd	-0.36042586
131	0xbed60770	-0.4180255
132	0x3c85377f	0.016261814
133	0xbdcebafc	-0.10094258
134	0x3e82d85d	0.25555697
135	0x3d51e939	0.05124781
136	0x3e4ecdd8	0.2019571
137	0xbdd54761	-0.10414005
138	0xbfac3a69	-1.3455325
139	0x3d8ba52f	0.06818616
140	0x3e2ea41c	0.1705479
141	0xbda0e846	-0.07856803
142	0x3e1effcf	0.1552727
143	0x3e2bf460	0.1679244
144	0xbdaa6fe3	-0.08322122
145	0xbb951b86	-0.0045504
146	0xbe1d2659	-0.1534666
147	0xbda9afdb	-0.08285495
148	0xbdccc49c	-0.09998438
149	0xbbb1901c	-0.0054187905
150	0xbe42d9b1	-0.19028355
151	0x3e4904e9	0.1963078
152	0x3f6c1e61	0.92233855
153	0x3e6c16a3	0.2305551
154	0xbe83c8fe	-0.25739282
155	0x3ec96fa7	0.39342996
156	0xbec562ef	-0.38552043
157	0xbd2a556c	-0.04158537
158	0xbd639b90	-0.055568278
159	0x3d9f1a9e	0.07768749
160	0x3d7f961a	0.062399007
161	0xbd2ab600	-0.041677475
162	0xbe0d969c	-0.13826984
163	0xbfdbc0e5	-1.7168242
164	0xbec4f9e9	-0.38471916
165	0x3e0d9a66	0.1382843
166	0x3df18065	0.117920674
167	0x3d5ddc2d	0.054165054
168	0xbdbd4004	-0.09240726
169	0x3d990290	0.07471192
170	0x3f0c61f6	0.54836977
171	0xbbb54a6d	-0.005532554
172	0xbd1f8165	-0.03894176
173	0x3cf0f1da	0.029412199
174	0xbeafd843	-0.34344682
175	0xbd82be1e	-0.06383918
176	0x3eecfb08	0.46285272
177	0xbe7e7668	-0.24849856
178	0xbea1df9a	-0.31615907
179	0xbd802ea7	-0.06258898
180	0xbea436b6	-0.3207299
181	0xbe26537f	-0.16242789
182	0xbe5c6878	-0.21524227
183	0x3d16dd05	0.036831874
184	0xbdc20da9	-0.09475262
185	0x3dcf68dd	0.10127423
186	0xbd1210c2	-0.035660513
187	0xbe930f3a	-0.28722554
188	0x3ed59a38	0.41719222
189	0xbddbd844	-0.10734609
190	0xbd170bda	-0.036876537
191	0x3f8dc88a	1.1076825
192	0xbe36a14f	-0.17834972
193	0xbf59fbfc	-0.8515012
194	0x3e562084	0.20910841
195	0xbe3e358e	-0.18575117
196	0xbe1995c7	-0.14998542
197	0xbe4b4702	-0.19851306
198	0xbd6a000d	-0.057128955
199	0xbe032bfd	-0.12809749
200	0xbddf02ae	-0.10889183
201	0xbea140fb	-0.3149489
202	0x3e15db02	0.14634326
203	0xbdc58319	-0.096441455
204	0xbbea0aa2	-0.007142381
205	0xbedda2b2	-0.4328819
206	0x3d9e8e1a	0.077419475
207	0xbd566640	-0.052343607
208	0xbe1a1465	-0.15046842
209	0xbda26d87	-0.07931047
210	0x3de7c47a	0.11316772
211	0x3dd58c86	0.10427193
212	0xbdd0c0a0	-0.1019299
213	0xbf928b89	-1.1448833
214	0xbe6a1d16	-0.22862658
215	0xbd2f7f62	-0.04284609
216	0x3f926efc	1.144012
217	0x3e5daa32	0.21646956
218	0xbf914fe4	-1.1352506
219	0xbe5ba8f0	-0.21451163
220	0xbe0a9d1e	-0.13536498
221	0x3d30bcbd	0.043148745
222	0x3dfa26f3	0.1221446
223	0xbec957d8	-0.39324832
224	0xbd76ee51	-0.06028587
225	0x3e5c89cd	0.21536942
226	0xbe9bcbec	-0.30429018
227	0xbef90334	-0.48635256
228	0x3d281e54	0.04104455
229	0xbf4b792f	-0.79481786
230	0x3e25d62b	0.1619498
231	0xbef72e25	-0.48277393
232	0x3e984443	0.2973958
233	0x3d8df8cc	0.0693222
234	0x3e128b90	0.14311051
235	0xbbecf61a	-0.007231486
236	0x3d449cbd	0.04800104
237	0x3cab37da	0.020900656
238	0x3f0463d3	0.5171482
239	0xbd375c16	-0.044765554
240	0xbe32935b	-0.17439024
241	0x3eea6a28	0.45784116
242	0xbd9f8d4f	-0.07790624
243	0xbeb407dd	-0.3516225
244	0x3e141d8d	0.14464398
245	0xbdf2e6b6	-0.11860411
246	0x3e3eb41e	0.18623397
247	0xbe4c4e99	-0.19951858
248	0x3e93770d	0.28801766
249	0x3c79d867	0.015249348
250	0xbd663b84	-0.056209102
251	0x3e677851	0.22604491
252	0x3ca473e6	0.020074796
253	0xbe83b070	-0.2572055
254	0xbe05b3a4	-0.13056809
255	0xbe8dd225	-0.2769939

actor.0.bias f4 [64]
0	0xbe969f19	-0.29418257
1	0xbe1ad294	-0.15119392
2	0x3e0aeaf3	0.13566189
3	0x3dcdc86d	0.10047994
4	0x3c84c3ce	0.016206648
5	0x3d91ddf7	0.071224146
6	0xbdf8e5d5	-0.12153212
7	0xbdcb9f7f	-0.09942531
8	0x3dd5562f	0.10416829
9	0xbd2da08a	-0.04238943
10	0xbe993e64	-0.29930413
11	0xbd41dcbd	-0.047329653
12	0xbe5a589b	-0.21322863
13	0x3d109451	0.035297696
14	0xbcecb9b8	-0.028897151
15	0xbdbb3ee8	-0.09142858
16	0x3d4af942	0.049554117
17	0xbe8a8723	-0.27056226
18	0xbcbe9765	-0.02326555
19	0xbdd33aca	-0.103139475
20	0xbdfae062	-0.12249829
21	0x3d014a29	0.031564865
22	0xbe81e0fb	-0.2536696
23	0xbe951ec7	-0.29125044
24	0xbd76320c	-0.060106322
25	0x3e81b656	0.25334424
26	0xbe3e8022	-0.18603566
27	0x3e4ac44b	0.19801442
28	0xbd80312a	-0.06259377
29	0xbdcfd2fd	-0.10147665
30	0xbe15b3d1	-0.14619376
31	0xbeb88ea0	-0.36046314
32	0xbdf0a68d	-0.11750517
33	0xbe7d8dee	-0.24761173
34	0x3c9f4b55	0.0194451
35	0xbecac3c5	-0.39602485
36	0xbcf3b2a9	-0.029748278
37	0xbe8b09bc	-0.27155864
38	0x3e6fecd2	0.23430184
39	0x3dc52093	0.09625354
40	0xbc8d2b3a	-0.017232526
41	0xbe467d74	-0.19383794
42	0xbe0e5c57	-0.13902412
43	0x3da97454	0.08274141
44	0xbd7118c6	-0.058861516
45	0xbe725294	-0.23664314
46	0xbc840d3b	-0.01611959
47	0xbe4c0726	-0.19924602
48	0x3d2a2d88	0.04154733
49	0xbd4597db	-0.048240524
50	0xbe986c1d	-0.29769984
51	0xbe855e92	-0.26048714
52	0xbe49e5a5	-0.19716509
53	0x3d908e9e	0.07058452
54	0x3db5a282	0.088688865
55	0xbe55119f	-0.20807503
56	0x3dea20a4	0.11432007
57	0x3e9f6c65	0.31137386
58	0x3e950339	0.2910402
59	0xbde5bfc2	-0.112182155
60	0xbd40976d	-0.04701941
61	0x3dea1754	0.11430231
62	0xbea2e205	-0.31813064
63	0xbedab046	-0.4271261

actor.2.weight f4 [64, 64]
0	0xbe37c82e	-0.17947456
1	0x3d843541	0.0645547
2	0xbdedc572	-0.11609925
3	0x3b085973	0.002080527
4	0xbc7b7dbb	-0.015349801
5	0xbe696141	-0.22791006
6	0xbe5ef68e	-0.2177374
7	0xbd6badb4	-0.057538703
8	0x3d7f5d95	0.062345106
9	0xbe0467e4	-0.12930256
10	0x3dd1b1da	0.102390006
11	0x3bdd906a	0.0067616003
12	0x3d7a26d2	0.06107218
13	0x3c9cbdd1	0.01913348
14	0xbd8c0a6c	-0.06837925
15	0xbe40992c	-0.1880843
16	0xbd856769	-0.065138645
17	0xbd556bed	-0.05210488
18	0x3d80c7fa	0.062881425
19	0x3dcb7c62	0.099358335
20	0x3e534026	0.2062994
21	0x3cd4cc83	0.025976425
22	0x3ddfc9f6	0.10927193
23	0xbd7cfe06	-0.061765693
24	0x3c33ce55	0.010974486
25	0xbe45b53d	-0.19307418
26	0xb9abdfee	-0.00032782502
27	0xbc1642de	-0.009171216
28	0x3cc4f04b	0.024040362
29	0x3cae618f	0.021286754
30	0xbe273168	-0.1632744
31	0x3d8318ce	0.064012155
32	0x3cecfe73	0.028929925
33	0xbe0eb5f3	-0.13936596
34	0xbdb936bb	-0.09043642
35	0x3e6e6b05	0.23283012
36	0xbd822439	-0.06354565
37	0xbd24aaa0	-0.040201783
38	0xbe38d00c	-0.18048114
39	0xbd6e88eb	-0.058236044
40	0x3da61afb	0.08110615
41	0xbc9204d5	-0.01782457
42	0x3d91bd85	0.07116226
43	0xbdcd057d	-0.100108124
44	0x3df76e87	0.12081628
45	0x3d9a10db	0.07522746
46	0xbe7ca91a	-0.24673882
47	0xbd02aa0b	-0.031900447
48	0x3e15d4c0	0.14631939
49	0xbdeb0154	-0.11474863
50	0x3d20e1d9	0.039277885
51	0xbd316fcb	-0.043319505
52	0x3e1fbbe6	0.15599021
53	0xbd0924a0	-0.033482194
54	0xbdd84668	-0.10560304
55	0xbdb0e4b1	-0.086373694
56	0xbdd551ef	-0.10416018
57	0xbe2bbdd2	-0.1677163
58	0xbe1467b6	-0.14492688
59	0x3e3ccf81	0.18438531
60	0xbdc1ddd5	-0.09466139
61	0xbd5b1546	-0.053487085
62	0x3db66ed1	0.08907855
63	0xbdc222e0	-0.09479308
64	0xbe06e9b5	-0.1317509
65	0xbe37e714	-0.17959243
66	0x3d8ea156	0.06964366
67	0x3d3519c5	0.04421403
68	0xbda8aeb5	-0.08236448
69	0xbcd993f2	-0.026559804
70	0xbd87b241	-0.06625796
71	0x3e4aebfb	0.19816582
72	0xbdea3508	-0.11435896
73	0x3df9d01f	0.12197899
74	0x3be1eb4c	0.0068945047
75	0x3afe3ff2	0.0019397719
76	0x3e13394d	0.14377327
77	0x3df6e3b6	0.12055151
78	0x3dc7054f	0.097178094
79	0xbcc3335f	-0.023828207
80	0x3e46e028	0.19421446
81	0xbcf6fdf9	-0.0301504
82	0x3cefae2b	0.029257854
83	0x3d4faa53	0.050699543
84	0xbdaacc6a	-0.0833977
85	0xbbf294b0	-0.007402979
86	0xbe4a89ba	-0.19779101
87	0xbde77c95	-0.11303059
88	0xbcee90c1	-0.029121758
89	0x3e06944b	0.13142507
90	0x3e2b725d	0.16742845
91	0x3df47b3d	0.11937568
92	0x3e446f86	0.19183168
93	0xbdcd9b24	-0.10039356
94	0x3e667577	0.22505747
95	0x3e7a8279	0.24463834
96	0x3de30f49	0.110869
97	0xbd9b739b	-0.07590409
98	0xbcf786f6	-0.030215722
99	0xbe91ee56	-0.28502148
100	0xbdcc38d4	-0.099717766
101	0x3d1d5e57	0.038420048
102	0xbc1df450	-0.009640768
103	0xbca064e6	-0.019579362
104	0xbe857642	-0.26066786
105	0x3d981615	0.07426087
106	0x3cfd11ac	0.030892216
107	0x3dc28100	0.09497261
108	0xbe82c4de	-0.25540823
109	0x3b393901	0.0028262737
110	0x3e369122	0.17828801
111	0x3de15ecc	0.11004409
112	0x3d85dcf6	0.065362856
113	0xbe1d5bb2	-0.1536701
114	0x3b5e9e1b	0.003396875
115	0xbcac4a9e	-0.021031674
116	0xbcca7820	-0.024715483
117	0xbde5c368	-0.112189114
118	0xbda42642	-0.080151096
119	0xbde21503	-0.11039164
120	0xbe107eaf	-0.14110826
121	0x3dd235f8	0.102642
122	0xbd7d2e70	-0.061811864
123	0xbd32ad10	-0.043622077
124	0xbe3bca20	-0.18338823
125	0x3d52a5a4	0.0514275
126	0xbe014a3f	-0.12625979
127	0x3e32a753	0.17446642
128	0x3d290d11	0.041272227
129	0xbe06bd3c	-0.13158125
130	0xbd19bf41	-0.03753591
131	0xbdabe2c1	-0.08392859
132	0xbe015969	-0.12631764
133	0xbe8ccc85	-0.27499786
134	0xbcb9357c	-0.022608511
135	0x3b952500	0.00455153
136	0xbe3be3f4	-0.18348676
137	0xbc18561a	-0.009297872
138	0x3d84780d	0.0646821
139	0x3e00ea1f	0.1258931
140	0xbd987a97	-0.07445257
141	0xbe31f4ab	-0.1737849
142	0x3d36f434	0.044666484
143	0x3dc97743	0.098372005
144	0xbe0b5104	-0.13605124
145	0x3d1691ce	0.036760144
146	0xbe49fdb8	-0.19725692
147	0x3e3dee83	0.18548016
148	0x3c8ede45	0.01743997
149	0xbe0eacea	-0.13933149
150	0xbdbd1d24	-0.09234074
151	0xbc7317e6	-0.014837241
152	0xbe4bfe11	-0.19921137
153	0xbe58e6a5	-0.21181734
154	0x3c751b73	0.014960158
155	0x3e2d164b	0.16903035
156	0x3f0b0729	0.543078
157	0xbe0f5aa8	-0.13999426
158	0xbe08a01f	-0.13342331
159	0xbcfe504e	-0.031044152
160	0xbe3bb988	-0.18332493
161	0xbd182bc8	-0.037151128
162	0xbe24eba5	-0.16105516
163	0x3e751ddc	0.23937172
164	0xbe395373	-0.1809824
165	0xbcf790d8	-0.030220434
166	0x3dd2f2ab	0.103001915
167	0xbe7fadc4	-0.2496863
168	0xbd85adf6	-0.06527321
169	0x3dfd9e04	0.12383655
170	0xbdc38dfe	-0.09548567
171	0xbd24c026	-0.04022231
172	0x3cc105e0	0.023562372
173	0x3f094ad4	0.53629804
174	0xbe7789d3	-0.2417367
175	0xbdbd1d1c	-0.09234068
176	0xbdd05e44	-0.1017423
177	0xbe0f7284	-0.14008528
178	0xbd218c86	-0.039440654
179	0x3dd63712	0.104597226
180	0x3dd2a1ae	0.10284744
181	0x3e436383	0.1908093
182	0x3e4f0a2d	0.20218726
183	0xbbcdf2bd	-0.00628504
184	0xbdfb5d22	-0.12273623
185	0x3c5497ee	0.012975676
186	0x3dd9e9d6	0.10640304
187	0x3e1203b5	0.14259227
188	0xbe73ee66	-0.2382141
189	0x3dc469f8	0.095905244
190	0x3ec23853	0.37933597
191	0x3e4bbc19	0.19895972
192	0xbdce6ac5	-0.100789584
193	0x3dd8ecf4	0.1059207
194	0xbd753d80	-0.059873104
195	0xbcc0369e	-0.023463544
196	0x3db17c0e	0.0866624
197	0xbd52be77	-0.051451173
198	0x3e345dcb	0.17613904
199	0x3d023fce	0.03179913
200	0xbd8d6eb5	-0.06905881
201	0xbdac2d6b	-0.084071
202	0x3c4c173c	0.012456711
203	0x3d1e7432	0.03868503
204	0x3dd153c2	0.10221054
205	0xbe3e24d5	-0.18568738
206	0x3d199b56	0.037501656
207	0x3bd778b0	0.0065756664
208	0xbe45c609	-0.19313826
209	0xbe2219b5	-0.15830119
210	0xbe17ecf4	-0.14836484
211	0x3db2b5dc	0.08726093
212	0xbca9fb86	-0.020749819
213	0xbdcf71c7	-0.10129123
214	0x3e4367fc	0.19082636
215	0xbe0ae42f	-0.13563608
216	0xbe127e11	-0.14305903
217	0xbec7af5b	-0.39000973
218	0x3d26b8b9	0.04070351
219	0xbc8e87fd	-0.017398829
220	0xbd48e324	-0.049044743
221	0xbc04d915	-0.008108397
222	0xbe441022	-0.19146779
223	0x3d12b396	0.035815798
224	0x3db9abd4	0.09065977
225	0xbd503c92	-0.050839014
226	0x3e08db92	0.1336501
227	0x3e98fdd0	0.29881144
228	0x3cc62680	0.02418828
229	0xbd044ea1	-0.03230155
230	0x3e6fe8cc	0.23428649
231	0xbe8b5121	-0.27210334
232	0x3dcdeb92	0.10054697
233	0x3de3c155	0.111208595
234	0xbdbabfed	-0.09118638
235	0xbd8ed087	-0.06973367
236	0x3bd42095	0.0064736106
237	0x3dd69b6b	0.104788624
238	0xbe1ab66c	-0.15108651
239	0xbe0563f1	-0.13026406
240	0xbc8d8f42	-0.017280225
241	0x3da3304a	0.07968195
242	0x3e43d65b	0.19124739
243	0x3d677a97	0.056513395
244	0x3cd8c586	0.026461374
245	0x3d21dce1	0.039517287
246	0x3ad2f895	0.0016095812
247	0x3e02f9a8	0.12790549
248	0x3da70800	0.08155823
249	0x3c83f0a1	0.016105952
250	0x3d8ca1ca	0.06866796
251	0xbe3a0809	-0.18167128
252	0xbe21c4a0	-0.15797663
253	0xbda662bf	-0.08124303
254	0x3e39fb75	0.1816233
255	0x3e1136de	0.14181086

actor.2.bias f4 [64]
0	0xbe389876	-0.18026909
1	0x3dbae56a	0.091257885
2	0xbe008148	-0.12549317
3	0xbe4b2a8c	-0.19840449
4	0xbdef199f	-0.11674809
5	0xbdf4d8e1	-0.11955429
6	0xbdfd74f9	-0.123758264
7	0xbd8ace33	-0.06777611
8	0x3dfc7f5f	0.123289816
9	0x3ca66721	0.020312848
10	0xbd28574a	-0.04109887
11	0xbe139443	-0.14412026
12	0xbe75e380	-0.24012566
13	0x3d70aa12	0.05875594
14	0xbd9fa729	-0.07795555
15	0xbe19eb77	-0.15031229
16	0xbe6c6ffa	-0.2308959
17	0x3c8ead50	0.017416626
18	0xbdce28ee	-0.100664005
19	0x3c7d0005	0.015441899
20	0xbe24927f	-0.16071509
21	0x3e5d0f8e	0.21587965
22	0xbe709f27	-0.23498212
23	0xbdc10cb0	-0.09426248
24	0xbe2f832b	-0.1713988
25	0xbe093bf3	-0.13401775
26	0x3b00b3ec	0.0019638492
27	0xbdde34c2	-0.108499065
28	0xbcd0be6d	-0.025481427
29	0x3d531307	0.051531818
30	0xbd135a8a	-0.035975017
31	0x3e073ff4	0.1320799
32	0xbe37745b	-0.1791548
33	0xbe709229	-0.23493256
34	0xbe76bbe3	-0.2409511
35	0x3c88acf3	0.016684031
36	0xbed775bf	-0.4208202
37	0x3cea809f	0.028625784
38	0xbe2c780b	-0.16842668
39	0xbd47dcb3	-0.04879446
40	0xbdff100e	-0.12454234
41	0xbea3f7ea	-0.3202508
42	0xbe205892	-0.15658787
43	0x3d9fdacb	0.07805403
44	0xbe013f5a	-0.12621823
45	0x3e18eb0a	0.1493341
46	0xbe6ff185	-0.23431976
47	0xbe9dedc3	-0.3084546
48	0x3cfe06c3	0.031009084
49	0xbe496718	-0.19668233
50	0xbe69b8cc	-0.228244
51	0xbd1a5b28	-0.03768459
52	0xbabc756c	-0.0014378256
53	0x3e3f4a0e	0.18680593
54	0xbdc31fe2	-0.095275655
55	0xbe4c332f	-0.199414
56	0x3d337ea3	0.043821942
57	0xbcd4b33c	-0.025964372
58	0x3e061ead	0.1309764
59	0x3c4ac1c6	0.012375301
60	0xbe9ce593	-0.306439
61	0x3cd431d7	0.025902672
62	0xbcb38b6b	-0.021917066
63	0xbe3c458f	-0.1838591

actor.4.weight f4 [6, 64]
0	0x3d8941fc	0.06702039
1	0xbd74146a	-0.05958978
2	0xbd54b111	-0.051926676
3	0xbd2ee60f	-0.04269987
4	0xbd370012	-0.0446778
5	0x3dc28b1b	0.094991885
6	0x3db748e0	0.08949447
7	0xbd28aa27	-0.041177895
8	0x3d9824ef	0.074289195
9	0xbdb4830f	-0.0881406
10	0xbe0d2fb7	-0.13787733
11	0xbe861505	-0.26187912
12	0x3d1a9366	0.037738226
13	0xbde380b0	-0.111085296
14	0xbcfe25e4	-0.031023927
15	0xbdb1eff9	-0.08688349
16	0x3d4b740e	0.049671225
17	0x3da58ba2	0.080832735
18	0x3cc951c3	0.02457512
19	0x3ce479a7	0.02789004
20	0xbd44b34f	-0.048022565
21	0xbd908bf3	-0.07057943
22	0x3d2907d8	0.041267246
23	0x3cd93a8e	0.026517179
24	0x3df1052a	0.11768563
25	0xbd957119	-0.07296962
26	0xbd2ddb95	-0.042445738
27	0x3c14352c	0.00904588
28	0x3c406896	0.011743685
29	0xbdb7717e	-0.08957194
30	0xbe11c048	-0.14233506
31	0xbcd88def	-0.026434867
32	0x3d12ebde	0.03586947
33	0x3e361170	0.1778009
34	0x3d482621	0.048864488
35	0x3d971bc4	0.07378343
36	0x3da4cff9	0.0804748
37	0xbcee8899	-0.02911787
38	0x3d248a1c	0.040170774
39	0xbe3904d1	-0.18068244
40	0xbdd5dbe1	-0.10442329
41	0x3d8f9915	0.0701162
42	0xbdbc60a7	-0.091981225
43	0x3e1b5556	0.15169272
44	0x3d1a4603	0.037664425
45	0xbe0d3de0	-0.13793135
46	0x3d7e76dc	0.062125072
47	0xbcce9c95	-0.025221149
48	0xbdd89cc1	-0.105767734
49	0x3e211c8e	0.15733549
50	0x3ccbc422	0.024873797
51	0x3dc013cd	0.09378777
52	0xbe10dc05	-0.14146431
53	0xbd569e17	-0.05239686
54	0xbe1a87a4	-0.15090805
55	0x3cd0d167	0.025490476
56	0x3e0e065d	0.13869615
57	0x3d1dec0d	0.038555194
58	0x3dec7ec5	0.11547617
59	0x3dfd4add	0.12367795
60	0xbab8fd7c	-0.001411363
61	0xbe721141	-0.23639394
62	0x3da0dc22	0.07854487
63	0x3d0bb90c	0.03411202
64	0x3cc4df6f	0.024032323
65	0xbde2829e	-0.110600695
66	0x3e233aab	0.15940349
67	0x3dd7206c	0.10504231
68	0x3d1cec85	0.0383115
69	0x3d24b0fc	0.040207848
70	0x3dd96f79	0.10616965
71	0x3c5c58d6	0.0134489145
72	0x3d1a1c01	0.037624363
73	0xbdede0b7	-0.116151266
74	0xbd112613	-0.0354367
75	0xbe00247d	-0.12513919
76	0xbd9a93c8	-0.07547718
77	0x39b4a245	0.00034453176
78	0xbdce9969	-0.100878544
79	0x3d740e0d	0.059583712
80	0x3cef19a1	0.029187026
81	0x3cf75fc8	0.03019704
82	0x3ddd68e2	0.108110204
83	0xbe08e08b	-0.13366906
84	0x3c479728	0.012182035
85	0xbdcaac83	-0.09896185
86	0xbd0759b8	-0.033044547
87	0x3e0d8e39	0.13823785
88	0xbddfbb98	-0.109244525
89	0xbe37675a	-0.17910519
90	0xbe260b45	-0.16215236
91	0xbdb1e973	-0.08687105
92	0x3a9c99e1	0.0011947715
93	0x3c24a81c	0.010049846
94	0x3cef6056	0.029220741
95	0xbd4f33d2	-0.05058653
96	0x3db63524	0.088968545
97	0x3d6a1543	0.057149183
98	0xbca2273e	-0.019794103
99	0xbd1b6104	-0.03793432
100	0x3dcdbc06	0.10045628
101	0x3df9ee07	0.12203603
102	0xbd5e4d6c	-0.054273054
103	0x3d45265d	0.04813229
104	0x3cc4d5da	0.024027754
105	0x3e13459c	0.14382023
106	0x3dd8c1a6	0.105838105
107	0xbe58a77d	-0.21157642
108	0x3e24037b	0.16016953
109	0xbdd01364	-0.101599485
110	0x3d159028	0.03651443
111	0x3d2784d7	0.04089817
112	0x3d997775	0.07493488
113	0x3e1664d2	0.14686897
114	0x3d801309	0.06253631
115	0x3da3d598	0.07999724
116	0xbea6bb5d	-0.32564822
117	0xbd85d312	-0.06534399
118	0x3b0b3646	0.0021242066
119	0xbd25da0d	-0.040491153
120	0x3d1fa5ab	0.038976353
121	0xbd8d15fd	-0.068889596
122	0xbd4c1d4c	-0.049832627
123	0x3d1a9dc5	0.037748117
124	0x3db2d476	0.0873193
125	0xbe249a43	-0.16074471
126	0xbd846bb9	-0.06465859
127	0xbcd6463e	-0.026156541
128	0x3ba43d13	0.0050121634
129	0x3d208df5	0.03919788
130	0x3d07009e	0.032959573
131	0xbc9ae64d	-0.018908644
132	0xbd382bc4	-0.044963613
133	0xbe1be044	-0.1522227
134	0xbcf8a4e4	-0.030352063
135	0xbdff1c52	-0.124565735
136	0x3e1d6276	0.15369591
137	0x3d3b28d4	0.045693234
138	0xbe68d1e6	-0.2273632
139	0xbc587e07	-0.013213641
140	0xbdd91fc4	-0.10601762
141	0xbd05701b	-0.032577615
142	0x3be07e0c	0.0068509635
143	0x3c1cee2d	0.00957827
144	0xbdf78e97	-0.12087744
145	0x3ccfdfbc	0.02537524
146	0x3dd190f6	0.10232727
147	0xbc0fe86f	-0.008783444
148	0xbe098de1	-0.13433029
149	0x3da44027	0.080200486
150	0x3c34104e	0.010990215
151	0x3c114557	0.00886663
152	0xbe0a9c95	-0.13536294
153	0x3ca53974	0.020168997
154	0x3d976026	0.07391386
155	0x3beb643a	0.007183579
156	0x3cac26f2	0.021014664
157	0xbd5dd841	-0.054161314
158	0x3ddbdee3	0.10735872
159	0x3c862bed	0.016378367
160	0xbe398f1b	-0.18120997
161	0xbe4e7943	-0.20163445
162	0xbdba40b1	-0.0909437
163	0x3d19796a	0.037469305
164	0xbe27898d	-0.16361065
165	0xbda9944f	-0.08280241
166	0xbe264c61	-0.16240074
167	0x3d178eb4	0.037001327
168	0xbd8256c4	-0.063642055
169	0xbe2f4396	-0.17115626
170	0x3dd40540	0.10352564
171	0x3e022819	0.12710609
172	0x3d985280	0.074376106
173	0x3bf238da	0.007392031
174	0xbcd0aef8	-0.025474057
175	0xbdb6534d	-0.08902607
176	0x3d899bab	0.067191444
177	0x3d2f0490	0.04272896
178	0xbdd2d585	-0.10294632
179	0x3d266607	0.040624645
180	0xbcd50b37	-0.026006324
181	0x3d4d5a00	0.05013466
182	0xbac26709	-0.0014831732
183	0xbcfe578d	-0.031047607
184	0x3de40b51	0.11134971
185	0x3d1b4c0e	0.03791433
186	0x3d64b69c	0.055838212
187	0xbccfe7ab	-0.025379023
188	0xbd9fb16a	-0.07797511
189	0x3d6d7b85	0.057979126
190	0xbc44a7f4	-0.012002934
191	0xbd25dc45	-0.04049327
192	0xbd977a13	-0.07396331
193	0xbd0471e6	-0.032335185
194	0xbd92f6a4	-0.07175949
195	0x387cc591	6.026548e-05
196	0xbe03008b	-0.12793176
197	0x3af1c021	0.00184441
198	0xbe659b92	-0.22422627
199	0xbdc8f591	-0.09812463
200	0xbdabf2c3	-0.083959125
201	0xbdf7842f	-0.12085759
202	0xbdab7342	-0.08371593
203	0xbdbfa103	-0.093568824
204	0xbdf13306	-0.1177731
205	0xbe59437e	-0.21217152
206	0xbe2f0d72	-0.17094973
207	0xbc237931	-0.009977625
208	0xbdef5a49	-0.116871424
209	0xbe94d124	-0.29065812
210	0xbd5e3b53	-0.054255795
211	0xbdffb475	-0.12485591
212	0xbe0b2469	-0.13588108
213	0xbda82086	-0.08209328
214	0xbce7ea4f	-0.02830997
215	0xbe247155	-0.16058858
216	0xbe707472	-0.2348192
217	0xbd39c34f	-0.045352276
218	0xbdce9e9e	-0.100888476
219	0x3cd6c23c	0.026215665
220	0xbc745ab8	-0.014914207
221	0xbe7207dc	-0.2363581
222	0xbdd42c00	-0.10359955
223	0xbce47e7c	-0.027892344
224	0x3d5885ef	0.052862104
225	0x3d0e9b10	0.034815848
226	0xbdc2e6e4	-0.09516695
227	0xbe41ad98	-0.18913877
228	0xbe1d0617	-0.15334354
229	0x3e4d057e	0.20021626
230	0xbd9b164e	-0.07572614
231	0x3da87552	0.08225502
232	0xbdc6bc7b	-0.097039185
233	0xbe5738de	-0.21017787
234	0x3d9d72b5	0.07687894
235	0x3df89278	0.12137312
236	0x3dee4cc7	0.11635738
237	0x3bbd7fe6	0.005783069
238	0xbde68e6b	-0.11257633
239	0xbd849c79	-0.06475157
240	0xbcb83b9c	-0.022489361
241	0x3e5326eb	0.20620315
242	0xbe081cf2	-0.13292292
243	0x3cfbbdb8	0.030730113
244	0xbd956aaf	-0.07295739
245	0x3d4e83a9	0.05041853
246	0xbe023524	-0.12715584
247	0xbdba0ce5	-0.09084491
248	0xbd1e9b14	-0.038722113
249	0xbd92f10e	-0.07174884
250	0x3c9c00a2	0.01904327
251	0xbe6b85f2	-0.23000315
252	0xbe0fb80b	-0.1403505
253	0xbc681d1f	-0.014167099
254	0xbd46cd1d	-0.048535455
255	0xbdb86e4f	-0.09005415

actor.4.bias f4 [6]
0	0x3d2feb52	0.04294903
1	0xbd2990b0	-0.04139775
2	0x3e9a1819	0.3009651
3	0x3e3dc28e	0.18531248
4	0x3c566ab0	0.01308696
5	0x3e5d57f5	0.21615584

critic.0.weight f4 [64, 25]
0	0x3dd667da	0.10469027
1	0x3c7b2f7e	0.015331147
2	0x3cda9a54	0.026684918
3	0xbd7ac567	-0.061223414
4	0x3c7b098d	0.015322101
5	0xbd98be01	-0.07458115
6	0xbdc2de24	-0.09515026
7	0xbe2f8942	-0.17142203
8	0xbc72f17f	-0.014828085
9	0x3d8f66fe	0.07002066
10	0x3dcdd2b6	0.100499555
11	0x3ddef5cd	0.108867265
12	0xbe7955cb	-0.24349134
13	0xbfc3ac3e	-1.5286939
14	0x3f2ba390	0.6704645
15	0x3c0096d1	0.007848457
16	0x3e465d71	0.19371583
17	0xbdd8f850	-0.10594237
18	0xbbba7620	-0.005690351
19	0xbd47b480	-0.048756123
20	0x3d40eba6	0.04709973
21	0xbe02ee01	-0.12786104
22	0x3dea8c55	0.114525475
23	0x3d855fc1	0.06512404
24	0xbdecec53	-0.11568513
25	0xbe888383	-0.26662835
26	0xbdf55f2b	-0.119810425
27	0xbdaf9ce7	-0.085748486
28	0x3df52319	0.11969585
29	0x3a2dc760	0.00066291355
30	0xbc76134f	-0.015019252
31	0xbd6ce60b	-0.057836574
32	0xbc17648e	-0.009240283
33	0xbba0caf9	-0.0049070087
34	0x3d50eb56	0.051005684
35	0x3caf3899	0.021389293
36	0x3cc50bca	0.024053473
37	0x3dea184b	0.11430415
38	0x40848590	4.141304
39	0xbe96dad0	-0.29463816
40	0xbdd720a6	-0.10504274
41	0x3fd86ca3	1.6908153
42	0xbc5a4ee9	-0.013324478
43	0xbfec07ba	-1.8439858
44	0x3e22ead4	0.15909892
45	0x3d284c6d	0.04108851
46	0x3de5a193	0.112124585
47	0xbd3781f5	-0.04480167
48	0xbc92fdf4	-0.01794336
49	0xbc89cd83	-0.016821628
50	0x3e2cc0db	0.16870444
51	0x3d5e012b	0.054200333
52	0x3dd60eae	0.10452019
53	0xbe80bc60	-0.2514372
54	0xbd4ff828	-0.05077377
55	0x3da303ed	0.07959733
56	0x3a82364d	0.0009934396
57	0xbd84a95a	-0.06477614
58	0x3d5a10a5	0.05323853
59	0x3bd8b762	0.006613658
60	0xbc44709c	-0.011989739
61	0xbc3e6fa7	-0.0116233
62	0x3eb244aa	0.34818012
63	0x40187092	2.3818707
64	0xbef228e3	-0.4729682
65	0x3d43854c	0.047734544
66	0x3f456003	0.7709963
67	0x3e20a10c	0.15686435
68	0xbf1c8365	-0.6113799
69	0xbd80c35d	-0.062872626
70	0x3d07a2f3	0.033114385
71	0xbddcd089	-0.107819624
72	0x3d8f8999	0.070086665
73	0x3dc27774	0.0949544
74	0x3c59971b	0.013280655
75	0x3caf39bd	0.021389836
76	0xbd4b6ce8	-0.049664408
77	0xbe79d278	-0.24396694
78	0xbe20cb6b	-0.15702598
79	0xbd6e8995	-0.058236677
80	0x3e0b4b16	0.13602862
81	0xbe22c840	-0.15896702
82	0xbe442b80	-0.19157219
83	0x3e76b00c	0.24090594
84	0xbd0f6678	-0.03500983
85	0x3ebd086e	0.36920494
86	0xbdc04f6f	-0.09390151
87	0x3ee2dba2	0.44308192
88	0xbf2a3c60	-0.66498375
89	0xbe2cedbe	-0.16887566
90	0x3e8df88c	0.2772869
91	0xbddf68f5	-0.10908691
92	0x3e80b099	0.25134733
93	0x3e43e1e2	0.19129136
94	0x3e08e23b	0.1336755
95	0x3be0e7c0	0.0068635643
96	0x3dd53313	0.10410132
97	0x3d757188	0.059922725
98	0x3df7fb65	0.121084966
99	0x3da13e02	0.07873155
100	0x3a687f90	0.0008869106
101	0x3ba5d096	0.005060266
102	0xbe72fdfb	-0.23729698
103	0xbe9cde0b	-0.30638155
104	0x3e33eb66	0.17570266
105	0x3d8ba620	0.06818795
106	0xbd8dbf29	-0.069212265
107	0xbc665a80	-0.014059663
108	0xbe1ce70f	-0.15322517
109	0x3cdaa861	0.026691617
110	0x3d064480	0.03278017
111	0xbd43324a	-0.04765538
112	0x3e4e8ff1	0.20172097
113	0x3f0397b4	0.51403356
114	0xbee91b81	-0.45528796
115	0xbdd46c7c	-0.10372254
116	0xbdf09612	-0.11747374
117	0x3d361ef5	0.044463117
118	0x3e341a0e	0.17588064
119	0xbe35a746	-0.17739591
120	0x3ca7139a	0.020395089
121	0x3e2ef6eb	0.17086379
122	0xbd66c62e	-0.056341343
123	0xbd565d18	-0.052334875
124	0xbd98cb52	-0.07460655
125	0x3e020aa9	0.12699379
126	0x3e40ca97	0.18827282
127	0x3d89ad74	0.06722537
128	0x3d453c1e	0.048153035
129	0xbc837499	-0.016046809
130	0x3daeb03d	0.085297085
131	0x3cb0a0f7	0.021561129
132	0x3a824b60	0.0009940676
133	0x3dcb1858	0.099167526
134	0xbda7c9ba	-0.08192773
135	0x3b02e679	0.0019973798
136	0xbb759108	-0.0037470479
137	0xbda7ef60	-0.08199954
138	0x3f468329	0.77543885
139	0x3f11f577	0.57015175
140	0xbd803ac9	-0.062612124
141	0xbf1c3b1d	-0.610277
142	0x3db01be0	0.08599067
143	0x3f35d2c8	0.7102475
144	0x3d4e9c8a	0.050442256
145	0x3db3ac7f	0.087731354
146	0xbd828a0f	-0.06373989
147	0x3d18ef8a	0.037337817
148	0xbe06351b	-0.13106196
149	0xbdbbddd1	-0.091731675
150	0x3e929121	0.2862635
151	0x3e455e2d	0.19274206
152	0xbe24d835	-0.16098101
153	0x3e827b9b	0.25484928
154	0xbed6da68	-0.41963506
155	0xbe3745a3	-0.17897658
156	0x3dc5c82c	0.096573204
157	0xbc5cfd14	-0.013488073
158	0x3d34c761	0.044135455
159	0x3d4de30e	0.050265364
160	0x3e11c12d	0.14233847
161	0xbd95a280	-0.07306385
162	0x3dabbdc6	0.08385806
163	0xc027029f	-2.609535
164	0xbe446c93	-0.19182043
165	0xbda74108	-0.081667006
166	0xbfb865a4	-1.4406018
167	0xbd46c6a9	-0.0485293
168	0x3fd533d5	1.6656443
169	0x3e34b31e	0.17646453
170	0x3dfd975f	0.12382387
171	0x3e257757	0.16158806
172	0x3e5d0347	0.21583281
173	0xbdd3fefb	-0.10351368
174	0x3e143263	0.14472346
175	0x3e1a547d	0.15071292
176	0x3e7fa8f3	0.24966793
177	0xbdc7002b	-0.09716829
178	0xbe87dec1	-0.26537135
179	0xbed2697b	-0.410961
180	0xbd073ada	-0.03301511
181	0x3da4f398	0.08054274
182	0x3d9a30a2	0.07528807
183	0xbb829c1d	-0.0039858953
184	0x3cea86bc	0.0286287
185	0x39608c1c	0.000214145
186	0xbdcd8aa7	-0.100362115
187	0x3e5666d9	0.20937671
188	0x3f960749	1.1720973
189	0x3dedb4c0	0.11606741
190	0x3af59744	0.0018737097
191	0x3de6cdf8	0.11269754
192	0xbddfc953	-0.109270714
193	0xbe82acf5	-0.2552258
194	0x3cdd4524	0.027010508
195	0xbdc41166	-0.09573631
196	0xbc09ee65	-0.008418654
197	0xbddd983c	-0.10820052
198	0xbdb7c8b8	-0.08973831
199	0xbd9e0ecd	-0.07717667
200	0xbe751a34	-0.23935777
201	0x3e6404bd	0.22267433
202	0xbd39e69c	-0.045385942
203	0x3d2603de	0.04053103
204	0x3e081dc8	0.1329261
205	0xbe0a8a77	-0.13529383
206	0x3cf2305c	0.029564075
207	0xbb839118	-0.0040150993
208	0x3c48d644	0.012258116
209	0x3c502277	0.01270353
210	0x3c858a0e	0.016301181
211	0x3ce21cec	0.027601682
212	0x3e5c37c7	0.21505652
213	0x3d817ffe	0.06323241
214	0xbedc45a5	-0.43021885
215	0xbe2a65f8	-0.1664046
216	0x3f486c61	0.78290373
217	0xbd8f50d0	-0.06997836
218	0xbf7ff29e	-0.9997958
219	0xbc07148e	-0.008244647
220	0xbdb54e87	-0.088528685
221	0x3d67f62d	0.056631256
222	0xbd0defb1	-0.034652416
223	0x3d18494e	0.037179284
224	0xbb5d8e6b	-0.0033806812
225	0x3e64c38e	0.22340223
226	0xbdc08ee9	-0.09402258
227	0x3d376704	0.044775978
228	0x3d865ade	0.065603
229	0x3e17457a	0.14772597
230	0x3c28b81b	0.0102978
231	0xbdebb303	-0.11508753
232	0xbdd8df21	-0.105894335
233	0x3d4345d8	0.04767403
234	0x3d9c9e2b	0.07647356
235	0xbde2379f	-0.11045765
236	0xbd4e276f	-0.050330576
237	0x3eaa3839	0.3324602
238	0xbd112130	-0.03543204
239	0x3e5daefd	0.21648784
240	0x3e4807f5	0.19534285
241	0xbe516b3d	-0.20451064
242	0x3dae6902	0.085161224
243	0x3d27b87a	0.040947415
244	0x3da82c02	0.08211519
245	0x3d6cf2b9	0.057848666
246	0xbd7c7960	-0.06163919
247	0xbdebcbc4	-0.115134746
248	0x3dd9e16d	0.106387
249	0x3e1508ef	0.14554189
250	0x3d569371	0.052386705
251	0xbe7cf5e8	-0.24703181
252	0xbd3a7e1b	-0.04553042
253	0xbd93a364	-0.07208899
254	0x3d3d6b09	0.046244655
255	0x3df8d7f2	0.12150563

critic.0.bias f4 [64]
0	0xbd4ee5bb	-0.050512057
1	0x3e4f9cf7	0.20274721
2	0xbd60bf00	-0.05486965
3	0xbc4d3890	-0.012525693
4	0x3e279368	0.16364825
5	0xbdffc7c5	-0.12489275
6	0x3dfd7d01	0.12377358
7	0x3de6d09e	0.11270259
8	0x3d2e0f52	0.04249508
9	0xbe08d954	-0.13364154
10	0xbe2ae9c9	-0.16690744
11	0xbe2510da	-0.1611971
12	0xbd63a473	-0.055576753
13	0x3dda883a	0.106705144
14	0xbcb2b11a	-0.021812964
15	0xbd481118	-0.048844427
16	0x3dcbad62	0.099451795
17	0x3e2cb587	0.16866122
18	0xbe45d937	-0.19321142
19	0xbcfed379	-0.031106697
20	0xbd94fa64	-0.07274321
21	0x3db1aab9	0.08675141
22	0x3dc98dbc	0.09841487
23	0xbd06d6d0	-0.032919705
24	0xbdaea229	-0.08527023
25	0xbcb806a5	-0.022464106
26	0x3dffca17	0.124897175
27	0x3e216c74	0.15764028
28	0x3e4469ce	0.19180986
29	0x3da1073c	0.07862708
30	0xbe33962c	-0.17537755
31	0x3e3f4aa3	0.18680815
32	0x3e2c9652	0.16854218
33	0xbd4fd759	-0.05074248
34	0x3d531533	0.05153389
35	0xbdb56145	-0.08856443
36	0xbd5c6450	-0.053806603
37	0x3e24f334	0.161084
38	0xbe23703f	-0.15960787
39	0xbe179660	-0.14803457
40	0xbd26f806	-0.040763877
41	0x3e122abd	0.14274116
42	0xbda5f377	-0.08103078
43	0xbde4840e	-0.11158
44	0xbd946f29	-0.072477646
45	0x3dba7fd5	0.09106413
46	0xbd61b57e	-0.055104725
47	0xbcecaefd	-0.028892035
48	0xbd751868	-0.05983773
49	0xbe1a8448	-0.15089524
50	0x3d586fb8	0.05284092
51	0xbe010e1f	-0.12603043
52	0xbe4dcc1c	-0.20097393
53	0x3e3bb166	0.18329391
54	0xbdc51762	-0.096236005
55	0xbcbfacfe	-0.023397919
56	0x3daa3e7c	0.08312699
57	0xbe836ccb	-0.2566894
58	0xbd31d06a	-0.04341165
59	0xbc8da371	-0.017289849
60	0x3e10545d	0.14094682
61	0x3daadb69	0.083426304
62	0x3cb1dc3e	0.021711465
63	0x3e2eb84f	0.17062496

critic.2.weight f4 [64, 64]
0	0xbcfdd116	-0.030983489
1	0x3dc4ec7f	0.096154206
2	0x3d3306ce	0.04370766
3	0xbc38ab87	-0.011271364
4	0x38a9b30a	8.0918966e-05
5	0xbd34816d	-0.044068743
6	0xbc8aaeee	-0.016929116
7	0xbbcf8c4a	-0.0063338624
8	0xb8557006	-5.0887487e-05
9	0xbd9c468b	-0.076306425
10	0x3d0e63b2	0.034763046
11	0x3e0c035d	0.13673158
12	0xbda319cf	-0.07963907
13	0x3d78b008	0.06071475
14	0x3d49155c	0.049092636
15	0xbd078454	-0.033085182
16	0xbcb2bf44	-0.021819718
17	0x3dfb4365	0.12268714
18	0x3ddf5202	0.109043136
19	0xbdd84366	-0.1055973
20	0x3d825317	0.063635044
21	0xbd39a0f3	-0.04531951
22	0xbb9447b6	-0.00452515
23	0x3d7b2007	0.06130984
24	0xbaf0e702	-0.0018379393
25	0xbde46bc0	-0.11153364
26	0xbd6a91a4	-0.0572678
27	0x3d7a560f	0.061117228
28	0xbdb5b4af	-0.08872353
29	0x3a1dd77c	0.00060211844
30	0x3dcc7355	0.09982935
31	0xbd30a209	-0.04312328
32	0x3c5a1cf7	0.01331257
33	0xbb7b7b29	-0.003837297
34	0xbe23a28e	-0.15979978
35	0xbd5b5b3a	-0.053553797
36	0xbd8cf00e	-0.06881724
37	0xbe005d78	-0.12535655
38	0xbd9c1e92	-0.07623018
39	0x3a0e34eb	0.00054247555
40	0xbe09ae78	-0.13445461
41	0xbe06c6a6	-0.13161716
42	0xbd8283a2	-0.06372763
43	0x3ca11d53	0.019667303
44	0x3d255ecf	0.04037362
45	0xbe04ca8b	-0.12967889
46	0x3dd54281	0.10413075
47	0xbde2490d	-0.110490896
48	0x3da860d6	0.08221595
49	0x3dcd37ee	0.10020433
50	0xbd8939e3	-0.06700494
51	0xbdc53eaf	-0.096310966
52	0xbdb469c8	-0.08809239
53	0x3c348e5b	0.011020268
54	0x3e20c33c	0.15699476
55	0xbbf27927	-0.0073996964
56	0xbd1ae9cd	-0.037820626
57	0x3d3127eb	0.04325096
58	0x3d8c5e43	0.068539165
59	0x3d034608	0.03204921
60	0x3d82d5d4	0.06388441
61	0x3d3812e6	0.044939898
62	0xbcb8d4ef	-0.022562472
63	0x3d6ef4ba	0.05833886
64	0x3dd42809	0.103591986
65	0xbe426002	-0.18981937
66	0xbc6bd382	-0.014393689
67	0xbdffb708	-0.12486082
68	0xbd09872f	-0.033576187
69	0x3d471a15	0.04860886
70	0xbd53b05e	-0.05168187
71	0x3e12abca	0.14323345
72	0xbd10072c	-0.03516309
73	0x3d20c09c	0.039246187
74	0xbce27262	-0.027642433
75	0x3d1ed87c	0.038780674
76	0x3c9e0c59	0.019292997
77	0xbdc3239c	-0.09528276
78	0x3d931b09	0.07182891
79	0x3da028a1	0.07820249
80	0xbdacddda	-0.08440752
81	0x3d1902bd	0.037356127
82	0x3e1d9fdf	0.15393017
83	0x3d9e01af	0.07715165
84	0xbd5c13e9	-0.053729925
85	0xbcab4b43	-0.020909911
86	0xbd2c1395	-0.042010862
87	0xbd3e3010	-0.046432555
88	0x3db4b67d	0.088238694
89	0xbdab6de7	-0.083705716
90	0x3d8ac888	0.067765296
91	0x3dd74f52	0.10513176
92	0xbcbf223c	-0.023331754
93	0xbe0001a6	-0.12500629
94	0xbcaf3965	-0.021389673
95	0xbd1b6e1e	-0.037946813
96	0xbde0480c	-0.10951242
97	0xbd939061	-0.072052725
98	0xbc38baab	-0.011274974
99	0x3dce5134	0.10074082
100	0xbc280b9b	-0.010256673
101	0xbe00717f	-0.12543295
102	0x3e6feb39	0.23429574
103	0x3ca7ccdd	0.020483429
104	0xbccee1c3	-0.025254136
105	0x3d5ffc86	0.054684184
106	0x3d70a747	0.058753278
107	0xbcc57f8a	-0.024108667
108	0x3dd133cf	0.1021496
109	0x3d88c6d1	0.06678546
110	0xbc8de06a	-0.017318923
111	0x3dea2797	0.114333324
112	0x3e4c99e0	0.19980574
113	0x3d8e7457	0.06955784
114	0xbc9992b6	-0.018746715
115	0x3d88e1d4	0.06683698
116	0x3da65db8	0.08123344
117	0xbd53ee9e	-0.051741235
118	0x3c81b2ad	0.01583227
119	0x3db81490	0.08988297
120	0xbd8be8f9	-0.068315454
121	0xbd912bb6	-0.07088415
122	0x3c1cf49b	0.009579803
123	0x3d132889	0.03592733
124	0x3d3f0341	0.046633963
125	0xbd59869d	-0.053106893
126	0x3d9d984b	0.07695063
127	0x3d156f76	0.03648325
128	0xbdc64e2b	-0.09682878
129	0x3d9e1765	0.07719306
130	0x3d15fd25	0.03661837
131	0xbddeb7ad	-0.10874877
132	0xbd175547	-0.03694656
133	0xbdbee626	-0.09321241
134	0x3df9c793	0.12196269
135	0xbd8f84e7	-0.07007771
136	0x3cc3da90	0.02390793
137	0xbd67a0a6	-0.05654969
138	0x3da2501a	0.079254344
139	0xbdfd9640	-0.123821735
140	0xbd97950e	-0.07401477
141	0xbd6fe42b	-0.058567207
142	0x3d1ca705	0.03824522
143	0xbd045dce	-0.03231602
144	0xbda9f629	-0.082989044
145	0x3e5fb9d8	0.21848238
146	0x3c388422	0.011261972
147	0xbcd7e46f	-0.026354043
148	0x3dbed7ca	0.09318502
149	0x3c753985	0.014967327
150	0xbdbd033c	-0.092291325
151	0xbc97cd5a	-0.018530536
152	0x3d5f9569	0.054585848
153	0x3dbee562	0.09321095
154	0x3aa7c36b	0.0012799328
155	0x3df0acc5	0.11751703
156	0x3dc3310f	0.095308416
157	0xbd7b9dfc	-0.061429963
158	0x3e18c8b4	0.14920312
159	0xbdfc21dd	-0.123111464
160	0xbd8cd20c	-0.06876001
161	0xbd8e6706	-0.06953244
162	0xbd981859	-0.07426519
163	0xbdbd57eb	-0.09245285
164	0xbce480a1	-0.027893366
165	0xbe525beb	-0.20542876
166	0x3dddced6	0.108304664
167	0x3e2b7dbb	0.16747181
168	0xbd8b5610	-0.068035245
169	0x3d78d2a7	0.06074777
170	0xbd6df440	-0.058094263
171	0xbdac20bd	-0.08404682
172	0x3dbec29a	0.09314461
173	0x3d8d9f0b	0.06915101
174	0xbd596cb7	-0.053082194
175	0x3e12ce63	0.14336543
176	0xbc979985	-0.018505821
177	0xbd2b0cfc	-0.04176043
178	0xbd32a414	-0.04361351
179	0xbe141757	-0.14462028
180	0xbcb32d77	-0.021872265
181	0x3db43bfa	0.08800502
182	0x3e1ef7bd	0.15524192
183	0x3df8ac3d	0.12142227
184	0x3c772e61	0.015086741
185	0x3b36f210	0.0027915277
186	0x3dd23941	0.102648266
187	0x3c369d27	0.0111458665
188	0xbcd1b89d	-0.025600726
189	0x3ba2fe53	0.0049741655
190	0x3ca64233	0.020295238
191	0xbde09a28	-0.10966903
192	0x3d822bcd	0.063560106
193	0x3db0a406	0.08625035
194	0xb99461f8	-0.00028301752
195	0xbdd08eac	-0.101834625
196	0x3d85d156	0.06534068
197	0xbdc72eac	-0.09725699
198	0xbd08e31b	-0.03341971
199	0x3d52a67c	0.051428303
200	0xbdf64217	-0.120243244
201	0x3dab4edc	0.083646506
202	0x3cded09f	0.027199088
203	0xbd84757b	-0.0646772
204	0xbda11fed	-0.078674175
205	0xbd782c16	-0.06058892
206	0x3dfa34a5	0.122170724
207	0xbe2a91f9	-0.16657247
208	0x3d07170c	0.032980964
209	0x3c936e55	0.017996946
210	0x3c36d3b2	0.0111588705
211	0xbcfee431	-0.03111467
212	0xbbdcf8cb	-0.0067435256
213	0xbc9540dd	-0.018219406
214	0x3d511dab	0.051053684
215	0x3ded3a7d	0.115834214
216	0xbe2ed37c	-0.17072862
217	0xbd2ab3be	-0.04167532
218	0x3d80778c	0.06272802
219	0x3da109a2	0.078631654
220	0xbe033133	-0.12811737
221	0xbd6544b9	-0.055973742
222	0x3d61210f	0.054963168
223	0x3d3ef540	0.046620607
224	0xbd484840	-0.048897028
225	0xbe19253c	-0.1495561
226	0xbd5fc2f9	-0.0546293
227	0x3de25c87	0.110528044
228	0xbd848f98	-0.06472701
229	0x3dacce39	0.08437771
230	0x3dfd78dd	0.123765685
231	0x3e0878cb	0.13327329
232	0x3c367281	0.011135698
233	0xbddf2fa6	-0.1089776
234	0x3d29cb3d	0.04145359
235	0xbd7c96ab	-0.061667126
236	0xbdd1e96d	-0.102496006
237	0x3c40eec7	0.011775679
238	0x3d2b4a0a	0.041818656
239	0x3bd35f8d	0.0064505995
240	0x3e32af75	0.17449744
241	0x3d7b05b3	0.061284732
242	0x3b4cd576	0.0031255162
243	0xbcc56b00	-0.024098873
244	0x3e1751d4	0.14777309
245	0xbd5cfaf0	-0.05395025
246	0x3d42a8bc	0.0475242
247	0x3dd152ec	0.10220894
248	0x3d364d9b	0.044507604
249	0x3c5c93d4	0.013462979
250	0x3ce874c0	0.028375983
251	0xbc46ec1d	-0.012141255
252	0xbda7d222	-0.081943765
253	0xbdb04360	-0.08606601
254	0xbdc5f7e5	-0.09666423
255	0xbd596f3a	-0.05308459

critic.2.bias f4 [64]
0	0x3d92096e	0.07130705
1	0xbd27f5fd	-0.041006077
2	0xbd08cfc7	-0.033401277
3	0xbe2201f2	-0.15821055
4	0xbe9aeade	-0.30257314
5	0xbe5df8b3	-0.21676902
6	0xbd37ab70	-0.04484123
7	0x3d77510d	0.06038003
8	0x3ca22ba3	0.019796198
9	0xbd20a531	-0.03922004
10	0x3dff76b4	0.12473813
11	0xbe2bd54b	-0.16780584
12	0xbc7544e8	-0.014970042
13	0xbcbbfe51	-0.022948416
14	0xbd5c85d4	-0.053838566
15	0xbdf5f3e1	-0.12009407
16	0xbd04b6ec	-0.03240101
17	0x3de87d4a	0.11352022
18	0x3e381921	0.17978336
19	0xbe039ede	-0.12853572
20	0x3e0c481d	0.13699384
21	0x3d8c8585	0.06861404
22	0xbb891cf4	-0.0041843597
23	0xbd0dbc32	-0.034603305
24	0x3db60901	0.08888436
25	0xbe1e6878	-0.15469539
26	0xbcf41051	-0.029792937
27	0xbd89fb90	-0.06737435
28	0xbdfb2543	-0.122629665
29	0x3d601875	0.054710824
30	0xbdfa4f72	-0.12222184
31	0x3d02d174	0.03193803
32	0x3cdd22de	0.026994165
33	0xbdb34cf7	-0.08754914
34	0xbdaeb015	-0.08529679
35	0xbd6fc49a	-0.058537103
36	0x3d587f0f	0.052855548
37	0xbdf78812	-0.120865
38	0xbdcf269d	-0.10114787
39	0xbc833a26	-0.016018938
40	0xbd09e64e	-0.0336669
41	0xbddf0edb	-0.10891505
42	0xbde3417c	-0.110964745
43	0xbc7ca083	-0.015419128
44	0x3d27c61a	0.04096041
45	0x3e17de47	0.14830886
46	0xbd9b162e	-0.0757259
47	0x3e297b10	0.16550851
48	0x3d6a9aa8	0.057276398
49	0x3d71e40f	0.059055384
50	0x3ded0a44	0.11574224
51	0x3c759a30	0.014990374
52	0xbe0755c6	-0.13216314
53	0xbda46b55	-0.080282845
54	0xbd1476fb	-0.03624628
55	0x3d2aee37	0.041731086
56	0x3d4a6979	0.049416993
57	0xbd1510ef	-0.036393102
58	0xbdb559c9	-0.08855016
59	0xbdd5c0af	-0.10437142
60	0x3dc406d1	0.095716126
61	0xbe3bc1f7	-0.1833571
62	0xba76ed0c	-0.0009419478
63	0x3e2b719f	0.16742562

critic.4.weight f4 [1, 64]
0	0x3b4b9b8e	0.003106806
1	0x3b083ae1	0.0020787048
2	0x3d479dcb	0.048734467
3	0x3d5587d8	0.052131504
4	0x3dfeb8f1	0.124376185
5	0x3d3b942e	0.045795612
6	0x3ae494d7	0.0017439377
7	0x3c5c5cb9	0.013449841
8	0xbc27a45c	-0.010232057
9	0x3cc48ecd	0.023993874
10	0xbda030f2	-0.078218356
11	0x3bae46c6	0.0053184954
12	0xbd5ae965	-0.05344524
13	0xbb8cb6b4	-0.004294241
14	0x3da2b96e	0.07945524
15	0x3d1aa602	0.037755974
16	0xbcb5aa47	-0.022175921
17	0xbd02d8c3	-0.031945
18	0xbdf35b83	-0.11882689
19	0x3dd8cbbb	0.105857335
20	0x3b1e49c7	0.0024152861
21	0x3a5f407f	0.00085163856
22	0xbd4d9221	-0.050188188
23	0x3d04a888	0.032387286
24	0xbda6e58c	-0.08149251
25	0xbd74d388	-0.059772044
26	0x3cd3ad1f	0.025839387
27	0xbd21f359	-0.039538715
28	0x3dcc0b53	0.099630974
29	0xbd83b898	-0.06431693
30	0x3dd29305	0.10281948
31	0xbddab7c9	-0.106795855
32	0x3ca03d1c	0.01956039
33	0x3b744808	0.003727438
34	0x3ba177ec	0.004927626
35	0x3d59fda9	0.053220425
36	0xbc4863b0	-0.012230799
37	0x3dd0c120	0.10193086
38	0x3cf6cd00	0.030127048
39	0x3be0258d	0.006840414
40	0xbd0711cd	-0.03297596
41	0x3d57746b	0.05260126
42	0xbd1d6628	-0.038427502
43	0xbdd47ec0	-0.10375738
44	0xbc8cec1d	-0.017202431
45	0xbd0fc378	-0.035098523
46	0xbc9d3b4f	-0.01919332
47	0xbe018782	-0.12649348
48	0x3bec34cb	0.007208442
49	0x3c64db4a	0.013968298
50	0xbca3d369	-0.01999827
51	0xbcb381af	-0.021912424
52	0x3cd44248	0.025910512
53	0x3ca065b8	0.019579753
54	0xbd5c9cf9	-0.05386064
55	0xbd8f9f2d	-0.07012782
56	0xb90a8ae7	-0.0001321245
57	0x3d010e01	0.031507496
58	0xbcdc3550	-0.02688089
59	0x3c88d7c0	0.01670444
60	0xbc4f2c91	-0.012644903
61	0x3d551396	0.05202063
62	0x3c41eb40	0.011835873
63	0xbd9eebd4	-0.077598244

exp_avg f4 [6]
0	0xbb3e80ff	-0.0029068587
1	0x39e604ba	0.0004387254
2	0xbbbb3f34	-0.0057143215
3	0x3a7ff1bc	0.0009763499
4	0x3b1766b8	0.0023101997
5	0x3bb23e23	0.005439536

exp_avg_sq f4 [6]
0	0x39aa39e2	0.00032468053
1	0x39cbc703	0.00038867453
2	0x3a012f5c	0.00049280166
3	0x3ae8d4a4	0.0017763567
4	0x3a52072f	0.00080119347
5	0x3af32cba	0.0018552758

exp_avg f4 [64, 25]
0	0xb9e5bab1	-0.0004381738
1	0x38d76606	0.00010271002
2	0x390e0509	0.00013544051
3	0x3a1fb4d3	0.00060923136
4	0x36ca4fcc	6.0293587e-06
5	0x3a30a648	0.0006738645
6	0xb78cfec2	-1.6807931e-05
7	0xb92e4b55	-0.00016621996
8	0x380f7347	3.4201217e-05
9	0x383f40f3	4.5598437e-05
10	0x39a187c4	0.00030809466
11	0x38cd473c	9.78843e-05
12	0x378da52d	1.6885426e-05
13	0xb8bca737	-8.995685e-05
14	0x3835430c	4.3216205e-05
15	0xb8a7ad14	-7.995419e-05
16	0xb8613808	-5.3696363e-05
17	0xb8a7ace0	-7.995381e-05
18	0x386138f2	5.3697215e-05
19	0xba7225e3	-0.0009237213
20	0xb8d8e2df	-0.00010341941
21	0x396c83f0	0.00022555864
22	0x3aa2588d	0.0012386009
23	0x3936efe6	0.00017446242
24	0x3ac08137	0.0014686947
25	0x38992523	7.302526e-05
26	0xb95ee403	-0.00021256511
27	0xba501d93	-0.0007938977
28	0xbb1f0337	-0.002426339
29	0xb9fa96d1	-0.00047796083
30	0xba297508	-0.00064642774
31	0x37d61cc8	2.552419e-05
32	0x395b9ea7	0.0002094457
33	0xb6d1d7a0	-6.2537874e-06
34	0xb63e2587	-2.833405e-06
35	0x39357ac5	0.0001730724
36	0x389dcae2	7.524133e-05
37	0xb967354c	-0.00022049731
38	0x37821d97	1.5510986e-05
39	0xb94e9335	-0.0001970053
40	0xba11004c	-0.0005531355
41	0x385e310c	5.2974603e-05
42	0xba11004a	-0.0005531354
43	0xb85e3024	-5.297376e-05
44	0x381f717f	3.8014256e-05
45	0xb98dd9af	-0.00027055803
46	0xbad40f03	-0.001617879
47	0xbb9994aa	-0.0046869116
48	0xba607502	-0.00085623574
49	0xbaa4f381	-0.0012584777
50	0xb8667cfb	-5.495267e-05
51	0x37ace1b6	2.0609103e-05
52	0x392dc50b	0.0001657197
53	0x39f7614d	0.00047184006
54	0x3886193b	6.3943175e-05
55	0x381d6501	3.7525784e-05
56	0x38809378	6.130984e-05
57	0x389f407e	7.5937234e-05
58	0xb911b1ec	-0.00013894559
59	0xb95fec32	-0.00021354927
60	0xb936a226	-0.00017417278
61	0xb97f1840	-0.00024327729
62	0x38071002	3.2201417e-05
63	0xb7a478dd	-1.9606605e-05
64	0xb76044c5	-1.3367452e-05
65	0xb7febf12	-3.0368134e-05
66	0x387e04b1	6.056269e-05
67	0xb7febe72	-3.0367843e-05
68	0xb87e05a1	-6.056356e-05
69	0xb8b63d6c	-8.689877e-05
70	0x3806d168	3.2143114e-05
71	0x393c5c50	0.00017963466
72	0x3a2cfc68	0.0006598891
73	0x389fc0a0	7.61759e-05
74	0xb81ab926	-3.6888894e-05
75	0x3802a26b	3.114568e-05
76	0x3660e528	3.3511988e-06
77	0x3834b03c	4.3079475e-05
78	0xb7df1156	-2.6591744e-05
79	0xb59d4d87	-1.1719975e-06
80	0x36522f01	3.1319798e-06
81	0xb91c76b7	-0.00014921544
82	0xb89590b1	-7.1318245e-05
83	0xb7c86a58	-2.3891378e-05
84	0x38a832c9	8.020324e-05
85	0xb918e714	-0.00014581933
86	0x3902facd	0.00012491197
87	0x379fe421	1.9060508e-05
88	0x37281e43	1.0020626e-05
89	0x381c1cd9	3.7220165e-05
90	0x38158e43	3.565686e-05
91	0xb846f303	-4.74332e-05
92	0x38158e3d	3.5656838e-05
93	0x3846f303	4.74332e-05
94	0xb6e62b8a	-6.8596028e-06
95	0xb8170b27	-3.6011592e-05
96	0x38bc19b5	8.969327e-05
97	0x38847c6e	6.317427e-05
98	0xb8816e08	-6.171694e-05
99	0x389fec5e	7.6257376e-05
100	0x38f5b514	0.00011716239
101	0xb7b58313	-2.1637918e-05
102	0xb4cdfab9	-3.836665e-07
103	0xba74c71a	-0.000933753
104	0x37d4b0f0	2.5354762e-05
105	0xb9a3d6ce	-0.00031249825
106	0x384e269e	4.9150192e-05
107	0x37909ee3	1.7240125e-05
108	0x3848f738	4.7913956e-05
109	0xb7e35afb	-2.7102875e-05
110	0x37bf4307	2.2800186e-05
111	0xb6913355	-4.3273126e-06
112	0xb7ca6260	-2.4126086e-05
113	0x37aa96c6	2.0335789e-05
114	0x37a1519c	1.9230698e-05
115	0xb80d2c2f	-3.365817e-05
116	0x36e51339	6.8269696e-06
117	0xb80d2bb0	-3.3657707e-05
118	0xb6e517ed	-6.827517e-06
119	0x399522ed	0.00028445516
120	0xb879e2a9	-5.957732e-05
121	0xb6d47c3d	-6.3325556e-06
122	0xbae56499	-0.0017501294
123	0x3828c4a8	4.023747e-05
124	0xba2f59b5	-0.00066890876
125	0xb929f4f3	-0.00016208347
126	0xb76619fe	-1.371512e-05
127	0xb9a60e51	-0.00031672654
128	0x39d13bb5	0.00039908072
129	0xb95ad089	-0.00020867785
130	0x398c5568	0.00026766513
131	0xb7fa0848	-2.9806179e-05
132	0xb868a77e	-5.54691e-05
133	0xb896ba1f	-7.187225e-05
134	0xb84f50f6	-4.9428047e-05
135	0x38f7ee23	0.00011822234
136	0xb82077b6	-3.8258462e-05
137	0xb8beac76	-9.092029e-05
138	0xb711420a	-8.658049e-06
139	0xb8ddf260	-0.00010583247
140	0xb971fabe	-0.0002307696
141	0xb64fdb90	-3.0973206e-06
142	0xb971fad6	-0.00023076995
143	0x364fe5c3	3.0979143e-06
144	0xb98a98b5	-0.00026435187
145	0xb8151961	-3.5548004e-05
146	0xba3328d8	-0.00068343943
147	0x3a2a1eb7	0.0006489562
148	0xb9ba1521	-0.00035492427
149	0x3a12a9ee	0.00055947795
150	0xb8a4f1d0	-7.8651705e-05
151	0xb9660cef	-0.00021939327
152	0xba737dde	-0.000928847
153	0xbabf327b	-0.0014587188
154	0xba0d95dc	-0.0005401054
155	0xb9873086	-0.0002578536
156	0xb917e66f	-0.00014486325
157	0x38f7dd60	0.00011819112
158	0xb85fcdbe	-5.3358955e-05
159	0x3877e04c	5.909828e-05
160	0x3917a6f2	0.00014462674
161	0x38cb7483	9.701496e-05
162	0xb9addc29	-0.00033161163
163	0x379b466c	1.8510233e-05
164	0xb9629b2f	-0.0002161085
165	0xba1c1494	-0.0005953994
166	0xb7878eda	-1.6159775e-05
167	0xba1c1490	-0.0005953992
168	0x378791de	1.6161179e-05
169	0xb8436509	-4.658572e-05
170	0xb9a91d5d	-0.0003225607
171	0xbafdc494	-0.0019360953
172	0xbb2d79ec	-0.0026470376
173	0xba820e32	-0.0009922443
174	0xb9ada422	-0.0003311942
175	0x388b8620	6.653019e-05
176	0x37f0e3de	2.8716338e-05
177	0x39d9745e	0.00041476166
178	0xba265dc0	-0.00063463673
179	0x397405a8	0.0002327176
180	0xb9d08439	-0.00039771365
181	0xb8c8aba4	-9.568714e-05
182	0xb80e2d6f	-3.389775e-05
183	0x37aa637f	2.031191e-05
184	0x3833afec	4.2840766e-05
185	0xb88ee9a5	-6.814607e-05
186	0x3887ddca	6.478613e-05
187	0x390bca45	0.00013331424
188	0xb72783f9	-9.984703e-06
189	0x39381b97	0.00017557885
190	0x398caf2c	0.00026833394
191	0x37bcff5e	2.2530261e-05
192	0x398caf2b	0.0002683339
193	0xb7bcff55	-2.2530245e-05
194	0xb7aceca3	-2.061419e-05
195	0x3878e236	5.9338483e-05
196	0x3a638502	0.00086791825
197	0xbaa22124	-0.0012369496
198	0x39f1c7c7	0.00046115948
199	0xba46e5e2	-0.0007587356
200	0x38f33111	0.00011596282
201	0x37fb8fb5	2.998845e-05
202	0xb9b57cf2	-0.00034616102
203	0x3a895aa3	0.0010479282
204	0xb94be2df	-0.00019444105
205	0x39f26785	0.00046234965
206	0xb8cc33a1	-9.737095e-05
207	0xb8ada6ed	-8.280375e-05
208	0x37af4809	2.089517e-05
209	0x398797b5	0.00025862237
210	0x38b58676	8.655798e-05
211	0x394830ed	0.00019091713
212	0xb921d397	-0.0001543298
213	0x3855377b	5.0834828e-05
214	0xb919ebe1	-0.00014679089
215	0xb974c0e8	-0.00023341516
216	0x37f72e6d	2.9466313e-05
217	0xb974c105	-0.00023341559
218	0xb7f72d8b	-2.9465902e-05
219	0x390bfcd7	0.00013350263
220	0x3878ac92	5.9288526e-05
221	0xba382a8a	-0.0007025382
222	0x3b0cf1cc	0.0021506427
223	0xb9a78da2	-0.00031958247
224	0x3a837649	0.0010029759
225	0xb898e28a	-7.290121e-05
226	0xb86fe60e	-5.7196296e-05
227	0xb90edb8b	-0.00013623961
228	0x39e8dc31	0.00044414544
229	0xb90b0366	-0.00013257339
230	0x3975d300	0.00023443624
231	0xb8254bb2	-3.9409562e-05
232	0x391af0c3	0.00014776275
233	0xb90fdf82	-0.00013720806
234	0x386b83df	5.615118e-05
235	0xb84850b3	-4.7758873e-05
236	0x386b904d	5.6162757e-05
237	0xb820f190	-3.8371945e-05
238	0xb73d8fb7	-1.1298739e-05
239	0xb82e4b29	-4.155483e-05
240	0xb8c6cf34	-9.47997e-05
241	0xb72fb8d3	-1.0473846e-05
242	0xb8c6cf38	-9.479973e-05
243	0x372fb5b1	1.0473116e-05
244	0xb95dc103	-0.00021148105
245	0x370a7e21	8.254808e-06
246	0xb9bfb4dd	-0.00036565113
247	0x3a79dfa8	0.00095319236
248	0xb9a642ee	-0.00031711854
249	0x3a13790c	0.00056256424
250	0xb9360c2c	-0.00017361407
251	0xb92b69a9	-0.00016347192
252	0xba381c0e	-0.00070232234
253	0x3a898803	0.0010492805
254	0xb9cd2a10	-0.00039131986
255	0x3a34460b	0.00068768923
