04-goal-pose-l6/logs/rsl_rl/joint_position/2026-02-19_13-16-49/model_3700.pt (torch, 161397 bytes, 36 tensors)

std f4 [6]
000000 30 f4 5f 3d ea ba 52 3d 1f f7 53 3d ea fd e8 3a
       0.054676235 0.051447786 0.051749345 0.0017775868
000010 c7 77 24 3d 85 0f a5 3c
       0.04015329 0.020149002

actor.0.weight f4 [64, 25]
000000 7a 6b 0a 3f 49 8c 72 be 39 ed 09 be b3 37 02 3e
       0.54070246 -0.23686327 -0.134694 0.1271656
000010 ef f5 a2 3e 03 71 89 be 4f 5c 01 be 18 78 0b be
       0.31828257 -0.26844034 -0.12632869 -0.13620031
000020 68 6e c3 bd 83 df 4a 3e 9e ec f8 bd f0 c1 dc bd
       -0.09542543 0.19811825 -0.12154506 -0.10779178
000030 89 5c c4 be f9 00 3c 3f 19 f6 be be 26 dd 65 bd
       -0.3835185 0.73438984 -0.37297133 -0.056119107
000040 79 b3 92 3f 9f 06 fe bd c4 88 b3 bf b1 fd a5 be
       1.1461021 -0.124036066 -1.4026113 -0.32420114
000050 28 3f 9c bd 98 65 36 3e 2c e2 84 3e e5 32 2f 3c
       -0.076292336 0.17812192 0.25953805 0.010693287
000060 82 0d 8e bd 3d e2 f3 be 97 11 59 3d ba 06 fb 3d
       -0.0693617 -0.47633544 0.05299529 0.12257142
000070 b7 88 e7 3e 8b c0 d2 be 16 64 1a be 22 7f 2d 3e
       0.45221493 -0.41162524 -0.15077242 0.16943029
000080 e5 95 d7 3c b8 47 6a bd 1b ee 72 bd 00 37 ab bd
       0.026316592 -0.057197303 -0.059309106 -0.083601
000090 96 54 33 bd af 57 03 be 24 df 11 bf 62 3f 1d bf
       -0.04378184 -0.12826417 -0.5698111 -0.6142484
0000a0 d9 c8 1e be 1f f4 7d bf ee 6f f3 bd b1 31 93 3f
       -0.15506305 -0.99200624 -0.11886583 1.149954
0000b0 2f b4 92 3d 37 e1 94 3e ec 21 15 be e1 dd 3c 3e
       0.071632735 0.29078075 -0.14563721 0.18444015
0000c0 f7 f4 19 3d 5b b5 da bd 91 fe 87 bf 2e bb 12 3e
       0.037587132 -0.10679122 -1.0624563 0.14329216
0000d0 4f cc eb 3d b8 2a 25 3f fa 68 29 bf e2 3e 4f 3f
       0.11513578 0.6451831 -0.66175807 0.80955327
0000e0 64 5a b8 bd 45 75 89 3d 6d 7d 4a 3d e0 89 96 3e
       -0.09001616 0.067118205 0.04943602 0.29402065
0000f0 91 84 8f bd 52 47 7b 3d 81 b2 71 3e e7 2c 69 bf
       -0.07007707 0.061347313 0.2360325 -0.9108414
000100 38 f8 8e 3d 3f 29 8a 3e 69 2a 05 c0 0c 70 35 3d
       0.06980938 0.26984593 -2.0807135 0.04429631
000110 70 12 06 40 af ee fd bd 2d d8 1d be 60 a3 d0 ba
       2.0948753 -0.12399041 -0.15414496 -0.001591783
000120 f6 0e 4c 3e 8b ee 0d be 96 2e 11 3e 44 9a 0a 3f
       0.19927582 -0.13860528 0.14177927 0.5414164
000130 2f b2 05 be 3f 8b e8 be 1f 50 02 bf ce ff 7a be
       -0.13056253 -0.45418736 -0.50903505 -0.24511644
000140 29 c5 0a bf f2 cd 54 3e 6f b2 87 be ef 8d f7 3d
       -0.5420709 0.20781687 -0.26503322 0.120876186
000150 71 30 6d be f5 84 c6 3e 3b bc 04 bd e6 08 e1 bd
       -0.2316301 0.38773313 -0.032406073 -0.10988025
000160 cc 0e c2 3f 88 70 90 bd 5f d3 2d bd bb 51 a0 3f
       1.5160766 -0.07052714 -0.042437907 1.2524942
000170 87 a6 df 3d 3c ea 86 bf f0 3f c6 ba b5 70 8b bd
       0.109204344 -1.0540233 -0.0015125256 -0.068086065
000180 d5 c1 9a bc 91 a4 0d be 1a 86 16 be 2b a9 61 be
       -0.018891254 -0.13832308 -0.14699593 -0.22037189
000190 b8 57 83 3d 84 d3 8a bd 34 8d 1f bf 3e 20 c3 3c
       0.064132154 -0.06778625 -0.62324834 0.023819085
0001a0 89 45 59 bd 89 4d 4b 3c 8d 31 ef 3d e6 b8 b6 3d
       -0.05304483 0.012408623 0.11679373 0.08921985
0001b0 c5 fa 0b be 65 75 80 3e ff 53 0e be c1 4d d8 3c
       -0.1366988 0.25089565 -0.1389923 0.026404263
0001c0 d7 72 73 be d1 12 06 40 0f fe 73 be ff e3 95 bd
       -0.23774277 2.0948985 -0.23827384 -0.073188774
0001d0 4c 71 0c 3f e9 12 03 be 4e 6d 09 bf 8f 9b 10 bd
       0.5486038 -0.12800182 -0.5368241 -0.035304602
0001e0 1f ba a8 3d 28 95 45 3d ae 4e 92 3d b9 d7 fa 3c
       0.08238625 0.04823795 0.07143913 0.030620443
0001f0 91 b3 2e 3e 2d 93 a9 3d 7f 2f ad be 25 15 00 3f
       0.17060687 0.08280025 -0.338253 0.50032264
000200 5b a3 24 3e 68 39 f3 bb ca 8b b8 be ef 7e df be
       0.1607794 -0.007422615 -0.3604415 -0.4365153
000210 1d 03 91 3c c8 79 c9 bd 76 2d 86 3e ab e4 53 3d
       0.01770168 -0.09837681 0.2620656 0.051731747
000220 be aa 46 3e d6 0f e0 bd 4b fe ab bf 62 e9 8e 3d
       0.1940107 -0.109405205 -1.3436979 0.06978108
000230 eb dc 2e 3e 2d 8a 9a bd a3 38 1f 3e 4c c5 28 3e
       0.17076461 -0.07545886 0.15548949 0.16481513
000240 8e fc ab bd 16 4c b7 3a 5b 28 1c be d5 98 a9 bd
       -0.0839778 0.0013984467 -0.1524977 -0.082811035
000250 bd f7 c9 bd 18 5b af bb e1 2f 40 be b3 33 4b 3e
       -0.098617055 -0.0053514354 -0.18768264 0.1984394
000260 73 49 6c 3f c1 ce 6b 3e 37 cb 82 be a5 9c c9 3e
       0.92299575 0.23028089 -0.25545666 0.39377323
000270 93 25 c8 be 6b a4 3a bd 94 50 59 bd 09 1d a4 3d
       -0.39091167 -0.045566957 -0.05305536 0.080133505
000280 8e 08 5b 3d ce d7 2b bd 89 a8 0a be 60 66 db bf
       0.053474955 -0.041953854 -0.13540854 -1.7140617
000290 20 e9 c5 be 12 10 0e 3e 29 af ec 3d ed b0 5f 3d
       -0.38654423 0.13873318 0.11556847 0.05461209
0002a0 c8 6e b8 bd 3f a5 98 3d 69 ae 0c 3f ce 27 a8 bb
       -0.09005505 0.07453393 0.5495363 -0.005131698
0002b0 16 34 1f bd a5 e7 fc 3c 40 d0 af be d0 93 83 bd
       -0.038868032 0.030872175 -0.3433857 -0.06424677
0002c0 44 10 ed 3e 5a 75 7e be 95 82 a1 be 3b dd 7e bd
       0.46301472 -0.24849454 -0.3154494 -0.0622227
0002d0 29 fa a3 be 5d 35 2b be b8 3b 66 be 6c 1c 1a 3d
       -0.32026795 -0.16719575 -0.22483718 0.03762476
0002e0 75 6f b6 bd 1c 5c e6 3d 6b fe fd bc 55 cf 92 be
       -0.089079775 0.11248037 -0.031005105 -0.28673807
0002f0 ca 43 d6 3e 1a 0f db bd e9 e5 16 bd 37 02 8e 3f
       0.41848594 -0.1069624 -0.036840353 1.1094426
000300 25 98 36 be ec 6e 5a bf ff 44 54 3e 6a ea 3f be
       -0.17831476 -0.85325503 0.20729445 -0.18741766
000310 18 99 19 be a8 e3 4a be 9e 9d 69 bd 81 e6 02 be
       -0.14999807 -0.19813406 -0.05703508 -0.12783243
000320 8a 65 e8 bd 33 5b a0 be 0b dd 12 3e e0 6a cc bd
       -0.11347492 -0.3131958 0.14342134 -0.09981322
000330 3e aa 0f bc b2 ad de be 8f 5f ad 3d 99 5e 17 bd
       -0.008768616 -0.43491894 0.08465492 -0.03695545
000340 e8 2d 1a be 6f b2 71 bd 61 ff ca 3d 0c 4d de 3d
       -0.15056574 -0.05900806 0.09911991 0.10854539
000350 f5 dc d7 bd 4f 04 93 bf 5d b6 73 be 21 61 3a bd
       -0.10540191 -1.148569 -0.23800035 -0.045502786
000360 41 29 93 3f 8b f1 5a 3e 29 0a 92 bf d6 d6 5f be
       1.1496965 0.21381204 -1.1409351 -0.21859297
000370 c7 94 03 be 3c 85 25 3d 70 7d f4 3d 5d 50 ca be
       -0.12849723 0.040410265 0.11937988 -0.39514437
000380 78 6e 7c bd e7 10 60 3e 47 89 98 be 12 61 f8 be
       -0.06162879 0.21881448 -0.29792234 -0.4851156
000390 ea 6d 2c 3d f7 8a 4b bf 2f fa 25 3e d1 4d f8 be
       0.04209701 -0.7950892 0.16208719 -0.4849687
0003a0 b0 98 87 3e 0c 72 a0 3d d5 a3 0e 3e b4 8b 08 3c
       0.2648368 0.07834253 0.13929684 0.008334089
0003b0 ff 28 2b 3d 18 8c 8b 3c 02 aa 04 3f 90 64 2a bd
       0.041787144 0.017034575 0.5182191 -0.04159981
0003c0 64 95 32 be 7e a4 e9 3e d4 90 9f bd 3d 42 b3 be
       -0.174398 0.4563331 -0.07791296 -0.35011473
0003d0 5f f9 16 3e e6 7c f5 bd ea 24 40 3e 5b fd 4b be
       0.14743565 -0.11986713 0.18764082 -0.19920866
0003e0 ba f4 93 3e c1 57 76 3c ac 28 65 bd b7 fd 6c 3e
       0.2889765 0.015035571 -0.05594699 0.2314366
0003f0 67 c0 af 3c 87 21 84 be f7 f2 03 be d9 47 8e be
       0.02145405 -0.2580683 -0.12885652 -0.2778919

actor.0.bias f4 [64]
000000 e4 e8 96 be a6 d2 1b be 4b 51 0d 3e bc b2 ca 3d
       -0.29474556 -0.15217075 0.13800542 0.09897372
000010 14 65 7e 3c 5c b1 92 3d fd a9 f7 bd e9 84 cb bd
       0.015527029 0.07162735 -0.120929696 -0.0993746
000020 e9 b9 d0 3d ed 08 2e bd ee 21 99 be 6d 7d 3f bd
       0.101917095 -0.04248898 -0.299087 -0.046750475
000030 03 5b 5b be 9f 9c 0d 3d 86 83 f1 bc 38 a5 bd bd
       -0.21421437 0.034573194 -0.02948166 -0.092600286
000040 9f 6b 48 3d ea a6 8b be 13 fa be bc ed 59 cf bd
       0.04893076 -0.27275783 -0.023312604 -0.10124574
000050 47 da f8 bd 7a 16 fe 3c 79 70 82 be 3c 7b 95 be
       -0.12151008 0.031016577 -0.25476435 -0.29195583
000060 3a 14 7b bd f8 9c 81 3e 55 84 3f be 80 75 48 3e
       -0.061298586 0.2531507 -0.18702824 0.19576073
000070 c4 7f 7b bd 56 6c d0 bd 71 e4 16 be d3 1f b8 be
       -0.061401144 -0.101769134 -0.14735581 -0.3596178
000080 a5 7e f3 bd 3a fd 7c be 11 1c 9f 3c 2e 3d ca be
       -0.1188939 -0.24705973 0.019422563 -0.394998
000090 2c 0b f3 bc 5c 8a 8b be 5c f6 6b 3e cc c0 c6 3d
       -0.029668413 -0.27253997 0.23043197 0.09704742
0000a0 e9 80 83 bc b0 46 47 be 22 aa 0d be 9d 35 a9 3d
       -0.01605268 -0.19460559 -0.13834432 0.08262179
0000b0 6a b9 6b bd eb f5 72 be 26 88 83 bc b8 bd 4b be
       -0.05754987 -0.23726623 -0.016056132 -0.1989659
0000c0 25 65 2c 3d 35 76 3d bd 25 cb 97 be 71 3a 85 be
       0.042088646 -0.04625531 -0.29647174 -0.2602115
0000d0 7a 39 4a be 57 d7 8f 3d 0c 3f b7 3d 44 07 55 be
       -0.19748488 0.07023495 0.08947572 -0.20803553
0000e0 f4 c9 e8 3d 4a 42 9f 3e 31 62 95 3e f7 3e e4 bd
       0.113666445 0.31105262 0.29176477 -0.11144822
0000f0 e8 f3 42 bd e2 f9 eb 3d bd aa a3 be 5a e6 da be
       -0.04759589 0.11522271 -0.319662 -0.4275387

actor.2.weight f4 [64, 64]
000000 98 2a 37 be ca d7 84 3d 5b d6 ec bd 15 64 1a 3b
       -0.17887342 0.06486471 -0.115643226 0.0023558189
000010 8c 0b 82 bc 19 27 69 be 17 79 5e be 79 76 6a bd
       -0.015874647 -0.22768821 -0.2172588 -0.05724189
000020 fb 47 83 3d 79 ca 03 be 9e 05 d3 3d f8 4a 07 3c
       0.064102136 -0.12870206 0.10303806 0.00825762
000030 dc 17 7b 3d 05 ff 92 3c be 76 8b bd 1a 7b 3e be
       0.06130205 0.017943868 -0.06809758 -0.18601647
000040 51 7f 84 bd 89 76 55 bd 2d bb 81 3d ee ab cb 3d
       -0.06469596 -0.052114997 0.06334529 0.09944902
000050 f6 48 52 3e af 6e d3 3c 07 03 e4 3d fc d1 7c bd
       0.20535645 0.025809614 0.1113339 -0.061723694
000060 83 8d 36 3c 23 24 49 be f3 8f 16 3a 94 ce 04 bc
       0.011142137 -0.19642691 0.0005743496 -0.008105893
000070 b9 8c a8 3c 7a 09 ae 3c bc 62 27 be 88 84 6f 3d
       0.020574914 0.021244753 -0.16346258 0.058476
000080 22 3c eb 3c 1f 4f 0e be f2 2d b9 bd b9 2d 6f 3e
       0.028715197 -0.1389737 -0.090419665 0.23357286
000090 b3 f5 80 bd 03 1c 21 bd 47 2d 36 be f7 3c 77 bd
       -0.062968634 -0.039333355 -0.1779071 -0.060360875
0000a0 3a c5 a6 3d e4 e7 9c bc 82 ae 8c 3d f1 7a ce bd
       0.08143087 -0.019153543 0.06869222 -0.10082043
0000b0 ab 3d fa 3d 44 b7 9a 3d a4 dd 7c be e1 0f 02 bd
       0.122187935 0.075544864 -0.24693924 -0.031753425
0000c0 b9 94 17 3e bf e1 e9 bd 6f c6 20 3d a6 87 32 bd
       0.14802827 -0.11420011 0.03925174 -0.043586396
0000d0 f4 b4 1f 3e 8b 2c 02 bd 6c a8 d8 bd 00 52 b1 bd
       0.15596372 -0.03178076 -0.10578999 -0.086582184
0000e0 72 09 d1 bd 15 57 2b be 05 3f 14 be c0 07 3d 3e
       -0.1020688 -0.16732438 -0.14477165 0.18459988
0000f0 24 6b c1 bd 72 d6 59 bd fb 63 b8 3d 35 15 c2 bd
       -0.094442636 -0.053183027 0.09003445 -0.09476701
000100 27 cb 04 be d2 0d 37 be 37 ef 90 3d 90 59 33 3d
       -0.12968121 -0.17876366 0.070768766 0.043786585
000110 c6 8d a8 bd da 22 d4 bc b0 5b 82 bd 35 42 4a 3e
       -0.08230166 -0.025895525 -0.06365144 0.19751818
000120 24 ae ec bd ec df f6 3d f8 71 ce 3b 1b 12 04 3a
       -0.11556652 0.120544285 0.006300207 0.00050380983
000130 fd df 14 3e 5f 30 f8 3d 75 6e c6 3d a2 0a 8c bc
       0.1453857 0.12118601 0.09689037 -0.017094914
000140 8d 9b 49 3e 91 1d 02 bd 5e 4b f4 3c 64 bb 4b 3d
       0.19688244 -0.031766478 0.029821094 0.049739257
000150 ba d0 a6 bd 13 6e fa bb 0e 22 4c be 61 73 e9 bd
       -0.0814528 -0.0076425164 -0.19934866 -0.1139896
000160 d5 40 f2 bc 97 5d 07 3e 27 3b 2a 3e 45 36 f3 3d
       -0.02957193 0.13219295 0.16624127 0.118755855
000170 7b 81 44 3e 11 eb ca bd e1 6d 65 3e 33 62 7a 3e
       0.19190018 -0.099081166 0.22405197 0.24451523
000180 48 15 e2 3d 30 aa 9d bd ea a2 fd bc 03 a8 92 be
       0.11039215 -0.07698476 -0.030961473 -0.28643808
000190 ec 92 cc bd 77 94 17 3d cc 59 97 bb 2a 6f 8b bc
       -0.099889606 0.03700682 -0.004618859 -0.01702078
0001a0 9c e6 84 be 0f 9d 92 3d 3c 6d ee 3c 7f 8b c6 3d
       -0.2595719 0.07158863 0.029104821 0.096945755
0001b0 18 79 83 be 03 ff 4f 3b f1 c0 39 3e 8b 2f e4 3d
       -0.25678325 0.0031737692 0.18140008 0.111418806
0001c0 5a 2d 9c 3d 8c b0 1e be 8e d6 86 3b 1f a6 b2 bc
       0.076258376 -0.15497035 0.0041149324 -0.021807728
0001d0 59 13 bf bc b8 44 e6 bd 47 41 a9 bd 9d fd df bd
       -0.023324655 -0.11243576 -0.08264404 -0.10937045
0001e0 13 b9 0f be 13 bb d4 3d fc cb 7a bd d8 1f 41 bd
       -0.14035444 0.10387244 -0.06122969 -0.04714951
0001f0 7f f7 3b be 82 a0 59 3d c0 42 00 be a1 27 2f 3e
       -0.18356131 0.053131588 -0.12525463 0.17104961
000200 b0 8e 26 3d 76 c2 05 be 00 87 1b bd db 5e ab bd
       0.04066342 -0.13062462 -0.037970543 -0.083677016
000210 a9 8a 00 be d0 0c 91 be fe df c2 bc 00 6b 9d 3b
       -0.12552895 -0.28330088 -0.023788448 0.004804015
000220 72 fc 3e be 80 d0 17 bc 12 0e 85 3d e6 5d 01 3e
       -0.18650988 -0.009266019 0.06496824 0.12633476
000230 46 c9 9b bd 79 15 32 be 54 e0 13 3d 85 61 c6 3d
       -0.07606749 -0.17391004 0.036102608 0.09686569
000240 20 0b 0b be b0 f2 15 3d 07 4a 4b be 4c 83 3d 3e
       -0.13578463 0.036608398 -0.19852458 0.18507117
000250 a5 97 ac 3c ac 65 0e be 91 7e bf bd fa ef 77 bc
       0.021068403 -0.13905972 -0.093503125 -0.015132898
000260 13 89 4b be c4 7f 5c be bd a4 75 3c 59 05 23 3e
       -0.19876508 -0.21533114 0.01499289 0.15920009
000270 df bb 09 3f a9 54 0f be 36 20 09 be f9 1e c9 bc
       0.53802294 -0.13997139 -0.13391194 -0.024550902
000280 1e ed 3b be 7e 66 19 bd 59 aa 24 be 26 fb 75 3e
       -0.18352172 -0.03745126 -0.16080607 0.24021587
000290 2d 8d 37 be 76 1f f4 bc d5 f8 c4 3d bf 84 78 be
       -0.17924948 -0.029800158 0.096177734 -0.24269389
0002a0 76 5f 64 bd 9a c9 f0 3d 44 77 c1 bd 1d 70 23 bd
       -0.0557551 0.117572024 -0.09446576 -0.03990184
0002b0 84 08 cf 3c 7b 58 08 3f 20 86 76 be 0f 7c be bd
       0.025272615 0.5326001 -0.24074602 -0.09301006
0002c0 27 fb d5 bd 46 8e 12 be 30 98 1e bd cf ee d4 3d
       -0.10448294 -0.14312086 -0.038719356 0.103971116
0002d0 97 60 d1 3d e3 50 42 3e b2 f6 4c 3e b6 14 b2 bb
       0.10223501 0.18976168 0.20015982 -0.005434598
0002e0 48 e5 00 be 00 b2 46 3c db 1d d3 3d bb bf 0e 3e
       -0.12587464 0.012127399 0.10308429 0.13940327
0002f0 65 d0 74 be 85 79 c5 3d 57 df c0 3e c8 4e 48 3e
       -0.23907621 0.09642319 0.37670395 0.19561303
000300 9d 15 ca bd 11 5e e6 3d 11 ea 5f bd e3 d1 dc bc
       -0.09867404 0.112484105 -0.054666582 -0.02695555
000310 a4 5a a4 3d c5 c7 28 bd d4 fc 36 3e 53 6d de 3c
       0.08025101 -0.04120614 0.17869884 0.02715174
000320 93 8f 7e bd a2 a5 b3 bd e2 1c 09 3c 6e 56 10 3d
       -0.06214864 -0.08771826 0.008368703 0.035238676
000330 bb 12 db 3d c4 40 45 be 8f f7 ee 3c 5d a5 4b bb
       0.10696932 -0.19262987 0.02917078 -0.0031073906
000340 99 77 49 be a2 71 27 be 98 b0 10 be 1e 7e a7 3d
       -0.19674529 -0.16351941 -0.14129865 0.08178352
000350 98 78 e8 bc a1 82 d7 bd ee 8b 50 3e 45 8d 10 be
       -0.028377816 -0.10522962 0.20365879 -0.1411639
000360 73 41 16 be f3 09 c9 be a5 60 14 3d 1b ed 8c bc
       -0.14673404 -0.39265403 0.03622498 -0.017202904
000370 79 d3 5a bd 34 33 34 bb 3e 35 49 be 95 ad 08 3d
       -0.053424332 -0.002749634 -0.19649217 0.033368666
000380 70 c9 b6 3d f9 82 69 bd 06 4b 05 3e ce e1 9c 3e
       0.0892514 -0.05700967 0.130169 0.30641025
000390 16 a6 a1 3c 51 1b 14 bd 8f 20 6f 3e 5b 72 89 be
       0.019732516 -0.036158863 0.23352264 -0.2684506
0003a0 bd 71 dc 3d 1e 2a e0 3d 10 02 c4 bd bd 2a 89 bd
       0.10763881 0.10945533 -0.09570706 -0.06697605
0003b0 99 9b 19 3c aa d6 db 3d bc e9 18 be 02 e2 01 be
       0.009375476 0.10734303 -0.14932913 -0.12683871
0003c0 38 2d 29 bd 9d e1 ad 3d 39 a7 4a 3e e4 d8 4a 3d
       -0.04130289 0.08490298 0.19790353 0.04952325
0003d0 26 d0 ec 3c db 00 38 3d 0b 28 2d 3b f1 3e 08 3e
       0.028907847 0.04492269 0.0026421573 0.1330526
0003e0 e3 af ab 3d 71 f3 ae 3c ff 28 9c 3d 87 e0 31 be
       0.08383157 0.021356316 0.07625007 -0.17370807
0003f0 0f 5c 2a be 74 b1 a7 bd 32 6a 40 3e 24 ca 12 3e
       -0.1663668 -0.081881434 0.1879051 0.14334923

actor.2.bias f4 [64]
000000 8f 86 38 be b4 a2 bc 3d 0b 00 00 be db ab 44 be
       -0.1802008 0.09210721 -0.12500016 -0.19206183
000010 6d a5 ee bd 09 5d d3 bd 99 0f fe bd e7 dc 8a bd
       -0.11652646 -0.103204794 -0.12405319 -0.06780415
000020 c2 5d fd 3d 62 03 a7 3c f9 ff 2b bd 03 42 1b be
       0.123713985 0.020387355 -0.04199216 -0.151619
000030 f5 27 76 be 2d cd 74 3d 33 36 a4 bd dd 11 1a be
       -0.2403868 0.059765983 -0.0801815 -0.15045877
000040 c7 94 6c be c0 c9 8e 3c d5 c1 d1 bd 36 7e 7d 3c
       -0.23103629 0.017430186 -0.10242049 0.015471986
000050 bf 7e 24 be 55 a6 5c 3e 67 22 71 be cb a2 c1 bd
       -0.16063975 0.21547826 -0.2354828 -0.094548784
000060 d2 23 33 be c1 b2 09 be e1 b6 f5 3a 7d 60 dd bd
       -0.17494133 -0.13447095 0.0018746519 -0.10809419
000070 79 c5 d8 bc b3 7b 53 3d 6f 48 14 bd 3c 15 07 3e
       -0.02646135 0.05163164 -0.03620189 0.13191694
000080 bf e4 35 be 1e 02 70 be 5e e5 75 be 17 aa 7c 3c
       -0.17763041 -0.23438308 -0.24013278 0.015421412
000090 2e de d7 be 6a 5e f2 3c 1d 9f 2d be 07 01 4a bd
       -0.42161697 0.029586036 -0.16955228 -0.049317386
0000a0 b8 9d ff bd 62 b8 a3 be d6 38 22 be bb d9 9f 3d
       -0.12481254 -0.3197661 -0.15841994 0.07805201
0000b0 5b f0 02 be c9 5e 18 3e ae fc 71 be 71 62 9d be
       -0.12787001 0.14879908 -0.23631546 -0.30739167
0000c0 1b 43 ed 3c 71 93 49 be 33 b3 68 be 36 75 1d bd
       0.028962662 -0.1968515 -0.22724609 -0.03844186
0000d0 5a 5e 13 bb 17 a9 3e 3e 04 1a c4 bd 9f 88 4b be
       -0.0022486658 0.1861919 -0.095752746 -0.19876336
0000e0 a4 c2 3b 3d 14 85 e5 bc 5e 2a 04 3e ca 39 4b 3c
       0.04583992 -0.028017558 0.12906787 0.012403915
0000f0 4c dc 9c be ee ab d5 3c d2 01 ab bc b9 6a 3d be
       -0.30636823 0.026082959 -0.020874891 -0.18497743

actor.4.weight f4 [6, 64]
000000 43 13 90 3d 58 6c 8b bd 17 d6 68 bd a8 5d 3a bd
       0.07034924 -0.06807774 -0.056844797 -0.045499474
000010 46 86 3a bd 01 81 c2 3d 3c af b9 3d 3a 78 2a bd
       -0.04553821 0.09497262 0.090666264 -0.041618563
000020 ef f9 8f 3d 45 e2 b3 bd 1f af 11 be fd 50 85 be
       0.07030093 -0.08783392 -0.1422696 -0.26038352
000030 cf 99 11 3d 80 9d ea bd 13 7e 05 bd 47 10 ad bd
       0.035547074 -0.11455822 -0.032590937 -0.0845037
000040 49 33 4a 3d 70 76 a8 3d 82 82 b6 3c 3e d9 f2 3c
       0.049365316 0.08225715 0.022279028 0.029644605
000050 e3 3d 4b bd 1f 1c 9b bd b3 79 29 3d f7 65 e1 3c
       -0.049619567 -0.07573723 0.041375827 0.027514441
000060 73 56 f1 3d af d5 96 bd a8 6d 25 bd 6e af 8d 3b
       0.11784067 -0.07364976 -0.04038778 0.0043238914
000070 81 2c 83 3c 07 32 b2 bd 95 7c 10 be bd 02 f4 bc
       0.016012432 -0.08700948 -0.14110024 -0.029786462
000080 d6 c8 fe 3c e3 24 39 3e ae cd 49 3d fc ea 99 3d
       0.031101625 0.18080477 0.049268417 0.07515523
000090 59 27 a7 3d e6 59 05 bd 10 ec 24 3d 67 3e 2c be
       0.08161802 -0.032556437 0.04026419 -0.1682068
0000a0 48 89 d7 bd f1 36 8f 3d c0 ea d0 bd 98 b2 19 3e
       -0.10524231 0.06992901 -0.10201025 0.15009534
0000b0 ce ca 13 3d c7 12 01 be 82 d9 6b 3d 21 e3 cf bc
       0.03608208 -0.12604819 0.05758048 -0.025376858
0000c0 7a 65 e1 bd 9f ce 1f 3e 04 d8 c8 3c eb ba ba 3d
       -0.11005683 0.15606163 0.024517067 0.09117683
0000d0 43 57 0f be e2 ab 47 bd 8d 69 19 be 93 29 d3 3c
       -0.13998131 -0.048747905 -0.1498167 0.02577666
0000e0 47 92 05 3e 15 18 1e 3d 09 1f f2 3d 2f 5a 00 3e
       0.13044082 0.038597185 0.11822326 0.12534402
0000f0 07 ca 0b bb b1 f4 73 be a6 ad 9c 3d 3b b4 0b 3d
       -0.0021330134 -0.23823811 0.07650308 0.034107428
000100 c3 e2 c4 3c 6a a3 e8 bd 31 dc 1f 3e bc b7 e1 3d
       0.02403391 -0.11359294 0.1561134 0.11021373
000110 de 87 13 3d 52 64 18 3d 76 f0 d1 3d 38 77 5b 3c
       0.036018245 0.037205048 0.102509424 0.013395123
000120 50 05 42 3d 63 10 e4 bd 02 7c b4 bc 09 c2 03 be
       0.047368348 -0.11135938 -0.022031788 -0.12866987
000130 f4 6e 97 bd 23 bc 16 3c be 93 cb bd cd 58 82 3d
       -0.073942095 0.009200129 -0.09940289 0.06364594
000140 96 cf e3 3c d8 2a db 3c 4e 26 d1 3d 6a bd 07 be
       0.027808946 0.026753828 0.10212384 -0.1325585
000150 98 ac b6 3c 8d c9 b1 bd 18 42 08 bd 49 0f 08 3e
       0.022299096 -0.08681021 -0.033266157 0.13287081
000160 21 aa e1 bd 4e 96 38 be 7a 9d 24 be c0 e0 9f bd
       -0.11018778 -0.18026087 -0.16075698 -0.078065395
000170 7f 9f fc ba 19 91 9f 3b ae de fb 3c 50 71 45 bd
       -0.0019273608 0.004869592 0.03074583 -0.048203766
000180 1c 64 e0 3d 99 30 65 3d cd ef a0 bc 3b d3 2d bd
       0.10956594 0.05595455 -0.019645596 -0.042437773
000190 38 0c c9 3d 87 5b 04 3e 46 07 5c bd 01 14 fc 3c
       0.09816784 0.1292554 -0.053717874 0.030771257
0001a0 81 0c be 3c db 8e 10 3e 44 4b ce 3d fa c3 5a be
       0.023199322 0.14116995 0.100729495 -0.21363822
0001b0 81 a0 11 3e 2d 75 e2 bd 53 c5 38 3d f8 95 2b 3d
       0.14221384 -0.11057506 0.045110058 0.04189107
0001c0 84 11 91 3d 06 5c 07 3e 17 e7 7b 3d cc 1c ac 3d
       0.07083419 0.13218698 0.06149968 0.0840393
0001d0 bb bc a7 be ac b4 a6 bd 56 5a 5d 39 17 46 1e bd
       -0.32761177 -0.08139929 0.00021109855 -0.03864106
0001e0 85 58 05 3d af c1 8d bd 95 78 65 bd d1 52 0d 3d
       0.032555122 -0.06921708 -0.0560232 0.034502808
0001f0 9f 1a b0 3d 0b 14 20 be 37 13 77 bd b5 e0 e4 bc
       0.085988276 -0.15632646 -0.06032106 -0.02793918
000200 75 44 11 3c 97 43 6d 3d a0 da 24 3d 3c fe ed bc
       0.008866419 0.057925787 0.04024756 -0.029051892
000210 17 9a 3b bd 00 05 15 be 7b 9b f6 bc 81 5b f0 bd
       -0.04580125 -0.14552689 -0.030103436 -0.11736203
000220 c9 f6 1f 3e 2d b3 3e 3d 1e d9 5c be b9 6f 18 bc
       0.15621485 0.046557594 -0.21567199 -0.0093039805
000230 44 71 cf bd 89 69 18 bd 1b 2c 73 3c 04 49 d5 3a
       -0.101290256 -0.03721002 0.0148420585 0.0016272371
000240 84 db e8 bd 0a f5 c0 3c a2 d1 bc 3d 39 99 e7 bb
       -0.11369994 0.023554344 0.09219672 -0.007067826
000250 ad b6 00 be 4e 9f a7 3d 62 bc 24 3c a1 3e 0b 3c
       -0.12569685 0.08184682 0.01005468 0.008498819
000260 16 01 04 be d2 ee 09 3d e1 71 a0 3d b6 bf b2 3c
       -0.12891039 0.033675022 0.07834221 0.02181993
000270 6e 22 31 3d 41 d1 55 bd 4d 3f dd 3d a4 9a 9d 3c
       0.043245725 -0.052201513 0.10803089 0.019238777
000280 8a 2e 38 be 95 11 45 be e7 bd aa bd 1a 5f 2c 3d
       -0.17986503 -0.19244988 -0.08337002 0.042082883
000290 6b 96 1e be 4b 0b a3 bd cf d3 1f be e2 87 61 3c
       -0.15487067 -0.07961138 -0.15608142 0.013765307
0002a0 ac c3 6d bd 82 1f 28 be 7d d8 cd 3d 64 82 0c 3e
       -0.058047935 -0.1641827 0.100510575 0.13721615
0002b0 04 7f a8 3d ee ee 45 bb cf c5 8e bc d1 f3 a8 bd
       0.08227351 -0.0030202228 -0.017428307 -0.08249629
0002c0 02 66 7b 3d 6a 9e 4e 3d 60 f3 c5 bd af 39 28 3d
       0.06137658 0.050444044 -0.09665561 0.041070636
0002d0 aa 9a b3 bc 13 c7 06 3d 02 dd e6 ba 98 9e fc bc
       -0.021924336 0.032904696 -0.0017613473 -0.030837342
0002e0 02 b8 0a 3e a0 a3 3e 3d ce 8e 83 3d 76 7a dc bc
       0.13546756 0.046542764 0.06423722 -0.026913863
0002f0 0f 12 94 bd 54 a1 69 3d 2a 8a 6f bb bf ef 0a bd
       -0.07230007 0.05703862 -0.0036550858 -0.033920046
000300 5c 63 97 bd b5 99 fc bc 92 76 91 bd dd 75 70 3a
       -0.07391998 -0.030835012 -0.071026936 0.00091728364
000310 22 21 03 be 8a 93 da 3a fe d1 64 be d2 4a c9 bd
       -0.12805608 0.001667605 -0.2234573 -0.09828724
000320 33 87 ab bd 11 ac f7 bd 6d db ac bd 67 a6 be bd
       -0.083753966 -0.12093366 -0.0844029 -0.093090825
000330 97 e1 f1 bd 77 fd 58 be e1 65 2f be 90 66 08 bc
       -0.11810606 -0.21190439 -0.17128707 -0.008325234
000340 a1 a3 ef bd ef b5 94 be 13 1d 5a bd b2 38 00 be
       -0.117011316 -0.29045054 -0.053250384 -0.12521628
000350 fc 27 0b be ab 45 a5 bd d7 28 ea bc a9 cd 23 be
       -0.13589472 -0.08069929 -0.028583927 -0.15996422
000360 54 67 70 be 35 d1 39 bd 54 69 cf bd 4f c7 d5 3c
       -0.23476917 -0.04536553 -0.101275116 0.026096014
000370 81 5e 46 bc d2 12 72 be b3 11 d4 bd c3 ea d9 bc
       -0.012107492 -0.23639992 -0.10354938 -0.0266012
000380 d2 37 58 3d ff f6 0e 3d ac 70 c3 bd ec 8a 40 be
       0.05278761 0.034903523 -0.09542975 -0.18802994
000390 7b 4f 1d be 33 fa 4c 3e 88 3d 9b bd a1 50 a9 3d
       -0.1536235 0.20017318 -0.075800955 0.08267332
0003a0 29 8c c7 bd f2 5c 57 be 49 74 9f 3d bf 4a f7 3d
       -0.0974353 -0.2103155 0.077858515 0.120748036
0003b0 9e 8d ef 3d 79 cc c5 3b cf 1e e8 bd 15 92 84 bd
       0.11696933 0.006036338 -0.11334001 -0.064731754
0003c0 9d 36 b3 bc e1 42 53 3e ef 28 08 be c9 af fd 3c
       -0.021876628 0.20630981 -0.13296865 0.03096761
0003d0 bf 53 94 bd 97 7b 4d 3d c6 9e 02 be a7 11 bb bd
       -0.07242536 0.050166693 -0.1275588 -0.09134226
0003e0 cf 8e 16 bd a4 63 93 bd 3b b0 97 3c 1c 51 6b be
       -0.036757287 -0.07196739 0.01851665 -0.2298016
0003f0 e9 f0 0f be af 08 65 bc 0d 7c 48 bd ff a5 b8 bd
       -0.14056744 -0.013979121 -0.04894643 -0.09016036

actor.4.bias f4 [6]
000000 fc 87 31 3d 07 e6 1b bd a1 7d 96 3e 3b eb 3d 3e
       0.043342575 -0.038061168 0.29392722 0.18546765
000010 71 24 93 3c 58 5a 5e 3e
       0.017961713 0.21714151

critic.0.weight f4 [64, 25]
000000 bc 8d 61 3d 4d a9 85 3d 50 1e 16 3d a8 7e 7e bd
       0.05506681 0.06526432 0.036650002 -0.062132508
000010 32 87 f5 3c 34 46 7d bd e0 d4 e4 bc 60 a6 1e be
       0.029971693 -0.06183453 -0.027933538 -0.15493155
000020 bc cc b6 bb 0f 18 e7 3d 78 3c ca 3d db 68 eb 3d
       -0.0055786055 0.11283886 0.09874815 0.11494609
000030 b9 58 c2 be 58 7c c4 bf 34 fa 35 3f 97 c1 2e 3c
       -0.37958315 -1.5350447 0.71084905 0.010666273
000040 cc a4 22 3e aa 32 d3 bd 0f 2a ef 3c 68 32 80 bd
       0.15883178 -0.10312398 0.02919486 -0.06259614
000050 a2 e1 33 3d d0 38 fb bd f1 29 e2 3d 6b 42 8b 3d
       0.043916352 -0.122666955 0.11043156 0.067997776
000060 e0 7a c6 bd dd 98 86 be 48 8d 33 be 35 be bc bd
       -0.09691405 -0.262885 -0.17534363 -0.092159666
000070 76 56 fe 3d a7 5c a1 bb e6 b9 ec bb 2e b9 8f bd
       0.12418835 -0.004924375 -0.0072243093 -0.07017742
000080 cc 0e e6 bc 63 a2 6e 3b 93 15 61 3d 3d be 2c 3c
       -0.028083228 0.0036412708 0.054952215 0.010543403
000090 f8 69 d7 3c 1b eb 1c 3e 6b a0 85 40 27 56 8e be
       0.026295647 0.1532406 4.1758323 -0.27800104
0000a0 64 59 ec bd 3c f2 d8 3f 43 0b c2 bc 57 8d ec bf
       -0.115404874 1.6948924 -0.02368701 -1.8480633
0000b0 3a ab 2b 3e b4 6e 60 3d 7a 5e e5 3d 3b 95 1a bd
       0.16764536 0.054793075 0.111996606 -0.037739974
0000c0 25 46 b8 bc d1 55 01 bc 6c 3e 35 3e 45 bf 54 3c
       -0.022494385 -0.007893995 0.17699593 0.012985055
0000d0 7b 93 b1 3d ea c8 85 be c7 3a 88 bd 02 42 b5 3d
       0.08670708 -0.26129848 -0.06651836 0.088504806
0000e0 ae 7c e4 bb e8 0a 96 bd 37 c1 49 3d 54 d9 0a bb
       -0.006972871 -0.07326299 0.04925653 -0.0021186667
0000f0 d8 ef 64 3c fc 43 0c bd aa 51 e4 3e 99 b3 18 40
       0.013973199 -0.034244522 0.44593555 2.3859618
000100 7c d9 00 bf b9 69 00 3d a8 55 49 3f d3 da 0f 3e
       -0.50331855 0.031350825 0.78646326 0.14048319
000110 18 79 20 bf a3 13 56 bd 97 43 c7 3c 73 ad eb bd
       -0.62684774 -0.05226482 0.024324222 -0.11507692
000120 81 f8 8b 3d d3 83 a9 3d ed a9 0c 3c 49 22 39 3d
       0.06834508 0.082770966 0.008585435 0.045198712
000130 a7 f4 c6 bd ec 0c 79 be 03 ca 19 be ee c2 7b bd
       -0.097146325 -0.24321336 -0.15018468 -0.061465196
000140 39 1c 17 3e 5c db fa bd ab a4 20 be 67 7c b5 3e
       0.1475686 -0.12248871 -0.15687816 0.35446474
000150 cb 5d 30 bc 12 7f c7 3e 84 f9 23 be 2c e1 1b 3f
       -0.0107645495 0.38964134 -0.16013151 0.6089046
000160 92 0b 29 bf 47 b3 38 be ab 8b 9a 3e 20 1e dc bd
       -0.6603328 -0.18037139 0.30184683 -0.107479334
000170 cb 43 8d 3e 6c 3c 42 3e af 76 22 3e 3e e6 fe bb
       0.27590784 0.18968362 0.15865587 -0.007778912
000180 91 66 ea 3d 82 fa 90 3d 7b 22 08 3e 82 f4 a3 3d
       0.11445344 0.070790306 0.13294403 0.080056205
000190 fa b4 5d bb 17 9a 59 3c 17 92 73 be 8c 86 9d be
       -0.0033829794 0.013281367 -0.23786198 -0.30766714
0001a0 7b 3e 28 3e fc 4d 6a 3d aa 53 c7 bc c7 bc 0b bc
       0.16430084 0.057203278 -0.024331886 -0.008528895
0001b0 a9 0d 11 be f4 06 76 3b 0e 70 2a 3d 57 7c 74 bd
       -0.14165367 0.0037540765 0.04161077 -0.059688892
0001c0 ae bb 78 3e cd 6b 05 3f 97 f6 e9 be 06 25 f9 bd
       0.24290344 0.52117616 -0.45695946 -0.12165265
0001d0 3e b6 db bd 13 5c d9 3c 45 aa 29 3e f9 29 26 be
       -0.10728119 0.026533162 0.16568859 -0.16226949
0001e0 e8 3e 7c 3c 40 54 2b 3e 87 3c 81 bd ea fd 5e bd
       0.015395857 0.16731358 -0.06310373 -0.05444137
0001f0 77 57 a6 bd bd 0b ea 3d de ff 6a 3e 9c 9e 9a 3d
       -0.08122151 0.1142802 0.22949168 0.075497836
000200 d4 a4 56 3d 21 9d 7d ba 3d fc bf 3d dd 1c 1d 3d
       0.052403286 -0.0009674598 0.093742825 0.038357604
000210 c0 ab 21 3d c2 c9 e8 3d c8 f7 a3 bd ed 7b cd 3c
       0.039470434 0.11366607 -0.08006245 0.025083506
000220 6e 0d 15 bc 04 5b 44 be c9 4b 47 3f 66 bd 13 3f
       -0.00909744 -0.19175345 0.77850014 0.57710874
000230 70 68 3d bd 22 63 1d bf 92 a2 d1 3d c4 fa 36 3f
       -0.046242177 -0.6147939 0.10236086 0.7147639
000240 c4 69 49 3d ea b5 b8 3d 31 95 70 bd eb 50 32 3d
       0.04917313 0.09019072 -0.05873603 0.0435342
000250 19 dd fe bd 32 a2 a9 bd 44 70 90 3e b2 11 34 3e
       -0.12444515 -0.082828894 0.28210652 0.17584875
000260 ba 4b 25 be f7 41 7f 3e ba 35 d9 be 4c 20 3c be
       -0.16142169 0.24927507 -0.42423803 -0.18371695
000270 60 b2 85 3d d1 c8 31 bd 2f 2c 2b 3d 57 ca c9 bc
       0.06528163 -0.043404404 0.041790184 -0.024632616
000280 fb 52 21 3e 0c d2 bf bd e4 6d 62 3e 0c 81 25 c0
       0.15754311 -0.09366235 0.22112232 -2.5860014
000290 f8 18 5f be 8b b7 c1 bd a7 84 b4 bf d9 b3 7b bd
       -0.21786869 -0.09458836 -1.4102982 -0.061450813
0002a0 d8 52 d1 3f b2 d6 27 3e 74 d5 0f 3e 12 02 2c 3e
       1.6353407 0.16390494 0.1404627 0.16797665
0002b0 4b c7 53 3e 40 f6 d2 bd 34 04 03 3e 43 39 18 3e
       0.20681493 -0.10300875 0.12794572 0.14865594
0002c0 ff 22 8e 3e 94 0f cb bd 10 4a 88 be 2c 22 d5 be
       0.27761075 -0.09915081 -0.26619005 -0.41627634
0002d0 6e a7 ab bc ba ce 98 3d 66 66 5b 3c 12 21 04 bd
       -0.02095386 0.07461305 0.013391113 -0.0322581
0002e0 7a 43 b5 3c 58 2b c4 ba 20 8f 01 be ee 43 2d 3e
       0.022126902 -0.0014966531 -0.12652254 0.16920444
0002f0 5f 69 94 3f 79 2f 0f 3e 7f b9 c3 39 a5 19 d0 3d
       1.1594657 0.13982953 0.00037331504 0.10161141
000300 33 dc e2 bd fc ff 79 be 2a e5 14 3d 1b 11 b1 bd
       -0.11077156 -0.24414057 0.03635136 -0.08645841
000310 33 44 a2 bb eb 6a d7 bd 18 a4 cc bd 51 9d 99 bd
       -0.0049519776 -0.1051844 -0.09992236 -0.07500709
000320 b1 af 6f be 90 fe 77 3e 7f ca 21 bd f1 e6 47 3d
       -0.23406865 0.24218202 -0.039499756 0.048804227
000330 6a 45 03 3e 36 6c 06 be 3a c8 fa 3c 0a a8 c5 ba
       0.12819448 -0.13127217 0.030613054 -0.0015079987
000340 97 68 b4 bc 2c 24 4f 3c 50 7d a6 3c ac 96 36 3d
       -0.022022529 0.012642901 0.020323426 0.044577286
000350 25 2b 85 3e ad fe 8b 3d de 95 d1 be 74 7e 35 be
       0.2600948 0.06835685 -0.40934652 -0.1772402
000360 0a cb 50 3f 25 82 a5 bd c3 28 84 bf 9d f5 c2 ba
       0.81559813 -0.08081464 -1.032494 -0.0014874224
000370 f4 88 8d bd ec fa 7c 3d 98 81 e3 bc 8d d6 16 3d
       -0.06910887 0.061762735 -0.027771756 0.036825705
000380 f6 45 a3 3b 47 20 77 3e 17 a2 d6 bd 00 16 22 3d
       0.004982705 0.24133407 -0.10480135 0.039571762
000390 46 a1 75 3d 8b fc 0f 3e 52 45 af 3b ac 10 f2 bd
       0.059968255 0.14061181 0.00534884 -0.11819586
0003a0 a4 c1 cb bd db 67 81 3d f1 b6 b4 3d 09 98 b5 bd
       -0.099490434 0.06318637 0.08823956 -0.08866889
0003b0 d2 12 f0 bc 3f 1c c4 3e da 00 eb bc 87 8a 5e 3e
       -0.02930585 0.383028 -0.02868693 0.21732531
0003c0 f3 4a 51 3e fd a6 65 be ab ef c0 3d f7 a6 78 3d
       0.20438747 -0.22426982 0.09420713 0.060706105
0003d0 41 da be 3d 23 8f 4b 3d 05 32 7e bd 9c 74 ed bd
       0.093189724 0.049697053 -0.06205942 -0.11594507
0003e0 43 8d d8 3d 58 7a 0e 3e ae 2d 9c 3d 72 8e 97 be
       0.105738185 0.13913858 0.076259 -0.29600865
0003f0 9d 66 69 bd 74 45 a1 bd df 75 1f 3d 43 e9 dd 3d
       -0.056982625 -0.07874575 0.03893077 0.10835507

critic.0.bias f4 [64]
000000 93 0c 4b bd c5 dd 43 3e b1 89 91 bd 0b 1b 5f 3c
       -0.04957254 0.19127567 -0.07106341 0.013617287
000010 d3 1d 15 3e 19 89 df bd ca 77 e3 3d 49 c1 e1 3d
       0.14562158 -0.10914821 0.11106832 0.11023194
000020 f8 b3 fe 3c 0f 87 fe bd 72 6a 36 be 78 a0 29 be
       0.031091675 -0.12428104 -0.17814043 -0.1656512
000030 98 78 bb bd 06 6d b1 3d 9d d3 55 bc 06 69 86 bd
       -0.09153861 0.08663373 -0.013050941 -0.065630004
000040 fb fc aa 3d cb a0 31 3e 55 e2 44 be 1e b9 f2 bc
       0.083490334 0.17346494 -0.19226964 -0.029629286
000050 5e 61 64 bd 0d 95 a6 3d 0a 7a b4 3d fc 08 ff bc
       -0.05575692 0.08133898 0.088123396 -0.031132214
000060 f4 45 90 bd 89 a2 21 ba 10 6b 10 3e af b4 24 3e
       -0.070445925 -0.0006165882 0.14103341 0.1608455
000070 a0 8b 32 3e 64 25 7f 3d c0 2e 2d be 81 60 3a 3e
       0.17436075 0.062291518 -0.16912365 0.18200876
000080 fa e9 33 3e 6f 9d 4e bd b6 6f 85 3d f1 ae c3 bd
       0.17569724 -0.05044311 0.06515448 -0.09554852
000090 21 19 87 bd 4b 57 23 3e ac d2 15 be ea c6 04 be
       -0.0659659 0.15951268 -0.14631146 -0.12966505
0000a0 07 fe 47 bd 8a ee f8 3d 99 25 bd bd 02 44 f9 bd
       -0.048826244 0.12154873 -0.09235687 -0.121711746
0000b0 00 df ab bd 52 d5 9a 3d 05 a0 67 bd 8e 3a 74 bd
       -0.08392143 0.07560219 -0.05654909 -0.059626155
0000c0 88 14 1d bd b7 0c 25 be 78 9f 2d 3d e4 32 d5 bd
       -0.03834966 -0.16118132 0.04238841 -0.10410097
0000d0 5f 94 3f be df 9e 29 3e 31 60 a3 bd 47 25 ac bc
       -0.18708943 0.16564511 -0.079773314 -0.021013869
0000e0 fa 84 b1 3d 60 9d 7e be cc 08 0b bd 05 33 ad bc
       0.086679414 -0.24864721 -0.033943936 -0.021142492
0000f0 3c 5f 20 3e 1c 2a a2 3d 4b f7 1d 3c f6 8f 2d 3e
       0.15661329 0.07918188 0.009641479 0.16949448

critic.2.weight f4 [64, 64]
000000 9e ff 27 bd 34 00 bb 3d 36 38 33 3d 59 81 72 bc
       -0.04101526 0.09130898 0.04375478 -0.014801347
000010 af f1 a4 3b a3 f2 3e bd af e9 91 bc 5e 89 a6 bb
       0.0050336937 -0.046618115 -0.017811624 -0.0050822934
000020 65 8f fc bb 61 d2 b1 bd c5 55 07 3d 6e ee 00 3e
       -0.0077075236 -0.08682705 0.03304078 0.12590954
000030 bc a1 b4 bd e8 b5 7f 3d 49 06 46 3d 4f b4 28 bd
       -0.08819911 0.06242934 0.048345838 -0.04118758
000040 23 ec bc bc 1a 4c f2 3d 69 5b df 3d f1 8a f0 bd
       -0.023061818 0.118309215 0.10906107 -0.11745251
000050 15 27 7d 3d 50 ff 29 bd 3c 1d 4a 3c c9 a7 67 3d
       0.06180485 -0.04150325 0.012336072 0.056556497
000060 3f 0c da ba 57 37 ec bd ba 1b 76 bd 6e c6 70 3d
       -0.001663573 -0.11533993 -0.060085036 0.058782987
000070 e5 94 99 bd 73 58 02 3c b8 d9 bb 3d cc de 20 bd
       -0.074991025 0.007955658 0.09172386 -0.039274976
000080 90 59 30 3c 75 88 e5 bb 4f bd 25 be e5 73 6d bd
       0.010763541 -0.0070047923 -0.16185497 -0.057971854
000090 e8 43 89 bd 45 04 e1 bd bf 48 bb bd 29 19 79 bc
       -0.06702405 -0.109871425 -0.091447346 -0.015203753
0000a0 31 19 1a be bd f0 03 be ce 44 90 bd 8e 84 8c 3c
       -0.15048672 -0.12884803 -0.070443735 0.01715305
0000b0 12 be f3 3c 79 71 15 be d2 d2 b7 3d 40 6a ff bd
       0.029753719 -0.14594068 0.08975758 -0.124714375
0000c0 21 a5 97 3d 93 60 c1 3d d4 85 81 bd c4 d0 cd bd
       0.07404543 0.09442248 -0.06324354 -0.100495845
0000d0 11 07 c3 bd 2e cc 64 3c 44 ac 22 3e 7d 5c d7 bb
       -0.09522832 0.013964696 0.15886027 -0.0065723048
0000e0 52 6b fe bc e8 b9 3d 3d 62 ec 8d 3d fa 1a bf 3c
       -0.031057034 0.046319872 0.06929852 0.023328293
0000f0 f1 ee 86 3d 5b 38 52 3d 58 eb e5 bc 04 ef 5d 3d
       0.06588543 0.051323276 -0.028066322 0.05418302
000100 18 1a d3 3d c2 ed 4c be b7 bd 20 3a 4f 1a f8 bd
       0.10307711 -0.20012572 0.00061317853 -0.12114393
000110 94 8c bc bc 03 93 46 3d 7f d5 85 bd b8 7e 1f 3e
       -0.023016252 0.048480045 -0.06534862 0.15575683
000120 1f 5b 00 bd 27 ad 77 3d ea 49 82 bc c4 b9 1c 3d
       -0.0313369 0.060467865 -0.015904386 0.038263097
000130 1b bb 22 3b 72 f5 a8 bd aa 34 a1 3d 0c d5 9b 3d
       0.0024830762 -0.0824994 0.07871373 0.07608995
000140 fd f9 c5 bd 58 2e 05 3d 7e 91 13 3e 10 ea 97 3d
       -0.09666822 0.0325149 0.1441097 0.07417691
000150 4f ad 4a bd 99 eb 16 bd 8e da 21 bd f5 50 f6 bc
       -0.049481686 -0.036845777 -0.03951507 -0.0300679
000160 50 f0 a1 3d 15 c3 c9 bd e0 96 ab 3d 40 89 cd 3d
       0.07907164 -0.09851662 0.083783865 0.10035944
000170 e3 38 f2 bc 5f a1 25 be d6 60 e0 bc 66 f2 74 bd
       -0.029568141 -0.1617484 -0.027389925 -0.05980148
000180 e8 50 fa bd 1b 14 76 bd be 83 60 bc 58 f7 d6 3d
       -0.12222463 -0.060077768 -0.013703285 0.10496396
000190 90 ac d1 bc 43 69 02 be 7b 7b 7e 3e 4b b2 3a 3d
       -0.02559498 -0.12735467 0.24851792 0.04558019
0001a0 5a cd 88 3c 15 43 8c 3d 0b f5 82 3d cc df ed bc
       0.016699482 0.068487324 0.063943945 -0.029037379
0001b0 a8 72 c3 3d dc a0 94 3d 47 09 9b 3b 6e 3c f2 3d
       0.09543353 0.07257244 0.0047313306 0.11827932
0001c0 87 eb 6b 3e 50 28 80 3d 22 e3 8a bc e6 5f 83 3d
       0.23039065 0.06257689 -0.016954008 0.064147756
0001d0 e3 a9 c5 3d 8d ca 24 bd 65 58 db 3c a1 0a cc 3d
       0.09651544 -0.04023223 0.026775548 0.09962965
0001e0 a1 d3 ab bd f5 5b 7d bd 3d 78 b8 3a 48 3c 0f 3d
       -0.083899744 -0.061855275 0.001407392 0.034969598
0001f0 4a b9 de 3c c4 9a 1a bd 52 3d 7a 3d d1 ce e3 3c
       0.027187962 -0.037745252 0.061093636 0.027808579
000200 bf 40 d7 bd c4 5d ae 3d 67 9f 08 3d 43 b4 d3 bd
       -0.10510396 0.08513978 0.033355143 -0.103371166
000210 6c b2 0d bd 8d a3 e6 bd 0d 65 02 3e 33 c7 96 bd
       -0.034593984 -0.112616636 0.1273386 -0.07362213
000220 4d 34 d8 3c b3 f9 92 bd b4 ec 96 3d 61 15 03 be
       0.026392126 -0.071765326 0.07369366 -0.12801124
000230 1d df 87 bd 41 7e 81 bd d3 cb 03 3d eb e0 4b bd
       -0.06634352 -0.06322909 0.032176804 -0.049775045
000240 73 e5 99 bd d4 5d 53 3e 02 3a 4a 3c c9 25 0a bd
       -0.07514467 0.20641261 0.012342932 -0.03372744
000250 ec 11 b9 3d fd b7 c2 3c 31 62 a4 bd 14 4b 16 bd
       0.090366215 0.023769373 -0.08026541 -0.036692694
000260 bb bf 74 3d b7 ee b2 3d 87 9e 0d bc 08 57 fa 3d
       0.05975316 0.087369375 -0.008643753 0.12223631
000270 d4 f8 dd 3d 91 1a 10 bd 57 15 0f 3e fa 81 eb bd
       0.10838476 -0.035181586 0.13972984 -0.114994004
000280 23 63 83 bd ca 03 bd bd 3f d0 a4 bd d2 27 bf bd
       -0.06415393 -0.09229238 -0.08047532 -0.09333767
000290 40 40 a4 bc c3 78 44 be 16 77 d0 3d d9 20 19 3e
       -0.020050168 -0.19186692 0.10178964 0.14953937
0002a0 02 41 ae bd 82 63 67 3d 5b ac 84 bd 3b f1 b2 bd
       -0.08508493 0.056491382 -0.06478187 -0.08737417
0002b0 7b 2a d1 3d 93 bf 96 3d 38 4c 85 bd 93 fb 18 3e
       0.10213181 0.07360759 -0.06508678 0.14939718
0002c0 d8 c7 0d bd 57 a6 56 bd 80 f6 32 bd e0 87 1a be
       -0.034614414 -0.052404728 -0.043692112 -0.15090895
0002d0 99 45 fd bc fa 23 b5 3d a4 25 1b 3e bd 2b f9 3d
       -0.030916976 0.088447526 0.15151078 0.121665455
0002e0 4e 5c c5 3c c4 a6 a4 ba 9e 7c cf 3d f9 02 d3 3b
       0.024091866 -0.0012561907 0.10131191 0.0064395634
0002f0 d9 6a a2 bc 08 19 47 3c d7 e0 f6 3c c5 e2 d8 bd
       -0.01982634 0.012151964 0.030136509 -0.10590128
000300 fd 35 4c 3d 7f bf aa 3d 93 2e 98 ba d2 fb e1 bd
       0.049856175 0.08337306 -0.001161056 -0.11034359
000310 27 3c 93 3d 58 18 b7 bd c2 6e 01 bd 97 d3 57 3d
       0.071892075 -0.0894019 -0.031599768 0.052692022
000320 b2 09 18 be 4b bc 97 3d 19 e4 e4 3c 81 0f a1 bd
       -0.14847448 0.07408961 0.027940797 -0.07864285
000330 7a d2 b0 bd 8f 0e 78 bd f8 fb de 3d 23 6b 53 be
       -0.08633895 -0.06056076 0.10887903 -0.20646338
000340 db df 42 3d 01 e9 0e 3c 95 3d da 3c 14 14 81 bd
       0.047576766 0.008722545 0.026640693 -0.06302658
000350 06 58 9a bc 02 44 84 bc 57 1e a3 3d 1a 8b f4 3d
       -0.018840801 -0.01614571 0.07964771 0.11940594
000360 da 4b 28 be da 38 f8 bc 5a 03 4e 3d 6c c6 84 3d
       -0.16435185 -0.030300546 0.050296165 0.064831585
000370 ce e6 e3 bd fa 80 d0 bc 69 72 6d 3d ed 9b 41 3d
       -0.11128007 -0.025452126 0.05797044 0.047267843
000380 ef 09 5c bd db d9 18 be fb f0 86 bd 31 4a c6 3d
       -0.05372041 -0.14926855 -0.06588932 0.0968212
000390 d9 70 8b bd 47 2d c4 3d 2c df d1 3d c9 64 cb 3d
       -0.06808633 0.095789485 0.10247645 0.099313326
0003a0 b9 c1 7d bc 63 40 dd bd 59 d4 27 3d 98 5b 83 bd
       -0.015488082 -0.108032964 0.040973995 -0.064139545
0003b0 16 14 eb bd a2 7e 8c bc 32 e7 54 3d b4 02 65 bc
       -0.114784405 -0.017150227 0.051978298 -0.013977695
0003c0 0f 11 14 3e 39 52 91 3d 8b 86 b2 3b 33 88 0b bd
       0.14459632 0.07095761 0.0054481677 -0.034065437
0003d0 a6 e6 07 3e 47 cf 55 bd 63 52 28 3d 26 3b bc 3d
       0.13271579 -0.05219963 0.041094195 0.09190969
0003e0 40 06 54 3d e0 15 8c 3c 8d ae 0c 3d 8b 8f 4f bd
       0.051763773 0.017100275 0.034346152 -0.050674003
0003f0 b6 95 b5 bd 5f 26 af bd ef b7 d8 bd 6b 2b 8f bd
       -0.08866446 -0.085522406 -0.105819575 -0.06990703

critic.2.bias f4 [64]
000000 7d 13 a1 3d c7 48 63 bd f9 0b b5 bc a3 d7 20 be
       0.07865045 -0.055489328 -0.022100436 -0.15707259
000010 45 e9 95 be 30 4a 4e be a1 ac 48 bd cb ea 82 3d
       -0.29279533 -0.20145488 -0.048992757 0.063924395
000020 1b f7 20 3c a0 1d 0c bd be 6a e3 3d 91 72 2c be
       0.00982454 -0.03420794 0.11104344 -0.16840579
000030 5e 36 c2 bc 38 6c 02 bd 2e 27 6b bd 53 d0 e2 bd
       -0.023707565 -0.031841487 -0.05741041 -0.11074891
000040 6b 31 23 bd 56 02 d6 3d cc 29 36 3e 0e 8d 06 be
       -0.03984205 0.10449664 0.17789382 -0.13139746
000050 7a 26 18 3e a6 bc 9f 3d f4 8c 45 bc 3a ac f0 bc
       0.14858428 0.07799654 -0.012057532 -0.029378999
000060 30 de 96 3d 50 9e 20 be 3d 29 d7 bc 51 a6 9c bd
       0.07366598 -0.15685391 -0.026264781 -0.0764891
000070 c8 10 f6 bd ff 04 48 3d 2e d5 d3 bd 45 cb c1 3c
       -0.120149195 0.04883289 -0.10343395 0.023656497
000080 6e c1 02 3d 05 3a bb bd c5 ba be bd 70 db 62 bd
       0.03192275 -0.09141926 -0.09312967 -0.055385053
000090 b6 69 42 3d 6b 15 fa bd 2d e0 b8 bd 60 5b b8 bb
       0.047464095 -0.122111164 -0.09027133 -0.005626127
0000a0 0f 56 27 bd ca b5 d1 bd 43 cc e9 bd 6d e1 ee bc
       -0.040853556 -0.10239752 -0.11415913 -0.029160226
0000b0 7a 63 ea 3c 13 7b 07 3e 91 1b b9 bd de 2d 29 3e
       0.028611887 0.13230543 -0.09038461 0.16521403
0000c0 1b 2b 81 3d 28 77 65 3d 5a d4 e4 3d 4d 8e d2 3b
       0.0630705 0.05602184 0.11173315 0.006425655
0000d0 20 df f9 bd e2 d0 94 bd 19 df 2f bd 82 e0 ea 3c
       -0.12200761 -0.07266404 -0.042937372 0.028671507
0000e0 ae 29 24 3d aa 56 f2 bc 82 7c c7 bd 85 a3 c9 bd
       0.04007881 -0.02958234 -0.09740545 -0.09845642
0000f0 4f a5 b9 3d 35 f9 29 be 87 60 bc 3b 92 c9 1c 3e
       0.09064733 -0.16598971 0.0057488116 0.15311268

critic.4.weight f4 [1, 64]
000000 bc b3 63 3c 14 41 37 bd 45 fc 1b 3d 0e be 28 3d
       0.0138978325 -0.044739798 0.03808238 0.041196875
000010 65 a3 fa 3d df cc 80 3d 30 71 9c bc 11 f8 7a 3d
       0.12238196 0.06289076 -0.01909694 0.06127173
000020 c3 fc 18 bd 08 5a 30 3c dd ae 8e bd 6e 75 9b bb
       -0.037350427 0.010763653 -0.06966946 -0.0047442233
000030 c4 50 7a bd 06 ce cd bc e3 ad aa 3d ce b2 21 3d
       -0.06111218 -0.025122654 0.083339475 0.039477162
000040 ab 77 c1 bc 9a d2 05 bd 1f 47 07 be 94 43 ec 3d
       -0.023616632 -0.03267155 -0.13210724 0.11536327
000050 e8 66 2e 3d ec 6a ff 3c 4e 9a 0f bd 2c a4 20 3d
       0.042578608 0.031178914 -0.035059266 0.039219067
000060 1e 9a a7 bd c9 59 a4 bd e5 98 38 3c d2 3e 6b bd
       -0.081836924 -0.08024938 0.011266922 -0.057432957
000070 b0 51 d5 3d 52 38 92 bd 48 f2 e4 3d 77 3d 2a be
       0.10415971 -0.071396485 0.11179024 -0.1662501
000080 c1 e0 2d 3d 5c 43 0f bd 31 ad 56 bd f9 e5 f6 3c
       0.04245067 -0.03497635 -0.052411262 0.030138956
000090 82 52 13 bb e4 a4 d9 3d 0a 94 fd 3c be 57 01 3d
       -0.0022479598 0.106271535 0.03095438 0.031577818
0000a0 66 99 06 bd a6 2c 43 3d 7a 7c 15 bd e1 74 eb bd
       -0.032861136 0.047650002 -0.036495663 -0.11496902
0000b0 6d 29 37 bc 56 6c 2c bd f8 c3 80 bd 16 61 13 be
       -0.01117931 -0.042095505 -0.06287378 -0.14392504
0000c0 89 4c 96 3b ee fe 5e 3a 80 b1 01 bd 43 f8 b1 bc
       0.0045867604 0.00085066154 -0.031663418 -0.021724826
0000d0 e6 b6 b7 3c c4 2f 62 3c e4 53 83 bd 55 40 93 bd
       0.02242608 0.0138053335 -0.06412485 -0.07190005
0000e0 71 00 70 bc 5e d7 d4 3c 6d e1 4f bd ae 5d 87 3c
       -0.014648543 0.025981601 -0.050752092 0.016524162
0000f0 e2 9c 75 bb 8b 27 51 3d 22 34 08 3d 49 bd 9e bd
       -0.0037477543 0.0510631 0.033252843 -0.07750947

exp_avg f4 [6]
000000 94 85 09 b9 aa 89 f9 b9 da 96 2e 3a 78 c8 e9 39
       -0.000131151 -0.0004759555 0.0006660052 0.00044590584
000010 48 74 15 ba 36 cd bf ba
       -0.0005701226 -0.0014633301

exp_avg_sq f4 [6]
000000 e3 b6 ca 36 c4 99 9f 36 32 40 f2 36 18 d9 86 3b
       6.04136e-06 4.75647e-06 7.2196353e-06 0.004115235
000010 22 83 43 37 3a 29 17 38
       1.16534375e-05 3.60396e-05
