04-goal-pose-l6/logs/rsl_rl/joint_position/2026-02-19_13-16-49/model_2250.pt (torch, 161397 bytes, 36 tensors)

std f4 [6]
00000000: 1132 283d 2a8d 0d3d 1d14 123d 28e7 de3a
00000010: 2758 bf3c 02f5 1b3c
0.041063372 0.034558453 0.035663713 0.0017006146 0.023357464 0.009518864

actor.0.weight f4 [64, 25]
00000000: 8984 0a3f 210c 73be 6df5 09be cf28 023e
00000010: 9bfd a23e 7083 89be 4a64 03be 920f 0bbe
00000020: e35c c0bd 74e8 4c3e 31ff f6bd f166 d5bd
00000030: 8448 c4be 8f10 3c3f d3cf bebe 4594 65bd
00000040: bfb2 923f fce1 fdbd 0988 b3bf 6c05 a6be
00000050: 0ee0 9dbd 7969 363e 9fe5 843e f289 313c
00000060: 51ef 8dbd 8759 f3be f8b0 553d 19f5 fa3d
00000070: 028a e73e 07d5 d2be b553 1abe 09df 2e3e
00000080: b657 d03c 0434 6bbd 8403 6ebd c43e aabd
00000090: 4881 35bd 98e7 03be 58af 11bf 6f25 1dbf
000000a0: 1ad2 1ebe 3532 7ebf a982 f3bd 6150 933f
000000b0: 1024 953d ee58 943e 7d29 15be f0d8 3c3e
000000c0: f49b 193d c4bd dabd 1e22 88bf 9059 113e
000000d0: b825 eb3d c51a 253f 4567 29bf 031b 4f3f
000000e0: c43f bfbd b045 893d d0ef 493d 4bf8 953e
000000f0: 1b21 91bd e46a 783d 9afe 713e d96b 6abf
00000100: 9cf9 8d3d 9c32 8a3e 7334 05c0 babc 353d
00000110: 7a1c 0640 1de8 00be 6020 1fbe 9797 07bb
00000120: 91a2 4a3e 8d38 0ebe 1f65 103e 2ea4 0a3f
00000130: da78 04be 1b5c e8be 6660 02bf 77d3 7abe
00000140: 48d6 0abf 2b6c 553e c981 87be d4d4 f33d
00000150: 9e02 6cbe 8ece c53e cea3 06bd 67e9 e0bd
00000160: 8dfd c13f 13fc 8fbd 8643 2ebd 7851 a03f
00000170: 7a6e df3d f9e9 86bf 1623 9fba d96f 88bd
00000180: f1f6 98bc fcbe 0dbe ef71 16be 8dd9 61be
00000190: cbce 843d 2325 8cbd a68b 1fbf 2fd6 c33c
000001a0: c807 59bd 1285 4a3c 5b2e ea3d ed8e b03d
000001b0: 9cfb 0abe 386e 803e 3027 0fbe 8366 df3c
000001c0: 61be 73be 1331 0640 097a 73be 6b7e 95bd
000001d0: 4c7c 0c3f f5df 02be 5078 09bf 8fa3 10bd
000001e0: 74f0 a33d f5e9 453d a672 923d 042e fb3c
000001f0: 04b3 2e3e 4000 aa3d 6b2d adbe e717 003f
00000200: fe75 243e 932e eebb 8ba6 b8be ccf1 debe
00000210: f693 903c a744 cfbd f4ed 843e 7f21 4b3d
00000220: 5388 463e 7beb dfbd 0410 acbf 9324 8f3d
00000230: c5cc 2e3e 6e47 9ebd 7b28 1f3e dba3 2a3e
00000240: 45ee aabd 6d02 a03a 6842 1cbe 2616 aabd
00000250: ffb8 c9bd 2262 b7bb 5a03 40be 8eff 4a3e
00000260: 524a 6c3f 7dbc 6b3e dcd6 82be 4c82 c93e
00000270: 239a c7be e560 3cbd bbed 59bd b02d a43d
00000280: 39da 563d fb9e 2dbd caec 0abe 8e65 dbbf
00000290: 41dd c5be 6c22 0e3e cae4 ec3d b2fb 5f3d
000002a0: 6ea4 b8bd f4cf 983d 2495 0c3f 8d2e a7bb
000002b0: 41bb 1fbd f24b fc3c e6ec afbe a18c 82bd
000002c0: 8e76 ed3e c635 7ebe 0886 a1be 29c2 7dbd
000002d0: 5308 a4be d9d9 2abe f474 65be fd38 163d
000002e0: 2320 b5bd fee5 e43d ed56 02bd a3c5 92be
000002f0: c95d d63e 2e3e dabd 54b0 16bd 7e03 8e3f
00000300: a48a 36be e871 5abf d1f2 543e 2d21 3fbe
00000310: 6471 19be 79e5 4abe 4995 68bd e303 03be
00000320: 7143 e6bd 4293 a0be b4f6 123e f69c ccbd
00000330: 33e7 14bc 3cc9 debe 8905 b03d 9b45 09bd
00000340: c788 1abe 1532 86bd d9ba c23d 5e70 d53d
00000350: 1239 d8bd a705 93bf a6ba 72be e212 3bbd
00000360: fe2d 933f 44c5 5a3e e50e 92bf 92a8 5ebe
00000370: fab0 03be cc94 253d 164e f43d 3889 cabe
00000380: 62ea 7dbd 3e81 603e 7187 98be 1131 f8be
00000390: b463 2a3d ee66 4bbf 5aad 253e 10e1 f9be
000003a0: 9fd8 863e 530e 9f3d bdde 0f3e 2281 0c3c
000003b0: 7583 2e3d d6c3 923c 84fa 043f 85bd 29bd
000003c0: 084e 32be 7e59 e93e 1b02 9fbd 3ef7 b2be
000003d0: c348 173e 8f4e f5bd 6a77 403e 3660 4cbe
000003e0: a631 943e c22f 743c 7b08 67bd 00fe 6a3e
000003f0: 19a4 ab3c 6613 84be 9632 04be 6e11 8ebe
0.5410848 -0.23735096 -0.13472529 0.1271088 0.3183411 -0.2685809 -0.12831226 -0.13580158
-0.09392717 0.20010549 -0.12060393 -0.10420025 -0.38336575 0.73462766 -0.37267932 -0.056049604
1.1460799 -0.12396619 -1.402589 -0.32426012 -0.07708751 0.17813672 0.25956437 0.010836111
-0.069304116 -0.4752924 0.052170724 0.1225378 0.4522248 -0.41178152 -0.15070994 0.17077269
0.025432449 -0.057422653 -0.05810882 -0.08312753 -0.044312745 -0.12881315 -0.5690818 -0.61385244
-0.15509835 -0.9929536 -0.11890156 1.1508905 0.07282269 0.28974098 -0.14566608 0.1844213
0.037502244 -0.10680726 -1.0635412 0.14194322 0.11481804 0.6449397 -0.661732 0.8090059
-0.09338334 0.06702745 0.04930097 0.29290995 -0.070863925 0.060648814 0.23632279 -0.9157081
0.06932375 0.26991737 -2.0813262 0.044369437 2.095488 -0.12588544 -0.15539694 -0.002068972
0.19788577 -0.1388876 0.14101075 0.5415677 -0.12936726 -0.4538277 -0.5092834 -0.2449473
-0.5423322 0.20842044 -0.26466206 0.11905828 -0.23047873 0.3863415 -0.03287106 -0.10982018
1.5155503 -0.07030501 -0.042544864 1.2524862 0.109097436 -1.0540153 -0.0012141194 -0.06661958
-0.018672438 -0.13842386 -0.146919 -0.22055645 0.06484755 -0.06843021 -0.6232246 0.023905842
-0.052985936 0.012360828 0.11434623 0.08621011 -0.13572544 0.2508409 -0.13979793 0.027270561
-0.23803093 2.0967453 -0.23777021 -0.07299503 0.5487716 -0.12780745 -0.5369921 -0.03531223
0.08004847 0.048318822 0.07150774 0.03066159 0.17060477 0.08300829 -0.33823714 0.5003647
0.16060635 -0.0072687357 -0.36064562 -0.4354385 0.017648678 -0.10120516 0.25962794 0.04959249
0.19387941 -0.10933586 -1.3442388 0.06989398 0.17070301 -0.07728468 0.15542786 0.16664068
-0.083462276 0.0012207754 -0.15259707 -0.08305006 -0.09849738 -0.005596415 -0.18751279 0.19824049
0.92300904 0.23021121 -0.2555455 0.3935722 -0.38984784 -0.045990843 -0.053205233 0.08016527
0.052454207 -0.042387944 -0.1356689 -1.7140367 -0.38645366 0.13880318 0.115670756 0.054683395
-0.090157375 0.07461539 0.5491507 -0.005101985 -0.03899694 0.030797932 -0.34360427 -0.06374479
0.46379513 -0.248252 -0.3154757 -0.061952744 -0.320376 -0.16684665 -0.22407895 0.036675442
-0.0884402 0.1117668 -0.03182118 -0.2866641 0.41868427 -0.10656391 -0.036789253 1.1094816
-0.17826325 -0.8533006 0.20795752 -0.18665 -0.14984661 -0.198141 -0.056782994 -0.12794451
-0.11243332 -0.3136235 0.14351922 -0.099908754 -0.009088325 -0.43512905 0.08594806 -0.033513647
-0.15091239 -0.06552521 0.095082946 0.10421823 -0.1055776 -1.14861 -0.23704013 -0.045672305
1.1498411 0.21364313 -1.1410795 -0.21743992 -0.1286048 0.040425107 0.11928956 -0.39557815
-0.061991103 0.21924302 -0.29790834 -0.48474935 0.04159899 -0.79453933 0.1617941 -0.48804522
0.26337144 0.07766404 0.14049812 0.00857571 0.042605836 0.017915647 0.51944757 -0.041440506
-0.17412579 0.4557609 -0.077640735 -0.34954256 0.1477385 -0.119778745 0.18795553 -0.19958577
0.2894413 0.0149039645 -0.056404572 0.22948456 0.020952271 -0.2579605 -0.12909922 -0.27747673

actor.0.bias f4 [64]
00000000: adde 96be 32d7 1bbe 0a82 0d3e 6280 ca3d
00000010: c782 803c e6a9 923d 1c84 f7bd 1362 cbbd
00000020: f160 d03d 6ac6 2cbd c248 99be 5894 40bd
00000030: b137 5bbe d639 0d3d e4c2 ecbc bee8 bcbd
00000040: 5c22 4a3d 9667 8bbe b670 c2bc 2a9d d0bd
00000050: 833b f9bd 7ceb fd3c ab95 82be 8467 95be
00000060: eee0 7abd ee8c 813e a082 3fbe 7ff8 483e
00000070: 220c 7bbd 1312 d0bd 1abc 16be c629 b8be
00000080: ea1c f3bd f22a 7dbe 3ad7 9f3c 0560 cabe
00000090: 12f8 f0bc c155 8bbe 9088 6c3e 4e8b c63d
000000a0: dc86 86bc 6533 47be 15b9 0dbe 2cfd a93d
000000b0: 09ad 6bbd 7dce 72be b619 83bc bdbb 4bbe
000000c0: ae36 2c3d c516 3fbd ffec 97be 7813 85be
000000d0: f056 4abe bfe8 8f3d 8459 b53d 9520 55be
000000e0: 3657 e93d 8b7a 9f3e a461 953e f248 e4bd
000000f0: 9262 43bd 7345 ec3d 4abc a3be 58cb dabe
-0.29466763 -0.15218809 0.13819137 0.09887768 0.01568736 0.07161312 -0.12085745 -0.099308155
0.1017474 -0.04218141 -0.29938322 -0.04701647 -0.21407963 0.034478985 -0.028901525 -0.092240795
0.049349174 -0.27227467 -0.023735385 -0.10186227 -0.12169554 0.030996077 -0.25504813 -0.2918054
-0.061249666 0.25302833 -0.18702173 0.19626044 -0.061290868 -0.101596974 -0.14720193 -0.3596937
-0.11870749 -0.24723414 0.019511808 -0.39526382 -0.029415164 -0.27213863 0.2309897 0.09694539
-0.016421728 -0.19453199 -0.13840134 0.08300242 -0.057538066 -0.23711582 -0.01600347 -0.19895835
0.042044334 -0.046652574 -0.29673 -0.25991416 -0.19759727 0.07026815 0.088549644 -0.2081321
0.11393587 0.3114818 0.29176056 -0.11146726 -0.047701426 0.11536684 -0.3197959 -0.42733264

actor.2.weight f4 [64, 64]
00000000: 7d2a 37be cda3 843d 05d3 ecbd b2b5 1d3b
00000010: 36d3 80bc d46e 69be 8aea 5ebe f48c 6abd
00000020: c67a 843d 46ac 03be 4dec d23d 5141 0b3c
00000030: 3024 7b3d d996 963c 1d5a 8cbd dc9a 3ebe
00000040: 7963 84bd d6f9 54bd dc53 813d dfce cb3d
00000050: c55e 523e a676 d23c 1b54 e43d d1ca 7bbd
00000060: 6778 353c baa3 48be bb26 393a 2748 04bc
00000070: 78a3 a03c 3951 ae3c 154b 27be 9d1e 703d
00000080: be65 ec3c 785c 0ebe 4258 b9bd c4a8 6e3e
00000090: 0708 80bd c5d7 21bd 6237 36be 283d 76bd
000000a0: 770f a73d 9a02 9ebc 098c 8c3d 316c cebd
000000b0: 4cd5 f93d 5ba5 9a3d 184c 7dbe 1307 02bd
000000c0: 268d 173e 2ff7 e9bd 453a 1f3d 8b1e 32bd
000000d0: 7153 1f3e 4f36 03bd c473 d8bd c547 b1bd
000000e0: 57f5 d0bd f255 2bbe f63f 14be ca1c 3d3e
000000f0: 05c4 c1bd 0aad 5abd de95 b83d 07f2 c1bd
00000100: 6024 05be d832 37be 4f00 913d 4497 333d
00000110: f154 a9bd 36cb cebc ee39 82bd 5f40 4a3e
00000120: aa9e ecbd 4945 f73d 7837 cd3b 3d6c 203a
00000130: c1d6 143e 1fe8 f73d f953 c73d b398 92bc
00000140: 3020 493e f32f 01bd 52fc f53c 5cd9 4b3d
00000150: 2855 a8bd 1afc fabb ea1e 4cbe 7a5e e9bd
00000160: 9d3a f2bc 6bc5 063e b73c 2a3e 33d4 f33d
00000170: f308 453e d482 cbbd fd8f 653e 2a4c 7a3e
00000180: e025 e23d 2f3e 9dbd 91e9 fcbc 4c55 92be
00000190: 713c cdbd 6d85 173d 0efb 9cbb c49f 8fbc
000001a0: cb39 85be f04d 943d 31c4 f13c 302e c63d
000001b0: 1d6a 83be cb50 5d3b 9563 393e b12c e43d
000001c0: 0ade 983d 57bb 1ebe a75f 8e3b d54b b3bc
000001d0: c94b bebc efb7 e5bd f7da a8bd 8b74 e0bd
000001e0: 059d 0fbe 2dd7 d43d 42d0 78bd 9d89 3ebd
000001f0: 09e2 3bbe 27b2 583d 2c64 00be 1a99 2f3e
00000200: 7f93 293d c6c4 05be 41a9 1abd d3d8 abbd
00000210: ea22 01be 879e 90be 5512 bdbc 42bb 963b
00000220: 7271 3dbe 1dd3 1bbc 3986 843d a209 013e
00000230: c16e 9abd 9311 32be e44d 1a3d a279 cc3d
00000240: a17c 09be 0e6d 153d 000b 4bbe da53 3d3e
00000250: 8842 a73c 9baf 0ebe 02ca bdbd 6eea 79bc
00000260: 01c6 4bbe 51e9 5dbe 54c5 723c 0f75 253e
00000270: 95be 093f 2e06 0fbe 9563 09be a301 dabc
00000280: dbcc 3bbe 08a5 1abd aeda 24be 30ef 753e
00000290: 0424 37be 5b9a f5bc 1092 cb3d a46e 79be
000002a0: 7bf5 6bbd dd01 f13d d80d c3bd 5ef4 20bd
000002b0: af86 cf3c f274 083f ba99 76be 5d33 bebd
000002c0: 5daf d4bd c2ac 12be 5c35 1ebd e5d0 d43d
000002d0: 4ce9 d13d 02ba 423e 1b93 4c3e 03d2 d3bb
000002e0: 9946 fcbd 6179 4b3c 3445 d43d ee21 0f3e
000002f0: 7fd5 74be 1cc7 c63d 787d c13e f004 493e
00000300: 9374 ccbd dfa3 df3d 4893 70bd d7d3 c3bc
00000310: 3b8a af3d 0264 69bd a16e 353e dc3a fc3c
00000320: 2d2a 7dbd 1715 afbd eea1 373c 6eb8 1a3d
00000330: 9534 d53d ee25 40be 786e 093d bb89 cd3b
00000340: 6080 43be a235 23be f7cf 16be 1df9 ae3d
00000350: 3698 a1bc df34 d1bd 82bd 483e 429c 0cbe
00000360: dc9d 12be e9a6 c9be 931e 213d f4e1 83bc
00000370: df78 53bd 42dd a8bb 8ce4 45be c8e5 043d
00000380: 263c bd3d 6b5b 5bbd 7bba 083e 6609 9a3e
00000390: 015f d33c 6a3c 06bd f13c 703e 14d2 89be
000003a0: b7a0 d43d 3345 dd3d d66c bfbd 542c 8bbd
000003b0: e8ec 283c 23ad d33d f315 1abe cb20 05be
000003c0: 5f93 01bd 008d ac3d 351f 463e 1556 603d
000003d0: 4a91 de3c 92c1 253d c621 db3a 5c6f 033e
000003e0: fc82 b13d b884 8c3c 195a 8e3d 41d0 34be
000003f0: d417 25be b7f1 a2bd 6d60 3d3e ac0f 163e
-0.17887302 0.06476555 -0.11563686 0.0024064598 -0.015725713 -0.22796184 -0.21769157 -0.05726333
0.0646873 -0.12858686 0.10298977 0.008499459 0.061313808 0.018382477 -0.06853125 -0.18613762
-0.064642854 -0.051996075 0.06314823 0.09951567 0.20543964 0.025691342 0.11148854 -0.061472718
0.011076069 -0.19593707 0.0007062961 -0.008073843 0.019609198 0.021278964 -0.16337235 0.058622945
0.028857108 -0.13902462 -0.09050037 0.23306566 -0.06251531 -0.039512414 -0.17794564 -0.060116917
0.081572466 -0.01928835 0.06862647 -0.100792296 0.12198886 0.0755107 -0.24736059 -0.031745028
0.14799938 -0.114241 0.03887393 -0.04348616 0.15559174 -0.032034215 -0.105689555 -0.08656267
-0.10203045 -0.16732004 -0.14477524 0.18468013 -0.09461216 -0.05338768 0.0901296 -0.09469991
-0.13002157 -0.17890489 0.07080137 0.04384543 -0.082681544 -0.025243383 -0.063587055 0.19751118
-0.115537 0.12073762 0.006262716 0.00061196444 0.14535047 0.121048205 0.097328134 -0.017895078
0.19641185 -0.03153987 0.030027542 0.049767837 -0.08219367 -0.0076594474 -0.19933668 -0.11394973
-0.029568965 0.13161246 0.16624723 0.11905708 0.19241695 -0.09937063 0.22418208 0.24443117
0.1104238 -0.07677876 -0.030873092 -0.285807 -0.10021294 0.03699248 -0.0047906702 -0.017532237
-0.26020655 0.07241428 0.029512497 0.09676778 -0.25666896 0.003377008 0.18104394 0.11141337
0.074642256 -0.15501152 0.0043448987 -0.021886745 -0.023229497 -0.11216723 -0.08244889 -0.10959729
-0.14024742 0.10392604 -0.060745485 -0.046517957 -0.18347944 0.052904274 -0.12538213 0.17148247
0.04140043 -0.13063344 -0.03775907 -0.08390965 -0.12610975 -0.28245947 -0.02308003 0.0045999596
-0.18500307 -0.009510783 0.064709134 0.12601331 -0.07540656 -0.17389517 0.03767194 0.09984137
-0.13426448 0.036480956 -0.19828415 0.18489018 0.020417467 -0.13934176 -0.092670456 -0.015253646
-0.19899751 -0.21671034 0.0148175545 0.16157936 0.5380643 -0.13967201 -0.13416894 -0.026612109
-0.18339865 -0.037755042 -0.16099045 0.24017024 -0.17884833 -0.029980829 0.099399686 -0.24358612
-0.057607155 0.117679335 -0.09524125 -0.039295547 0.025332777 0.53303444 -0.2408208 -0.092871405
-0.103850104 -0.14323714 -0.038625106 0.10391406 0.10249576 0.19016269 0.19977991 -0.0064642443
-0.12318153 0.012419076 0.10364762 0.13977787 -0.23909567 0.09705946 0.37791038 0.1963079
-0.09983172 0.10919928 -0.05873421 -0.023904724 0.08571287 -0.05698014 0.17717983 0.030789785
-0.0618078 -0.085489444 0.011208041 0.037773542 0.1041042 -0.18764469 0.033552617 0.0062725223
-0.1909194 -0.15938428 -0.1472777 0.08543608 -0.0197259 -0.102151625 0.19603541 -0.13731483
-0.14318031 -0.39385155 0.0393358 -0.016098954 -0.051628944 -0.005153329 -0.19325465 0.0324457
0.09239988 -0.05355398 0.13352387 0.30085295 0.025802137 -0.03277246 0.23460747 -0.2691809
0.103822164 0.10804214 -0.09346931 -0.06795564 0.010310389 0.103357576 -0.15047435 -0.13000791
-0.031634685 0.08425331 0.19347842 0.054769594 0.027168889 0.040467806 0.0016718439 0.12835449
0.086675614 0.017153129 0.069507785 -0.17657568 -0.16122371 -0.0795626 0.18493815 0.14654416

actor.2.bias f4 [64]
00000000: db99 38be c2b3 bc3d 9fcf ffbd c814 49be
00000010: b0dc eebd 0de7 eabd 4a23 febd c341 8bbd
00000020: 4b5f fd3d c190 a73c 8e35 2bbd 12f6 18be
00000030: 6233 76be cd45 743d 9282 a4bd 81dc 1abe
00000040: 6fcd 6cbe c6c5 8e3c 5ff5 d0bd 900c 7a3c
00000050: 81b7 24be 80cc 5c3e 273c 71be 8c9a c1bd
00000060: f31b 33be 4ba4 09be c441 fd3a 3d1e ddbd
00000070: c3cb d7bc 3c85 533d 65e4 13bd 461d 073e
00000080: 41f2 35be 5bcc 70be dae9 75be a228 7b3c
00000090: 5ee4 d7be 6850 f13c 25af 2dbe 944f 49bd
000000a0: 7cab ffbd 2dc5 a3be f6c2 21be e1e4 9f3d
000000b0: 29b6 02be e2ee 173e d9fd 71be 2d81 9dbe
000000c0: 0fc8 ee3c 5da6 49be e8c5 68be 98a7 1dbd
000000d0: 0a6c cbba abd5 3e3e f81b c4bd 9ca1 4bbe
000000e0: ab51 3b3d 3f4c e3bc de48 043e 743e 4b3c
000000f0: acdc 9cbe 1518 d33c 4208 a9bc 5267 3dbe
-0.18027441 0.092139736 -0.124907725 -0.19636834 -0.116631866 -0.11469851 -0.124090746 -0.067996524
0.12371691 0.020454766 -0.04179912 -0.14937618 -0.24043038 0.05963688 -0.08032717 -0.15123178
-0.23125242 0.01742829 -0.10203051 0.015261784 -0.16085626 0.21562386 -0.23558103 -0.094533056
-0.1749113 -0.13441579 0.0019321968 -0.10796783 -0.026342278 0.051640734 -0.036106486 0.1319476
-0.17768194 -0.23515455 -0.24014989 0.015329512 -0.42166418 0.029457286 -0.16961344 -0.049148157
-0.1248388 -0.3198637 -0.15797028 0.07807327 -0.12764801 0.1483722 -0.23631991 -0.30762616
0.02914813 -0.19692369 -0.22731745 -0.038489908 -0.0015519869 0.18636195 -0.09575647 -0.19885868
0.04573218 -0.027746318 0.12918422 0.012405027 -0.3063711 0.02576832 -0.02063382 -0.18496445

actor.4.weight f4 [6, 64]
00000000: 8c6b 8d3d 0bbe 87bd 06a6 65bd a781 3bbd
00000010: 1352 37bd 5b9e c33d a9f2 b73d fd6d 27bd
00000020: fb51 8f3d fb38 b4bd 444f 0ebe 492e 85be
00000030: d7b3 193d ec7a e7bd ade0 fdbc 5750 adbd
00000040: 5894 4c3d 7627 a43d d02f ad3c 7623 003d
00000050: a2e2 46bd a4fd 94bd 0129 2f3d d95e ce3c
00000060: de60 f23d a4d6 94bd ac28 1fbd d278 073c
00000070: 339f 013c 012f b6bd 4092 11be 52dd eabc
00000080: 4e46 0e3d e98d 383e 2e27 4a3d 7f75 953d
00000090: 8e04 a73d 76bd fbbc fa0b 283d ba9e 35be
000000a0: e5f9 d4bd 6247 903d 4ac6 c3bd 93c9 193e
000000b0: 09f9 163d 8035 05be 24ad 663d d5cf c9bc
000000c0: 02b0 dabd aeaa 203e 1652 cb3c c49d bb3d
000000d0: fae8 0ebe 3969 5dbd 9fc7 18be 33b0 e53c
000000e0: 026b 093e 520a 203d b31d eb3d a932 fc3d
000000f0: 7691 a8ba 3ee8 72be d612 9d3d 4615 0e3d
00000100: 990d c33c 242f e8bd 31d9 1f3e 80e2 d83d
00000110: 2d4a 1d3d ae84 203d 0a30 d73d 4555 5c3c
00000120: e72b 293d 5888 edbd e6ca fdbc 3440 01be
00000130: 975e 99bd 0c78 d53b 3d55 cebd 50e0 6d3d
00000140: ef90 eb3c 3c09 f43c d015 df3d dab2 07be
00000150: f949 5f3c af6d bbbd da2c 01bd e8c4 0b3e
00000160: 6a22 e0bd 9ae9 38be bc0a 25be f86d acbd
00000170: dcdf 6c3a 6ee4 093c e9e1 de3c 91a9 50bd
00000180: 5bd1 c93d 8922 693d 5b9d a4bc 6f39 22bd
00000190: cb73 cb3d 0007 fe3d 2aae 60bd 8aad 293d
000001a0: 7c4f c13c a02d 123e 4dd3 cf3d 4412 5abe
000001b0: 142b 1b3e c522 ddbd be71 1a3d c4a7 273d
000001c0: 62ae 923d 1eca 0f3e bf04 803d bd7e a53d
000001d0: a4da a6be 435a 8ebd 05bf 013b b75e 1fbd
000001e0: 5ef3 0f3d 1a16 8dbd 2b16 59bd 5e8e 183d
000001f0: a447 b23d 661f 25be 0be1 80bd d21e dbbc
00000200: a05c 9d3b 83cb 423d 63f6 1e3d e852 afbc
00000210: 5614 3bbd 8f5b 18be 01cc fabc d947 f8bd
00000220: bb4d 1b3e 17b4 3a3d d27f 63be 836c 29bc
00000230: 4182 d2bd 4f33 09bd 2957 3c3c 962f 033c
00000240: 2ef0 f0bd 40c8 c53c 990e ce3d 8149 03bc
00000250: b710 06be 9c22 a93d ef37 343c eae6 043c
00000260: 89a4 07be 9e56 d33c 788e 9b3d ef19 4c3c
00000270: 2b11 d73c 6e3a 5bbd df89 db3d 02dc 9d3c
00000280: e24c 39be 8fcc 49be 4c54 b5bd 65a5 1e3d
00000290: b777 23be 28db a6bd 0b9b 23be bddb df3c
000002a0: 7dc2 78bd 7c26 2cbe 55ff da3d 9fb6 063e
000002b0: 0b51 a93d 8557 2c3b 2fae b5bc 8dd6 b0bd
000002c0: f4d3 8b3d 9d65 4f3d 161a cdbd 2ae8 253d
000002d0: 34f1 b9bc a2d0 363d eb51 dbba 6b9e fbbc
000002e0: 891e fa3d ba35 2a3d 00c1 713d 8ce5 d8bc
000002f0: 8a62 9abd 31f8 6a3d 3a18 27bc 64ef 19bd
00000300: 2d8e 97bd 1712 00bd 41b7 91bd 0e4d 4b3a
00000310: ee1e 03be 2649 d73a 27e8 64be dc3b c9bd
00000320: 97e0 abbd 4dd7 f7bd 588f acbd 44c9 bebd
00000330: dd1e f2bd 6523 59be 2c56 2fbe 46f1 0bbc
00000340: 1399 efbd daba 94be b50a 5cbd 7330 00be
00000350: d933 0bbe 519c a5bd 276d eabc 1aef 23be
00000360: d766 70be 707b 39bd d954 cfbd ba75 d73c
00000370: 11b1 48bc 191a 72be f31d d4bd aa7d dbbc
00000380: 9b73 593d 8ccb 0e3d 525e c3bd bbb2 40be
00000390: aa4d 1dbe e108 4d3e b308 9bbd 2131 a93d
000003a0: 968a c7bd 065c 57be ddb8 9e3d 1170 f73d
000003b0: 81dc ef3d d052 cb3b 4227 e8bd dc7c 84bd
000003c0: 834f b4bc 7471 533e c724 08be ea38 fd3c
000003d0: e4b2 94bd 107a 4d3d 6a9c 02be cf1d bbbd
000003e0: 6ea4 18bd b162 93bd 2ead 973c f75c 6bbe
000003f0: 49f7 0fbe 0a13 65bc add0 48bd 3c9a b8bd
0.069052786 -0.06628045 -0.056066535 -0.045777943 -0.044756006 0.09551688 0.089818306 -0.040876377
0.069980584 -0.08799931 -0.13897425 -0.26011875 0.037525024 -0.11302742 -0.030990923 -0.08462589
0.04994616 0.08015339 0.021140963 0.03128382 -0.048555978 -0.072749406 0.042763714 0.025191711
0.11834882 -0.07267502 -0.038857147 0.008268552 0.007911491 -0.08895684 -0.14215946 -0.028669987
0.034735017 0.18022884 0.04935377 0.07297801 0.081551656 -0.03072999 0.041027047 -0.1773633
-0.10399226 0.07044865 -0.09559305 0.150183 0.036858592 -0.1300869 0.056317464 -0.024635235
-0.10678102 0.15690109 0.024819415 0.09160951 -0.13956061 -0.054055426 -0.149199 0.02803812
0.13419726 0.039072342 0.11480274 0.1231435 -0.0012860734 -0.23721406 0.07669608 0.034688257
0.023810195 -0.11337116 0.15610196 0.105900764 0.038400818 0.039189033 0.105072096 0.013448064
0.041301634 -0.11598271 -0.030980539 -0.12622148 -0.07488745 0.006514555 -0.10074852 0.05807525
0.028755633 0.02978956 0.10892832 -0.1325182 0.013628476 -0.0915178 -0.031536914 0.13649333
-0.10944064 -0.18057862 -0.16117376 -0.084194124 0.0009036043 0.008416278 0.027207332 -0.05094296
0.098543845 0.0569177 -0.020094564 -0.039605554 0.09934195 0.12403679 -0.054853596 0.041425265
0.023597471 0.14275217 0.10147724 -0.2129603 0.15153152 -0.107976474 0.03770613 0.04093148
0.07162167 0.14041945 0.06250905 0.08080814 -0.32588685 -0.0695081 0.0019797694 -0.038908686
0.035144202 -0.06888981 -0.052999657 0.037245147 0.087050706 -0.16125259 -0.062929235 -0.026748095
0.0048023015 0.047557365 0.03880919 -0.021401837 -0.04567369 -0.14878677 -0.030614855 -0.12123079
0.1516637 0.045581903 -0.22216728 -0.010340813 -0.1027875 -0.033496197 0.01149539 0.008006951
-0.11764561 0.024143338 0.10061378 -0.00801313 -0.13092314 0.08258554 0.010999664 0.008111695
-0.13246359 0.025798138 0.07595533 0.012457355 0.026253304 -0.05352252 0.10719656 0.019269947
-0.18095735 -0.19706939 -0.08853969 0.03873195 -0.15963636 -0.081472695 -0.15977113 0.027326459
-0.060732353 -0.16811556 0.10693232 0.13155602 0.08267411 0.0026297283 -0.022177784 -0.08634672
0.06827536 0.050634015 -0.10014741 0.040504612 -0.022698022 0.04463256 -0.0016732787 -0.030715188
0.12212855 0.041555144 0.05902195 -0.026476644 -0.07538326 0.0573656 -0.010198647 -0.037581816
-0.07400165 -0.03126725 -0.07115031 0.00077553175 -0.12804767 0.0016424998 -0.22354184 -0.098258704
-0.083924465 -0.12101612 -0.08425778 -0.09315732 -0.11822293 -0.21204908 -0.17122716 -0.008541411
-0.116991185 -0.29048806 -0.05372115 -0.12518482 -0.13593997 -0.080864556 -0.028616501 -0.16009179
-0.2347673 -0.045283735 -0.10123605 0.026301254 -0.012249247 -0.23642768 -0.10357275 -0.02679332
0.053088766 0.034862086 -0.095394745 -0.1881818 -0.15361658 0.20022918 -0.075700186 0.08261324
-0.0974323 -0.21031198 0.077501036 0.12081922 0.1171198 0.0062049404 -0.11335613 -0.064691275
-0.02201057 0.20648748 -0.1329528 0.030910928 -0.07260683 0.050165236 -0.1275498 -0.09136545
-0.037266187 -0.07196558 0.018515196 -0.22984682 -0.14059176 -0.01398159 -0.049027134 -0.09013793

actor.4.bias f4 [6]
00000000: f247 2f3d beea 23bd d986 983e bde9 3d3e
00000010: 55a1 763c ebdd 5d3e
0.04279322 -0.04001879 0.2979038 0.18546195 0.015053113 0.21666686

critic.0.weight f4 [64, 25]
00000000: 7e13 923d 82c7 693d 86ae 1a3d e1c8 77bd
00000010: a4dd 033d ec86 88bd fc07 1fbd ba58 26be
00000020: 3644 0bbc 1977 d23d e15e be3d ab67 ec3d
00000030: c023 b7be 7a61 c4bf 460b 373f 1a4e 633c
00000040: f2a5 303e 3fa1 ccbd 9d3b 7e3c 7a5f 68bd
00000050: 5bed 4a3d 0665 f6bd 7c50 e83d d953 923d
00000060: ccd7 d3bd a984 83be fc17 1bbe 06b2 b7bd
00000070: e9b4 fe3d 0223 8abb 78d3 57bc b493 82bd
00000080: 535b f2bc d6e4 f539 a7f7 673d 297b 963c
00000090: 4983 093d 590f 143e a34e 8540 a3b3 93be
000000a0: 5623 e4bd aa54 da3f f731 a1bc c5ef edbf
000000b0: d3b2 2d3e 4867 8a3d 10c3 e53d 8004 1fbd
000000c0: 50bf b2bc 5c3e 5abc 7d86 363e 13a9 b03c
000000d0: b1ac b83d 259d 83be 7853 82bd f9b7 aa3d
000000e0: b291 3fbb b0f6 a5bd a6a6 633d dbf3 e63b
000000f0: 4395 473c 8621 22bd 49a2 e53e 4abb 1840
00000100: ae16 03bf 108a 093d cf63 493f 8b22 123e
00000110: 3a87 20bf 7f95 60bd 7fb9 0a3d 01c2 e9bd
00000120: 5c91 8b3d 8bc4 af3d 71d7 ed3b c69c 243d
00000130: dc04 b1bd e9c9 75be 7208 1bbe 66c4 65bd
00000140: d914 163e 23fe 04be d24f 36be 0971 b13e
00000150: 3f84 febb f517 cc3e 4601 16be 022a 183f
00000160: a907 28bf a37a 3ebe e642 993e 4274 f0bd
00000170: 08fb 8b3e 9067 4c3e 8ad1 1a3e 6db6 f9bb
00000180: 54b3 ec3d 3e61 893d fcc4 0b3e d049 a63d
00000190: 6c82 66bb 7e72 ff3b b428 74be af1e 9dbe
000001a0: 92fc 2d3e 5eee 843d e2fd 46bd 0e47 7ebc
000001b0: f152 17be 4ac5 783c e3ae 113d c269 5abd
000001c0: dcf4 683e 06f7 043f 2068 edbe b303 edbd
000001d0: 5f90 e3bd f9f0 043d 4c97 2d3e 990b 2ebe
000001e0: 6136 f83b 2f45 2c3e d452 74bd 72fe 5bbd
000001f0: 23ea 9ebd 7356 f43d dc45 603e eaa5 933d
00000200: 54f8 453d 052f 18bc 704c b23d c7df 133d
00000210: e6ce cc3c 7c02 da3d fd88 95bd dbef 9f3c
00000220: e5dc bf3b 14c5 25be 5d57 453f 2b39 173f
00000230: 91d5 56bd bb42 1dbf 03ec c43d 5eda 363f
00000240: b7ca 3d3d fc40 b73d 66cc 7bbd 6ec0 1b3d
00000250: 04b1 04be f148 b4bd 6d56 923e 2647 313e
00000260: 3613 2abe 3c38 7c3e d875 dabe 6b49 3dbe
00000270: 69a7 ab3d 57db e4bc 4b96 223d 8b00 03bc
00000280: afaf 1f3e e96b 9dbd b9a2 4d3e 4889 25c0
00000290: 69f4 67be fac5 bfbd 2a34 b5bf 15d1 77bd
000002a0: 5b02 d23f 7ebe 2f3e faea 0e3e 8c7a 243e
000002b0: 3faf 513e 3150 dbbd 36d1 043e d0be 193e
000002c0: 0dbe 883e 61e2 c8bd 7730 86be a594 d3be
000002d0: 184f d0bc 8420 a43d 97e6 073d bdf1 96bc
000002e0: fbfd 8a3c dbe9 ba39 1cf5 fcbd aca4 443e
000002f0: 7368 943f 4bdb 063e 4d3f e7b9 1504 e73d
00000300: 0a87 e4bd 9cba 82be 01ab 043d 8965 aabd
00000310: 1314 cdbb 5b1c d5bd ef48 c1bd 0ab6 9abd
00000320: eb22 6fbe 1459 723e d6d9 23bd 1d2d 3d3d
00000330: 6b4b 073e 1ea3 07be a3ea 0e3d 77ee babb
00000340: 6d88 1ebc e032 5c3c 85cb b13c a7e6 053d
00000350: 5aa7 803e f7cd 873d 19b4 d8be d823 30be
00000360: c216 4f3f 3bcc 9abd 7a4e 83bf 8d50 5ebb
00000370: 75fb 88bd 3f8a 7b3d ffac f3bc af78 1d3d
00000380: 3fe6 213a ec6e 6b3e eaec c9bd 93f7 353d
00000390: 1620 843d 6e07 173e d509 3c3c bf4c f7bd
000003a0: b218 e6bd a092 673d 01e1 a73d 4c90 c2bd
000003b0: ccce 0cbd 8e9a b83e 7edb e7bc a014 583e
000003c0: 1de8 4f3e 3887 6abe bf29 be3d 7614 863d
000003d0: eecd ab3d 8312 353d b5bb 77bd 6186 eabd
000003e0: 6e8d dd3d b531 153e 8fe7 873d 3465 92be
000003f0: d4ac 63bd a215 98bd 01d6 1f3d 559a ee3d
0.07132624 0.05707503 0.037764095 -0.060494307 0.032193795 -0.06666359 -0.038825974 -0.16244784
-0.0085001495 0.10276622 0.092954405 0.115432106 -0.35769463 -1.5342247 0.71501577 0.013873601
0.17250803 -0.09991693 0.015517143 -0.05673168 0.049542766 -0.120309874 0.11343476 0.07144899
-0.10343894 -0.2568715 -0.15145868 -0.08969502 0.124368496 -0.004215599 -0.013172977 -0.063758284
-0.029584562 0.00046900538 0.056632664 0.018369274 0.03357247 0.1445898 4.165849 -0.2884799
-0.11139552 1.7057087 -0.019677145 -1.8588797 0.16962747 0.067579806 0.11218846 -0.03882265
-0.02181974 -0.013320532 0.1782474 0.021564996 0.09017313 -0.2570583 -0.06363577 0.08335871
-0.0029231128 -0.081036925 0.05557885 0.007048113 0.012181583 -0.03958275 0.44850376 2.3864312
-0.5120648 0.033578932 0.7866792 0.1427099 -0.6270634 -0.05483007 0.03386831 -0.114139564
0.068148345 0.085824095 0.0072583486 0.040188573 -0.08643505 -0.24002804 -0.1513994 -0.056095503
0.1465639 -0.1298757 -0.17803887 0.3465655 -0.00776723 0.39862028 -0.14648923 0.594391
-0.6563669 -0.1860147 0.29933852 -0.117409244 0.2733996 0.19961381 0.15118995 -0.007620624
0.115576416 0.067080006 0.13649362 0.08119547 -0.0035172952 0.007795631 -0.23843652 -0.30687472
0.16990879 0.064907774 -0.048581965 -0.01551987 -0.14777733 0.015183756 0.035567176 -0.053323515
0.22749656 0.5193943 -0.46368504 -0.11572971 -0.11111521 0.032456372 0.16952246 -0.16996612
0.007574842 0.16823266 -0.059649304 -0.053709455 -0.07759502 0.119305514 0.21901649 0.0720938
0.048332527 -0.009288554 0.087059855 0.036102083 0.025001 0.10645005 -0.07301519 0.019523552
0.00585519 -0.1618846 0.7708643 0.59071606 -0.052449767 -0.6142995 0.09615328 0.7142695
0.046335902 0.08947942 -0.061474226 0.038025312 -0.12958151 -0.08802975 0.28581563 0.17312297
-0.16608891 0.24630827 -0.42668033 -0.18485038 0.0838154 -0.02793662 0.03969411 -0.007995735
0.15594362 -0.07686598 0.20081605 -2.586504 -0.22651829 -0.09363933 -1.4156544 -0.06050213
1.6406969 0.17162511 0.13956824 0.16062373 0.20477007 -0.10708655 0.12970433 0.15014195
0.26707497 -0.09808803 -0.2620885 -0.41324344 -0.02542834 0.08014014 0.033178892 -0.018425817
0.01696681 0.0003565092 -0.123514384 0.19203442 1.1594375 0.13169591 -0.00044106916 0.112800755
-0.11158569 -0.25532997 0.032389645 -0.083201475 -0.0062584965 -0.10405799 -0.09437739 -0.075542524
-0.23353164 0.23666793 -0.040002666 0.0461856 0.13212363 -0.13245818 0.034891736 -0.0057046968
-0.009676081 0.013439864 0.021703491 0.03269067 0.2512768 0.066310816 -0.42324904 -0.17201173
0.808941 -0.07558485 -1.0258324 -0.0033922524 -0.066885866 0.06141114 -0.029745577 0.03844517
0.0006175972 0.22991532 -0.09859641 0.04442556 0.064514324 0.14748928 0.0114769535 -0.12075185
-0.11235179 0.056536317 0.08197213 -0.09500179 -0.034376904 0.36055416 -0.028302904 0.21101618
0.20303388 -0.22903144 0.09285306 0.06546871 0.08388887 0.044207107 -0.060481746 -0.11451412
0.10817991 0.14569743 0.06635963 -0.28592837 -0.055584744 -0.07426001 0.03902245 0.1165053

critic.0.bias f4 [64]
00000000: dc20 3dbd b7b2 483e e0a5 8bbd 9f47 3b3c
00000010: 8a28 1b3e 67f5 ebbd 771d e63d 0164 e13d
00000020: d3e1 153d 225c 00be 4269 35be 9b19 28be
00000030: eb8a a4bd 4199 a23d 5b29 87bc f744 6ebd
00000040: ce08 a63d 615c 2f3e 4243 46be b9b1 e4bc
00000050: d202 82bd 4a44 ae3d ffd3 ba3d 0b11 0abd
00000060: 27cd 8dbd f0ab 14bc 1fd7 093e ce2d 253e
00000070: 015d 383e e270 853d fc77 2ebe ebd6 3a3e
00000080: 508e 343e b899 55bd 09c3 773d 78e9 bdbd
00000090: 3125 85bd f84d 243e d0b1 19be 61ba 0bbe
000000a0: d2a9 3abd 8ffd 013e 43ad b8bd f86f f2bd
000000b0: 9be0 a1bd 2564 ae3d 3a26 5dbd f471 50bd
000000c0: 54b8 3fbd bbf2 25be c84b 3a3d bce4 d5bd
000000d0: 09f3 44be 94f0 303e 232a b4bd 2592 b6bc
000000e0: 6368 ad3d 94d9 81be e14a 16bd 3af4 96bc
000000f0: 0345 1f3e 7c72 a43d b6c1 5c3c 04a3 2f3e
-0.046173915 0.19599424 -0.068187475 0.01143065 0.15152183 -0.11521416 0.11236089 0.11005402
0.036592316 -0.12535146 -0.17715934 -0.16416018 -0.08034309 0.07939387 -0.016499212 -0.05817124
0.08107148 0.17125084 -0.19361594 -0.027916776 -0.06348194 0.08509119 0.09122466 -0.03370766
-0.06923895 -0.009074196 0.13460968 0.16130754 0.18004228 0.06515671 -0.17037958 0.18246047
0.17632413 -0.05214855 0.060488734 -0.09273046 -0.06501234 0.16045368 -0.15009236 -0.13645317
-0.04557211 0.12694381 -0.09017422 -0.118377626 -0.07904168 0.08515195 -0.053991534 -0.050889924
-0.04680665 -0.16205876 0.045482427 -0.10444018 -0.19233336 0.17279273 -0.087970994 -0.022286484
0.08467176 -0.2536131 -0.036692504 -0.018427003 0.1555367 0.08029649 0.013473919 0.1715203

critic.2.weight f4 [64, 64]
00000000: a38d 20bd 0023 c43d a53a 3a3d 2617 58bc
00000010: 8e81 653a 6a64 2fbd dfb7 8abc 8529 e0bb
00000020: b65b c5bb 6960 aebd ba26 083d f9bb 033e
00000030: f4bd acbd 6e09 773d 617b 3e3d 883d 2ebd
00000040: 2d3a aebc 1a71 f73d 455b df3d 9ee7 e3bd
00000050: 32c1 7c3d c00f 34bd 4a0c 1f3b cedb 763d
00000060: 1375 fdb9 d294 e3bd 39b0 7cbd 93c2 6c3d
00000070: ba42 a8bd a992 733b 6d65 c53d 7511 27bd
00000080: d4a6 4f3c b523 a0bb 65c7 25be 2fea 76bd
00000090: b808 8bbd b86a ecbd ecac b6bd 4d9e 46bc
000000a0: 385e 17be 6b27 05be f911 8bbd f4b6 9f3c
000000b0: c9bb 053d 10f8 0ebe b6bf c63d 7a9d f3bd
000000c0: 6810 a03d a80d cb3d 8906 86bd f9f7 c7bd
000000d0: 177f c1bd f2d1 3f3c 08a7 203e fec5 d7bb
000000e0: 5e3e 01bd e44c 333d 23d6 8f3d da23 cb3c
000000f0: cd72 853d a2ad 323d 1a0f d8bc 7992 6a3d
00000100: 0263 cd3d 5a28 46be 7019 62bb 5eef f3bd
00000110: 1f2d ccbc b1aa 443d 9089 71bd d3e2 1a3e
00000120: 5c06 03bd bc6c 6f3d 4fbd 9fbc 2e50 233d
00000130: 48e3 ca3b 9d45 b0bd 6ee3 9f3d c113 9e3d
00000140: ffa0 b9bd 2d94 093d fd78 173e f97f 983d
00000150: 420c 4fbd 340d 08bd 6803 1bbd 09a8 0fbd
00000160: f8ba ae3d 5182 c9bd c565 a43d d7eb d13d
00000170: aaa7 f1bc cb76 18be eb2a eebc a8ca 51bd
00000180: 30e5 edbd 870f 7abd 798f 2fbc 4309 d53d
00000190: a396 89bc 2fbc febd da10 7b3e 4a3a 153d
000001a0: 98f1 723b 30b6 803d 400d 813d 7117 dbbc
000001b0: 05f0 c33d a42a 8a3d bb85 603a d260 e23d
000001c0: 1d8a 5a3e a780 7c3d eb7b 83bc 06dd 883d
000001d0: 5ad7 c03d 700d 34bd d95c c53c dfcf c23d
000001e0: 7014 a3bd 9488 83bd 80db 853b 6d61 253d
000001f0: e2c1 163d f6ce 19bd 16cc 8b3d 49bf ff3c
00000200: acad d6bd d187 b33d 279c 1c3d b47d dabd
00000210: 496c 19bd 6df3 d1bd 4720 003e b1a8 94bd
00000220: cc8d d33c 7825 89bd e172 9c3d b09d 04be
00000230: 5f9e 85bd 951c 7dbd f202 073d 0eea 43bd
00000240: 04cf 94bd 2967 573e 5cbb 3b3c 21d6 e8bc
00000250: e633 b83d 9df5 9d3c 95d5 b7bd 78a6 ecbc
00000260: f220 6f3d f5cd bb3d a5a8 03bc 80c6 f33d
00000270: c658 ce3d e6fe 3abd 8204 123e e148 f3bd
00000280: 0135 87bd ca56 a8bd cc3a a1bd d070 c5bd
00000290: 4a9a b8bc 8e03 4dbe 5aa8 cf3d 2e11 1d3e
000002a0: 9daf 9dbd 2da6 723d 1bfc 7abd d753 b9bd
000002b0: 09bf d73d 9a16 9e3d c8ee 6ebd 7fd2 1e3e
000002c0: 7894 ecbc 771a 41bd ab24 2cbd aede 19be
000002d0: 0d44 efbc be5f b43d d86c 1a3e 9691 ff3d
000002e0: fbd6 ab3c cdb6 cf39 2899 cf3d f1a0 193c
000002f0: f10c b4bc 12e4 923b 7961 e33c a622 d7bd
00000300: b7e1 773d c759 a23d a90c aabb 7903 e2bd
00000310: 68ad 883d 45d1 acbd 772c 04bd 119f 523d
00000320: f5f8 12be 33b0 983d 1630 d43c 24b0 9ebd
00000330: 1abc abbd 153a 7ebd 2534 ea3d d133 53be
00000340: b884 2d3d f224 873c bef7 ad3c bd28 3dbd
00000350: f4b9 56bc 09d0 55bc 9ce3 893d 3df1 f03d
00000360: 76df 2dbe cd32 edbc 9e9f 603d fc19 8d3d
00000370: a7b0 f1bd fef4 19bd c6cd 7c3d 5789 453d
00000380: 1581 58bd 955b 1bbe 1ddf 7abd 97c1 cc3d
00000390: 2e40 8fbd 2438 bc3d 9894 dc3d ef49 e63d
000003a0: d571 46bc 90ea dcbd 2720 293d 9174 81bd
000003b0: a62f e8bd 632f 2bbc 543f 233d bda5 01bc
000003c0: b119 283e 5f56 903d 98c5 433b 5a9e ecbc
000003d0: a330 0d3e 38b8 5bbd 2354 393d f06f c03d
000003e0: 75a1 483d aa2f 773c b7c2 0b3d 59bf 54bd
000003f0: a024 b5bd c926 bdbd 93b1 d9bd 564f 83bd
-0.039197575 0.09576988 0.045466084 -0.013189113 0.0008754962 -0.04282037 -0.01693338 -0.006840887
-0.0060228957 -0.085144825 0.033240058 0.12864675 -0.08434668 0.060311727 0.046504382 -0.04253915
-0.021267975 0.12082119 0.1090608 -0.11128162 0.061707683 -0.043960333 0.00242688 0.060268216
-0.00048343148 -0.111123696 -0.061691497 0.057802748 -0.08215852 0.0037166274 0.09638486 -0.040788133
0.012674052 -0.004887069 -0.16189344 -0.06028193 -0.06788772 -0.115437925 -0.08919701 -0.012122703
-0.14782035 -0.13003318 -0.067905374 0.019496419 0.03264979 -0.13961816 0.09704535 -0.11895271
0.07815629 0.09914714 -0.06544215 -0.09764094 -0.094480686 0.01170777 0.15688717 -0.006584882
-0.03155362 0.0437745 0.07023265 0.024797369 0.06516037 0.04362262 -0.026374388 0.057268593
0.1002865 -0.1935133 -0.0034500025 -0.1191089 -0.02492386 0.048014347 -0.05896908 0.15125589
-0.031988487 0.058453307 -0.019499449 0.039871387 0.006191645 -0.08607028 0.07807051 0.077186115
-0.09063911 0.033588577 0.14792247 0.07446284 -0.0505488 -0.033215716 -0.037845045 -0.03507236
0.08531755 -0.09839309 0.080272235 0.10250061 -0.029498894 -0.14889066 -0.0290732 -0.05121866
-0.1161598 -0.061049964 -0.010715359 0.10402157 -0.016795462 -0.12438237 0.24518147 0.036432542
0.003707027 0.062847495 0.06301355 -0.026744576 0.095672645 0.06746414 0.0008564849 0.11053623
0.21341749 0.06164613 -0.0160503 0.06682782 0.09416075 -0.043958127 0.024092125 0.095123045
-0.079628825 -0.064225346 0.0040850043 0.040376116 0.036805995 -0.03755089 0.06826036 0.031219142
-0.10482344 0.08766139 0.038234856 -0.10668507 -0.037456784 -0.10251508 0.12512313 -0.07258738
0.02582445 -0.066966 0.07639099 -0.12950778 -0.065243475 -0.061794836 0.032961793 -0.047830634
-0.072660476 0.21035446 0.011458244 -0.028422417 0.08994274 0.019282157 -0.089762844 -0.028887972
0.05838103 0.091701426 -0.008035813 0.11903095 0.10075526 -0.045653246 0.14259532 -0.11879135
-0.066019066 -0.08219679 -0.07872543 -0.09640658 -0.022534508 -0.20020887 0.101395324 0.15338585
-0.07699511 0.05924051 -0.061275583 -0.09049194 0.10534484 0.07719155 -0.05833319 0.15509985
-0.02887939 -0.04714438 -0.042027157 -0.15026352 -0.029207254 0.08807324 0.15080583 0.1247894
0.020976534 0.00039618314 0.10136634 0.00937675 -0.021978827 0.0044827545 0.02775644 -0.105046555
0.060517993 0.0792728 -0.0051894975 -0.110358186 0.066736996 -0.084383525 -0.032268967 0.05142123
-0.14352782 0.07455482 0.025901835 -0.0774844 -0.08385487 -0.06206711 0.11435727 -0.20625235
0.0423629 0.01649711 0.021236297 -0.04618143 -0.013105858 -0.013050088 0.06732866 0.117647626
-0.16979775 -0.028954888 0.054839723 0.06889722 -0.11801272 -0.03758716 0.06171968 0.04822668
-0.052857477 -0.15171655 -0.061247934 0.09997862 -0.06994663 0.091903955 0.107705295 0.112445705
-0.012112101 -0.10786927 0.04129043 -0.063210614 -0.11337213 -0.01044831 0.039855316 -0.00791305
0.1641605 0.07047724 0.0029872414 -0.028884102 0.13788085 -0.05364248 0.045246255 0.093963504
0.048982102 0.015087048 0.03412124 -0.051940296 -0.08844876 -0.09235913 -0.10629573 -0.064116165

critic.2.bias f4 [64]
00000000: 27d8 9b3d bc04 41bd 8752 dcbc a4ab 22be
00000010: f5c0 97be 987b 53be aa58 3bbd 1ebf 7b3d
00000020: 8222 533c 215f 15bd 92a0 ee3d bbfa 28be
00000030: 97e3 abbc 93a7 e0bc 04ab 76bd 0aca eebd
00000040: 602f 1bbd 053d dd3d cded 393e f792 07be
00000050: 9c06 133e 4ee5 983d 4cd1 1dbc a6fe 0bbd
00000060: b21d a33d 0e65 21be 59a5 e3bc 63cb 96bd
00000070: 30ae f6bd 67e3 473d e5e0 e1bd 9820 d13c
00000080: db0b ec3c 6190 b7bd 3724 b7bd 52b4 6abd
00000090: 94ee 453d 577b 00be 4bb0 c1bd 8d8e 0fbc
000000a0: 04e1 22bd 3a25 d8bd 3de7 eabd 8c21 cfbc
000000b0: 4c13 043d 557a 0d3e 6efe aebd 9310 2a3e
000000c0: a31b 793d 4217 683d 53b1 e73d 06ac 043c
000000d0: be4e 01be 896f 9ebd 31c7 2ebd a502 063d
000000e0: b5de 323d 2b84 0abd b5b6 c5bd 019d cdbd
000000f0: 2150 ba3d 5566 32be dd74 593b 35e0 213e
0.07609587 -0.047123656 -0.02689482 -0.15885788 -0.29639402 -0.20652616 -0.045738854 0.06146156
0.012886645 -0.036467675 0.1165172 -0.16501896 -0.020982547 -0.027423656 -0.060221687 -0.1165963
-0.037886977 0.10802654 0.1815712 -0.13239656 0.1435799 0.074656114 -0.00963242 -0.0341784
0.07964648 -0.15761206 -0.027788805 -0.07363012 -0.120449424 0.048800852 -0.11029223 0.025528237
0.028814247 -0.08963085 -0.08942454 -0.057300873 0.04832323 -0.1254705 -0.09457453 -0.008762014
-0.039765373 -0.105539754 -0.114698865 -0.025284551 0.032244965 0.13816197 -0.08544622 0.16607885
0.060817372 0.056662805 0.11313119 0.008097654 -0.12627694 -0.077361174 -0.042670432 0.032717366
0.04366942 -0.03381745 -0.09653989 -0.10039712 0.090973146 -0.17421849 0.0033181228 0.15808184

critic.4.weight f4 [1, 64]
00000000: 9db2 373c b6cb cdbc a1ff 3f3d d546 423d
00000010: 31aa f93d 47f5 8b3d bc06 30bc 63a2 453d
00000020: 2944 00bd 2e4b 7a3c 28ec 96bd ad66 c9b8
00000030: 1e14 7fbd 6aad 70bc 3beb b83d 6b19 423d
00000040: 5341 b7bc d374 03bd 9f3c 06be 7eaf f93d
00000050: 2e0b 063d e6ca 933c e298 2dbd a340 253d
00000060: c667 b2bd 2d9f a9bd 10e2 973c a927 51bd
00000070: 007d d03d 593e 9dbd 775b e93d 76a8 19be
00000080: 4746 183d afac dcbc 0370 f1bc 6cd4 213d
00000090: 503a 1dbc fcb1 d13d 8d81 0a3d 9297 cb3c
000000a0: 174b 0dbd 14a1 593d f2c2 35bd 89f8 ebbd
000000b0: 0353 54bc 5e5b 2abd 5244 49bd 0acc 14be
000000c0: 2e15 b83b f1ca 053c b5c1 0dbd a0d9 bfbc
000000d0: 8168 b53c 076f 9e3c d772 77bd 4273 93bd
000000e0: 6e06 cebb 5e79 f93c 28dc 20bd 1767 a23c
000000f0: 3652 62bb db0a 653d bb75 e23c 05cb a0bd
0.011212018 -0.025121551 0.046874646 0.047430832 0.121906646 0.06833892 -0.010743793 0.048250567
-0.031315003 0.015276713 -0.07369262 -9.603552e-05 -0.062275045 -0.014689783 0.09029242 0.04738752
-0.022370016 -0.032093834 -0.13109063 0.121916756 0.032725506 0.018041085 -0.04238213 0.040344846
-0.087111995 -0.082823135 0.018540412 -0.051063213 0.10180092 -0.076779075 0.11394399 -0.15005669
0.037176397 -0.02693781 -0.029472357 0.039509222 -0.009596422 0.10239026 0.033814956 0.024852548
-0.03449544 0.05313213 -0.044375367 -0.11522014 -0.012959245 -0.04159104 -0.04913742 -0.1453096
0.005617759 0.008166061 -0.03460856 -0.023419201 0.022144558 0.019340051 -0.060412254 -0.07199718
-0.0062873876 0.03045338 -0.039272457 0.019824548 -0.0034533865 0.055918556 0.027644029 -0.07851223

exp_avg f4 [6]
00000000: 16e7 9336 3c8b 3539 6253 9f38 17e2 d13b
00000010: 5532 693b bf08 7a39
4.4078433e-06 0.00017313374 7.597242e-05 0.006405126 0.0035582979 0.00023845116

exp_avg_sq f4 [6]
00000000: 6874 1437 acab 8737 4245 7137 b69e 9d3b
00000010: f873 1c38 74fd 2d39
8.84859e-06 1.6173195e-05 1.4380845e-05 0.0048101796 3.7301303e-05 0.00016592984

exp_avg f4 [64, 25]
00000000: 061c 023a f406 3238 3154 ac39 b7b3 e03a
00000010: 357c 8438 e50f 9a39 332e 0139 1faf 1e37
00000020: 449f 8238 23e8 b338 e15b 1837 ffd8 fab8
00000030: 4409 b638 b1b7 3c39 8720 0339 d81d 5a39
00000040: 524a 4b38 161d 5a39 714b 4bb8 2c1c 943a
00000050: c1da 6cb7 8dbc 413a f642 5b3b 1f9e 0f39
00000060: 4564 0e3a 6aae d339 3e96 5239 f738 453a
00000070: e0ed 283b ed3f 3439 c29b 043a a2be ceb7
00000080: 9ebb fb36 1223 6738 6cd6 8838 19d5 8a38
00000090: 09be 8eb9 8b80 4939 1495 1939 f7cb 7c39
000000a0: de3f ea39 3ebd 0839 c13f ea39 7cbd 08b9
000000b0: 810f 633a f0fb 7439 713d d23a e0d1 a23b
000000c0: 42d8 d939 3268 6f3a 1fa3 c036 7c70 3eb8
000000d0: c4fb a8b9 310e bfb9 b175 4fb9 325a a3b8
000000e0: a498 12ba f3ec b438 8c59 96b8 c401 a039
000000f0: b1c0 d239 5f32 f238 c9d1 82b8 12e2 61b8
00000100: 2865 00b9 629d 5cb9 ce00 ac38 6f9d 5cb9
00000110: 9100 acb8 24a2 6fb9 fedf 29b9 9503 1aba
00000120: 4b49 88ba 00ef 15b9 211d 7db9 80b5 59b8
00000130: d5f5 30b7 5a10 85b9 f282 39b9 a0c3 09b9
00000140: 82ab b238 0b07 b638 2c2b fd36 9fe6 d037
00000150: 09e7 3bb8 9dc6 38b8 5cbc aa37 af5a 92b8
00000160: 4cd5 ddb7 27f1 a4b8 0f63 18b9 c30c 8cb7
00000170: 4f63 18b9 0b0d 8c37 e81e b9b8 599a 0a36
00000180: 3300 01ba b085 38b9 8e85 71b9 b1a4 3839
00000190: 20be a039 0589 e338 a9a0 303a 03c6 ed3a
000001a0: df2e 8e39 0ce3 b439 e8b8 c2b7 66b6 aeb7
000001b0: 4608 b538 ba4e d338 c09d 69b8 0367 e6b7
000001c0: 3400 3f39 6743 fd38 96e1 7439 beba e339
000001d0: 2724 6e37 c5ba e339 7129 6eb7 db77 1b3a
000001e0: f1cd af38 2a37 b73a 2e81 693b 46f4 0e3a
000001f0: 6c12 303a 248e 7538 f211 f6b8 437c 64ba
00000200: 3832 c9ba d349 0bba 88a8 bdb9 034c ca37
00000210: 37e2 0139 3d36 a1b8 fbf2 37b8 586c de38
00000220: 3ee8 5f38 9c34 73b9 604d 57b7 7400 9bb9
00000230: 6fea 11ba ef35 1038 88ea 11ba 1035 10b8
00000240: fca7 0239 3d6e 78b8 4404 ebba 014d 3fbb
00000250: 85e9 8aba dc09 38ba 05e1 293a cf8e da38
00000260: 3e09 bc39 23ba 0b3b 43ec 08b9 7b3c 9639
00000270: eb2a c538 a82f a436 91dd 0637 d194 ea38
00000280: c81f ec38 e2ae 42b9 594f e138 914c 7139
00000290: 886e 0b39 1821 6b39 14dc 3239 7720 6b39
000002a0: 73dc 32b9 7cbb be3a 05bf cb38 939b 573a
000002b0: 7499 8b3b 943f 82b9 4ae2 173a 64de 02b8
000002c0: 787b afb7 3c9a a5b9 48e5 4439 6b1e 09b9
000002d0: c7a1 6e39 80c8 ae38 f8fb 9637 3c75 5b38
000002e0: 5d79 e4b8 bb1a 4437 f0fd bfb8 1116 c8b8
000002f0: ccbe 81b7 f446 cdb8 21cf 3eb9 a29d 3ab7
00000300: aacf 3eb9 379e 3a37 a49e 18b8 6493 7bb8
00000310: ad03 1aba 8a6d aa39 6026 3db9 4760 be39
00000320: 60da 7eb8 d156 deb8 ebd3 efb9 8153 d2ba
00000330: db1d 57b9 ad1e e8b9 f359 cdb7 41ef e937
00000340: d23e 55b8 5da6 b3b8 d36f 3739 6032 5138
00000350: b797 fbb8 a610 28b8 6bc7 10b9 657e 96b9
00000360: 2e47 3bb8 5b7e 96b9 a947 3b38 adb4 1ab9
00000370: 12dd cbb8 c914 7cba 404e 4dbb 1163 c9b9
00000380: 8a34 5dba b99f 0eb9 f6fb 79b8 d4b9 30b9
00000390: 2727 cb37 ada6 beb7 d023 0139 537d 78b8
000003a0: 1e70 3937 3d02 1ab8 e1e1 6a38 4de8 bbb7
000003b0: f5cd 3938 5b29 44b8 beb8 f3b7 0d07 48b8
000003c0: c4aa cdb8 01b2 24b5 cbab cdb8 74bb 2435
000003d0: 6f66 abb9 494d c4b8 17d0 ceb9 ec4b 1ab8
000003e0: 249d 64b8 0981 aa39 7080 f1b7 4f6f 9437
000003f0: 717f df38 7ca2 c8b8 02b5 e438 7aaa 77b8
0.0004963282 4.2444983e-05 0.00032869124 0.0017143403 6.317386e-05 0.0002938501 0.00012319609 9.458307e-06
6.2285486e-05 8.578624e-05 9.081298e-06 -0.000119613476 8.680162e-05 0.00017997508 0.00012505251 0.00020801218
4.8468188e-05 0.00020800935 -4.8469232e-05 0.00112999 -1.4117629e-05 0.0007390462 0.003345666 0.00013696447
0.00054318114 0.00040375005 0.0002008313 0.0007523442 0.002577655 0.00017189952 0.000505861 -2.4645884e-05
7.5022244e-06 5.5107354e-05 6.5249245e-05 6.620045e-05 -0.00027225938 0.0001921674 0.00014646753 0.00024108576
0.00044679543 0.00013040469 0.00044679458 -0.00013040559 0.0008661673 0.00023363507 0.001604004 0.0049688667
0.0004155059 0.0009132653 5.7410357e-06 -4.540429e-05 -0.00032231037 -0.00036440932 -0.00019784902 -7.789246e-05
-0.0005592203 8.627204e-05 -7.169237e-05 0.00030518894 0.00040197888 0.000115488416 -6.2379586e-05 -5.3854725e-05
-0.00012244715 -0.00021039465 8.201749e-05 -0.00021039484 -8.2017046e-05 -0.00022853218 -0.0001620054 -0.00058751676
-0.001039782 -0.00014298782 -0.00024138812 -5.1905867e-05 -1.0547655e-05 -0.0002537992 -0.00017691756 -0.00013138214
8.519647e-05 8.679748e-05 7.5450134e-06 2.4902924e-05 -4.4799443e-05 -4.405399e-05 2.035329e-05 -6.978714e-05
-2.6444577e-05 -7.8650475e-05 -0.00014532752 -1.6695243e-05 -0.00014532845 1.6695374e-05 -8.827244e-05 2.0653445e-06
-0.0004920989 -0.0001759741 -0.00023033304 0.0001760896 0.00030659232 0.000108497254 0.00067378074 0.0018140677
0.00027119272 0.00034501438 -2.3212706e-05 -2.0827352e-05 8.6322936e-05 0.00010075928 -5.5698445e-05 -2.7466105e-05
0.00018215255 0.00012076535 0.0002335369 0.00043435948 1.4194323e-05 0.00043435968 -1.4195554e-05 0.00059306406
8.38301e-05 0.0013978232 0.0035629976 0.00054532697 0.0006716612 5.854493e-05 -0.00011733537 -0.0008716026
-0.0015350049 -0.000531343 -0.00036174455 2.4115672e-05 0.0001238667 -7.687181e-05 -4.3856893e-05 0.000106059655
5.3383636e-05 -0.00023193884 -1.2833014e-05 -0.0002956424 -0.00055662444 3.4382505e-05 -0.0005566259 -3.4381694e-05
0.00012460345 -5.9230475e-05 -0.0017930348 -0.0029190185 -0.0010598159 -0.0007020512 0.0006480369 0.0001042165
0.0003586504 0.0021320663 -0.00013057985 0.0002865529 9.401686e-05 4.893129e-06 8.03861e-06 0.00011185709
0.00011259277 -0.0001856643 0.00010743616 0.00023012074 0.00013297249 0.00022423675 0.00017057388 0.0002242344
-0.00017057527 0.0014551724 9.7153745e-05 0.00082247815 0.0042602364 -0.00024842902 0.00057939126 -3.1201533e-05
-2.091912e-05 -0.00031586166 0.0001877743 -0.0001307667 0.00022757715 8.3343126e-05 1.7998726e-05 5.2322852e-05
-0.00010894493 1.1688734e-05 -9.154889e-05 -9.540853e-05 -1.5466845e-05 -9.788378e-05 -0.00018196974 -1.1123166e-05
-0.00018197173 1.1123301e-05 -3.638737e-05 -5.998033e-05 -0.00058751815 0.0003250654 -0.0001803874 0.00036311356
-6.0761697e-05 -0.00010601956 -0.00045743524 -0.0016046615 -0.0002051512 -0.00044273344 -2.447979e-05 2.7887176e-05
-5.0841663e-05 -8.566373e-05 0.00017493898 4.98764e-05 -0.00011996872 -4.0069826e-05 -0.00013807199 -0.000287044
-4.4650566e-05 -0.00028704372 4.4651013e-05 -0.00014753891 -9.720972e-05 -0.00096161343 -0.0031327158 -0.00038411518
-0.000843831 -0.00013601677 -5.9600883e-05 -0.00016853894 2.4217718e-05 -2.272738e-05 0.0001231574 -5.9244525e-05
1.1052964e-05 -3.6718546e-05 5.6000314e-05 -2.240031e-05 4.429925e-05 -4.6768557e-05 -2.9053885e-05 -4.7690282e-05
-9.806969e-05 -6.135379e-07 -9.807161e-05 6.136754e-07 -0.0003269198 -9.360404e-05 -0.0003944642 -3.678717e-05
-5.4505785e-05 0.00032521065 -2.8789247e-05 1.7694807e-05 0.000106572064 -9.567008e-05 0.000109056025 -5.9048158e-05
