04-goal-pose-l6/logs/rsl_rl/joint_position/2026-02-19_13-16-49/model_1650.pt (torch, 161397 bytes, 36 tensors)

std f4 [6]
0.035306334 0.028730232 0.029881751 0.0065068053 0.020713314 0.01402568
00000000: 609d 103d aa5b eb3c 93ca f43c 0a37 d53b
00000010: f8ae a93c f7cb 653c

actor.0.weight f4 [64, 25]
0.54129213 -0.23819096 -0.13486803 0.1272164 0.31839126 -0.26845932 -0.12910376 -0.13310269
-0.09105089 0.20011133 -0.12531976 -0.10028853 -0.38315967 0.73550147 -0.37211078 -0.056034572
1.1452832 -0.123951115 -1.4017923 -0.32366052 -0.078249216 0.17800736 0.2596089 0.010997838
-0.06918574 -0.4759048 0.05344803 0.123099156 0.45243043 -0.41178772 -0.15043996 0.17075786
0.022824535 -0.058014028 -0.057487387 -0.086516425 -0.049892683 -0.12935229 -0.56957257 -0.6128212
-0.15501443 -0.9918881 -0.118818484 1.1498306 0.072948724 0.29086488 -0.1451974 0.18450841
0.037466746 -0.10659712 -1.0625453 0.14533001 0.11594508 0.64554185 -0.66151714 0.8093107
-0.09806565 0.06572373 0.05038585 0.29564962 -0.07262884 0.061784416 0.23676611 -0.91525143
0.068645574 0.26994625 -2.0824392 0.044397403 2.0966008 -0.12428302 -0.1536066 -0.0009764111
0.19833946 -0.13854913 0.14079864 0.54021436 -0.13016558 -0.45382774 -0.5099552 -0.24485895
-0.54274017 0.21008469 -0.26401335 0.119073845 -0.22650962 0.38129282 -0.03120037 -0.10939478
1.5131083 -0.069816954 -0.041941795 1.2552549 0.109700605 -1.0567839 -0.0029248728 -0.06725174
-0.018681554 -0.13887863 -0.14708713 -0.22073272 0.064532004 -0.06879586 -0.6234756 0.0234177
-0.053093363 0.011807434 0.11412387 0.08822745 -0.13743736 0.25042558 -0.14285547 0.026445163
-0.2394293 2.096271 -0.23793375 -0.073568955 0.54818726 -0.12838161 -0.53640777 -0.035490647
0.07962461 0.047963616 0.070971385 0.030562826 0.17000477 0.0825888 -0.33910975 0.5004342
0.16029108 -0.0076269 -0.3606717 -0.4308296 0.017946888 -0.101695366 0.25632432 0.050418448
0.19552395 -0.108508304 -1.3441839 0.07029533 0.17092304 -0.07787561 0.15564793 0.16723272
-0.08282299 5.365619e-05 -0.15252453 -0.08346756 -0.098725006 -0.005754835 -0.18786173 0.19829048
0.9229879 0.23016603 -0.25590628 0.39351904 -0.3889319 -0.048388153 -0.05357409 0.080441475
0.04979437 -0.043030646 -0.13604161 -1.7143707 -0.38615537 0.13883673 0.11624839 0.054717377
-0.09073503 0.075025514 0.5487383 -0.0051548397 -0.039051086 0.030479139 -0.34354252 -0.06357167
0.46362612 -0.24817781 -0.31568703 -0.06173793 -0.3205871 -0.16621706 -0.22073987 0.035893932
-0.08759518 0.10825057 -0.031231428 -0.28695008 0.4185108 -0.10638233 -0.036689434 1.1097069
-0.17816323 -0.85352933 0.20816089 -0.18577845 -0.14978355 -0.19830127 -0.056609195 -0.12809798
-0.11216454 -0.31400144 0.14436436 -0.100029804 -0.00926205 -0.43548328 0.07941588 -0.03816198
-0.1474153 -0.07452024 0.0967564 0.10962441 -0.10471125 -1.1487302 -0.23474911 -0.045023475
1.1502593 0.21429227 -1.1414979 -0.21757732 -0.1305231 0.041431993 0.119077854 -0.39557135
-0.062373016 0.21982145 -0.29814726 -0.48480493 0.041105106 -0.7942539 0.16151515 -0.48663712
0.26633877 0.07859863 0.14312239 0.008029844 0.04338452 0.018671311 0.5205326 -0.041838568
-0.1738512 0.4557667 -0.077366896 -0.34954837 0.14809638 -0.119248755 0.18793914 -0.20002204
0.28975925 0.0145768775 -0.05663018 0.22812474 0.02080967 -0.25827584 -0.12981696 -0.27730966
00000000: 1f92 0a3f 55e8 73be d81a 0abe 0445 023e
00000010: 2e04 a33e 8073 89be c733 04be 124c 08be
00000020: e478 babd fce9 4c3e d353 00be 1364 cdbd
00000030: 812d c4be d349 3c3f 4e85 bebe 8284 65bd
00000040: a498 923f 15da fdbd ee6d b3bf d5b6 a5be
00000050: 2041 a0bd 9047 363e 75eb 843e 4730 343c
00000060: 41b1 8dbd cba9 f3be 52ec 5a3d 691b fc3d
00000070: f6a4 e73e d7d5 d2be ef0c 1abe 26db 2e3e
00000080: 85fa ba3c 1ea0 6dbd e577 6bbd 862f b1bd
00000090: 455c 4cbd ed74 04be 82cf 11bf dae1 1cbf
000000a0: 1abc 1ebe 61ec 7dbf 1b57 f3bd a62d 933f
000000b0: 2466 953d 3eec 943e a1ae 14be c6ef 3c3e
000000c0: bb76 193d 974f dabd 7c01 88bf 64d1 143e
000000d0: 9d74 ed3d 3b42 253f 3059 29bf fc2e 4f3f
000000e0: a5d6 c8bd 2a9a 863d 6561 4e3d 635f 973e
000000f0: 6ebe 94bd a811 7d3d d172 723e eb4d 6abf
00000100: 0d96 8c3d 6536 8a3e af46 05c0 0dda 353d
00000110: b52e 0640 1988 febd 0c4b 1dbe d7f5 7fba
00000120: 8019 4b3e d3df 0dbe 852d 103e 7d4b 0a3f
00000130: 204a 05be 1c5c e8be 6d8c 02bf 4ebc 7abe
00000140: 05f1 0abf 7120 573e c22c 87be fddc f33d
00000150: 23f2 67be d038 c33e eb97 ffbc 5f0a e0bd
00000160: 88ad c13f 31fc 8ebd 29cb 2bbd 31ac a03f
00000170: b6aa e03d b244 87bf 39af 3fbb 48bb 89bd
00000180: 0f0a 99bc 3336 0ebe 029e 16be c207 62be
00000190: 5b29 843d d8e4 8cbd 199c 1fbf 7ad6 bf3c
000001a0: 6d78 59bd f873 413c c7b9 e93d 98b0 b43d
000001b0: 61bc 0cbe c837 803e b448 12be 87a3 d83c
000001c0: f42c 75be 4e29 0640 e8a4 73be 52ab 96bd
000001d0: 0056 0c3f 7876 03be 0552 09bf a45e 11bd
000001e0: 3a12 a33d 7f75 443d 7259 913d e45e fa3c
000001f0: bb15 2e3e 5124 a93d cb9f adbe 751c 003f
00000200: 5823 243e 13eb f9bb f6a9 b8be b395 dcbe
00000210: 5a05 933c a945 d0bd f13c 833e 9383 4e3d
00000220: 6e37 483e 9a39 debd 380e acbf fff6 8f3d
00000230: 7306 2f3e 3f7d 9fbd 2c62 1f3e 0e3f 2b3e
00000240: 1a9f a9bd e50c 6138 642f 1cbe 0af1 aabd
00000250: 5630 cabd 0e93 bcbb d35e 40be a90c 4b3e
00000260: ef48 6c3f a5b0 6b3e 2606 83be 547b c93e
00000270: 1522 c7be a832 46bd 8170 5bbd 80be a43d
00000280: 2ef5 4b3d e740 30bd 7e4e 0bbe 8070 dbbf
00000290: 28b6 c5be 372b 0e3e a313 ee3d 541f 603d
000002a0: 4ad3 b9bd faa6 993d 1d7a 0c3f eee9 a8bb
000002b0: 08f4 1fbd 63af f93c cee4 afbe dd31 82bd
000002c0: 6760 ed3e 5322 7ebe bba1 a1be e9e0 7cbd
000002d0: fe23 a4be ce34 2abe a209 62be 8405 133d
000002e0: 1a65 b3bd 7ab2 dd3d 0dd9 ffbc 1feb 92be
000002f0: 0c47 d63e fbde d9bd a947 16bd e00a 8e3f
00000300: 6c70 36be e680 5abf 2128 553e b53c 3ebe
00000310: dc60 19be 7d0f 4bbe 0bdf 67bd 1e2c 03be
00000320: 86b6 e5bd ccc4 a0be 40d4 133e 6ddc ccbd
00000330: dabf 17bc aaf7 debe cba4 a23d bd4f 1cbd
00000340: 09f4 16be 119e 98bd 3828 c63d c382 e03d
00000350: da72 d6bd 9709 93bf 1262 70be 896a 38bd
00000360: b23b 933f 6f6f 5b3e 9a1c 92bf 97cc 5ebe
00000370: d9a7 05be 98b4 293d 17df f33d 5488 cabe
00000380: d97a 7fbd e018 613e c2a6 98be 5a38 f8be
00000390: d45d 283d 3954 4bbf 3a64 253e 8028 f9be
000003a0: 8e5d 883e 52f8 a03d ad8e 123e 9b8f 033c
000003b0: f7b3 313d 94f4 983c a041 053f eb5e 2bbd
000003c0: 0d06 32be 415a e93e 8972 9ebd 01f8 b2be
000003d0: 94a6 173e b138 f4bd 1e73 403e 94d2 4cbe
000003e0: 535b 943e dbd3 6e3c 0cf5 67bd 8899 693e
000003f0: 0b79 aa3c bb3c 84be bdee 04be 88fb 8dbe

actor.0.bias f4 [64]
-0.29462498 -0.15208794 0.1382219 0.09946834 0.015095763 0.071874924 -0.12082378 -0.09923274
0.10236026 -0.041861735 -0.29900432 -0.047315955 -0.21381633 0.034686632 -0.029123241 -0.092111245
0.04935605 -0.27240035 -0.023525534 -0.10216402 -0.12194128 0.031158928 -0.25507703 -0.29233867
-0.061070982 0.25346312 -0.1871995 0.195984 -0.061507866 -0.10164172 -0.14740534 -0.35969454
-0.11866965 -0.24716112 0.019523146 -0.39557555 -0.029432138 -0.27201924 0.23132636 0.096872926
-0.016528988 -0.19447324 -0.13859476 0.0831052 -0.057789274 -0.23699014 -0.015933847 -0.19883893
0.042097125 -0.04697649 -0.2970397 -0.26100805 -0.19742765 0.07045567 0.0877217 -0.2079649
0.113687634 0.31151482 0.29195487 -0.111561015 -0.047730323 0.11543155 -0.32004774 -0.42779526
00000000: 16d9 96be f1bc 1bbe 0b8a 0d3e 0fb6 cb3d
00000010: 3854 773c 2933 933d 7572 f7bd 893a cbbd
00000020: 42a2 d13d 3677 2bbd 1817 99be 60ce 41bd
00000030: abf2 5abe 9213 0e3d dd93 eebc d2a4 bcbd
00000040: 9229 4a3d 0f78 8bbe 9fb8 c0bc 5f3b d1bd
00000050: 5abc f9bd 0241 ff3c 7599 82be 6aad 95be
00000060: 9125 7abd ebc5 813e 3ab1 3fbe 08b0 483e
00000070: acef 7bbd 8929 d0bd 6df1 16be e229 b8be
00000080: 1309 f3bd ce17 7dbe 01ef 9f3c e188 cabe
00000090: ab1b f1bc 1b46 8bbe d1e0 6c3e 5065 c63d
000000a0: cd67 87bc fe23 47be c9eb 0dbe 0f33 aa3d
000000b0: 72b4 6cbd 8bad 72be b387 82bc 6f9c 4bbe
000000c0: 096e 2c3d 6c6a 40bd 9615 98be d9a2 85be
000000d0: 792a 4abe 104b 903d 6fa7 b33d c0f4 54be
000000e0: 10d5 e83d df7e 9f3e 1c7b 953e 1a7a e4bd
000000f0: df80 43bd 6067 ec3d 4cdd a3be fb07 dbbe

actor.2.weight f4 [64, 64]
-0.17902558 0.06470098 -0.115431316 0.002270345 -0.01568558 -0.22809489 -0.21769238 -0.057561018
0.06493478 -0.12928289 0.10270292 0.007912671 0.061335873 0.018524954 -0.06870304 -0.1866324
-0.064575866 -0.052237798 0.06324698 0.09942349 0.20522569 0.025570605 0.11133308 -0.06163853
0.010915729 -0.19542399 8.71524e-05 -0.00849161 0.019908307 0.021195993 -0.16338834 0.058648232
0.028919358 -0.13951743 -0.090642706 0.23336925 -0.06266805 -0.039807443 -0.17819118 -0.059954364
0.08145654 -0.0190933 0.06891736 -0.10077632 0.12187357 0.07562505 -0.24724777 -0.031561173
0.14822559 -0.1141867 0.039009396 -0.043422405 0.15581764 -0.03208757 -0.1056885 -0.08653679
-0.10226584 -0.16709991 -0.14466123 0.18486954 -0.094539315 -0.053467713 0.09012789 -0.094653726
-0.1308467 -0.1793719 0.07034888 0.044226795 -0.083053 -0.024717798 -0.06424533 0.19777936
-0.1156436 0.12127155 0.006653789 0.0011977158 0.14479142 0.12079106 0.09786359 -0.020029668
0.19506633 -0.030884268 0.030155482 0.050079066 -0.08285061 -0.0072412007 -0.19910109 -0.11370415
-0.029227924 0.13118331 0.16642399 0.1193283 0.19386628 -0.09996075 0.22454356 0.2446906
0.11027453 -0.0759974 -0.030399749 -0.28517964 -0.1009758 0.037309915 -0.0061562993 -0.018435055
-0.2605652 0.07382058 0.031085702 0.09602751 -0.25641522 0.0036680726 0.18037125 0.11088245
0.07176295 -0.15511638 0.0042990744 -0.021770708 -0.023244407 -0.11197445 -0.08185949 -0.10993805
-0.14100978 0.10353174 -0.060662065 -0.045376226 -0.18324557 0.05247301 -0.12556712 0.17175783
0.042100243 -0.13066487 -0.03766484 -0.08423223 -0.12631984 -0.28078955 -0.023218527 0.0042990004
-0.18395546 -0.009947295 0.06439666 0.12568721 -0.07506681 -0.1741557 0.03787337 0.09984589
-0.13443972 0.036331072 -0.19828565 0.18478622 0.020072974 -0.13968417 -0.09204175 -0.015373426
-0.19924687 -0.21514344 0.014559147 0.16200756 0.5364188 -0.13889574 -0.13415219 -0.028431179
-0.18389563 -0.038267702 -0.16109097 0.23990026 -0.17913684 -0.030201156 0.100204125 -0.24378747
-0.057404682 0.11751012 -0.095899604 -0.039119013 0.024504762 0.5333398 -0.24103482 -0.09277166
-0.10548584 -0.1433957 -0.038847484 0.1041498 0.10234727 0.19048116 0.1995283 -0.0067157787
-0.12279377 0.012633786 0.10389608 0.13898581 -0.23992075 0.09747669 0.37883633 0.19544518
-0.101473525 0.10723249 -0.060194183 -0.022884643 0.08560702 -0.058429684 0.17624475 0.0322321
-0.06342658 -0.084254734 0.012283107 0.038839858 0.10232874 -0.18602599 0.036017843 0.0065092007
-0.19172816 -0.15775186 -0.14868164 0.0872102 -0.019935682 -0.10100171 0.19197814 -0.13554141
-0.14199409 -0.3959441 0.04077227 -0.014664265 -0.05121117 -0.0074871243 -0.19144993 0.035906743
0.091135815 -0.052147336 0.13475378 0.30007726 0.025122736 -0.031358942 0.23394701 -0.27131638
0.101290986 0.10880616 -0.092672296 -0.06965896 0.008801521 0.10389316 -0.1508403 -0.13080665
-0.026758451 0.08274796 0.19199117 0.05550439 0.026743948 0.03979408 0.0020033596 0.1272666
0.085801296 0.01567234 0.06825801 -0.17840856 -0.160263 -0.0809907 0.18223707 0.14716338
00000000: 7b52 37be f381 843d 4167 ecbd 12ca 143b
00000010: 0c7f 80bc b591 69be c0ea 5ebe 1ac5 6bbd
00000020: 87fc 843d bc62 04be e955 d23d 26a4 013c
00000030: 533b 7b3d a5c1 973c 2eb4 8cbd 901c 3fbe
00000040: 5a40 84bd 4df7 55bd a287 813d 8b9e cb3d
00000050: af26 523e 7279 d13c 9902 e43d af78 7cbd
00000060: e3d7 323c 3a1d 48be 97c5 b638 6520 0bbc
00000070: bf16 a33c 38a3 ad3c 464f 27be 2139 703d
00000080: 4ae8 ec3c a8dd 0ebe e2a2 b9bd 59f8 6e3e
00000090: 1b58 80bd 210d 23bd c077 36be b592 75bd
000000a0: b0d2 a63d 8d69 9cbc 8b24 8d3d d163 cebd
000000b0: da98 f93d 4ee1 9a3d 852e 7dbe 4a46 01bd
000000c0: 73c8 173e b7da e9bd 51c8 1f3d b1db 31bd
000000d0: a98e 1f3e 416e 03bd 3673 d8bd 333a b1bd
000000e0: c170 d1bd 3d1c 2bbe 1322 14be 714e 3d3e
000000f0: d49d c1bd f600 5bbd f994 b83d d0d9 c1bd
00000100: adfc 05be 44ad 37be 1313 903d 2827 353d
00000110: b117 aabd fb7c cabc 0e93 83bd ac86 4a3e
00000120: 8dd6 ecbd 385d f83d 0708 da3b acfc 9c3a
00000130: 3444 143e 4e61 f73d b56c c83d 4215 a4bc
00000140: 78bf 473e 0101 fdbc a108 f73c b51f 4d3d
00000150: 95ad a9bd 9847 edbb 28e1 4bbe b9dd e8bd
00000160: 666f efbc eb54 063e 0d6b 2a3e 6562 f43d
00000170: e284 463e 39b8 ccbd bfee 653e 2c90 7a3e
00000180: 9dd7 e13d 86a4 9bbd e508 f9bc 1103 92be
00000190: 66cc cebd 48d2 183d c8ba c9bb 1d05 97bc
000001a0: cd68 85be 3f2f 973d 71a7 fe3c 12aa c43d
000001b0: db48 83be 0c64 703b 3eb3 383e 5716 e33d
000001c0: 74f8 923d d4d6 1ebe 40df 8c3b 7c58 b2bc
000001d0: 0e6b bebc dc52 e5bd f3a5 a7bd 3327 e1bd
000001e0: de64 10be 7308 d43d c978 78bd 6cdc 39bd
000001f0: baa4 3bbe f0ed 563d ab94 00be 49e1 2f3e
00000200: 4e71 2c3d 03cd 05be 7346 1abd f381 acbd
00000210: fd59 01be a6c3 8fbe c834 bebc a1de 8c3b
00000220: d25e 3cbe fbf9 22bc 65e2 833d 26b4 003e
00000230: a1bc 99bd df55 32be 1b21 1b3d 017c cc3d
00000240: 91aa 09be e4cf 143d 650b 4bbe 9938 3d3e
00000250: 1470 a43c 5e09 0fbe 6380 bcbd d2e0 7bbc
00000260: 5f07 4cbe 904e 5cbe 7d89 6e3c 4fe5 253e
00000270: be52 093f af3a 0ebe 315f 09be 81e8 e8bc
00000280: 234f 3cbe 98be 1cbd 08f5 24be 6aa8 753e
00000290: a66f 37be 6a68 f7bc d237 cd3d 6ca3 79be
000002a0: 2c21 6bbd 25a9 f03d 0367 c4bd 423b 20bd
000002b0: 36be c83c f588 083f d5d1 76be 11ff bdbd
000002c0: f608 d8bd 53d6 12be 8a1e 1fbd 7e4c d53d
000002d0: 729b d13d 7e0d 433e 2651 4c3e 0910 dcbb
000002e0: 4d7b fbbd f0fd 4e3c 78c7 d43d 4c52 0e3e
000002f0: c9ad 75be dca1 c73d d6f6 c13e c822 483e
00000300: 5ad1 cfbd b59c db3d 2d8e 76bd 9378 bbbc
00000310: bc52 af3d f753 6fbd 8179 343e ce05 043d
00000320: cbe5 81bd bf8d acbd 163f 493c 8b16 1f3d
00000330: bb91 d13d 997d 3ebe 7287 133d 224b d53b
00000340: 6354 44be b489 21be 0040 18be 439b b23d
00000350: 2850 a3bc fcd9 cebd eb95 443e 5ecb 0abe
00000360: e666 11be 2fb9 cabe d300 273d 6342 70bc
00000370: cec2 51bd 8d56 f5bb 730b 44be f312 133d
00000380: 6aa5 ba3d 7298 55bd e5fc 093e baa3 993e
00000390: 32ce cd3c 3c72 00bd ce8f 6f3e fbe9 8abe
000003a0: a671 cf3d c4d5 de3d f9ca bdbd 5ba9 8ebd
000003b0: 4134 103c f0c5 d43d e175 1abe 2ef2 05be
000003c0: 8a34 dbbc c377 a93d 5599 443e 9258 633d
000003d0: 2016 db3c 1eff 223d cc4a 033b 2d52 023e
000003e0: 97b8 af3d 4763 803c dbca 8b3d bcb0 36be
000003f0: fc1b 24be 74de a5bd 5b9c 3a3e ffb1 163e

actor.2.bias f4 [64]
-0.18027604 0.091974884 -0.12482573 -0.19835174 -0.11667825 -0.12002573 -0.1241367 -0.06842622
0.123589434 0.020434618 -0.04217861 -0.14905168 -0.24008127 0.059598505 -0.08004198 -0.15134451
-0.2315933 0.017393587 -0.10195961 0.015247653 -0.1611283 0.21570715 -0.23536293 -0.094605
-0.17452171 -0.13394912 0.0019474565 -0.10794428 -0.026279721 0.051647447 -0.035690576 0.1319862
-0.17806475 -0.23676664 -0.24052499 0.01521077 -0.42194116 0.029338552 -0.16972688 -0.04931425
-0.12490852 -0.320406 -0.15815182 0.07804608 -0.1274903 0.14937517 -0.23626187 -0.30802825
0.030330256 -0.19687118 -0.22762465 -0.03858045 -0.0009605658 0.18639831 -0.09572535 -0.19878986
0.045888193 -0.027417697 0.12933704 0.012318709 -0.3066705 0.026276516 -0.020587506 -0.18487479
00000000: 489a 38be 545d bc3d a2a4 ffbd b81c 4bbe
00000010: 02f5 eebd 0dd0 f5bd 623b febd 0c23 8cbd
00000020: 751c fd3d 8066 a73c 7ac3 2cbd 01a1 18be
00000030: ddd7 75be 901d 743d 0ded a3bd 0efa 1abe
00000040: cb26 6dbe ff7c 8e3c 33d0 d0bd 4bd1 793c
00000050: d1fe 24be 56e2 5c3e fb02 71be 44c0 c1bd
00000060: d2b5 32be f529 09be cc41 ff3a e411 ddbd
00000070: 9248 d7bc 468c 533d 4830 12bd 6427 073e
00000080: 9b56 36be f472 72be 2f4c 76be 9836 793c
00000090: ac08 d8be 6757 f03c e2cc 2dbe bdfd 49bd
000000a0: 0ad0 ffbd 410c a4be 8df2 21be a0d6 9f3d
000000b0: d18c 02be cef5 183e a2ee 71be e1b5 9dbe
000000c0: 2877 f83c 9998 49be 7016 69be 8906 1ebd
000000d0: 7bce 7bba 33df 3e3e a70b c4bd 928f 4bbe
000000e0: 42f5 3b3d 149b e0bc ee70 043e 69d4 493c
000000f0: ea03 9dbe d941 d73c 21a7 a8bc d14f 3dbe

actor.4.weight f4 [6, 64]
0.06949833 -0.06627717 -0.054115105 -0.0450809 -0.044402488 0.095659465 0.09047442 -0.040712412
0.071447626 -0.08776294 -0.13896747 -0.2603013 0.037601274 -0.11232086 -0.031568695 -0.08510799
0.0502561 0.08052394 0.020508181 0.030918937 -0.047759574 -0.07481514 0.04239405 0.026090987
0.118427716 -0.07469248 -0.03945982 0.007353688 0.0070386925 -0.08864951 -0.14108144 -0.029456463
0.034958318 0.17977019 0.049826063 0.07427375 0.08172647 -0.030793393 0.041195456 -0.17868988
-0.10401604 0.07082261 -0.09681289 0.14986356 0.038434 -0.1326443 0.056808695 -0.024210991
-0.10840853 0.15805587 0.025014358 0.0922466 -0.14031094 -0.05487418 -0.14923431 0.0275057
0.13520642 0.039367013 0.114654884 0.12350314 -0.0011050618 -0.2374946 0.077809714 0.03500934
0.022855729 -0.11204465 0.15611081 0.10542884 0.037855994 0.04007557 0.104700975 0.013156424
0.03750076 -0.11640926 -0.034630556 -0.12471876 -0.07707521 0.004435322 -0.10264729 0.05851433
0.02902244 0.03041017 0.1079105 -0.13419288 0.012071101 -0.094412856 -0.032799207 0.13726409
-0.10905248 -0.17961253 -0.16257504 -0.08367714 0.0040468625 0.009671708 0.026346227 -0.05269466
0.096962325 0.057521973 -0.020268047 -0.039452612 0.099732496 0.123513356 -0.05450419 0.042268794
0.022864368 0.14353454 0.10076851 -0.2120622 0.15468061 -0.106240384 0.033079512 0.041436475
0.07080851 0.14280875 0.06254106 0.0804508 -0.32470965 -0.06693849 0.0017853667 -0.041301627
0.036471844 -0.06896657 -0.05130884 0.037732847 0.0863874 -0.1614774 -0.06536945 -0.026333472
0.005304283 0.04287355 0.03650941 -0.019900782 -0.045342866 -0.1500572 -0.030048594 -0.12226526
0.15176955 0.045911916 -0.22428752 -0.011866028 -0.10370584 -0.03227775 0.009990162 0.010426543
-0.118823595 0.024985945 0.09870625 -0.00817069 -0.13049234 0.08152337 0.01103908 0.0088445
-0.13375805 0.024337698 0.07493923 0.011872624 0.024813829 -0.053643245 0.10797162 0.018387651
-0.17865498 -0.19892785 -0.08919909 0.03897318 -0.16101195 -0.081506796 -0.16053867 0.02807881
-0.061875466 -0.1692473 0.10264397 0.12825654 0.077273905 0.0027848645 -0.023362886 -0.086844295
0.06542865 0.045338534 -0.1011528 0.04055682 -0.024261475 0.044457126 -0.0017851809 -0.031150177
0.114886634 0.040302537 0.057627782 -0.025702639 -0.07633214 0.058732696 -0.01109177 -0.03862218
-0.074151196 -0.031557254 -0.07138355 0.0007052631 -0.1280642 0.0015863618 -0.22374766 -0.098240994
-0.08414563 -0.12103558 -0.08401714 -0.09326779 -0.11817275 -0.21187833 -0.17112415 -0.008834235
-0.11704122 -0.2905667 -0.053737406 -0.12513857 -0.13593274 -0.08083942 -0.028676288 -0.16025169
-0.23484136 -0.045215152 -0.101165354 0.026954275 -0.011903122 -0.23650302 -0.10364331 -0.026957981
0.053499017 0.0347556 -0.09539396 -0.1884537 -0.15365681 0.20031954 -0.07576724 0.08257672
-0.0973888 -0.21035492 0.07757245 0.12096103 0.11683876 0.0059301173 -0.11310299 -0.06471199
-0.022192078 0.20638256 -0.13302255 0.030911481 -0.07276982 0.05007077 -0.12755416 -0.09130337
-0.037407238 -0.072008714 0.018689586 -0.22993743 -0.1405393 -0.013920294 -0.049178295 -0.090173274
00000000: 2455 8e3d 53bc 87bd cda7 5dbd c0a6 38bd
00000010: 62df 35bd 1ce9 c33d a74a b93d 0fc2 26bd
00000020: 2253 923d 0ebd b3bd 7d4d 0ebe 3646 85be
00000030: cb03 1a3d 7b08 e6bd 2d4e 01bd 194d aebd
00000040: 57d9 4d3d bce9 a43d c600 a83c b649 fd3c
00000050: 8b9f 43bd ae38 99bd 62a5 2d3d c4bc d53c
00000060: 3b8a f23d 5ff8 98bd 9fa0 21bd 35f7 f03b
00000070: d5a4 e63b e08d b5bd a777 10be ae4e f1bc
00000080: 7430 0f3d ad15 383e 6a16 4c3d d61c 983d
00000090: 3560 a73d 6d42 fcbc 91bc 283d 7bfa 36be
000000a0: 5d06 d5bd 720b 913d d645 c6bd d575 193e
000000b0: f86c 1d3d e8d3 07be 3cb0 683d 2156 c6bc
000000c0: 4b05 debd 66d9 213e e9ea cc3c c9eb bc3d
000000d0: acad 0fbe c0c3 60bd e1d0 18be a253 e13c
000000e0: 8d73 0a3e 4e3f 213d 2ed0 ea3d 37ef fc3d
000000f0: b9d7 90ba c931 73be b35a 9f3d f465 0f3d
00000100: f03b bb3c aa77 e5bd 83db 1f3e 13eb d73d
00000110: e30e 1b3d 4826 243d 776d d63d 0b8e 573c
00000120: 669a 193d fa67 eebd c5d8 0dbd 8d6c ffbd
00000130: 9cd9 9dbd 2d56 913b be38 d2bd b9ac 6f3d
00000140: 78c0 ed3c c01e f93c 2e00 dd3d dc69 09be
00000150: dec5 453c 875b c1bd 7658 06bd f58e 0c3e
00000160: e856 dfbd 59ec 37be 127a 26be ec5e abbd
00000170: 8b9b 843b 1576 1e3c 0bd4 d73c 5bd6 57bd
00000180: 2f94 c63d 299c 6b3d 2d09 a6bc 1099 21bd
00000190: 8d40 cc3d 92f4 fc3d c93f 5fbd 0b22 2d3d
000001a0: 0e4e bb3c b8fa 123e b85f ce3d d526 59be
000001b0: 9864 1e3e 8f94 d9bd 627e 073d 4bb9 293d
000001c0: 0d04 913d 753c 123e 8715 803d 64c3 a43d
000001d0: 5840 a6be 0c17 89bd f702 ea3a e52b 29bd
000001e0: 8063 153d 583e 8dbd 3829 52bd c28d 1a3d
000001f0: e1eb b03d 555a 25be 6be0 85bd 4bb9 d7bc
00000200: 8dcf ad3b 2d9c 2f3d e48a 153d f706 a3bc
00000210: 71b9 39bd 98a8 19be 7828 f6bc 3566 fabd
00000220: 7a69 1b3e 220e 3c3d a1ab 65be bb69 42bc
00000230: ba63 d4bd ad35 04bd c7ad 233c 17d4 2a3c
00000240: c959 f3bd 53af cc3c 8126 ca3d 5cde 05bc
00000250: c99f 05be baf5 a63d 42dd 343c 86e8 103c
00000260: dff7 08be da5f c73c bd79 993d 6585 423c
00000270: 5f46 cb3c 05b9 5bbd 3a20 dd3d b3a1 963c
00000280: 55f1 36be beb3 4bbe 03ae b6bd 57a2 1f3d
00000290: 51e0 24be 09ed a6bd 4064 24be 8805 e63c
000002a0: 2171 7dbd 2a4f 2dbe 0037 d23d af55 033e
000002b0: c841 9e3d 4682 363b 8663 bfbc 6cdb b1bd
000002c0: 75ff 853d e6b4 393d 3329 cfbd e81e 263d
000002d0: 00c0 c6bc ad18 363d bbfc e9ba a82e ffbc
000002e0: af49 eb3d 4614 253d 1c0b 6c3d 578e d2bc
000002f0: 0654 9cbd b291 703d 41ba 35bc 4b32 1ebd
00000300: 95dc 97bd 2e42 01bd 8a31 92bd 68e1 383a
00000310: 4323 03be 78ed cf3a 1b1e 65be 9332 c9bd
00000320: 8b54 acbd 81e1 f7bd 2e11 acbd 2f03 bfbd
00000330: 8e04 f2bd a2f6 58be 2b3b 2fbe 78bd 10bc
00000340: 4fb3 efbd 29c5 94be c11b 5cbd 5324 00be
00000350: f431 0bbe 238f a5bd 89ea eabc 0519 24be
00000360: 417a 70be 8633 39bd c82f cfbd 36cf dc3c
00000370: 5005 43bc d92d 72be f242 d4bd fcd6 dcbc
00000380: c921 5b3d e35b 0e3d e95d c3bd 02fa 40be
00000390: 3658 1dbe 9120 4d3e db2b 9bbd fc1d a93d
000003a0: c773 c7bd 4867 57be 4ede 9e3d 6bba f73d
000003b0: 2949 ef3d 6e51 c23b 8aa2 e7bd b887 84bd
000003c0: 29cc b5bc f355 533e 1037 08be 133a fd3c
000003d0: 5808 95bd 0217 4d3d 8f9d 02be 43fd babd
000003e0: 5538 19bd 4e79 93bd e71a 993c b874 6bbe
000003f0: 89e9 0fbe f211 64bc 2e6f 49bd c4ac b8bd

actor.4.bias f4 [6]
0.04232212 -0.04100064 0.2991271 0.18550533 0.013834337 0.21654801
00000000: f659 2d3d 49f0 27bd 3027 993e 1cf5 3d3e
00000010: 6aa9 623c c3be 5d3e

critic.0.weight f4 [64, 25]
0.08233127 0.044947527 0.03449498 -0.060203314 0.027709974 -0.069001734 -0.054229897 -0.16917683
-0.011132953 0.09449752 0.091183744 0.118277535 -0.32702184 -1.533781 0.70729065 0.012475104
0.17542988 -0.10131591 0.012595287 -0.05433418 0.047357537 -0.122229375 0.11413035 0.07055857
-0.106594205 -0.2612796 -0.13912919 -0.088463284 0.12473836 -0.002802034 -0.012465157 -0.06672485
-0.028870875 -0.0034696646 0.053764705 0.01746912 0.036324628 0.13366804 4.154945 -0.29372823
-0.10925711 1.7070922 -0.017538901 -1.8602632 0.16343856 0.063450195 0.11152975 -0.038957033
-0.020927211 -0.0128999045 0.17289057 0.02871222 0.09429696 -0.254944 -0.059526023 0.08341332
-0.0024921352 -0.08013238 0.056308076 0.0053794514 0.0067992457 -0.0298138 0.42332348 2.3843596
-0.5070333 0.037355896 0.7858056 0.1464868 -0.62618953 -0.060965437 0.035241693 -0.1122091
0.06974191 0.088605195 0.010593066 0.040179938 -0.078930765 -0.23965621 -0.15568133 -0.05451422
0.14069375 -0.13784024 -0.1839421 0.32958415 -0.017879598 0.39733928 -0.13298944 0.55957025
-0.65160805 -0.1836466 0.29580098 -0.11888188 0.26986203 0.2010861 0.15087114 -0.00703885
0.114073545 0.06257862 0.13449845 0.07742574 -0.0018580825 0.0063317027 -0.23763812 -0.3073128
0.17223547 0.06709548 -0.057089634 -0.012571604 -0.1486302 0.01964308 0.033690196 -0.0495976
0.21963836 0.51792914 -0.46390882 -0.11202108 -0.114268795 0.036164567 0.17267656 -0.17309642
0.011057137 0.16928197 -0.05882989 -0.053640023 -0.076300666 0.12134883 0.20749772 0.06945065
0.047131237 -0.012214865 0.08493847 0.03322561 0.01704314 0.10187083 -0.0753657 0.014785422
0.0053649438 -0.13734652 0.77079666 0.59033316 -0.0556904 -0.615667 0.092912205 0.71563715
0.046890605 0.085730575 -0.06258508 0.036042828 -0.13007231 -0.090446964 0.28289497 0.1760112
-0.16527481 0.2480645 -0.42488483 -0.1827803 0.089284904 -0.024136137 0.044660844 0.013016368
0.15258475 -0.07471007 0.1689734 -2.59569 -0.22260694 -0.09023624 -1.4185283 -0.05709867
1.6435708 0.16982071 0.13704455 0.1598951 0.20775278 -0.10687382 0.13441783 0.15032181
0.2608844 -0.098934025 -0.26202297 -0.41325873 -0.027414756 0.084303066 0.047614805 -0.013162476
0.01906994 0.003568353 -0.11328487 0.19409716 1.1616493 0.12484935 -0.0012110877 0.113294795
-0.112355866 -0.25582185 0.029917521 -0.08417375 -0.008165091 -0.10375576 -0.093307264 -0.07489564
-0.23539823 0.23155747 -0.041191693 0.044712394 0.13286239 -0.13226253 0.033508 -0.009366244
-0.0013067656 0.011505934 0.022369439 0.031168582 0.23790187 0.064938135 -0.42854747 -0.16955109
0.802577 -0.073125094 -1.0194658 -0.0061429767 -0.07435038 0.060050834 -0.030640535 0.037993222
-0.00013075661 0.2278105 -0.09509235 0.04571271 0.06464144 0.14879078 0.010120955 -0.12049554
-0.113942094 0.053118896 0.07685823 -0.09970589 -0.04018789 0.3455202 -0.02711465 0.21417594
0.20130442 -0.22357383 0.09112334 0.06001062 0.08387347 0.04688073 -0.0597373 -0.11498433
0.10846233 0.14513144 0.059802376 -0.27442074 -0.051498767 -0.073354036 0.04234454 0.11939822
00000000: 4c9d a83d e61a 383d 9c4a 0d3d c097 76bd
00000010: 0700 e33c c850 8dbd 2b20 5ebd b13c 2dbe
00000020: fd66 36bc ea87 c13d 8bbe ba3d 7e3b f23d
00000030: 686f a7be f052 c4bf 0011 353f 6164 4c3c
00000040: e4a3 333e b77e cfbd 765c 4e3c 848d 5ebd
00000050: faf9 413d 6553 fabd 2cbd e93d 0381 903d
00000060: 104e dabd 71c6 85be e277 0ebe 3d2c b5bd
00000070: d376 ff3d 54a2 37bb a83a 4cbc 0aa7 88bd
00000080: 9d82 ecbc 5063 63bb 6138 5c3d 661b 8f3c
00000090: 22c9 143d 46e0 083e 4ff5 8440 8c63 96be
000000a0: 31c2 dfbd ff81 da3f bead 8fbc 1b1d eebf
000000b0: 705c 273e 2df2 813d b669 e43d 6991 1fbd
000000c0: 8b6f abbc 1f5a 53bc 3a0a 313e e435 eb3c
000000d0: c41e c13d 0588 82be 8fd1 73bd 9ad4 aa3d
000000e0: 1753 23bb 721c a4bd 4ca3 663d 1c46 b03b
000000f0: 35cc de3b 123c f4bc dbbd d83e 5999 1840
00000100: efcc 01bf 7f02 193d 8e2a 493f a300 163e
00000110: f54d 20bf e5b6 79bd 9859 103d e2cd e5bd
00000120: d9d4 8e3d a476 b53d 8a8e 2d3c b893 243d
00000130: 74a6 a1bd 7068 75be ed6a 1fbe 4e4a 5fbd
00000140: 0612 103e fe25 0dbe 515b 3cbe 41bf a83e
00000150: 3c78 92bc 0e70 cb3e 622e 08be ff3f 0f3f
00000160: c9cf 26bf db0d 3cbe 3a73 973e 5878 f3bd
00000170: 5b2b 8a3e 84e9 4d3e f77d 1a3e 27a6 e6bb
00000180: 649f e93d 3829 803d f6b9 093e 6391 9e3d
00000190: e78a f3ba 2c7a cf3b 6857 73be 1a58 9dbe
000001a0: 7f5e 303e 5b69 893d d2d6 69bd 21f9 4dbc
000001b0: 8432 18be 86ea a03c bbfe 093d da26 4bbd
000001c0: e1e8 603e 0197 043f 7585 edbe 4f6b e5bd
000001d0: c205 eabd 4c21 143d 20d2 303e 3040 31be
000001e0: fe28 353c 4158 2d3e 9cf7 70bd a4b5 5bbd
000001f0: 8643 9cbd bc85 f83d 487a 543e 243c 8e3d
00000200: af0c 413d db20 48bc 38f4 ad3d 9417 083d
00000210: 0e9e 8b3c a7a1 d03d 5559 9abd 8e3e 723c
00000220: 69cc af3b 91a4 0cbe ee52 453f 1320 173f
00000230: 9e1b 64bd 5a9c 1dbf c148 be3d ff33 373f
00000240: 5d10 403d 8393 af3d 9b2c 80bd a5a1 133d
00000250: ad31 05be 423c b9bd 9cd7 903e 483c 343e
00000260: cd3d 29be 9f04 7e3e 818a d9be c22a 3bbe
00000270: 01db b63d 26b9 c5bc 4aee 363d 9b42 553c
00000280: 2d3f 1c3e 9801 99bd 5d07 2d3e c91f 26c0
00000290: 13f3 63be c7cd b8bd 5692 b5bf 4ce0 69bd
000002a0: 8760 d23f 7be5 2d3e 6855 0c3e 8bbb 233e
000002b0: 25bd 543e a9e0 dabd d4a4 093e f6ed 193e
000002c0: a492 853e ec9d cabd e027 86be a696 d3be
000002d0: e994 e0bc 16a7 ac3d be07 433d 6da7 57bc
000002e0: 9038 9c3c 07db 693b e601 e8bd 68c1 463e
000002f0: edb0 943f 04b1 ff3d 5cbd 9eba 1a07 e83d
00000300: d51a e6bd 15fb 82be 9715 f53c 4963 acbd
00000310: e0c6 05bc e67d d4bd e117 bfbd e362 99bd
00000320: 3c0c 71be 671d 6d3e 9fb8 28bd 5824 373d
00000330: 140d 083e d46f 07be af3f 093d e074 19bc
00000340: c747 abba 6383 3c3c 1d40 b73c 4155 ff3c
00000350: 8c9c 733e 49fe 843d 936a dbbe cd9e 2dbe
00000360: b075 4d3f 9cc2 95bd db7d 82bf 064b c9bb
00000370: 0345 98bd ddf7 753d dc01 fbbc c89e 1b3d
00000380: b61b 09b9 2847 693e c7bf c2bd 403d 3b3d
00000390: bb62 843d 9c5c 183e 5dd2 253c 5ec6 f6bd
000003a0: 795a e9bd 3393 593d d967 9d3d 9a32 ccbd
000003b0: 0f9c 24bd 06e8 b03e 8b1f debc f050 5b3e
000003c0: bf22 4e3e 8af0 64be e09e ba3d b2cd 753d
000003d0: dbc5 ab3d 0206 403d 19af 74bd e87c ebbd
000003e0: 8021 de3d 569d 143e 56f3 743d e080 8cbe
000003f0: 5ff0 52bd a43a 96bd 7871 2d3d 0e87 f43d

critic.0.bias f4 [64]
-0.047238678 0.19831371 -0.06440049 0.0076479157 0.15525919 -0.11825948 0.115635626 0.109355465
0.039132785 -0.12724073 -0.1734586 -0.16263865 -0.073197305 0.08290674 -0.018576615 -0.05456708
0.08658353 0.16982928 -0.19442028 -0.028434096 -0.06731661 0.08590182 0.09393982 -0.034955855
-0.072083816 -0.014513189 0.1308792 0.16128029 0.18409656 0.066364534 -0.17295475 0.18385215
0.17520647 -0.05253478 0.0591204 -0.09070103 -0.062264822 0.16157347 -0.15354872 -0.14065568
-0.042774696 0.13025273 -0.08883142 -0.11645529 -0.077144116 0.08911961 -0.053859614 -0.0448675
-0.05116176 -0.15863875 0.047501422 -0.10891815 -0.19552623 0.17643337 -0.091493614 -0.022202782
0.0846453 -0.25595248 -0.038426057 -0.016708933 0.15082082 0.081782706 0.015435976 0.17194653
00000000: 587d 41bd c012 4b3e 67e4 83bd 5e9b fa3b
00000010: 44fc 1e3e 0732 f2bd 5fd2 ec3d c2f5 df3d
00000020: b349 203d 654b 02be 229f 31be bf8a 26be
00000030: 78e8 95bd 02cb a93d fc2d 98bc bb81 5fbd
00000040: b552 b13d bae7 2d3e 1c16 47be 9fee e8bc
00000050: 4add 89bd 4bed af3d 8563 c03d df2d 0fbd
00000060: aea0 93bd bac8 6dbc 3205 063e a926 253e
00000070: cf83 3c3e 21ea 873d 0d1b 31be bd43 3c3e
00000080: 5369 333e b62e 57bd 3c28 723d 76c1 b9bd
00000090: 6609 7fbd 8473 253e e03b 1dbe 0b08 10be
000000a0: 8534 2fbd f960 053e 3fed b5bd 1c80 eebd
000000b0: bcfd 9dbd 5884 b63d e69b 5cbd fcc6 37bd
000000c0: fe8e 51bd 3272 22be da90 423d 7b10 dfbd
000000d0: 0738 48be f3aa 343e 0161 bbbd 9ce2 b5bc
000000e0: 845a ad3d 340c 83be a464 1dbd 2ce1 88bc
000000f0: c670 1a3e b17d a73d 2de7 7c3c c012 303e

critic.2.weight f4 [64, 64]
-0.036835775 0.09706257 0.045312524 -0.012746825 1.6157757e-05 -0.04088873 -0.016950132 -0.006776993
-0.0032630898 -0.08300912 0.034401853 0.13081491 -0.08257615 0.06062351 0.046900395 -0.04190567
-0.021241257 0.12250273 0.10893099 -0.10862585 0.062066704 -0.04604179 -0.0008357443 0.061863035
-0.0006949043 -0.10996437 -0.060682412 0.058007758 -0.085340366 0.0019020791 0.0981023 -0.041874953
0.012824051 -0.0030996818 -0.16143219 -0.05932927 -0.0688211 -0.119073756 -0.086290896 -0.0073498846
-0.14377676 -0.13068779 -0.06502402 0.021356301 0.034615763 -0.13732052 0.1003799 -0.11592385
0.0800149 0.10004804 -0.06531317 -0.09651577 -0.09273269 0.011499832 0.15685208 -0.006637568
-0.034089636 0.04398202 0.06959328 0.025744326 0.06447078 0.042296942 -0.024495699 0.057991486
0.09979526 -0.19007508 -0.0060284864 -0.120148085 -0.027144458 0.046794962 -0.055968437 0.14859582
-0.03363485 0.05405494 -0.022154376 0.03908254 0.011185461 -0.08914605 0.07621431 0.077021204
-0.086606316 0.034903247 0.14943707 0.07579512 -0.051987804 -0.028914202 -0.03940308 -0.03859257
0.086988516 -0.09551281 0.076656625 0.1029468 -0.028032396 -0.13949908 -0.027844217 -0.046317372
-0.113114126 -0.06385081 -0.011231278 0.10251904 -0.012894684 -0.12420295 0.24144462 0.029411487
-0.006404852 0.060211066 0.062094126 -0.025225054 0.09805723 0.067123346 -0.005298499 0.10934944
0.20646732 0.06331188 -0.016415518 0.067203395 0.09071775 -0.046642177 0.02151774 0.09323707
-0.07617817 -0.06657242 0.005796022 0.04039321 0.041269254 -0.041771747 0.07239569 0.03326942
-0.102328435 0.08582983 0.038368165 -0.10786397 -0.038233254 -0.09742248 0.123930015 -0.07195638
0.026536673 -0.06386911 0.07787105 -0.12821391 -0.06732843 -0.06053625 0.034257937 -0.044786427
-0.07508293 0.21320397 0.011620757 -0.02706717 0.09062227 0.016380921 -0.091874205 -0.02444315
0.05721101 0.09301351 -0.0058727213 0.118365936 0.09767103 -0.051759735 0.14450318 -0.12054122
-0.06718467 -0.076491386 -0.0764172 -0.09608009 -0.024730714 -0.20349422 0.10300506 0.15836096
-0.07309538 0.059735477 -0.059372313 -0.089508004 0.103594355 0.075834244 -0.05517277 0.1542463
-0.025912868 -0.045185268 -0.04157666 -0.1488299 -0.026980808 0.08810876 0.15141761 0.12416596
0.018875314 0.0017052005 0.101489365 0.01056385 -0.023196554 0.0032330193 0.025578907 -0.10598919
0.063944094 0.080567695 -0.0052603628 -0.10786826 0.06499202 -0.08508027 -0.03245203 0.05078822
-0.13518123 0.07720172 0.026182707 -0.074001886 -0.08310467 -0.061547622 0.11778638 -0.1998213
0.038517583 0.01876139 0.017758273 -0.038672082 -0.010005267 -0.014815065 0.061510302 0.11665637
-0.1706239 -0.03202587 0.05767318 0.07281359 -0.12283448 -0.046168916 0.059711285 0.04850612
-0.05162109 -0.15091385 -0.056797206 0.10323052 -0.06912065 0.08974392 0.1128778 0.12113874
-0.005607867 -0.10868213 0.041598275 -0.06302209 -0.11162138 -0.003332338 0.03892579 -0.003896069
0.16991156 0.06716505 0.0030208044 -0.025795663 0.14197823 -0.053754352 0.046591774 0.09648967
0.0469849 0.014725791 0.032588363 -0.043628804 -0.08623506 -0.09160565 -0.10360283 -0.05980092
00000000: 1ce1 16bd bec8 c63d a099 393d 0fd8 50bc
00000010: 858a 8737 f17a 27bd 01db 8abc 8a11 debb
00000020: 90d9 55bb af00 aabd f5e8 0c3d 58f4 053e
00000030: af1d a9bd 5c50 783d a11a 403d 48a5 2bbd
00000040: 2502 aebc b6e2 fa3d 3617 df3d 3b77 debd
00000050: a839 7e3d 5196 3cbd da15 5bba 1864 7d3d
00000060: 3d2a 36ba 0035 e1bd 1f8e 78bd 8b99 6d3d
00000070: eec6 aebd 2f4f f93a dce9 c83d 1285 2bbd
00000080: f81b 523c 0824 4bbb 7b4e 25be 4003 73bd
00000090: 14f2 8cbd f1dc f3bd 48b9 b0bd 4dd7 f0bb
000000a0: 373a 13be 05d3 05be 502b 85bd 69f3 ae3c
000000b0: 42c9 0d3d c09d 0cbe fa93 cd3d 7c69 edbd
000000c0: dade a33d fde5 cc3d e9c2 85bd 0faa c5bd
000000d0: a3ea bdbd cb69 3c3c d59d 203e f57f d9bb
000000e0: 93a1 0bbd 7e26 343d ec86 8e3d c4e5 d23c
000000f0: 4209 843d 8f3f 2d3d 34ab c8bc 7b88 6d3d
00000100: 7561 cc3d 0ba3 42be 9c8a c5bb 3310 f6bd
00000110: 0e5e debc 13ac 3f3d 293f 65bd 8129 183e
00000120: b2c4 09bd b668 5d3d 187d b5bc 0315 203d
00000130: 3943 373c 3492 b6bd 4016 9c3d 4bbd 9d3d
00000140: a75e b1bd b5f6 0e3d 0806 193e 793a 9b3d
00000150: 2af1 54bd 7add ecbc 2065 21bd 3e13 1ebd
00000160: 0927 b23d 389c c3bd 26fe 9c3d c6d5 d23d
00000170: 32a4 e5bc d9d8 0ebe 8e19 e4bc 49b7 3dbd
00000180: 61a8 e7bd 37c4 82bd 6503 38bc 81f5 d13d
00000190: 3a44 53bc 1e5e febd 423d 773e 5cf0 f03c
000001a0: cbdf d1bb e19f 763d 6956 7e3d c6a4 cebc
000001b0: 3bd2 c83d f777 893d 089f adbb 99f2 df3d
000001c0: 2b6c 533e a9a9 813d d679 86bc efa1 893d
000001d0: 3aca b93d de0b 3fbd f945 b03c 14f3 be3d
000001e0: 4d03 9cbd 1f57 88bd 8eec bd3b 5a73 253d
000001f0: f309 293d da18 2bbd 3144 943d 8445 083d
00000200: 9291 d1bd 8dc7 af3d f027 1d3d c9e7 dcbd
00000210: 799a 1cbd 7085 c7bd 05cf fd3d de5d 93bd
00000220: 7063 d93c cfcd 82bd db7a 9f3d 824a 03be
00000230: 7de3 89bd dcf4 77bd 0d52 0c3d f971 37bd
00000240: 14c5 99bd 2452 5a3e fd64 3e3c f8bb ddbc
00000250: 2b98 b93d 4831 863c 8b28 bcbd 003d c8bc
00000260: 1856 6a3d de7d be3d f56f c0bb d769 f23d
00000270: c007 c83d 0402 54bd a4f8 133e 51de f6bd
00000280: 1e98 89bd 84a7 9cbd 9f80 9cbd a3c5 c4bd
00000290: 1198 cabc ca60 50be 51f4 d23d 6029 223e
000002a0: 08b3 95bd 30ad 743d 6230 73bd f94f b7bd
000002b0: 4729 d43d fc4e 9b3d d8fc 61bd bef2 1d3e
000002c0: 3947 d4bc 3014 39bd 4a4c 2abd de66 18be
000002d0: db06 ddbc 5e72 b43d 380d 1b3e b94a fe3d
000002e0: 67a0 9a3c 0981 df3a a8d9 cf3d 0014 2d3c
000002f0: b306 bebc 10e1 533b db8a d13c dc10 d9bd
00000300: 1ff5 823d ad00 a53d 1f5f acbb 09ea dcbd
00000310: 891a 853d 913e aebd 6bec 04bd 4f07 503d
00000320: f36c 0abe ef1b 9e3d 1e7d d63c 4d8e 97bd
00000330: c832 aabd 5c19 7cbd fc39 f13d f49d 4cbe
00000340: 9dc4 1d3d 7db1 993c cc79 913c 9e66 1ebd
00000350: 22ed 23bc e3ba 72bc 3af2 7b3d 89e9 ee3d
00000360: 08b8 2ebe 8f2d 03bd b63a 6c3d 4b1f 953d
00000370: a590 fbbd 9e1b 3dbd d293 743d 5aae 463d
00000380: a370 53bd 2989 1abe 30a4 68bd 866a d33d
00000390: 218f 8dbd a9cb b73d 7a2c e73d 9617 f83d
000003a0: 33c2 b7bb bd94 debd f462 2a3d ba11 81bd
000003b0: c099 e4bd 5b63 5abb a670 1f3d 3155 7fbb
000003c0: 4cfd 2d3e d48d 893d b0f8 453b 6d51 d3bc
000003d0: be62 113e 862d 5cbd 04d7 3e3d 609c c53d
000003e0: 3d73 403d 7244 713c 607b 053d 1eb4 32bd
000003f0: 029c b0bd be9b bbbd b82d d4bd cff1 74bd

critic.2.bias f4 [64]
0.07414581 -0.04356329 -0.029694768 -0.15875126 -0.29853222 -0.20982768 -0.0443827 0.060224835
0.014913603 -0.03753418 0.12001792 -0.16607296 -0.018903894 -0.025363442 -0.058914226 -0.11807403
-0.036058538 0.11039959 0.18091021 -0.13238962 0.14100188 0.07256737 -0.0074831024 -0.034827832
0.08284792 -0.15667431 -0.0288497 -0.07173317 -0.12111759 0.050238036 -0.11462593 0.026706006
0.027159408 -0.088711776 -0.087351024 -0.05893497 0.050143823 -0.12575121 -0.09725278 -0.011244514
-0.038230147 -0.10695513 -0.11348435 -0.022279752 0.035437368 0.14126948 -0.08174818 0.16622962
0.05956223 0.05756203 0.114594504 0.010491215 -0.12860143 -0.07923848 -0.040946003 0.036102485
0.04593666 -0.035625063 -0.09448642 -0.10193396 0.09237659 -0.17809062 0.0016008612 0.16139524
00000000: c2d9 973d 6c6f 32bd 7142 f3bc b18f 22be
00000010: 37d9 98be 11dd 56be a2ca 35bd 51ae 763d
00000020: 2f58 743c 71bd 19bd f5cb f53d 080f 2abe
00000030: 57dc 9abc fec6 cfbc 0b50 71bd ccd0 f1bd
00000040: 1eb2 13bd 2e19 e23d 8740 393e 2591 07be
00000050: cc62 103e 349e 943d d034 f5bb a1a7 0ebd
00000060: 2cac a93d 3b6f 20be 3556 ecbc d7e8 92bd
00000070: 800c f8bd 66c6 4d3d 00c1 eabd 8ec6 da3c
00000080: 687d de3c 85ae b5bd 18e5 b2bd cc65 71bd
00000090: 9c63 4d3d edc4 00be 772c c7bd e93a 38bc
000000a0: 3797 1cbd 4b0b dbbd 7c6a e8bd 0784 b6bc
000000b0: c626 113d f2a8 103e 976b a7bd 1938 2a3e
000000c0: 86f7 733d 2ac6 6b3d 86b0 ea3d 58e3 2b3c
000000d0: 18b0 03be c947 a2bd ffb6 27bd 33e0 133d
000000e0: 1428 3c3d 96eb 11bd 1982 c1bd c1c2 d0bd
000000f0: f02f bd3d 635d 36be fdd3 d13a cb44 253e

critic.4.weight f4 [1, 64]
0.009152122 -0.014921924 0.04818009 0.04920851 0.12296054 0.06381781 -0.0070827496 0.03742268
-0.025636671 0.018341346 -0.07590705 0.002124173 -0.058797456 -0.010086596 0.08848012 0.045854084
-0.022754624 -0.031952035 -0.12571523 0.1188926 0.025863616 0.01047176 -0.045310132 0.03793813
-0.08730355 -0.07785551 0.02015118 -0.04558516 0.10085546 -0.074682735 0.11237467 -0.13763969
0.03132289 -0.020280562 -0.013960246 0.042338688 -0.0120831905 0.10185574 0.03381739 0.016210997
-0.03311947 0.05377297 -0.044935152 -0.1109764 -0.014591439 -0.03864817 -0.038945593 -0.14087628
0.004890677 0.009005469 -0.031144563 -0.0223151 0.021748764 0.02038032 -0.05723155 -0.07142199
-0.0032389874 0.03203173 -0.032802224 0.019210516 -0.0031611433 0.055894192 0.019801652 -0.077877596
00000000: c8f2 153c 167b 74bc 7c58 453d dd8e 493d
00000010: bcd2 fb3d e9b2 823d 6916 e8bb 8648 193d
00000020: ff03 d2bc 9740 963c 2875 9bbd b635 0b3b
00000030: 9ad5 70bd 4042 25bc 1135 b53d 7ed1 3b3d
00000040: e867 babc 23e0 02bd 7ebb 00be f77d f33d
00000050: efdf d33c bf91 2b3c 1e97 39bd 0365 1b3d
00000060: 34cc b2bd b672 9fbd 1614 a53c 81b7 3abd
00000070: 4f8d ce3d 43f3 98bd b124 e63d 6bf1 0cbe
00000080: 6e4c 003d 6c23 a6bc 84b9 64bc 556b 2d3d
00000090: 93f8 45bc be99 d03d 1b84 0a3d edcc 843c
000000a0: 48a8 07bd 0c41 5c3d ec0d 38bd 9847 e3bd
000000b0: ee10 6fbc 8b4d 1ebd 6a85 1fbd df41 10be
000000c0: f941 a03b ad8b 133c e222 ffbc 28ce b6bc
000000d0: 772a b23c a1f4 a63c a16b 6abd b145 92bd
000000e0: 3145 54bb b433 033d a05b 06bd 5f5f 9d3c
000000f0: 2f2b 4fbb 4ff1 643d 1337 a23c 4a7e 9fbd

exp_avg f4 [6]
-0.00306867 0.0067097233 -0.004915001 0.0017213696 -0.00062656536 0.018399317
00000000: bd1b 49bb 3ddd db3b 040e a1bb 949f e13a
00000010: 1740 24ba 2aba 963c

exp_avg_sq f4 [6]
0.00015517317 0.00021933122 0.00024495492 0.003061037 0.0003838738 0.0010115918
00000000: fbb5 2239 47fc 6539 4b6d 8039 ae9b 483b
00000010: ab42 c939 6397 843a

exp_avg f4 [64, 25]
0.0005172595 -1.2384524e-05 1.327393e-05 -0.0004749464 -4.6280842e-05 -0.00062042475 0.00037901977 6.130353e-05
-0.000153749 -0.00011304228 -6.1981475e-05 -0.0005633888 -5.5147324e-05 0.00020094069 4.6353958e-05 7.842987e-05
9.7871234e-05 7.842987e-05 -9.787126e-05 0.001424587 -9.712434e-05 -0.000103544444 -0.001167526 -0.00012582328
-0.0014350835 0.0003389229 -3.4869016e-05 9.615046e-05 0.00082301453 9.936441e-05 -0.00012344382 2.8807879e-05
-7.103672e-05 -0.00010782418 -0.00012226692 0.00016928464 -0.00015806404 2.8581358e-05 0.00012183785 0.00013677713
0.00021939763 6.784069e-05 0.00021939757 -6.784075e-05 0.00073051086 -0.00018718532 0.00019845195 0.0015646253
0.00018374625 -0.00028638367 -5.2646057e-05 -0.000101096804 -0.000355412 -0.0008478756 -5.4685206e-05 -0.00027733
-0.00030742516 -0.00019257657 -5.1387367e-05 -0.000110328474 -0.00011703286 0.00029572382 0.00010952989 2.9829034e-05
0.00011715627 0.00022365565 1.6867336e-05 0.00022365565 -1.6867478e-05 -0.00046488503 -0.00019822393 -0.0007065871
-0.0016216143 -0.00017800846 -0.0006669487 1.5194291e-05 4.1231033e-05 0.00017733744 -0.00011842262 0.00012679442
-0.00012139989 -8.058684e-06 -4.389312e-05 -7.0589012e-06 -9.134044e-05 5.798192e-06 -4.6451105e-06 2.6391614e-05
1.9323728e-05 3.8133632e-05 9.315043e-05 3.0596697e-05 9.315043e-05 -3.0596682e-05 6.654381e-05 5.7962792e-05
0.00035571546 -0.0003621183 0.0003047085 -0.00021957337 0.00011805342 5.9363305e-05 0.00024224047 0.00072484463
5.7846508e-05 0.00011650385 0.00017973597 -3.0831475e-06 0.00010467916 0.00013598136 -7.886325e-05 9.17143e-05
1.738888e-05 3.8405044e-05 6.47935e-05 8.095066e-05 6.066954e-05 8.095063e-05 -6.0669547e-05 0.0003762575
6.171254e-05 0.0005494829 0.0014657816 0.00010020269 0.00026237394 0.00023391026 -8.9434565e-05 -0.0002970352
-0.0009886784 -8.6177475e-05 -0.00045487055 0.00010393179 -7.189587e-05 -2.148115e-05 0.00010430288 -0.00011589162
-7.565388e-05 -6.260736e-05 9.8388584e-05 -6.749409e-05 -0.000100452286 -2.9636705e-05 -0.000100452286 2.9636689e-05
0.00063650403 -0.00017452493 -0.0005704897 -0.0018821736 -0.00014044029 -0.00087858643 0.0004909915 0.00011381089
-1.2448697e-05 -0.0004855956 -1.1910463e-05 -0.00070328213 7.742143e-05 -0.00019385476 -0.00024332847 5.76053e-05
8.584004e-05 -0.00014424739 -6.4985186e-05 0.00015395609 7.494828e-06 4.6461228e-05 0.00013792329 4.64612e-05
-0.00013792336 0.0011644558 8.534654e-05 -8.697969e-06 -0.0008573687 6.4401765e-06 -0.0013094752 5.1755673e-05
-1.3705446e-05 -7.453653e-05 0.00013373452 1.22279935e-05 0.0001451453 2.3360466e-05 -7.153574e-05 4.5410372e-05
-0.00010576694 0.00011113217 -9.984827e-05 -1.9144421e-05 3.1771677e-05 -7.4633726e-06 1.5685193e-05 -3.4509303e-05
1.5685193e-05 3.4509303e-05 0.00012776282 -2.7960647e-05 -0.00012357539 0.00018223369 0.00011532574 0.0002663187
0.00012625026 -3.2100725e-05 -0.00027607853 0.00026112405 4.7124067e-05 0.0001372908 0.00011147719 -6.575214e-05
-9.823293e-06 0.0001737192 -0.0002545796 -9.8186894e-05 -8.303622e-05 2.9628174e-05 -7.178094e-05 -0.00021395378
-4.3785243e-05 -0.00021395378 4.3785247e-05 0.00035005575 -4.0284587e-05 -0.00058844354 0.0005105903 4.8818227e-05
0.00021453065 -4.332541e-05 6.7134915e-06 0.00028720777 -0.00012731637 5.7638794e-05 -0.00017900119 -3.6996676e-06
9.9400255e-05 -3.6664957e-08 4.153277e-05 -5.337856e-05 0.00011563948 4.211946e-06 -3.1976626e-05 3.5725974e-05
9.0790796e-05 -2.1336264e-05 9.0790796e-05 2.1336273e-05 -9.060918e-05 0.00011339816 0.000492765 -0.00014291509
2.3204624e-05 -0.0002976127 9.4317336e-05 -1.8910977e-06 0.00014750462 7.491792e-05 1.3493662e-05 -5.57439e-05
00000000: b398 073a 20c7 4fb7 18b3 5e37 3a02 f9b9
00000010: ad1d 42b8 00a4 22ba 2cb7 c639 1590 8038
00000020: af37 21b9 1d11 edb8 0dfc 81b8 62b0 13ba
00000030: fd4d 67b8 9bb3 5239 2f6c 4238 b77a a438
00000040: 3840 cd38 b77a a438 3c40 cdb8 35b9 ba3a
00000050: 3caf cbb8 0026 d9b8 ac07 99ba 6eef 03b9
00000060: 6919 bcba 76b1 b139 5240 12b8 63a4 c938
00000070: 92bf 573a dd61 d038 b370 01b9 73a8 f137
00000080: 8cf9 94b8 aa1f e2b8 c734 00b9 0082 3139
00000090: febd 25b9 00c2 ef37 3383 ff38 d56b 0f39
000000a0: 1a0e 6639 b145 8e38 160e 6639 ba45 8eb8
000000b0: c17f 3f3a 2d47 44b9 8a17 5039 1d14 cd3a
000000c0: 02ac 4039 c425 96b9 46d0 5cb8 ef03 d4b8
000000d0: 9756 bab9 f843 5eba cb5d 65b8 9a66 91b9
000000e0: e82d a1b9 61ee 49b9 c488 57b8 2660 e7b8
000000f0: 8a6f f5b8 610b 9b39 69b3 e538 5d39 fa37
00000100: cbb1 f538 1b85 6a39 547e 8d37 1b85 6a39
00000110: a27e 8db7 d0bb f3b9 55da 4fb9 423a 39ba
00000120: 598c d4ba c8a7 3ab9 2bd6 2eba fcea 7e37
00000130: 7cef 2c38 a8f3 3939 a959 f8b8 1ef4 0439
00000140: 1298 feb8 c933 07b7 e119 38b8 80db ecb6
00000150: 068e bfb8 178e c236 32dd 9bb6 8f63 dd37
00000160: 6419 a237 adf1 1f38 c259 c338 f454 0038
00000170: c259 c338 f054 00b8 708d 8b38 131d 7338
00000180: 527f ba39 b2da bdb9 48c1 9f39 473d 66b9
00000190: 7293 f738 ddfc 7838 ee01 7e39 8003 3e3a
000001a0: 37a0 7238 8753 f438 8277 3c39 12e8 4eb6
000001b0: 3287 db38 3896 0e39 6363 a5b8 bd56 c038
000001c0: 56de 9137 1a15 2138 bfe1 8738 0ec4 a938
000001d0: 6c77 7e38 0ac4 a938 6e77 7eb8 6d44 c539
000001e0: ab6b 8138 2c0b 103a 781f c03a e923 d238
000001f0: 3c8f 8939 cf45 7539 d18e bbb8 64bb 9bb9
00000200: 8b96 81ba 2eba b4b8 b17b eeb9 f4f5 d938
00000210: cdc6 96b8 6b32 b4b7 2fbd da38 d70a f3b8
00000220: 5ea8 9eb8 124c 83b8 f855 ce38 9d8b 8db8
00000230: e9a9 d2b8 579c f8b7 e9a9 d2b8 4e9c f837
00000240: 10db 263a ae00 37b9 ea8c 15ba 44b3 f6ba
00000250: 2743 13b9 f050 66ba e2b5 003a c2ad ee38
00000260: bfda 50b7 8a97 feb9 0dd3 47b7 775c 38ba
00000270: 505d a238 7e45 4bb9 fd25 7fb9 389d 7138
00000280: 0505 b438 1d41 17b9 a848 88b8 466f 2139
00000290: 157c fb36 5ddf 4238 809f 1039 55df 4238
000002a0: 859f 10b9 a7a0 983a 13fc b238 7eed 11b7
000002b0: 0ac1 60ba b218 d836 b2a2 abba 3b14 5938
000002c0: 71f0 65b7 7f50 9cb8 163b 0c39 d526 4d37
000002d0: 2532 1839 38f6 c337 7505 96b8 0477 3e38
000002e0: 32cf ddb8 a10f e938 a265 d1b8 5598 a0b7
000002f0: 9442 0538 e26d fab6 b293 8337 15be 10b8
00000300: b293 8337 15be 1038 12f8 0539 088d eab7
00000310: 0494 01b9 fc15 3f39 09db f138 b1a0 8b39
00000320: 0c62 0439 e4a3 06b8 a2be 90b9 7ae7 8839
00000330: 15a7 4538 b8f5 0f39 dcc8 e938 69e4 89b8
00000340: b9ce 24b7 6528 3639 1879 85b9 b0e9 cdb8
00000350: bb23 aeb8 058a f837 1989 96b8 c858 60b9
00000360: 0ca6 37b8 c858 60b9 0da6 3738 b087 b739
00000370: 3ff7 28b8 c741 1aba 23d9 053a 2cc2 4c38
00000380: a2f3 6039 4eb8 35b8 7444 e136 6094 9639
00000390: 3a80 05b9 2fc1 7138 44b2 3bb9 ce47 78b6
000003a0: 1b75 d038 8c79 1db3 7933 2e38 cbe2 5fb8
000003b0: 7983 f238 5754 8d36 a41e 06b8 79d8 1538
000003c0: f066 be38 47fb b2b7 f066 be38 4cfb b237
000003d0: 6f05 beb8 2cd0 ed38 e62c 013a 7adb 15b9
000003e0: 8da7 c237 e708 9cb9 3ccc c538 9fd1 fdb5
000003f0: 78ab 1a39 411d 9d38 d662 6237 8fce 69b8
