04-goal-pose-l6/logs/rsl_rl/joint_position/2026-02-19_13-16-49/model_6950.pt (torch, 161397 bytes, 36 tensors)

std f4 [6]
000000 27 f4 b0 3d 86 6e a8 3d c8 7f a0 3d 96 46 e6 3a
       0.08640318 0.08224206 0.07836872 0.0017568644
000010 ad fc 40 3d a4 3e 0a 3d
       0.04711597 0.033751145

actor.0.weight f4 [64, 25]
000000 96 8d 0a 3f c2 f7 6f be 2a 16 0a be c0 a4 01 3e
       0.54122293 -0.23434356 -0.13485017 0.12660503
000010 39 c4 a2 3e 95 cc 89 be 00 85 05 be ba 19 0b be
       0.3179033 -0.26913896 -0.13039017 -0.13584033
000020 1a 08 c1 bd d3 b6 48 3e 5f ae f5 bd 69 05 e1 bd
       -0.094253734 0.19600992 -0.11996149 -0.1098736
000030 c8 f0 c4 be e1 04 3c 3f f5 b8 bf be a8 8a 66 bd
       -0.38464952 0.73444945 -0.374458 -0.056284577
000040 24 96 92 3f de 5d fe bd 6f 6b b3 bf 2a f2 a5 be
       1.1452069 -0.124202475 -1.4017161 -0.3241132
000050 89 c3 95 bd 7c 4a 36 3e 25 9c 84 3e e9 8b 27 3c
       -0.07312686 0.17801851 0.2590038 0.010226228
000060 27 49 8f bd 32 bd f3 be 6a 87 68 3d 61 84 fb 3d
       -0.069963746 -0.47605282 0.056769766 0.12281109
000070 a6 83 e7 3e a0 e5 d2 be 0a af 1a be 50 bb 2f 3e
       0.45217627 -0.41190815 -0.15105835 0.17161298
000080 20 17 b5 3c 5e 20 6f bd 25 a5 77 bd 21 07 a9 bd
       0.022105753 -0.058380477 -0.06046023 -0.08253313
000090 95 24 3a bd 7a 14 03 be 92 bb 11 bf 9b a1 1d bf
       -0.045445044 -0.1280078 -0.56926835 -0.61574715
0000a0 f3 d4 1e be 70 74 7d bf 14 88 f3 bd 5f f1 92 3f
       -0.15510921 -0.99005795 -0.11891189 1.1479911
0000b0 fe fe 92 3d 3e 56 96 3e df ed 14 be 9e d1 3c 3e
       0.07177542 0.29362673 -0.14543866 0.18439338
0000c0 cc 6a 18 3d 91 0b db bd 98 ef 87 bf 2b 13 12 3e
       0.037211224 -0.106955655 -1.0619993 0.14265124
0000d0 86 37 ec 3d de 3b 25 3f 02 5d 29 bf a8 7d 4f 3f
       0.11534028 0.64544475 -0.66157544 0.8105111
0000e0 63 fb b5 bd 99 6d 90 3d a4 4f 40 3d 96 1e 96 3e
       -0.08885839 0.07052154 0.04695095 0.2932021
0000f0 3f 45 91 bd 72 70 76 3d 49 31 71 3e 53 e8 67 bf
       -0.07093286 0.06016583 0.23553957 -0.90588874
000100 d5 0f 94 3d f1 37 8a 3e 44 cb 04 c0 b4 ea 35 3d
       0.07229582 0.26995805 -2.0749063 0.044413283
000110 4d b3 05 40 ef 11 fd bd a2 67 1b be a0 a1 0a bb
       2.0890687 -0.12356936 -0.15176252 -0.0021153465
000120 d3 10 4d 3e 83 8f 0e be 61 18 12 3e dc 6d 0a 3f
       0.20025949 -0.13921933 0.14267112 0.5407388
000130 4c bb 06 be 55 9f e8 be f4 42 02 bf 76 4a 7b be
       -0.13157386 -0.4543406 -0.5088341 -0.24540123
000140 5c b3 0a bf cd 90 55 3e f2 f4 87 be 46 c1 f9 3d
       -0.5417993 0.20856018 -0.26554066 0.12195067
000150 59 cc 6f be 1e ab c6 3e 79 41 0d bd f6 db e0 bd
       -0.23417796 0.38802427 -0.034486268 -0.10979454
000160 90 fe c1 3f 38 b0 8f bd 32 1c 2d bd fe 57 a0 3f
       1.5155811 -0.07016033 -0.042263217 1.2526853
000170 2a 03 e0 3d 7f f0 86 bf da ac a8 ba 0a 4a 8f bd
       0.109381035 -1.0542144 -0.0012868897 -0.06996544
000180 38 bc 9a bc eb 92 0d be 54 a9 16 be 39 92 61 be
       -0.018888578 -0.13825576 -0.14713031 -0.22028436
000190 c8 c5 82 3d 55 b4 87 bd 15 9d 1f bf 21 37 c2 3c
       0.0638538 -0.066261925 -0.62349063 0.023707928
0001a0 e5 ed 5a bd d5 80 47 3c ad f4 f7 3d 96 e1 b1 3d
       -0.05344953 0.012176712 0.12107215 0.08685605
0001b0 75 0e 0a be 04 47 81 3e 32 70 0b be 07 3c ba 3c
       -0.13482077 0.25249493 -0.13617018 0.022733701
0001c0 35 63 73 be 4c f2 05 40 00 96 75 be a3 70 96 bd
       -0.23768313 2.0929136 -0.23983002 -0.073457025
0001d0 e3 61 0c 3f c6 58 03 be e4 5d 09 bf 9c 31 11 bd
       0.54836863 -0.12826833 -0.5365889 -0.0354477
0001e0 29 5c ab 3d 7c 13 45 3d 64 21 92 3d b7 73 f8 3c
       0.083671875 0.048114285 0.07135275 0.030328615
0001f0 4d 63 2e 3e 9c 35 a8 3d 3a ee ac be bf 22 00 3f
       0.17030068 0.0821335 -0.33775502 0.5005302
000200 55 dc 24 3e 02 a7 e2 bb 05 77 b8 be 67 8e e2 be
       0.16099675 -0.0069168815 -0.36028305 -0.4424927
000210 40 06 94 3c af f6 c8 bd ac 9c 86 3e 1e bc 4d 3d
       0.018069386 -0.09812676 0.26291406 0.05022823
000220 13 02 48 3e 85 41 e1 bd 0a 16 ac bf 4f 78 8f 3d
       0.19532041 -0.10998825 -1.3444226 0.07005369
000230 09 39 2f 3e ff c1 9a bd b5 94 1f 3e 55 e1 28 3e
       0.17111601 -0.07556533 0.15584071 0.16492207
000240 6e 04 af bd f9 d8 25 3b be ed 1b be 9a e2 a8 bd
       -0.08545767 0.0025306328 -0.1522741 -0.08246346
000250 b8 00 c9 bd 6d bd a3 bb a3 30 40 be 2b 36 4d 3e
       -0.0981459 -0.0049969465 -0.18768553 0.20040195
000260 d9 4a 6c 3f cf 9b 6b 3e 41 f4 82 be f7 5a c9 3e
       0.9230171 0.23008655 -0.25576976 0.39327213
000270 64 8a c7 be af c5 46 bd 60 73 53 bd c2 bc a3 3d
       -0.3897277 -0.04852837 -0.051623702 0.07994987
000280 87 c0 5f 3d 4b 57 28 bd fa ea 0a be bb 68 db bf
       0.054626968 -0.041098874 -0.13566199 -1.7141336
000290 04 52 c6 be 49 1b 0e 3e 00 4a ed 3d 3c e0 5f 3d
       -0.38734448 0.13877596 0.1158638 0.054657206
0002a0 9a 09 b9 bd 98 e8 97 3d 51 f3 0c 3f 6f bd a4 bb
       -0.090350345 0.074174106 0.5505877 -0.005027465
0002b0 84 b6 1f bd 67 70 fa 3c de ed af be a2 59 82 bd
       -0.03899242 0.030571176 -0.34361166 -0.06364752
0002c0 b4 f3 ec 3e 63 8a 7e be ca 5c a1 be 30 2c 7f bd
       0.4627968 -0.24857478 -0.31516105 -0.062298
0002d0 02 dd a3 be f0 38 2f be c7 f2 67 be a1 17 18 3d
       -0.32004553 -0.17111564 -0.22651206 0.03713191
0002e0 e8 d9 b7 bd 16 13 e6 3d 6b 7b 03 bd de cf 92 be
       -0.08977109 0.11234109 -0.032100122 -0.28674215
0002f0 d3 30 d6 3e 87 1c db bd a1 00 17 bd 2f f6 8d 3f
       0.41834125 -0.106988005 -0.036865834 1.1090754
000300 db 9e 36 be 32 58 5a bf 77 6c 54 3e 2e 74 40 be
       -0.17834036 -0.85290825 0.20744501 -0.18794319
000310 f2 ab 19 be 12 a0 4a be 50 04 6a bd a3 b7 02 be
       -0.15006998 -0.19787624 -0.05713302 -0.12765364
000320 5a ab e7 bd de ee 9e be d4 fb 11 3e 3a 8c cc bd
       -0.113119796 -0.31041616 0.14256221 -0.099876836
000330 97 f8 0e bc f3 c6 de be 71 9d 8f 3d 1a 4a 22 bd
       -0.008726261 -0.4351116 0.070124514 -0.03962145
000340 8c 22 19 be 71 e4 62 bd 13 5b c0 3d 03 0c eb 3d
       -0.14954585 -0.05539364 0.09392371 0.114769004
000350 da 42 da bd 8f e3 92 bf 7c d8 76 be 08 0b 3c bd
       -0.10657282 -1.1475695 -0.2410602 -0.045908958
000360 ce 41 93 3f 57 87 5a 3e b3 22 92 bf 2e 75 61 be
       1.1504457 0.2134069 -1.1416839 -0.22017357
000370 8f 3d fe bd e1 21 22 3d 39 bc f4 3d 8e 62 ca be
       -0.12414085 0.03958309 0.11949963 -0.39528316
000380 fd a5 7b bd 92 fc 5f 3e 83 2d 98 be ce 91 f8 be
       -0.061437596 0.21873692 -0.29722223 -0.4854874
000390 79 62 31 3d e8 97 4b bf 82 ca 26 3e 39 59 f7 be
       0.0433068 -0.79528666 0.16288188 -0.4831026
0003a0 93 41 8b 3e 0e e6 9d 3d 40 cd 0a 3e f6 4d d5 3b
       0.27198467 0.07709895 0.13554859 0.006509538
0003b0 8a 7b 15 3d bf 18 79 3c 2d 63 04 3f 32 c3 2b bd
       0.03649477 0.015203654 0.5171383 -0.0419342
0003c0 86 d1 33 be 39 10 ea 3e 6f 09 a2 bd f5 ad b3 be
       -0.17560396 0.45715502 -0.079119556 -0.35093656
0003d0 21 27 17 3e 22 da f2 bd e8 82 3f 3e 8f f6 4a be
       0.1476102 -0.11858012 0.1870228 -0.19820617
0003e0 40 bf 93 3e b2 2c 80 3c 97 11 5c bd 38 4b 71 3e
       0.2885685 0.015646312 -0.053727712 0.2356385
0003f0 b7 58 b0 3c ea 06 84 be 0f f6 02 be ff 58 8e be
       0.021526678 -0.25786525 -0.12789176 -0.27802274

actor.0.bias f4 [64]
000000 94 06 97 be 3a d9 1b be 19 6d 0d 3e 47 ef ca 3d
       -0.29497206 -0.15219584 0.13811149 0.0990892
000010 cb de 79 3c 41 57 93 3d f9 9e f7 bd 3a b5 cb bd
       0.015250872 0.07194377 -0.120908685 -0.099466756
000020 4f 09 d0 3d 1f 5f 33 bd 06 5a 99 be da ba 3f bd
       0.101580255 -0.043791886 -0.29951495 -0.046809055
000030 96 e8 5a be 71 d0 0c 3d f7 b7 fb bc 2d 6f bd bd
       -0.21377787 0.034378473 -0.03072737 -0.09249721
000040 0a ba 47 3d f4 59 8c be 65 3f b4 bc 27 95 cf bd
       0.048761405 -0.2741238 -0.022002885 -0.101358704
000050 6b 36 f9 bd 83 b3 fb 3c 53 b9 82 be a5 9e 95 be
       -0.121685825 0.030725246 -0.25532016 -0.292226
000060 d9 ac 7b bd bf d4 81 3e e5 75 3f be ae aa 47 3e
       -0.061444137 0.25357625 -0.18697317 0.19498703
000070 12 fa 7c bd 1e 1c d0 bd 14 5e 17 be 19 1c b8 be
       -0.061761923 -0.10161613 -0.14781982 -0.35958937
000080 c7 ba f3 bd 98 d5 7c be e3 bc a0 3c d8 50 ca be
       -0.11900859 -0.24690855 0.019621318 -0.39514804
000090 e3 83 f4 bc 3e f9 8b be 1b 58 6b 3e df de c6 3d
       -0.029848045 -0.27338594 0.22982828 0.09710478
0000a0 3a f8 83 bc 7b 04 47 be fe e1 0d be 4f a9 a8 3d
       -0.016109575 -0.19435303 -0.1385574 0.08235418
0000b0 e3 d2 6a bd a7 fe 72 be 0a 37 82 bc 5e b7 4b be
       -0.057330023 -0.23729955 -0.015895385 -0.19894168
0000c0 6c 5d 2c 3d 4a ec 3d bd 87 9a 97 be ca 72 85 be
       0.04208128 -0.04636792 -0.29610083 -0.2606414
0000d0 b6 fe 49 be 15 b5 8f 3d 65 83 b7 3d fe 6b 55 be
       -0.19726071 0.070169605 0.089606084 -0.20841977
0000e0 ed 31 e9 3d 8c 5a 9f 3e 87 78 95 3e da 64 e4 bd
       0.11386476 0.3112377 0.29193518 -0.111520484
0000f0 4c 45 43 bd 44 a8 eb 3d d4 e6 a3 be 98 ea da be
       -0.04767351 0.115067035 -0.32012045 -0.42757106

actor.2.weight f4 [64, 64]
000000 41 4e 37 be 43 1a 85 3d 9d 80 ec bd 93 94 18 3b
       -0.17900945 0.0649915 -0.115479685 0.0023281917
000010 99 c2 81 bc b1 15 69 be 41 9c 5e be fe 8e 6a bd
       -0.015839862 -0.22762181 -0.21739294 -0.057265274
000020 a3 10 82 3d c4 b2 03 be 48 d8 d2 3d e1 ca 07 3c
       0.063508295 -0.12861162 0.102951586 0.008288116
000030 6c 88 7b 3d d8 ed 90 3c e7 64 8b bd d1 8f 3f be
       0.0614094 0.017691538 -0.06806355 -0.18707205
000040 29 3f 85 bd b1 47 55 bd 76 a8 81 3d a9 be cb 3d
       -0.065061875 -0.052070323 0.063309595 0.09948475
000050 a4 1f 52 3e 04 c1 d3 3c 29 02 e4 3d 50 dc 7c bd
       0.20519882 0.025848873 0.111332245 -0.061733544
000060 e1 1b 35 3c 57 d0 48 be 8c 6a 08 3a 53 5a 09 bc
       0.01105401 -0.19610725 0.0005203865 -0.008383351
000070 a4 f7 a6 3c fb 86 ae 3c c2 6e 27 be cb 55 6f 3d
       0.020381756 0.021304598 -0.16350845 0.058431428
000080 9d 19 eb 3c 37 56 0e be 19 62 b9 bd a3 30 6f 3e
       0.028698737 -0.13900076 -0.09051914 0.23358397
000090 18 c2 81 bd 03 6f 21 bd ea 0e 37 be 4e 9b 77 bd
       -0.063358486 -0.03941251 -0.17876783 -0.060450844
0000a0 22 0f a7 3d 39 51 98 bc 99 e3 8d 3d 40 e5 ce bd
       0.08157183 -0.018593417 0.069281764 -0.1010232
0000b0 f0 41 fa 3d 09 62 9a 3d fc cd 7c be 9a 32 01 bd
       0.12219608 0.0753823 -0.24687952 -0.031542398
0000c0 a9 dd 16 3e ed a8 e9 bd b7 66 21 3d bf 98 32 bd
       0.14732994 -0.11409173 0.039404597 -0.0436027
0000d0 eb ae 1f 3e 24 35 02 bd 36 b9 d8 bd 23 21 b1 bd
       0.1559407 -0.03178896 -0.10582201 -0.086488985
0000e0 31 bb d1 bd 93 38 2b be 82 4a 14 be 3b 07 3d 3e
       -0.10240782 -0.167208 -0.14481547 0.1845979
0000f0 70 36 c1 bd d5 56 5a bd 17 24 b8 3d 33 10 c2 bd
       -0.09434211 -0.053305466 0.089912586 -0.09475746
000100 02 c1 04 be d6 e9 36 be 03 33 92 3d 15 c2 31 3d
       -0.12964252 -0.17862639 0.07138636 0.04339798
000110 89 2e a8 bd 04 26 d3 bc a2 73 83 bd a8 e2 49 3e
       -0.08212001 -0.025774963 -0.064185396 0.19715369
000120 20 4a f0 bd 14 21 f6 3d 90 6a c1 3b 74 b4 81 39
       -0.11732888 0.12018028 0.005902596 0.00024739245
000130 52 fe 14 3e 73 5f f7 3d af 38 c4 3d 29 19 93 bc
       0.1455014 0.12078752 0.09581124 -0.017956333
000140 00 7d 49 3e 6e 5f 04 bd c6 f6 f4 3c d6 03 4b 3d
       0.1967659 -0.03231757 0.029902827 0.049564205
000150 29 14 a6 bd 4f cf 05 bc aa db 4b be af af e9 bd
       -0.08109314 -0.008167102 -0.19908014 -0.11410462
000160 ed 6d f5 bc 6c 16 09 3e 5a e6 29 3e 01 33 f2 3d
       -0.029959643 0.1338746 0.16591778 0.118261345
000170 66 60 45 3e 50 92 ca bd 2e 54 65 3e 05 69 7b 3e
       0.19275054 -0.09891188 0.22395393 0.2455178
000180 70 ed e0 3d d5 77 9e bd bd f8 00 bd 09 c2 92 be
       0.109827876 -0.077377 -0.031487215 -0.28663662
000190 6d e5 cb bd c3 aa 15 3d 09 fa b7 bb 17 8f 87 bc
       -0.09955869 0.036539804 -0.0056145233 -0.016547723
0001a0 28 42 84 be 48 ff 91 3d 01 d9 e9 3c 36 07 c7 3d
       -0.25831723 0.07128769 0.028545858 0.09718172
0001b0 14 57 83 be 51 7c 65 3b ef 20 3a 3e de a2 e5 3d
       -0.25652373 0.0035016725 0.18176626 0.11212705
0001c0 c9 d5 9e 3d 0c da 1e be 23 58 8d 3b 1f 9d b3 bc
       0.0775562 -0.15512866 0.004313485 -0.021925507
0001d0 d0 a8 be bc 55 70 e6 bd e7 fc a8 bd 52 a5 de bd
       -0.023273855 -0.112518944 -0.08251362 -0.10871376
0001e0 f5 a5 10 be 56 01 d6 3d 9f 28 7a bd 7c 21 46 bd
       -0.14125808 0.104494736 -0.061073896 -0.048371777
0001f0 a6 f5 3c be 1e 59 5a 3d f4 16 00 be f9 1b 2e 3e
       -0.18453082 0.053307645 -0.12508756 0.17002858
000200 96 1b 26 3d cf 8d 06 be 82 da 1b bd 7b 08 ab bd
       0.04055365 -0.13140033 -0.038050182 -0.08351227
000210 b6 cd fd bd 06 c9 90 be 47 d6 ca bc 3f 23 a1 3b
       -0.12392752 -0.2827837 -0.024760379 0.0049175317
000220 7f 90 3f be 7d 78 0c bc 23 2b 85 3d 1e 82 01 3e
       -0.18707465 -0.0085736485 0.06502368 0.12647292
000230 87 b4 9c bd b8 e7 31 be 3d b9 10 3d 23 d5 c4 3d
       -0.0765162 -0.1737355 0.035332907 0.09610965
000240 f3 54 0b be 39 63 16 3d 2d 49 4c be 85 ac 3d 3e
       -0.13606624 0.03671572 -0.1994979 0.18522842
000250 30 70 b5 3c ad 46 0e be 15 e0 bf bd fe 77 75 bc
       0.022148222 -0.13894148 -0.09368912 -0.014982222
000260 9d 74 4b be 1d 70 57 be d7 e1 76 3c 77 3b 21 3e
       -0.19868703 -0.21038862 0.015068493 0.1574534
000270 79 86 09 3f 31 a6 0f be 86 c6 08 be d0 8f c2 bc
       0.53720814 -0.1402824 -0.1335698 -0.023750216
000280 f8 ca 3a be 6b f9 19 bd f7 62 24 be 68 e5 74 3e
       -0.18241489 -0.03759138 -0.16053377 0.23915637
000290 f4 16 36 be fd 4a f5 bc 59 96 c3 3d e2 b9 78 be
       -0.17782193 -0.029942984 0.09550161 -0.24289659
0002a0 ad ea 5d bd a3 6e f1 3d 2d 3c bf bd 53 85 23 bd
       -0.054178882 0.117886804 -0.093376495 -0.03992207
0002b0 52 f5 c5 3c 3f f2 07 3f f8 c1 77 be c5 05 bf bd
       0.02416483 0.53104013 -0.24195087 -0.09327272
0002c0 bd ae d9 bd c3 eb 13 be 2a 8e 20 bd a1 4b d5 3d
       -0.10629032 -0.14445405 -0.03919808 0.10414816
0002d0 e2 18 cf 3d f2 b6 40 3e 0f de 4d 3e 90 7c b5 bb
       0.10112168 0.18819788 0.2010424 -0.0055385306
0002e0 52 d1 01 be eb 37 45 3c 06 5b d2 3d ac 8b 0e 3e
       -0.12677506 0.012037258 0.102712676 0.13920468
0002f0 bc f2 76 be 24 85 c5 3d 7e 3e c0 3e 2f db 47 3e
       -0.24116033 0.09644535 0.37547678 0.19517206
000300 7d aa d1 bd 1c 03 e7 3d 2a 6d 60 bd 1f a0 d3 bc
       -0.10237596 0.1127989 -0.054791607 -0.025833188
000310 a5 1e 8c 3d a5 35 f2 bc 5f cb 38 3e d9 58 df 3c
       0.068417825 -0.029566595 0.1804633 0.027264046
000320 e4 87 5d bd 3c a5 b0 bd 98 eb 1b 3c 02 ff 18 3d
       -0.054084674 -0.08625266 0.009516619 0.03735257
000330 1f 14 e3 3d a7 89 46 be 5c af fb 3c 3d f0 a4 bc
       0.11087822 -0.19388448 0.030723266 -0.020134086
000340 75 73 51 be a4 2c 27 be 92 59 10 be 61 4e a9 3d
       -0.204542 -0.16325623 -0.14096668 0.08266903
000350 4b cb 65 bd a6 94 d7 bd 2e 96 53 3e cc 76 0f be
       -0.05610208 -0.10526399 0.20662758 -0.14010161
000360 49 fe 16 be 3f 46 d7 be f5 a3 19 3d 5c 97 9a bb
       -0.1474544 -0.4204578 0.037509877 -0.0047177505
000370 72 79 5b bd c1 77 03 bc 01 a2 47 be a5 b7 6b 3d
       -0.053582616 -0.008024157 -0.19495393 0.057548184
000380 b3 39 ac 3d 65 77 5f bd ce 6d 05 3e 01 44 a2 3e
       0.08409443 -0.054557223 0.13030168 0.31692508
000390 2d b2 1a 3c b5 d0 14 bd 68 36 74 3e 95 ca 90 be
       0.0094418945 -0.03633185 0.2384888 -0.28279558
0003a0 42 ef c4 3d 77 f2 ed 3d d8 e6 c9 bd 2c 6b 96 bd
       0.09615947 0.11618512 -0.09858483 -0.0734466
0003b0 89 a4 d3 3b 9b a2 f6 3d d0 e9 1a be 46 77 02 be
       0.006458823 0.12042733 -0.15128255 -0.12740812
0003c0 c0 17 3a bd bc 52 c2 3d 2e 67 4a 3e 27 06 2e 3d
       -0.045432806 0.094884366 0.19765922 0.042486336
0003d0 68 80 fe 3c 52 7e 5f 3d 0c f2 0a 3c 69 94 00 3e
       0.031067088 0.054563828 0.00848056 0.12556614
0003e0 98 fe b6 3d ab c5 ae 3c e2 67 b0 3d 08 3f 25 be
       0.08935279 0.02133449 0.08613564 -0.16137326
0003f0 48 35 34 be 1c ba c3 bd 6f 3e 41 3e 6d 39 27 3e
       -0.1759845 -0.09556982 0.18871473 0.163305

actor.2.bias f4 [64]
000000 43 7b 38 be 28 c3 bc 3d 83 12 00 be 24 8c 44 be
       -0.1801577 0.092169106 -0.12507062 -0.19194084
000010 80 87 ee bd 4a 49 ca bd 17 ec fd bd 50 29 8b bd
       -0.11646938 -0.0987726 -0.12398546 -0.06794989
000020 a9 51 fd 3d d5 39 a5 3c 64 62 2d bd 52 8d 1f be
       0.12369091 0.020169178 -0.04233016 -0.15581253
000030 c0 0a 76 be 9c 57 75 3d 4a 48 a3 bd 91 d4 19 be
       -0.24027538 0.059898004 -0.079727724 -0.15022494
000040 bd 49 6c be f4 21 8f 3c 53 98 d2 bd 1e 3f 7f 3c
       -0.23075004 0.017472245 -0.1028296 0.015579013
000050 ce bd 24 be 75 a7 5c 3e cd f5 70 be c7 ac c1 bd
       -0.1608803 0.21548255 -0.23531266 -0.09456783
000060 66 1d 34 be 1d e2 09 be 39 fe e9 3a 48 f2 dc bd
       -0.1758934 -0.13465162 0.0017852254 -0.10788399
000070 2f 65 d6 bc 5f 39 53 3d 2b cb 12 bd 47 00 07 3e
       -0.026171295 0.051568385 -0.035838287 0.131837
000080 9d 88 35 be be 8b 6f be 60 d2 75 be b3 fc 7b 3c
       -0.17727895 -0.23393151 -0.24006033 0.015380072
000090 72 a7 d7 be 33 5f f1 3c 89 05 2e be 56 ba 4a bd
       -0.42119938 0.02946434 -0.16994299 -0.04949411
0000a0 68 9f ff bd a9 8e a3 be 5f 25 22 be 62 ea 9f 3d
       -0.12481576 -0.3194478 -0.15834568 0.07808377
0000b0 6a d7 02 be 16 0a 17 3e cf 64 72 be 60 66 9d be
       -0.12777486 0.14749941 -0.23671268 -0.30742168
0000c0 30 bf ed 3c 8b c6 49 be ee a4 68 be e2 52 1d bd
       0.02902183 -0.19704644 -0.22719166 -0.03840912
0000d0 00 dc ca bb db c7 3e 3e 3b 34 c4 bd e7 7d 4b be
       -0.006190777 0.18630926 -0.09580275 -0.19872247
0000e0 d8 99 40 3d 13 44 e3 bc c9 32 04 3e 73 d2 4a 3c
       0.047021717 -0.027742421 0.12909998 0.012379277
0000f0 dd dd 9c be 07 e0 d6 3c de ba ac bc de 5a 3d be
       -0.30638018 0.026229871 -0.021085199 -0.18491694

actor.4.weight f4 [6, 64]
000000 94 33 8d 3d 91 c0 a6 bd c6 b1 81 bd 77 98 5d bd
       0.06894603 -0.08142198 -0.06332736 -0.05410048
000010 94 02 3e bd 15 5a ba 3d e4 e7 b9 3d 12 8a 33 bd
       -0.046389177 0.09099213 0.09077433 -0.043832846
000020 db e0 89 3d db a9 b3 bd 02 4f 18 be aa 2a 86 be
       0.06732341 -0.08772632 -0.14873889 -0.26204425
000030 50 d2 13 3d c1 c6 ee bd 5d 51 f9 bc 56 5c c2 bd
       0.03608924 -0.11659003 -0.030434305 -0.09490268
000040 b1 7b 3e 3d 80 bc a6 3d db ee c7 3c 91 a5 09 3d
       0.04650468 0.08141422 0.024405887 0.033605162
000050 0d 62 67 bd fe 2c b0 bd f9 bb 37 3d c1 fe c9 3c
       -0.056489993 -0.086023316 0.044857 0.024657609
000060 3f 7f e9 3d 71 2e 9c bd b4 f8 1f bd c9 17 0e bc
       0.114012234 -0.076260455 -0.03905554 -0.008672663
000070 4c 56 b6 3c 2a fb b5 bd 7f cf 0a be 7e 3e f4 bc
       0.022257946 -0.08885796 -0.13555716 -0.029814955
000080 81 79 82 3c 9e 8c 36 3e d8 3b 3a 3d 0c d9 90 3d
       0.015927078 0.17827079 0.045467228 0.070726484
000090 23 0f a1 3d 16 2f 13 bd cd 1e 12 3d 7e 5b 0f be
       0.07864215 -0.035933577 0.035673905 -0.13999745
0000a0 d0 aa d9 bd 36 e7 87 3d 41 1d e9 bd ca 91 1a 3e
       -0.10628283 0.06635897 -0.11382533 0.15094677
0000b0 f7 58 50 3d d5 39 f2 bd cd 79 8c 3d b1 97 02 bd
       0.050866093 -0.11827437 0.06859169 -0.031882945
0000c0 af 05 f3 bd 2f f6 2b 3e bc 8a b4 3c fc 11 b7 3d
       -0.118663184 0.1679313 0.02203881 0.08938977
0000d0 98 7c 12 be 7a 22 11 bd a4 ca 18 be e7 e8 02 3d
       -0.14305341 -0.03543327 -0.14921051 0.031960394
0000e0 67 62 fc 3d 22 1e 0e 3d c6 3d 00 3e 74 00 00 3e
       0.12323456 0.034696706 0.12523565 0.12500173
0000f0 e6 ed 3a bb e0 91 78 be 22 21 98 3d 8f 72 00 3d
       -0.0028523146 -0.24274397 0.074281946 0.03135925
000100 85 66 e1 3c 13 2c da bd 4e 42 16 3e a7 c9 f8 3d
       0.027514705 -0.10652938 0.1467373 0.12147837
000110 a9 44 06 3d fd c6 07 3d d7 7c d5 3d 5d bc 6b 3c
       0.032780323 0.033148754 0.10424202 0.014388171
000120 31 b4 49 3d 6f 07 db bd ea d5 9c 3b 42 51 07 be
       0.04924411 -0.10694777 0.0047862427 -0.13214591
000130 d8 df 9c bd e0 cf 9f 3c c3 68 c9 bd 02 12 a7 3d
       -0.07659882 0.019508302 -0.09834435 0.081577316
000140 59 e0 e7 3c 8e 90 d4 3c a1 07 b8 3d 3d 3d 05 be
       0.02830522 0.025947835 0.0898583 -0.13011642
000150 dd 4a cb 3c 2c d2 8c bd 1c c5 1a bd 2c 54 08 3e
       0.024815971 -0.068760246 -0.037785634 0.13313359
000160 ed 34 dd bd d7 62 3e be e9 55 20 be 0e 37 9e bd
       -0.108011104 -0.18592392 -0.15657772 -0.077253446
000170 ff 7c 5f bc 44 94 ac 3b 5e 04 08 3d a5 b6 29 bd
       -0.013640641 0.005266698 0.03320729 -0.04143395
000180 8f 5c ed 3d 01 86 6d 3d 5e fc 85 bc 8e 71 1b bd
       0.1158992 0.057989124 -0.01635569 -0.03795009
000190 6e bb cd 3d b5 53 02 3e d1 8a 45 bd de 7d ff 3c
       0.10045515 0.12727244 -0.04822809 0.031187948
0001a0 b0 8c b1 3c e0 4d 0f 3e 4f 13 d0 3d 68 cf 61 be
       0.02167353 0.1399455 0.10159933 -0.22051775
0001b0 94 a3 06 3e fc 2b bc bd 75 fa 28 3d 10 0e 38 3d
       0.13148338 -0.09188077 0.04125448 0.044935286
0001c0 ef 89 9e 3d 37 b2 f3 3d 2b d2 7a 3d 6e c4 a6 3d
       0.077411525 0.11899226 0.061235588 0.08142935
0001d0 b8 1c a9 be 69 a1 ac bd d2 02 8c b6 e0 91 28 bd
       -0.33029723 -0.08429224 -4.1726535e-06 -0.041154742
0001e0 05 31 9e 3c 87 23 89 bd 2d 56 85 bd d6 0c 0d 3d
       0.019310484 -0.066962294 -0.06510577 0.03443607
0001f0 28 71 ab 3d 76 00 1e be ef 98 6a bd 6c e8 e6 bc
       0.08371192 -0.15429863 -0.057274755 -0.028187
000200 63 63 07 3c fc 9d 96 3d 61 53 da 3c cb a6 1d bd
       0.008263442 0.07354352 0.026651086 -0.038489144
000210 65 24 55 bd 8d 97 17 be fc 9f e8 bc 9b ae f2 bd
       -0.05203666 -0.14803906 -0.028396599 -0.118497096
000220 b3 e4 1c 3e 83 d5 36 3d 47 7e 57 be bc f7 77 bc
       0.15321617 0.044637214 -0.21044265 -0.015134748
000230 2b 54 cf bd 7f 64 42 bd c2 d2 8c 3c 7a ad 91 3b
       -0.10123476 -0.04745912 0.01719034 0.004445729
000240 c5 1f ea bd 41 59 ad 3c df dc 96 3d 43 6b d5 bb
       -0.11431841 0.021160724 0.073663466 -0.0065130307
000250 e2 a0 0a be 2f 90 b1 3d 5d e6 98 3b c7 a4 ff 3b
       -0.13537934 0.08670079 0.0046661333 0.0078016254
000260 bd 10 06 be b2 98 61 3d 88 65 a1 3d b6 c3 08 3d
       -0.13092323 0.055077262 0.07880694 0.03338977
000270 f3 88 48 3d ba 5b 63 bd 5b 13 c5 3d 43 b4 b2 3c
       0.04895873 -0.0555074 0.096228324 0.021814471
000280 d1 68 4e be 6a 5a 43 be ae 1c aa bd db 68 46 3d
       -0.20157172 -0.19077459 -0.083062515 0.04843984
000290 b9 dc 1a be 12 c5 9b bd 45 d5 22 be bc 10 f1 ba
       -0.15123262 -0.076059476 -0.15901668 -0.0018391828
0002a0 10 d3 78 bd 43 bf 29 be e7 17 bc 3d 0e fa 17 3e
       -0.06074816 -0.16576867 0.091842465 0.14841482
0002b0 d8 de 95 3d 9e 74 81 ba 48 aa f4 bc 71 57 b2 bd
       0.07317895 -0.0009876674 -0.029866353 -0.087080844
0002c0 6e 3f 6a 3d 71 09 34 3d 85 20 ca bd 3f 48 2f 3d
       0.057189398 0.043954317 -0.09869484 0.04279351
0002d0 e7 34 dc bc 20 16 ee 3c 10 e7 d2 bb 05 6a 06 bd
       -0.026880695 0.029063284 -0.006436236 -0.03281595
0002e0 a1 d4 11 3e d5 00 4d 3d fd 65 9d 3d 61 f4 e4 bc
       0.14241268 0.05004962 0.07685468 -0.02794856
0002f0 d7 76 94 bd 27 9e 7c 3d 0c c2 f7 3a 24 a2 10 bd
       -0.072492294 0.061674263 0.0018902435 -0.03531088
000300 e1 55 97 bd ce e2 00 bd 31 e1 91 bd 4a bc 9e 3a
       -0.07389427 -0.031466298 -0.0712303 0.0012110558
000310 25 2c 03 be 8d 8f e0 3a fb 9a 64 be ed 42 c9 bd
       -0.12809809 0.0017132625 -0.22324745 -0.09827218
000320 a2 c5 ab bd 5a 74 f7 bd cc 33 ad bd fe 0f be bd
       -0.08387305 -0.12082739 -0.08457145 -0.09280394
000330 7e 75 f1 bd 7c b0 58 be d2 24 2f be a8 d9 00 bc
       -0.11789988 -0.21161073 -0.1710389 -0.007864393
000340 00 b6 ef bd 39 a2 94 be 28 e2 5a bd fc 3f 00 be
       -0.117046356 -0.29030016 -0.053438336 -0.12524408
000350 a4 79 0a be 10 c9 a5 bd 53 1b ea bc 0b 95 23 be
       -0.13522965 -0.0809499 -0.028577482 -0.15974824
000360 d9 4e 70 be e7 a4 39 bd 7c 81 cf bd 9b 42 d7 3c
       -0.23467578 -0.04532328 -0.10132119 0.026276877
000370 cb b1 42 bc 7d e0 71 be 2a cc d3 bd c0 39 d9 bc
       -0.011883209 -0.23620792 -0.103416756 -0.026516795
000380 76 0d 5b 3d 2c 76 0f 3d 7a 8a c3 bd 28 3e 40 be
       0.053479634 0.035024807 -0.09547897 -0.1877371
000390 8e 60 1d be dc d8 4c 3e b1 32 9b bd c8 02 a8 3d
       -0.15368864 0.200046 -0.07578028 0.082036555
0003a0 c6 89 c7 bd 7b 5f 57 be 17 db 9f 3d 59 1b f7 3d
       -0.09743075 -0.21032517 0.0780546 0.12065763
0003b0 67 22 ef 3d 41 5c ac 3b 38 d1 e7 bd 4a 4e 84 bd
       0.116764836 0.005260021 -0.11319202 -0.06460245
0003c0 6f ac af bc 2a 0e 53 3e b1 30 08 be b9 4c fe 3c
       -0.021444527 0.20610872 -0.13299824 0.031042444
0003d0 96 73 93 bd bb e7 4c 3d f6 9c 02 be 9d 34 bb bd
       -0.07199781 0.050025683 -0.12755188 -0.091408946
0003e0 41 40 12 bd 2e 81 93 bd b4 1f 98 3c 95 1d 6b be
       -0.03570581 -0.072023734 0.018569805 -0.22960503
0003f0 a5 ee 0f be 0c d0 61 bc 59 21 49 bd 00 ab b8 bd
       -0.1405588 -0.013782512 -0.04910407 -0.09016991

actor.4.bias f4 [6]
000000 ab 06 40 3d 02 4d 13 bd a1 31 97 3e 8f ee 3d 3e
       0.04688136 -0.035962112 0.2953005 0.18548034
000010 2f 63 37 3c 5a 11 5c 3e
       0.011193081 0.21490994

critic.0.weight f4 [64, 25]
000000 3d 67 1d 3d a4 e7 7c 3d ac be 04 3d d4 b5 8a bd
       0.038428534 0.061744347 0.0324084 -0.06772962
000010 5d d7 09 3d 4a b3 86 bd 9b d8 06 bd e6 ae 13 be
       0.033652652 -0.065771654 -0.032921415 -0.14422187
000020 0e e0 c1 3b 17 8d c4 3d eb d3 bb 3d 4e a7 b2 3d
       0.005916602 0.09597223 0.091712795 0.08723317
000030 df 3a d5 be 71 ab c3 bf c6 fb 33 3f e9 de 28 3c
       -0.41646478 -1.5286695 0.7030605 0.010307052
000040 1f 65 ff 3d 0c ef d3 bd f4 ae 81 3d 9f fe 93 bd
       0.12470459 -0.10348329 0.06332198 -0.072262995
000050 e1 25 89 3c d8 7e fe bd 7e e4 d4 3d 25 a9 95 3d
       0.016741695 -0.12426537 0.10395144 0.073076524
000060 ba a8 c4 bd ef ba 8a be 82 31 3b be aa 40 d2 bd
       -0.096024945 -0.27095744 -0.18280604 -0.1026624
000070 18 ba 01 3e 8d 08 ab ba 04 43 96 bb ae 02 96 bd
       0.12668645 -0.0013048813 -0.0045856256 -0.0732473
000080 f3 9c 37 bd 2d cf 39 3c 38 db 7e 3d 4c 86 87 3c
       -0.044827413 0.011340898 0.062220782 0.01654353
000090 33 1c 28 3d 13 d4 0f 3e 47 c1 85 40 06 b1 99 be
       0.041042518 0.14045744 4.1798434 -0.3001787
0000a0 e2 95 ed bd c9 96 d6 3f e4 ff c6 bc e8 31 ea bf
       -0.116008535 1.6764766 -0.02429194 -1.829648
0000b0 df 33 0c 3e bb b0 6d 3d 61 b4 e1 3d 08 1d 00 bd
       0.13691662 0.05802987 0.11020733 -0.031277686
0000c0 71 be a6 bc a3 06 2b bb 11 b4 3b 3e 15 a4 a9 3c
       -0.020354481 -0.0026096485 0.18330409 0.020708123
0000d0 4e 9e b9 3d 28 03 7d be 21 58 5c bd c0 fc c9 3d
       0.09063397 -0.24708235 -0.053794984 0.09862661
0000e0 65 dc 95 bb dc 5b ad bd b9 38 9a 3d 03 ec ec bc
       -0.004573392 -0.084647864 0.0753035 -0.028921133
0000f0 cc 1e 7f bc 37 7a 0f bd 60 98 d4 3e 52 ab 18 40
       -0.015571307 -0.035028663 0.41522503 2.3854566
000100 a1 92 f6 be 6e 87 2f 3d 5b cf 4a 3f 6c a2 1b 3e
       -0.48158744 0.042853765 0.7922265 0.15198678
000110 cb f2 21 bf d9 94 69 bd 9f f4 6d 3c 3d 26 dc bd
       -0.632611 -0.057026718 0.014523654 -0.10749481
000120 36 c9 b2 3d 14 f7 bc 3d 54 97 4d 3c 31 51 44 3d
       0.08729784 0.09226814 0.0125482865 0.047928993
000130 51 e1 e9 bd ab 59 7a be 51 2a 1a be 6e 82 8e bd
       -0.11419929 -0.24448268 -0.15055205 -0.06958471
000140 06 9d 18 3e 11 fc d7 bd c4 2d b6 bd 23 ab c0 3e
       0.1490365 -0.10546125 -0.08895448 0.37630567
000150 01 44 05 bd 91 26 c4 3e 64 67 21 be 8a 4d 21 3f
       -0.032535557 0.38310674 -0.15762097 0.6300894
000160 cd ac 2d bf 26 43 23 be 88 f1 99 3e 79 59 ac bd
       -0.678418 -0.15943584 0.30067086 -0.08415503
000170 a0 a9 8c 3e 9d 59 2a 3e 23 1d 32 3e 60 c5 36 3c
       0.27473164 0.16635747 0.17393927 0.011155456
000180 c2 d6 e1 3d db 3f 92 3d d7 0d fd 3d e1 9a 9c 3d
       0.1102729 0.07141086 0.12356155 0.07646728
000190 6e dd 07 3c e6 1e 76 3c 23 05 72 be fb b5 9d be
       0.008292539 0.015022015 -0.23634772 -0.30802903
0001a0 a6 fd 17 3e 31 c7 46 3d 23 7e 75 bb cb 57 73 bc
       0.14842853 0.048529807 -0.0037459217 -0.014852474
0001b0 a5 16 ec bd c6 10 cb bc cf c9 28 3d c8 c0 82 bd
       -0.115277566 -0.024788272 0.041208085 -0.06384426
0001c0 8b a2 90 3e 92 07 0c 3f 47 85 e0 be 92 7b 03 be
       0.2824901 0.5469905 -0.43851683 -0.12840107
0001d0 22 cd c8 bd 7e 16 a2 3c b7 35 20 3e 10 98 fd bd
       -0.09804751 0.019786116 0.1564549 -0.12382519
0001e0 57 3a 84 3c 46 22 2d 3e 23 d1 87 bd ba 9c 7d bd
       0.0161411 0.16907606 -0.066316865 -0.061917044
0001f0 ec 14 af bd 43 81 ac 3d 7a 64 61 3e ae ef 90 3d
       -0.085489124 0.08423092 0.22010985 0.07076965
000200 12 fc 56 3d 81 41 e0 3b 1b 8d cf 3d 61 2d 00 3d
       0.052486487 0.006843746 0.101343356 0.031293277
000210 16 a5 7a 3b 80 60 ed 3d 88 50 8f bd 26 d7 06 3d
       0.0038245372 0.115906715 -0.06997782 0.032920025
000220 ce f2 d3 3b aa 32 87 be 98 a8 47 3f 71 5e 0d 3f
       0.0064681536 -0.2640584 0.7799163 0.5522223
000230 d2 99 1d bd cf 2f 1e bf 7b 89 e1 3d 73 c7 37 3f
       -0.038476773 -0.617917 0.110125504 0.7178871
000240 4b 58 ce 3c a1 5e 3f 3d 95 bb 77 bd a0 54 47 3d
       0.025188586 0.046721105 -0.060481627 0.04866469
000250 e3 b3 f5 bd 4a 98 8d bd 88 f9 7d 3e e1 cb 40 3e
       -0.11997201 -0.069138125 0.2480222 0.18827774
000260 52 ff 24 be c4 f7 7b 3e c2 33 ce be 26 15 3e be
       -0.16113022 0.24606234 -0.40273863 -0.18562755
000270 68 dd 99 3d c6 6c 4b bd 93 b3 7f 3d 8b 17 30 3d
       0.07512933 -0.04966428 0.062427115 0.042991202
000280 a4 44 0d 3e e1 cf e2 bd 59 54 54 3e fc 77 26 c0
       0.13795716 -0.11074806 0.20735301 -2.6010733
000290 00 51 66 be 30 10 bf bd f7 3f b4 bf 44 65 76 bd
       -0.22491837 -0.093292594 -1.408202 -0.06015517
0002a0 27 0e d1 3f 54 20 ec 3d e7 c5 12 3e 4c 40 30 3e
       1.6332444 0.115296036 0.14333306 0.17212027
0002b0 4e 11 53 3e 83 97 ab bd 77 db f9 3d 86 66 24 3e
       0.2061207 -0.08378508 0.12200063 0.16054735
0002c0 7f 00 99 3e a1 20 d7 bd 7e de 89 be 27 fb d3 be
       0.2988319 -0.1050427 -0.2692756 -0.41402552
0002d0 93 15 7a bc 5b 2c 74 3d d1 35 6f bc 7a 91 64 bd
       -0.015263933 0.059612613 -0.014600233 -0.0558028
0002e0 a2 b4 3d 3d e5 da dd bc 95 e2 00 be c2 36 c1 3d
       0.046314843 -0.027081916 -0.12586434 0.09434272
0002f0 e7 62 95 3f 0f 00 15 3e 3f 54 6c 39 fd 4e 96 3d
       1.1670808 0.14550804 0.00022538098 0.073392846
000300 ce 29 e3 bd cf 1a 5d be d9 f1 37 3d 44 f2 bc bd
       -0.11091958 -0.21592258 0.04490838 -0.09225896
000310 af c1 43 bc 09 fe d5 bd f2 de d3 bd 73 02 93 bd
       -0.011948033 -0.10448844 -0.10345258 -0.071782015
000320 68 57 55 be 28 02 83 3e 28 5e 31 bd c1 27 60 3d
       -0.20834124 0.25587583 -0.043302685 0.054725412
000330 f5 a3 e9 3d e0 3d 09 be a0 62 4a 3c 7f 38 4f 3c
       0.114082254 -0.1340251 0.012352616 0.012647747
000340 f5 6a 2d bd d7 21 14 3b bf 4d 7a 3c 18 35 76 3d
       -0.04233833 0.0022603178 0.015277325 0.060109228
000350 8f 84 89 3e cf ce c9 3d 19 75 cd be 94 39 42 be
       0.26858947 0.09853899 -0.401284 -0.18967277
000360 d2 ca 53 3f 5a f9 be bd 16 a8 85 bf 04 88 bb 3c
       0.82731354 -0.09324904 -1.0441921 0.022892006
000370 d5 fa ab bd 35 5e 6b 3d a2 67 c1 bc 5c 3f d5 3c
       -0.08397452 0.05746289 -0.023608986 0.026031189
000380 36 d7 10 3c 43 f7 90 3e fd 67 e8 bd c9 04 1f 3d
       0.008840373 0.28313646 -0.11347959 0.038822923
000390 88 d2 75 3d 1c 0a c7 3d d1 a4 5f bc 05 45 14 be
       0.06001523 0.09718725 -0.013650135 -0.14479454
0003a0 da 54 b7 bd 3d 6e 51 3d 1a c1 b7 3d a4 ca b0 bd
       -0.08951731 0.051130522 0.08972378 -0.08632401
0003b0 98 3e 1a bd a0 2f e5 3e 8c 5f 2f bd a7 93 91 3e
       -0.03765735 0.44762897 -0.04281573 0.28432962
0003c0 6e 4a 4e 3e 2a 07 46 be d8 ef ba 3d 29 53 f4 3c
       0.2014558 -0.1933867 0.09127778 0.02982481
0003d0 a9 ad 07 3e 84 ff a2 3d 9b 33 8d bd 09 eb f6 bd
       0.1324984 0.07958892 -0.068946086 -0.12056548
0003e0 46 3e 92 3d e0 76 f2 3d dc d0 c9 3d 3b 57 99 be
       0.07140784 0.1183908 0.0985429 -0.29949364
0003f0 25 c8 7c bd 20 9a b7 bd 59 8e 0d 3d 91 93 b9 3d
       -0.06171431 -0.08964944 0.03455958 0.09061349

critic.0.bias f4 [64]
000000 c7 02 4d bd 9f d2 41 3e 2e ce 7b bd 15 21 48 3c
       -0.050051477 0.18928002 -0.061475925 0.012214919
000010 2a 36 10 3e 1d 75 d0 bd ce b0 e4 3d 39 7c db 3d
       0.14083162 -0.101785876 0.11166535 0.10717053
000020 f2 59 9b 3c 14 4a 02 be 01 31 31 be f3 b6 25 be
       0.018963788 -0.12723571 -0.1730385 -0.16183071
000030 ab 62 01 be fe db b9 3d 25 ea c1 bb aa 0c 88 bd
       -0.12635295 0.09075163 -0.005917805 -0.066430405
000040 e4 cd c5 3d df dd 33 3e ae a2 3e be 5a b9 21 bd
       0.09658411 0.17565106 -0.18616745 -0.039483406
000050 2e 3b 35 bd 00 35 ae 3d 27 d7 b8 3d 78 f8 b8 bc
       -0.04424589 0.08506203 0.09025412 -0.022579417
000060 af 7d 99 bd 68 f4 e2 3b 55 fb 10 3e aa 73 24 3e
       -0.07494675 0.006926108 0.14158376 0.16059747
000070 46 06 2e 3e 60 d6 55 3d c7 0c 2a be f9 df 40 3e
       0.1699458 0.052206397 -0.16606437 0.18835439
000080 5c 4d 2c 3e 1f ea 26 bd 83 af 93 3d 0f 64 bd bd
       0.16826385 -0.04075062 0.072112106 -0.092476
000090 0e 35 8d bd fb 60 2b 3e f8 ad 1d be 92 26 02 be
       -0.06894885 0.16736214 -0.15398395 -0.12710026
0000a0 5e e1 3f bd d7 01 f6 3d 1f 68 c8 bd 11 88 f0 bd
       -0.046845786 0.1201207 -0.097854845 -0.117447026
0000b0 96 c1 e2 bd 71 36 89 3d 9d 8c 63 bd 85 b7 81 bd
       -0.1107208 0.06699837 -0.05555402 -0.06333832
0000c0 4f c3 f5 bc 1c fb 1f be e7 84 42 3d 53 79 d5 bd
       -0.030000357 -0.15623134 0.047490027 -0.104235314
0000d0 6b d7 3c be cb 51 24 3e 75 06 87 bd f3 91 bf bc
       -0.1844155 0.16046827 -0.065930285 -0.023385024
0000e0 b4 ba a7 3d b3 cb 76 be d6 75 e9 bc 9a 8d 85 bc
       0.08189908 -0.24101143 -0.028498571 -0.016302872
0000f0 66 3d 22 3e ad ae b0 3d 88 92 b2 3b 04 a8 31 3e
       0.15843734 0.08627067 0.005449597 0.17349249

critic.2.weight f4 [64, 64]
000000 f8 14 29 bd 4d 7b ae 3d 55 36 0a 3d 70 ad 7a bc
       -0.041279763 0.085196115 0.03374322 -0.01530014
000010 21 8f 1a 3c 3e 0e 3b bd ec 4f 83 bc e3 d5 b3 bb
       0.009433539 -0.04566788 -0.01602932 -0.005488144
000020 82 45 50 bc 20 14 a1 bd 6a 47 f7 3c 7c 53 02 3e
       -0.012711884 -0.07865167 0.03018542 0.1272716
000030 b6 22 b8 bd f6 a4 85 3d 52 6b 6f 3d 0f 8e 24 bd
       -0.089909956 0.065256044 0.058451958 -0.04017454
000040 78 65 8d bc 2f 4a ef 3d fa e5 e2 3d e5 db d5 bd
       -0.017260298 0.11684071 0.11079021 -0.10442332
000050 92 d4 82 3d 33 16 34 bd 16 ca c7 3c d7 e8 55 3d
       0.06388201 -0.043966483 0.024388354 0.052224007
000060 7d 4f a2 3a 1a cd f4 bd a5 6a 6d bd 40 c3 82 3d
       0.0012383308 -0.119531825 -0.057963032 0.06384897
000070 39 d1 8f bd fc 7f fd 3b 69 67 b0 3d fe ab 12 bd
       -0.07022328 0.007736204 0.08613474 -0.035808556
000080 8c e6 33 3c 54 66 0e bc 81 76 23 be a2 6c 4a bd
       0.01098026 -0.008691389 -0.15963174 -0.049420007
000090 d0 d0 86 bd 59 28 da bd 21 a4 b7 bd a9 e2 40 bc
       -0.065827966 -0.10652227 -0.08966852 -0.01177279
0000a0 b6 64 16 be 8f 75 04 be 6e 0f 8d bd 5c b2 ff 3b
       -0.14686856 -0.1293547 -0.068877086 0.0078032445
0000b0 15 f6 e5 3c 85 79 2b be 38 79 9b 3d 88 f6 0f be
       0.028071443 -0.16745575 0.0759148 -0.14058888
0000c0 83 f1 96 3d 08 3b a1 3d ba 5e 77 bd 2d b6 c6 bd
       0.073702835 0.078725874 -0.060393073 -0.09702716
0000d0 06 00 b7 bd ea 07 8c 3c 96 eb 26 3e 78 0e 13 bc
       -0.08935551 0.017093617 0.16300806 -0.008975618
0000e0 c0 05 17 bd 7e 30 57 3d 15 8e 8d 3d d3 cf cc 3c
       -0.036870718 0.05253648 0.069118656 0.025001442
0000f0 98 ea 8d 3d 95 3e 7b 3d c2 d0 da bc 76 54 6f 3d
       0.06929511 0.06133898 -0.026710872 0.058430158
000100 07 9a 0b 3e 0f 88 58 be 5d 40 02 3b 6f e4 00 be
       0.13632976 -0.21145652 0.001987479 -0.1258714
000110 0c e7 9a bc 3a 98 0b 3d 05 41 a6 bd bc e9 2a 3e
       -0.018909 0.03408072 -0.0811787 0.16690725
000120 62 60 f5 3b cd db 76 3d 71 2e cb bb 75 71 f2 3c
       0.0074882964 0.060268212 -0.0062006046 0.029595116
000130 18 f6 e4 3b a3 9f 9a bd 6d a2 a7 3d 6b 33 b7 3d
       0.0069873445 -0.075499795 0.08185277 0.08945354
000140 d2 50 04 be a5 40 1b 3d 2f 40 fb 3d 57 3f a1 3d
       -0.12921456 0.037903447 0.122681014 0.07873409
000150 4b f2 38 bd 75 0a e6 bc c2 0c 57 bd d8 1f d4 bc
       -0.045152944 -0.028081158 -0.0525024 -0.02589409
000160 12 af 61 3d ae fd ec bd b9 d7 ce 3d a9 8e d1 3d
       0.0550986 -0.11571823 0.100997396 0.102322884
000170 29 6b a0 bc ef ec 2c be bd 4d 1e bd 73 2d 9a bd
       -0.019582348 -0.16887258 -0.038648356 -0.075282
000180 0d 10 0a be 25 b6 97 bd 9e f4 b4 bc ca d4 ea 3d
       -0.13482685 -0.07407788 -0.022089299 0.114663675
000190 10 ce 20 bd a9 ac 0d be e8 74 83 3e cc 6d 8a 3d
       -0.039259017 -0.13835396 0.2567513 0.06759223
0001a0 68 ab 22 3d 32 bc a2 3d fd 90 95 3d a3 f3 32 bc
       0.039714247 0.07946052 0.07303045 -0.010922345
0001b0 e3 2e da 3d d6 69 f5 3d 68 95 3e bc 19 55 1b 3e
       0.10653474 0.11983077 -0.011632301 0.15169181
0001c0 e3 b8 8e 3e 67 3a 7c 3d 08 fd 8b bc 71 d6 56 3d
       0.27875432 0.061579134 -0.017088428 0.0524506
0001d0 09 15 d4 3d 22 08 fa bc c3 2a ef 3c f0 ef ef 3d
       0.10355575 -0.030521456 0.029195195 0.11715686
0001e0 a0 71 b5 bd 2a f0 71 bd 8b fc 56 bc fd 8e 9a 3c
       -0.08859563 -0.05906693 -0.013121734 0.01886701
0001f0 af f6 1b 3c 89 42 2d bd 6b e6 8d 3d 01 7a ce 3c
       0.009519263 -0.04229978 0.06928714 0.02520466
000200 cc 5c d0 bd f5 bd 9e 3d 24 92 ac 3c 8e a6 c4 bd
       -0.101739496 0.07751075 0.021065779 -0.0960208
000210 a7 49 f5 bc f3 91 0f be 5d 2c 03 3e e0 53 9a bd
       -0.029942347 -0.14020519 0.12809892 -0.07535529
000220 28 af 09 3d 85 d5 97 bd e0 bc 8e 3d ff ec f3 bd
       0.033614308 -0.074137725 0.06969619 -0.11910438
000230 27 66 8f bd cb 6f 82 bd 18 c3 14 3d c8 f2 3d bd
       -0.07001906 -0.06368979 0.03631887 -0.046374112
000240 56 cb b5 bd 3b b0 51 3e cb 1a 5b 3c 42 4b 01 bd
       -0.08876674 0.20477383 0.013373087 -0.031565912
000250 f9 6e c2 3d dc fd fe 3c fc 4a 7c bd 6a 46 3a bd
       0.094938226 0.031126909 -0.06159495 -0.04547731
000260 ef 72 65 3d 46 f4 9a 3d 6c 7c e4 ba c3 a2 08 3e
       0.056017812 0.07566123 -0.00174321 0.13343339
000270 93 ba f7 3d 90 92 d8 bc 8c 67 07 3e 05 e8 e2 bd
       0.12096133 -0.026437074 0.13223094 -0.110794105
000280 6c e4 79 bd 25 d8 db bd 73 2a 9b bd 20 c5 96 bd
       -0.061008856 -0.10734586 -0.07576456 -0.07361817
000290 c9 69 99 bc c4 38 3a be 3a 61 e8 3d 5d 11 23 3e
       -0.0187272 -0.18185717 0.113466695 0.15924592
0002a0 b1 6f ad bd 15 03 53 3d e1 5f 89 bd 77 21 a3 bd
       -0.08468569 0.05151661 -0.067077406 -0.07965367
0002b0 77 69 c9 3d ee 48 72 3d 22 7e b1 bd 7f ed 0b 3e
       0.09834569 0.059151582 -0.08666636 0.13664816
0002c0 97 12 14 bd 1a 48 9e bd a3 5b 41 bd d3 72 18 be
       -0.03615054 -0.07728596 -0.047206532 -0.14887552
0002d0 65 20 e1 bc 89 3a b7 3d fa 59 22 3e 7a b2 eb 3d
       -0.027481267 0.089467116 0.15854636 0.11508651
0002e0 d9 5a f7 3c da 85 2d ba 34 50 cd 3d b3 67 13 3c
       0.030194687 -0.00066193717 0.10025063 0.008996892
0002f0 d0 7d 86 bc c3 e3 d8 3c 2f 99 0d 3d 28 84 d9 bd
       -0.016417414 0.026475793 0.034569915 -0.1062091
000300 9e e4 06 3d b8 35 ab 3d a9 af 03 3b 6f 3a e9 bd
       0.03293287 0.083598554 0.0020093715 -0.113880984
000310 f6 76 a0 3d 43 11 e2 bd 6d 5f f6 bc 8a 0a 5f 3d
       0.0783519 -0.11038449 -0.0300748 0.05445341
000320 28 07 26 be 23 cc 93 3d 83 ac d6 3c 70 34 a3 bd
       -0.16213667 0.0721667 0.026205307 -0.07968986
000330 61 f4 ad bd ae 01 6d bd d7 34 cf 3d 58 48 54 be
       -0.08493877 -0.05786293 0.101175 -0.20730722
000340 54 66 73 3d 90 9a 08 bc d4 f3 22 3d 15 8b a3 bd
       0.05942376 -0.008337632 0.039783314 -0.07985512
000350 05 4b dc bc b3 b0 a0 bc 66 23 d8 3d ff 24 fc 3d
       -0.02689124 -0.019615507 0.10553627 0.12311744
000360 76 68 23 be fe 94 a0 bc f1 01 1f 3d f3 d9 83 3d
       -0.15957817 -0.019602295 0.03882021 0.06438055
000370 d2 62 d2 bd b7 18 18 bc b4 f5 4e 3d 62 3a 45 3d
       -0.10272755 -0.009283236 0.05052729 0.04815138
000380 7e cb 5f bd a6 d8 14 be 31 a6 93 bd ad 53 c5 3d
       -0.054637425 -0.1453577 -0.07209433 0.096351005
000390 55 74 87 bd 21 55 d0 3d 38 f9 cb 3d ec 21 a6 3d
       -0.066139854 0.10172487 0.09959644 0.08111939
0003a0 a6 76 d8 bc bf c4 e0 bd 5f 38 1b 3d f9 db 9b bd
       -0.026423763 -0.10975026 0.037895557 -0.07610316
0003b0 57 71 df bd 14 cb f4 bc 12 25 7d 3d d6 d2 c6 bc
       -0.1091029 -0.029881991 0.06180293 -0.024270456
0003c0 6d 88 df 3d 63 86 81 3d 3b f2 12 3c 6e 7c 2d bd
       0.10914693 0.0632446 0.008968885 -0.042354994
0003d0 b0 ca 00 3e df e5 4a bd c9 b3 17 3d d5 c3 ae 3d
       0.12577319 -0.04953563 0.03703669 0.08533446
0003e0 9f bb 79 3d 72 a5 b8 3c a2 aa 18 3d 31 c3 30 bd
       0.060969945 0.022539828 0.037272103 -0.0431549
0003f0 f9 c6 b7 bd 39 a3 8f bd 28 6f dd bd cd f0 a2 bd
       -0.08973498 -0.07013554 -0.10812217 -0.07956085

critic.2.bias f4 [64]
000000 2b ea a7 3d 9a 03 8b bd bc ee 91 bc 08 aa 22 be
       0.08198961 -0.06787796 -0.017814033 -0.15885174
000010 60 c9 94 be 97 f3 48 be b2 5a 62 bd d2 7d 67 3d
       -0.29059887 -0.19624172 -0.055262275 0.056516476
000020 ca d6 08 3c a0 d7 fb bc 6b 27 e3 3d 21 38 32 be
       0.008351991 -0.030742466 0.11091503 -0.17404224
000030 3a 59 91 bc 7b 74 12 bd 0b 9f 7b bd f6 9e dc bd
       -0.017742742 -0.035755616 -0.061430972 -0.10772507
000040 4c d0 16 bd 0e e0 e3 3d 8e 7e 2d 3e e1 73 06 be
       -0.03681974 0.111267194 0.16942808 -0.13130142
000050 7d d8 1f 3e 35 bf 8c 3d 3e cc 5c bc f7 bc a4 bc
       0.15609927 0.06872407 -0.0134764295 -0.020109637
000060 79 cf 93 3d aa 68 18 be 3e d9 d8 bc 5e 15 a5 bd
       0.07217307 -0.14883676 -0.026470777 -0.08060716
000070 d8 2c fa bd c9 74 5d 3d 8e 6f c2 bd 0c 47 ca 3c
       -0.122155845 0.054066453 -0.094939336 0.02469208
000080 52 29 02 3d 84 94 bb bd b4 b1 c8 bd c2 b8 66 bd
       0.031777687 -0.091591865 -0.09799519 -0.056328543
000090 b4 21 3c 3d 7c 1c f0 bd 06 88 ae bd 36 c1 d9 bb
       0.04593058 -0.11724183 -0.08522038 -0.006645347
0000a0 b7 b9 1c bd 79 1c d0 bd 7a bf dc bd f2 ce 0b bd
       -0.03826305 -0.10161681 -0.10778709 -0.034132905
0000b0 de 3c fb 3c 66 0b 0d 3e 87 c7 be bd ea 5f 2d 3e
       0.030668672 0.1377388 -0.093154006 0.1693112
0000c0 f1 14 81 3d 21 00 4b 3d 35 fd e3 3d 8f 36 f6 3b
       0.063028224 0.04956067 0.1113228 0.007513828
0000d0 d6 f8 f9 bd e6 86 93 bd d1 a3 3a bd b9 f1 00 3d
       -0.12205665 -0.07203464 -0.045566384 0.031480525
0000e0 71 f3 18 3d 78 ce f5 bc 8c 86 d2 bd 16 bb be bd
       0.03734154 -0.030005679 -0.10279569 -0.093130276
0000f0 47 c9 bd 3d f8 75 1d be f4 cc d4 3b a3 da 1c 3e
       0.09266906 -0.15377033 0.006494159 0.15317778

critic.4.weight f4 [1, 64]
000000 95 26 93 3c ea 73 ae bd ef bc c7 3c 27 54 11 3d
       0.017962733 -0.085182026 0.024382083 0.035480645
000010 83 01 04 3e 31 e6 4a 3d 05 c2 08 bd 0f 8f 8a 3d
       0.12891202 0.049535934 -0.033388156 0.067655675
000020 02 d9 33 bd d3 80 36 3c 26 35 8d bd 7b 00 2b bc
       -0.043908127 0.0111391125 -0.06894903 -0.010437126
000030 37 94 70 bd ef 3a 30 bd d2 d9 84 3d 07 dc df 3c
       -0.0587351 -0.043024953 0.064868584 0.027326597
000040 62 1a 5f bd 8a c6 0a bd 6a d3 04 be 1c 62 ca 3d
       -0.05446852 -0.033880748 -0.12971273 0.09881994
000050 11 19 49 3d 20 78 2c 3d 95 e6 08 bd 88 68 10 3d
       0.04909617 0.042106748 -0.033423025 0.03525594
000060 5e a8 9b bd 6c e1 a6 bd e4 71 2a bc a5 e4 5f bd
       -0.07600473 -0.081484646 -0.01040313 -0.05466141
000070 d1 a6 d4 3d 74 64 89 bd 19 4c e2 3d 06 af 3a be
       0.1038338 -0.06708613 0.11049671 -0.18230829
000080 ed d0 16 3d a8 3e 0f bd f3 1f 9e bd 05 14 ca 3c
       0.03682034 -0.034971863 -0.077209376 0.02466775
000090 0d ba 5d ba bf 1e ed 3d 94 26 00 3d f7 25 16 3d
       -0.00084582047 0.1157813 0.03128679 0.0366573
0000a0 fd 3f e6 bc ec 1c 1b 3d 81 d0 1f bd 3d 2e df bd
       -0.028106684 0.03786938 -0.039017204 -0.10897491
0000b0 6a 23 b3 bc 9d 57 39 bd 0f 57 b3 bd bd ff 15 be
       -0.021867473 -0.04524957 -0.087568395 -0.14648338
0000c0 34 05 d6 3a 27 d4 89 3c a7 fc 03 bd 81 8b b1 bc
       0.0016328455 0.016824795 -0.03222337 -0.021672966
0000d0 e1 32 f4 3c c0 7d 33 3c 14 64 cd bd ef 35 9a bd
       0.029809417 0.010955274 -0.10028854 -0.07529818
0000e0 af 68 ff bc 99 9a f5 3c e1 ad 87 bd ff a9 64 3c
       -0.031177847 0.029980944 -0.06624962 0.013956546
0000f0 8c f7 ca 3b c4 f0 2f 3d 68 7d 3a 3c 78 5c a0 bd
       0.0061940607 0.04295422 0.011382438 -0.07830137

exp_avg f4 [6]
000000 68 50 f8 39 f4 1b e7 b8 b7 9b 28 39 1b 4a df bb
       0.00047362153 -0.00011020145 0.00016079737 -0.006814254
000010 b3 60 49 ba 74 65 6c b9
       -0.0007681951 -0.00022544508

exp_avg_sq f4 [6]
000000 1a de d2 35 cb 0a 0a 36 ca 8f 15 36 32 32 76 3b
       1.5710859e-06 2.0569885e-06 2.2286426e-06 0.003756654
000010 9f ca c6 36 a3 84 5d 37
       5.924448e-06 1.3203508e-05
