04-goal-pose-l6/logs/rsl_rl/joint_position/2026-02-19_13-16-49/model_1350.pt (torch, 161397 bytes, 36 tensors)

std f4 [6]
0.037822347 0.034620065 0.033054013 0.013454805 0.02423424 0.016348137
00000000: 9beb 1a3d c5cd 0d3d a563 073d 8b71 5c3c
00000010: e386 c63c 87ec 853c

actor.0.weight f4 [64, 25]
0.5404151 -0.24255227 -0.13471533 0.12737289 0.31905675 -0.26856348 -0.117194906 -0.12745018
-0.086775 0.20108801 -0.12783222 -0.09225381 -0.38281694 0.7345999 -0.3694721 -0.055390075
1.1473864 -0.12330642 -1.4038953 -0.32320243 -0.079757735 0.1783249 0.25978866 0.011491168
-0.06923285 -0.47527978 0.054079685 0.12401016 0.4534527 -0.4110721 -0.14964828 0.16853888
0.02173858 -0.059585482 -0.05779151 -0.09024134 -0.053404752 -0.1305832 -0.5690207 -0.6104499
-0.15468231 -0.989535 -0.11848594 1.1474771 0.07366557 0.2936493 -0.14435929 0.18539211
0.03824086 -0.10592435 -1.0648047 0.1504531 0.116031714 0.6458646 -0.66228175 0.810678
-0.094011664 0.06540476 0.054173842 0.30169433 -0.07659077 0.06650313 0.23698248 -0.92122823
0.064554386 0.26778573 -2.0745215 0.04223783 2.0886834 -0.12444341 -0.14659253 -0.0010480817
0.19936837 -0.13972461 0.1424011 0.54006505 -0.13064393 -0.45354193 -0.51015717 -0.2440853
-0.54323846 0.21717958 -0.2611948 0.123622276 -0.23065583 0.38266692 -0.026674705 -0.107793055
1.5134213 -0.06996715 -0.041314796 1.2546556 0.1103273 -1.056184 -0.001996371 -0.06497526
-0.017926043 -0.1389405 -0.14617486 -0.22108364 0.06616426 -0.069874816 -0.6222925 0.02453113
-0.0513813 0.012503404 0.110011354 0.10057816 -0.13475406 0.24298953 -0.13900349 0.02967612
-0.24072313 2.0990808 -0.23446038 -0.072628886 0.5467484 -0.12744157 -0.53496903 -0.035396352
0.08057352 0.049123287 0.07191514 0.032099236 0.17065585 0.08058675 -0.3422953 0.49944293
0.16059493 -0.008647912 -0.36017305 -0.42088056 0.016562434 -0.10478422 0.2563202 0.04695036
0.19804439 -0.1064678 -1.3455312 0.06937606 0.17047003 -0.07992618 0.15519483 0.16928245
-0.08217692 -0.004554374 -0.15342374 -0.08307139 -0.09981036 -0.005171612 -0.18968603 0.19640319
0.92260695 0.23042853 -0.25609326 0.39378458 -0.38185233 -0.04567798 -0.055039834 0.080662064
0.04960008 -0.044915255 -0.13674048 -1.716507 -0.38525164 0.13857438 0.11736624 0.054454956
-0.09185287 0.075103045 0.5479375 -0.0053465124 -0.03884467 0.03034014 -0.34325188 -0.06334197
0.463175 -0.24835368 -0.31554103 -0.062396128 -0.32049033 -0.17056596 -0.22018307 0.037938386
-0.09251359 0.1113883 -0.026469702 -0.2872828 0.4185085 -0.10638199 -0.036863267 1.1089697
-0.17833664 -0.8527868 0.20813048 -0.18560801 -0.14984004 -0.19814494 -0.056884345 -0.1279451
-0.10859702 -0.31569725 0.14516534 -0.10013354 -0.007962273 -0.43624416 0.08232941 -0.0461562
-0.14460593 -0.07229406 0.10685832 0.10635586 -0.10293207 -1.1447989 -0.23161 -0.043957278
1.1474365 0.21535854 -1.1386751 -0.21271245 -0.13469553 0.042208396 0.11887952 -0.39417195
-0.063207865 0.2173201 -0.3019555 -0.48536128 0.040778555 -0.79407716 0.1618119 -0.48239523
0.29383284 0.074649334 0.13956346 0.0018761654 0.050809838 0.019945508 0.5194874 -0.042515088
-0.17339626 0.455947 -0.07691228 -0.3497284 0.1461475 -0.118228875 0.18714193 -0.20013857
0.28921074 0.014855985 -0.056232426 0.2261866 0.020313852 -0.25781268 -0.13065644 -0.27708456
00000000: a558 0a3f 9f5f 78be d1f2 09be 0a6e 023e
00000010: 685b a33e 2781 89be e203 f0bd 4d82 02be
00000020: 17b7 b1bd 04ea 4d3e 73e6 02be 91ef bcbd
00000030: 9500 c4be bd0e 3c3f 722b bdbe b4e0 62bd
00000040: 8fdd 923f 1488 fcbd d7b2 b3bf ca7a a5be
00000050: 0658 a3bd cd9a 363e 0503 853e 7445 3c3c
00000060: f4c9 8dbd df57 f3be a982 5d3d 0af9 fd3d
00000070: f42a e83e 0b78 d2be 663d 19be 7595 2c3e
00000080: 1b15 b23c e80f 74bd cab6 6cbd 74d0 b8bd
00000090: f1be 5abd 9ab7 05be 57ab 11bf 7246 1cbf
000000a0: 0a65 1ebe 2a52 7dbf c2a8 f2bd 88e0 923f
000000b0: f9dd 963d 3359 963e ecd2 13be 6ed7 3d3e
000000c0: 73a2 1c3d deee d8bd 854b 88bf 6110 1a3e
000000d0: 09a2 ed3d 6257 253f 4c8b 29bf 9888 4f3f
000000e0: 3089 c0bd eef2 853d 64e5 5d3d ae77 9a3e
000000f0: 9fdb 9cbd cb32 883d 89ab 723e 9dd5 6bbf
00000100: 1735 843d 361b 893e f6c4 04c0 9301 2d3d
00000110: fdac 0540 30dc febd 5a1c 16be c95f 89ba
00000120: 3927 4c3e f813 0fbe 98d1 113e b441 0a3f
00000130: 86c7 05be a636 e8be a999 02bf 7ff1 79be
00000140: ad11 0bbf 5364 5e3e 53bb 85be ad2d fd3d
00000150: 0b31 6cbe ebec c33e e984 dabc 9bc2 dcbd
00000160: cab7 c13f f04a 8fbd b439 29bd 8e98 a03f
00000170: 48f3 e13d 0a31 87bf 8cd5 02bb c011 85bd
00000180: a3d9 92bc 6b46 0ebe ddae 15be c063 62be
00000190: 2181 873d 871a 8fbd 904e 1fbf 82f5 c83c
000001a0: 3375 52bd 14db 4c3c a24d e13d ecfb cd3d
000001b0: f8fc 09be 3fd2 783e ee56 0ebe 561b f33c
000001c0: 2080 76be 5757 0640 6216 70be 74be 94bd
000001d0: b4f7 0b3f 0b80 02be bbf3 08bf c4fb 10bd
000001e0: bb03 a53d 8035 493d 3f48 933d 7d7a 033d
000001f0: 68c0 2e3e aa0a a53d 5441 afbe fcb6 ff3e
00000200: ff72 243e f9af 0dbc 9a68 b8be a87d d7be
00000210: f1ad 873c 1c99 d6bd 673c 833e 054f 403d
00000220: 26cc 4a3e ca0b dabd 5e3a acbf 0915 8e3d
00000230: b28f 2e3e 56b0 a3bd 65eb 1e3e 6158 2d3e
00000240: 5f4c a8bd dc3c 95bb 1d1b 1dbe 5521 aabd
00000250: 6069 ccbd a076 a9bb 0e3d 42be eb1d 493e
00000260: f82f 6c3f 75f5 6b3e a81e 83be 229e c93e
00000270: 2682 c3be d518 3bbd 7371 61bd 2732 a53d
00000280: 7429 4b3d 0ff9 37bd b205 0cbe 80b6 dbbf
00000290: b43f c5be 71e6 0d3e b65d f03d 290c 5f3d
000002a0: 5c1d bcbd a0cf 993d a245 0c3f cc31 afbb
000002b0: 971b 1fbd e38b f83c b6be afbe 6fb9 81bd
000002c0: 4625 ed3e 6d50 7ebe 988e a1be 1593 7fbd
000002d0: 4f17 a4be d8a8 2ebe ac77 61be 4865 1b3d
000002e0: c477 bdbd 8d1f e43d fdd6 d8bc bb16 93be
000002f0: bf46 d63e cdde d9bd f0fd 16bd b8f2 8d3f
00000300: e19d 36be 3c50 5abf 2820 553e 0710 3ebe
00000310: ab6f 19be 82e6 4abe 8fff 68bd 0a04 03be
00000320: 1d68 debd 12a3 a1be 39a6 143e d012 cdbd
00000330: 3274 02bc 655b dfbe 529c a83d 490e 3dbd
00000340: 9413 14be e80e 94bd 89d8 da3d 1ad1 d93d
00000350: 0dce d2bd c588 92bf 2c2b 6dbe 8c0c 34bd
00000360: 33df 923f f386 5c3e 1bc0 91bf 4bd1 59be
00000370: a0ed 09be b6e2 2c3d 1b77 f33d e8d0 c9be
00000380: 2073 81bd 2989 5e3e e999 9abe 4681 f8be
00000390: 6a07 273d a448 4bbf 05b2 253e 82fc f6be
000003a0: 4271 963e c0e1 983d b9e9 0e3e aae9 f53a
000003b0: fa1d 503d c364 a33c 20fd 043f 4d24 2ebd
000003c0: ca8e 31be e371 e93e 2f84 9dbd 9a0f b3be
000003d0: b1a7 153e fb21 f2bd 22a2 3f3e 20f1 4cbe
000003e0: 6e13 943e 8466 733c f953 66bd 769d 673e
000003f0: 3c69 a63c 0600 84be cdca 05be 07de 8dbe

actor.0.bias f4 [64]
-0.29401952 -0.15166213 0.13612324 0.10007846 0.016201895 0.07127076 -0.12109432 -0.09940361
0.103334285 -0.041379 -0.29904494 -0.04685311 -0.21335186 0.035271782 -0.029912535 -0.09227886
0.049722582 -0.27111194 -0.0238402 -0.10097512 -0.122007035 0.031671938 -0.25473547 -0.29310176
-0.0604042 0.25359666 -0.18670447 0.19711886 -0.062355116 -0.10134647 -0.1455685 -0.35997322
-0.11801634 -0.24766758 0.019610709 -0.39565453 -0.029101687 -0.27184588 0.2326807 0.09670099
-0.017107066 -0.19380693 -0.13905069 0.08345589 -0.058860045 -0.23687619 -0.016116515 -0.19911447
0.0416827 -0.04762917 -0.2974775 -0.26031974 -0.19765197 0.070451 0.08958873 -0.20775141
0.113059364 0.3116557 0.29213154 -0.11214816 -0.04772387 0.11501369 -0.3191463 -0.42703533
00000000: ba89 96be 514d 1bbe e463 0b3e f0f5 cc3d
00000010: d6b9 843c 67f6 913d 4d00 f8bd 1f94 cbbd
00000020: eda0 d33d 077d 29bd 6b1c 99be 0ce9 3fbd
00000030: e978 5abe 2579 103d 220b f5bc b3fc bcbd
00000040: e8a9 4b3d 2fcf 8abe 864c c3bc 0bcc cebd
00000050: d3de f9bd 6fba 013d b06c 82be 6f11 96be
00000060: 656a 77bd 6cd7 813e 752f 3fbe 87d9 493e
00000070: 1468 7fbd bd8e cfbd e90f 15be 694e b8be
00000080: 8db2 f1bd 929c 7dbe a3a6 a03c 3b93 cabe
00000090: a966 eebc 622f 8bbe d943 6e3e 2b0b c63d
000000a0: 1e24 8cbc 5375 46be 4e63 0ebe ecea aa3d
000000b0: 3b17 71bd ac8f 72be c806 84bc aae4 4bbe
000000c0: 7bbb 2a3d ce16 43bd f94e 98be a148 85be
000000d0: 4765 4abe 9d48 903d 4c7a b73d c9bc 54be
000000e0: ab8b e73d 5691 9f3e 4492 953e efad e5bd
000000f0: 1b7a 43bd 4c8c eb3d 2567 a3be 60a4 dabe

actor.2.weight f4 [64, 64]
-0.17917152 0.0643071 -0.11618199 0.002425296 -0.015674835 -0.22801065 -0.21774758 -0.057137277
0.064866014 -0.1290362 0.10321761 0.0075522237 0.060883254 0.018534943 -0.06832151 -0.18650228
-0.06476616 -0.051414147 0.06312093 0.09941601 0.2065659 0.026068952 0.11052338 -0.061749253
0.011138311 -0.19482046 0.0006734335 -0.009290674 0.020134753 0.021063592 -0.16332448 0.059595075
0.029004358 -0.13931592 -0.090315916 0.2322951 -0.06293889 -0.03957905 -0.17868496 -0.059170432
0.081131615 -0.019326678 0.07002266 -0.100585446 0.12143899 0.07505429 -0.24721214 -0.032273933
0.14620864 -0.114635415 0.03890244 -0.0433006 0.15558551 -0.03289252 -0.10559112 -0.08665087
-0.10272653 -0.16782247 -0.14528883 0.1846916 -0.09441081 -0.053351704 0.08956252 -0.09482401
-0.13121535 -0.17926182 0.07017808 0.044205766 -0.08229206 -0.024204437 -0.065014385 0.19781187
-0.11399611 0.12202468 0.006673132 0.0016986956 0.14488328 0.121189326 0.09788334 -0.022186877
0.19405018 -0.030487752 0.029691324 0.05059738 -0.08420106 -0.007827542 -0.19773966 -0.11305864
-0.029467179 0.1320536 0.16717325 0.11985161 0.1931454 -0.09984274 0.22526976 0.24359183
0.11067053 -0.075586334 -0.030602781 -0.28505796 -0.10051571 0.037564017 -0.007475731 -0.019442346
-0.2610846 0.07453566 0.030883595 0.095235206 -0.2566153 0.0038400332 0.17891578 0.11082483
0.06890939 -0.15352993 0.0036813554 -0.020919783 -0.024401983 -0.11178414 -0.080685705 -0.10969377
-0.1402399 0.10328486 -0.060476027 -0.04534265 -0.18364573 0.051431857 -0.1254562 0.1734243
0.04101604 -0.13136019 -0.037925314 -0.08376412 -0.12643169 -0.2798048 -0.023049308 0.0047369967
-0.18383004 -0.009174122 0.06487356 0.12606989 -0.07545152 -0.17346795 0.040405363 0.099194355
-0.1354062 0.036859423 -0.19801417 0.18558107 0.01902942 -0.13930021 -0.09231191 -0.014721961
-0.19917728 -0.21585128 0.015072456 0.16498376 0.54145277 -0.14052083 -0.13338107 -0.029427323
-0.18285486 -0.037268877 -0.16081905 0.23954776 -0.17950678 -0.030144071 0.10164325 -0.24683416
-0.062509924 0.12108571 -0.0954596 -0.03974094 0.023461236 0.53466266 -0.24167058 -0.092887364
-0.10320913 -0.14177182 -0.039336275 0.10445159 0.1025095 0.19025218 0.2013967 -0.0065640253
-0.12324182 0.012450757 0.10505489 0.14267734 -0.23878568 0.09627767 0.37852868 0.19857973
-0.101350434 0.10663193 -0.0603143 -0.023293355 0.08634866 -0.06089933 0.17653129 0.031982362
-0.06647667 -0.08421385 0.012124646 0.03850242 0.10183595 -0.18539424 0.03727664 0.00808157
-0.1902049 -0.15800409 -0.14907908 0.08735791 -0.019078413 -0.101294115 0.19071606 -0.13548352
-0.14277172 -0.39488128 0.040640727 -0.016091742 -0.048714574 -0.0084201 -0.19163464 0.036221247
0.09251648 -0.05170008 0.13412113 0.29910553 0.026231384 -0.032269463 0.23486252 -0.27129927
0.100542024 0.109494135 -0.091975845 -0.069263205 0.008327702 0.104042046 -0.15084326 -0.13080625
-0.01985516 0.08087025 0.19179444 0.055954095 0.027056681 0.038336698 0.001450252 0.1270271
0.08316572 0.015564101 0.06804655 -0.17841278 -0.16005026 -0.08039176 0.18183531 0.1454956
00000000: bd78 37be 71b3 833d d3f0 edbd b7f1 1e3b
00000010: 8368 80bc a07b 69be 39f9 5ebe c708 6abd
00000020: 79d8 843d 1122 04be c163 d33d a578 f73b
00000030: b860 793d 98d6 973c 26ec 8bbd 74fa 3ebe
00000040: 1fa4 84bd a497 52bd 8c45 813d 9f9a cb3d
00000050: 0386 533e 8e8e d53c 155a e23d c9ec 7cbd
00000060: 767d 363c 047f 47be 5b89 303a e937 18bc
00000070: a3f1 a43c 8e8d ac3c 883e 27be f719 743d
00000080: 8c9a ed3c d5a8 0ebe 8df7 b8bd c4de 6d3e
00000090: 1be6 80bd a41d 22bd 31f9 36be b25c 72bd
000000a0: 5528 a63d fb52 9ebc 0a68 8f3d beff cdbd
000000b0: 01b5 f83d 10b6 993d 2e25 7dbe ac31 04bd
000000c0: b8b7 153e f9c5 eabd 2a58 1f3d f85b 31bd
000000d0: cf51 1f3e 4fba 06bd 2840 d8bd 0376 b1bd
000000e0: 4962 d2bd a7d9 2bbe 98c6 14be cb1f 3d3e
000000f0: 745a c1bd 5187 5abd 8e6c b73d 1733 c2bd
00000100: 515d 06be 6990 37be 86b9 8f3d 1b11 353d
00000110: bd88 a8bd 6248 c6bc 4326 85bd 328f 4a3e
00000120: cb76 e9bd 13e8 f93d 4aaa da3b c4a6 de3a
00000130: 485c 143e 1c32 f83d 1077 c83d 41c1 b5bc
00000140: 17b5 463e 73c1 f9bc 383b f33c 333f 4f3d
00000150: 9b71 acbd 173f 00bc 447c 4abe 4a8b e7bd
00000160: 2765 f1bc 0f39 073e 772f 2b3e c374 f53d
00000170: e8c7 453e 5a7a ccbd 1ead 663e 2370 793e
00000180: 3ba7 e23d 02cd 9abd afb2 fabc 1ef3 91be
00000190: 2edb cdbd badc 193d faf6 f4bb 8e45 9fbc
000001a0: e1ac 85be 27a6 983d 98ff fc3c ad0a c33d
000001b0: 1563 83be 11a9 7b3b b335 373e 21f8 e23d
000001c0: 5e20 8d3d f336 1dbe e542 713b f75f abbc
000001d0: abe6 c7bc 15ef e4bd 8c3e a5bd 21a7 e0bd
000001e0: 0c9b 0fbe 0387 d33d b6b5 77bd 37b9 39bd
000001f0: a00d 3cbe 36aa 523d 9777 00be 2496 313e
00000200: 6f00 283d 4983 06be 9357 1bbd 868c abbd
00000210: 4f77 01be 9342 8fbe e7d1 bcbc cf38 9b3b
00000220: f13d 3cbe 0e4f 16bc 6edc 843d 7718 013e
00000230: 5486 9abd 95a1 31be 1880 253d 6926 cb3d
00000240: eca7 0abe e8f9 163d 3ac4 4abe f708 3e3e
00000250: 96e3 9b3c b7a4 0ebe 070e bdbd 6134 71bc
00000260: 21f5 4bbe 1e08 5dbe 76f2 763c 81f1 283e
00000270: a69c 0a3f b1e4 0fbe 0c95 08be 9211 f1bc
00000280: 4e3e 3bbe 40a7 18bd c0ad 24be 024c 753e
00000290: a0d0 37be b3f0 f6bc 562a d03d 18c2 7cbe
000002a0: 3405 80bd c9fb f73d 5380 c3bd 65c7 22bd
000002b0: c731 c03c a7df 083f 7e78 77be bb3b bebd
000002c0: 4f5f d3bd a22c 11be 131f 21bd b7ea d53d
000002d0: 80f0 d13d 78d1 423e f03a 4e3e 0917 d7bb
000002e0: 3566 fcbd 43fe 4b3c 0527 d73d 021a 123e
000002f0: 3c84 74be 3a2d c53d 83ce c13e 7c58 4b3e
00000300: d190 cfbd d761 da3d 210c 77bd b5d1 bebc
00000310: 91d7 b03d 9371 79bd 9ec4 343e f0ff 023d
00000320: ec24 88bd 5078 acbd 74a6 463c b7b4 1d3d
00000330: 5e8f d03d fdd7 3dbe 64af 183d 9068 043c
00000340: 13c5 42be d3cb 21be 30a8 18be b4e8 b23d
00000350: 554a 9cbc 4a73 cfbd 124b 433e 31bc 0abe
00000360: c032 12be e12d cabe e476 263d d4d2 83bc
00000370: ef88 47bd 76f4 09bc df3b 44be bb5c 143d
00000380: 4879 bd3d 77c3 53bd 0d57 093e 5c24 993e
00000390: 33e3 d63c fc2c 04bd cd7f 703e bde7 8abe
000003a0: fae8 cd3d 763e e03d d55d bcbd ded9 8dbd
000003b0: ea70 083c ff13 d53d a876 1abe 13f2 05be
000003c0: 4aa7 a2bc 4d9f a53d c365 443e 1f30 653d
000003d0: f9a5 dd3c f106 1d3d 6216 be3a 6413 023e
000003e0: ca52 aa3d 9200 7f3c fd5b 8b3d d7b1 36be
000003f0: 37e4 23be 6fa4 a4bd 0933 3a3e ccfc 143e

actor.2.bias f4 [64]
-0.18033391 0.09153113 -0.12550756 -0.19856368 -0.116861254 -0.12055105 -0.12404334 -0.067642
0.1234503 0.020193132 -0.039067324 -0.1446072 -0.24092403 0.05894442 -0.07950836 -0.15142128
-0.23058513 0.01734333 -0.10068042 0.015154958 -0.16068028 0.21581936 -0.23523763 -0.09463315
-0.17407794 -0.1338169 0.002348756 -0.108004846 -0.026170643 0.05162069 -0.03616348 0.13218312
-0.1787505 -0.23727639 -0.24061772 0.015822912 -0.42128626 0.029079633 -0.16875342 -0.048478156
-0.12485379 -0.32036823 -0.15763643 0.07806967 -0.12744501 0.15010083 -0.23631637 -0.30795792
0.030569836 -0.19682385 -0.22723474 -0.03851666 -0.00071418023 0.18634742 -0.09563658 -0.19906685
0.04524533 -0.027284002 0.12980245 0.012412915 -0.30667686 0.026371133 -0.020972269 -0.18438295
00000000: 74a9 38be ac74 bb3d 0e85 00be 4754 4bbe
00000010: f454 efbd 78e3 f6bd 6f0a febd e487 8abd
00000020: 83d3 fc3d 116c a53c 0f05 20bd e913 14be
00000030: cab4 76be b46f 713d 47d5 a2bd 2e0e 1bbe
00000040: 821e 6cbe 9913 8e3c 8931 cebd 804c 783c
00000050: 5f89 24be c0ff 5c3e 22e2 70be 06cf c1bd
00000060: 7d41 32be 4c07 09be 96ed 193b a531 ddbd
00000070: d163 d6bc 3770 533d 2820 14bd 035b 073e
00000080: 5f0a 37be 95f8 72be 7e64 76be 0d9f 813c
00000090: d5b2 d7be 6938 ee3c b2cd 2cbe 0891 46bd
000000a0: 58b3 ffbd 4e07 a4be 726b 21be fee2 9f3d
000000b0: f280 02be 08b4 193e ebfc 71be a9ac 9dbe
000000c0: 986d fa3c 318c 49be 39b0 68be a5c3 1dbd
000000d0: d337 3bba dcd1 3e3e 1cdd c3bd 2ed8 4bbe
000000e0: 2b53 393d b382 dfbc efea 043e 8a5f 4b3c
000000f0: c004 9dbe 4608 d83c 09ce abbc e2ce 3cbe

actor.4.weight f4 [6, 64]
0.06861536 -0.06361723 -0.054415148 -0.043680344 -0.04423643 0.0951831 0.08983354 -0.040963992
0.073020265 -0.08770604 -0.1395364 -0.26144123 0.03744439 -0.11160902 -0.031512752 -0.08524689
0.049705423 0.08100898 0.022228643 0.028862087 -0.04524765 -0.07418154 0.041412484 0.026465196
0.1175493 -0.07435347 -0.04159785 0.009109954 0.008284209 -0.08897399 -0.14177836 -0.029196275
0.036812842 0.17820102 0.04944778 0.07411459 0.08096959 -0.029634016 0.04037165 -0.18055226
-0.10423877 0.07039943 -0.094163276 0.15067646 0.036216117 -0.13700607 0.059223354 -0.02441344
-0.10672742 0.15614304 0.024620311 0.09342735 -0.14153087 -0.05363697 -0.15017155 0.025529489
0.13897428 0.03879492 0.11476727 0.12371739 -0.0013884604 -0.23677099 0.078641124 0.034403075
0.024099927 -0.11147283 0.15827143 0.105700344 0.03790708 0.04029707 0.10564427 0.013422957
0.038383894 -0.11653654 -0.035460405 -0.12509859 -0.07669175 0.0014659851 -0.102071255 0.057419784
0.029383564 0.02993324 0.10889467 -0.13408697 0.010939714 -0.097806916 -0.03293919 0.13771515
-0.108854376 -0.18049805 -0.16250579 -0.08566828 0.00633578 0.0097993575 0.028514873 -0.052700043
0.09384631 0.057456665 -0.019500423 -0.03834137 0.100334354 0.122599564 -0.0542749 0.0460703
0.02346182 0.14394078 0.10430158 -0.21108627 0.15743646 -0.10342819 0.034788087 0.041247826
0.07288511 0.14568755 0.06285062 0.08041385 -0.32533586 -0.06589143 0.0019107613 -0.04110492
0.04078281 -0.06865497 -0.04995994 0.03749681 0.086948626 -0.16168997 -0.06418648 -0.026075482
0.0051713437 0.040681574 0.036236446 -0.018282844 -0.044711288 -0.15086028 -0.029783351 -0.123340406
0.15240672 0.046230182 -0.22649956 -0.0121255275 -0.10476351 -0.033358175 0.008935044 0.01067474
-0.11983339 0.024734277 0.10114671 -0.007833849 -0.13325785 0.07864765 0.011527013 0.00869392
-0.13428755 0.021465536 0.07533228 0.007981403 0.021930907 -0.054043565 0.10955272 0.017022798
-0.18148986 -0.19997229 -0.0901062 0.03834967 -0.16215095 -0.083147526 -0.1614958 0.0340442
-0.062150966 -0.1700162 0.10691568 0.12841189 0.079189576 0.00518269 -0.02442892 -0.08789923
0.06943506 0.046323713 -0.10206441 0.04070423 -0.024714256 0.047895458 -0.0011019096 -0.030066848
0.11550764 0.038935944 0.05667337 -0.0258802 -0.077022165 0.05793063 -0.012356603 -0.039417855
-0.07372457 -0.031864192 -0.07202231 9.989369e-05 -0.1279362 0.0017211341 -0.2237759 -0.09823808
-0.083864525 -0.12106223 -0.083885826 -0.09335379 -0.118014514 -0.21203074 -0.17100914 -0.009157278
-0.11697649 -0.2905968 -0.05440096 -0.12499733 -0.13601337 -0.080937274 -0.028430142 -0.16027945
-0.23490717 -0.044964857 -0.101155266 0.026201157 -0.011563809 -0.23645775 -0.10360056 -0.027535645
0.053127375 0.034855336 -0.09523449 -0.18854432 -0.15349364 0.20013 -0.075677924 0.083239906
-0.09727182 -0.21025805 0.07775949 0.12138867 0.116175935 0.0064266343 -0.11244564 -0.06482187
-0.02269454 0.20592177 -0.13302976 0.030762075 -0.07281439 0.050183255 -0.12732778 -0.09108953
-0.036962498 -0.071871415 0.019066883 -0.22994702 -0.14044589 -0.014057714 -0.048824932 -0.09010456
00000000: 3686 8c3d c049 82bd 6be2 5ebd 29ea 32bd
00000010: 4231 35bd 5bef c23d a6fa b73d dcc9 27bd
00000020: a68b 953d 399f b3bd a1e2 0ebe a0db 85be
00000030: 4a5f 193d 4593 e4bd 8413 01bd ec95 aebd
00000040: ea97 4b3d 09e8 a53d d818 b63c 2f70 ec3c
00000050: 9a55 39bd 7eec 97bd 23a0 293d 8acd d83c
00000060: b0bd f03d a246 98bd 8262 2abd eb41 153c
00000070: 7eba 073c ff37 b6bd 592e 11be 072d efbc
00000080: 10c9 163d 547a 363e c189 4a3d 64c9 973d
00000090: 62d3 a53d 09c3 f2bc be5c 253d b1e2 38be
000000a0: 237b d5bd 942d 903d add8 c0bd ee4a 1a3e
000000b0: 5a57 143d 524b 0cbe 3094 723d b2fe c7bc
000000c0: e893 dabd f6e3 1f3e 89b0 c93c d756 bf3d
000000d0: 78ed 10be 71b2 5bbd 92c6 19be 3823 d13c
000000e0: 464f 0e3e 6ce7 1e3d 1a0b eb3d 8b5f fd3d
000000f0: 00fd b5ba 1874 72be 990e a13d 3dea 0c3d
00000100: 366d c53c de4b e4bd e811 223e 6c79 d83d
00000110: 7444 1b3d 8a0e 253d 065c d83d f6eb 5b3c
00000120: 6e38 1d3d b6aa eebd ee3e 11bd d819 00be
00000130: 9010 9dbd 4c26 c03a bc0a d1bd 0231 6b3d
00000140: cdb5 f03c 8e36 f53c 2b04 df3d 184e 09be
00000150: 7c3c 333c fe4e c8bd 3eeb 06bd 3305 0d3e
00000160: 0bef debd 7bd4 38be eb67 26be da72 afbd
00000170: 609c cf3b 7c8d 203c 0698 e93c 00dc 57bd
00000180: 7f32 c03d ae57 6b3d 5abf 9fbc d70b 1dbd
00000190: 197c cd3d 7b15 fb3d 5c4f 5ebd 36b4 3c3d
000001a0: 0133 c03c 3665 133e 119c d53d 0027 58be
000001b0: 0637 213e 29d2 d3bd f47d 0e3d 7bf3 283d
000001c0: ca44 953d 1e2f 153e d3b7 803d 04b0 a43d
000001d0: 6c92 a6be 16f2 86bd 8372 fa3a a25d 28bd
000001e0: e00b 273d fa9a 8cbd cba2 4cbd 4196 193d
000001f0: 1f12 b23d 0e92 25be 3474 83bd 409c d5bc
00000200: 6074 a93b b9a1 263d ab6c 143d e7c5 95bc
00000210: 2f23 37bd 1e7b 1abe 37fc f3bc e599 fcbd
00000220: 8210 1c3e dc5b 3d3d 80ef 67be 26aa 46bc
00000230: 408e d6bd 95a2 08bd 4a64 123c 1be5 2e3c
00000240: 356b f5bd 8a9f ca3c 0226 cf3d 8b59 00bc
00000250: bf74 08be 0512 a13d ccdb 3c3c f270 0e3c
00000260: ad82 09be 7ed8 af3c cf47 9a3d 6ec4 023c
00000270: 72a8 b33c c95c 5dbd 2d5d e03d 6573 8b3c
00000280: 7ad8 39be 89c5 4cbe 9989 b8bd 8b14 1d3d
00000290: e60a 26be 4049 aabd 285f 25be ee71 0b3d
000002a0: 0392 7ebd ba18 2ebe 9cf6 da3d 687e 033e
000002b0: 252e a23d 8ed3 a93b 291f c8bc 8304 b4bd
000002c0: f833 8e3d efbd 3d3d 2507 d1bd 7bb9 263d
000002d0: 8d75 cabc 072e 443d f36d 90ba c04e f6bc
000002e0: 458f ec3d 4c7b 1f3d 5622 683d b702 d4bc
000002f0: ccbd 9dbd ab48 6d3d 5973 4abc 9e74 21bd
00000300: e8fc 96bd 0784 02bd 6f80 93bd 047e d138
00000310: b501 03be ad97 e13a 8225 65be 0c31 c9bd
00000320: 2ac1 abbd 79ef f7bd 55cc abbd 4630 bfbd
00000330: 98b1 f1bd 961e 59be 051d 2fbe 6808 16bc
00000340: 5f91 efbd 1bc9 94be 8bd3 5ebd 9afe ffbd
00000350: 1747 0bbe 71c2 a5bd 54e6 e8bc 4c20 24be
00000360: 818b 70be 122d 38bd 7e2a cfbd cfa3 d63c
00000370: 2176 3dbc fb21 72be 882c d4bd 6f92 e1bc
00000380: 179c 593d 78c4 0e3d 4d0a c3bd c311 41be
00000390: 702d 1dbe e1ee 4c3e 07fd 9abd af79 aa3d
000003a0: 7336 c7bd e34d 57be 5e40 9f3d 9f9a f83d
000003b0: a6ed ed3d 8496 d23b e649 e6bd 54c1 84bd
000003c0: e6e9 b9bc 28dd 523e f438 08be bf00 fc3c
000003d0: b61f 95bd f58c 4d3d 3762 02be 268d babd
000003e0: fd65 17bd 5231 93bd 2732 9c3c 3b77 6bbe
000003f0: 0cd1 0fbe 5352 66bc a7fc 47bd bd88 b8bd

actor.4.bias f4 [6]
0.042628326 -0.041439462 0.2998114 0.18539618 0.013564476 0.2165277
00000000: 0a9b 2e3d 6dbc 29bd e180 993e 7fd8 3d3e
00000010: 893d 5e3c 70b9 5d3e

critic.0.weight f4 [64, 25]
0.09911344 0.025179368 0.029490892 -0.060906302 0.018138584 -0.074759275 -0.08092874 -0.17265284
-0.014380563 0.081335895 0.10061231 0.11671599 -0.27860042 -1.5252584 0.68974024 0.008900625
0.18243946 -0.104890205 0.0055854204 -0.051780682 0.04378456 -0.12570874 0.11392032 0.06543938
-0.11334055 -0.2647378 -0.1252834 -0.08745283 0.12127214 -0.0017646765 -0.014390417 -0.05861816
-0.015261737 -0.0048928787 0.051770944 0.024031142 0.03177095 0.122338615 4.142401 -0.29496625
-0.107857294 1.7027102 -0.016139084 -1.8558806 0.16040279 0.05431378 0.11108321 -0.04315327
-0.02012288 -0.015660116 0.17246337 0.044478793 0.097712755 -0.2541524 -0.055824116 0.081375286
-0.0004999362 -0.06561755 0.05536066 0.007936569 -0.0018661786 -0.01899507 0.37633163 2.3760781
-0.4935282 0.041795835 0.7790951 0.15092552 -0.6194787 -0.06191354 0.037004586 -0.11222247
0.06886173 0.09043516 0.0118825305 0.032920226 -0.05836698 -0.24034896 -0.15746503 -0.051805172
0.13640428 -0.15264216 -0.1868406 0.28405377 -0.030697186 0.37820297 -0.108597904 0.4922007
-0.6606976 -0.17754184 0.2877621 -0.11376748 0.26182267 0.19597177 0.14294872 0.004261828
0.11003259 0.060206022 0.13074143 0.076167315 0.0006981465 0.002580068 -0.23837829 -0.3069622
0.17374043 0.06787304 -0.06610199 -0.014173307 -0.15127377 0.022914007 0.03201153 -0.046981815
0.20975572 0.5155799 -0.45950013 -0.108019225 -0.117153026 0.040166296 0.17556007 -0.17498447
0.015017694 0.1694071 -0.057577837 -0.053534284 -0.075488284 0.12672746 0.19401915 0.06762875
0.048301324 -0.01563964 0.08441876 0.031438917 0.008886325 0.09731694 -0.08435519 0.006614616
-0.0034026934 -0.10503359 0.77938044 0.58026415 -0.060221694 -0.6159582 0.08838112 0.7159286
0.050187483 0.08476761 -0.063583426 0.036815826 -0.13170822 -0.09169959 0.2865927 0.18314476
-0.16563453 0.24889311 -0.42415082 -0.18179856 0.09102157 -0.016239677 0.05084903 0.04116231
0.14648224 -0.07259919 0.11824909 -2.6109333 -0.20813937 -0.087191395 -1.430791 -0.054053765
1.6558335 0.17455699 0.13038644 0.15815528 0.20971867 -0.107394665 0.13889574 0.1506016
0.2543592 -0.097765125 -0.26356387 -0.41130328 -0.030664142 0.08705609 0.06347327 -0.0060595004
0.026241047 0.003213857 -0.10916238 0.2025403 1.1662512 0.12010452 0.0018465518 0.11509481
-0.1092979 -0.25762284 0.02627639 -0.092144266 -0.008301929 -0.10613075 -0.090899386 -0.07612807
-0.23761499 0.2233014 -0.04482575 0.042642236 0.13255976 -0.1333102 0.033426374 -0.008038056
0.008001311 0.013400708 0.021863455 0.026924336 0.22443072 0.061621245 -0.4301654 -0.16822566
0.7914738 -0.07179954 -1.0083605 -0.007368353 -0.085992776 0.056933746 -0.032740105 0.037094716
-0.0017708356 0.22558089 -0.091887854 0.045722023 0.06517965 0.14878008 0.009866492 -0.11824584
-0.110914186 0.049732972 0.07469188 -0.10672358 -0.045481145 0.33348307 -0.031341404 0.21548355
0.19849558 -0.21189906 0.08831426 0.04833574 0.08289838 0.0546619 -0.06040649 -0.11507362
0.107547194 0.14515686 0.05632956 -0.2556165 -0.048156794 -0.07214244 0.04444676 0.120970316
00000000: fdfb ca3d f644 ce3c e296 f13c e378 79bd
00000010: 5e97 943c 641b 99bd f8bd a5bd e8cb 30be
00000020: 749c 6bbc 6f93 a63d d40d ce3d cb08 ef3d
00000030: b7a4 8ebe ab3b c3bf d192 303f edd3 113c
00000040: 69d1 3a3e add0 d6bd e705 b73b fb17 54bd
00000050: 7057 333d cbb9 00be 0f4f e93d 1505 863d
00000060: 171f e8bd b78b 87be 4b4a 00be 781a b3bd
00000070: 875d f83d b84c e7ba c9c5 6bbc 9919 70bd
00000080: 5d0c 7abc 7154 a0bb c50d 543d f5dc c43c
00000090: 4122 023d ab8c fa3d 8d8e 8440 d105 97be
000000a0: 49e4 dcbd 68f2 d93f 1d36 84bc 7f8d edbf
000000b0: a140 243e 2078 5e3d 987f e33d 7cc1 30bd
000000c0: bdd8 a4bc a549 80bc 3d9a 303e 652f 363d
000000d0: a01d c83d 4320 82be d4a7 64bd 16a8 a63d
000000e0: 270e 03ba 7e62 86bd dcc1 623d 6208 023c
000000f0: 909a f4ba 8d9b 9bbc 8aae c03e aa11 1840
00000100: baaf fcbe 1c32 2b3d c772 473f 388c 1a3e
00000110: 2896 1ebf 0d99 7dbd 1f92 173d e5d4 e5bd
00000120: 6107 8d3d 1236 b93d f2ae 423c 5cd7 063d
00000130: 3712 6fbd 0a1e 76be 833e 21be a931 54bd
00000140: 90ad 0b3e 3a4e 1cbe 2453 3fbe 7f6f 913e
00000150: aa78 fbbc d2a3 c13e 9468 debd bb01 fc3e
00000160: 7a23 29bf 87cd 35be 8e55 933e edfe e8bd
00000170: 9f0d 863e d3ac 483e 2661 123e cea6 8b3b
00000180: c458 e13d 979a 763d 15e1 053e 9cfd 9b3d
00000190: d203 373a 5c16 293b 7019 74be 262a 9dbe
000001a0: 03e9 313e 0501 8b3d 7b60 87bd 2937 68bc
000001b0: 83e7 1abe 28b6 bb3c 861e 033d 0170 40bd
000001c0: 34ca 563e 0bfd 033f 9a43 ebbe 2f39 ddbd
000001d0: eded efbd 6a85 243d 05c6 333e 212f 33be
000001e0: c60c 763c 0e79 2d3e bdd6 6bbd c446 5bbd
000001f0: 9a99 9abd d8c4 013e f5ac 463e f180 8a3d
00000200: 9cd7 453d b41e 80bc bee3 ac3d 18c6 003d
00000210: f397 113c 1b4e c73d 6ac2 acbd 6cbf d83b
00000220: b9ff 5ebb da1b d7bd 7a85 473f 318c 143f
00000230: 06ab 76bd 70af 1dbf 2901 b53d 1947 373f
00000240: 6491 4d3d a49a ad3d 0738 82bd 31cc 163d
00000250: 85de 06be ffcc bbbd 47bc 923e 4d8a 3b3e
00000260: 199c 29be d6dd 7e3e 4c2a d9be 6729 3abe
00000270: 8469 ba3d 1209 85bc 1347 503d cf99 283d
00000280: 71ff 153e e2ae 94bd 942c f23d 8819 27c0
00000290: 7d22 55be 6791 b2bd 2924 b7bf 7b67 5dbd
000002a0: 5af2 d33f 11bf 323e 0684 053e 75f3 213e
000002b0: 7ec0 563e bcf1 dbbd af3a 0e3e 4e37 1a3e
000002c0: 5e3b 823e 1539 c8bd d8f1 86be 5896 d2be
000002d0: 5e33 fbbc 774a b23d 46fe 813d c68e c6bb
000002e0: 77f7 d63c 939f 523b 8790 dfbd b966 4f3e
000002f0: b847 953f 5cf9 f53d ff07 f23a d4b6 eb3d
00000300: 94d7 dfbd 24e7 83be 9541 d73c 22b6 bcbd
00000310: d004 08bc 145b d9bd 7529 babd 09e9 9bbd
00000320: 5851 73be 1fa9 643e 359b 37bd a0a9 2e3d
00000330: bfbd 073e 7882 08be 18ea 083d 0db2 03bc
00000340: ee17 033c a58e 5b3c fd1a b33c 6d90 dc3c
00000350: 2bd1 653e 8f66 7c3d a43e dcbe 5943 2cbe
00000360: 079e 4a3f a30b 93bd f511 81bf 3a72 f1bb
00000370: fb1c b0bd 5c33 693d 7d1a 06bd a1f0 173d
00000380: 621b e8ba adfe 663e b32f bcbd 0447 3b3d
00000390: e97c 853d ce59 183e 11a7 213c e02a f2bd
000003a0: fa26 e3bd cdb4 4b3d 0ef8 983d e491 dabd
000003b0: 704a 3abd 4bbe aa3e d85f 00bd b8a7 5c3e
000003c0: 6d42 4b3e 11fc 58be 1bde b43d b2fb 453d
000003d0: a0c6 a93d 28e5 5f3d cc6c 77bd b8ab ebbd
000003e0: b441 dc3d 00a4 143e d3b9 663d 2ae0 82be
000003f0: 0f40 45bd 6abf 93bd ce0d 363d 49bf f73d

critic.0.bias f4 [64]
-0.049982265 0.19983032 -0.060359515 -0.0012875611 0.15924583 -0.122480966 0.11824494 0.11267652
0.040541857 -0.13031334 -0.17047234 -0.16126701 -0.0631127 0.0961932 -0.020036604 -0.05059538
0.090641424 0.16893527 -0.19407654 -0.03014892 -0.07063961 0.0843856 0.09642635 -0.033520103
-0.07804278 -0.01945676 0.12732658 0.15881856 0.18833421 0.071443394 -0.17614454 0.18424514
0.17226419 -0.052698236 0.05384689 -0.09096481 -0.05899665 0.16014932 -0.15714289 -0.14521946
-0.041144345 0.13607177 -0.08486872 -0.11435891 -0.073591 0.09019882 -0.053647794 -0.034641884
-0.05639766 -0.15376556 0.05007752 -0.11655267 -0.19857119 0.18008418 -0.09445358 -0.020735824
0.08401613 -0.25566754 -0.041721717 -0.017368212 0.14495133 0.082402654 0.018252084 0.16978653
00000000: 34ba 4cbd 52a0 4c3e 8a3b 77bd 62c3 a8ba
00000010: 5711 233e 4dd7 fabd 672a f23d f3c2 e63d
00000020: 380f 263d dc70 05be 4d90 2ebe 2e23 25be
00000030: 3b41 81bd f100 c53d ce23 a4bc 1a3d 4fbd
00000040: 36a2 b93d 5efd 2c3e 00bc 46be defa f6bc
00000050: 80ab 90bd 5cd2 ac3d 2e7b c53d 604c 09bd
00000060: e5d4 9fbd c863 9fbc e661 023e 55a1 223e
00000070: afda 403e ea50 923d 3c5f 34be c2aa 3c3e
00000080: 0666 303e 1bda 57bd 8e8e 5c3d c24b babd
00000090: 79a6 71bd 2ffe 233e 11ea 20be 69b4 14be
000000a0: f986 28bd 6656 0b3e a7cf adbd 0135 eabd
000000b0: e1b6 96bd 29ba b83d cabd 5bbd a6e4 0dbd
000000c0: 3c01 67bd b874 1dbe 161e 4d3d 2bb3 eebd
000000d0: 3f56 4bbe fd67 383e e170 c1bd 2dde a9bc
000000e0: a610 ac3d dbe6 82be 64e4 2abd c847 8ebc
000000f0: 1f6e 143e b9c2 a83d 6585 953c 85dc 2d3e

critic.2.weight f4 [64, 64]
-0.033694282 0.09720725 0.04478384 -0.012236431 0.0005601305 -0.044427864 -0.017283548 -0.0063408357
-0.00015329488 -0.08025959 0.035021234 0.13326924 -0.081320554 0.061221015 0.04786411 -0.03540733
-0.021148024 0.12351075 0.10850607 -0.107298456 0.06306475 -0.045683403 -0.0030053505 0.06085606
-0.0016462447 -0.10987388 -0.05871282 0.05887775 -0.08750985 0.0027133103 0.099179335 -0.042555634
0.012849114 -0.002876208 -0.16138253 -0.05733439 -0.068738766 -0.1213628 -0.08178851 -0.0029951197
-0.14024544 -0.13111588 -0.063711025 0.02269032 0.036696564 -0.13451344 0.10151193 -0.11317744
0.081163235 0.09994996 -0.06542233 -0.09636847 -0.08994338 0.012004414 0.1572412 -0.006342094
-0.036186785 0.043887533 0.0689399 0.027369302 0.06437788 0.044140585 -0.022229664 0.05744426
0.101432145 -0.18878338 -0.010760121 -0.123272516 -0.031467993 0.04926629 -0.052874897 0.14517875
-0.03513115 0.045733854 -0.02531726 0.03861526 0.017624872 -0.09319676 0.07336344 0.07622707
-0.0835284 0.035205904 0.15261824 0.07734582 -0.053881057 -0.024313366 -0.041326847 -0.04253097
0.088111736 -0.088689394 0.07026416 0.10470336 -0.025408424 -0.13086586 -0.02436614 -0.04104672
-0.11068634 -0.068677396 -0.011669109 0.10127365 -0.010933818 -0.12662688 0.23708501 0.022653349
-0.017669924 0.056895103 0.060330253 -0.026008526 0.102844514 0.0681618 -0.011827474 0.113562934
0.20055407 0.06749774 -0.017627789 0.06633894 0.08447227 -0.05032207 0.017043253 0.09102057
-0.07194439 -0.06913682 0.0077215424 0.039944626 0.044716824 -0.04906759 0.075272776 0.036064707
-0.10025411 0.08184609 0.038030174 -0.10877424 -0.03712871 -0.09488685 0.122371085 -0.07060301
0.02595558 -0.06075488 0.079227775 -0.12614754 -0.07125411 -0.05866417 0.03606578 -0.035302073
-0.07872186 0.21715753 0.010773507 -0.026960777 0.09177432 0.014947575 -0.09246189 -0.021271857
0.05556357 0.09463693 -0.0019525286 0.11699901 0.096230224 -0.056437846 0.14752442 -0.122181095
-0.0683597 -0.07141799 -0.07557566 -0.09563183 -0.026799502 -0.20429939 0.10469579 0.16378684
-0.07154475 0.060397904 -0.058147125 -0.084062494 0.09739831 0.07068935 -0.05446969 0.14814465
-0.021720666 -0.04321971 -0.041632775 -0.14640754 -0.024253458 0.088780075 0.15344757 0.12320423
0.016565714 0.0026946152 0.10191114 0.009438328 -0.024324974 0.0040497687 0.023342028 -0.10847645
0.06345141 0.084598735 -0.0025738522 -0.10501394 0.065501705 -0.09206081 -0.03365865 0.051412918
-0.12509187 0.07884716 0.02697601 -0.06881091 -0.08012322 -0.06050475 0.119394474 -0.1814062
0.035869166 0.018985558 0.01289233 -0.03404564 -0.008590479 -0.017164877 0.05453592 0.116105795
-0.17089239 -0.035843704 0.060171265 0.075308025 -0.12547465 -0.050615218 0.057367504 0.04707344
-0.050378777 -0.14962107 -0.05562882 0.10665282 -0.06711592 0.086866304 0.11805144 0.12886363
0.0030307556 -0.10890179 0.041958533 -0.058715504 -0.107395306 0.004554347 0.040167805 0.0022128706
0.17310879 0.06337578 0.0036466597 -0.024644213 0.14490387 -0.053244628 0.04677905 0.100009635
0.04551287 0.013974103 0.029778542 -0.029089632 -0.083851196 -0.08898704 -0.09855439 -0.056262497
00000000: 0403 0abd 9814 c73d 436f 373d 507b 48bc
00000010: b9d5 123a fef9 35bd 3a96 8dbc c9c6 cfbb
00000020: c8bd 20b9 245f a4bd 6d72 0f3d bb77 083e
00000030: 648b a6bd e3c2 7a3d 280d 443d 4707 11bd
00000040: 9f3e adbc 34f3 fc3d 6e38 de3d 4bbf dbbd
00000050: 1728 813d 851e 3bbd 6af5 44bb 3444 793d
00000060: cec6 d7ba 8f05 e1bd db7c 70bd cc29 713d
00000070: 5d38 b3bd cbd1 313b 891e cb3d d14e 2ebd
00000080: 1785 523c c37e 3cbb 7641 25be 77d7 6abd
00000090: e9c6 8cbd 0f8d f8bd bc80 a7bd c549 44bb
000000a0: 809c 0fbe 3e43 06be ed7a 82bd 0de1 b93c
000000b0: 234f 163d e4bd 09be 7de5 cf3d 93c9 e7bd
000000c0: e938 a63d 91b2 cc3d 24fc 85bd d55c c5bd
000000d0: 3c34 b8bd 29ae 443c d603 213e 57d1 cfbb
000000e0: 9838 14bd 6ac3 333d 5d30 8d3d 9635 e03c
000000f0: 8dd8 833d c2cc 343d fc1a b6bc ac4a 6b3d
00000100: a8bb cf3d 6e50 41be 384b 30bc 4d76 fcbd
00000110: 95e4 00bd 73cb 493d 5993 58bd bda9 143e
00000120: aee5 0fbd 6c53 3b3d 2466 cfbc 092b 1e3d
00000130: 0962 903c f1dd bebd 923f 963d f01c 9c3d
00000140: f010 abbd 1134 103d f547 1c3e 7c67 9e3d
00000150: 62b2 5cbd d32c c7bc 5746 29bd f434 2ebd
00000160: ed73 b43d c9a2 b5bd a8e6 8f3d b76e d63d
00000170: 5425 d0bc b301 06be 809b c7bc 9b20 28bd
00000180: 85af e2bd bca6 8cbd ca2f 3fbc 8f68 cf3d
00000190: c223 33bc 7aaa 01be 6ac6 723e 8493 b93c
000001a0: 84c0 90bc d70a 693d db1c 773d d50f d5bc
000001b0: 25a0 d23d 6a98 8b3d 06c8 41bc af93 e83d
000001c0: 0c5e 4d3e 413c 8a3d 2768 90bc b6dc 873d
000001d0: ccff ac3d 841e 4ebd 4b9e 8b3c fe68 ba3d
000001e0: 9557 93bd 9b97 8dbd fe04 fd3b fa9c 233d
000001f0: fd28 373d 19fb 48bd 9d28 9a3d 96b8 133d
00000200: 0752 cdbd ec9e a73d 87c5 1b3d 07c5 debd
00000210: 4614 18bd 0954 c2bd b19d fa3d 5098 90bd
00000220: cca0 d43c 1cda 78bd 2c42 a23d d22c 01be
00000230: aded 91bd d749 70bd b6b9 133d e898 10bd
00000240: ed38 a1bd 8b5e 5e3e 5d83 303c d9dc dcbc
00000250: 2df4 bb3d ace6 743c a95c bdbd 5142 aebc
00000260: a096 633d 02d1 c13d fdeb ffba 2d9d ef3d
00000270: 5a14 c53d 5f2b 67bd a410 173e 153a fabd
00000280: 2c00 8cbd 9843 92bd 69c7 9abd 9fda c3bd
00000290: a18a dbbc dc33 51be bf6a d63d bdb7 273e
000002a0: 0e86 92bd cb63 773d ae2b 6ebd f528 acbd
000002b0: c478 c73d 94c5 903d 9c1b 5fbd 3bb3 173e
000002c0: 8aef b1bc 2707 31bd 2187 2abd dceb 15be
000002d0: 30af c6bc 54d2 b53d 5c21 1d3e 8052 fc3d
000002e0: d2b4 873c 2498 303b cab6 d03d 38a3 1a3c
000002f0: 2b45 c7bc ecb3 843b c837 bf3c e728 debd
00000300: d0f2 813d 1a42 ad3d 13ae 28bb 8c11 d7bd
00000310: c225 863d 618a bcbd a7dd 09bd 5a96 523d
00000320: 1518 00be 9f7a a13d cbfc dc3c bcec 8cbd
00000330: a517 a4bd d4d3 77bd 1785 f43d 8cc2 39be
00000340: 8ceb 123d 9a87 9b3c 5a3a 533c 7173 0bbd
00000350: 15bf 0cbc 5b9d 8cbc 0f61 5f3d e0c8 ed3d
00000360: 6afe 2ebe d9d0 12bd 2576 763d 183b 9a3d
00000370: 6d7c 00be e751 4fbd 30fa 6a3d 14d0 403d
00000380: fa59 4ebd 4436 19be 0cdb 63bd cb6c da3d
00000390: 1274 89bd f6e6 b13d f4c4 f13d d4f4 033e
000003a0: a49f 463b e707 dfbd b6dc 2b3d ab7f 70bd
000003b0: 12f2 dbbd a23c 953b ff86 243d cf05 113b
000003c0: 6e43 313e 29cb 813d ccfc 6e3b a9e2 c9bc
000003d0: ae61 143e 0a17 5abd 649b 3f3d dad1 cc3d
000003e0: b46b 3a3d a3f3 643c 21f2 f33c 614d eebc
000003f0: 2dba abbd d63e b6bd e2d6 c9bd 8173 66bd

critic.2.bias f4 [64]
0.072855674 -0.042362873 -0.031717636 -0.15837829 -0.30042008 -0.21274686 -0.044693306 0.061188836
0.01686066 -0.037846882 0.12173092 -0.16661343 -0.017229019 -0.024463747 -0.055609636 -0.11872975
-0.03509975 0.111089535 0.1806637 -0.13012351 0.13945436 0.071410045 -0.0059218416 -0.033854313
0.08678496 -0.15643835 -0.028612878 -0.069974855 -0.12130786 0.051778503 -0.1189511 0.0289143
0.027797079 -0.08890403 -0.08624424 -0.058910068 0.051229104 -0.12164062 -0.09900667 -0.01322814
-0.036670238 -0.10762352 -0.11317059 -0.018996187 0.038193718 0.14479598 -0.07874388 0.16530801
0.058804426 0.05938861 0.11437953 0.012035652 -0.13094018 -0.07945032 -0.039686836 0.038552266
0.047725856 -0.035931163 -0.09191978 -0.10237091 0.09362863 -0.18072015 0.00084726955 0.16389711
00000000: 5b35 953d b184 2dbd 5aea 01bd eb2d 22be
00000010: a9d0 99be 50da 59be 5410 37bd 25a1 7a3d
00000020: 5e1f 8a3c 5505 1bbd 104e f93d b69c 2abe
00000030: df23 8dbc 3268 c8bc eec6 63bd 9528 f3bd
00000040: c1c4 0fbd e982 e33d e8ff 383e 193f 05be
00000050: 20cd 0e3e 6e3f 923d 020c c2bb d2aa 0abd
00000060: 50bc b13d 6031 20be 8e65 eabc fa4e 8fbd
00000070: 4170 f8bd b215 543d a29c f3bd afdd ec3c
00000080: b3b6 e33c 5113 b6bd d2a0 b0bd af4b 71bd
00000090: 9cd5 513d b81e f9bd 02c4 cabd d7ba 58bc
000000a0: 8833 16bd b869 dcbd fbc5 e7bd e49d 9bbc
000000b0: 0471 1c3d 6645 143e 7944 a1bd 8146 293e
000000c0: e9dc 703d 7941 733d d13f ea3d 2f31 453c
000000d0: 2f15 06be d9b6 a2bd aa8e 22bd fbe8 1d3d
000000e0: 307c 433d 8e2c 13bd 7040 bcbd d7a7 d1bd
000000f0: 5ec0 bf3d b40e 39be 4c1b 5e3a a5d4 273e

critic.4.weight f4 [1, 64]
0.0066788984 -0.008054786 0.04699392 0.050028577 0.12328122 0.052865606 -0.0034142754 0.024186065
-0.017792387 0.02046042 -0.076899074 0.003436153 -0.05453427 -0.003393927 0.08360506 0.041763507
-0.018283084 -0.03191278 -0.121676646 0.11164067 0.018930186 0.0073031234 -0.04511461 0.033764523
-0.08415194 -0.068718135 0.02194443 -0.042611677 0.1001787 -0.06780498 0.10632332 -0.11556693
0.025572643 -0.014956023 -0.012402396 0.039338633 -0.010504116 0.10152837 0.03110913 0.009576994
-0.03193839 0.05282707 -0.040232826 -0.10582672 -0.0135598285 -0.03623047 -0.029129129 -0.13323407
0.0041365786 0.005853642 -0.025561005 -0.0200661 0.021957679 0.01721894 -0.052915253 -0.07017017
-0.0012857309 0.029603655 -0.027861152 0.016551498 -0.0066131093 0.052799467 0.015947968 -0.07676452
00000000: a9da da3b 39f8 03bc b27c 403d c4ea 4c3d
00000010: dd7a fc3d 9b89 583d 09c2 5fbb db21 c63c
00000020: 57c1 91bc 9c9c a73c 437d 9dbd 1531 613b
00000030: 545f 5fbd a56c 5ebb 2139 ab3d 3610 2b3d
00000040: 68c6 95bc fab6 02bd 9b31 f9bd dda3 e43d
00000050: 7a13 9b3c 0a4f ef3b 19ca 38bd ab4c 0a3d
00000060: da57 acbd 18bc 8cbd cec4 b33c 9589 2ebd
00000070: 7e2a cd3d 56dd 8abd 0ac0 d93d 5bae ecbd
00000080: b87d d13c 1b0a 75bc 6b33 4bbc 8c21 213d
00000090: 7519 2cbc 1bee cf3d 93d8 fe3c d3e8 1c3c
000000a0: d4d1 02bd 3361 583d 2dcb 24bd aebb d8bd
000000b0: 0b2a 5ebc 6766 14bd 36a0 eebc 836e 08be
000000c0: 238c 873b e8cf bf3b 5065 d1bc a961 a4bc
000000d0: 97e0 b33c bc0e 8d3c aabd 58bd 61b5 8fbd
000000e0: f885 a8ba 5d83 f23c 123d e4bc 0297 873c
000000f0: c8b2 d8bb 4144 583d 50a5 823c b736 9dbd

exp_avg f4 [6]
-0.0003366363 -0.00389025 0.000799506 -0.008373849 -0.0047297175 -0.0030913386
00000000: 8f7e b0b9 91f3 7ebb f095 513a 7832 09bc
00000010: bffb 9abb 0e98 4abb

exp_avg_sq f4 [6]
0.00027890032 0.00035424152 0.00041780237 0.0019577395 0.00089408923 0.001447262
00000000: 5e39 9239 7eb9 b939 7c0c db39 6b4d 003b
00000010: 5061 6a3a 0eb2 bd3a

exp_avg f4 [64, 25]
0.0009494828 0.0001663271 0.00045635755 0.0009701075 0.00022820393 -0.00022377829 2.796648e-05 -8.558828e-05
3.190099e-05 -9.134955e-05 5.852913e-06 -1.0781859e-05 0.000170778 0.0002717383 0.00010591958 0.0002640449
-0.00012703147 0.0002640449 0.0001270315 0.001861029 0.00017100238 0.0009149972 0.0019776835 0.0003839191
-0.00050425716 0.0009279975 0.0001981994 0.0005930932 0.00207799 3.0874668e-05 0.00024075386 0.000101273174
-2.5099333e-05 0.00013720173 9.607162e-05 -5.893722e-05 0.00012407781 0.00015275968 0.00032457945 0.0001266323
0.0002947709 9.9568715e-06 0.0002947709 -9.95676e-06 0.0020194547 0.00023106684 0.0012910352 0.0045311525
4.0417795e-05 0.00058335665 -9.449024e-05 -1.2600085e-06 2.3772516e-05 0.0004267496 5.816693e-05 0.00023771991
3.1899104e-05 0.000103056635 0.00010088155 0.00016599362 8.317193e-05 0.00028716278 -0.00013049685 -2.712146e-05
-0.000120002784 -0.0003009696 -8.11837e-06 -0.0003009696 8.11841e-06 -0.00020572527 0.00010880523 0.00013107872
0.0014139827 0.00019688923 0.00087423914 4.9254606e-05 3.467544e-05 -6.0372477e-05 -6.702565e-05 -2.022268e-05
-5.3993805e-05 -4.8866692e-05 -2.4708223e-05 -9.43119e-05 -2.331502e-05 -3.4699966e-05 0.0001026509 -9.472074e-06
1.1009902e-05 -1.8715056e-05 -1.2378703e-05 1.9913517e-05 -1.2378703e-05 -1.9913487e-05 6.0086164e-05 4.936326e-05
-0.00018216594 -0.00015622516 -8.659853e-05 -0.00011497739 0.00030529048 0.000150044 0.00078605086 0.0018198943
0.0004111996 0.0003637526 6.2544634e-05 -8.531977e-05 4.381695e-05 0.00013000389 9.330155e-05 -0.00018607803
0.00020409493 0.00013007161 0.0002484575 0.0004685875 -3.0231255e-05 0.0004685875 3.0231342e-05 0.0006077527
0.000118461256 0.001627299 0.0036767896 0.00083616056 0.00071637577 0.000264684 -0.00016655943 -0.0012466201
-0.0018174907 -0.0007549473 -0.0005651775 1.0356741e-05 7.267633e-05 -7.903992e-05 -9.3271454e-05 -8.966336e-05
0.00018621582 -0.00033086288 5.3482137e-05 -0.00043413352 -0.00080067525 1.4940953e-05 -0.00080067525 -1.49409e-05
0.0004866338 -0.00010675628 -0.0025750222 -0.0036322824 -0.0015000812 -0.001106209 0.0007631813 8.612098e-05
0.00024999923 0.0015079423 7.897434e-06 3.3232915e-05 -3.6040517e-05 4.1852195e-06 0.000104289466 0.00015080301
-7.7316094e-05 0.0003193183 8.3201696e-05 0.00025822376 4.257474e-06 0.00015515853 -3.3335447e-05 0.00015515853
3.3335367e-05 0.0015200394 0.00010600784 0.00050822744 0.0035162768 -4.3909753e-05 0.00033812778 0.00011549976
4.4168897e-05 -0.0002118055 0.000275067 -2.5556685e-05 0.00013297728 3.7731006e-05 5.7942958e-05 -9.32566e-05
6.135531e-05 3.9827235e-05 9.803018e-05 -8.40495e-05 4.1774132e-05 -9.049553e-05 -0.000185754 1.0474884e-05
-0.000185754 -1.0474836e-05 0.0002306878 0.00016216299 -0.000491479 0.0006799275 -8.064374e-05 0.00032772115
6.57172e-05 -0.00014782384 -0.0008217369 -0.0019418489 -0.0004930106 -0.00061913807 -4.684431e-06 -2.039067e-05
-2.4746701e-05 2.6842285e-05 -3.17512e-05 7.425389e-05 -0.00022106266 -2.9377004e-05 -0.00027134313 -0.0005398492
-1.0700626e-05 -0.0005398492 1.07008955e-05 2.4591312e-05 -0.00016721587 -0.0016633027 -0.0038427606 -0.0009951093
-0.0011660394 3.5653975e-05 7.0281465e-05 0.00017053116 -0.00024273689 0.0001087546 -0.0001313322 -4.795163e-06
1.656127e-05 -8.966065e-05 -5.810818e-06 0.00016260848 0.00011695913 4.678906e-05 1.5448088e-05 5.1013827e-05
0.000103473634 2.4356905e-06 0.000103473634 -2.4356987e-06 9.0440495e-05 3.9326875e-05 0.0002681046 -0.00046270067
0.00025856588 -0.00020528024 4.086789e-05 1.6002687e-05 0.00019891415 -0.00053397875 0.00013436459 -0.00020375976
00000000: b6e6 783a 1768 2e39 4643 ef39 d04e 7e3a
00000010: 074a 6f39 07a6 6ab9 8f99 ea37 dc7d b3b8
00000020: 6dcd 0538 eb92 bfb8 2464 c436 bbe3 34b7
00000030: df12 3339 1978 8e39 2421 de38 826f 8a39
00000040: c033 05b9 826f 8a39 c233 0539 c5ed f33a
00000050: 1a4f 3339 6cdc 6f3a 069c 013b c048 c939
00000060: 2030 04ba dc44 733a bfd3 4f39 d079 1b3a
00000070: e32e 083b 6c7f 0138 df72 7c39 9f62 d438
00000080: 688c d2b7 cfdd 0f39 0f7a c938 5c33 77b8
00000090: e21a 0239 1d2e 2039 512c aa39 99c8 0439
000000a0: 7b8b 9a39 700c 2737 7b8b 9a39 f50b 27b7
000000b0: d458 043b 884a 7239 f437 a93a 107a 943b
000000c0: 4786 2938 67ec 183a 1029 c6b8 901d a9b5
000000d0: 176b c737 5dbd df39 44f8 7338 7444 7939
000000e0: 67cb 0538 1c20 d838 5f90 d338 930e 2e39
000000f0: 976c ae38 568e 9639 fbd5 08b9 e482 e3b7
00000100: 01aa fbb8 75cb 9db9 2234 08b7 75cb 9db9
00000110: 4e34 0837 f5b7 57b9 5d2e e438 2d72 0939
00000120: 6355 b93a 0d74 4e39 322d 653a bb96 4e38
00000130: 7870 1138 7438 7db8 1f90 8cb8 e0a3 a9b7
00000140: 6877 62b8 36f6 4cb8 8144 cfb7 51c9 c5b8
00000150: a094 c3b7 ce8a 11b8 4846 d738 40ea 1eb7
00000160: 2bb7 3837 47fe 9cb7 20ae 4fb7 f40b a737
00000170: 20ae 4fb7 e30b a7b7 0705 7c38 660b 4f38
00000180: cc03 3fb9 5fd0 23b9 3b9c b5b8 0420 f1b8
00000190: 650f a039 2155 1d39 fb0e 4e3a 8589 ee3a
000001a0: 4796 d739 0cb6 be39 652a 8338 b4ed b2b8
000001b0: 18c8 3738 a751 0839 e3aa c338 f11d 43b9
000001c0: 5102 5639 d563 0839 6743 8239 c0ac f539
000001d0: 2099 fdb7 c0ac f539 5099 fd37 9851 1f3a
000001e0: 676e f838 184b d53a 4bf6 703b c931 5b3a
000001f0: 2acb 3b3a 49c5 8a39 75a6 2eb9 a165 a3ba
00000200: de38 eeba a8e7 45ba 6c28 14ba ddc1 2d37
00000210: cf69 9838 3cc2 a5b8 bb9a c3b8 a609 bcb8
00000220: ee42 4339 aa77 adb9 0252 6038 6a9c e3b9
00000230: 68e4 51ba e8aa 7a37 68e4 51ba adaa 7ab7
00000240: e222 ff39 57e2 dfb8 b4c1 28bb 960b 6ebb
00000250: 5f9e c4ba 37fe 90ba 3b10 483a d99b b438
00000260: 5412 8339 26a6 c53a 397f 0437 9263 0b38
00000270: 362a 17b8 c36e 8c36 fbb5 da38 e020 1e39
00000280: c324 a2b8 2d6a a739 927c ae38 3562 8739
00000290: 6cdb 8e36 0db2 2239 aad1 0bb8 0db2 2239
000002a0: 94d1 0b38 0f3c c73a 8750 de38 913a 053a
000002b0: 5671 663b bd2b 38b8 be46 b139 7638 f238
000002c0: fe41 3938 1b18 5eb9 de36 9039 9062 d6b7
000002d0: d16f 0b39 5c41 1e38 c707 7338 c292 c3b8
000002e0: e2ab 8038 2b0c 2738 8d95 cd38 bb43 b0b8
000002f0: a236 2f38 6bc8 bdb8 f6c6 42b9 49bd 2f37
00000300: f6c6 42b9 14bd 2fb7 c9e4 7139 4c0a 2a39
00000310: 99d6 00ba 2a3d 323a 471f a9b8 fdd1 ab39
00000320: a7d1 8938 2901 1bb9 d469 57ba a385 feba
00000330: 623d 01ba a74d 22ba f52e 9db6 a10c abb7
00000340: 2397 cfb7 5e2b e137 972c 05b8 c1b8 9b38
00000350: 0ecd 67b9 a36e f6b7 0f43 8eb9 ab84 0dba
00000360: d786 33b7 ab84 0dba ff87 3337 7149 ce37
00000370: ab56 2fb9 2d03 daba d3d6 7bbb 546e 82ba
00000380: cad5 98ba 2a8b 1538 1364 9338 9cd0 3239
00000390: 3087 7eb9 2e13 e438 38b6 09b9 23e6 a0b6
000003a0: 0eed 8a37 3208 bcb8 8cfa c2b6 e281 2a39
000003b0: f447 f538 5f3f 4438 8496 8137 aef7 5538
000003c0: fcff d838 d874 2336 fcff d838 fc74 23b6
000003d0: dfaa bd38 e9f2 2438 6490 8c39 a296 f2b9
000003e0: 2090 8739 7f40 57b9 9069 2b38 823d 8637
000003f0: 9c93 5039 b5fa 0bba 38e4 0c39 58a8 55b9
