04-goal-pose-l6/logs/rsl_rl/joint_position/2026-02-19_13-16-49/model_300.pt (torch, 161339 bytes, 36 tensors)

std f4 [6]
0.20342393 0.21691422 0.12746282 0.12425508 0.138003 0.11890681
00000000: 5d4e 503e c31e 5e3e 9d85 023e 7379 fe3d
00000010: a950 0d3e 6a85 f33d

actor.0.weight f4 [64, 25]
0.5327983 -0.26311076 -0.12234807 0.1388044 0.33319166 -0.25201306 -0.1814012 -0.08131236
-0.05604579 0.15379375 -0.09838963 -0.058012106 -0.3378193 0.71033704 -0.29417464 -0.04957364
1.154235 -0.11749191 -1.410743 -0.30781853 -0.078529425 0.19014728 0.27188626 0.02298342
-0.058282804 -0.47795832 0.02160115 0.13246986 0.45377302 -0.4012533 -0.13494302 0.271141
0.06353656 -0.081687346 -0.020924231 -0.12586196 -0.05303156 -0.15178688 -0.6062822 -0.5301142
-0.15149878 -0.98733014 -0.1153004 1.1452706 0.06131855 0.2662827 -0.13610737 0.18747075
0.04849289 -0.09213206 -1.1218987 0.18541692 0.110998206 0.6261033 -0.687153 0.7994223
-0.10158428 0.059238754 0.0675197 0.24171637 0.0019622156 0.039723568 0.2668797 -0.87694323
-0.034391046 0.26301545 -2.0839007 0.03746657 2.0980628 -0.158089 -0.07695925 -0.0072655897
0.18776263 -0.15359366 0.14126553 0.5668314 -0.12238338 -0.46189973 -0.50122654 -0.23967408
-0.53561276 0.1900464 -0.29849908 0.12590869 -0.21883138 0.33715057 0.008826732 -0.103617676
1.5326266 -0.108022265 -0.054537702 1.2158425 0.09710428 -1.0173719 0.047927707 -0.058141116
-0.02472572 -0.12209248 -0.15125793 -0.2085597 0.10252694 -0.1089788 -0.6240214 0.037285876
-0.03921321 0.014373451 0.22839896 0.15355274 -0.16253372 0.25473467 -0.1582953 0.07508739
-0.28268757 2.0209446 -0.17140402 -0.07380653 0.5302765 -0.12861995 -0.51849735 -0.047667593
0.010591079 0.047379848 0.079906024 0.04912182 0.17325945 0.037689004 -0.3397041 0.50375766
0.14421056 -0.023756059 -0.3671473 -0.27160087 0.054965187 -0.05483765 0.2500886 -0.0116122635
0.18224086 -0.07576579 -1.3063784 0.10376585 0.16894668 -0.07118122 0.1536703 0.16053762
-0.05556019 0.025311396 -0.14729907 -0.10089977 -0.116549544 -0.016172243 -0.24361172 0.17157963
0.9361507 0.21695015 -0.2446034 0.39651337 -0.38558832 -0.10095105 -0.048497014 0.06873773
0.020411512 -0.097026914 -0.13910207 -1.7122475 -0.31906942 0.146049 0.13189104 0.06192828
-0.10637779 0.07648379 0.5133322 0.011749019 -0.052726403 0.040691555 -0.34010413 -0.050035484
0.4727599 -0.25334483 -0.30720577 -0.067995325 -0.30788675 -0.16884694 -0.120643154 -0.044502802
-0.076221965 0.014119021 0.05425931 -0.30196258 0.4417758 -0.1344563 -0.04540425 1.0363367
-0.18687741 -0.7801614 0.23004529 -0.15612806 -0.15816483 -0.18312056 -0.06564545 -0.11107293
-0.09031127 -0.3217456 0.15360877 -0.1068149 0.005272018 -0.44322085 0.15888533 -0.060032938
-0.061564982 -0.108926035 0.11404109 0.12068049 -0.08517242 -1.0908008 -0.1599679 -0.040109497
1.1772943 0.21920508 -1.1685323 -0.16855544 -0.11113211 0.052804727 0.10682894 -0.38227975
-0.07746081 0.2243341 -0.30427477 -0.48780918 0.031874787 -0.7954892 0.15936384 -0.40886062
0.2509873 -0.0514113 0.23985821 -0.10474069 0.08520917 0.056628276 0.54474133 -0.094812125
-0.18117853 0.4533828 -0.084695764 -0.3471649 0.17522337 -0.09852158 0.1781823 -0.19744469
0.2722271 0.021778073 -0.02764463 0.21915938 0.014841313 -0.25490573 -0.11707439 -0.27451557
00000000: 7865 083f 74b6 86be a091 fabd be22 0e3e
00000010: 1998 aa3e db07 81be 3cc1 39be 1887 a6bd
00000020: 4590 65bd 1c7c 1d3e 8180 c9bd 1a9e 6dbd
00000030: a7f6 acbe a6d8 353f 0f9e 96be bb0d 4bbd
00000040: f9bd 933f 999f f0bd 3a93 b4bf 649a 9dbe
00000050: 09d4 a0bd f8b5 423e ad34 8b3e ba47 bc3c
00000060: f3b9 6ebd f4b6 f4be e5f4 b03c 2ea6 073e
00000070: f054 e83e 1371 cdbe 812e 0abe fed2 8a3e
00000080: 751f 823d b24b a7bd 4b69 abbc f5e1 00be
00000090: 9f37 59bd 056e 1bbe 4f35 1bbf 90b5 07bf
000000a0: 7f22 1bbe abc1 7cbf 9e22 ecbd 3a98 923f
000000b0: 2929 7b3d 3556 883e bb5f 0bbe 55f8 3f3e
000000c0: 7ba0 463d bcaf bcbd 609a 8fbf efdd 3d3e
000000d0: 0753 e33d 4e48 203f 42e9 2fbf f1a6 4c3f
000000e0: 6b0b d0bd 56a4 723d c547 8a3d 7f84 773e
000000f0: 8498 003b 2eb5 223d 75a4 883e 5a7f 60bf
00000100: a0dd 0cbd f6a9 863e a15e 05c0 8c76 193d
00000110: a946 0640 15e2 21be d09c 9dbd 2f14 eebb
00000120: d944 403e a847 1dbe e9a7 103e dd1b 113f
00000130: 23a4 fabd 1f7e ecbe 6250 00bf 1f6d 75be
00000140: eb1d 09bf 869b 423e dfd4 98be 35ee 003e
00000150: 5515 60be 009f ac3e ff9d 103c 8135 d4bd
00000160: 1c2d c43f c73a ddbd ed62 5fbd baa0 9b3f
00000170: 9cde c63d 3e39 82bf d84f 443d 6125 6ebd
00000180: 988d cabc 9f0b fabd 5ce3 1abe ad90 55be
00000190: a5f9 d13d 4730 dfbd debf 1fbf 13b9 183d
000001a0: 089e 20bd 9f7e 6b3c 6be1 693e ee3c 1d3e
000001b0: 3d6f 26be 956c 823e 2a18 22be 6bc7 993d
000001c0: 6dbc 90be 2857 0140 8984 2fbe e127 97bd
000001d0: 33c0 073f f3b4 03be 3ebc 04bf 183f 43bd
000001e0: 3486 2d3c 5f11 423d c5a5 a33d f633 493d
000001f0: ed6a 313e c95f 1a3d b2ed adbe 43f6 003f
00000200: efab 133e 119c c2bc bbfa bbbe 450f 8bbe
00000210: 2d23 613d 729d 60bd 9d0b 803e 5d41 3ebc
00000220: 599d 3a3e 182b 9bbd 6837 a7bf 3183 d43d
00000230: 5c00 2d3e 76c7 91bd bf5b 1d3e f963 243e
00000240: 1593 63bd d859 cf3c 91d5 16be 8aa4 cebd
00000250: 87b1 eebd a77b 84bc 5a75 79be 92b2 2f3e
00000260: 93a7 6f3f 2e28 5e3e 5079 7abe cd03 cb3e
00000270: d56b c5be 6dbf cebd cea4 46bd 5ec6 8c3d
00000280: 0b36 a73c 0cb6 c6bd c670 0ebe ed2a dbbf
00000290: 115d a3be de8d 153e 720e 073e 82a8 7d3d
000002a0: 99dc d9bd 89a3 9c3d bd69 033f f57e 403c
000002b0: a4f7 57bd 30ac 263d 2122 aebe 02f2 4cbd
000002c0: 960d f23e 6ab6 81be 134a 9dbe 2241 8bbd
000002d0: 55a3 9dbe 36e6 2cbe c213 f7bd 9248 36bd
000002e0: 431a 9cbd 7753 673c 033f 5e3d d79a 9abe
000002f0: 7030 e23e eaae 09be cff9 39bd aea6 843f
00000300: cb5c 3fbe a8b8 47bf fe90 6b3e 09e0 1fbe
00000310: f6f5 21be f583 3bbe 1f71 86bd 347a e3bd
00000320: 1df5 b8bd d7bb a4be 9e4b 1d3e c5c1 dabd
00000330: e4c0 ac3b d8ed e2be d6b2 223e 19e5 75bd
00000340: 902b 7cbd 9d14 dfbd 608e e93d 5527 f73d
00000350: e16e aebd 5c9f 8bbf a0ce 23be db49 24bd
00000360: 94b1 963f 4c77 603e 7792 95bf cc99 2cbe
00000370: 3b99 e3bd c549 583d 22c9 da3d 2cba c3be
00000380: c6a3 9ebd d7b7 653e e7c9 9bbe 20c2 f9be
00000390: 238f 023d 2ea5 4bbf 4630 233e 2e56 d1be
000003a0: 6881 803e a894 52bd 649d 753e 4982 d6bd
000003b0: 2582 ae3d 0df3 673d 2b74 0b3f dc2c c2bd
000003c0: dd86 39be ca21 e83e f974 adbd 99bf b1be
000003d0: c16d 333e afc5 c9bd 6c75 363e f12e 4abe
000003e0: 5a61 8b3e ee67 b23c fe76 e2bc 516b 603e
000003f0: fa28 733c 0183 82be b3c4 efbd 4e8d 8cbe

actor.0.bias f4 [64]
-0.28860235 -0.14753374 0.13200755 0.08775071 0.014256022 0.06868916 -0.11297754 -0.10831751
0.10625014 -0.05015955 -0.30105355 -0.056982562 -0.21363977 0.049734835 -0.027031936 -0.0850011
0.06153033 -0.28157312 -0.023898622 -0.09911913 -0.120863914 0.025100363 -0.25868693 -0.3233416
-0.06326979 0.24773522 -0.1913002 0.20498398 -0.051286053 -0.1128379 -0.13920341 -0.37599382
-0.118551955 -0.252109 0.020072533 -0.39929625 -0.026644884 -0.26116514 0.23998703 0.10399591
-0.026358573 -0.18120827 -0.13653824 0.077105336 -0.0479261 -0.24764432 -0.015224687 -0.19406906
0.023102978 -0.040983193 -0.29216585 -0.24528751 -0.19395015 0.06901383 0.05381242 -0.21484245
0.121152245 0.3383565 0.2887065 -0.12597494 -0.03965547 0.13125303 -0.32744908 -0.42951393
00000000: b0c3 93be 1613 17be fd2c 073e a5b6 b33d
00000010: 1792 693c e7ac 8c3d c560 e7bd 92d5 ddbd
00000020: ac99 d93d 1a74 4dbd b123 9abe 8c66 69bd
00000030: 62c4 5abe c1b6 4b3d 1472 ddbc 0f15 aebd
00000040: 3a07 7c3d 5a2a 90be 0bc7 c3bc f8fe cabd
00000050: 8087 f7bd 479f cd3c 9d72 84be 088d a5be
00000060: 9793 81bd 4dae 7d3e 33e4 43be 52e7 513e
00000070: 5311 52bd 8f17 e7bd 578b 0ebe 4382 c0be
00000080: 5ecb f2bd 6e14 81be 276f a43c 8f70 ccbe
00000090: 5f46 dabc 70b7 85be 29bf 753e cffb d43d
000000a0: efed d7bc a98e 39be aed0 0bbe 67e9 9d3d
000000b0: 294e 44bd 7996 7dbe f770 79bc 0aba 46be
000000c0: 7542 bd3c fedd 27bd c396 95be a62c 7bbe
000000d0: de9a 46be 1f57 8d3d 6a6a 5c3d a9ff 5bbe
000000e0: ab1e f83d 103d ad3e 57d1 933e 93ff 00be
000000f0: c66d 22bd 3267 063e 68a7 a7be 40e9 dbbe

actor.2.weight f4 [64, 64]
-0.16412616 0.059108835 -0.12190067 0.0009878603 -0.015652927 -0.21924652 -0.2248916 -0.06402625
0.041033715 -0.12995222 0.10170247 0.013458678 0.06533534 0.024789518 -0.07719688 -0.19226289
-0.07125106 -0.040787876 0.056958113 0.10230709 0.18058491 0.02249287 0.11225839 -0.053734537
0.011902593 -0.18873368 -0.0017525092 -0.017226417 0.03051955 0.021873383 -0.16225973 0.09817489
0.031724222 -0.14935079 -0.09064664 0.2291381 -0.06525908 -0.046036717 -0.20118901 -0.057174094
0.07630238 -0.024167972 0.058196858 -0.10171533 0.10871413 0.0742264 -0.24233355 -0.03628518
0.1750596 -0.12286546 0.034672547 -0.037505325 0.15078056 -0.04623544 -0.09952299 -0.08656186
-0.119491674 -0.17226775 -0.14461717 0.16236535 -0.10695503 -0.054817505 0.09204726 -0.09065594
-0.14782447 -0.16210188 0.06558637 0.05021525 -0.07739937 -0.041493747 -0.0646 0.20185143
-0.048936114 0.12130123 0.014452679 0.004946763 0.14658627 0.11406469 0.10684665 -0.057724446
0.19047648 -0.023546575 0.036530532 0.04833027 -0.051329594 -0.0035188596 -0.20607784 -0.11451486
-0.025802456 0.12911096 0.17493786 0.123237625 0.1500543 -0.08917774 0.22430538 0.16423126
0.11110616 -0.08061774 -0.02316665 -0.27321362 -0.13960323 0.045269072 -0.018335953 -0.012058334
-0.25757363 0.046584472 0.031205332 0.08128921 -0.23578392 -0.0031478244 0.16524826 0.102077685
0.0015432263 -0.12653632 0.0050985008 -0.016524775 -0.028347632 -0.09274076 -0.08434667 -0.117744334
-0.12150286 0.096438944 -0.07469951 -0.016825965 -0.15287806 0.054060742 -0.12702082 0.18212248
0.055001613 -0.14381321 -0.039319266 -0.09008334 -0.14572343 -0.12812416 -0.024347307 0.00083990826
-0.17785674 -0.011454343 0.060862392 0.12160318 -0.07830865 -0.18717505 0.0937381 0.06993823
-0.18756849 0.034741208 -0.16984652 0.18566489 -0.031811755 -0.13950427 -0.095454335 -0.017137509
-0.19774562 -0.16544418 0.011917544 0.2612646 0.52465665 -0.14292632 -0.13719139 -0.028100122
-0.20578659 -0.044808544 -0.15960082 0.23589133 -0.21122533 -0.03027328 0.103737764 -0.2997043
-0.13727915 0.17840797 -0.109303035 -0.046349593 -0.0002629943 0.54460245 -0.22843383 -0.09550125
-0.08457447 -0.15909657 -0.042000134 0.10376123 0.10820267 0.2021545 0.21671374 -0.016163914
-0.12683311 0.015284458 0.11597912 0.12113159 -0.23623134 0.08468338 0.38059404 0.15875214
-0.10336498 0.083211236 -0.07208436 -0.030928075 0.10572188 0.03822379 0.17463072 0.032414503
-0.124974765 -0.065772675 0.014868967 0.04236489 0.08197454 -0.18277094 0.10301267 0.013626211
-0.20321561 -0.15833431 -0.13013197 0.09655303 -0.011726782 -0.09329444 0.11651577 -0.13370103
-0.14427517 -0.32420912 0.040777978 0.036311083 0.015454295 -0.026944662 -0.18930468 0.032621834
0.06627975 -0.050874274 0.13597709 0.26508906 0.013940206 -0.0259969 0.23734096 -0.28031167
0.082909666 0.15710741 -0.054162387 -0.07454413 -0.0058886907 0.0878682 -0.14395 -0.14513855
0.016647184 0.0340939 0.18805127 0.05788017 0.027791714 0.03056699 0.014178652 0.11695619
0.08109952 0.008108783 0.059026815 -0.19592538 -0.12836108 -0.08859614 0.1568324 0.097878985
00000000: b010 28be 1b1c 723d 0fa7 f9bd 177b 813a
00000010: 913a 80bc 2982 60be fc49 66be 3220 83bd
00000020: f812 283d 3212 05be 6249 d03d c981 5c3c
00000030: 89ce 853d 6313 cb3c 6619 9ebd 90e0 44be
00000040: 13ec 91bd 3011 27bd e94c 693d 6186 d13d
00000050: 40eb 383e f842 b83c bae7 e53d bf18 5cbd
00000060: 1803 433c 6743 41be 73b4 e5ba 6a1e 8dbc
00000070: 2304 fa3c cf2f b33c 6a27 26be eb0f c93d
00000080: 42f1 013d 6aef 18be f2a4 b9bd 2ea3 6a3e
00000090: 8da6 85bd ff90 3cbd 7e04 4ebe 622f 6abd
000000a0: 6c44 9c3d e9fb c5bc d45f 6e3d 2050 d0bd
000000b0: 84a5 de3d 0304 983d 4926 78be c59f 14bd
000000c0: d342 333e e3a0 fbbd cd04 0e3d 2f9f 19bd
000000d0: 3866 1a3e 5f61 3dbd b6d2 cbbd 5847 b1bd
000000e0: 0db8 f4bd f566 30be 8616 14be 1a43 263e
000000f0: 3d0b dbbd 5288 60bd 4683 bc3d d2a9 b9bd
00000100: 4c5f 17be 09fe 25be 2652 863d 82ae 4d3d
00000110: 9083 9ebd 59f5 29bd 014d 84bd 24b2 4e3e
00000120: 3c71 48bd c76c f83d eeca 6c3c 7518 a23b
00000130: b61a 163e c09a e93d 6bd2 da3d 7870 6cbd
00000140: 440c 433e bfe4 c0bc 0aa1 153d f6f5 453d
00000150: fb3e 52bd ab9c 66bb 1206 53be c486 eabd
00000160: ac5f d3bc aa35 043e e922 333e 0264 fc3d
00000170: d6a7 193e d2a2 b6bd 4fb0 653e 3d2c 283e
00000180: a08b e33d ea1a a5bd fdc7 bdbc a8e2 8bbe
00000190: 26f4 0ebe 106c 393d 4835 96bc 5290 45bc
000001a0: b1e0 83be 5ccf 3e3d 53a2 ff3c f57a a63d
000001b0: 5771 71be bb4b 4ebb d736 293e 1b0e d13d
000001c0: 1546 ca3a bd92 01be 5311 a73b f75e 87bc
000001d0: 4b39 e8bc deee bdbd f2bd acbd f123 f1bd
000001e0: 7ed6 f8bd c881 c53d 0ffc 98bd 9bd6 89bc
000001f0: 118c 1cbe cc6e 5d3d bf11 02be 517e 3a3e
00000200: 5f49 613d c543 13be 3d0d 21bd 9d7d b8bd
00000210: 8638 15be fb32 03be 0174 c7bc 4a2d 5c3a
00000220: 1420 36be ffaa 3bbc d84a 793d 170b f93d
00000230: 4960 a0bd d1aa 3fbe c3f9 bf3d c63b 8f3d
00000240: f411 40be cc4c 0e3d 3fec 2dbe f01e 3e3e
00000250: 0b4d 02bd 35da 0ebe 907d c3bd f663 8cbc
00000260: d47d 4abe 336a 29be cd41 433c 79c4 853e
00000270: e64f 063f 475b 12be e67b 0cbe 3a32 e6bc
00000280: b8b9 52be 2a89 37bd 666e 23be 7f8d 713e
00000290: 744b 58be abff f7bc 7774 d43d d872 99be
000002a0: e892 0cbe 94b0 363e 45da dfbd 12d9 3dbd
000002b0: 7fe2 89b9 116b 0b3f 8fea 69be 2996 c3bd
000002c0: 6135 adbd 36ea 22be 5508 2cbd c580 d43d
000002d0: 5d99 dd3d 9701 4f3e 35ea 5d3e 2f6a 84bc
000002e0: 8ae0 01be aa6b 7a3c 7686 ed3d d713 f83d
000002f0: a1e6 71be 7b6e ad3d 39dd c23e ec8f 223e
00000300: 05b1 d3bd a76a aa3d f7a0 93bd e05c fdbc
00000310: b784 d83d 8c90 1c3d 65d2 323e 12c5 043d
00000320: c5f2 ffbd d3b3 86bd f89c 733c cf86 2d3d
00000330: 45e2 a73d 4e28 3bbe 4ff8 d23d 7940 5f3c
00000340: c117 50be 6422 22be 5141 05be 98bd c53d
00000350: b021 40bc 2811 bfbd d29f ee3d ece8 08be
00000360: dfbc 13be bdfe a5be cf06 273d eeba 143d
00000370: 0334 7d3c 0dbb dcbc 16d9 41be 799e 053d
00000380: adbd 873d 8b61 50bd 943d 0b3e c1b9 873e
00000390: 7665 643c 73f7 d4bc 8209 733e 0385 8fbe
000003a0: 8bcc a93d c4e0 203e 61d9 5dbd 98aa 98bd
000003b0: ebf5 c0bb 3ef4 b33d a167 13be 339f 14be
000003c0: ad5f 883c 0ca6 0b3d 8390 403e c213 6d3d
000003d0: 73ab e33c a067 fa3c 944d 683c ba86 ef3d
000003e0: 8117 a63d b3da 043c 1ac6 713d aaa0 48be
000003f0: 1671 03be e571 b5bd ac98 203e c774 c83d

actor.2.bias f4 [64]
-0.18480365 0.09395736 -0.12386518 -0.20355158 -0.11435796 -0.118633404 -0.12314971 -0.09660252
0.13714291 0.017350897 -0.08015821 -0.078141004 -0.24922988 0.048011195 -0.06320965 -0.13886482
-0.24470708 0.020469192 -0.0923691 0.01672738 -0.17930886 0.22153462 -0.23011361 -0.087059416
-0.16290253 -0.14095153 0.006720833 -0.11063303 -0.010131028 0.049180187 -0.030751495 0.13748321
-0.19003178 -0.2867713 -0.2557309 0.024739131 -0.42141372 0.02942636 -0.19978596 -0.04577712
-0.12340335 -0.31426433 -0.15642823 0.073370956 -0.116602555 0.13804337 -0.22911379 -0.3279555
0.052528836 -0.1845402 -0.2389048 -0.030355146 0.01677585 0.18939519 -0.095381916 -0.19983001
0.03190013 -0.017471848 0.1362238 0.014416737 -0.31018642 0.021108748 -0.007403234 -0.1835983
00000000: 2b3d 3dbe b76c c03d 07ad fdbd d36f 50be
00000010: 8234 eabd 12f6 f2bd ea35 fcbd 8bd7 c5bd
00000020: 316f 0c3e 7823 8e3c fd29 a4bd 6408 a0bd
00000030: 1e36 7fbe 63a7 443d 1074 81bd 9432 0ebe
00000040: 7e94 7abe 02af a73c 032c bdbd dc07 893c
00000050: be9c 37be f9d9 623e e7a2 6bbe 354c b2bd
00000060: eccf 26be 9955 10be 6f3a dc3b 9293 e2bd
00000070: 9cfc 25bc 2a71 493d 8fea fbbc 66c8 0c3e
00000080: b197 42be b0d3 92be 29ef 82be b8a9 ca3c
00000090: 8ac3 d7be 8d0f f13c b194 4cbe ca80 3bbd
000000a0: e5ba fcbd 41e7 a0be b92e 20be 8343 963d
000000b0: 52cd eebd 3e5b 0d3e ce9c 6abe c9e9 a7be
000000c0: 7a28 573d 1bf8 3cbe 76a3 74be 5bab f8bc
000000d0: 826d 893c d0f0 413e 9857 c3bd 3da0 4cbe
000000e0: b6a9 023d 1f21 8fbc 407e 0b3e 2d34 6c3c
000000f0: c1d0 9ebe 41ec ac3c d496 f2bb 3101 3cbe

actor.4.weight f4 [6, 64]
0.07272895 -0.04848696 -0.06248663 -0.045036834 -0.026565636 0.09835771 0.09541132 -0.03451651
0.08360374 -0.09022581 -0.12771569 -0.24543178 0.051556423 -0.091072805 -0.02695173 -0.06650172
0.054189976 0.10125367 0.012427902 0.027369937 -0.005182638 -0.061710697 0.046127953 0.046581436
0.1178162 -0.06681931 -0.04250577 0.0077267806 0.039270785 -0.06985996 -0.15184475 -0.031229494
0.038558993 0.17434312 0.055040527 0.07761069 0.0808832 -0.04390233 0.04482397 -0.14645246
-0.09745869 0.07560585 -0.07763005 0.11246087 -0.006850249 -0.11289797 0.0840268 -0.015706114
-0.12401073 0.10815198 0.028138433 0.08174256 -0.13786392 -0.036779806 -0.14140458 0.025241934
0.11957351 0.041484986 0.10198798 0.14400129 0.005097893 -0.22248001 0.09849487 0.038190708
0.025898036 -0.073356256 0.15361907 0.08010834 0.03340997 0.047987025 0.119106166 0.021491975
0.022305321 -0.11957794 -0.0042638 -0.14007542 -0.06585992 -0.038140673 -0.07794169 0.06168725
0.03549668 0.03946534 0.08675515 -0.11783571 0.0061073164 -0.057837438 -0.03856041 0.1428311
-0.10396035 -0.14074497 -0.14963347 -0.06554009 0.0010267479 0.013874332 0.005416282 -0.045175508
0.08726594 0.0661943 -0.014590831 -0.019743014 0.11129126 0.13335931 -0.042736504 0.06947019
0.031147694 0.14869043 0.17176566 -0.18825221 0.11030813 -0.09514571 0.08899251 0.0389254
0.039526153 0.13892196 0.06786594 0.07476751 -0.30159193 -0.04576894 0.0082442155 -0.028536156
0.040615328 -0.060876988 -0.012965715 0.04415738 0.09265434 -0.12500967 -0.09357543 -0.019924268
0.014608407 0.01573383 -0.0015475184 -0.011630074 -0.06202241 -0.15957429 -0.029543485 -0.1298474
0.15693137 0.028488962 -0.23645915 -0.021994276 -0.11334655 -0.015851736 -0.0012813294 0.032673225
-0.12544504 0.018373301 0.06984807 -0.022888862 -0.10702431 0.06830017 -0.006193095 0.010298804
-0.13535315 0.03834469 0.065698735 0.013171439 0.012134756 -0.06429364 0.083750345 0.013607032
-0.15826237 -0.20676678 -0.08786493 0.05540957 -0.16628419 -0.084517285 -0.16215912 0.051219944
-0.07265063 -0.1749824 0.060852893 0.089613795 0.027102727 0.008671985 -0.063403875 -0.088705786
0.038327508 0.009474038 -0.10658822 0.038629044 -0.028374927 0.05240601 -0.015551214 -0.045088977
0.09655117 0.037438825 0.043718934 -0.031087471 -0.086035304 0.047671728 -7.92403e-05 -0.043544356
-0.0626697 -0.025757931 -0.08039941 -0.0045785964 -0.11773935 0.0050529544 -0.21743898 -0.08359021
-0.065899625 -0.115225956 -0.07156801 -0.08170477 -0.10325454 -0.2034943 -0.13701575 0.0013186786
-0.10775772 -0.28889644 -0.049594507 -0.11091047 -0.12510243 -0.07025416 -0.014316489 -0.15841605
-0.23051132 -0.03722714 -0.08830309 -0.0018278243 -0.004951386 -0.23900193 -0.09257115 -0.033250444
0.040148366 0.035576876 -0.08791213 -0.18563572 -0.1465269 0.19653204 -0.069079734 0.07633063
-0.081391685 -0.20182426 0.1000889 0.12665808 0.08164713 0.0240036 -0.022840993 -0.057474945
-0.0184468 0.16377084 -0.12369608 0.02178264 -0.07334716 0.05209699 -0.12141695 -0.07128562
-0.059584 -0.065112635 0.020256693 -0.2288235 -0.12791432 -0.0085730245 -0.04689858 -0.08065608
00000000: eaf2 943d 439a 46bd fbf1 7fbd 8b78 38bd
00000010: 2da0 d9bc c46f c93d 0367 c33d 2f61 0dbd
00000020: 7038 ab3d 4fc8 b8bd e7c7 02be 7852 7bbe
00000030: d42c 533d 6184 babd e0c9 dcbc 0e32 88bd
00000040: 4ff6 5d3d 165e cf3d 669e 4b3c eb36 e03c
00000050: 1ed3 a9bb 5bc4 7cbd aaf0 3c3d 2dcc 3e3d
00000060: 9f49 f13d 90d8 88bd 881a 2ebd ef30 fd3b
00000070: 67da 203d bd12 8fbd 317d 1bbe ffd4 ffbc
00000080: 09f0 1d3d 0187 323e 2d72 613d 5af2 9e3d
00000090: 17a6 a53d eed2 33bd 5799 373d a2f7 15be
000000a0: 6c98 c7bd 3dd7 9a3d 81fc 9ebd e251 e63d
000000b0: 0e78 e0bb 0d37 e7bd 3e16 ac3d 1caa 80bc
000000c0: 56f9 fdbd c97e dd3d 9282 e63c a568 a73d
000000d0: 332c 0dbe 6ca6 16bd 5dcc 10be 2cc8 ce3c
000000e0: f5e2 f43d 29ec 293d 13df d03d 1375 133e
000000f0: 3a0c a73b cdd1 63be aeb7 c93d dc6d 1c3d
00000100: 1e28 d43c ce3b 96bd 514e 1d3e d70f a43d
00000110: e5d8 083d 0b8e 443d efed f33d f00f b03c
00000120: a6b9 b63c 47e5 f4bd 59b7 8bbb ee6f 0fbe
00000130: 91e1 86bd 6539 1cbd e59f 9fbd c5ab 7c3d
00000140: f764 113d 69a6 213d afac b13d d953 f1bd
00000150: e21f c83b f3e6 6cbd 85f1 1dbd 5142 123e
00000160: 2ae9 d4bd 731f 10be 8439 19be e239 86bd
00000170: f193 863a 2b51 633c 117b b13b f409 39bd
00000180: 7cb8 b23d e190 873d 610e 6fbc 1abc a1bc
00000190: acec e33d 588f 083e 790c 2fbd 6346 8e3d
000001a0: 7329 ff3c 4e42 183e 56e3 2f3e 30c5 40be
000001b0: 3be9 e13d c1db c2bd b541 b63d 3d70 1f3d
000001c0: 2de6 213d 8f41 0e3e 4cfd 8a3d b51f 993d
000001d0: 426a 9abe 3678 3bbd bf12 073c a8c4 e9bc
000001e0: 425c 263d 265a 79bd 266e 54bc 5ede 343d
000001f0: 8fc1 bd3d 8902 00be 7aa4 bfbd 3838 a3bc
00000200: 1a58 6f3c 3ce4 803c 1ad6 caba 118c 3ebc
00000210: 360b 7ebd 7167 23be 2e05 f2bc b8f6 04be
00000220: 9eb2 203e af61 e93c 5922 72be 572d b4bc
00000230: 3c22 e8bd 80db 81bc 48f2 a7ba 5cd4 053d
00000240: aa74 00be 9b83 963c 810c 8f3d 6c81 bbbc
00000250: 902f dbbd f6e0 8b3d 72ef cabb 51bc 283c
00000260: 049a 0abe 520f 1d3d 0f8d 863d 05cd 573c
00000270: dbd0 463c 62ac 83bd 4d85 ab3d 07f0 5e3c
00000280: 880f 22be acba 53be 87f2 b3bd 25f5 623d
00000290: 6746 2abe 6617 adbd 0a0d 26be 01cc 513d
000002a0: dac9 94bd 962e 33be e240 793d 7087 b73d
000002b0: 8a06 de3c f114 0e3c e4d9 81bd 61ab b5bd
000002c0: 4efd 1c3d ff38 1b3c ed4a dabd 7d39 1e3d
000002d0: 8972 e8bc afa7 563d 85ca 7ebc 38af 38bd
000002e0: 9fbc c53d 7459 193d a012 333d 27ab febc
000002f0: 4733 b0bd 6e43 433d d02d a6b8 915b 32bd
00000300: f958 80bd 4c02 d3bc 72a8 a4bd 0d08 96bb
00000310: 5421 f1bd 4193 a53b 53a8 5ebe 5831 abbd
00000320: 62f6 86bd 96fb ebbd 4092 92bd d554 a7bd
00000330: 1e77 d3bd cf60 50be db4d 0cbe 83d7 ac3a
00000340: 14b0 dcbd 3cea 93be 9c23 4bbd 0725 e3bd
00000350: da1a 00be 6ae1 8fbd b58f 6abc d137 22be
00000360: 290b 6cbe 7c7b 18bd 40d8 b4bd 9b93 efba
00000370: 3c3f a2bb ecbc 74be f195 bdbd 9e31 08bd
00000380: 9d72 243d 0fb9 113d 460b b4bd 4a17 3ebe
00000390: 260b 16be b23f 493e ad79 8dbd 3c53 9c3d
000003a0: afb0 a6bd 05ab 4ebe 69fb cc3d a8b2 013e
000003b0: 9c36 a73d 33a3 c43c 091d bbbc d96a 6bbd
000003c0: be1d 97bc 8bb3 273e 5f54 fdbd 8271 b23c
000003d0: 0937 96bd a763 553d 73a9 f8bd 32fe 91bd
000003e0: 5a0e 74bd c659 85bd 5df1 a53c b550 6abe
000003f0: f9fb 02be df75 0cbc ba18 40bd 042f a5bd

actor.4.bias f4 [6]
0.03641186 -0.04484368 0.30583003 0.1766739 0.014957595 0.21821466
00000000: 9a24 153d 02ae 37bd c195 9c3e 01ea 343e
00000010: b310 753c aa73 5f3e

critic.0.weight f4 [64, 25]
0.03318513 0.010176426 0.008102007 -0.05588992 0.021555237 -0.073513456 -0.089637026 -0.122221015
-0.058388572 -0.028173128 -0.009792311 0.064124964 -0.18824778 -1.5057001 0.41085088 0.030789932
0.22410293 -0.08300089 -0.036078755 -0.06746431 0.036630876 -0.14702752 0.12110647 0.06819167
-0.12185128 -0.24382882 -0.029442446 -0.07419629 0.1063225 -0.016065339 -0.030853184 -0.13675584
-0.015436076 -0.009579235 0.028786944 0.0025952123 0.0031868792 0.19082105 4.0742626 -0.31603536
-0.114338994 1.8128992 -0.022620972 -1.9660689 0.14039037 0.020124318 0.11894865 -0.060426295
-0.03255989 -0.03495131 0.1852763 0.14151755 0.13128759 -0.25372213 -0.055306613 0.04740499
0.004645558 -0.111925274 0.060230102 -0.04246976 -0.08884993 0.027203625 0.18513945 2.4009128
-0.39051723 0.05890813 0.8207687 0.16803922 -0.6611516 -0.034638874 0.0010540901 -0.09559123
0.059168335 0.095265 -0.00234063 -0.04919701 0.034090754 -0.20060727 -0.19105513 -0.07743577
0.075271994 -0.04216773 -0.08710552 -0.00011519084 0.08643667 0.110512346 -0.121622406 -0.010803249
-0.87843585 0.06798277 0.21581724 0.17285126 0.18988013 -0.09064798 0.12821195 0.1055894
0.11914768 0.015620512 0.07175282 0.028883882 0.08070474 -0.034499638 -0.25403687 -0.29049638
0.14798282 0.052093294 -0.034659613 -0.044880867 -0.14989483 -0.0011802075 0.0036278344 -0.05614382
0.27379182 0.55281234 -0.35046622 -0.10687982 -0.022473615 0.04130625 0.08087979 -0.15604514
0.047565926 0.16231816 -0.046993457 -0.061628956 -0.08600502 0.084039375 0.23227976 0.0817295
0.06360561 -0.010356521 0.08671262 0.12106622 0.018537657 0.13207765 -0.13719632 0.0040984857
-0.065218434 -0.13106349 0.7335811 0.45575026 -0.049098525 -0.46616936 0.09950363 0.5661385
0.04316844 0.11668078 -0.05282358 0.05506942 -0.1387679 -0.093207896 0.19569004 0.19535196
-0.16493437 0.23557779 -0.43933794 -0.20248988 0.015878301 0.022649761 -0.045541547 -0.03292784
0.13042538 -0.1150778 -0.084242135 -2.7801409 -0.07576757 -0.1012545 -1.4127557 -0.068116285
1.6377993 0.13548458 0.07577558 0.15143403 0.1915019 -0.11143321 0.14076772 0.071572945
0.22535306 -0.10190038 -0.2914064 -0.3987732 -0.041100733 0.14386566 0.14005001 0.016103582
0.051808883 0.077063404 0.012025184 0.00850033 1.164612 -0.022959951 0.012647129 0.0022104331
-0.09849647 -0.144739 0.009893182 -0.15309912 -0.02050736 -0.1251174 -0.08586279 -0.0751032
-0.19190674 0.20444773 -0.05476496 0.03705001 0.112156466 -0.15431283 0.057916474 -0.029154036
0.009531789 -0.025057947 0.01965043 0.048181254 0.29157037 0.149957 -0.39817706 -0.17854469
0.764329 -0.082119375 -0.98122007 0.032069996 -0.10095281 0.04839265 -0.039433848 0.026201025
-0.017359896 0.20378923 -0.12296636 0.039875746 0.053824782 0.15424168 0.0035008935 -0.15229817
-0.05083334 0.046620958 0.06708435 -0.14555782 -0.076022364 0.22991578 -0.045913976 0.18864866
0.2010204 -0.13544866 0.09083831 -0.028115895 0.08820295 0.062094998 -0.06584708 -0.12507983
0.10238098 0.13449599 0.09230534 -0.16524486 -0.031763673 -0.066042274 0.04220126 0.08679736
00000000: 22ed 073d 06bb 263c 48be 043c d4ec 64bd
00000010: 9c94 b03c 398e 96bd 9e93 b7bd 034f fabd
00000020: db28 6fbd 55cb e6bc ee6f 20bc f353 833d
00000030: 07c4 40be c8ba c0bf 0c5b d23e 2b3b fc3c
00000040: 3d7b 653e 5ffc a9bd 51c7 13bd ba2a 8abd
00000050: 420a 163d 628e 16be ab06 f83d 13a8 8b3d
00000060: 2a8d f9bd 43ae 79be 4931 f1bc 39f4 97bd
00000070: 9cbf d93d 759b 83bc d1bf fcbc b909 0cbe
00000080: 98e7 7cbc 39f2 1cbc 99d2 eb3c 7014 2a3b
00000090: f6da 503b 9866 433e 5c60 8240 63cf a1be
000000a0: 902a eabd 150d e83f 9e4f b9bc 25a8 fbbf
000000b0: 7ec2 0f3e c1db a43c 5a9b f33d 9081 77bd
000000c0: 855d 05bd 1b29 0fbd 12b9 3d3e fae9 103e
000000d0: 4170 063e dee7 81be 3089 62bd bc2b 423d
000000e0: c439 983b 1439 e5bd d7b3 763d c5f4 2dbd
000000f0: f4f6 b5bd 23da de3c 3295 3d3e 8ea8 1940
00000100: e0f1 c7be a749 713d e61d 523f 7912 2c3e
00000110: 3b41 29bf 7ee1 0dbd 6529 8a3a 56c5 c3bd
00000120: 7f5a 723d 4c1a c33d 4165 19bb ce82 49bd
00000130: bfa2 0b3d fe6b 4dbe f5a3 43be a596 9ebd
00000140: 3428 9a3d 12b8 2cbd 6164 b2bd 9c92 f1b8
00000150: b505 b13d 4c54 e23d 2b15 f9bd 1c00 31bc
00000160: 2ce1 60bf 8d3a 8b3d 32ff 5c3e ecff 303e
00000170: f06f 423e a6a5 b9bd fe49 033e 413f d83d
00000180: b303 f43d 2ded 7f3c 24f3 923d e49d ec3c
00000190: 8748 a53d 7e4f 0dbd 1f11 82be f1bb 94be
000001a0: cf88 173e c75f 553d 3df7 0dbd 00d5 37bd
000001b0: 087e 19be 31b1 9aba f6c0 6d3b 10f7 65bd
000001c0: 712e 8c3e 1c85 0d3f 4f70 b3be cfe3 dabd
000001d0: 961a b8bc be30 293d 4ea4 a53d 4cca 1fbe
000001e0: 7dd4 423d bb36 263e 367c 40bd a56e 7cbd
000001f0: 6623 b0bd d61c ac3d bfda 6d3e cc61 a73d
00000200: a843 823d 66ae 29bc 6396 b13d 91f1 f73d
00000210: 49dc 973c 5d3f 073e 317d 0cbe 974c 863b
00000220: 3e91 85bd 8235 06be f9cb 3b3f 1958 e93e
00000230: 891b 49bd c0ad eebe 8fc8 cb3d 74ee 103f
00000240: 64d1 303d 55f6 ee3d 8a5d 58bd 7990 613d
00000250: 2c19 0ebe c8e3 bebd f862 483e 580a 483e
00000260: 8ee4 28be 4e3b 713e e7f0 e0be 8259 4fbe
00000270: 3613 823c fe8b b93c c689 3abd 58df 06bd
00000280: 3b8e 053e e9ad ebbd 2487 acbd d4ed 31c0
00000290: 072c 9bbd 855e cfbd 2ed5 b4bf 8d80 8bbd
000002a0: 68a3 d13f 78bc 0a3e 3a30 9b3d 8611 1b3e
000002b0: 1319 443e 1837 e4bd 6a25 103e d694 923d
000002c0: f4c2 663e 25b1 d0bd 3833 95be 002c ccbe
000002d0: 3e59 28bd 8551 133e 4569 0f3e a9eb 833c
000002e0: 8d35 543d 6bd3 9d3d 4705 453c f844 0b3c
000002f0: 0212 953f 8216 bcbc e735 4f3c eadc 103b
00000300: 84b8 c9bd 7636 14be 0317 223c 04c6 1cbe
00000310: 0dff a7bc c71e 00be d5d8 afbd b5cf 99bd
00000320: 3383 44be bf5a 513e 3951 60bd c0c1 173d
00000330: 4ab2 e53d 2f04 1ebe d339 6d3d 72d4 eebc
00000340: 392b 1c3c 5346 cdbc f0f9 a03c b559 453d
00000350: b648 953e 548e 193e dddd cbbe 6bd4 36be
00000360: 11ab 433f 342e a8bd 3d31 7bbf d45b 033d
00000370: 59c0 cebd 5f37 463d 6385 21bd 88a3 d63c
00000380: 5736 8ebc 20ae 503e c9d5 fbbd c054 233d
00000390: 6077 5c3d 88f1 1d3e 3f6f 653b 0df4 1bbe
000003a0: 9f36 50bd 9ef5 3e3d 8563 893d 1c0d 15be
000003b0: 9db1 9bbd 0b6f 6b3e 4b10 3cbd 1d2d 413e
000003c0: 4bd8 4d3e 0eb3 0abe 7009 ba3d 4e53 e6bc
000003d0: c0a3 b43d 5357 7e3d d5da 86bd ed14 00be
000003e0: 1fad d13d 51b9 093e 950a bd3d f335 29be
000003f0: a01a 02bd 2c41 87bd 3adb 2c3d d0c2 b13d

critic.0.bias f4 [64]
-0.029546637 0.19147198 -0.048171338 -0.07576469 0.16156611 -0.11339872 0.10595677 0.121035054
0.03154981 -0.1274729 -0.16981259 -0.1900282 -0.042424962 0.12587816 -0.005638505 -0.06215793
0.17984469 0.16356783 -0.18948105 -0.039109394 -0.05816857 0.06450625 0.079639904 -0.014204337
-0.14336671 -0.050716538 0.13151392 0.16293429 0.1804551 0.045111552 -0.17680472 0.16658953
0.14654759 -0.05882607 0.05913575 -0.062455192 -0.035689037 0.13905978 -0.15662172 -0.13332847
-0.022533035 0.15775107 -0.04734295 -0.1150688 -0.050331574 0.08592267 -0.058645047 -0.02929718
-0.05599727 -0.14802061 0.045000352 -0.19527864 -0.19240993 0.17700773 -0.0789356 -0.019271355
0.0430944 -0.23985729 -0.06048093 -0.006826642 0.11769112 0.072220445 0.020123245 0.18101785
00000000: ca0b f2bc 3b11 443e 4f4f 45bd 852a 9bbd
00000010: 9671 253e 973d e8bd ddff d83d 3ae1 f73d
00000020: 603a 013d 4288 02be 5ae3 2dbe c196 42be
00000030: ccc5 2dbd 34e6 003e 35c3 b8bb 5099 7ebd
00000040: 3529 383e 537e 273e 5207 42be 2c31 20bd
00000050: 2b42 6ebd da1b 843d 3f1a a33d 4fb9 68bc
00000060: b9ce 12be 25bc 4fbd 96ab 063e 3fd8 263e
00000070: 39c9 383e e4c6 383d 4c0c 35be 7296 2a3e
00000080: 9210 163e 9bf3 70bd 5438 723d 04d1 7fbd
00000090: ab2e 12bd b065 0e3e 7261 20be 4287 08be
000000a0: 3397 b8bc 7f89 213e aeea 41bd 31a9 ebbd
000000b0: 7b28 4ebd 3af8 af3d ca35 70bd a400 f0bc
000000c0: 655d 65bd b792 17be 4a52 383d 20f7 47be
000000d0: 1c07 45be 8441 353e fda8 a1bd f6de 9dbc
000000e0: c183 303d 269d 75be daba 77bd 06b2 dfbb
000000f0: 0b08 f13d 50e8 933d 81d9 a43c be5c 393e

critic.2.weight f4 [64, 64]
-0.026180435 0.040616468 0.010954002 -0.007042546 0.0079270555 -0.050869938 -0.012381663 -0.010531534
-0.017042078 -0.07202137 0.024281362 0.16912885 -0.07805912 0.054749094 0.052182786 0.0043665553
-0.028341949 0.12535551 0.11865271 -0.11493336 0.07390137 -0.04057224 0.045396455 0.053136103
0.00436236 -0.10396518 -0.05659814 0.084095396 -0.086544886 -0.016320951 0.09811303 -0.04199841
0.0184976 0.008292019 -0.15492316 -0.05295908 -0.06894066 -0.077639796 -0.036187977 0.002432537
-0.12695485 -0.132683 -0.06886539 0.0026211306 0.0050271433 -0.10954202 0.12511984 -0.11669229
0.07370579 0.08779712 -0.08027501 -0.10769108 -0.08215375 0.0018214422 0.16362455 -0.017816132
-0.040406413 0.040212844 0.07289126 0.023981292 0.049718678 0.06965066 -0.038385544 0.046064094
0.043667596 -0.21934833 -0.007496274 -0.1026906 -0.020622188 0.051490206 -0.049503896 0.1405709
-0.059199624 0.048187017 -0.030176265 0.045615952 0.029011877 -0.09540058 0.06423149 0.03421844
-0.08083142 0.033514943 0.15143178 0.08286494 -0.06304438 -0.04876772 4.5611014e-05 -0.028712578
0.12114977 -0.09626675 0.05770026 0.10834032 -0.04074368 -0.13430497 -0.03912106 -0.040009256
-0.10518355 -0.016659174 -0.008787198 0.09016632 -0.001945102 -0.07014538 0.17624465 -0.0171835
-0.005971313 0.06391485 0.06293963 -0.02607004 0.027753342 0.08308397 0.032152753 0.086020924
0.14627713 0.05142133 -0.017852534 0.05872349 0.07863759 -0.051910605 0.00908666 0.077576265
-0.07128075 -0.071734264 0.012334674 0.019722207 0.034434125 -0.023151223 0.056910206 0.032317244
-0.13857599 0.039945614 0.023107486 -0.10182069 -0.026571374 -0.05538834 0.11727813 -0.06697421
-0.009126634 -0.058521993 0.08553236 -0.11570292 -0.06518827 -0.056704927 0.028325919 -0.050320867
-0.08332873 0.23631185 0.00470998 -0.012040987 0.07583425 -0.015427582 -0.047329385 -0.0014190746
0.06568833 0.10306702 -0.017482009 0.10574092 0.080540076 -0.08379668 0.14682706 -0.12370696
-0.07050685 -0.0027356462 -0.07744334 -0.10774851 -0.03572715 -0.16813701 0.04657264 0.13114013
-0.08725594 0.06844549 -0.035723925 -0.039221745 0.023414124 0.045317832 -0.041718632 0.10724505
-0.05959329 -0.042309724 -0.033338033 -0.13074881 -0.033630524 0.08568716 0.14373024 0.1053674
-0.0009977495 0.011761276 0.10194246 -0.0057673813 -0.0389679 0.0149252005 0.0108297 -0.11938678
-0.0012563085 0.07953742 0.010010446 -0.09456581 0.07151842 -0.10286724 -0.029626474 0.042922396
-0.12370748 0.07618934 0.024446048 -0.04789703 -0.03812653 -0.06768825 0.108186506 -0.124107204
0.052469205 0.008645425 -0.00042194646 -0.016891187 -0.028404659 -0.056535665 0.07505324 0.12063934
-0.15211563 -0.034109227 0.03263091 0.090235375 -0.13784619 -0.072009385 0.03550695 0.06049935
-0.030589968 -0.099074386 -0.04541824 0.102443226 -0.04793155 0.10868133 0.07721996 0.0917279
0.0075705387 -0.11120226 0.045646373 -0.05560266 -0.082978316 0.05501085 0.07459783 0.035896342
0.08013249 0.048215393 0.01699273 -0.05214249 0.12389908 -0.06002033 0.02030492 0.09549058
0.040622286 0.0077619604 0.022046074 0.051420506 -0.08137675 -0.06561522 -0.08489148 -0.033274457
00000000: 5a78 d6bc 745d 263d 6a78 333c 28c5 e6bb
00000010: 7be0 013c ff5c 50bd 75dc 4abc 758c 2cbc
00000020: d49b 8bbc f17f 93bd b5e9 c63c 1d30 2d3e
00000030: 76dd 9fbd 9640 603d 9ebd 553d 5215 8f3b
00000040: 602d e8bc 325d 003e 3100 f33d 2e62 ebbd
00000050: 9a59 973d 142f 26bd a2f1 393d 3ea5 593d
00000060: 21f2 8e3b b2eb d4bd 74d3 67bd 353a ac3d
00000070: 723e b1bd 84b3 85bc 7cef c83d 8606 2cbd
00000080: 4788 973c 40db 073c 2da4 1ebe 9feb 58bd
00000090: c330 8dbd 9d01 9fbd d839 14bd 336b 1f3b
000000a0: 7400 02be 0dde 07be 4c09 8dbd 46c7 2b3b
000000b0: bcba a43b 9157 e0bd 6a1f 003e 5efc eebd
000000c0: 10f3 963d face b33d 3967 a4bd 248d dcbd
000000d0: 3a40 a8bd 75bd ee3a 328d 273e 23f3 91bc
000000e0: 3281 25bd 39b6 243d 0348 953d 6a74 c43c
000000f0: d0a5 4b3d 01a5 8e3d 293a 1dbd b4ad 3c3d
00000100: cbdc 323d d99c 60be 4ea3 f5bb 734f d2bd
00000110: ddef a8bc 65e7 523d 99c4 4abd d1f1 0f3e
00000120: 4e7b 72bd c05f 453d 3734 f7bc cbd7 3a3d
00000130: 51aa ed3c 6161 c3bd cd8b 833d a328 0c3d
00000140: f28a a5bd f746 093d ef10 1b3e 18b5 a93d
00000150: 691d 81bd a9c0 47bd 744e 3f38 a436 ebbc
00000160: 5f1d f83d 8027 c5bd 1c57 6c3d 88e1 dd3d
00000170: d8e2 26bd 3e87 09be 683d 20bd bfe0 23bd
00000180: 796a d7bd d278 88bc 2ef8 0fbc 1fa9 b83d
00000190: cbf2 feba 62a8 8fbd 7a79 343e 69c4 8cbc
000001a0: 01ab c3bb cae5 823d 7ee6 803d d690 d5bc
000001b0: fa5a e33c ee27 aa3d 9bb2 033d bd2b b03d
000001c0: acc9 153e 2c9f 523d 7a3f 92bc 0b88 703d
000001d0: bf0c a13d 37a0 54bd 37e0 143c 4ee0 9e3d
000001e0: a4fb 91bd 6ae9 92bd 5f17 4a3c 7790 a13c
000001f0: cc0a 0d3d a2a7 bdbc ad1a 693d 165f 043d
00000200: dde6 0dbe 039e 233d e94b bd3c 5e87 d0bd
00000210: 36ac d9bc e2de 62bd 842f f03d c629 89bd
00000220: e187 15bc c2b4 6fbd 972b af3d a7f5 ecbd
00000230: 6d81 85bd 6d43 68bd c20b e83c 411d 4ebd
00000240: 41a8 aabd bcfb 713e 2d56 9a3b 8f47 45bc
00000250: fd4e 9b3d f8c3 7cbc 75dc 41bd 3e00 baba
00000260: 9a87 863d cd14 d33d 6e36 8fbc b28e d83d
00000270: 32f2 a43d 989d abbd d559 163e 135a fdbd
00000280: e565 90bd 8748 33bb 9d9a 9ebd 40ab dcbd
00000290: a256 12bd 1c2c 2cbe f4c2 3e3d 9949 063e
000002a0: 3eb3 b2bd 262d 8c3d 4053 12bd fba6 20bd
000002b0: face bf3c 319f 393d 28e1 2abd 4ba3 db3d
000002c0: 1818 74bd f64c 2dbd 768d 08bd 04e3 05be
000002d0: 29c0 09bd c07c af3d 052e 133e ddca d73d
000002e0: ebc6 82ba 5eb2 403c 35c7 d03d 4dfc bcbb
000002f0: ce9c 1fbd d488 743c 0e6f 313c 0e81 f4bd
00000300: b8aa a4ba 84e4 a23d db02 243c b8ab c1bd
00000310: 4078 923d 0fac d2bd 38b3 f2bc 65cf 2f3d
00000320: 595a fdbd 2809 9c3d 1443 c83c ad2f 44bd
00000330: 902a 1cbd 23a0 8abd e390 dd3d eb2b febd
00000340: f3e9 563d 8aa5 0d3c b238 ddb9 635f 8abc
00000350: e3b0 e8bc f191 67bd 83b5 993d c211 f73d
00000360: 33c4 1bbe 1eb6 0bbd fda7 053d 53cd b83d
00000370: 8d27 0dbe a879 93bd bc6f 113d 2bce 773d
00000380: d097 fabc 83e7 cabd 7a08 3abd c1cd d13d
00000390: df53 44bd 5194 de3d 8025 9e3d d6db bb3d
000003a0: 4812 f83b 03be e3bd b1f7 3a3d 9dbf 63bd
000003b0: 89f0 a9bd 0f53 613d bfc6 983d 0b08 133d
000003c0: 811c a43d 817d 453d 5634 8b3c 5d93 55bd
000003d0: cdbe fd3d e1d7 75bd 8156 a63c 9190 c33d
000003e0: 8e63 263d 0b58 fe3b f899 b43c 4f9e 523d
000003f0: daa8 a6bd 4661 86bd 96db adbd cc4a 08bd

critic.2.bias f4 [64]
0.07303323 -0.020301288 -0.028048424 -0.14013107 -0.28858566 -0.21670738 -0.032720394 0.0662332
0.038780358 -0.016952524 0.13753065 -0.14696075 -0.011763983 -0.03633676 -0.028663324 -0.09989804
-0.044997018 0.112566866 0.16960907 -0.097923815 0.12828763 0.0670447 -0.011718825 -0.020890461
0.09185611 -0.14961855 -0.011974167 -0.06650172 -0.12034497 0.046271984 -0.10541326 0.037010614
0.02607034 -0.057374757 -0.06718079 -0.049142163 0.045235038 -0.09123176 -0.08576832 -0.03730774
-0.030290985 -0.08831702 -0.107541144 -0.024009569 0.042652022 0.15424687 -0.04543242 0.153578
0.062870316 0.06251765 0.110514924 0.0057865125 -0.11671487 -0.06263891 -0.02642677 0.035939585
0.047413647 -0.024830282 -0.071707316 -0.09538083 0.0929021 -0.17724611 -0.02775457 0.16502036
00000000: 7292 953d e34e a6bc cfc5 e5bc 857e 0fbe
00000010: 80c1 93be 8ae8 5dbe d205 06bd 46a5 873d
00000020: 27d8 1e3d 05e0 8abc d6d4 0c3e e17c 16be
00000030: b9bd 40bc dbd5 14bd 59cf eabc 5897 ccbd
00000040: cb4e 38bd 7589 e63d 00ae 2d3e 488c c8bd
00000050: d55d 033e bb4e 893d 5100 40bc 7922 abbc
00000060: 0e1f bc3d 9b35 19be 4c2f 44bc 0e32 88bd
00000070: 6c77 f6bd b187 3d3d e8e2 d7bd 7198 173d
00000080: 7791 d53c cb01 6bbd 1596 89bd 4b49 49bd
00000090: 6048 393d b8d7 babd 4da7 afbd 00d0 18bd
000000a0: cd24 f8bc 8edf b4bd 883e dcbd b7af c4bc
000000b0: e3b3 2e3d e4f2 1d3e 5817 3abd 8d43 1d3e
000000c0: 27c2 803d 4109 803d a655 e23d c99c bd3b
000000d0: 3508 efbd d448 80bd f47c d8bc 6335 133d
000000e0: d034 423d e068 cbbc 49db 92bd 0657 c3bd
000000f0: 7543 be3d 0180 35be 8d5d e3bc 19fb 283e

critic.4.weight f4 [1, 64]
0.0062263375 0.021054702 0.01478013 0.014376355 0.12768638 0.01322497 0.011389779 -0.003887161
0.009212493 0.020431211 -0.06934489 0.010672104 -0.02958622 -0.009145233 -0.0054927375 0.008109243
-0.03946043 -0.038218822 -0.11373186 0.007207371 -0.027511304 -0.0229176 -0.039029896 0.01908577
-0.054856665 -0.0021146957 0.0073946943 0.0075975875 0.099998996 -0.02967147 0.05931359 0.007937434
-0.008684813 0.022261102 0.008808413 0.0227843 -0.025648823 0.097229615 0.02414094 -0.0035590583
-0.014631699 0.030260261 -0.028957615 -0.018961474 -0.033809494 -0.007309791 0.0099613005 -0.07379901
0.002154749 0.013887781 -0.0053803613 -0.009491493 0.008053639 0.006043389 -0.036487732 -0.02445677
-0.004862599 0.021457624 0.0043332735 0.024103547 0.0062961774 0.018622296 -0.010862758 -0.026878167
00000000: 4e06 cc3b e97a ac3c 5c28 723c ce8a 6b3c
00000010: 38c0 023e 8bad 583c 329c 3a3c bdbf 7ebb
00000020: ffef 163c 5b5f a73c b204 8ebd 0cda 2e3c
00000030: cd5e f2bc e3d5 15bc 6cfc b3bb a1dc 043c
00000040: 43a1 21bd 578b 1cbd 40ec e8bd cf2b ec3b
00000050: 635f e1bc b1bd bbbc d0dd 1fbd c359 9c3c
00000060: 62b1 60bd b596 0abb 314f f23b 2ff5 f83b
00000070: 46cc cc3d 9511 f3bc cff2 723d 030c 023c
00000080: bf4a 0ebc ea5c b63c 2951 103c 24a6 ba3c
00000090: 7b1d d2bc 5220 c73d 38c3 c53c 173f 69bb
000000a0: cbb9 6fbc 5ee4 f73c 8538 edbc 1855 9bbc
000000b0: d37b 0abd f986 efbb b934 233c ef23 97bd
000000c0: b036 0d3b 9389 633c be4d b0bb 3582 1bbc
000000d0: 69f3 033c 9f07 c63b 2974 15bd 9059 c8bc
000000e0: 7056 9fbb e6c7 af3c 22fe 8d3b cd74 c53c
000000f0: 2a50 ce3b c98d 983c b6f9 31bc 9a2f dcbc

exp_avg f4 [6]
0.00097550143 -0.00023521064 0.0048861345 -0.00028829253 -0.004862569 -0.0018403183
00000000: cbb8 7f3a e0a2 76b9 de1b a03b f825 97b9
00000010: 2f56 9fbb d636 f1ba

exp_avg_sq f4 [6]
0.00045408035 0.00049893867 0.0013076207 0.0011634632 0.001052005 0.0011797848
00000000: a211 ee39 35cb 023a 7864 ab3a 597f 983a
00000010: 6ee3 893a 02a3 9a3a

exp_avg f4 [64, 25]
0.00021261766 -0.0001358991 -0.0014180073 -0.0017465974 -0.001143087 -0.00072920957 -3.9527924e-05 0.00018626763
-8.498517e-05 -0.0005068324 0.0004130153 0.0003452776 -0.00048154203 5.640669e-06 -0.00032335336 -0.0009810381
-6.48127e-05 -0.0009810381 6.481322e-05 0.00062086014 2.5205494e-05 -0.0031182023 -0.0028463705 -0.0023706306
-0.0011304552 -5.5298704e-05 -9.620272e-05 -0.000420853 -0.00053446443 -0.00022645816 -6.0715793e-05 -0.00012927379
-4.6907033e-05 -7.816433e-05 -0.0009107031 -0.00049215194 -0.00030371774 -0.00010159137 -7.803875e-06 -9.65387e-05
-0.00028100747 3.608157e-05 -0.00028100747 -3.608189e-05 -4.259172e-05 0.00017533325 -0.0008777182 -0.0015083667
-0.0004778862 -0.0003428084 0.00012788508 -0.0001605785 -0.00010386509 0.00033242573 -6.458962e-06 0.00013033529
4.1276475e-05 -0.00011473884 0.00015706314 0.00021298081 2.5776246e-05 0.0007561895 6.799345e-05 -5.6790548e-05
-1.0611653e-05 9.036186e-05 6.2918305e-05 9.036186e-05 -6.291828e-05 0.000105418054 -0.00039336574 0.0001921926
0.0008506033 9.0809044e-05 0.00044120324 -0.00016114287 -3.9345443e-05 -5.4815214e-06 -2.4813482e-05 -9.430623e-05
-3.9118477e-05 -5.1119277e-05 -4.497635e-05 6.360281e-05 3.0046165e-05 0.00016998478 -0.00025801657 -3.755801e-05
-4.2250373e-05 -3.892869e-06 1.0503684e-06 1.8225397e-05 1.0503684e-06 -1.8225168e-05 -0.00061260356 8.798317e-06
-9.325547e-06 3.8247697e-05 -0.00017031273 -3.474889e-05 0.0004709958 0.00016964736 -0.00041976024 -0.0009163151
-0.0002806506 -0.00072746276 -8.68297e-05 -0.00015593958 7.3108786e-05 -0.0004079456 -0.00016197412 0.00033583515
-0.00011905654 7.078212e-05 -0.00014535105 -0.0002041249 -5.2531486e-05 -0.0002041249 5.253102e-05 0.0008502742
0.00044829934 -0.00077213574 -0.0019627456 -0.0005660297 -0.0014223454 -0.000479003 -7.409366e-05 0.00038783674
0.0009816021 0.0001656834 0.0006944465 7.739583e-05 0.00019303503 -9.950701e-05 4.8110123e-05 0.000172056
-0.000116351155 0.0001906984 -9.8482895e-05 0.00020203867 0.00020710139 2.1474694e-05 0.00020710139 -2.1474403e-05
-0.0009136712 -0.00016524609 0.00076802087 0.002165615 0.0003700206 0.0014351672 -0.00030864685 -0.00018115871
-0.00036222208 0.00037822875 -0.00026220887 0.0004593429 0.00019194445 7.074307e-05 -0.00015234658 -0.00017505419
0.0006167174 -0.0001618845 -1.1805309e-05 -4.192731e-05 3.8572252e-05 -0.00016336057 9.13131e-06 -0.00016336057
-9.130836e-06 -0.00049535226 -1.9251213e-05 -0.00066163833 0.00037817223 -0.00031023315 0.00048918254 -6.4518135e-05
3.6523194e-05 0.0001532548 -0.00019214312 5.425407e-05 -0.00015938237 -4.1858693e-05 -4.6873265e-05 5.972616e-05
-9.3890274e-05 -7.3844017e-06 -0.00027547075 3.7111906e-05 -1.4970688e-06 2.037674e-05 7.324997e-05 2.1724985e-05
7.324997e-05 -2.1725033e-05 -0.0003027359 -2.6249032e-05 0.0003032533 -0.00027239815 9.0538924e-05 -0.00019284726
-0.00016288085 0.00016486083 0.00015770282 0.00075096206 -3.313596e-05 0.0001894743 7.278716e-05 0.0001783708
-0.00046198326 0.0006261765 -0.000504773 4.3883392e-05 9.411627e-05 -9.879569e-05 0.00013627167 1.638871e-05
-8.897179e-05 1.638871e-05 8.897227e-05 5.8986927e-05 6.778721e-05 0.00011099224 0.0017350973 -0.00017309628
0.00044264604 0.00013300586 0.0001610223 -9.4367904e-05 -0.00037776728 -0.00018921109 -0.0004234228 -7.295005e-05
-2.6215204e-05 0.0001971141 -9.12965e-05 0.0004041736 0.0001693735 -2.522942e-05 -3.0648393e-05 -1.9504245e-05
-5.8413814e-05 -1.9961195e-05 -5.8413814e-05 1.9961637e-05 5.2150433e-05 0.00040870745 1.2022061e-05 -0.0006646483
-0.000381892 -0.0007822345 -2.9784225e-05 1.95645e-05 -5.48786e-05 -1.6862457e-05 6.0120772e-05 7.7878845e-05
00000000: 1ef2 5e39 2380 0eb9 6edc b9ba 15ee e4ba
00000010: a3d3 95ba 6d28 3fba c9ca 25b8 d650 4339
00000020: 113a b2b8 f2dc 04ba fa89 d839 6006 b539
00000030: 7a77 fcb9 fa44 bd36 c187 a9b9 2d96 80ba
00000040: 0eec 87b8 2d96 80ba 55ec 8738 38c1 223a
00000050: 6370 d337 c15a 4cbb 2c8a 3abb 955c 1bbb
00000060: c82b 94ba 88f0 67b8 71c0 c9b8 efa5 dcb9
00000070: 4d1b 0cba 6675 6db9 16a9 7eb8 ab8d 07b9
00000080: 0bbe 44b8 28ec a3b8 40bc 6eba c203 01ba
00000090: 4e3c 9fb9 740d d5b8 63ed 02b7 d274 cab8
000000a0: 2f54 93b9 4a56 1738 2f54 93b9 a256 17b8
000000b0: 83a4 32b8 a9d9 3739 ac16 66ba 63b4 c5ba
000000c0: cd8c fab9 f7ba b3b9 e418 0639 f660 28b9
000000d0: 25d2 d9b8 6d49 ae39 10ba d8b6 9daa 0839
000000e0: 4720 2d38 f29f f0b8 51b1 2439 9a53 5f39
000000f0: 113a d837 053b 463a b597 8e38 6332 6eb8
00000100: b408 32b7 a780 bd38 02f3 8338 a780 bd38
00000110: fff2 83b8 e313 dd38 a83c ceb9 4f87 4939
00000120: 05fb 5e3a bc70 be38 4c51 e739 76f8 28b9
00000130: d906 25b8 e9ed b7b6 8c26 d0b7 46c6 c5b8
00000140: 2513 24b8 e868 56b8 fda4 3cb8 8062 8538
00000150: a60b fc37 f13d 3239 6646 87b9 9b87 1db8
00000160: fe35 31b8 7d9f 82b6 62fa 8c35 bee2 9837
00000170: 62fa 8c35 40e2 98b7 2197 20ba 7c9c 1337
00000180: eb74 1cb7 276c 2038 fa95 32b9 56bf 11b8
00000190: fcef f639 5ee3 3139 4413 dcb9 de34 70ba
000001a0: 4924 93b9 33b3 3eba 5718 b6b8 b683 23b9
000001b0: fb51 9938 88e1 d5b9 99d7 29b9 0813 b039
000001c0: fead f9b8 dc70 9438 6069 18b9 5c0a 56b9
000001d0: 4155 5cb8 5c0a 56b9 c154 5c38 f0e4 5e3a
000001e0: b809 eb39 2769 4aba 68a1 00bb 9c61 14ba
000001f0: fe6d baba b222 fbb9 bb62 9bb8 9156 cb39
00000200: 1aa9 803a 4dbb 2d39 840b 363a 924f a238
00000210: 7269 4a39 6bae d0b8 dac9 4938 ee69 3439
00000220: 8d01 f4b8 36f6 4739 9a88 ceb8 58da 5339
00000230: 5b29 5939 8e24 b437 5b29 5939 ee23 b4b7
00000240: 7083 6fba e945 2db9 0255 493a feec 0d3b
00000250: 53ff c139 381c bc3a e1d1 a1b9 6cf5 3db9
00000260: a0e8 bdb9 014d c639 1479 89b9 f6d3 f039
00000270: b244 4939 e65b 9438 39bf 1fb9 c08e 37b9
00000280: 34ab 213a 8abf 29b9 6b0f 46b7 1bdb 2fb8
00000290: a4c8 2138 c54b 2bb9 ae32 1937 c54b 2bb9
000002a0: a430 19b7 87da 01ba aa7d a1b7 cc71 2dba
000002b0: 6b45 c639 caa6 a2b9 7c3c 003a e94d 87b8
000002c0: 7b30 1938 06b3 2039 077a 49b9 dd8e 6338
000002d0: e11f 27b9 6e91 2fb8 c999 44b8 7a82 7a38
000002e0: f5e6 c4b8 87c7 f7b6 0f6d 90b9 9ba8 1b38
000002f0: e4ee c8b5 b7ee aa37 c79d 9938 0d3e b637
00000300: c79d 9938 273e b6b7 86b8 9eb9 5e31 dcb7
00000310: f8fd 9e39 a9d0 8eb9 b7df bd38 0b37 4ab9
00000320: ffca 2ab9 7ede 2c39 075d 2539 36dc 443a
00000330: 77fb 0ab8 9fad 4639 4fa5 9838 0c09 3b39
00000340: 5836 f2b9 fe25 243a be52 04ba 6f0f 3838
00000350: 4a60 c538 8830 cfb8 26e4 0e39 7d7a 8937
00000360: 5e96 bab8 7d7a 8937 a096 ba38 bb68 7738
00000370: fb28 8e38 81c4 e838 346c e33a 2e81 35b9
00000380: f212 e839 7d77 0b39 18d8 2839 62e7 c5b8
00000390: 110f c6b9 f766 46b9 d9fe ddb9 c3fc 98b8
000003a0: b9e8 dbb7 6ab0 4e39 6f76 bfb8 43e7 d339
000003b0: da99 3139 c4a3 d3b7 768c 00b8 0c9d a3b7
000003c0: 5b01 75b8 5772 a7b7 5b01 75b8 4a73 a737
000003d0: 1abc 5a38 c947 d639 5cb2 4937 cb3b 2eba
000003e0: ad38 c8b9 de0e 4dba 23d9 f9b7 721e a437
000003f0: 732d 66b8 da73 8db7 302a 7c38 e352 a338
