04-goal-pose-l6/logs/rsl_rl/joint_position/2026-02-19_13-16-49/model_0.pt (torch, 160775 bytes, 36 tensors)

std f4 [6]
0	0x3f8026c4	1.001183
1	0x3f7fc9dc	0.9991739
2	0x3f7f8c4e	0.9982346
3	0x3f7c899a	0.98647463
4	0x3f7f5a4d	0.99747163
5	0x3f7f2cd1	0.9967776

actor.0.weight f4 [64, 25]
0	0x3d9682c6	0.07349162
1	0x3e4b347f	0.19844244
2	0x3dc88818	0.09791583
3	0x3e329dd7	0.17443024
4	0x3e2329ae	0.15933868
5	0xbe1726c5	-0.14760883
6	0xbc07f333	-0.008297729
7	0x3e3ef389	0.18647589
8	0x3d3f48b9	0.046700213
9	0x3e3024cb	0.17201535
10	0xbe3081af	-0.1723697
11	0xbe16f288	-0.14740956
12	0xbd6716fd	-0.056418408
13	0xbbfe7a0c	-0.007766014
14	0xbd989692	-0.07450594
15	0x3db247e7	0.087051205
16	0xbdf7aa27	-0.12093001
17	0x3c9cbee6	0.019133996
18	0xbe0ad62c	-0.13558263
19	0xbd1cfd24	-0.03832735
20	0xbbb7662a	-0.0055968957
21	0x3e2f90a0	0.17145014
22	0x3c840712	0.016116653
23	0x3e3f00d3	0.18652658
24	0xbd5f9365	-0.054583926
25	0xbdb416af	-0.08793389
26	0x3d66f6bf	0.05638766
27	0xbdc218b3	-0.09477367
28	0x3cc9237b	0.024553051
29	0xbe4021f5	-0.18762954
30	0xbdceb0f5	-0.100923456
31	0x3e222083	0.15832715
32	0xbe13dd93	-0.14439993
33	0xbe1bf4eb	-0.15230148
34	0xbce864d6	-0.028368395
35	0xbe3da42e	-0.18519661
36	0xbd7805df	-0.060552474
37	0x3d8cde6f	0.06878363
38	0xbe5b10f0	-0.2139318
39	0xbe2462cb	-0.16053312
40	0x3db0ade1	0.08626915
41	0x3d422d40	0.047406435
42	0x3dfacf0f	0.122465245
43	0x3de261ba	0.11053796
44	0xbe1891f3	-0.14899425
45	0xbd2363b6	-0.039890014
46	0xbd80968d	-0.06278715
47	0x3e2d6650	0.1693356
48	0x3e47ba96	0.1950477
49	0xbb2a907a	-0.0026026056
50	0x3a7fa670	0.0009752279
51	0x3d6bd6f5	0.057578046
52	0xbc234501	-0.009965182
53	0x3def1eaf	0.11675774
54	0xbd6520c3	-0.055939447
55	0x3e1dfd10	0.15428567
56	0xbdc97f54	-0.09838739
57	0x3db0bf7b	0.08630272
58	0x3bfdb783	0.0077428236
59	0xbe0328e2	-0.12808564
60	0xbce2c9e6	-0.027684163
61	0x3e2076ed	0.15670367
62	0x3e0fac75	0.14030631
63	0x3dc8bd2d	0.098017074
64	0xbe241243	-0.16022591
65	0x3e3e7e65	0.18602903
66	0xbe2773c3	-0.16352753
67	0xbd21e150	-0.039521515
68	0x3e35f683	0.17769818
69	0x3d42eef8	0.04759118
70	0xbdb3c40e	-0.08777629
71	0x3d9fc934	0.07802048
72	0xbe130738	-0.14358222
73	0x3d90c19a	0.070681766
74	0x3cf2752c	0.029596888
75	0x3e35dd03	0.1776009
76	0x3bf870bb	0.007581798
77	0xbe42a5f0	-0.19008613
78	0xbe46390b	-0.19357698
79	0xbdb9396f	-0.09044158
80	0xbe5d1ddb	-0.2159342
81	0x3e4b1609	0.19832624
82	0x3d1b4671	0.037908975
83	0x3e2a199b	0.1661133
84	0x3ca3eabb	0.02000939
85	0x3deabc6a	0.114617184
86	0x3d5bd269	0.05366746
87	0x3cf6a125	0.030106137
88	0x3e2ea37a	0.17054549
89	0xbdc77e0d	-0.09740839
90	0x3ca69baa	0.020337898
91	0x3d8003b8	0.06250709
92	0x3e301b52	0.17197922
93	0x3e0b3a91	0.1359656
94	0x3d8e82c8	0.06958538
95	0x3e2d56bb	0.16927616
96	0xbb540825	-0.0032353487
97	0xbd915f40	-0.070982456
98	0xbe0879d3	-0.13327722
99	0xbe2bbc0f	-0.16770957
100	0x3d8a8e99	0.067654796
101	0xbc9f5db4	-0.01945386
102	0xbb1e16a4	-0.0024122382
103	0x3db85bd6	0.09001891
104	0xbe56463d	-0.20925231
105	0x3d0baba6	0.034099244
106	0x3e29489f	0.16531609
107	0xbda291ea	-0.07937987
108	0x3d6574e0	0.056019664
109	0x3d93ef73	0.07223406
110	0xbd68e20c	-0.0568562
111	0x3c381cd0	0.011237338
112	0xbe00a71c	-0.12563747
113	0x3e08a360	0.13343573
114	0xbe0190df	-0.1265292
115	0x3cdf5f75	0.027267197
116	0xbc85756a	-0.016291339
117	0xbce1a223	-0.027543133
118	0x3ce5f09f	0.028068839
119	0xbc97e85d	-0.018543417
120	0xbdcb2263	-0.09918668
121	0x3d0f6454	0.03500779
122	0x3cb94137	0.022614105
123	0x3d4d0427	0.050052788
124	0x3d1bc056	0.038025223
125	0xbe39ead6	-0.18155989
126	0x3d0e5d59	0.034756992
127	0x3ce8ae6f	0.028403489
128	0x3da7f031	0.0820011
129	0x3e2142d1	0.15748145
130	0xbd001209	-0.0312672
131	0xba77cefe	-0.00094531465
132	0x3e3c3a10	0.18381524
133	0x3e4f2f99	0.20233001
134	0x3e039c57	0.12852608
135	0xbd7e2b14	-0.0620528
136	0x3de507d6	0.11183135
137	0xbdb5951f	-0.08866333
138	0x3d2b02b6	0.041750632
139	0x3de2a364	0.110663205
140	0x3ddf83ca	0.10913809
141	0xbcd3bbf5	-0.02584646
142	0x3dc03b34	0.09386292
143	0x3debef0c	0.11520204
144	0x3da7b99e	0.081897005
145	0xbcc4b55a	-0.024012256
146	0xbaa93adb	-0.0012911217
147	0xbdf9c98a	-0.12196644
148	0xbdae5ed4	-0.08514181
149	0x3c4f8946	0.012667006
150	0x3d819eea	0.063291386
151	0xbe1981a1	-0.14990856
152	0x3da2b011	0.07943738
153	0xbe23567b	-0.15950958
154	0x3c78e44b	0.015191148
155	0x3df652f1	0.120275386
156	0xbdf2d828	-0.11857635
157	0xbe266241	-0.16248418
158	0xbdf97641	-0.12180758
159	0xbd6bd75b	-0.057578426
160	0xbe027318	-0.12739217
161	0x3e0681cf	0.13135456
162	0xbe360d91	-0.17778613
163	0xbe2335d3	-0.15938501
164	0xbe27f39a	-0.1640152
165	0x3e0b4d42	0.1360369
166	0xbdc46ba0	-0.0959084
167	0x3d54a317	0.051913347
168	0x3df8ac89	0.121422835
169	0x3d765a6a	0.06014482
170	0x3e375ce4	0.17906529
171	0x3dce2c03	0.10066988
172	0xbd91fdeb	-0.07128509
173	0x3d9043ba	0.07044168
174	0xbe133f3f	-0.14379595
175	0xbdf3c63d	-0.11903045
176	0x3e163892	0.14670017
177	0xbe2e1f6b	-0.17004173
178	0xbe3057fa	-0.1722106
179	0x3e06b5e3	0.13155322
180	0x3d98fb83	0.07469847
181	0xbd3c6704	-0.04599668
182	0x3dcc3799	0.09971542
183	0xbd20dcef	-0.0392732
184	0x3dca12a3	0.09866836
185	0x3d6082df	0.05481231
186	0xbd917889	-0.071030684
187	0xbe410f71	-0.18853547
188	0x3d7d2507	0.06180289
189	0xbd6f80e1	-0.058472518
190	0x3dc3c557	0.09559124
191	0x3de61ca0	0.112359285
192	0xbd3beb3d	-0.045878638
193	0x3e1344b3	0.14381675
194	0xbc889636	-0.016673189
195	0xbe0059a7	-0.125342
196	0xbc51f616	-0.012815019
197	0xbde38d1d	-0.111108996
198	0xbd093c50	-0.033504784
199	0x3c46248c	0.012093674
200	0xbdcd9664	-0.1003845
201	0xbde05287	-0.10953241
202	0x3e108158	0.1411184
203	0xbdb6822e	-0.089115486
204	0x3e14654b	0.14491765
205	0xbe6d1081	-0.23150827
206	0x3c19e90c	0.009393942
207	0xbdc9dbb1	-0.09856356
208	0x3e0073fb	0.12544243
209	0xbe2a0f47	-0.1660739
210	0x3dfd634d	0.12372456
211	0x3dc4c9cb	0.096088015
212	0xbd00bbe2	-0.03142918
213	0x3d4d2eaa	0.05009333
214	0xbe211b58	-0.15733087
215	0xbdf69599	-0.12040252
216	0x3e657e08	0.22411358
217	0x3e0e3e2e	0.13890907
218	0xbe5c8510	-0.21535134
219	0xbd8dbffa	-0.06921382
220	0xbcc14457	-0.023592157
221	0x3abb4523	0.0014287572
222	0x3d8b102d	0.06790195
223	0xbe3f87b7	-0.18704115
224	0xbdd8794d	-0.10570011
225	0xbd4fff01	-0.0507803
226	0xbc30c686	-0.010789519
227	0xbd993759	-0.0748126
228	0x3dd72500	0.10505104
229	0xbd3d548c	-0.04622321
230	0xbe14b333	-0.14521484
231	0x3dbd60ab	0.092469536
232	0x3e048278	0.12940395
233	0x3e0cf80a	0.13766494
234	0x3e2599b2	0.16171911
235	0xbe4dfd44	-0.20116144
236	0xbcb08786	-0.021548998
237	0x3de554ef	0.111978404
238	0xbcdd74ae	-0.027033176
239	0xbe2662cc	-0.16248626
240	0xbe2f026b	-0.17090766
241	0x3dc75710	0.09733403
242	0xbd986a7f	-0.074421875
243	0x3c1196c6	0.008886045
244	0x3e1dd023	0.15411429
245	0xbe100b34	-0.14066774
246	0x3e19962d	0.14998694
247	0xbe0e028a	-0.13868156
248	0x3e310ca5	0.1728998
249	0xbdd89816	-0.10575883
250	0x3d02668b	0.031836074
251	0xbdbdb61f	-0.092632525
252	0x3e03f5a6	0.12886676
253	0x3c1454f6	0.009053459
254	0x3dad160a	0.08451469
255	0xbe2595d9	-0.16170444

actor.0.bias f4 [64]
0	0xbe2453da	-0.16047612
1	0x3dd8b651	0.10581649
2	0x3d862984	0.06550887
3	0x3e1f03cb	0.1552879
4	0x3dd4a8ba	0.103837445
5	0x3c01b006	0.007915502
6	0xbdf454bd	-0.11930225
7	0x3c6a2365	0.014290665
8	0x3c9903b5	0.018678525
9	0xbd553aae	-0.052057914
10	0xbe31931d	-0.17341276
11	0x3d62d34d	0.055377293
12	0xbbc4f107	-0.006010178
13	0x3dab817e	0.08374308
14	0xbc7353e4	-0.014851544
15	0xbb83e17b	-0.004024682
16	0xbe13b01a	-0.14422646
17	0xbd461712	-0.048361845
18	0xbd3b0b12	-0.045664854
19	0x3d3f4c79	0.04670379
20	0x3a8f77eb	0.0010945773
21	0x3de3282e	0.11091648
22	0xbc03e471	-0.00805007
23	0xbe020f6d	-0.12701197
24	0xbe13dfc7	-0.14440833
25	0x3e2e6a4f	0.17032741
26	0xbd90ec01	-0.07076264
27	0x3dc5847f	0.09644412
28	0x3b7881cd	0.0037919164
29	0xbbc5cb62	-0.006036208
30	0xbd53856f	-0.051640924
31	0xbe1da769	-0.15395893
32	0xbd448889	-0.047981773
33	0xbe0b79ad	-0.13620634
34	0x3dd306bb	0.10304018
35	0xbe309f44	-0.17248255
36	0xbbc446cc	-0.005989885
37	0xbe0ae4c5	-0.13563831
38	0x3e34c527	0.17653333
39	0x3e131028	0.14361632
40	0x3e1a5c18	0.15074193
41	0xbe361eed	-0.17785235
42	0xbe2a9cdf	-0.16661404
43	0x3c5d9701	0.013524772
44	0x3b832a28	0.004002828
45	0xbdb9d631	-0.09074057
46	0x3e0adc93	0.13560705
47	0xbe2ea025	-0.17053278
48	0x3e0f12e7	0.13972054
49	0x3d5aacf9	0.053387616
50	0xbe49577b	-0.19662277
51	0xbd198256	-0.037477814
52	0xbd92feb8	-0.0717749
53	0xbd8121a4	-0.063052446
54	0x3e11bd5a	0.14232388
55	0xbca78344	-0.020448335
56	0x3cfaddb4	0.030623294
57	0x3d9bb366	0.07602577
58	0x3e2acb10	0.16679025
59	0xbe06b8c1	-0.13156416
60	0xbc2d4236	-0.010574868
61	0x3e08afc0	0.13348293
62	0xbe41ef63	-0.18938975
63	0xbe32ad6e	-0.1744897

actor.2.weight f4 [64, 64]
0	0xbd6797a5	-0.056541104
1	0x3d3ffa8b	0.046869796
2	0x3c38e1f6	0.011284342
3	0x3da5017a	0.08056922
4	0x3d0215d9	0.031759117
5	0xbdcbf974	-0.09959689
6	0xbde46dd4	-0.111537606
7	0xbd821d72	-0.063532725
8	0x3df6bdcc	0.1204792
9	0xbcee0bc3	-0.029058343
10	0x3cf24b74	0.029576994
11	0xbd13e983	-0.036111366
12	0x3dceda7a	0.10100265
13	0x3d863ca0	0.06554532
14	0xbd934440	-0.07190752
15	0xbdb81fe9	-0.089904614
16	0xbda09874	-0.07841578
17	0xbd0fce6c	-0.03510897
18	0xbd0d68e6	-0.034523867
19	0x3dfddf73	0.12396135
20	0x3d3513a1	0.044208173
21	0x3da6580a	0.08122261
22	0xbd77d81e	-0.06050884
23	0xbcf087f5	-0.029361704
24	0x3d6b58a9	0.0574576
25	0xbdf98c85	-0.12185005
26	0x3d38181f	0.04494488
27	0x3dc86de7	0.09786587
28	0xbca02e18	-0.01955323
29	0x3d67a625	0.056554932
30	0xbd872b99	-0.066001125
31	0x3dbc9c1e	0.092094645
32	0x3c882fab	0.016624292
33	0xbda687c8	-0.08131367
34	0xbd2f1db3	-0.042752933
35	0x3d2d3ce4	0.042294398
36	0xbdee2f04	-0.11630061
37	0xbd931729	-0.07182152
38	0xbd25f0a0	-0.04051268
39	0xbd17c51f	-0.037053224
40	0xbdbe0681	-0.09278584
41	0xbdcfb81c	-0.10142538
42	0x3a6fe825	0.00091517187
43	0xbdd48220	-0.10376382
44	0x3d49f36a	0.049304403
45	0x3dbe61c5	0.09295992
46	0xbd57021f	-0.052492257
47	0xbd940aec	-0.07228646
48	0x3da1a384	0.07892516
49	0xbdb9d1a8	-0.09073192
50	0xbd266cbb	-0.040631037
51	0xbdd06aa1	-0.10176588
52	0x3d886e1e	0.06661628
53	0xbd0af06d	-0.033920694
54	0xbdcb3411	-0.0992204
55	0xbde24c1f	-0.11049675
56	0xbb9a7159	-0.004713219
57	0xbd81d211	-0.06338895
58	0xbdddfccc	-0.10839233
59	0xbdb97dc2	-0.090571895
60	0xbd9f6171	-0.07782257
61	0x3d00a1a5	0.031404156
62	0x3d27f850	0.041008294
63	0xbd76378e	-0.060111575
64	0xbd93cba4	-0.07216576
65	0xbddcf865	-0.10789565
66	0x3d4f7aef	0.050654348
67	0xbbc78021	-0.006088272
68	0xbd96bf1b	-0.07360669
69	0xbd4cb82e	-0.049980335
70	0xbd869a67	-0.06572419
71	0x3dac764d	0.084210016
72	0xbda45d0c	-0.0802556
73	0x3cded2a5	0.027200053
74	0xbcadd64e	-0.021220353
75	0x3d320ea2	0.043470986
76	0x3dd36fd0	0.10324061
77	0x3dad6ea4	0.08468369
78	0x3dc79b34	0.097463995
79	0xbc0388ea	-0.008028248
80	0x3d3df42d	0.046375442
81	0xbd65cd25	-0.056103844
82	0xbaf6d32f	-0.0018831248
83	0x3cb0b56c	0.021570884
84	0x3dfde11f	0.12396454
85	0xbbb96748	-0.005658064
86	0xbdcfa5be	-0.10139035
87	0xbde29ff9	-0.110656686
88	0xbd5ff155	-0.05467351
89	0x3d6ddc1f	0.058071252
90	0x3d8fc63c	0.07020232
91	0xbd6f692c	-0.05844991
92	0x3cdfa3a3	0.027299708
93	0xbd29914b	-0.041398328
94	0x3df37d7e	0.1188917
95	0x3d556650	0.052099526
96	0x3dcfb34f	0.10141622
97	0xbd4019ae	-0.04689949
98	0xbd740362	-0.05957354
99	0x3ce5b7dc	0.028041773
100	0xbdc07d6f	-0.093989246
101	0xbd07ff6d	-0.033202577
102	0x3cf77875	0.030208806
103	0x3d92d29a	0.07169075
104	0x3c3b12e5	0.011418079
105	0x3d896a18	0.06709689
106	0x3dacb64b	0.08433207
107	0xbd0a6dab	-0.033795994
108	0xbdd95549	-0.1061197
109	0xbcf3d483	-0.02976442
110	0x3da5d2d5	0.08096854
111	0xbaf6f74e	-0.0018842013
112	0x3ad07d95	0.0015906567
113	0xbdaf5ab3	-0.085622214
114	0x3d17dc02	0.03707505
115	0x3d8a2c47	0.067467265
116	0x3c8e8f74	0.017402388
117	0xbded97db	-0.1160123
118	0xbd9a1340	-0.07523203
119	0xbd3b112c	-0.045670673
120	0xbdb16d5c	-0.08663437
121	0x3de7d1ce	0.11319314
122	0xbd9b03b9	-0.075690694
123	0x3d84677a	0.06465049
124	0xbd815f04	-0.06316951
125	0x3dcf8f63	0.10134771
126	0xbd40b50a	-0.047047652
127	0x3da4ecba	0.080529645
128	0x3d726651	0.059179608
129	0xbd9a0125	-0.075197496
130	0x3d989c49	0.07451684
131	0x3d69e630	0.05710429
132	0xbe060b09	-0.13090147
133	0xbd62ea35	-0.05539914
134	0xbd9914a5	-0.07474641
135	0x3d62e87e	0.055397503
136	0x3ad8d9de	0.0016544422
137	0xbdbec265	-0.093144216
138	0x3d43479f	0.047675725
139	0x3d66c6b0	0.056341827
140	0xbdb8010a	-0.08984573
141	0xbd970de4	-0.07375696
142	0x3d84e0e6	0.064882085
143	0x3d48691d	0.04892837
144	0xbda3ba52	-0.07994522
145	0x3d70be97	0.05877551
146	0x3ca22f03	0.019797808
147	0x3d50c404	0.050968185
148	0x3c9fdbbe	0.01951396
149	0xbd18501c	-0.037185773
150	0x3dc42787	0.09577852
151	0xbdd17fac	-0.102294296
152	0xbdcfc09c	-0.10144159
153	0xbbff8eb9	-0.0077989963
154	0xbd0234b1	-0.03178853
155	0x3dfc6125	0.12323216
156	0x3c8e23a5	0.017350981
157	0xbd588048	-0.052856714
158	0xbdb72e4c	-0.08944377
159	0x3b51e275	0.0032025848
160	0xbd373b63	-0.04473437
161	0xbde33610	-0.11094296
162	0xbdae6d80	-0.08516979
163	0x3c5c30b8	0.01343935
164	0xbd92524c	-0.07144603
165	0xbdd2da1f	-0.102955095
166	0xbc4fc265	-0.012680625
167	0x3d18dcd4	0.037319973
168	0xbdda4a5e	-0.10658716
169	0xbe0444bf	-0.1291685
170	0xbd6a45a3	-0.057195317
171	0xbd4a3d24	-0.049374714
172	0x3cae60ef	0.021286456
173	0x3d844663	0.06458738
174	0xbe0ab4fc	-0.13545603
175	0xbd23b445	-0.03996684
176	0xbe075598	-0.13216245
177	0xbd9dbb76	-0.07701771
178	0xbd89becf	-0.06725847
179	0x3cdd3877	0.027004464
180	0xbd2c6eea	-0.042097963
181	0xbc94516f	-0.018105237
182	0x3db02b13	0.08601966
183	0x3cdcc4c1	0.026949288
184	0x3ceb76f0	0.028743237
185	0x3d32b49b	0.04362927
186	0xbd4343bf	-0.04767203
187	0xbde6cc88	-0.1126948
188	0xbdbedb7a	-0.093192056
189	0x3d91d9b2	0.071216
190	0x3dfec91d	0.12440703
191	0x3cf38c80	0.029730082
192	0xbb4db67a	-0.0031389282
193	0x3d5b04e8	0.053471476
194	0xbc6c31db	-0.014416183
195	0x3cf7df4e	0.030257847
196	0x3de3536a	0.11099894
197	0xbdefa121	-0.11700655
198	0x3db2ca09	0.087299414
199	0x3d685604	0.056722656
200	0xbdad6272	-0.084660426
201	0xbdd1c8f0	-0.10243404
202	0xbcbcb4cf	-0.023035435
203	0x3ccd1f7c	0.025039427
204	0xbc58f828	-0.013242759
205	0xbd8c19a8	-0.06840831
206	0xbc4c33ad	-0.012463492
207	0xbd7d5c8f	-0.06185585
208	0x3ce7acfa	0.028280724
209	0xbd58e565	-0.052953143
210	0xbd842f84	-0.064543754
211	0x3dc4b5f4	0.09605017
212	0xbcfd8bb1	-0.0309504
213	0xbd827aa6	-0.063710496
214	0x3db1bb28	0.08678275
215	0xbdcca8ce	-0.099931344
216	0xbdd4b344	-0.10385755
217	0xbc869c98	-0.016432092
218	0x3d0104e8	0.03149882
219	0xbcff4179	-0.03115915
220	0xbca6d28f	-0.020364074
221	0xbcfeef3e	-0.031119939
222	0xbb827430	-0.003981136
223	0x3d77cca8	0.06049791
224	0x3c08a650	0.008340433
225	0xbd8edb5b	-0.069754325
226	0x3e022cec	0.12712449
227	0xbd864a6f	-0.06557166
228	0x3b16c738	0.0023006927
229	0xbd7a9437	-0.061176505
230	0x3d8922f8	0.06696123
231	0xbd2ac2d9	-0.041689727
232	0xbd6c52d9	-0.057696197
233	0xbb14d19b	-0.0022707942
234	0xbdc99726	-0.098432824
235	0xbc4ea6a6	-0.012612974
236	0x3c007d4d	0.007842374
237	0xbad979b6	-0.0016592059
238	0x3d81bc8a	0.06334789
239	0x3bd56b40	0.0065130293
240	0xbd41ca00	-0.047311783
241	0x3d5e497f	0.05426931
242	0x3d848436	0.0647053
243	0x3d6d8d92	0.05799634
244	0x3d6ee18e	0.058320574
245	0xbdae1b2c	-0.085012764
246	0x3d0b0e06	0.03394892
247	0x3dcbc83b	0.099503
248	0xbd1681df	-0.03674495
249	0x3df79ff8	0.120910585
250	0x3ac03e2d	0.0014666967
251	0xbd4f8961	-0.050668124
252	0xbda33e43	-0.0797086
253	0xbdbc3f98	-0.09191817
254	0x3ce32ca6	0.027731251
255	0x3e0281b1	0.12744786

actor.2.bias f4 [64]
0	0xbd2c778e	-0.042106204
1	0x3d5874fa	0.052845933
2	0x3d0b0113	0.03393657
3	0xbdc997a7	-0.098433785
4	0x3d1b8591	0.037969176
5	0x3df351fd	0.118808724
6	0xbdc257b3	-0.094893835
7	0x3dbf12e3	0.09329774
8	0x3de07312	0.10959448
9	0xbd4df758	-0.050284714
10	0x3dc27519	0.09494991
11	0xb97a8599	-0.00023891627
12	0xbcd62dd6	-0.026144903
13	0x3dbf02e5	0.09326724
14	0xbce72039	-0.028213607
15	0xbcf29f67	-0.029617025
16	0xbd6427d9	-0.055702064
17	0xbd3783aa	-0.0448033
18	0xbdda17c6	-0.10649066
19	0x3d097fa5	0.033568997
20	0x3cefd0b0	0.029274315
21	0x3def4199	0.11682434
22	0xbd504474	-0.050846532
23	0xbcfc63ea	-0.030809361
24	0xbd00d504	-0.031453148
25	0xbd4647de	-0.04840838
26	0x3b9edf0e	0.0048483675
27	0xbd68f3ee	-0.056873254
28	0xbccec2ae	-0.025239315
29	0x3dc683e2	0.096931234
30	0xbd1e88e3	-0.038704764
31	0x3db8271f	0.08991837
32	0xbd2032c5	-0.039110918
33	0xbd8b3194	-0.06796566
34	0xbdc3a7df	-0.09553503
35	0x3d34eeac	0.044172928
36	0xbde91b43	-0.11382153
37	0xbcc90b02	-0.024541382
38	0xbdab73b4	-0.08371678
39	0x3c54bb99	0.01298418
40	0x3dd499c2	0.103808895
41	0x39cc2508	0.00038937503
42	0xbd13cf6e	-0.036086492
43	0x3d2e8cb9	0.042614672
44	0xbdc6b669	-0.09702761
45	0x3db7ab40	0.0896821
46	0xbdcee5ac	-0.101024
47	0xbddf6cb3	-0.109094046
48	0x3cbba673	0.022906518
49	0xbdfe7447	-0.12424522
50	0xbddd5b71	-0.10808457
51	0x3d299085	0.04139759
52	0x3d96089a	0.07325859
53	0x3deb76c8	0.11497265
54	0xbc6e9862	-0.014562698
55	0xbdf6aae1	-0.12044311
56	0x3d1ff59e	0.0390526
57	0x3d3c5328	0.04597774
58	0x3de02f23	0.109464906
59	0x3c68d7ba	0.0142115895
60	0xbdbb2b1b	-0.09139081
61	0xbd1bc812	-0.0380326
62	0x3d9c1567	0.0762127
63	0xbd8b47fb	-0.068008386

actor.4.weight f4 [6, 64]
0	0x3cd6ae76	0.026206236
1	0xbd8f4374	-0.069952875
2	0xbda2fd8b	-0.07958516
3	0xbd9e8e71	-0.07742012
4	0xbda8d9ae	-0.08244644
5	0x3ddf9f24	0.109190255
6	0x3d899406	0.06717686
7	0xbdb0a6c3	-0.08625557
8	0x3d921d9b	0.07134553
9	0xbda20e72	-0.079129115
10	0xbdcab27a	-0.09897323
11	0x3d035a53	0.03206856
12	0xbd5daa8d	-0.054117728
13	0xbd469722	-0.048483975
14	0xbd5e04c5	-0.054203767
15	0xbd4a8bd6	-0.049449764
16	0x3c491a57	0.012274346
17	0x3d730bad	0.059337307
18	0x3ce55b22	0.027997557
19	0x3d52b57b	0.051442605
20	0x3b9d106d	0.004793218
21	0xbd1fe09e	-0.03903257
22	0x3d9e2a8b	0.07722958
23	0x3c8616d6	0.01636831
24	0x3db77e84	0.08959678
25	0xbbb830ca	-0.0056210505
26	0xbd49ce60	-0.04926908
27	0xbda5b725	-0.08091573
28	0xbc64e145	-0.013969724
29	0xbd3a5f1f	-0.04550087
30	0xbcdab3dd	-0.026697094
31	0x3d8b3e61	0.06799007
32	0x3cc5999e	0.024121102
33	0x3de9c3ee	0.11414324
34	0xbd2ad981	-0.041711334
35	0x3c607880	0.013700604
36	0x3d4993b8	0.04921314
37	0xbd99295d	-0.074785925
38	0x3d977322	0.07395007
39	0xbda15f2e	-0.07879482
40	0xbd8692c2	-0.065709606
41	0x3db357ad	0.08756957
42	0x3d0dcb4a	0.0346177
43	0x3d5b7225	0.053575654
44	0xbb9cb249	-0.0047819954
45	0xbce1eea5	-0.027579615
46	0x3d3763bd	0.044772852
47	0xbb9244cf	-0.004463769
48	0xbdbe1213	-0.09280791
49	0xbd5168ea	-0.051125444
50	0x3d52074e	0.051276498
51	0x3d6c18cb	0.057640832
52	0x3d2c89c4	0.04212357
53	0x3d781125	0.060563225
54	0xbd7948b6	-0.06086036
55	0xbd8d3827	-0.06895476
56	0x3da8a4fa	0.08234592
57	0x3b41e992	0.0029588682
58	0x3db7442c	0.0894855
59	0x3dce53e9	0.10074598
60	0x3a37b1ed	0.0007007409
61	0xbd53e0ef	-0.051728185
62	0x3d4915aa	0.049092926
63	0xbd703b0f	-0.058650073
64	0x3dbe6ad7	0.09297722
65	0x3cff6837	0.031177623
66	0x3dc36e45	0.095425166
67	0x3d523338	0.051318377
68	0x3cb10cd4	0.021612562
69	0x3d315d3e	0.043301813
70	0xbca679c9	-0.020321744
71	0x3d4cf1ce	0.05003529
72	0x3c7da14f	0.0154803535
73	0x3d736e37	0.05943128
74	0xbad8fea6	-0.0016555383
75	0x3ca3d314	0.01999811
76	0x3c834b69	0.01602717
77	0xbcd7c428	-0.026338652
78	0xbc56f41d	-0.013119725
79	0x3da04006	0.078247115
80	0xbcb6e2a1	-0.022324862
81	0xbc78ef50	-0.015193775
82	0xbd69032a	-0.056887783
83	0xbd3aebfb	-0.045635205
84	0x3cd2f5a6	0.0257519
85	0x3db3a469	0.08771593
86	0x3b54a196	0.0032444946
87	0x3d6d51cc	0.057939336
88	0xbcb1ba8c	-0.021695398
89	0x3d988e9c	0.074490756
90	0xbdb0aefe	-0.08627127
91	0xbc42b3bd	-0.011883673
92	0xbda87543	-0.08225491
93	0x3cc8dd69	0.02451964
94	0x3ca60e2c	0.02027043
95	0x3dc3255d	0.09528611
96	0x3dba66ac	0.09101614
97	0xbda6d93d	-0.08146904
98	0xbd22f09d	-0.039780248
99	0xbd04cc11	-0.032421175
100	0x3d4af753	0.049552273
101	0xbd005fad	-0.031341244
102	0xbdd65af6	-0.10466568
103	0xbd3dd48b	-0.046345275
104	0x3de5577d	0.11198328
105	0x3dac3e2c	0.08410296
106	0xbc7e6159	-0.015526139
107	0xbd86fe85	-0.065915145
108	0xbce78bfe	-0.028264996
109	0xbd032172	-0.032014318
110	0x3d408179	0.046998475
111	0x3d387086	0.045029186
112	0x3d94fd87	0.07274919
113	0x3c99c643	0.018771296
114	0x3c9a1684	0.018809564
115	0x3da79c19	0.0818407
116	0x3d9c8f1f	0.07644486
117	0x3c907c0b	0.017637273
118	0xbd8ec394	-0.06970897
119	0xbdb115a5	-0.086467065
120	0x3da150eb	0.07876762
121	0xbde5327b	-0.11191269
122	0x3c18808e	0.009307994
123	0xbcb97181	-0.02263713
124	0x3dc153b2	0.09439792
125	0xbb9d227a	-0.0047953697
126	0xbd90ff70	-0.07079971
127	0xb8ab0628	-8.155062e-05
128	0x3d58f315	0.052966196
129	0x3d89a777	0.067213945
130	0xbd9c41fd	-0.07629774
131	0x3c4a315f	0.012340873
132	0xbd19114c	-0.03737001
133	0xbd95d56c	-0.073160976
134	0x3c7c0002	0.015380861
135	0xbbb63deb	-0.0055615804
136	0x3dc95b8b	0.098319136
137	0x3cccba19	0.024991082
138	0xbd9fe0b2	-0.07806529
139	0x3c39fdcf	0.011352017
140	0xbcb2ef5e	-0.021842655
141	0xbd6d3c84	-0.05791904
142	0xbd266664	-0.04062499
143	0x3cf1f578	0.029535994
144	0xbde4f494	-0.11179462
145	0xbd52308f	-0.05131584
146	0x3b6b6664	0.0035919184
147	0xbdb30a8d	-0.08742247
148	0xbaebe33b	-0.0017996797
149	0x3d982d69	0.07430536
150	0x3bc160b0	0.0059014186
151	0x3cfaed08	0.030630603
152	0xbda43a90	-0.080189824
153	0x3d8fcfb7	0.0702204
154	0x3dc9a8ea	0.09846671
155	0x3d67ce71	0.056593362
156	0x3d7974f7	0.060902562
157	0xbdb08c68	-0.0862053
158	0x3d5b8a11	0.053598467
159	0x3d02aaf1	0.031901304
160	0xbda5f49f	-0.081032984
161	0xbb85ff9d	-0.0040893094
162	0xbd520451	-0.051273648
163	0x3c1ec5d9	0.009690725
164	0x3ded101c	0.11575338
165	0xbd8c97bc	-0.068648785
166	0xbcea4dfd	-0.02860164
167	0x3c949ee5	0.018142173
168	0xbdb9e0b4	-0.09076062
169	0xbd842b25	-0.06453542
170	0x3dc72322	0.09723498
171	0x3ac6cc8a	0.0015167159
172	0x3d5aca1a	0.053415395
173	0x3da7f986	0.0820189
174	0xbd5e552b	-0.05428044
175	0xbdb2a301	-0.08722497
176	0x3daab7c6	0.08335833
177	0x3dc96a7d	0.09834764
178	0xbb7400a6	-0.0037231832
179	0xbca74bca	-0.020421881
180	0xbd4fd273	-0.05073781
181	0x3c2aa2fc	0.010414835
182	0x3c30bf2e	0.010787768
183	0xbd8d9b3b	-0.069143735
184	0x3c503560	0.012708038
185	0xbde21f0d	-0.11041079
186	0x3db0ccef	0.08632838
187	0xbd6df993	-0.05809934
188	0x3b84f06d	0.0040569813
189	0xbc1d7fc5	-0.009612982
190	0x3d5a48b2	0.053291984
191	0xbda6fa05	-0.08153156
192	0xbd2b6806	-0.04184725
193	0xbd982707	-0.07429319
194	0xbd10f0f3	-0.035386037
195	0x3d901fbd	0.070373036
196	0x3d685beb	0.056728285
197	0xbd8adc47	-0.06780296
198	0xbd8e89a0	-0.06959844
199	0x3bc206c2	0.0059212158
200	0xbcb63497	-0.022241874
201	0xbd835dea	-0.06414397
202	0x3c399c2c	0.011328738
203	0xbb90ec03	-0.004422666
204	0xbdbd81d8	-0.09253281
205	0xbd886209	-0.06659324
206	0xbc9a383b	-0.01882564
207	0x3c7b87d6	0.01535221
208	0x3d9ff97c	0.07811257
209	0xbd9427e7	-0.07234173
210	0x3d64ad71	0.05582947
211	0x3d5b3f01	0.053526882
212	0xbd4396d2	-0.047751255
213	0xbd851d4b	-0.06499728
214	0xbd150c8e	-0.036388926
215	0xbdd79fd4	-0.10528532
216	0xbbd5079a	-0.0065011503
217	0xbd2805d3	-0.04102118
218	0x3ba69d25	0.005084651
219	0x3d5e5847	0.054283407
220	0x39e8a106	0.0004437046
221	0xbd5091f8	-0.050920457
222	0xbcc31218	-0.023812339
223	0xbc9a96ea	-0.01887079
224	0x3da4021d	0.080082156
225	0x3d7d496a	0.06183759
226	0x3ce92077	0.028457863
227	0xbbbaa3bb	-0.0056957877
228	0xbdbef9e7	-0.09325009
229	0x3d8436a4	0.06455734
230	0x3985072d	0.00025373083
231	0xbccd8f9f	-0.025092898
232	0xbb38df4c	-0.0028209267
233	0xbd5661f2	-0.0523395
234	0xbdb6643c	-0.08905837
235	0x3d9b6d84	0.07589248
236	0xbd9f27ba	-0.07771249
237	0xbdb0b1d5	-0.08627669
238	0x3dc99cb7	0.09844344
239	0x3a107139	0.00055100356
240	0x3cbce562	0.023058597
241	0x3c254e3f	0.010089456
242	0x3c00a0ae	0.007850809
243	0x3d83c407	0.064338736
244	0xbd27705e	-0.040878646
245	0xbdeed770	-0.11662185
246	0xbd79e235	-0.061006743
247	0x3d007605	0.031362552
248	0x3ccd9574	0.025095679
249	0x3c641507	0.013921029
250	0xbd67c90d	-0.05658822
251	0x3d4b3110	0.049607337
252	0xbda2e3dc	-0.07953617
253	0x3c1168a0	0.008875042
254	0xbb8c061a	-0.0042731883
255	0x3d0afe46	0.0339339

actor.4.bias f4 [6]
0	0x3df0ec85	0.117638625
1	0x3dc1aa17	0.0945627
2	0x3d03eb1a	0.032206632
3	0x3dc274e8	0.09494954
4	0x3dd573b4	0.10422459
5	0x3d9245de	0.07142232

critic.0.weight f4 [64, 25]
0	0xbd1b2a95	-0.037882406
1	0x3ddf7c8f	0.109124295
2	0x3db06add	0.086141326
3	0xbd369739	-0.04457781
4	0x3e4eb677	0.20186792
5	0xbd5417e0	-0.05178058
6	0xbd37eba5	-0.044902463
7	0xbda8df4f	-0.08245718
8	0x3d27de9a	0.040983774
9	0xbd99d23f	-0.075108044
10	0x3cf9a2ac	0.030473076
11	0x3d2710e6	0.0407876
12	0xbda4df21	-0.08050371
13	0x3da14b5b	0.07875701
14	0x3e65ff01	0.22460558
15	0x3d9d1373	0.07669725
16	0x3d86e5bc	0.06586787
17	0xbd17eff0	-0.037094057
18	0x3dfa2ca0	0.12215543
19	0xbdf626e4	-0.120191365
20	0x3de55e3c	0.111996144
21	0xbe117c9c	-0.14207691
22	0x3de31bca	0.11089285
23	0x3e1a732b	0.15082996
24	0xbded05ce	-0.11573373
25	0xbe465a27	-0.19370328
26	0xbb38b6be	-0.0028185095
27	0xbd8be721	-0.06831194
28	0x3d87d335	0.066320814
29	0x3d307066	0.04307594
30	0xbd290855	-0.04126771
31	0xbcf35d6b	-0.029707631
32	0xbbc73998	-0.0060798638
33	0xbe340386	-0.17579469
34	0xbb3a71d9	-0.0028449206
35	0x3e3b94a3	0.18318419
36	0xbdd5400f	-0.10412609
37	0xbcfc89a3	-0.030827349
38	0x3e56beee	0.20971271
39	0x3d7f94bc	0.062397704
40	0xbde3afa1	-0.11117483
41	0x3d8a4159	0.06750745
42	0xbc9f6396	-0.019456666
43	0xbe61f8b3	-0.22067527
44	0x3e3cd0b9	0.18438996
45	0x3da36321	0.07977892
46	0x3da4b2d6	0.08041923
47	0xbdd17f92	-0.1022941
48	0x3cea9dad	0.028639639
49	0xbd9c8c23	-0.076439165
50	0x3e0f0eb1	0.13970448
51	0x3dd57da6	0.10424356
52	0x3df953ec	0.1217421
53	0xbd92de2f	-0.071712844
54	0x3d085f7f	0.033294197
55	0x3e11559e	0.14192817
56	0xbdb9f9f5	-0.09080879
57	0xbdc10cd5	-0.09426276
58	0xbc6e8076	-0.014556995
59	0xbe1a5c00	-0.15074158
60	0xbcaf088f	-0.021366386
61	0xbe40a89a	-0.18814316
62	0x3da5060b	0.08057793
63	0x3cdb1118	0.02674155
64	0xbdd6b99c	-0.10484621
65	0x3d327a90	0.043573916
66	0x3d4d868d	0.050177146
67	0x3e1c5e89	0.15270437
68	0x3de02216	0.109440014
69	0x3c6b2e8d	0.01435436
70	0x3d0c6234	0.03427334
71	0xbdc6703c	-0.09689376
72	0x3d48cddc	0.049024448
73	0x3e1dcac2	0.15409377
74	0xbe030169	-0.12793507
75	0x3cd39ce2	0.025831643
76	0x3dab7e88	0.08373743
77	0xbe1ba422	-0.1519933
78	0xbe4c758a	-0.19966713
79	0xbce9fe02	-0.028563503
80	0x3c80db6f	0.015729634
81	0xbd74b512	-0.059742995
82	0xbde16787	-0.110060744
83	0xbdfc45d5	-0.12318007
84	0x3e1b7123	0.15179877
85	0x3e1d82b4	0.1538189
86	0xbe352398	-0.17689359
87	0xbe1a76ae	-0.15084335
88	0x3e1f9ea3	0.15587859
89	0xbc8c9e9d	-0.017165476
90	0x3e30f67e	0.1728153
91	0x3da5297f	0.080645554
92	0x3e166752	0.14687851
93	0x3acc223e	0.001557417
94	0x3e539b46	0.20664701
95	0x3df94187	0.121707015
96	0x3d973762	0.0738361
97	0x3d0230fe	0.031785004
98	0x3dd9aa66	0.10628204
99	0xbd703d78	-0.05865237
100	0x3e12c829	0.14334168
101	0xbd330a0f	-0.043710764
102	0xbe0f8a7c	-0.14017671
103	0xbe161e6c	-0.14660043
104	0x3db66c9b	0.089074336
105	0x3e23586a	0.15951696
106	0xbe436cfb	-0.19084541
107	0xbdd31cf3	-0.10308256
108	0xbe1db4a6	-0.15400943
109	0x3bdc3bd5	0.0067209997
110	0x3e0cc5cf	0.13747333
111	0xbdcb4b3d	-0.0992646
112	0x3e2f1c70	0.17100692
113	0xbe3f1793	-0.18661337
114	0xbdc2c127	-0.09509497
115	0xbdb1ad0c	-0.08675584
116	0xbdffe359	-0.12494535
117	0x3d7b9dca	0.061429776
118	0x3e3bc0ad	0.18335219
119	0xbe153002	-0.14569095
120	0x3bae003d	0.005310087
121	0x3e1f4a31	0.15555646
122	0xbcd157b0	-0.025554508
123	0xbd3c3d41	-0.045956854
124	0xbdf0d8ff	-0.11760139
125	0xbd109c87	-0.035305526
126	0x3e3c421e	0.18384597
127	0x3e5a9492	0.21345738
128	0xbc385b2a	-0.011252204
129	0x3d7abab9	0.06121323
130	0x3da74041	0.08166552
131	0x3da1780f	0.078842275
132	0xbb948386	-0.0045322804
133	0x3e10a3a1	0.1412492
134	0xbe34a007	-0.1763917
135	0xbc08d1f4	-0.008350838
136	0xbd90c126	-0.0706809
137	0xbd8d432f	-0.0689758
138	0x3c4fc24c	0.012680601
139	0x3e4bea69	0.19913639
140	0xbd4316d9	-0.04762921
141	0xbd6e7d09	-0.05822471
142	0x3dcecb35	0.100973524
143	0x3e21fd8b	0.15819375
144	0xbd867a0d	-0.06566248
145	0x3dfef953	0.124498986
146	0xbe0fc98e	-0.14041731
147	0x3c9dec16	0.019277614
148	0xbe4419cb	-0.19150464
149	0xbdc2edc5	-0.09518007
150	0x3e037fe3	0.12841754
151	0x3e3be831	0.18350293
152	0xbc953b15	-0.01821665
153	0x3e344933	0.17606048
154	0xbdd942df	-0.10608458
155	0xbe1f2b2c	-0.15543813
156	0x3dbd5389	0.09244449
157	0xbd1eea41	-0.03879762
158	0xbe1df80b	-0.15426652
159	0xbddda7a5	-0.10822991
160	0x3dfda81a	0.123855785
161	0xbd98d5a2	-0.07462622
162	0xbcbe3970	-0.023220748
163	0xbe50ff26	-0.20409831
164	0xbc8844f7	-0.016634448
165	0xbdadf95d	-0.08494828
166	0x3dbadb82	0.09123899
167	0xbd5436fe	-0.051810257
168	0x3e0903f7	0.13380419
169	0x3e2ae0f9	0.16687383
170	0x3d8bec11	0.068321355
171	0x3e5dee5f	0.21672963
172	0x3e494c83	0.19658093
173	0x3dff3214	0.124607235
174	0x3e32da90	0.17466187
175	0x3c659424	0.01401237
176	0x3e061f9e	0.13097998
177	0x3e1a5eca	0.15075222
178	0xbe262166	-0.16223678
179	0xbe017094	-0.12640601
180	0x3ce382f9	0.027772414
181	0x3e1c9b8f	0.15293716
182	0x3e3a2941	0.181798
183	0xbc95bfd1	-0.018279942
184	0x3c2a5dd3	0.010398346
185	0x3e0d6b11	0.13810374
186	0xbc98dc08	-0.018659607
187	0xbdda00f5	-0.10644714
188	0x3db4a861	0.08821178
189	0x3d278610	0.040899336
190	0xbc88aec8	-0.016684905
191	0xbdbb7e1c	-0.09154913
192	0xbe02e574	-0.12782842
193	0xbd50cf5b	-0.050979
194	0x3d275652	0.040853806
195	0xbe2a54bd	-0.16633888
196	0x3dbb283e	0.09138535
197	0xbdad1a8f	-0.08452331
198	0x3da6a429	0.0813678
199	0xbe095dfa	-0.13414755
200	0xbe487489	-0.19575705
201	0x3e07b547	0.13252746
202	0xbde19cf0	-0.110162616
203	0xbc3cc0df	-0.011520593
204	0x3e3d0635	0.18459399
205	0xbe1e909d	-0.15484853
206	0x3d859838	0.06523174
207	0x3e326342	0.17420676
208	0xbdb3f9ba	-0.08787866
209	0x3d11768e	0.035513453
210	0x3d2782cf	0.040896233
211	0x3e054cbe	0.13017556
212	0x3e38510a	0.17999664
213	0x3dbaf089	0.0912791
214	0xbdd9b508	-0.10630232
215	0xbe30e103	-0.17273335
216	0xbb5c3c31	-0.0033605213
217	0xbd9c4714	-0.076307446
218	0xbe5aa76b	-0.21352927
219	0x3d93a415	0.072090305
220	0xbd0dc443	-0.034610998
221	0x3b57cae9	0.003292734
222	0xbdda0ca4	-0.10646942
223	0x3d411346	0.04713752
224	0xbca8fbf6	-0.020627957
225	0x3e4203a3	0.189467
226	0xbe0b0126	-0.13574657
227	0x3d0e7849	0.03478268
228	0x3dbaf134	0.09128037
229	0x3dcf7a25	0.10130719
230	0x3d03a030	0.03213519
231	0xbe2e75c0	-0.17037106
232	0xbdc34487	-0.09534555
233	0x3db95126	0.09048681
234	0x3dca90cd	0.098909
235	0xbe4a0c69	-0.19731297
236	0xbda16675	-0.0788087
237	0x3dccdb35	0.10002748
238	0x3d94c9fc	0.07265088
239	0x3dac83df	0.0842359
240	0x3e37a2ce	0.17933199
241	0xbdda8465	-0.106697835
242	0x3d8d9f23	0.069151185
243	0xbd68ecd6	-0.05686649
244	0x3d82c95f	0.06386065
245	0x3d7266df	0.059180137
246	0xbd9b08da	-0.07570048
247	0xbdd40bed	-0.10353837
248	0x3d7a4e16	0.061109625
249	0x3e13e095	0.1444114
250	0x3e4c3263	0.19941096
251	0xbaf4c5cd	-0.0018674672
252	0xbda294fc	-0.07938573
253	0xbe213bd2	-0.15745476
254	0x3e54c4eb	0.20778243
255	0xbb45c47b	-0.0030176926

critic.0.bias f4 [64]
0	0x3c6917c8	0.014226861
1	0x3e44a02d	0.19201727
2	0xbd889a03	-0.066700004
3	0xbdf71fb7	-0.12066596
4	0x3e370da7	0.17876302
5	0xbde00997	-0.10939329
6	0x3df0ec15	0.11763779
7	0x3dc35398	0.095374286
8	0x3ce92994	0.028462209
9	0xbe171e22	-0.14757589
10	0xbe4709db	-0.19437353
11	0xbe50c656	-0.20388159
12	0xbcabb97f	-0.020962475
13	0x3da857ba	0.082198575
14	0xbb39a4f8	-0.0028327089
15	0xbd3d701e	-0.0462495
16	0x3e1a6e76	0.150812
17	0x3e484383	0.19557004
18	0xbe142990	-0.1446898
19	0xbdbec6e3	-0.093152784
20	0x3c4508c7	0.012026018
21	0x3df8efc9	0.121551104
22	0x3ddbc4fe	0.10730933
23	0xbcb0c17a	-0.021576632
24	0xbe2b3110	-0.16717935
25	0xbde96f64	-0.11398199
26	0x3e164b06	0.14677057
27	0x3e219e61	0.15783073
28	0x3e4c29fb	0.1993789
29	0x3da0e072	0.078553095
30	0xbe2026e3	-0.15639834
31	0x3ddb2ff0	0.10702503
32	0x3e098255	0.13428624
33	0xbd6d1caf	-0.057888683
34	0x3d4a4d91	0.04939038
35	0xbdba7d90	-0.091059804
36	0xbd0b4e11	-0.034009997
37	0x3d0cb701	0.034354214
38	0xbe26ee3f	-0.16301821
39	0xbe15adb9	-0.14617051
40	0xbd836fba	-0.064177945
41	0x3d8da574	0.06916323
42	0xbd910652	-0.07081284
43	0xbdb55983	-0.08854964
44	0x3d9a9c88	0.07549387
45	0x3dff9f97	0.12481611
46	0xbd84c5be	-0.06483029
47	0xbd81b276	-0.06332867
48	0xbdd2c3d9	-0.10291261
49	0xbe0e7d5f	-0.13915013
50	0x3d5007a9	0.050788555
51	0xbe16a93d	-0.14712997
52	0xbe566a0d	-0.20938893
53	0x3e1cd806	0.15316781
54	0xbd9d36e2	-0.07676484
55	0xba663e96	-0.000878313
56	0x3d13eba1	0.036113385
57	0xbe185eb9	-0.14879884
58	0xbd998710	-0.07496464
59	0x3c144b9a	0.009051228
60	0x3e2123a5	0.15736254
61	0x3dc8f41f	0.098121874
62	0x3d2f70c8	0.042832166
63	0x3e1af089	0.1513082

critic.2.weight f4 [64, 64]
0	0x3d87fb31	0.06639708
1	0x3d4d955d	0.050191272
2	0x3de3c461	0.11121441
3	0x3d8ba943	0.068193935
4	0x3d9ab296	0.07553594
5	0x3d316fe5	0.0433196
6	0xbd004817	-0.03131875
7	0xbcf2be94	-0.02963189
8	0xbd442cd1	-0.047894303
9	0xbd99e916	-0.07515161
10	0x3d50247b	0.05081604
11	0x3df167e7	0.11787396
12	0xbd806151	-0.06268562
13	0x3dc496e8	0.095990956
14	0x3cdf5fb3	0.027267313
15	0x3d144fe1	0.03620899
16	0x3da13d08	0.07872969
17	0xbce0256f	-0.0273616
18	0x3d4765cb	0.04868106
19	0xbd088df3	-0.0333385
20	0x3d8b09b8	0.06788963
21	0xbdcb3df3	-0.09923925
22	0x3d8d04bc	0.06885669
23	0x3d93f5d4	0.07224622
24	0xbca79c83	-0.020460373
25	0xbd664a4e	-0.056223206
26	0xbda6ca65	-0.081440724
27	0x3d1d71d2	0.038438626
28	0xbe1f248a	-0.15541282
29	0xbcbc9c2d	-0.02302369
30	0x3cd14108	0.025543705
31	0xbda07672	-0.07835092
32	0x3cdf6f4b	0.027274748
33	0x3d834625	0.064098634
34	0xbde9cde6	-0.11416225
35	0xbdc67a8a	-0.09691341
36	0xbdb30a76	-0.0874223
37	0xbd517636	-0.051138125
38	0xbd3ef36b	-0.04661886
39	0xbd1a8c49	-0.037731443
40	0xbde304f5	-0.1108493
41	0xbd3a84bc	-0.04553674
42	0xbaebf3bb	-0.0018001714
43	0xbca46ed4	-0.020072378
44	0x3ba9043f	0.005157977
45	0xbd29f1bc	-0.0414903
46	0x3e00b842	0.12570289
47	0xbda5a0d5	-0.08087317
48	0x3dd5f04a	0.10446222
49	0x3d80768c	0.06272611
50	0xbddad4f8	-0.10685152
51	0xbdde5ba7	-0.10857325
52	0xbdb9de4b	-0.09075602
53	0x3d76a204	0.060213104
54	0x3d9e17c1	0.077193744
55	0xbcbde981	-0.023182632
56	0xbd3ef11a	-0.04661665
57	0x3cc36aaf	0.023854582
58	0x3d842124	0.064516336
59	0x3cfa5862	0.030559722
60	0x3cda923c	0.026681058
61	0x3d90c9a3	0.07069709
62	0xbcca6631	-0.024706932
63	0x3e0226db	0.12710135
64	0x3d9d864d	0.076916315
65	0xbdfc7cea	-0.12328513
66	0xbb8fa1e0	-0.0043833107
67	0xbdea1d5a	-0.114313796
68	0xbd14aaa8	-0.036295563
69	0x3bc6a17c	0.006061731
70	0xbdd6ca20	-0.10487771
71	0x3dd7799a	0.105212405
72	0xbd0e6114	-0.03476055
73	0x3cf747a2	0.030185524
74	0xbd8c9761	-0.06864811
75	0x3d257baa	0.04040114
76	0x3c9957c3	0.018718606
77	0xbdc294e5	-0.09501056
78	0x3d0a1465	0.033710856
79	0xbb1682c5	-0.0022966128
80	0xbd94ee30	-0.07271993
81	0xbd221007	-0.039566066
82	0x3d836b3d	0.064169385
83	0x3d0b49ef	0.034006055
84	0xbddc6506	-0.10761456
85	0xbcf4e698	-0.029895112
86	0x3cc6cd3d	0.024267787
87	0xba4f99b5	-0.00079193275
88	0x3ded2e4c	0.11581096
89	0xbe11790f	-0.14206336
90	0x3d43cf0e	0.047804885
91	0x3dde257d	0.10846994
92	0x3dc981a7	0.09839182
93	0xbdd08027	-0.10180693
94	0xbdb3dcfd	-0.087823845
95	0xbd1910a0	-0.03736937
96	0xbddd2c25	-0.107994355
97	0xbbaec4ef	-0.005333535
98	0xbd4c964d	-0.049948025
99	0x3db42398	0.087958515
100	0x3ca3d861	0.020000638
101	0xbcff20cf	-0.031143574
102	0x3dee4d79	0.116358705
103	0xbd1610c8	-0.036637098
104	0x3ce7da61	0.028302373
105	0x3dca1f45	0.098692454
106	0x3dd28ba8	0.102805436
107	0xbd139ac5	-0.03603627
108	0x3bf8f90f	0.0075980495
109	0x3df486d5	0.1193978
110	0xbd2392df	-0.03993499
111	0x3d7484f8	0.05969712
112	0x3dbdde1c	0.092708796
113	0x3cfcadba	0.030844558
114	0xbd6a9824	-0.057274
115	0x3d149208	0.03627208
116	0x3d7dc246	0.06195285
117	0xbd81f563	-0.06345632
118	0xbd490fe4	-0.04908742
119	0x3dbb3737	0.09141391
120	0xbda2da6b	-0.07951816
121	0xbddd4f91	-0.10806192
122	0x3bf70714	0.0075386856
123	0xbde74010	-0.11291516
124	0x3d01d25d	0.03169476
125	0x3cd7ab04	0.026326664
126	0x3dabe066	0.0839241
127	0x3d2322be	0.039828055
128	0xbdb303ab	-0.08740934
129	0xbcf5649c	-0.0299552
130	0xbc51cb1d	-0.012804774
131	0xbdae2ab5	-0.085042395
132	0xbd469dde	-0.048490398
133	0xbd0559ae	-0.03255623
134	0x3d8e9d35	0.069635786
135	0xbd64a00e	-0.055816703
136	0x3d7f13b7	0.06227466
137	0xbdc51e05	-0.096248664
138	0x3d4e6a77	0.0503945
139	0xbdfe530e	-0.12418185
140	0xbd634923	-0.05548967
141	0x3d1e6af5	0.03867622
142	0x3c3b9443	0.011448923
143	0xbd813744	-0.06309369
144	0xbb516b5f	-0.0031954867
145	0x3deb0798	0.11476058
146	0xbdde7f39	-0.108641095
147	0x3c007690	0.0078407675
148	0x3cb7d93e	0.022442456
149	0xbd850b60	-0.0649631
150	0xbcd85761	-0.026408853
151	0x3d4562bb	0.04818986
152	0x3da54d7b	0.08071419
153	0x3e026982	0.1273556
154	0xbd5b0cb8	-0.053478926
155	0x3d8cb32d	0.068701126
156	0x3e1cb8ce	0.15304872
157	0xbdf4cf5c	-0.11953613
158	0x3d8dea45	0.06929449
159	0xbd991cbf	-0.07476186
160	0xbdfccb35	-0.12343446
161	0xb9ecf69d	-0.0004519717
162	0xbdbc3184	-0.09189132
163	0xbdf51f81	-0.119688995
164	0xbd552bfd	-0.052043904
165	0xbdabb3f4	-0.08383933
166	0x3c474056	0.012161335
167	0x3dcd88ab	0.10035833
168	0xbbc43480	-0.005987704
169	0x3d821921	0.06352449
170	0xbccad2ca	-0.024758715
171	0xbde936f0	-0.113874316
172	0xbdaaada0	-0.083338976
173	0x3d3f06a8	0.046637207
174	0xbe0a8436	-0.13526997
175	0x3d957257	0.07297199
176	0xbd8b8baa	-0.06813748
177	0xbcc91027	-0.024543835
178	0xbd966b47	-0.0734468
179	0xbde39807	-0.11112981
180	0xbd35de24	-0.044401303
181	0x3e000352	0.12501267
182	0x3dbf909e	0.093537554
183	0x3dfe126e	0.12405859
184	0xbd6a3b26	-0.057185315
185	0xbcb5b223	-0.022179669
186	0x3d8a6243	0.06757023
187	0xbd8612ed	-0.065465786
188	0xbd1f40ce	-0.038880162
189	0x3ca6744d	0.020319128
190	0xbc15ca25	-0.009142433
191	0xbd478097	-0.048706617
192	0x3d223ef4	0.039610818
193	0x3daccd0f	0.08437549
194	0x3c981534	0.018564798
195	0xbdf0ac0d	-0.11751566
196	0x3cb371d6	0.021904867
197	0xbd6ad055	-0.057327587
198	0xbd4c4a52	-0.049875565
199	0x3c60ee18	0.013728641
200	0xbdcdac9d	-0.10042689
201	0x3d2e01cd	0.042482186
202	0x3b60b4b8	0.0034287404
203	0xbcbcd718	-0.023051783
204	0xbd42b873	-0.047539186
205	0xbd9eea41	-0.07759524
206	0x3dda3cd6	0.10656135
207	0xbde99277	-0.11404889
208	0x3d4ba36e	0.049716406
209	0x3d23e8f6	0.04001709
210	0x3d110e58	0.03541407
211	0xbc0129fa	-0.007883543
212	0xbd577761	-0.052604083
213	0xba4d0e5c	-0.0007822269
214	0x3dd12261	0.102116354
215	0x3dfbdab5	0.122975744
216	0xbdfd7b27	-0.12377005
217	0xbd46937d	-0.0484805
218	0x3cad247c	0.021135561
219	0x3dfad53d	0.12247703
220	0xbdafb5c2	-0.085795894
221	0xbdee76fb	-0.116437875
222	0x3d1271dc	0.035753116
223	0x3d900751	0.070326455
224	0xbd15da09	-0.036584888
225	0xbdd32109	-0.10309035
226	0xbd8daa86	-0.069172904
227	0x3dc5fb72	0.096671
228	0xbd289004	-0.04115297
229	0x3d1d38e3	0.03838433
230	0x3d86c966	0.065813825
231	0x3dc06cac	0.093957275
232	0xbc4af3d2	-0.012387233
233	0xbe05971b	-0.13045923
234	0x3d1ccef4	0.038283303
235	0xbd2e2c72	-0.042522855
236	0xbd65f322	-0.056140073
237	0x3d8dd8b8	0.069261014
238	0x3db44cc5	0.08803705
239	0x3d863723	0.06553485
240	0x3db825c4	0.08991578
241	0x3d4712d0	0.048601925
242	0x3d7cf719	0.06175909
243	0xbd8171ba	-0.0632052
244	0x3dc03d43	0.09386685
245	0xbd81931c	-0.06326887
246	0x3b076716	0.002066081
247	0x3dce5db1	0.10076464
248	0x3d778e56	0.060438477
249	0xbc5cb23f	-0.013470232
250	0x3bed7c16	0.007247458
251	0x3d2aec1c	0.041729078
252	0xbd97304b	-0.07382258
253	0xbda2a333	-0.07941284
254	0xbd88432c	-0.06653437
255	0xbd5f2b05	-0.054484386

critic.2.bias f4 [64]
0	0x3d89f4d4	0.067361504
1	0xba0240f1	-0.00049687835
2	0xbd44d369	-0.04805318
3	0xbd8ccff3	-0.06875601
4	0xbe016f10	-0.12640023
5	0xbdb28e8f	-0.08718597
6	0xbda81d15	-0.08208672
7	0x3d57e19f	0.052705403
8	0x3dcac8ff	0.09901618
9	0xbd0be2cf	-0.03415185
10	0x3d85a58c	0.06525716
11	0xbde2df87	-0.11077791
12	0x3d2193e1	0.03944767
13	0x3cfadb99	0.03062229
14	0xbc602658	-0.013681017
15	0xbdad087f	-0.08448886
16	0xbd89cc32	-0.067284
17	0x3d6d9978	0.058007687
18	0x3dfb4bb3	0.12270298
19	0xbd5e67d8	-0.054298252
20	0x3dc39aa1	0.095509775
21	0x3d1157d6	0.035484158
22	0x3c53993b	0.012914951
23	0x3bdd8a04	0.0067608375
24	0x3dcf545f	0.101235144
25	0xbdefcc8e	-0.117089376
26	0x3b9bb274	0.004751498
27	0xbbfa0d67	-0.007630992
28	0xbd64ac72	-0.05582852
29	0x3da11b40	0.07866526
30	0xbc86678c	-0.016406797
31	0x3d0aa622	0.033849843
32	0x3d2f7bfd	0.042842854
33	0xbc6cd6c6	-0.014455503
34	0xbd84fd80	-0.06493664
35	0xbcc76c17	-0.024343533
36	0x3da05c3c	0.07830092
37	0x3d73a97f	0.059487816
38	0xbd82803f	-0.06372117
39	0xbdd10c3f	-0.10207414
40	0x3ca199a4	0.019726582
41	0xbda90331	-0.08252562
42	0xbdad0772	-0.08448686
43	0xbd12f8ef	-0.035881933
44	0x3d375eb7	0.04476806
45	0x3de511fd	0.111850716
46	0xbdd344ad	-0.10315833
47	0x3df08989	0.11744983
48	0x3dada605	0.08478931
49	0x3ddc1120	0.10745454
50	0x3dbba1b8	0.09161705
51	0xba9f8e7c	-0.0012173201
52	0xbdd6d314	-0.10489479
53	0xbd3780b4	-0.044800475
54	0xbd0e211f	-0.034699555
55	0x3d1e29be	0.038614027
56	0x3d830bbb	0.06398722
57	0xbd53e44f	-0.051731404
58	0xbd7f4db8	-0.062329978
59	0xbda3d9f8	-0.080005586
60	0x3db378b3	0.08763256
61	0xbe14884e	-0.14505121
62	0x3b7324ba	0.0037100748
63	0x3de5a14e	0.11212407

critic.4.weight f4 [1, 64]
0	0x3ab203ff	0.0013581513
1	0x3b3baa75	0.0028635536
2	0xbc12b342	-0.008953871
3	0x3d5de7bf	0.05417609
4	0x3dd6f8a7	0.104966454
5	0x3d0da5e0	0.03458202
6	0xbdc0e814	-0.094192654
7	0xbd2375b7	-0.039907183
8	0x3dd7f5a5	0.105449
9	0xbd5c5f17	-0.053801622
10	0xbdf36346	-0.11884169
11	0x3c0d5750	0.008626774
12	0x3d95d39f	0.07315754
13	0x3d8e7803	0.06956484
14	0x3d506521	0.050877694
15	0x3b9ddfde	0.004817947
16	0xba9d27ef	-0.001199005
17	0xbdc073d7	-0.09397095
18	0xbdbae309	-0.09125335
19	0x3d38b144	0.04509093
20	0xbd10ff3d	-0.035399664
21	0xbb943ea7	-0.0045240703
22	0xbb88370d	-0.004156953
23	0x3d4011be	0.04689192
24	0xbc27808f	-0.010223522
25	0x3cde0eab	0.027106604
26	0x3d4cf5df	0.05003917
27	0x3d882bab	0.06648954
28	0x3da19411	0.078895696
29	0x3d52a0fb	0.051423054
30	0x3dc49be1	0.09600044
31	0xbc34a256	-0.011025032
32	0x3c42804f	0.011871411
33	0x3d831e9e	0.06402324
34	0x3b8adc71	0.0042377044
35	0x3d158845	0.03650691
36	0x3d5dc404	0.054142013
37	0x3db80294	0.08984867
38	0xbb366956	-0.0027833781
39	0xbd519e3f	-0.051176306
40	0x3db16b9e	0.086631045
41	0x3c272c4b	0.010203431
42	0x380e4df1	3.3928027e-05
43	0xbc3f12cb	-0.011662195
44	0x3d3263dc	0.043552265
45	0xbd2dd3cd	-0.042438317
46	0xbd6a77d8	-0.0572432
47	0xbdbd9cd7	-0.092584305
48	0x3d266043	0.040619146
49	0x3cb3ef3f	0.021964667
50	0xbcbae0a5	-0.022812197
51	0xbd241b49	-0.040065084
52	0x3c2bd271	0.010487185
53	0x3cc2c937	0.023777587
54	0x3bfd60bf	0.0077324803
55	0xbc8d5ea2	-0.017257039
56	0xba366c68	-0.0006958903
57	0xbd9c01e9	-0.07617552
58	0xbac9843a	-0.001537449
59	0x3a043c95	0.0005044428
60	0x3b3de495	0.0028975357
61	0xbb0783ca	-0.0020677918
62	0x3ced5ffe	0.028976437
63	0x3c69a80c	0.014261257

exp_avg f4 [6]
0	0xbb8bb6a4	-0.004263716
1	0xbb9833ef	-0.004644863
2	0xbb4b3e92	-0.0031012637
3	0x3ad24f04	0.0016045277
4	0xba8c3e04	-0.0010699634
5	0xba80c0c5	-0.0009823075

exp_avg_sq f4 [6]
0	0x3656be65	3.199931e-06
1	0x36dee646	6.642923e-06
2	0x36cac4d8	6.0429848e-06
3	0x370a1f59	8.23274e-06
4	0x36a7f323	5.0052927e-06
5	0x36dcf84e	6.5854174e-06
