04-goal-pose-l6/logs/rsl_rl/joint_position/2026-02-18_14-34-58/model_7850.pt (torch, 161397 bytes, 36 tensors)

std f4 [6]
0.096637316 0.027982473 0.0033620046 0.046262383 0.05051537 0.0027990302
00000000: c9e9 c53d 803b e53c 1455 5c3b a07d 3d3d
00000010: 34e9 4e3d ef6f 373b

actor.0.weight f4 [64, 25]
-0.044083763 0.27030376 -0.34804633 -0.24742171 -0.3355238 -0.20092045 0.032931685 -0.11421049
0.15730408 -0.13762356 0.057316918 0.023388123 -0.1894198 -0.3357214 -0.41396037 -0.3394303
-0.5015536 -0.13854459 0.5499705 -0.005451572 0.32519835 -0.48043796 0.08525764 -0.10443156
-0.114040785 0.1796613 0.12674901 -0.37051195 -0.41558143 -0.083930865 -0.42683667 -0.13526791
0.10183216 0.059961215 0.014423524 -0.0897592 -0.055322666 -0.27138254 -0.01558542 -0.40724635
-0.22365554 1.0340762 -0.29230174 -0.9926635 0.083584234 0.14410706 -0.255544 -0.21468027
0.20908132 -0.24492422 -0.32882714 0.21694764 -0.10159288 0.15736023 -0.24433334 0.12731719
-0.25649378 0.22194709 0.123099506 0.028914982 0.03141804 0.116773576 -0.42269415 -0.109754056
-0.06440781 -0.2264813 0.56013346 -0.30191502 -0.52304214 -0.1820972 -0.28364956 0.00065665826
0.14303663 0.10407056 -0.009960094 0.16449851 0.25269064 -0.08620814 -0.6754725 0.13634615
-0.5946194 0.10279301 0.09146448 -0.06896995 -0.16724494 0.06571192 0.0015829544 -0.36446494
-0.22340722 -0.33398077 -0.34607083 0.5229952 -0.29514518 -0.62126815 0.14009814 0.11141541
-0.19410165 0.17248529 -0.118376784 -0.032138065 -0.2180306 -0.48896348 0.30254292 0.11716496
-0.29650137 0.12345906 0.12357208 0.046334986 -0.0045183985 -0.039930254 -0.015093508 0.06548312
-0.00023911743 0.23408939 -0.7476614 -0.025163399 -1.476561 0.11441221 1.4944844 -0.11206812
0.05054887 -0.098419 0.042670533 -0.06244508 -0.04710843 0.5368442 -0.5072736 0.18959007
0.22896999 0.8010046 0.12941821 -0.07039167 0.06114583 -0.03806746 0.21477762 -0.21304263
-0.0102826115 -0.558708 -0.9432819 -0.35981107 0.057962965 0.9395066 -0.10134339 -0.7869637
0.3911201 0.107142024 -0.16329591 0.016608758 -0.012970171 0.07144538 0.04020283 0.50376093
-0.10484509 -0.12844329 -0.75397027 -0.30611885 -0.19253646 -0.3356316 0.12635979 -0.002067403
0.15487549 0.07339961 -0.17865245 2.3855681 0.8437358 -0.080405764 0.4266117 0.05061144
-0.26703823 -0.27103862 0.24842031 -0.06958308 0.11043589 -0.07421881 0.0058522224 -0.2185873
0.35421878 0.097075574 0.0938669 -0.38786465 -0.32015875 0.055331714 0.10819263 0.07962837
-0.015180236 -0.010377419 -0.22505794 -1.040566 0.9921347 -0.010360164 0.30298394 -0.023029916
0.028990963 -0.081340365 0.07174448 0.15700151 0.028896013 0.08907827 -0.020786872 -0.0578927
0.20048039 1.0579125 -0.30272898 -0.21053316 -0.4072997 0.2395921 -0.09766023 0.059856992
-0.12025837 -0.26732555 0.054224517 0.09763505 -0.15493062 -2.0239365 0.54888636 0.005040329
-1.3752671 0.18763955 1.4514629 0.118993446 0.34144157 -0.09827309 0.18511954 0.046057727
0.08334087 -0.3708125 -0.06596114 0.2268494 -0.24853325 -0.47271284 -0.08839147 -0.11269582
0.09672628 -0.12423871 -0.04412236 -0.025471834 0.07474275 -0.66995746 1.1713455 0.5983492
0.18061058 -1.005703 0.15097868 1.1175026 -0.0930387 -0.15915161 0.11570705 0.10429513
-0.054216705 -0.17918992 -0.99328566 0.35052687 -0.6855899 0.30685028 -0.9042659 0.46834597
00000000: 2d91 34bd 4165 8a3e 2133 b2be 1e5c 7dbe
00000010: c7c9 abbe 17be 4dbe 60e3 063d 30e7 e9bd
00000020: 5214 213e 31ed 0cbe 25c5 6a3d 7398 bf3c
00000030: 44f7 41be ade3 abbe 9df2 d3be cfc9 adbe
00000040: d165 00bf a2de 0dbe deca 0c3f 1aa3 b2bb
00000050: 6680 a63e f7fb f5be 8f9b ae3d 37e0 d5bd
00000060: 378e e9bd 22f9 373e 7eca 013e beb3 bdbe
00000070: 17c7 d4be f2e3 abbd 568a dabe ac83 0abe
00000080: 618d d03d e499 753d a550 6c3c acd3 b7bd
00000090: 059a 62bd a7f2 8abe fd59 7fbc 9882 d0be
000000a0: f505 65be 9c5c 843f 93a8 95be 321f 7ebf
000000b0: 362e ab3d cd90 133e aad6 82be 25d5 5bbe
000000c0: 6a19 563e 6acd 7abe 085c a8be 8627 5e3e
000000d0: ee0f d0bd 0a23 213e 8532 7abe 705f 023e
000000e0: 2753 83be 1946 633e 981b fc3d 1ddf ec3c
000000f0: 34b0 003d fc26 ef3d 5e6b d8be bcc6 e0bd
00000100: 3ee8 83bd b7ea 67be e864 0f3f 9b94 9abe
00000110: 17e6 05bf b077 3abe 843a 91be 9723 2c3a
00000120: 3278 123e f222 d53d a92f 23bc 4c72 283e
00000130: ab60 813e e58d b0bd c4eb 2cbf 539e 0b3e
00000140: fa38 18bf 2485 d23d bb51 bb3d 1e40 8dbd
00000150: 4242 2bbe f993 863d 237b cf3a 269b babe
00000160: ddc4 64be 87ff aabe 3230 b1be 03e3 053f
00000170: 451d 97be 6e0b 1fbf e375 0f3e c32d e43d
00000180: 95c2 46be fc9f 303e 876f f2bd 34a3 03bd
00000190: 6a43 5fbe 6c59 fabe e8e6 9a3e 2ff4 ef3d
000001a0: 07cf 97be 1bd8 fc3d 5c13 fd3d c1c9 3d3d
000001b0: 130f 94bb e88d 23bd c34a 77bc 041c 863d
000001c0: 99bb 7ab9 21b5 6f3e bd66 3fbf 7923 cebc
000001d0: f3ff bcbf f350 ea3d 444b bf3f f883 e5bd
000001e0: 550c 4f3d e78f c9bd 4cc7 2e3d 6ac6 7fbd
000001f0: c5f4 40bd 9f6e 093f afdc 01bf e623 423e
00000200: 1c77 6a3e a30e 4d3f 3586 043e 8229 90bd
00000210: 0d74 7a3d a0ec 1bbd aaee 5b3e d927 5abe
00000220: 6678 28bc 7d07 0fbf ec7a 71bf 2839 b8be
00000230: 936a 6d3d 8183 703f 208d cfbd 7476 49bf
00000240: e540 c83e 476d db3d 0b37 27be 170f 883c
00000250: d780 54bc f551 923d b9ab 243d 7af6 003f
00000260: 06b9 d6bd a386 03be 3204 41bf 9cbb 9cbe
00000270: 4728 45be e8d7 abbe 7664 013e 447d 07bb
00000280: ae97 1e3e 8952 963d abf0 36be 26ad 1840
00000290: 12ff 573f c7ab a4bd d96c da3e f14d 4f3d
000002a0: 3cb9 88be 93c5 8abe e561 7e3e 9381 8ebd
000002b0: 362c e23d 0800 98bd 00c4 bf3b 59d5 5fbe
000002c0: 2a5c b53e 8fcf c63d 4a3d c03d 3296 c6be
000002d0: d9eb a3be 82a3 623d 1994 dd3d 3314 a33d
000002e0: 86b6 78bc 0d06 2abc 9775 66be 4431 85bf
000002f0: 8afc 7d3f adbd 29bc b620 9b3e 3ca9 bcbc
00000300: 757e ed3c c795 a6bd c5ee 923d 01c5 203e
00000310: 55b7 ec3c ab6e b63d 3b49 aabc e520 6dbd
00000320: bb4a 4d3e ad69 873f 4bff 9abe 0196 57be
00000330: 9689 d0be a257 753e 1602 c8bd 9b2c 753d
00000340: 054a f6bd e5de 88be 871a 5e3d e3f4 c73d
00000350: 22a6 1ebe 2d88 01c0 d183 0c3f 5829 a53b
00000360: c108 b0bf 9524 403e 89c9 b93f d6b2 f33d
00000370: 6ed1 ae3e 6743 c9bd fa8f 3d3e 07a7 3c3d
00000380: 9eae aa3d 23db bdbe a216 87bd 364b 683e
00000390: 807f 7ebe 6b07 f2be 9606 b5bd 11cd e6bd
000003a0: 6e18 c63d dd70 febd a6b9 34bd 4faa d0bc
000003b0: ba12 993d 5582 2bbf a6ee 953f 6a2d 193f
000003c0: fbf1 383e e0ba 80bf 289a 1a3e 530a 8f3f
000003d0: 138b bebd a4f8 22be d1f7 ec3d af98 d53d
000003e0: 5612 5ebd 907d 37be f847 7ebf 4278 b33e
000003f0: d282 2fbf 7b1b 9d3e f87d 67bf 0bcb ef3e

actor.0.bias f4 [64]
-0.27317962 -0.43552956 -0.22693452 -0.5190157 -0.09965973 -0.29683125 -0.07729776 0.1241771
-0.04865595 0.16388802 -0.052779097 -0.2311571 -0.15075888 -0.062388413 0.028481398 -0.14806966
0.061022025 0.19909565 -0.09864133 -0.07180585 0.042278253 -0.06189254 -0.0017229952 -0.204893
0.04846257 -0.20304705 0.052190024 -0.005140604 -0.17703629 0.34219447 -0.1554525 -0.29564592
-0.010517416 -0.03393723 0.1101879 0.19683076 0.034647346 -0.40946418 0.15368228 -0.34869602
-0.013320595 -0.06873558 -0.1928308 0.11368104 0.020619022 -0.22897656 0.08738909 -0.039393403
0.0092058955 0.1524264 -0.12526017 -0.20790921 -0.23669548 -0.21623842 0.04404096 -0.2527139
0.00869359 -0.18298638 0.13946097 0.027315704 0.13351038 -0.04124764 0.22442809 0.17139167
00000000: 33de 8bbe bbfd debe 8661 68be 37de 04bf
00000010: 671a ccbd 44fa 97be 4a4e 9ebd 9050 fe3d
00000020: 764b 47bd 43d2 273e e52e 58bd 72b4 6cbe
00000030: 8960 1abe fe8a 7fbd d251 e93c 939f 17be
00000040: 3bf2 793d bbdf 4b3e 7704 cabd f20e 93bd
00000050: f62b 2d3d 0883 7dbd 20d6 e1ba 78cf 51be
00000060: b080 463d 91eb 4fbe 35c5 553d 8372 a8bb
00000070: 0049 35be 1d34 af3e f12e 1fbe e75e 97be
00000080: 3d51 2cbc c401 0bbd 32aa e13d 018e 493e
00000090: 60ea 0d3d 4aa5 d1be e35e 1d3e 4988 b2be
000000a0: a03e 5abc 3dc5 8cbd 7075 45be 9bd1 e83d
000000b0: 39e9 a83c d578 6abe 0df9 b23d fa5a 21bd
000000c0: 53d4 163c ab15 1c3e 3444 00be 27e6 54be
000000d0: 4d60 72be 9b6d 5dbe 4b64 343d b763 81be
000000e0: 8f6f 0e3c c860 3bbe dbce 0e3e 2fc5 df3c
000000f0: f2b6 083e 49f3 28bd 7ad0 653e 4c81 2f3e

actor.2.weight f4 [64, 64]
0.19686966 0.1561676 -0.0011106016 0.14835532 -0.088830866 -0.03457588 -0.015579328 0.057486452
-0.10152772 -0.19605239 0.080415435 0.06031378 -0.030279616 0.19947998 -0.030563893 0.031362344
-0.13710915 -0.015817203 -0.05114052 -0.08029185 0.05414214 -0.05755674 -0.18661776 -0.06837218
-0.031767927 -0.1515038 0.01801501 0.18147305 0.150113 -0.0537191 0.00139609 0.009186656
0.11326553 0.16824606 -0.12060121 0.117161795 0.09886365 0.11451427 0.17681113 0.10899157
0.050410822 0.12704113 -0.019687515 -0.060370542 -0.09679314 0.1708468 -0.17382951 -0.073782556
-0.18606967 -0.23854364 0.015195327 -0.033401366 0.18248597 0.02822789 0.08140059 -0.0015964987
-0.017204404 0.056106914 -0.15800057 -0.062219582 0.021008715 -0.011178135 -0.12256902 0.06474907
-0.051372442 -0.11539474 0.24795017 0.035482623 -0.12867188 0.23630612 0.11517587 0.24280812
-0.012162355 0.11796096 -0.25415662 -0.02119535 0.05677833 0.14928901 -0.12187701 0.026768018
0.026333375 -0.07726694 -0.09790848 -0.12030378 0.1664091 0.123348735 -0.2289251 0.03991281
-0.20371464 -0.006788204 0.09697103 0.005920708 0.07730255 0.18622197 -0.18292424 -0.17860664
0.12413846 0.14826609 -0.089343295 0.091937 -0.015551262 0.041590545 0.11462482 -0.03671604
0.0046941023 0.08129701 0.013528063 -0.028370865 0.058996428 0.022163378 -0.1603381 -0.06999408
0.34140047 -0.19146423 -0.07099202 -0.085089885 0.014948214 -0.30441952 -0.053330798 0.39510554
-0.009959138 -0.07183665 -0.11640847 0.029461859 -0.3855778 -0.0829444 0.107580915 -0.11221799
0.17671438 0.5868428 -0.22846787 0.33638042 -0.19148526 -0.17048205 0.12653658 0.088058636
-0.13171794 -0.11236112 -0.033635523 0.225125 -0.2467086 0.3342642 0.22445288 0.06310064
-0.31059057 -0.013078297 -0.04908764 -0.113820545 0.07708882 -0.12888819 -0.0218829 -0.1694841
0.13604248 -0.020434732 0.34595618 0.21606766 0.21873803 0.0048782905 -0.06394324 0.022807723
0.24734181 0.21805313 -0.02949401 -0.020465964 -0.05401321 0.057885308 0.28095603 0.201716
-0.1984028 0.47256377 -0.2674652 -0.275681 0.042452857 0.19666539 0.029239444 -0.102280706
-0.15072367 -0.01108423 -0.10943414 -0.103394344 0.25362054 -0.008859934 0.12767595 0.11619374
-0.04153151 0.009416356 0.14491504 0.20761281 0.10474163 -0.01156244 -0.13013124 -0.011112528
0.04967438 0.10076537 -0.15081108 -0.084299475 0.12893033 -0.09777614 -0.3406436 -0.28942588
-0.22447637 -0.43759367 -0.06953828 -0.078367576 0.2172977 0.19814183 -0.069819525 -0.07202314
0.17733231 -0.043169167 0.14166312 0.3991714 -0.07780192 -0.002002079 0.2106288 -0.042089004
0.055203393 0.007298221 -0.05886755 -0.06439379 -0.01273949 -0.25762188 0.20464224 0.101061754
-0.09851193 0.02005031 -0.34036195 0.0915011 -0.0034748865 -0.080683775 -0.026806826 0.038323954
0.18195637 0.16447364 0.14302672 0.029330492 0.14132373 0.13850817 0.28888348 0.21333414
-0.32108343 0.17661881 0.37979743 -0.18693975 0.09522859 0.29745474 -0.14622791 -0.45900556
0.09692053 0.10275264 -0.16517474 -0.09537526 0.5775482 0.07387578 0.21765243 0.17080581
00000000: 3398 493e 66ea 1f3e 9b91 91ba 75ea 173e
00000010: f5ec b5bd 709f 0dbd 7040 7fbc ea76 6b3d
00000020: c4ed cfbd f5c1 48be d9b0 a43d 950b 773d
00000030: f50c f8bc 7b44 4c3e 2161 fabc cd75 003d
00000040: 5766 0cbe 1493 81bc b978 51bd 0e70 a4bd
00000050: 26c4 5d3d 9ec0 6bbd ba18 3fbe b706 8cbd
00000060: 161f 02bd d023 1bbe 3794 933c 12d4 393e
00000070: 39b7 193e 8f08 5cbd 02fd b63a a183 163c
00000080: c2f7 e73d b248 2c3e c4fd f6bd 86f2 ef3d
00000090: 0679 ca3d 7586 ea3d fa0d 353e f936 df3d
000000a0: 947b 4e3d 1217 023e b647 a1bc 1a47 77bd
000000b0: 7b3b c6bd 77f2 2e3e 5d00 32be 4f1b 97bd
000000c0: 0c89 3ebe c944 74be d2f5 783c dfcf 08bd
000000d0: 9add 3a3e 2d3e e73c 5ab5 a63d 9b41 d1ba
000000e0: 40f0 8cbc 5dd0 653d e7ca 21be f6d9 7ebd
000000f0: 781a ac3c 7f24 37bc 7705 fbbd 299b 843d
00000100: e96b 52bd 1454 ecbd a6e6 7d3e 3a56 113d
00000110: 90c2 03be 3bfa 713e 54e1 eb3d b1a2 783e
00000120: 9d44 47bc 8495 f13d d120 82be dfa1 adbc
00000130: 6590 683d 38df 183e a79a f9bd 9a48 db3c
00000140: 17b9 d73c 213e 9ebd 3e84 c8bd d461 f6bd
00000150: 2667 2a3e 439e fc3d 576b 6abe 9d7b 233d
00000160: 929a 50be 956f debb bf98 c63d 8002 c23b
00000170: cd50 9e3d f9b0 3e3e 7e50 3bbe a9e4 36be
00000180: 4e3c fe3d 11d3 173e 9ef9 b6bd 7749 bc3d
00000190: b8ca 7ebc d95a 2a3d 6bc0 ea3d 8f63 16bd
000001a0: fcd0 993b 0c7f a63d cfa4 5d3c 046a e8bc
000001b0: 3da6 713d f98f b53c ac2f 24be 0e59 8fbd
000001c0: 0bcc ae3e 330f 44be 4464 91bd 9b43 aebd
000001d0: 5be9 743c e0dc 9bbe 6571 5abd 464b ca3e
000001e0: a72b 23bc 181f 93bd 9067 eebd ff59 f13c
000001f0: 746a c5be c1de a9bd 6253 dc3d 8cd2 e5bd
00000200: 9df4 343e 543b 163f 7bf3 69be 0e3a ac3e
00000210: b614 44be d992 2ebe ce92 013e 1658 b43d
00000220: 11e1 06be 961d e6bd 67c5 09bd 2b87 663e
00000230: 2ea1 7cbe ad24 ab3e fad6 653e e93a 813d
00000240: ba05 9fbe 5a46 56bc 1f10 49bd bf1a e9bd
00000250: bee0 9d3d 44fb 03be c443 b3bc 3d8d 2dbe
00000260: b84e 0b3e bd66 a7bc 2b21 b13e d740 5d3e
00000270: ddfc 5f3e 11da 9f3b acf4 82bd 43d7 ba3c
00000280: 2c47 7d3e 5249 5f3e 6c9d f1bc 3da8 a7bc
00000290: f53c 5dbd 2519 6d3d 78d9 8f3e a48e 4e3e
000002a0: 1b2a 4bbe e1f3 f13e 33f1 88be 0f26 8dbe
000002b0: 0ce3 2d3d a762 493e 8f87 ef3c 8c78 d1bd
000002c0: 4e57 1abe a19a 35bc 021f e0bd 6ac0 d3bd
000002d0: 8dda 813e 4229 11bc 7cbd 023e fcf6 ed3d
000002e0: f21c 2abd 0f47 1a3c 9c64 143e 7498 543e
000002f0: c882 d63d 6370 3dbc 2041 05be 5211 36bc
00000300: 5d77 4b3d 135e ce3d 386e 1abe 34a5 acbd
00000310: 5006 043e db3e c8bd d768 aebe a12f 94be
00000320: 22dd 65be 470c e0be 166a 8ebd 2e7f a0bd
00000330: 4a83 5e3e b1e5 4a3e 8afd 8ebd de80 93bd
00000340: 9a96 353e 27d2 30bd 2310 113e 3260 cc3e
00000350: 9d56 9fbd 5035 03bb 13af 573e 8565 2cbd
00000360: f41c 623d ea25 ef3b 1a1f 71bd e4e0 83bd
00000370: 4bb9 50bc 04e7 83be bc8d 513e 77f9 ce3d
00000380: 9fc0 c9bd 8c40 a43c ec43 aebe ee64 bb3d
00000390: ecba 63bb 893d a5bd fd99 dbbc 94f9 1c3d
000003a0: c552 3a3e c76b 283e 9975 123e 8046 f03c
000003b0: 2bb7 103e 16d5 0d3e 89e8 933e 4474 5a3e
000003c0: 0c65 a4be 90db 343e cf74 c23e 226d 3fbe
000003d0: 3507 c33d fd4b 983e c5bc 15be c702 ebbe
000003e0: 457e c63d fa6f d23d 9123 29be 1b54 c3bd
000003f0: 33da 133f 2f4c 973d 47e0 5e3e b8e7 2e3e

actor.2.bias f4 [64]
-0.19372177 0.025006799 -0.3590386 -0.08900048 0.1573847 -0.24516796 -0.005326035 -0.33022463
-0.18452866 0.13880213 -0.22369154 0.15005322 -0.15181153 -0.057590872 -0.09183205 -0.016774196
-0.13657099 0.16560018 -0.02565152 -0.3208809 0.24899584 0.08643338 -0.3375319 -0.017988257
0.1565544 -0.085011184 -0.1309354 0.059564702 -0.08110867 -0.08265247 -0.47699067 0.08388775
-0.29389042 0.013558929 -0.49588892 -0.3128717 -0.0047923657 -0.10775963 0.2551818 -0.014794324
0.025966203 -0.11805811 -0.011578998 0.05327638 -0.03801432 0.03556799 0.020293027 -0.013881911
0.049116533 -0.045188915 0.16402856 -0.23470467 -0.3405584 -0.02897589 -0.428572 -0.19916321
-0.05699184 -0.25613955 -0.06534353 -0.071512766 -0.046660893 0.0049566342 0.06549499 -0.21826024
00000000: 005f 46be 0fdb cc3c e8d3 b7be e245 b6bd
00000010: 7429 213e 4f0d 7bbe 0586 aebb 3413 a9be
00000020: 15f5 3cbe 2522 0e3e 650f 65be 8da7 193e
00000030: 7b74 1bbe 68e4 6bbd 7112 bcbd 0a6a 89bc
00000040: 44d9 0bbe 1893 293e 2323 d2bc 804a a4be
00000050: c4f8 7e3e fc03 b13d fbd0 acbe 1c5c 93bc
00000060: cc4f 203e 581a aebd ee13 06be 1efa 733d
00000070: 4d1c a6bd b345 a9bd 1f38 f4be 57cd ab3d
00000080: ce78 96be 4526 5e3c 27e5 fdbe b830 a0be
00000090: 4709 9dbb 15b1 dcbd 30a7 823e e463 72bc
000000a0: 13b7 d43c 73c8 f1bd d6b5 3dbc 5538 5a3d
000000b0: e7b4 1bbd beaf 113d 903d a63c f470 63bc
000000c0: 6b2e 493d 0318 39bd 1af7 273e 6c56 70be
000000d0: ac5d aebe d85e edbc ca6d dbbe 71f1 4bbe
000000e0: 4770 69bd b924 83be d4d2 85bd 4975 92bd
000000f0: 7e1f 3fbd 436b a23b 3d22 863d 9d7f 5fbe

actor.4.weight f4 [6, 64]
-0.07646082 0.08781248 -0.003226005 0.037371606 0.01957681 0.22311673 -0.07640881 -0.026875217
0.12928346 0.15988271 -0.081636414 0.15214618 -0.31360972 -0.13700949 0.17064482 0.11473373
-0.06606697 0.051956642 0.009470712 0.08068104 -0.057998188 0.0426384 0.038251236 0.09574949
-0.09213952 0.10593183 0.22541562 0.05605398 -0.10186157 -0.09038748 0.048584547 0.20689239
-0.038790807 -0.02913433 0.07938299 -0.29912183 -0.26597854 0.11440618 -0.038954247 -0.004186068
-0.067855865 -0.11095528 0.24608736 0.14992526 0.23106372 0.16313127 0.092716634 -0.10392829
-0.057176117 0.037087303 0.08488235 -0.076089054 -0.07951688 0.12655932 -0.07167821 -0.07750991
-0.05280599 -0.07829877 0.009630256 -0.08661758 -0.082567595 -0.11419977 0.041239627 0.20743026
-0.031057676 -0.13380885 -0.03656127 0.35460758 0.033951987 0.16178553 -0.22845303 0.10586614
0.043742456 0.015767016 -0.08604514 -0.21778634 -0.019706562 -0.049124718 -0.23391166 0.015470398
-0.055427436 -0.13968848 -0.052171923 0.028289132 -0.057856034 -0.011738912 -0.009837574 0.094596066
-0.05956026 -0.19422707 -0.042934325 -0.21470729 -0.13071226 -0.059387974 0.09728957 0.06532511
-0.063418105 -0.034550223 0.07932238 -0.15948777 -0.12350112 -0.081020325 0.04417854 0.0026090362
-0.16881134 -0.08415088 0.09461883 0.15947852 -0.016347481 -0.11581901 -0.18902718 -0.055018913
0.085424304 0.03670368 -0.013016625 -0.12977645 0.014684304 -0.1506284 -0.04684178 -0.021490827
-0.04367971 -0.15530322 0.24717654 -0.21050717 -0.1477703 -0.08113358 -0.16193542 0.20733577
-0.03661531 0.017009003 0.023870828 -0.065249994 0.10815779 -0.07208741 0.13242199 -0.09541881
0.1020818 0.11364208 0.062176608 -0.06949465 0.041817848 -0.12740684 -0.271427 0.032607265
-0.25227275 0.041611824 -0.13443924 -0.08195667 0.10728851 -0.12299572 0.13068824 -0.11082172
0.007937918 -0.06460398 -0.10701194 0.071199074 -0.2048199 -0.075076 -0.24535993 0.036450237
-0.087284125 0.032008354 -0.09143241 0.069383115 0.33062238 0.13472849 0.034567237 -0.014168679
0.0290544 -0.03986295 0.066502094 0.13531455 0.22732791 0.010246618 0.07148101 -0.02387795
0.15644467 0.13487647 0.05721731 -0.059373677 -0.13175565 0.0671168 0.042150795 -0.06875281
-0.04701642 -0.121725224 -0.11954344 -0.08195893 -0.1208261 -0.093070515 -0.07289145 0.15171514
-0.11122723 0.04744926 -0.3411193 -0.010037977 0.17010885 -0.17225476 -0.059375618 -0.35332215
-0.06261133 0.09953134 -0.06407044 0.07534683 -0.053972352 -0.12847729 0.057746325 0.1529959
-0.13871387 -0.109955184 0.015068454 -0.33107942 0.20406729 0.06753269 -0.19257064 0.07103499
0.07279281 -0.07782429 0.04175893 -0.028516766 -0.0788132 -0.012222261 -0.37282538 0.098158225
-0.20801933 0.047083437 -0.29014593 -0.054807734 0.02813666 -0.04129044 0.1961443 -0.1411946
0.26411006 -0.06615172 0.14076185 0.06630233 -0.03957549 -0.079182684 -0.047787197 0.021516996
0.06490136 0.0507659 -0.07910151 -0.10285708 -0.27441803 0.03105131 -0.23624302 -0.15574236
-0.13023219 -0.15608728 0.08220875 0.112048574 0.04682544 -0.04939405 0.1106953 -0.03728518
00000000: 7e97 9cbd 08d7 b33d 626b 53bb f812 193d
00000010: 8c5f a03c b678 643e 397c 9cbd 6a29 dcbc
00000020: e262 043e 4bb8 233e fe30 a7bd 35cc 1b3e
00000030: 7491 a0be 374c 0cbe 84bd 2e3e 85f9 ea3d
00000040: 1f4e 87bd 7dd0 543d 0c2b 1b3c 1a3c a53d
00000050: 828f 6dbd 9aa5 2e3d 54ad 1c3d 4f18 c43d
00000060: a5b3 bcbd caf2 d83d 5ad3 663e dc98 653d
00000070: cc9c d0bd 121d b9bd 9700 473d 99db 533e
00000080: 1ce3 1ebd 1eab eebc 8d93 a23d 7f26 99be
00000090: 572e 88be ca4d ea3d 7d8e 1fbd 492b 89bb
000000a0: 04f8 8abd 863c e3bd 53fe 7b3e 0286 193e
000000b0: f89b 6c3e e20b 273e 38e2 bd3d 5bd8 d4bd
000000c0: 8131 6abd dbe8 173d ccd6 ad3d 94d4 9bbd
000000d0: bfd9 a2bd c498 013e 06cc 92bd 84bd 9ebd
000000e0: 184b 58bd 1b5b a0bd 39c8 1d3c 8f64 b1bd
000000f0: 3319 a9bd 92e1 e9bd e2ea 283d 9968 543e
00000100: ab6c febc 3005 09be 45c1 15bd 208f b53e
00000110: 3d11 0b3d 1bab 253e 97ef 69be 59d0 d83d
00000120: 4a2b 333d d429 813c 6f38 b0bd 6203 5fbe
00000130: a86f a1bc 0037 49bd 8a86 6fbe 8d77 7d3c
00000140: e107 63bd 7f0a 0fbe 3ab2 55bd 9cbe e73c
00000150: 73fa 6cbd 9154 40bc c72d 21bc 95bb c13d
00000160: 76f5 73bd 76e3 46be e7db 2fbd 3adc 5bbe
00000170: 6fd9 05be ce40 73bd c13f c73d 2cc9 853d
00000180: 5ae1 81bd 8984 0dbd c673 a23d c350 23be
00000190: 28ee fcbd fced a5bd 8ff4 343d 5dfc 2a3b
000001a0: e1dc 2cbe 4c57 acbd 84c7 c13d 564e 233e
000001b0: 27eb 85bc 8432 edbd 5790 41be 835b 61bd
000001c0: f0f2 ae3d 9956 163d af43 55bc 1ee4 04be
000001d0: 6f96 703c 553e 1abe 2bdd 3fbd 880d b0bc
000001e0: 7fe9 32bd cf07 1fbe d91b 7d3e 318f 57be
000001f0: 1951 17be 5d29 a6bd 66d2 25be d44f 543e
00000200: eff9 15bd 7756 8b3c c18c c33c caa1 85bd
00000210: d581 dd3d 90a2 93bd a199 073e f06a c3bd
00000220: 4310 d13d 2ebd e83d e6ac 7e3d 3653 8ebd
00000230: 3149 2b3d f076 02be 7bf8 8abe 328f 053d
00000240: e529 81be 2971 2a3d 71aa 09be e6d8 a7bd
00000250: 14ba db3d 2ee5 fbbd 23d3 053e 7ff6 e2bd
00000260: 0b0e 023c 174f 84bd 1329 dbbd d2d0 913d
00000270: 4fbc 51be 72c1 99bd a23f 7bbe d84c 153d
00000280: 05c2 b2bd 311b 033d ea40 bbbd bc18 8e3d
00000290: 5647 a93e 44f6 093e 6096 0d3d bf23 68bc
000002a0: 7e03 ee3c 5547 23bd 4032 883d e68f 0a3e
000002b0: a6c8 683e 6ee1 273c a364 923d b19b c3bc
000002c0: 0833 203e 0f1d 0a3e b35c 6a3d d031 73bd
000002d0: f4ea 06be 8874 893d 50a6 2c3d 46ce 8cbd
000002e0: 4a94 40bd 134b f9bd 31d3 f4bd 15da a7bd
000002f0: ad73 f7bd c19b bebd 1d48 95bd 375b 1b3e
00000300: 1acb e3bd 285a 423d 30a7 aebe 5476 24bc
00000310: 0431 2e3e 8d63 30be d933 73bd a4e6 b4be
00000320: 5e3a 80bd 16d7 cb3d 5d37 83bd 704f 9a3d
00000330: 1d12 5dbd 8d8f 03be 6987 6c3d f5aa 1c3e
00000340: 020b 0ebe 2f30 e1bd ade1 763c 3e83 a9be
00000350: 04f7 503e 944e 8a3d 3d31 45be cb7a 913d
00000360: 6614 953d 5762 9fbd 690b 2b3d fe9b e9bc
00000370: d168 a1bd e13f 48bc f8e2 bebe 2e07 c93d
00000380: 0503 55be 90da 403d 028e 94be 137e 60bd
00000390: da7e e63c 2a20 29bd 0dda 483e 5195 10be
000003a0: 6f39 873e 8e7a 87bd e023 103e 84c9 873d
000003b0: e919 22bd 882a a2bd 82bc 43bd 6944 b03c
000003c0: 01eb 843d e8ef 4f3d f9ff a1bd bca6 d2bd
000003d0: 8580 8cbe 515f fe3c b1e9 71be ed7a 1fbe
000003e0: 965b 05be 58d5 1fbe 105d a83d b979 e53d
000003f0: 08cc 3f3d 6a51 4abd 38b4 e23d 58b8 18bd

actor.4.bias f4 [6]
-0.2079103 -0.014568093 0.11661493 0.30481157 0.07462347 0.2598558
00000000: 70e6 54be 03af 6ebc cfd3 ee3d 4310 9c3e
00000010: 31d4 983d d20b 853e

critic.0.weight f4 [64, 25]
0.17543632 0.07910452 0.08854906 -0.13257654 0.08109732 -0.08539989 -0.015688594 -0.055819333
0.039551403 -0.068945065 0.031198159 -0.04482939 -0.03805942 0.19715115 -0.19444 -0.14078341
0.94824386 -0.023934705 -0.8632799 0.055308428 -0.036550134 -0.13649668 0.058737326 -0.079934254
0.058593653 0.29483578 -0.11025073 -0.24974449 -0.20681958 -0.1244784 -0.010758513 0.11278438
0.17946273 -0.2214784 -0.14123169 -0.07546993 0.11318242 -0.11744374 0.5021433 -0.09160477
0.00941963 0.10002093 -0.017782722 -0.25151235 -0.013300531 -0.037643325 0.094438754 -0.084740564
-0.17035636 0.098366536 -0.1603734 -0.010095166 -0.01758034 0.05769518 0.08322705 0.16800636
0.0021280071 0.06001971 0.036850005 -0.02177201 -0.07364027 0.06241482 0.2822863 -0.6874179
-0.24333137 0.21212544 -0.35181493 -0.103080645 0.10585634 -0.058340237 -0.048624676 0.092249826
-0.036911678 0.035750523 -0.04057606 -0.24800788 0.00017436 0.0204543 0.13065097 -0.20545894
-0.11045487 0.22061376 -0.29443085 0.12968272 -0.14174628 0.103246175 0.04152658 0.29160085
-0.4019098 0.17638232 -0.18513662 0.06757991 0.16510144 0.10387945 0.07130796 0.18305193
0.07049686 0.11847957 -0.096445724 -0.11795181 0.21564543 -0.08289506 0.22227123 -0.18538971
-0.06865879 -0.19487265 0.13558696 0.042023476 -0.023162883 -0.12309119 0.015068559 -0.08067007
-0.17226866 1.0261663 0.43646482 0.07030434 0.21172662 0.052602462 -0.14174654 -0.09990969
0.14417847 0.05085728 0.13875161 0.043816313 -0.017634138 -0.4281435 -0.15126537 0.030628921
-0.03130536 0.031618085 0.19458348 -0.0989499 0.06613451 0.025897209 -0.044133864 -0.028629187
-0.018838057 -0.0073988447 -0.31985426 -0.28806135 -0.101345025 -0.56560016 0.033860955 0.46214458
-0.032697957 0.03902756 0.062791474 0.0020132456 0.032219857 -0.054848596 0.16723166 0.17887029
-0.14581642 -0.052357223 0.14781393 0.036732685 -0.059649333 0.08617501 -0.018528394 -0.10382604
0.099096745 0.112864904 -0.15597704 0.54776263 0.1669199 0.00011204941 0.5148686 -0.14844789
-0.33868808 0.048705477 0.02226437 0.046171423 0.06452995 0.05489477 -0.12845036 -0.26815996
-0.16915807 -0.31040654 0.0974141 0.14888814 0.02759983 0.04467414 -0.03853915 0.02209104
0.16231778 0.07984085 -0.019324288 0.068864204 0.9331548 -0.44674733 0.18816812 0.15355104
-0.13176422 -0.1954944 -0.16615236 -0.08168973 0.050987523 0.067268774 -0.063501686 -0.10262684
0.23015505 -0.18578011 0.061343238 -0.12123013 0.048953447 -0.043570634 0.03480953 -0.10973569
0.10163584 -0.119577706 0.11216997 -0.01442488 0.03297804 -0.21134117 -0.33241013 -0.13323675
0.16117576 0.12605782 0.0034669724 -0.037762433 0.11045876 -0.09607569 0.14867559 -0.20004013
0.09018509 -0.15531816 -0.15539442 0.054083273 -0.10493464 0.086326204 -0.11644922 0.015704148
0.027757289 0.067651205 -0.032402515 0.0001269724 0.013664974 0.40303513 4.6449466 -0.77328044
-0.24304806 0.6620616 -0.25332168 -0.5287833 -0.05360941 0.011334864 0.021290468 0.060586073
-0.01262734 0.030913653 0.116151586 -0.11430464 -0.1868554 -0.08442347 0.080663316 0.028496776
00000000: 94a5 333e 8d01 a23d 3659 b53d 25c2 07be
00000010: 5a16 a63d 23e6 aebd 5e85 80bc d0a2 64bd
00000020: a700 223d 1233 8dbd 4893 ff3c 069f 37bd
00000030: 32e4 1bbd fee1 493e 481b 47be 8729 10be
00000040: 1cc0 723f b712 c4bc e9ff 5cbf 178b 623d
00000050: 98b5 15bd c9c5 0bbe 8d96 703d 92b4 a3bd
00000060: e6ff 6f3d b7f4 963e 22cb e1bd 05bd 7fbe
00000070: 83c8 53be 88ee febd 7944 30bc 7ffb e63d
00000080: 14c5 373e 3ccb 62be 0a9f 10be fb8f 9abd
00000090: 2fcc e73d 5886 f0bd 778c 003f 489b bbbd
000000a0: cb54 1a3c c6d7 cc3d 12ad 91bc 3ac6 80be
000000b0: 78ea 59bc e32f 1abd 1b69 c13d 768c adbd
000000c0: e671 2ebe 6574 c93d ed38 24be 3266 25bc
000000d0: a504 90bc c851 6c3d f272 aa3d dc09 2c3e
000000e0: 0976 0b3b 3ad7 753d 08f0 163d 375b b2bc
000000f0: b6d0 96bd afa6 7f3d d487 903e 9ffa 2fbf
00000100: dc2b 79be 6937 593e 1621 b4be f21b d3bd
00000110: 35cb d83d 2cf6 6ebd ab2a 47bd 7aed bc3d
00000120: b330 17bd 246f 123d 1533 26bd c7f5 7dbe
00000130: 68d4 3639 c78f a73c 5ec9 053e d463 52be
00000140: 2a36 e2bd 93e8 613e a4bf 96be 8ccb 043e
00000150: f025 11be bb72 d33d c617 2a3d b54c 953e
00000160: 1fc7 cdbe 919d 343e 7494 3dbe 5667 8a3d
00000170: 5a10 293e c0be d43d e809 923d f771 3b3e
00000180: a860 903d 6ba5 f23d 5685 c5bd b890 f1bd
00000190: 28d2 5c3e e3c4 a9bd 129b 633e cdd6 3dbe
000001a0: fb9c 8cbd b28c 47be 4fd7 0a3e cf20 2c3d
000001b0: 16c0 bdbc 3c17 fcbd 1ee2 763c 5a36 a5bd
000001c0: 3267 30be 6b59 833f 5178 df3e b9fb 8f3d
000001d0: ddce 583e ae75 573d 0126 11be 749d ccbd
000001e0: 85a3 133e b94f 503d e714 0e3e bc78 333d
000001f0: 7875 90bc a035 dbbe 4fe5 1abe 81e9 fa3c
00000200: 0d3a 00bd f781 013d e440 473e 3fa6 cabd
00000210: 8871 873d 6226 d43c b6c5 34bd c287 eabc
00000220: 4552 9abc 0272 f2bb f0c3 a3be c77c 93be
00000230: fb8d cfbd 2ccb 10bf c9b1 0a3d 379e ec3e
00000240: 4bee 05bd 5ddb 1f3d d198 803d a8f0 033b
00000250: f8f8 033d eca8 60bd c73e 2b3e c629 373e
00000260: e650 15be 8774 56bd 895c 173e 0375 163d
00000270: dc52 74bd 867c b03d dcc8 97bc bfa2 d4bd
00000280: 3cf3 ca3d b725 e73d 72b8 1fbe 2c3a 0c3f
00000290: 0ded 2a3e 12fc ea38 6ece 033f b902 18be
000002a0: 8668 adbe 657f 473d c563 b63c 3f1e 3d3d
000002b0: 4728 843d 57d9 603d 7e88 03be 434c 89be
000002c0: c637 2dbe 9bed 9ebe 0b81 c73d 2276 183e
000002d0: 0a19 e23c 3bfc 363d 3adb 1dbd 45f8 b43c
000002e0: a236 263e 9983 a33d f84d 9ebc ad08 8d3d
000002f0: 3ce3 6e3f 11bc e4be 25af 403e 7c3c 1d3e
00000300: 33ed 06be af2f 48be d823 2abe f24c a7bd
00000310: 4bd8 503d 36c4 893d 2c0d 82bd 052e d2bd
00000320: c4ad 6b3e 243d 3ebe 0c43 7b3d 8147 f8bd
00000330: 6983 483d 1f77 32bd 7094 0e3d 1bbd e0bd
00000340: 7426 d03d 28e5 f4bd 5fb9 e53d 5556 6cbc
00000350: fb13 073d d269 58be a931 aabe 376f 08be
00000360: 420b 253e 4d15 013e 2536 633b c8ac 1abd
00000370: 3438 e23d 55c3 c4bd 6a3e 183e 52d7 4cbe
00000380: f6b2 b83d b90b 1fbe b71f 1fbe 6c86 5d3d
00000390: f9e7 d6bd cbcb b03d ee7c eebd fca5 803c
000003a0: 4163 e33c b78c 8a3d 80b8 04bd e523 0539
000003b0: 0ee3 5f3c 9f5a ce3e 67a3 9440 b5f5 45bf
000003c0: 97e1 78be de7c 293f 61b3 81be 585e 07bf
000003d0: 8a95 5bbd deb5 393c 5969 ae3c 1a29 783d
000003e0: e7e2 4ebc a13e fd3c e2e0 ed3d 8d18 eabd
000003f0: 0657 3fbe 36e6 acbd cf32 a53d 1272 e93c

critic.0.bias f4 [64]
0.18234585 0.20794737 -0.15595399 -0.008232782 0.036658425 -0.18663076 0.13968387 -0.13374037
-0.010285531 0.08691984 0.14860469 0.076937206 -0.1712658 -0.034990717 0.06654731 -0.015453537
-0.19456306 0.034008365 0.02810499 0.08167818 0.16855083 0.07603668 0.08000613 0.15316643
-0.011592818 -0.013140306 -0.055236634 -0.011476221 0.073599905 0.15709423 0.043634824 -0.10541199
-0.016867284 -0.117216304 0.25372186 -0.08414888 0.041717906 -0.10941663 -0.027885191 0.11633779
-0.17102067 -0.16014156 -0.062252935 0.15452369 -0.014972062 0.007996701 -0.13646217 0.11480267
0.009803006 0.14913815 0.029614737 -0.018966744 -0.08627257 -0.11005419 0.17868847 0.04781698
-0.12297534 0.08927853 -0.13534945 0.10841462 -0.1456505 0.0031624977 0.010716183 0.041936677
00000000: dfb8 3a3e 28f0 543e 67b2 1fbe cae2 06bc
00000010: 2527 163d 221c 3fbe 4a09 0f3e 3cf3 08be
00000020: a584 28bc 0703 b23d d42b 183e 4191 9d3d
00000030: 4d60 2fbe 6d52 0fbd f549 883d d530 7dbc
00000040: 8a3b 47be 5b4c 0b3d 703c e63c e446 a73d
00000050: 9798 2c3e 1eb9 9b3d 41da a33d a9d7 1c3e
00000060: ceef 3dbc 704a 57bc cf3f 62bd c206 3cbc
00000070: 8cbb 963d 4fdd 203e 6eba 323d 3ee2 d7bd
00000080: 422d 8abc 1a0f f0bd d5e7 813e 3f56 acbd
00000090: 65e0 2a3d d315 e0bd 7c6f e4bc 8242 ee3d
000000a0: 0b20 2fbe 26fc 23be effc 7ebd 753b 1e3e
000000b0: 614d 75bc 9804 033c bdbc 0bbe aa1d eb3d
000000c0: ca9c 203c acb7 183e 9b9a f23c 2560 9bbc
000000d0: acaf b0bd 1764 e1bd 1cfa 363e bddb 433d
000000e0: 7fda fbbd a9d7 b63d 0c99 0abe 7c08 de3d
000000f0: 6825 15be e841 4f3b ee92 2f3c cbc5 2b3d

critic.2.weight f4 [64, 64]
-0.11131035 -0.037081663 -0.20596859 0.04334273 0.055532355 -0.13641587 0.06960113 0.051549606
-0.022155903 -0.15173072 0.094782315 0.01974665 -0.052603595 0.09352654 -0.019897694 -0.10050388
-0.061367698 -0.032673392 -0.025061581 -0.08240787 0.10034662 0.13715383 0.08958697 0.014648963
0.027771238 0.037286136 0.100807555 0.050825417 -0.09003424 0.035755657 0.061099865 -0.115421936
0.12751335 0.09901495 -0.035735894 0.06153462 -0.13296714 0.054225344 -0.017915528 0.10303167
-0.18644482 -0.019129533 -0.0781184 -0.10518851 0.03860072 -0.14951114 0.013411474 0.13661101
-0.026829518 0.08193228 0.12151005 -0.023871914 0.0939678 0.10789889 -0.038493704 -0.02237799
0.0020134258 -0.072970465 0.06550772 -0.09523946 0.011773632 0.11214079 -0.050834715 0.015325921
-0.010037762 0.040167347 0.01581383 -0.0041072727 -0.06179836 0.14840804 -0.032579165 -0.054886468
-0.061438777 0.038493432 0.17028847 -0.088597864 0.09110569 -0.027598454 0.020632396 -0.06714236
0.034525122 0.067788735 0.10133153 -0.049205188 -0.014114804 0.069021106 -0.039726738 0.13429084
0.16232589 0.11203869 -0.109015435 0.040444314 -0.083630696 0.11594984 -0.06964393 0.12862165
0.00023928598 -0.124065235 -0.054074187 -0.10541541 -0.106799684 0.04630662 -0.07209232 -0.059174914
-0.020462325 0.057923347 0.076483734 0.020707775 -0.0017562219 -0.009059424 -0.01397142 -0.07831782
-0.16882583 -0.056116104 -0.005921513 0.08883685 0.1087883 -0.017251492 -0.12117471 -0.104916796
0.11862992 0.028191684 0.113266654 -0.08928662 -0.14300099 0.08701999 -0.07813335 0.05179949
0.11063089 -0.023344895 -0.087899685 0.011591159 -0.046884157 0.0054306877 -0.09009163 0.08595629
-0.037000373 -0.009104328 -0.0144313285 0.010308376 -0.1339856 -0.031271692 0.0541328 -0.06857958
0.10974206 0.008787076 0.044824295 -0.13188772 -0.03940908 0.14232735 0.0030340613 0.027969606
0.12912989 0.05362453 -0.07365077 0.006206473 -0.024499578 0.10266488 0.050671093 0.11272427
0.026355937 -0.04804465 -0.00886621 -0.107388616 0.14225136 -0.017386714 0.04468183 0.06544682
-0.02063355 0.10213635 0.00029897076 0.0028855556 0.06339398 -0.06583708 0.07390235 -0.06101235
-0.17497852 0.09716822 -0.08748308 0.09579105 0.014539294 -0.014438579 0.07315923 0.113192745
-0.033875138 0.07579542 0.13133839 -0.024779882 0.070303425 -0.11388581 -0.06179099 0.1277007
0.064669184 -0.005758385 0.07663594 -0.034894463 0.11313369 0.13636602 0.015439559 0.09208415
-0.047859743 -0.034230687 -0.15500303 -0.09888023 0.06504732 -0.09195989 -0.015629483 -0.068209305
0.11189624 0.024405329 -0.025283083 -0.074311696 -0.013309628 -0.03226053 -0.132011 -0.11468047
-0.09005593 0.08780379 0.042986717 0.06558355 0.08148392 -0.12318356 0.030172016 -0.07471689
0.0644101 -0.015702458 0.07231943 -0.01290683 -0.09721302 0.026109828 -0.020021344 0.116105184
-0.14640363 -0.02763483 -0.07878571 0.10545224 0.0053362926 -0.081156366 0.052538164 0.09436408
-0.10105617 0.040959563 -0.10203793 -0.1147209 0.12057494 0.09910384 0.08308688 -0.08116094
-0.01864831 -0.040111884 -0.07201054 -0.030267546 -0.026494896 -0.0144844 -0.028217485 -0.003950047
00000000: aef6 e3bd f1e2 17bd 6ee9 52be 2588 313d
00000010: e575 633d 9ab0 0bbe 0a8b 8e3d ae25 533d
00000020: 4c80 b5bc 4c5f 1bbe 3b1d c23d bac3 a13c
00000030: de76 57bd d88a bf3d 7d00 a3bc fad4 cdbd
00000040: b25c 7bbd 89d4 05bd f24d cdbc 75c5 a8bd
00000050: 8782 cd3d 0e72 0c3e 6079 b73d 3402 703c
00000060: 8280 e33c 59b9 183d 3174 ce3d 502e 503d
00000070: df63 b8bd 8674 123d da43 7a3d 5662 ecbd
00000080: dc92 023e 5ac8 ca3d cd5f 12bd ba0b 7c3d
00000090: 8a28 08be 651b 5e3d 96c3 92bc 4502 d33d
000000a0: 64eb 3ebe 8ab5 9cbc 8afc 9fbd 136d d7bd
000000b0: ca1b 1e3d 7319 19be cdbb 5b3c c2e3 0b3e
000000c0: 94c9 dbbc 1ccc a73d 43da f83d 088f c3bc
000000d0: 3172 c03d 18fa dc3d 93ab 1dbd 0c52 b7bc
000000e0: aef3 033b 8a71 95bd e928 863d e80c c3bd
000000f0: 31e6 403c 12aa e53d 1038 50bd 9219 7b3c
00000100: 6d75 24bc 8486 243d 018c 813c 4d96 86bb
00000110: 4720 7dbd 47f8 173e bb71 05bd a2d0 60bd
00000120: 3aa7 7bbd 4aab 1d3d 1a60 2e3e cc72 b5bd
00000130: 9f95 ba3d 2716 e2bc 4505 a93c ef81 89bd
00000140: 376a 0d3d d2d4 8a3d e886 cf3d 618b 49bd
00000150: c741 67bc f05a 8d3d 81b8 22bd 8a83 093e
00000160: c238 263e 8a74 e53d 7c43 dfbd f0a8 253d
00000170: 9246 abbd 1c77 ed3d 7aa1 8ebd 65b5 033e
00000180: d7e8 7a39 ea15 febd e57c 5dbd 09e4 d7bd
00000190: cbb9 dabd 03ac 3d3d 23a5 93bd 6561 72bd
000001a0: 9ba0 a7bc 0841 6d3d 81a3 9c3d 5aa3 a93c
000001b0: 0731 e6ba fa6d 14bc 62e8 64bc 1865 a0bd
000001c0: aee0 2cbe 00da 65bd 4009 c2bb 18f0 b53d
000001d0: 66cc de3d 0053 8dbc 722a f8bd 9ede d6bd
000001e0: 3ef4 f23d 3ff2 e63c 59f8 e73d e7db b6bd
000001f0: da6e 12be 8937 b23d 6104 a0bd b42b 543d
00000200: 7392 e23d cb3d bfbc c004 b4bd d8e8 3d3c
00000210: 9a09 40bd e9f3 b13b f681 b8bd da09 b03d
00000220: b48d 17bd 522a 15bc 6171 6cbc 76e4 283c
00000230: 8533 09be bf16 00bd 5bba 5d3d 7373 8cbd
00000240: 72c0 e03d abf7 0f3c ae99 373d 930d 07be
00000250: 6a6b 21bd 43be 113e 1ad7 463b 8420 e53c
00000260: a03a 043e 65a5 5b3d 37d6 96bd ab5f cb3b
00000270: 57b3 c8bc f741 d23d 7e8c 4f3d fbdb e63d
00000280: 68e8 d73c 78ca 44bd 9443 11bc 90ee dbbd
00000290: 57aa 113e 956e 8ebc 4b04 373d fb08 863d
000002a0: b107 a9bc dd2c d13d 2dbf 9c39 971b 3d3b
000002b0: b4d4 813d 97d5 86bd 1e5a 973d 16e8 79bd
000002c0: 922d 33be 2200 c73d 542a b3bd 192e c43d
000002d0: 3836 6e3c ca8f 6cbc 82d4 953d 99d1 e73d
000002e0: a8c0 0abd a13a 9b3d 927d 063e 2eff cabc
000002f0: 3efb 8f3d f73c e9bd 8d18 7dbd f9c3 023e
00000300: 4771 843d d6b0 bcbb 4ef3 9c3d 7fed 0ebd
00000310: a3b2 e73d 89a3 0b3e 34f6 7c3c 9d96 bc3d
00000320: 9408 44bd 7a35 0cbd 1db9 1ebe b881 cabd
00000330: 8837 853d 7855 bcbd 6709 80bc 52b1 8bbd
00000340: db29 e53d afed c73c 781e cfbc bb30 98bd
00000350: a010 5abc 9e23 04bd e42d 07be 98dd eabd
00000360: 3e6f b8bd 79d2 b33d d712 303d ab50 863d
00000370: 0be1 a63d aa47 fcbd 4e2b f73c 2b05 99bd
00000380: 71e9 833d 71a2 80bc 361c 943d 2b77 53bc
00000390: 9f17 c7bd 47e4 d53c cd03 a4bc 8ec8 ed3d
000003a0: d5ea 15be 7062 e2bc 675a a1bd 58f7 d73d
000003b0: 11dc ae3b 4f35 a6bd 4232 573d f441 c13d
000003c0: 8af6 cebd 37c5 273d 43f9 d0bd cbf2 eabd
000003d0: ffef f63d f4f6 ca3d 7429 aa3d b537 a6bd
000003e0: 57c4 98bc 5c4c 24bd 437a 93bd a5f3 f7bc
000003f0: d30b d9bc fa4f 6dbc 5b28 e7bc 656f 81bb

critic.2.bias f4 [64]
-0.06730932 0.028663918 -0.11719742 -0.03379633 -0.08488344 -0.066183455 0.06948502 -0.096882194
-0.06894541 0.0678611 -0.112132795 -0.040780686 0.015072199 -0.05884022 0.06203722 -0.21222156
-0.05358677 0.056082174 0.045263138 0.03147875 -0.081874885 -0.041399367 -0.15105918 -0.066878624
0.036639016 -0.09485083 0.040450707 -0.07899199 0.14545074 0.02659257 0.018122325 -0.09475514
0.121873565 -0.08970625 0.06923258 0.026754256 -0.013868441 -0.013458259 0.07587841 0.117985934
-0.13435997 0.031292416 -0.014396416 -0.10797991 -0.09243852 -0.12635094 0.10815823 -0.12911446
-0.027684573 -0.120017484 0.004440391 -0.035336632 0.035690475 -0.069132246 -0.12022813 -0.047478408
-0.08889784 0.0071637253 -0.03247986 -0.16198123 0.050133567 0.023139695 0.0654257 0.015294114
00000000: 78d9 89bd 98d0 ea3c 3305 f0bd 056e 0abd
00000010: 5ed7 adbd 318b 87bd 2a4e 8e3d 2c6a c6bd
00000020: 4033 8dbd c3fa 8a3d e1a5 e5bd a609 27bd
00000030: 62f1 763c 7102 71bd bd1a 7e3d 9c50 59be
00000040: cd7d 5bbd 6cb6 653d d765 393d ddef 003d
00000050: 05ae a7bd 6292 29bd 42af 1abe a9f7 88bd
00000060: cb12 163d 2741 c2bd a4af 253d 8dc6 a1bd
00000070: 0af1 143e a9d8 d93c 4575 943c fc0e c2bd
00000080: d998 f93d e9b7 b7bd d0c9 8d3d be2b db3c
00000090: 7538 63bc 0880 5cbc 2466 9b3d 9ca2 f13d
000000a0: a995 09be 7a2c 003d f2de 6bbc 9224 ddbd
000000b0: 6850 bdbd 2462 01be 1082 dd3d 9536 04be
000000c0: c2ca e2bc bacb f5bd b380 913b 25bd 10bd
000000d0: 2d30 123d 3595 8dbd 2a3a f6bd b878 42bd
000000e0: 1210 b6bd afbd ea3b 9a09 05bd 68de 25be
000000f0: db58 4d3d 758f bd3c e9fd 853d 2a94 7a3c

critic.4.weight f4 [1, 64]
0.07562085 0.03622282 0.03704639 0.012225677 -0.11646512 -0.060030174 0.09910674 -0.043827847
-0.059299283 0.012523325 0.064164065 0.017075738 -0.023635536 -0.02239934 -0.10108412 0.13027467
-0.08363294 -0.00056625606 0.106092334 -0.041982666 -0.05451638 -0.07523888 -0.014148832 -0.031163884
-0.015250279 -0.073421925 -0.03765346 0.013405392 -0.06818681 -0.060213856 0.022096347 -0.14613411
-0.056634586 0.014455565 0.033713777 -0.076255955 -0.009086554 0.05474124 0.039369382 -0.022721471
-0.01616388 -0.09773788 -0.106157064 -0.15324649 0.2088616 -0.06619226 -0.04462108 -0.07151262
0.040528554 0.09064692 -0.0077724573 -0.03245705 -0.052459992 -0.0458136 -0.076978624 0.11749791
-0.070994064 0.055730917 0.055652924 0.010084768 0.059261102 -0.019016301 0.07860202 -0.0826126
00000000: 1bdf 9a3d 615e 143d f5bd 173d 354e 483c
00000010: 4485 eebd 33e2 75bd 79f8 ca3d d484 33bd
00000020: cee3 72bd a22e 4d3c 7368 833d 6be2 8b3c
00000030: 509f c1bc d27e b7bc 3105 cfbd b966 053e
00000040: bf47 abbd cd70 14ba f046 d93d 04f6 2bbd
00000050: 914c 5fbd d816 9abd 81d0 67bc 674b ffbc
00000060: 4edc 79bc 3c5e 96bd 843a 1abd 4aa2 5b3c
00000070: 87a5 8bbd cea2 76bd 6603 b53c 2ea4 15be
00000080: abf9 67bd 09d7 6c3c 7517 0a3d 152c 9cbd
00000090: c5df 14bc 5a38 603d ca41 213d 6122 babc
000000a0: 1d6a 84bc cc2a c8bd e068 d9bd a6ec 1cbe
000000b0: d1df 553e cf8f 87bd 98c4 36bd 3575 92bd
000000c0: 4501 263d 18a5 b93d 19b0 febb aff1 04bd
000000d0: 4ae0 56bd 0ba7 3bbd f8a6 9dbd bfa2 f03d
000000e0: 5665 91bd 1a46 643d 52f4 633d 953a 253c
000000f0: c5bb 723d 13c8 9bbc 19fa a03d cb30 a9bd

exp_avg f4 [6]
-0.00020093317 -1.3092543e-06 0.003778097 -0.00038535782 -3.4850014e-05 0.001487224
00000000: 96b1 52b9 a3b9 afb5 f399 773b da09 cab9
00000010: eb2b 12b8 f5ee c23a

exp_avg_sq f4 [6]
1.3432273e-06 1.4070965e-05 0.0009008308 4.742949e-06 3.6677345e-06 0.0009839133
00000000: f048 b435 5612 6c37 bb25 6c3a 9f25 9f36
00000010: 3323 7636 a7f6 803a

exp_avg f4 [64, 25]
-3.608252e-05 -2.2033482e-05 -6.920764e-05 -7.151413e-05 1.712007e-05 -0.00011394069 -1.9575056e-05 4.566785e-06
-2.3660437e-05 -1.6814418e-05 -7.804743e-06 -1.6305012e-05 -2.4557357e-05 -1.4360629e-05 -2.85089e-05 -6.309585e-05
-1.0565662e-06 -6.30958e-05 1.0565715e-06 -0.000115524475 -2.7989676e-05 -0.00013198731 -0.0001492742 3.307812e-05
-0.00023132793 -1.5560737e-06 -1.2070284e-06 -2.6945538e-06 1.0155642e-06 7.3582083e-07 -4.3461177e-06 -2.0073749e-06
-7.4793235e-07 -2.1140668e-06 -3.4222603e-06 3.7312176e-08 5.926448e-07 -1.09201e-05 2.0652824e-06 -1.2802503e-05
-2.986544e-05 -9.574633e-06 -2.9865432e-05 9.574635e-06 -5.938888e-06 -3.145402e-06 -3.0651506e-06 2.4501092e-06
2.4087806e-06 -8.919798e-06 -0.00032202693 -0.0002924723 -0.00071943173 -0.00070377765 0.00017433628 -0.0010523369
-0.00017319135 8.430805e-05 -0.00012636697 -0.00011605017 -0.00012222465 5.1575873e-05 -0.00014609372 -5.6718807e-05
-0.00014670125 -0.00034177347 2.7671458e-05 -0.00034177324 -2.767141e-05 -0.0009964242 -0.00028736386 -0.0013843552
-0.0013300127 0.00033573873 -0.001952046 -1.6815966e-05 -1.3729193e-05 -3.389366e-05 -2.7146945e-05 1.13992455e-05
-5.8212965e-05 -4.05262e-06 -9.9978415e-06 -4.2937645e-06 -4.0162442e-07 3.4490952e-08 1.2753223e-06 -1.6619742e-05
-4.0033005e-06 -1.9763362e-05 -4.4626457e-05 -7.19958e-06 -4.462643e-05 7.199585e-06 -5.1811272e-05 -3.5016208e-05
-5.202172e-05 -3.794495e-05 2.2408574e-05 -0.00010502712 -0.0008301937 -0.00068725774 -0.002708941 -0.0037140204
0.00057852524 -0.0041985633 3.897638e-05 0.0005282777 0.00019587301 -0.00067948474 -0.00023907002 0.0005659436
-0.00064705947 -0.00013086053 -0.00078804 -0.0016355286 0.00012724634 -0.0016355304 -0.00012724627 -0.0018331129
-0.0006611641 -0.00540644 -0.0074375733 0.0011618456 -0.007892105 -0.00051665964 -0.00026499157 -0.0011573777
-0.0015412548 0.00021325 -0.001744435 -0.00024768373 0.00031308192 9.461237e-05 -0.00040180335 -0.00047905426
0.0001899275 -0.0002759326 -0.00010954258 -0.00029840926 -0.00063634943 0.00017318512 -0.0006363505 -0.00017318505
-0.0017040053 -0.00020331946 -0.0023570538 -0.003042821 0.00039856046 -0.003229964 0.00036634968 0.00036248582
0.0009198547 0.00056473335 -0.00048637824 0.0017321532 1.189486e-05 -0.0003008317 -5.806488e-05 0.00030215422
0.00013520796 -0.00013646542 0.00018694211 5.7085694e-05 0.0002028326 0.00047099192 -6.818555e-05 0.00047099259
6.8185545e-05 0.0007950091 0.00041709287 0.0019838442 0.0013268164 -0.0009701655 0.0033145628 -0.00095491396
-0.0006852086 -0.0022439878 -0.0028484077 0.000436762 -0.0033381174 -0.00015995435 0.0006520688 0.00029610074
-0.00066399167 -0.0010603649 0.0009378712 -0.0005193173 -0.00020630822 -0.0006003722 -0.0012640568 0.0001693839
-0.0012640575 -0.00016938368 -0.0025910572 -0.0003399476 -0.004281154 -0.0054630325 0.00077550724 -0.0060994835
0.00067276903 0.00071243406 0.0018682074 0.0016439201 -0.00072039425 0.0030986762 6.5611694e-06 -0.00030368182
-0.00019026986 0.00025421812 0.00021407696 -0.00039130077 0.00038330647 0.000110046116 0.0004732607 0.0009887508
-6.04336e-05 0.0009887507 6.043355e-05 0.0014067581 0.000959447 0.003562995 0.003016886 -0.001401431
0.005793162 0.00011872209 0.00049065525 0.00038203713 -0.0008116147 -0.00051056565 0.00078746263 8.934845e-05
3.8184196e-05 0.0003728672 -0.000283325 -0.00033113934 0.00043278994 2.8471068e-05 -1.010992e-05 -6.358436e-05
3.4306075e-05 4.2897263e-05 3.4304958e-05 -4.2897253e-05 0.00052026915 0.00094125053 0.00094061473 -0.0014838986
-0.0010099045 0.0015070298 0.00038499886 -0.00012655609 0.00032591104 0.0009012143 5.9586935e-05 0.0007752787
00000000: 5057 17b8 8bd4 b8b7 9223 91b8 dbf9 95b8
00000010: 129d 8f37 71f3 eeb8 1d35 a4b7 623c 9936
00000020: 677a c6b7 b00c 8db7 1ef1 02b7 bfc6 88b7
00000030: 8600 ceb7 6fee 70b7 6626 efb7 5452 84b8
00000040: 57cf 8db5 4d52 84b8 85cf 8d35 bb45 f2b8
00000050: 5fcb eab7 1366 0ab9 7d86 1cb9 5cbd 0a38
00000060: 9e90 72b9 49da d0b5 2e01 a2b5 15d4 34b6
00000070: 854e 8835 3985 4535 ded4 91b6 70b6 06b6
00000080: 85c5 48b5 64df 0db6 fca9 65b6 2c41 2033
00000090: 3e16 1f35 7935 37b7 4899 0a36 55ca 56b7
000000a0: 8b87 fab7 bca2 20b7 8787 fab7 bfa2 2037
000000b0: a946 c7b6 9815 53b6 e3b2 4db6 8e6c 2436
000000c0: 89a6 2136 3ea6 15b7 b9d5 a8b9 f856 99b9
000000d0: 3f98 3cba b87d 38ba 0ace 3639 91ee 89ba
000000e0: b39a 35b9 8ace b038 6081 04b9 f65f f3b8
000000f0: 6e29 00b9 2c53 5838 bc30 19b9 5be5 6db8
00000100: d1d3 19b9 0f30 b3b9 0120 e837 0730 b3b9
00000110: e71f e8b7 739a 82ba 53a9 96b9 4173 b5ba
00000120: d253 aeba 1706 b039 cbdb ffba 0310 8db7
00000130: 6f56 66b7 0a29 0eb8 9fb9 e3b7 633f 3f37
00000140: b229 74b8 befb 87b6 67bc 27b7 2813 90b6
00000150: d79e d7b4 3423 1433 be2b ab35 a06a 8bb7
00000160: 1754 86b6 7fc9 a5b7 4b2d 3bb8 ec93 f1b6
00000170: 442d 3bb8 f793 f136 ee4f 59b8 5ede 12b8
00000180: e631 5ab8 1427 1fb8 0cfa bb37 0142 dcb8
00000190: 5ba1 59ba 1629 34ba 7d88 31bb ec66 73bb
000001a0: 2ca8 173a 1a94 89bb 927a 2338 1e7c 0a3a
000001b0: 4363 4d39 731f 32ba dfae 7ab9 d55b 143a
000001c0: 6d9f 29ba 9b37 09b9 7894 4eba 3c5f d6ba
000001d0: 6e6d 0539 4b5f d6ba 696d 05b9 1045 f0ba
000001e0: f951 2dba 8128 b1bb e3b6 f3bb 1249 983a
000001f0: e34d 01bc 7170 07ba 91ee 8ab9 27b3 97ba
00000200: ee03 caba dc9b 5f39 87a5 e4ba 8cdb 81b9
00000210: 2525 a439 a16a c638 22a9 d2b9 9329 fbb9
00000220: 4627 4739 0cab 90b9 3aba e5b8 d073 9cb9
00000230: b0d0 26ba 0799 3539 c2d0 26ba 0299 35b9
00000240: ee58 dfba 2732 55b9 cd78 1abb 116a 47bb
00000250: e1f5 d039 cead 53bb 9f12 c039 060c be39
00000260: 6722 713a 9d0a 143a 9500 ffb9 6b09 e33a
00000270: 0990 4737 f3b8 9db9 b18a 73b8 746a 9e39
00000280: 9cc6 0d39 2818 0fb9 e405 4439 4c6f 6f38
00000290: 76af 5439 77ef f639 d7fe 8eb8 8eef f639
000002a0: d6fe 8e38 2868 503a 42ad da39 6203 023b
000002b0: 92e8 ad3a b452 7eba 2339 593b 3153 7aba
000002c0: 929f 33ba de0f 13bb 5aac 3abb 34fd e439
000002d0: 51c4 5abb 6bb9 27b9 99ef 2a3a f83d 9b39
000002e0: ba0f 2eba f1fb 8aba 79db 753a cb22 08ba
000002f0: 7154 58b9 4c62 1dba b5ae a5ba a59c 3139
00000300: bbae a5ba 969c 31b9 bace 29bb ff3a b2b9
00000310: ec48 8cbb 3d03 b3bb 694b 4b3a 2dde c7bb
00000320: c45c 303a a4c2 3a3a a3de f43a ce78 d73a
00000330: d7d8 3cba 2913 4b3b 0428 dc36 7c37 9fb9
00000340: 2d83 47b9 9448 8539 d979 6039 8027 cdb9
00000350: 86f6 c839 8fc8 e638 fa1f f839 f998 813a
00000360: 157a 7db8 f898 813a 087a 7d38 f862 b83a
00000370: 6683 7b3a 2381 693b f3b6 453b 39b0 b7ba
00000380: 91d4 bd3b 70fa f838 519f 003a 284c c839
00000390: 8ac2 54ba 7bd7 05ba b96d 4e3a 9560 bb38
000003a0: f827 2038 637d c339 3d8b 94b9 c59c adb9
000003b0: 15e8 e239 27d5 ee37 c79d 29b7 9858 85b8
000003c0: dee3 0f38 96ec 3338 abe2 0f38 93ec 33b8
000003d0: ac62 083a 41be 763a 9693 763a 607f c2ba
000003e0: c65e 84ba 8787 c53a acd9 c939 24b4 04b9
000003f0: 0adf aa39 783f 6c3a fcec 7938 133c 4b3a
