04-goal-pose-l6/logs/rsl_rl/joint_position/2026-02-18_14-34-58/model_7650.pt (torch, 161397 bytes, 36 tensors)

std f4 [6]
000000 8e 7e c3 3d 33 44 c1 3c 58 85 6d 3b 28 1d 45 3d
       0.09545623 0.02359209 0.003624281 0.04812351
000010 f9 93 57 3d 7d 5a 55 3b
       0.052631352 0.0032555156

actor.0.weight f4 [64, 25]
000000 1a 58 32 bd ce 8d 8a 3e 32 34 b2 be 73 76 7d be
       -0.04354105 0.27061313 -0.34805447 -0.24752216
000010 d0 e2 ab be c4 bc 4d be cf 45 02 3d 66 cf e9 bd
       -0.33571482 -0.2009154 0.031804856 -0.11416511
000020 ac 12 21 3e e8 95 0d be 8b c6 6b 3d cc 6b c0 3c
       0.15729779 -0.13826716 0.057562392 0.023488902
000030 7d 0f 42 be f4 80 ab be d8 02 d4 be cb dd ad be
       -0.18951221 -0.3349682 -0.4140842 -0.33958277
000040 18 5b 00 bf 5f 06 0e be 26 c0 0c 3f 33 c1 ac bb
       -0.50139 -0.13869618 0.54980695 -0.0052720546
000050 d5 9a a6 3e 33 fe f5 be 5d 5c ae 3d 98 32 d6 bd
       0.32540002 -0.480455 0.08513711 -0.10458869
000060 2a 90 e9 bd 6c 31 38 3e 47 4a 02 3e c3 b0 bd be
       -0.1140445 0.17987603 0.12723647 -0.3704892
000070 00 e7 d4 be eb cb ac bd a5 77 da be 28 3d 0a be
       -0.4158249 -0.08437332 -0.42669407 -0.13499892
000080 cb 7d d0 3d b1 3a 74 3d 70 df 68 3c 3a b4 b4 bd
       0.10180243 0.059626285 0.014213428 -0.08823438
000090 94 76 61 bd 0b 05 8b be 14 14 74 bc 46 a5 d0 be
       -0.055044726 -0.27152285 -0.014897365 -0.40751094
0000a0 0d 3e 65 be 7a 6f 84 3f b7 c4 95 be e6 44 7e bf
       -0.22386952 1.034652 -0.29251644 -0.9932388
0000b0 33 87 ab 3d 19 fd 13 3e a3 de 82 be 1a 1d 5c be
       0.083753966 0.14452018 -0.25560483 -0.21495476
0000c0 90 bb 55 3e 25 b5 7a be 13 8f a8 be c5 a6 5e 3e
       0.2087233 -0.24483164 -0.32921657 0.21743305
0000d0 30 d4 cf bd fd 13 21 3e b8 63 7a be 14 91 02 3e
       -0.101478934 0.15730281 -0.24452102 0.12750655
0000e0 ea fe 82 be 57 27 63 3e 4d a5 fa 3d 9e 59 f0 3c
       -0.2558511 0.22182976 0.1223856 0.029339608
0000f0 65 3e 05 3d 2f f2 ee 3d c7 62 d8 be 9f a5 e1 bd
       0.032530207 0.116672866 -0.4226286 -0.11017918
000100 fa f1 83 bd 1c e6 67 be 3c 81 0f 3f 54 92 9a be
       -0.06442638 -0.22646374 0.5605657 -0.30189764
000110 6b 02 06 bf b0 a5 3a be 29 15 91 be 14 18 41 3a
       -0.5234744 -0.18227267 -0.28336456 0.00073659536
000120 66 6a 12 3e 08 c6 d4 3d 55 11 20 bc 49 ac 28 3e
       0.142984 0.10389334 -0.009769757 0.16471972
000130 43 84 81 3e 9d 96 b0 bd da f4 2c bf 29 68 0b 3e
       0.2529622 -0.08622477 -0.67561114 0.13613953
000140 2f 36 18 bf 42 e7 d3 3d a0 0d bb 3d fc d4 8c bd
       -0.5945768 0.10346843 0.09133458 -0.06876561
000150 6c dd 2a be bb ff 88 3d 13 bb eb 3a 1b a8 ba be
       -0.16686028 0.06689402 0.001798483 -0.3645638
000160 ca 3a 64 be 26 0e ab be b6 40 b1 be 56 00 06 3f
       -0.22288051 -0.33409232 -0.34619683 0.5234426
000170 c9 2d 97 be c1 28 1f bf 20 be 0f 3e 91 49 e4 3d
       -0.2952712 -0.6217156 0.1403737 0.11146844
000180 42 c4 46 be 8d 7e 30 3e a4 c9 f2 bd 5c 26 03 bd
       -0.19410804 0.17235775 -0.11854866 -0.032019004
000190 a5 08 5f be f2 75 fa be cc d8 9a 3e 5b f6 ef 3d
       -0.21780641 -0.4891811 0.30243528 0.117169105
0001a0 9f c2 97 be 5f 90 fc 3d fc 54 fc 3d fb c0 3d 3d
       -0.29640672 0.12332224 0.12320897 0.04632662
0001b0 17 e6 8a bb d6 74 25 bd c4 c7 7a bc 8f 3b 85 3d
       -0.0042388546 -0.040394627 -0.015306417 0.065055005
0001c0 8b 5e 9a b9 c3 f3 6f 3e 26 68 3f bf 21 af ce bc
       -0.0002944361 0.23432831 -0.7476829 -0.025229992
0001d0 fe 0e bd bf 12 2e ea 3d 4f 5a bf 3f d9 a9 e5 bd
       -1.47702 0.114345685 1.4949435 -0.112140365
0001e0 86 0d 4e 3d 75 c3 c9 bd e9 c2 2e 3d 6a 60 7f bd
       0.050305866 -0.098517336 0.04266635 -0.062347807
0001f0 93 6e 41 bd 22 5f 09 3f 74 e4 01 bf dd 21 42 3e
       -0.047224592 0.53660786 -0.50739217 0.1895823
000200 c1 80 6a 3e 3a 10 4d 3f 5d 7d 04 3e 7d 19 8e bd
       0.22900678 0.80102885 0.12938447 -0.06938455
000210 f4 72 7a 3d 8c 9f 1c bd 52 fc 5b 3e 81 d7 59 be
       0.061144784 -0.038238093 0.21482971 -0.21273614
000220 c4 38 20 bc 4d 07 0f bf fb 91 71 bf bf 34 b8 be
       -0.009779159 -0.55870515 -0.94363374 -0.35977742
000230 48 86 6d 3d ff 7f 70 3f 5a 7f cf bd f2 72 49 bf
       0.05798939 0.93945307 -0.10131712 -0.7869102
000240 c3 2f c8 3e 4f 1f db 3d ad 39 27 be ed 31 88 3c
       0.3909894 0.10699331 -0.16330595 0.016625369
000250 ea ff 53 bc 51 58 92 3d 9c bb 24 3d 23 f9 00 3f
       -0.012939433 0.07145751 0.04021798 0.5038015
000260 c6 ce d6 bd 80 8b 03 be d3 02 41 bf f6 bb 9c be
       -0.10488658 -0.12846184 -0.75394934 -0.30612153
000270 0e d6 44 be e6 b5 ab be 99 b9 00 3e 23 f9 18 bb
       -0.1922228 -0.33537215 0.125708 -0.0023341856
000280 78 a9 1e 3e 34 6c 96 3d 72 ec 36 be 9f b0 18 40
       0.15494335 0.07344857 -0.17863634 2.38578
000290 c0 fb 57 3f c3 af a4 bd 41 66 da 3e 03 46 4f 3d
       0.84368515 -0.080413364 0.4265614 0.050603878
0002a0 a5 b2 88 be 6d a9 8a be 14 73 7e 3e 4f 9b 8e bd
       -0.26698795 -0.27082387 0.24848586 -0.069632165
0002b0 ad 20 e2 3d 66 f6 97 bd 02 8d bf 3b 18 0a 60 be
       0.11041389 -0.07420044 0.005845667 -0.2187885
0002c0 59 5d b5 3e dc ca c6 3d 90 3e c0 3d 75 97 c6 be
       0.3542278 0.09706661 0.09386933 -0.38787428
0002d0 e9 ec a3 be b1 1c 68 3d e2 d5 dd 3d 17 ea a2 3d
       -0.32016686 0.056667987 0.108318105 0.07954805
0002e0 1d da 75 bc 79 79 21 bc 8e 62 66 be a4 30 85 bf
       -0.015005616 -0.0098556215 -0.22498533 -1.0405469
0002f0 1c e7 7d 3f 18 89 29 bc 75 22 9b 3e 53 04 bc bc
       0.9918077 -0.010347627 0.30299726 -0.02295128
000300 55 9b ed 3c f6 be a6 bd 1c d8 92 3d 90 b5 20 3e
       0.029004732 -0.08141892 0.07170126 0.1569426
000310 6c ad ec 3c 49 6a b6 3d 7a 3a aa bc 12 20 6d bd
       0.028891288 0.08906991 -0.020779837 -0.057891913
000320 b7 42 4d 3e 09 6a 87 3f b7 f4 9a be 82 81 57 be
       0.20044981 1.0579234 -0.30264828 -0.21045497
000330 6f 85 d0 be c1 66 75 3e 88 ae c7 bd 40 18 74 3d
       -0.40726802 0.23964979 -0.09750086 0.05959344
000340 c1 bc f5 bd 5d b4 88 be fe 9f 5b 3d 53 6d c8 3d
       -0.119988926 -0.26700106 0.053619377 0.09786477
000350 3b 95 1e be cf 88 01 c0 1c 88 0c 3f 57 0e a8 3b
       -0.15486614 -2.0239751 0.54895186 0.0051286626
000360 d3 07 b0 bf a0 3b 40 3e 9b c8 b9 3f 11 e2 f3 3d
       -1.3752388 0.18772745 1.4514345 0.11908353
000370 8f d2 ae 3e 33 19 c9 bd 9d a7 3d 3e 6a c3 3c 3d
       0.34145018 -0.098192595 0.1852097 0.0460848
000380 50 c6 aa 3d d4 69 be be 9b 78 87 bd 41 2c 68 3e
       0.08338606 -0.37190115 -0.066148005 0.22673132
000390 3c ab 7e be 44 2e f2 be f1 ce b4 bd 82 22 e5 bd
       -0.24870008 -0.47300923 -0.088285334 -0.111882225
0003a0 39 e1 c7 3d fc 5f ff bd 47 ad 35 bd f2 66 d0 bc
       0.09759755 -0.124694794 -0.044354703 -0.025439713
0003b0 0f b2 9a 3d 08 8c 2b bf 9b c5 95 3f 4e 2b 19 3f
       0.07553493 -0.67010546 1.1700929 0.598317
0003c0 24 ed 38 3e 09 af 80 bf 50 95 1a 3e 7c fe 8e 3f
       0.18059212 -1.0053416 0.1509602 1.1171412
0003d0 e2 2f c0 bd 9a f9 22 be cc b9 ec 3d 59 27 d5 3d
       -0.09384133 -0.15915528 0.115588754 0.104078956
0003e0 70 47 5f bd a6 5a 37 be a5 4e 7e bf c5 57 b3 3e
       -0.054511487 -0.17905673 -0.9933875 0.350279
0003f0 2c 89 2f bf 61 13 9d 3e 06 72 67 bf c0 bc ef 3e
       -0.6856868 0.30678847 -0.9040836 0.46823692

actor.0.bias f4 [64]
000000 21 f1 8b be 22 14 df be ca 5d 68 be 74 e5 04 bf
       -0.27332404 -0.43570048 -0.22692028 -0.5191262
000010 ca 36 cc bd 33 f6 97 be 08 55 9e bd ec 58 fe 3d
       -0.09971388 -0.29680023 -0.07731062 0.12419304
000020 b4 05 47 bd 83 cd 27 3e 3d 9b 58 bd 9f 04 6d be
       -0.048589423 0.1638699 -0.05288242 -0.23146294
000030 e7 53 1a be 72 6e 7f bd a8 d9 e9 3c b6 9c 17 be
       -0.15071069 -0.06236119 0.02854617 -0.14805874
000040 b6 4b 7a 3d 18 e8 4b 3e bd 26 ca bd f8 e3 92 bd
       0.06110736 0.19912755 -0.0987067 -0.07172388
000050 7e 12 2d 3d b9 71 7d bd 65 b4 e0 ba f4 c4 51 be
       0.042253964 -0.061876033 -0.0017143606 -0.20485288
000060 bc 86 46 3d cf e5 4f be 5a fc 55 3d ac 3f aa bb
       0.048468336 -0.20302509 0.052242614 -0.0051955786
000070 5a 46 35 be 0a 43 af 3e 45 14 1f be fb 5d 97 be
       -0.17702618 0.34230834 -0.15535076 -0.2956389
000080 c5 52 2c bc f3 f0 0a bd e5 87 e1 3d 3d 9d 49 3e
       -0.010517781 -0.033921193 0.11012248 0.19688888
000090 b7 02 0e 3d 55 b7 d1 be 72 5f 1d 3e 7b 92 b2 be
       0.034670558 -0.40960184 0.15368441 -0.3487738
0000a0 0e bd 58 bc f6 f5 8c bd 69 5e 45 be eb e7 e8 3d
       -0.013228668 -0.06882851 -0.19274296 0.1137236
0000b0 9e b8 a9 3c 56 99 6a be 62 fe b2 3d 36 11 21 bd
       0.020717915 -0.22910056 0.08739926 -0.039323054
0000c0 ec 32 16 3c 3d 0c 1c 3e 75 4c 00 be f9 bb 54 be
       0.009167414 0.15239044 -0.12529166 -0.20774831
0000d0 90 53 72 be 1c 6f 5d be c0 6c 34 3d 84 75 81 be
       -0.23664689 -0.21624416 0.044049025 -0.2528497
0000e0 b4 fe 0e 3c 54 6d 3b be 45 d1 0e 3e 44 fd df 3c
       0.008727718 -0.18303424 0.13947017 0.027342446
0000f0 1a b5 08 3e 67 8f 28 bd cc ce 65 3e d6 44 2f 3e
       0.13350335 -0.041152384 0.22442168 0.17116103

actor.2.weight f4 [64, 64]
000000 10 9b 49 3e 7d ef 1f 3e 39 fc 95 ba b4 ef 17 3e
       0.19688058 0.15618701 -0.0011442966 0.14837533
000010 64 7a b6 bd af ec 0d bd d6 b5 7c bc 33 76 6b 3d
       -0.08910063 -0.034649547 -0.015424212 0.05748577
000020 2d ff cf bd 31 c7 48 be c1 bb a4 3d 5e 9b 76 3d
       -0.10156093 -0.19607235 0.08043624 0.060206763
000030 09 43 f7 bc ac 41 4c 3e 27 2c fa bc 66 b6 00 3d
       -0.030183332 0.19946927 -0.030538632 0.03142395
000040 9a 62 0c be f9 08 81 bc 27 5f 52 bd 46 7b a4 bd
       -0.13709489 -0.015751349 -0.051360276 -0.08031325
000050 33 26 5e 3d c3 c5 6b bd 78 1e 3f be 1e 67 8c bd
       0.05423565 -0.057561647 -0.18663967 -0.068556055
000060 6d a7 02 bd 95 3a 1b be 67 32 93 3c af bb 39 3e
       -0.03189795 -0.15159066 0.01796837 0.18138002
000070 97 c6 19 3e 13 7f 5b bd de 0f bf 3a d9 8d 17 3c
       0.15017162 -0.053587984 0.0014576872 0.009250128
000080 3d c9 e7 3d 33 5d 2c 3e f1 ce f6 bd b5 79 ef 3d
       0.1131768 0.16832428 -0.1205119 0.11693136
000090 6d 88 ca 3d d4 7c ea 3d 74 21 35 3e 51 40 df 3d
       0.098893024 0.1144959 0.17688543 0.10900939
0000a0 b2 60 4e 3d e1 1c 02 3e 87 4a a1 bc c8 8a 77 bd
       0.050385185 0.12706329 -0.019688858 -0.060435086
0000b0 60 1d c6 bd 55 f3 2e 3e 26 06 32 be 63 fb 96 bd
       -0.096735716 0.17085011 -0.17385158 -0.07372167
0000c0 45 4a 3e be 80 db 73 be b9 aa 77 3c fb 47 08 bd
       -0.18583019 -0.23814201 0.015116387 -0.03327177
0000d0 4d e8 3a 3e bf 13 e5 3c 2b b1 a6 3d 39 f9 cc ba
       0.18252678 0.027963517 0.08139261 -0.0015638239
0000e0 4f 1a 8d bc e1 14 65 3d 55 2d 22 be dc b9 7e bd
       -0.017224459 0.055928115 -0.15837605 -0.062188968
0000f0 ae 27 ab 3c 24 ec 35 bc ab 37 fb bd 0b 36 85 3d
       0.020892944 -0.011103664 -0.12266477 0.065044485
000100 81 27 52 bd 46 32 ec bd 12 1c 7e 3e 2e a4 11 3d
       -0.051307205 -0.115330264 0.24815395 0.035556965
000110 3c 32 04 be 6b f9 71 3e ae df eb 3d 7f ae 78 3e
       -0.12909788 0.23630302 0.11517273 0.24285315
000120 2e 72 4a bc e3 a2 f0 3d 4b 40 82 be 08 e5 ab bc
       -0.012356324 0.11749818 -0.25439677 -0.020983234
000130 dd bb 68 3d 0d fc 18 3e db 6a f9 bd a2 50 db 3c
       0.056819785 0.149399 -0.12178584 0.026771847
000140 88 71 d5 3c a6 92 9e bd 29 98 c8 bd d6 1b f6 bd
       0.026055112 -0.07742815 -0.09794647 -0.12017028
000150 f0 f0 2a 3e fe 60 fc 3d 6a 93 6a be 67 14 24 3d
       0.16693473 0.12323187 -0.22907797 0.04005852
000160 50 7d 50 be 39 22 d5 bb fd 2a c7 3d 92 16 bd 3b
       -0.20360303 -0.006504324 0.09724996 0.005770513
000170 7f e1 9d 3d ff ae 3e 3e 69 7b 3b be 0a 8c 36 be
       0.077090256 0.18621443 -0.18308796 -0.17826858
000180 43 ae fc 3d 1d b1 17 3e 04 a2 b6 bd 8f eb bb 3d
       0.12337925 0.14813657 -0.08917621 0.091757886
000190 63 61 7d bc 35 f3 2a 3d 4f 66 ea 3d a0 1e 16 bd
       -0.015465113 0.041735847 0.11445295 -0.0366503
0001a0 9f b9 95 3b c3 9f a6 3d c8 28 5a 3c 1e c7 e8 bc
       0.004569247 0.08135941 0.013315387 -0.028415259
0001b0 f5 6a 72 3d af 07 b6 3c 1d 3c 24 be f4 97 8f bd
       0.059184033 0.02222046 -0.16038556 -0.07011405
0001c0 01 f7 ae 3e 0d 3e 43 be bb a8 91 bd 47 6a ae bd
       0.34172824 -0.19066639 -0.07112261 -0.085163645
0001d0 2d 97 77 3c 71 25 9c be 71 a4 59 bd 38 58 ca 3e
       0.015111727 -0.30497316 -0.05313534 0.3952043
0001e0 e7 61 1a bc b6 d0 92 bd 50 07 ee bd cb ed f1 3c
       -0.009422756 -0.07168715 -0.116224885 0.029532334
0001f0 ce 5c c5 be 72 70 a9 bd e4 03 dc 3d 95 fe e5 bd
       -0.38547367 -0.082734 0.107429296 -0.11230198
000200 a5 3f 35 3e d7 4f 16 3f fd 21 69 be 5f 63 ac 3e
       0.1770006 0.58715576 -0.22766872 0.33669564
000210 8d ea 43 be ff cc 2e be 47 b4 01 3e d2 b0 b3 3d
       -0.19132443 -0.17070387 0.12666427 0.0877396
000220 9c 4c 07 be fe 70 e5 bd b4 4b 0a bd 73 ce 66 3e
       -0.13212818 -0.11203192 -0.033763602 0.22539692
000230 fd de 7b be 47 3e ab 3e 7c 33 66 3e 55 43 81 3d
       -0.24596782 0.3344595 0.22480577 0.06311671
000240 49 25 9f be ab 28 59 bc e6 dd 47 bd ab 67 e8 bd
       -0.31083134 -0.013254325 -0.048795603 -0.11347898
000250 57 32 9e 3d 86 2c 04 be ae e6 b4 bc 6b 22 2d be
       0.07724445 -0.1290761 -0.022082653 -0.1690766
000260 73 99 0b 3e 5d 3c a4 bc 8b c6 b0 3e ec 9f 5d 3e
       0.13632755 -0.020048315 0.34526476 0.21643037
000270 0e 8d 5f 3e c1 f3 99 3b 41 45 83 bd 3e 68 be 3c
       0.21831152 0.004698247 -0.064096935 0.023243066
000280 44 5c 7c 3e b8 18 5f 3e b0 e3 f3 bc 8c de a5 bc
       0.24644572 0.21786773 -0.029771656 -0.02024772
000290 b1 24 5e bd a4 a7 6e 3d 2a ad 8f 3e 6f d8 4e 3e
       -0.05423421 0.058265343 0.280618 0.2019975
0002a0 8c 74 4b be 60 18 f2 3e 11 16 89 be c8 26 8d be
       -0.19868678 0.47284222 -0.26774648 -0.2756865
0002b0 85 ab 2c 3d 2b a6 49 3e 04 0d ed 3c 46 b2 d1 bd
       0.04215576 0.19692294 0.02893687 -0.10239081
0002c0 ca 06 1a be 2f 48 34 bc 6b ca df bd 75 da d3 bd
       -0.15041652 -0.011003538 -0.1092728 -0.10344402
0002d0 2a 0c 82 3e 05 dc 0b bc 64 6d 02 3e c4 d0 ee 3d
       0.25399905 -0.008536343 0.12737042 0.11660913
0002e0 93 e1 27 bd f7 a3 1d 3c a4 7e 14 3e ca e7 54 3e
       -0.04098661 0.009621612 0.14501435 0.20791546
0002f0 ae 72 d6 3d 49 59 38 bc 40 87 05 be cc b2 38 bc
       0.10471092 -0.011251756 -0.13039875 -0.011273097
000300 e3 5b 4b 3d 0d 52 ce 3d 70 85 1a be b0 b0 ac bd
       0.049648177 0.10074244 -0.15089965 -0.08432138
000310 47 3d 04 3e f9 d2 c7 bd e5 64 ae be 1b 0f 94 be
       0.12914 -0.09757037 -0.3406135 -0.28917775
000320 e6 f2 65 be 00 dd df be fe ab 8e bd 3c b6 a0 bd
       -0.2245594 -0.43723297 -0.06966399 -0.078472584
000330 b1 a8 5e 3e 9f c3 4a 3e c1 03 8f bd 8a d7 93 bd
       0.21744038 0.19801186 -0.06983138 -0.07218845
000340 df a9 35 3e 5a 83 30 bd 44 3f 11 3e 03 55 cc 3e
       0.17740582 -0.043094017 0.1418429 0.3990861
000350 6c d2 9f bd 35 b0 e8 ba 7c 8d 57 3e 9b 0b 2d bd
       -0.07803807 -0.0017752709 0.21050066 -0.042247396
000360 45 50 62 3d 4a 32 e7 3b 9a 6f 71 bd ad d1 83 bd
       0.055252332 0.0070555555 -0.058944322 -0.06436477
000370 d6 32 53 bc e0 e3 83 be af 8b 51 3e e0 7d ce 3d
       -0.012890538 -0.25759792 0.20463441 0.100826025
000380 d1 dc c9 bd 36 1f a3 3c b7 56 ae be 94 a0 bb 3d
       -0.098565705 0.019912343 -0.34050533 0.09161487
000390 76 72 63 bb a1 18 a5 bd 5f 83 dc bc cf 7b 1c 3d
       -0.0034705675 -0.08061338 -0.026918111 0.03820401
0003a0 e1 55 3a 3e 2e 65 28 3e 17 82 12 3e 53 0d f2 3c
       0.18196823 0.16444847 0.14307438 0.02954737
0003b0 f1 5f 10 3e 96 cb 0d 3e ed cf 93 3e 17 43 5a 3e
       0.14099099 0.13847193 0.28869572 0.21314655
0003c0 7b 5d a4 be 19 8e 34 3e 20 97 c2 3e 8e 7e 3f be
       -0.3210257 0.17632331 0.38005924 -0.1870062
0003d0 c4 03 c3 3d 76 8d 98 3e ef f5 15 be 74 e6 ea be
       0.095222026 0.29795426 -0.14644597 -0.45878947
0003e0 3a 43 c6 3d 2a 5a d2 3d 2f 3e 29 be 06 61 c3 bd
       0.09680791 0.10271104 -0.16527627 -0.0953999
0003f0 e2 e4 13 3f 8c 4b 97 3d 3e 23 5f 3e f9 e0 2e 3e
       0.5777112 0.07387456 0.21790788 0.17078008

actor.2.bias f4 [64]
000000 fc 63 46 be a8 5f cc 3c 0d 00 b8 be 65 3b b6 bd
       -0.19374079 0.024947956 -0.3593754 -0.08898047
000010 e6 0c 21 3e 3c 49 7b be 6f d5 aa bb 6f 24 a9 be
       0.15727577 -0.24539655 -0.0052134315 -0.3303561
000020 4c f6 3c be c8 06 0e 3e f0 02 65 be ee b2 19 3e
       -0.1845333 0.13869774 -0.22364402 0.15009663
000030 3d 66 1b be 99 97 6b bd 20 08 bc bd 65 a9 88 bc
       -0.1517572 -0.05751762 -0.09181237 -0.016682336
000040 6f b8 0b be bd 9e 29 3e 71 28 d2 bc 21 52 a4 be
       -0.13644575 0.1656446 -0.02565405 -0.3209391
000050 56 01 7f 3e b7 02 b1 3d d6 cc ac be 9e e6 92 bc
       0.24902853 0.08643096 -0.33750027 -0.017932232
000060 27 33 20 3e 9b 12 ae bd 44 0a 06 be 8d 2b 74 3d
       0.15644513 -0.084996425 -0.13089854 0.059611846
000070 43 24 a6 bd 4b 57 a9 bd 2e 44 f4 be a0 06 ac 3d
       -0.08112385 -0.08268603 -0.47708267 0.08399701
000080 5f 90 96 be b4 1a 5e 3c 88 e7 fd be 85 9f a0 be
       -0.2940702 0.013556171 -0.49590707 -0.31371704
000090 75 4d 9d bb d7 c7 dc bd 99 ab 82 3e 30 b4 71 bc
       -0.0048004934 -0.10780304 0.25521544 -0.014752433
0000a0 f0 16 d5 3c ec e1 f1 bd 7d 31 40 bc ae dc 59 3d
       0.026011914 -0.11810669 -0.011730549 0.053188972
0000b0 80 35 1c bd c0 67 11 3d 27 9b a6 3c 0e 82 62 bc
       -0.03813696 0.035499334 0.020337654 -0.013824953
0000c0 af 39 49 3d 80 c1 39 bd 1f e8 27 3e e8 66 70 be
       0.049127277 -0.04535055 0.16397141 -0.23476756
0000d0 a5 74 ae be ac b2 ee bc af 84 db be 84 2e 4c be
       -0.34073368 -0.029137932 -0.42874667 -0.1993962
0000e0 cb 45 6a bd 2b 30 83 be ed b8 85 bd 97 6e 92 bd
       -0.057195466 -0.25622687 -0.065294124 -0.071499996
0000f0 82 35 3f bd 7e a3 9f 3b bd 93 85 3d 37 9d 5f be
       -0.04668189 0.0048717847 0.065223195 -0.21837316

actor.4.weight f4 [6, 64]
000000 da fd 9c bd b5 44 b4 3d 08 ec 60 bb 37 d4 17 3d
       -0.07665606 0.08802167 -0.0034320373 0.03706762
000010 f7 46 86 3c 50 44 62 3e 3c 0c 9a bd cd 48 dd bc
       0.01639126 0.22096372 -0.07521865 -0.027012253
000020 59 7e 02 3e ed 3b 22 3e 94 a1 ae bd 51 e7 1a 3e
       0.1274351 0.15843172 -0.08526912 0.15127303
000030 5f 10 a2 be d3 33 0d be a1 d3 30 3e 61 52 f0 3d
       -0.31653115 -0.137893 0.1726823 0.117344625
000040 8c 2b 89 bd 96 d9 47 3d 15 1b 0f 3c d9 eb a4 3d
       -0.06697759 0.04879149 0.008734484 0.08052797
000050 60 51 5f bd d0 d0 2c 3d 8f eb 14 3d e7 cb c9 3d
       -0.054520965 0.042191327 0.03635746 0.098533444
000060 8c 9e bb bd d2 d3 df 3d 91 14 67 3e 8b 68 68 3d
       -0.091611 0.109290734 0.22566439 0.056740325
000070 3d c0 d4 bd 23 c4 b6 bd 04 5d 46 3d 0a 5d 52 3e
       -0.10388229 -0.08924129 0.04842855 0.20543304
000080 0a d9 1f bd 68 f7 fa bc 07 4b a2 3d 21 42 99 be
       -0.039025344 -0.03063555 0.079244666 -0.29933265
000090 ef 30 87 be a0 a5 e2 3d f7 ad 15 bd ec 27 f2 bb
       -0.2640452 0.11066747 -0.03654286 -0.007390013
0000a0 2c 8b 88 bd 27 1f e4 bd 37 11 79 3e 17 b2 12 3e
       -0.0666717 -0.11138754 0.24322973 0.14325748
0000b0 58 1f 67 3e 44 45 24 3e 38 42 bb 3d c6 97 d2 bd
       0.2257055 0.16042048 0.091434896 -0.10282855
0000c0 3a 4f 69 bd 15 68 24 3d 44 24 a7 3d 01 8b 9a bd
       -0.056960322 0.040138323 0.08161214 -0.07546044
0000d0 2d a2 a3 bd 95 80 ff 3d 65 1a 93 bd a1 c0 9d bd
       -0.07989917 0.12475697 -0.07182769 -0.07702757
0000e0 eb e3 57 bd fd ae a0 bd f0 ee 05 3c eb e1 ab bd
       -0.052707594 -0.07845876 0.008174643 -0.083927
0000f0 83 48 ab bd fd d2 ea bd db cb 28 3d ca 60 56 3e
       -0.0836344 -0.11466024 0.041210037 0.2093536
000100 26 a9 fd bc 2a 1e 08 be e7 aa 15 bd f5 ac b5 3e
       -0.030964445 -0.13292757 -0.03653994 0.35483518
000110 3f e0 0f 3d f7 04 25 3e 88 d0 69 be 12 ea d8 3d
       0.035125967 0.16115175 -0.22833455 0.1059152
000120 fc 18 30 3d de dd 8c 3c 6f c6 b0 bd 83 fc 5b be
       0.042992577 0.017195638 -0.08631598 -0.21483044
000130 5b 73 a8 bc c3 42 4a bd d5 55 6f be 19 3e 83 3c
       -0.020562818 -0.049380075 -0.23372586 0.016020821
000140 69 5a 65 bd a5 52 10 be 15 58 4f bd 42 be e7 3c
       -0.055994425 -0.14094026 -0.05062111 0.028288964
000150 b4 18 71 bd 9a ed 26 bc 54 45 29 bc 48 5b c0 3d
       -0.05886145 -0.010188485 -0.0103314705 0.093924105
000160 1a eb 71 bd a0 6e 47 be 6f f8 2f bd 20 bd 5c be
       -0.0590621 -0.19475794 -0.042961534 -0.2155652
000170 45 2f 06 be d4 70 79 bd 28 67 c7 3d 0d cb 85 3d
       -0.1310397 -0.060898617 0.09736472 0.065328695
000180 4d ad 81 bd ae b8 0e bd 14 93 a2 3d 4c 30 23 be
       -0.063318826 -0.034844093 0.07938209 -0.15936393
000190 6f 80 fd bd 13 27 a6 bd c8 70 36 3d ba 2f ce 3a
       -0.123780124 -0.081129216 0.04454115 0.0015730776
0001a0 3d db 2b be f1 37 ac bd e7 a0 c6 3d ed 47 26 3e
       -0.16782852 -0.084091075 0.096986584 0.16238375
0001b0 61 ae 68 bc bd e0 e6 bd 79 95 42 be b0 f7 63 bd
       -0.014201731 -0.11273334 -0.19002332 -0.055656135
0001c0 58 76 ad 3d 66 f8 12 3d 19 2f 68 bc a7 ff 04 be
       0.08469838 0.035881422 -0.014171385 -0.12988149
0001d0 ef 59 71 3c 66 52 18 be e0 ae 3f bd fc e7 b1 bc
       0.0147309145 -0.14875183 -0.046797633 -0.021717064
0001e0 d7 c6 32 bd 02 cf 1e be 38 dc 7c 3e 21 4a 57 be
       -0.04364666 -0.15508655 0.24693382 -0.21024372
0001f0 c7 d1 15 be 2a a7 a6 bd 99 41 25 be 55 b1 53 3e
       -0.14630805 -0.08137353 -0.16138305 0.20673116
000200 23 ec 15 bd 43 67 8c 3c 1f a2 c3 3c 48 ca 85 bd
       -0.03660215 0.017139083 0.023881016 -0.06532723
000210 e3 a3 dd 3d c2 8d 93 bd e0 a5 07 3e 61 64 c3 bd
       0.108222745 -0.072047725 0.1324687 -0.0954063
000220 ce 13 d1 3d 3b d7 e8 3d b6 01 7f 3d 81 a4 8e bd
       0.102088556 0.11369177 0.06225749 -0.069649704
000230 5a 0b 2b 3d 09 71 02 be 71 f7 8a be 02 a2 05 3d
       0.041758873 -0.12738432 -0.27141908 0.032625206
000240 4e 2a 81 be e1 50 2a 3d 1b 97 09 be b2 d7 a7 bd
       -0.25227588 0.04158104 -0.13436548 -0.081954375
000250 50 89 db 3d 9e b9 fb bd c8 d0 05 3e db f4 e2 bd
       0.1071955 -0.12291263 0.13067925 -0.11081859
000260 45 0c 02 3c ca 56 84 bd 32 1d db bd 6d f0 91 3d
       0.007937496 -0.06461866 -0.10698928 0.07125936
000270 a2 ae 51 be 4a 8b 99 bd c9 3a 7b be cd 0d 16 3d
       -0.20476773 -0.074972704 -0.24534144 0.036634255
000280 a5 c4 b2 bd 71 66 03 3d cf 38 bb bd d0 25 8e 3d
       -0.08728913 0.032080118 -0.09141695 0.06940806
000290 d4 44 a9 3e 46 04 0a 3e 1e 89 0d 3d 8b 86 68 bc
       0.33060324 0.13478193 0.034554593 -0.014192234
0002a0 43 a8 ee 3c 7a 2f 23 bd 17 8a 88 3d fc 90 0a 3e
       0.029132968 -0.0398402 0.066669635 0.1353187
0002b0 bb e5 68 3e 5d 17 26 3c 80 c6 92 3d 74 14 c3 bc
       0.22743885 0.010137406 0.07166767 -0.023813464
0002c0 94 42 20 3e fd 3a 0a 3e c6 46 6a 3d e7 16 73 bd
       0.15650398 0.13499065 0.0571964 -0.059348013
0002d0 e2 f0 06 be 2c b0 89 3d 62 b6 2c 3d 7c ca 8c bd
       -0.13177827 0.06723055 0.04216612 -0.06874558
0002e0 02 95 40 bd 72 46 f9 bd c5 af f4 bd 8c de a7 bd
       -0.047017105 -0.121716395 -0.11947588 -0.08196744
0002f0 94 ae f7 bd cc 94 be bd d6 1b 95 bd 67 52 1b 3e
       -0.12093845 -0.093057245 -0.072807 0.15168153
000300 25 f0 e6 bd eb ef 38 3d 1a 55 af be 89 9a 03 bc
       -0.11276273 0.04515068 -0.34244615 -0.0080324495
000310 d8 d5 2d 3e 36 7b 2c be c3 44 78 bd 2a 97 b5 be
       0.16976106 -0.16843876 -0.06061245 -0.35466892
000320 41 4d 82 bd 45 9d c8 3d 28 8d 85 bd b5 a8 97 3d
       -0.06362391 0.09795622 -0.06521064 0.07405225
000330 c3 ed 5a bd 09 43 04 be 26 69 72 3d 19 5e 1e 3e
       -0.053449403 -0.12916197 0.05918231 0.15465583
000340 48 3e 0d be 98 40 e0 bd 4b 49 64 3c 3d 32 aa be
       -0.1379329 -0.1094982 0.01393349 -0.33241454
000350 11 92 52 3e 37 f8 86 3d c8 0e 47 be bd f7 97 3d
       0.20563532 0.06590312 -0.19439232 0.07420299
000360 18 2d 92 3d e2 86 9d bd 1b d8 30 3d ef db bf bc
       0.07137507 -0.076917425 0.043174844 -0.023420302
000370 5f 57 a2 bd eb 7a 54 bc e1 96 bf be ad b7 ce 3d
       -0.07926821 -0.012968759 -0.374198 0.10093627
000380 33 c6 55 be 8a cf 3c 3d f0 41 95 be c7 e5 65 bd
       -0.20876388 0.046096362 -0.2915187 -0.056127336
000390 68 f0 f0 3c e1 ca 2a bd 39 30 4b 3e ac 55 10 be
       0.02941151 -0.041697387 0.19842614 -0.14095181
0003a0 22 2c 87 3e 7d 50 89 bd 18 63 0f 3e f4 83 89 3d
       0.26400858 -0.06704805 0.14002645 0.06714621
0003b0 83 d7 1e bd 45 1c a3 bd ce e5 3e bd 00 76 93 3c
       -0.038779747 -0.07964376 -0.046605878 0.018000603
0003c0 76 c6 82 3d b8 36 57 3d eb b1 a1 bd 58 eb d4 bd
       0.0638551 0.05254242 -0.07895263 -0.10396451
0003d0 10 e7 8c be c0 e7 ef 3c 62 4b 73 be b5 13 1f be
       -0.27520037 0.029285312 -0.23759225 -0.15534861
0003e0 02 e7 05 be e6 62 21 be 10 67 a8 3d 74 73 e9 3d
       -0.13076404 -0.15760383 0.082227826 0.11398974
0003f0 fd d2 41 3d fb 94 47 bd bd a0 df 3d 38 a4 11 bd
       0.047320355 -0.048726063 0.1091933 -0.035557

actor.4.bias f4 [6]
000000 ad c2 54 be 62 fa 6f bc b4 ca ee 3d a7 c5 9c 3e
       -0.20777388 -0.014647098 0.11659756 0.30619547
000010 ca 60 98 3d 63 09 85 3e
       0.07440336 0.25983724

critic.0.weight f4 [64, 25]
000000 7b f7 32 3e 95 d2 9f 3d 52 bc b3 3d a8 27 08 be
       0.17477219 0.07803837 0.087761536 -0.13296378
000010 be 1f a6 3d ec 74 b0 bd a6 a9 a1 bc 55 c0 63 bd
       0.08111523 -0.08616051 -0.019734215 -0.055603344
000020 44 fe 1a 3d ed 2d 94 bd 8d f5 02 3d bb 88 43 bd
       0.037840143 -0.07235322 0.031972457 -0.04773782
000030 ac cc 20 bd be 2d 47 3e bd 99 46 be 49 c5 10 be
       -0.03925769 0.19451043 -0.19394584 -0.14137758
000040 56 24 73 3f eb f0 c8 bc 25 64 5d bf e5 eb 60 3d
       0.9497732 -0.024528941 -0.86480933 0.054912467
000050 f2 fb 19 bd 73 48 0c be 36 ed 71 3d d3 d1 a2 bd
       -0.03759379 -0.13699512 0.059064113 -0.07950177
000060 a0 5e 6c 3d 0c 4e 98 3e 45 67 e6 bd 31 e1 7c be
       0.05770743 0.29747045 -0.11250166 -0.24695279
000070 d6 93 51 be 37 e8 ff bd e6 87 d7 bb 9d 41 e0 3d
       -0.20466551 -0.12495463 -0.0065774797 0.10950015
000080 7c a5 3c 3e ce 6f 5e be 13 e2 15 be c2 37 9e bd
       0.18422502 -0.21722338 -0.14637022 -0.07725479
000090 a6 d5 ea 3d b2 c8 f0 bd b7 3a fe 3e 2c ae ad bd
       0.114665315 -0.117570296 0.4965417 -0.08480486
0000a0 ac df 7e 3c 38 13 ce 3d 78 cf 3e bc 17 15 81 be
       0.015556257 0.100622594 -0.011646144 -0.25211403
0000b0 5e 67 63 bc a6 07 2c bd 5b cf c6 3d 84 57 aa bd
       -0.013879625 -0.04199948 0.09707519 -0.083174735
0000c0 a1 45 2e be 97 4e d4 3d 87 48 23 be 47 68 1d bc
       -0.17018749 0.10366552 -0.15945636 -0.009607381
0000d0 3e e7 86 bc 35 d3 6e 3d 62 66 a7 3d 8a 19 2d 3e
       -0.016467687 0.05830689 0.08173825 0.16904274
0000e0 38 a2 aa 3b 5e 3e 7c 3d 4e f6 0e 3d 4e 06 ce bc
       0.0052073263 0.061582915 0.034902863 -0.02514949
0000f0 ee fb 95 bd ef 28 78 3d 1e da 8e 3e b9 ed 2f bf
       -0.073234424 0.060585912 0.27900785 -0.6872211
000100 8d 0b 77 be 6d d8 59 3e 65 14 b5 be 03 da d1 bd
       -0.241255 0.21273966 -0.35367122 -0.102466606
000110 13 98 dc 3d 74 46 72 bd be ae 43 bd f6 30 bd 3d
       0.10771193 -0.05914922 -0.04777407 0.09237854
000120 01 2e 18 bd 56 c9 10 3d ef 95 1f bd 94 7f 7d be
       -0.037153248 0.03534826 -0.038961347 -0.24755698
000130 e4 48 66 3b 0f 2b a9 3c d6 e8 05 3e 2f 64 54 be
       0.003513866 0.020650415 0.13077101 -0.20741342
000140 9f b5 e2 bd 19 14 63 3e bc 1c 96 be 69 55 04 3e
       -0.11069798 0.22175635 -0.29318798 0.12923206
000150 4e 72 10 be c3 f9 d4 3d 99 fe 20 3d fa 35 93 3e
       -0.14106104 0.10399201 0.039305303 0.28752118
000160 5c 92 cd be 50 29 35 3e a3 78 3d be 59 48 89 3d
       -0.40150726 0.1769154 -0.1850305 0.06703252
000170 2c 2c 29 3e bd dd d5 3d ee 9d 8b 3d 20 09 3f 3e
       0.16520756 0.10442684 0.06817232 0.18655825
000180 99 ad 8d 3d 78 39 f0 3d 2f d5 c6 bd be 5e ef bd
       0.06917877 0.11729711 -0.0970863 -0.116879925
000190 2a 82 58 3e 66 32 a7 bd e5 f1 61 3e 09 57 40 be
       0.21143404 -0.081639096 0.22064932 -0.18783201
0001a0 5a 53 8e bd 78 06 48 be 77 c7 06 3e 10 04 47 3d
       -0.06949492 -0.19533718 0.13162027 0.04858786
0001b0 e6 17 cf bc 84 0a fa bd 2c da 76 3c 10 87 a4 bd
       -0.02527995 -0.12209037 0.015066665 -0.08033574
0001c0 12 ad 2d be 72 4e 83 3f 7d 54 dd 3e 83 97 8a 3d
       -0.16960552 1.0258315 0.43228522 0.0676718
0001d0 0f 8d 5b 3e fd ac 4c 3d 31 e4 13 be 77 07 cf bd
       0.21440528 0.049969662 -0.14442517 -0.10108846
0001e0 cc 71 17 3e c3 45 4f 3d 0f 40 0d 3e d3 3e 2b 3d
       0.14789504 0.05060364 0.13793968 0.04180796
0001f0 2f 59 a8 bc cd 86 d7 be c6 de 17 be ab 26 02 3d
       -0.020550339 -0.42095032 -0.14831075 0.031775158
000200 01 eb f3 bc 83 03 f3 3c e2 2e 48 3e eb 81 c2 bd
       -0.029775145 0.02966476 0.19549134 -0.09497436
000210 68 9b 80 3d fd b1 c2 3c 31 17 64 bd 9a 97 18 bd
       0.062796414 0.023766512 -0.05568618 -0.037253954
000220 6b 4b af bc 3b fa 22 bc 86 63 a3 be b6 79 91 be
       -0.021398267 -0.009947355 -0.31911868 -0.2841317
000230 53 69 cc bd 2f 73 10 bf 3a fb 10 3d 1d ee eb 3e
       -0.099810265 -0.56425756 0.03539584 0.46080104
000240 e2 87 04 bd 27 57 29 3d 93 b1 7e 3d 17 48 90 b9
       -0.03235615 0.04134288 0.062181067 -0.0002751953
000250 d0 65 fc 3c 7f 80 51 bd 30 6e 2b 3e fb e5 38 3e
       0.030810267 -0.051147934 0.16741252 0.1805648
000260 ac b4 14 be 7e 42 5f bd 1a 66 15 3e 3f 59 19 3d
       -0.14522046 -0.05450677 0.1458973 0.037438627
000270 48 99 76 bd cc f3 af 3d 99 bb 51 bc 0e 43 ce bd
       -0.060204774 0.085914224 -0.012801074 -0.100713834
000280 eb 33 bb 3d 06 75 ec 3d 72 46 1f be 7c 9d 0c 3f
       0.09140762 0.11545758 -0.15554217 0.549278
000290 f9 94 2a 3e 52 d2 30 ba 54 b6 04 3f d1 d0 18 be
       0.16658391 -0.00067452074 0.5184071 -0.14923407
0002a0 16 38 af be 09 cd 47 3d ad 6e c0 3c 47 e2 44 3d
       -0.34222478 0.04877952 0.023490274 0.048067357
0002b0 18 80 85 3d 6e ef 57 3d 4b 93 02 be d4 d5 89 be
       0.065185726 0.052718572 -0.127515 -0.2692095
0002c0 02 00 29 be c8 7b 9e be dd c8 c9 3d 79 10 17 3e
       -0.16503909 -0.30953813 0.09852765 0.14752378
0002d0 e2 68 e8 3c ca eb 32 3d 90 8b 1d bd 6d 25 ef 3c
       0.028370325 0.043681897 -0.038463175 0.02919265
0002e0 82 8b 29 3e e0 aa 99 3d 01 0d 95 bc f7 40 7d 3d
       0.16557124 0.07503295 -0.018194677 0.061829533
0002f0 7c b2 6e 3f e7 23 e5 be 41 3c 41 3e 51 8c 1d 3e
       0.93241096 -0.44753954 0.18870641 0.15385558
000300 17 60 06 be 84 7f 48 be 30 33 2e be a8 7a a4 bd
       -0.13122593 -0.19579893 -0.17011714 -0.08031207
000310 88 d1 4e 3d 22 12 8a 3d 02 cd 83 bd 37 88 cb bd
       0.050492793 0.0674174 -0.064355865 -0.0993809
000320 66 42 6a 3e 79 d0 41 be f3 f8 65 3d 1f bc f6 bd
       0.22876891 -0.18927182 0.05614562 -0.120476
000330 b3 7e 52 3d 7f 87 4c bd 5a d3 20 3d 84 9b de bd
       0.05139036 -0.049933907 0.03926406 -0.10869506
000340 a7 d5 d3 3d 3e 6e ff bd 22 16 e0 3d a8 e2 93 bc
       0.10343485 -0.12472199 0.109417215 -0.018052414
000350 8f 0f bd 3c 67 a7 57 be df 67 ac be e5 24 0a be
       0.023078708 -0.21059953 -0.33672997 -0.13490637
000360 51 f7 21 3e 65 bf fe 3d eb 15 d4 3b ac 50 11 bd
       0.15817 0.12438849 0.0064723394 -0.035477325
000370 6f 1c dc 3d 9f 02 d3 bd e7 ce 17 3e 01 ee 49 be
       0.10747611 -0.10303234 0.1482502 -0.19719698
000380 a8 ba ae 3d 6e 30 21 be 12 1b 1c be 9b d2 5f 3d
       0.085316956 -0.1574113 -0.15244702 0.05464421
000390 cb 0a d7 bd 6b 37 ae 3d 36 6d ed bd 1e c2 8a 3c
       -0.105001055 0.08506664 -0.11593096 0.016938265
0003a0 d4 1e d4 3c 1a 82 8c 3d 9d e7 12 bd 4c 93 a3 b9
       0.025893606 0.068607524 -0.035865415 -0.00031199527
0003b0 0d 2d 3e 3c 57 2e ca 3e a1 88 94 40 f4 ad 46 bf
       0.011607421 0.3948848 4.6416783 -0.7760918
0003c0 d8 b4 7a be 4a ef 28 3f fe 9c 82 be c3 d0 06 bf
       -0.24483049 0.65990126 -0.255104 -0.52662295
0003d0 e9 b9 5d bd 64 55 5a 3c f5 97 b2 3c c5 57 7a 3d
       -0.054132376 0.013326023 0.021800974 0.06111886
0003e0 64 f5 54 bc 9c f4 f4 3c c3 59 f3 3d 1e fb e8 bd
       -0.012997959 0.029901795 0.11882355 -0.11376022
0003f0 7d 1a 40 be 53 88 ad bd 17 98 a5 3d 47 08 eb 3c
       -0.18760104 -0.084732674 0.080856495 0.02869047

critic.0.bias f4 [64]
000000 b0 dd 39 3e 11 03 5c 3e 2b f4 1e be 53 9f 01 bc
       0.18150973 0.21485545 -0.1552283 -0.007911521
000010 b0 cd 09 3d 0a cd 3c be af f4 0d 3e af f4 07 be
       0.033643425 -0.18437591 0.1386287 -0.13276933
000020 26 29 42 bc fb 83 ae 3d 6e 48 17 3e 8c 09 9e 3d
       -0.011850631 0.08521267 0.14773723 0.07716665
000030 d3 35 2e be 1d 1e 11 bd 30 a6 80 3d a8 d6 8b bc
       -0.1701272 -0.03542911 0.06281698 -0.01707013
000040 af da 46 be 9f 86 17 3d 5c a0 c2 3c 46 c1 a7 3d
       -0.19419359 0.03699362 0.023758106 0.08191161
000050 ee 31 2c 3e 20 e8 9c 3d a7 b4 a2 3d d1 55 1f 3e
       0.16815922 0.07661462 0.07944613 0.1556008
000060 b4 db 15 bc 8b 92 58 bc f9 75 66 bd 30 7f 3f bc
       -0.00914662 -0.013218532 -0.05626485 -0.011688039
000070 f2 01 97 3d de ac 21 3e d7 7c 1e 3d 9c 92 d9 bd
       0.07373418 0.157886 0.038693275 -0.10623667
000080 7e 62 83 bc 10 30 ed bd 19 11 82 3e d1 6c b0 bd
       -0.016038176 -0.11581433 0.2540367 -0.08614505
000090 d6 f4 2f 3d 74 d8 dc bd 9c 56 ee bc da 23 f6 3d
       0.042958103 -0.10783473 -0.029094033 0.12018557
0000a0 93 87 2d be 8b e8 22 be 33 bc 83 bd c3 87 19 3e
       -0.16946249 -0.1590902 -0.064323805 0.14993195
0000b0 d0 46 7f bc 38 0d 16 3c 80 44 0c be 54 fd ec 3d
       -0.015580848 0.009158425 -0.13698006 0.11571756
0000c0 d3 7a 1c 3c b7 0e 1a 3e 82 4e f0 3c f5 e6 88 bc
       0.009550768 0.15044676 0.02933431 -0.016711691
0000d0 f3 5b b0 bd d6 3c df bd 1e 2b 36 3e 85 83 3e 3d
       -0.08611288 -0.109002754 0.17789885 0.046512146
0000e0 8f c0 f8 bd de 33 b5 3d 60 7e 0a be e6 0c dc 3d
       -0.12146103 0.088477835 -0.1352477 0.10744648
0000f0 1e ce 14 be 2d bb 3c 3b fe 5e 1a 3c ce e0 29 3d
       -0.14531752 0.002879809 0.009422062 0.041474156

critic.2.weight f4 [64, 64]
000000 b1 47 e3 bd 3f d2 13 bd d1 a0 51 be be 18 33 3d
       -0.110976584 -0.03608918 -0.20471503 0.043724768
000010 7a cd 62 3d 62 50 0d be d8 ea 90 3d 52 9a 57 3d
       0.05537174 -0.13800195 0.07076043 0.052637406
000020 ca 6e a7 bc 0f 20 17 be e4 6c c3 3d 2d 08 a0 3c
       -0.02043857 -0.14758323 0.095422536 0.019535149
000030 82 4d 4c bd cb b9 c6 3d 02 0c 98 bc 14 8c cb bd
       -0.049878605 0.09703406 -0.018560413 -0.09938827
000040 d3 10 78 bd df 73 09 bd 14 4d d0 bc a3 97 a3 bd
       -0.06056292 -0.03355777 -0.025427379 -0.07987907
000050 4e ad cc 3d 18 5f 0d 3e d3 02 ba 3d 18 17 5a 3c
       0.09993993 0.13805807 0.0908257 0.01331117
000060 11 1f d8 3c f3 5b 1a 3d 80 c2 cb 3d eb 33 48 3d
       0.026382001 0.037685346 0.09949207 0.048877638
000070 7c bb b8 bd 24 56 16 3d 40 64 7a 3d 6c 01 eb bd
       -0.09020135 0.036703244 0.061130762 -0.114748806
000080 1c 98 02 3e fe 36 c8 3d 72 5a 10 bd 58 93 7f 3d
       0.12753338 0.09776114 -0.035242505 0.062396377
000090 06 ec 06 be 30 c0 5c 3d c2 86 92 bc 5c 98 cd 3d
       -0.13175973 0.05389422 -0.017886523 0.10038826
0000a0 db 5a 3e be 5d 19 9a bc 48 77 9a bd 52 b2 d5 bd
       -0.18589346 -0.018810922 -0.07542282 -0.104344025
0000b0 13 35 1c 3d 96 af 19 be a2 dd 4d 3c 2f c8 0a 3e
       0.038136553 -0.15008387 0.012565048 0.13552926
0000c0 bc 17 cb bc 97 00 aa 3d 4b 82 f7 3d ae 6f bc bc
       -0.02479159 0.08300894 0.12085398 -0.023002472
0000d0 80 58 bd 3d 72 c1 de 3d 79 52 26 bd ce 7a ae bc
       0.09245396 0.108767405 -0.040605996 -0.021298792
0000e0 34 33 3c 3b fa bd 92 bd 16 6a 87 3d 25 10 be bd
       0.0028717043 -0.071651414 0.06612031 -0.09280423
0000f0 fb e7 34 3c 82 aa df 3d 41 fb 3f bd 66 ea 7e 3c
       0.011041637 0.10921194 -0.046870474 0.015558815
000100 e0 ec 41 bc ab d0 24 3d 20 9b 92 3c a0 45 69 bb
       -0.011836261 0.040238064 0.017896235 -0.0035594478
000110 6e 29 80 bd ba db 18 3e 7a f3 05 bd d9 f6 5a bd
       -0.06257902 0.14927569 -0.0327029 -0.05345807
000120 45 ba 79 bd 0e 8c 1f 3d 4b 4e 2e 3e 58 c1 b5 bd
       -0.060968656 0.038951926 0.17022054 -0.08874768
000130 21 3b bb 3d c1 12 f1 bc e9 2b a2 3c b8 97 89 bd
       0.09142137 -0.029427888 0.019796329 -0.06718391
000140 e3 77 0d 3d f7 4f 8a 3d 15 ee cb 3d 03 67 48 bd
       0.03453816 0.06753533 0.0995752 -0.048926365
000150 02 82 59 bc e1 3b 8d 3d 7b 76 23 bd d9 d5 09 3e
       -0.013275625 0.068961866 -0.039907914 0.13460483
000160 5d 31 25 3e e7 52 e4 3d e8 c6 df bd 71 9d 2e 3d
       0.16132112 0.11148625 -0.1092661 0.042630617
000170 6e 84 ab bd 55 ab ee 3d 5a e9 8e bd 45 41 01 3e
       -0.08374868 0.11653773 -0.06978102 0.12622555
000180 5b b6 f9 3a e3 56 ff bd 35 61 58 bd 03 a2 d7 bd
       0.0019051539 -0.12467744 -0.05282708 -0.10528948
000190 ca e0 db bd 93 04 3f 3d f7 be 92 bd 71 e9 6e bd
       -0.107362345 0.04663522 -0.0716533 -0.058328096
0001a0 82 6a a7 bc be 1e 6c 3d 0b c9 9a 3d 75 4f a9 3c
       -0.02043653 0.057646506 0.07557877 0.02066777
0001b0 a4 1d dc ba cc 3c 16 bc 0e c0 5b bc 09 50 a2 bd
       -0.0016793502 -0.009169769 -0.013412489 -0.07925422
0001c0 ad 83 2b be 0c f7 65 bd 8d c6 b7 bb c1 8b b5 3d
       -0.16749449 -0.056143805 -0.005608386 0.088645466
0001d0 1a a4 db 3d 4b 87 8a bc 35 54 fb bd 7e 2c d6 bd
       0.10724659 -0.016910216 -0.122719206 -0.10457705
0001e0 c3 61 f4 3d 0e 40 e8 3c b7 8f e8 3d 6c 6d b7 bd
       0.11932709 0.028350856 0.113555364 -0.089564174
0001f0 71 60 13 be 1c e6 af 3d c0 d6 9f bd d0 37 54 3d
       -0.14392258 0.08588812 -0.07804632 0.05181104
000200 d3 9c df 3d 49 47 c1 bc b0 a2 b1 bd de 57 4b 3c
       0.10918584 -0.023593562 -0.08673608 0.012411086
000210 b8 19 41 bd 1f ab ad 3b 19 21 b9 bd 90 ed b0 3d
       -0.047143668 0.0052999402 -0.09039516 0.086390615
000220 fe c1 17 bd fa 61 f7 bb d3 8d 6f bc b2 e0 22 3c
       -0.03705024 -0.0075495215 -0.014621216 0.009941267
000230 84 f8 07 be b1 fe 04 bd 63 20 5f 3d 7a f9 8b bd
       -0.13278395 -0.032469455 0.054474246 -0.06834693
000240 eb 10 e0 3d b9 da 04 3c 70 37 37 3d b1 f4 05 be
       0.10940727 0.008108788 0.044730604 -0.13081624
000250 d9 48 1d bd 74 94 13 3e dd 0f 6d 3b f7 5b ea 3c
       -0.03839955 0.14412099 0.0036172785 0.028608305
000260 c6 96 01 3e d6 76 5b 3d 3e 0f 97 bd ec 34 e6 3b
       0.12655172 0.053580128 -0.07375954 0.0070253517
000270 f9 57 cb bc 93 a2 d3 3d f2 4b 4f 3d 01 e1 de 3d
       -0.024822222 0.10333743 0.050609536 0.1088276
000280 cd b2 e3 3c b8 05 4d bd 9a f1 d9 bb ea e3 d9 bd
       0.02779522 -0.050054282 -0.0066511156 -0.10639174
000290 89 08 11 3e 07 85 8f bc 0c fe 39 3d a9 cb 87 3d
       0.14163412 -0.017519487 0.045408294 0.06630642
0002a0 fb 00 ad bc 12 a2 cf 3d 8b db 02 39 2a b5 97 3b
       -0.021118632 0.10138334 0.00012479552 0.0046297507
0002b0 96 55 7e 3d ab af 88 bd d1 db 96 3d 6a 30 7f bd
       0.06209334 -0.06674131 0.073661454 -0.06230203
0002c0 62 09 30 be cc 32 c6 3d d0 2f af bd 75 58 c4 3d
       -0.1719108 0.096776575 -0.085540414 0.09587184
0002d0 b6 8c 40 3c 61 e8 73 bc aa b8 93 3d bd 90 e9 3d
       0.011752298 -0.014886946 0.07212956 0.1140456
0002e0 83 c1 07 bd eb ae 9b 3d e4 72 06 3e 03 e5 c2 bc
       -0.03314353 0.07601722 0.13129765 -0.023790842
0002f0 72 4f 8f 3d 32 80 eb bd 72 05 7e bd 2e 04 03 3e
       0.06997575 -0.11499061 -0.06201691 0.12794563
000300 c8 dc 83 3d 9b 1a ae bb 3c 35 a0 3d 02 af 0d bd
       0.06438595 -0.00531323 0.07822654 -0.03459073
000310 41 9f e6 3d 47 c4 0b 3e fb 46 81 3c 4e 07 bf 3d
       0.11260844 0.13649093 0.015780916 0.09327565
000320 6d 43 40 bd a5 1c 06 bd 7c 70 1e be 93 a9 ca bd
       -0.046939302 -0.03274216 -0.15472597 -0.09895625
000330 2d 9e 87 3d ec 63 b9 bd db 5a 86 bc 4b 05 8b bd
       0.066219665 -0.09052262 -0.016400745 -0.06788119
000340 5e cf e5 3d c0 e1 c6 3c 20 81 d4 bc 32 3d 96 bd
       0.11221193 0.024277568 -0.025940478 -0.07335891
000350 aa 07 60 bc 6b 42 09 bd 54 25 07 be bf 4d ea bd
       -0.013673702 -0.033510607 -0.13197833 -0.1144061
000360 bc ed b5 bd f3 77 b4 3d a9 7d 2e 3d 0f 7e 83 3d
       -0.08883235 0.08811941 0.042600308 0.06420528
000370 89 d9 a6 3d 7d b0 fa bd 8f cc f5 3c 73 c1 99 bd
       0.0814696 -0.12240694 0.030004768 -0.07507601
000380 5f 1b 84 3d 92 5c 82 bc 60 7d 96 3d 6c df 5e bc
       0.06450533 -0.015913282 0.07348132 -0.013603073
000390 53 0f c6 bd 12 b2 d2 3c 74 70 a3 bc 0c bf eb 3d
       -0.096708916 0.025719676 -0.019951083 0.11511049
0003a0 dd e2 14 be be 89 e1 bc c5 f2 a1 bd 65 36 d9 3d
       -0.14539666 -0.0275315 -0.07907633 0.10606078
0003b0 04 67 a3 3b a9 c7 a6 bd bf fd 56 3d 75 ae be 3d
       0.0049866457 -0.08143551 0.052488085 0.09310619
0003c0 e4 e9 cd bd aa 37 29 3d 68 20 d3 bd 7d 50 ea bd
       -0.10054377 0.04131285 -0.103089154 -0.11441133
0003d0 54 7d f3 3d 85 80 cb 3d 3b e6 a7 3d 75 6d a5 bd
       0.11889139 0.099366225 0.0819821 -0.08077518
0003e0 70 65 95 bc 19 b2 25 bd 92 9b 92 bd f9 bf f3 bc
       -0.018236846 -0.04045305 -0.07158579 -0.029754626
0003f0 7e e9 da bc e4 6c 7d bc 93 15 d4 bc 68 b4 93 bb
       -0.026722666 -0.015467856 -0.025889194 -0.00450759

critic.2.bias f4 [64]
000000 f9 bb 88 bd 6e b7 eb 3c 76 8d ee bd a9 31 09 bd
       -0.06676478 0.02877399 -0.11648075 -0.033494625
000010 43 fe ac bd 93 86 87 bd 1c 7e 8e 3d 99 33 c7 bd
       -0.08446934 -0.06617465 0.06957647 -0.09726638
000020 33 43 8c bd c6 4e 8b 3d 3e 34 e6 bd 8c 0c 24 bd
       -0.06848755 0.06802134 -0.11240433 -0.040051028
000030 99 d8 72 3c 47 3f 6e bd 1a de 7c 3d 1f 2c 56 be
       0.014822149 -0.058165815 0.06173525 -0.20915268
000040 da 7e 5c bd 85 9a 65 3d 4d dd 3a 3d d6 69 f9 3c
       -0.053831913 0.056055564 0.045621205 0.030445974
000050 95 c3 a7 bd 14 db 2c bd a1 ed 1a be c3 9f 88 bd
       -0.08191601 -0.042201117 -0.1512971 -0.06671097
000060 f1 6b 16 3d c8 5d c1 bd 2f 69 26 3d 1b bf 9f bd
       0.036724035 -0.094417155 0.040627655 -0.07800122
000070 83 20 14 3e 27 18 d1 3c a3 db 8e 3c 5a 76 bc bd
       0.14465527 0.025524212 0.017438715 -0.09202261
000080 66 4b f9 3d 80 49 b7 bd 17 04 8f 3d 21 36 d2 3c
       0.12172584 -0.08949566 0.06983202 0.025660576
000090 ac 8e 5b bc 5d e9 59 bc 15 2e 9b 3d 6d 30 f1 3d
       -0.013400715 -0.013300267 0.07577149 0.117768146
0000a0 a0 87 0a be f7 ea 06 3d cc e9 6c bc d4 76 dd bd
       -0.135283 0.032938924 -0.014460038 -0.1081368
0000b0 39 de bc bd 5d 39 00 be d9 5c de 3d 8e 55 04 be
       -0.09222073 -0.12521882 0.10857553 -0.12923262
0000c0 36 0c da bc 9b d4 f5 bd 89 e9 6e 3b 9d 15 12 bd
       -0.02661715 -0.12003442 0.0036455116 -0.035665143
0000d0 8c 21 11 3d 94 37 8d bd 1b 1d f9 bd b4 da 40 bd
       0.035432383 -0.06895366 -0.121637546 -0.04708357
0000e0 96 de b5 bd 8f a3 df 3b 40 ec 00 bd f4 07 26 be
       -0.088803455 0.0068249176 -0.031475306 -0.16213971
0000f0 8f e1 4e 3d e4 c3 c5 3c 94 82 84 3d 01 f7 5f 3c
       0.05050808 0.02414126 0.06470218 0.01366973

critic.4.weight f4 [1, 64]
000000 56 72 96 3d 02 0c 13 3d 01 a7 10 3d 07 68 36 3c
       0.073460266 0.035900123 0.035315517 0.0111332005
000010 e7 7d ec bd 64 a1 73 bd 21 79 cb 3d 89 29 2e bd
       -0.115474515 -0.059480086 0.09935213 -0.04252008
000020 0d 6a 6e bd 9d 78 47 3c da f1 7e 3d dc 09 81 3c
       -0.058206607 0.012174753 0.062242366 0.015751772
000030 06 da bd bc 39 e0 b9 bc ef ff cd bd 42 c2 03 3e
       -0.02317525 -0.022689926 -0.10058581 0.12867072
000040 ef e9 a8 bd ea 82 02 3a b2 9b da 3d e4 79 31 bd
       -0.08247744 0.0004978614 0.10674228 -0.043329135
000050 05 23 60 bd d2 31 94 bd bc 73 89 bc bb a0 ff bc
       -0.054720897 -0.07236065 -0.01677882 -0.031204572
000060 0f d4 71 bc 72 b5 94 bd f6 52 13 bd 33 36 3d 3c
       -0.014760031 -0.072611704 -0.03596779 0.011548567
000070 29 db 89 bd 7d 49 7d bd 2e 24 ac 3c 8a 57 13 be
       -0.067312546 -0.061837662 0.021013346 -0.14388862
000080 f8 78 66 bd cc 46 69 3c 2b 40 0b 3d 4f 4f 9d bd
       -0.05626771 0.014238071 0.033996742 -0.076811425
000090 f8 8d 1c bc 80 05 5e 3d e5 0b 22 3d 13 4e b0 bc
       -0.009555332 0.054204464 0.039562125 -0.021521604
0000a0 02 39 88 bc 90 fc c6 bd 0c 93 d7 bd a8 6a 1d be
       -0.016628746 -0.09716141 -0.10526094 -0.15372717
0000b0 30 b3 51 3e f3 3c 87 bd a8 73 37 bd ee 72 92 bd
       0.20478511 -0.06603422 -0.044788033 -0.07150827
0000c0 2e 0f 2b 3d d9 6e b4 3d 60 16 e8 bb cd 69 06 bd
       0.041762523 0.08810205 -0.0070827454 -0.032815743
0000d0 ea 02 55 bd 4f 81 40 bd ab 96 9e bd 53 c3 ec 3d
       -0.052004732 -0.04699832 -0.077435814 0.11560693
0000e0 28 e7 92 bd 5b f0 6a 3d f6 94 62 3d 89 85 0b 3c
       -0.07172996 0.057358127 0.05531784 0.008515724
0000f0 f9 2d 76 3d 3f 3c 93 bc 2f e4 9d 3d 21 fd a6 bd
       0.060102437 -0.017973064 0.07709538 -0.08153749

exp_avg f4 [6]
000000 1a bf 3e 39 df 50 5d b7 7e a4 12 bb e5 de c2 38
       0.00018191003 -1.3191456e-05 -0.0022375877 9.292158e-05
000010 37 74 81 b9 ae 95 c1 bb
       -0.00024691384 -0.005907736

exp_avg_sq f4 [6]
000000 d8 68 89 35 f9 51 92 37 42 47 3b 3a e1 61 9f 36
       1.0237809e-06 1.7442728e-05 0.0007144102 4.749964e-06
000010 12 cf 81 36 4b 02 60 3a
       3.8686057e-06 0.00085452636
