04-goal-pose-l6/logs/rsl_rl/joint_position/2026-02-18_14-34-58/model_5800.pt (torch, 161397 bytes, 36 tensors)

std f4 [6]
000000 d3 16 db 3d 48 df ac 3c ce 9f 52 3b 8d b8 8f 3d
       0.10697713 0.021102563 0.0032138708 0.07017622
000010 b1 64 58 3d 89 03 35 3c
       0.0528304 0.011048206

actor.0.weight f4 [64, 25]
000000 94 9a 22 bd bb 3a 8b 3e 9a 69 b2 be 29 8a 7e be
       -0.0396982 0.27193245 -0.34846193 -0.24857391
000010 3b 2a ac be b8 78 4d be 12 90 fe 3c cb 56 ec bd
       -0.3362597 -0.20065582 0.031074557 -0.11539992
000020 ba 0b 21 3e 42 cd 0a be c9 c5 70 3d 92 fb d3 3c
       0.1572713 -0.13554862 0.058782373 0.025876794
000030 ab c5 42 be 3b 40 a9 be 36 68 d4 be e2 3c ae be
       -0.19020717 -0.33056816 -0.41485757 -0.34030825
000040 2d d3 00 bf 56 c4 0e be 3b 38 0d 3f d0 e4 62 bb
       -0.5032223 -0.13942084 0.55163926 -0.0034621246
000050 ab 59 a7 3e 2c 1d f6 be fa 92 ac 3d ad 29 d7 bd
       0.326856 -0.4806913 0.08426471 -0.10505996
000060 e3 25 e9 bd 7d 6d 40 3e f5 6a 05 3e 5f 56 be be
       -0.113841794 0.18791766 0.13029082 -0.3717527
000070 6d 17 d7 be fc 6c b1 bd c5 2d da be 85 21 0b be
       -0.4201006 -0.08663365 -0.42613044 -0.13587005
000080 ee 90 c9 3d ab a8 63 3d dc 92 73 3c b7 48 b6 bd
       0.09842096 0.055580776 0.014866557 -0.08900588
000090 b2 63 63 bd b5 b2 8b be 0a ff a3 bc c5 f8 d1 be
       -0.055515 -0.2728478 -0.020019073 -0.4101011
0000a0 c5 62 66 be ca c3 83 3f fe 56 96 be a6 ec 7c bf
       -0.22498615 1.0294125 -0.29363245 -0.98798597
0000b0 3e ac b0 3d f3 95 16 3e d0 91 83 be b7 1c 60 be
       0.086266026 0.14705639 -0.25697184 -0.21885954
0000c0 c6 ac 53 3e 57 3c 7b be 37 0e aa be f4 35 5e 3e
       0.20671377 -0.24534737 -0.3321397 0.21700269
0000d0 db da d0 bd 42 93 20 3e 70 15 7b be 5b f3 02 3e
       -0.10197993 0.15681174 -0.24519897 0.12788145
0000e0 ed 68 7f be 89 fb 62 3e e7 b3 01 3e c4 77 fe 3c
       -0.2494237 0.22166266 0.12666284 0.031062968
0000f0 b8 71 0e 3d 09 f8 f0 3d c0 d9 d8 be 5a 4d e7 bd
       0.03477642 0.11766059 -0.4235363 -0.112940505
000100 24 80 84 bd 57 15 68 be ab f8 0f 3f 10 aa 9a be
       -0.064697534 -0.2266439 0.5623881 -0.30207872
000110 da 79 06 bf 98 05 3b be cb 4d 91 be 62 18 f4 39
       -0.5252968 -0.18263853 -0.28379664 0.00046557473
000120 13 13 12 3e f9 a8 d3 3d 82 77 17 bc 4a f4 2b 3e
       0.14265089 0.10334963 -0.0092448015 0.16792408
000130 e4 79 82 3e bb 9a b1 bd c4 36 2d bf ee 14 0b 3e
       0.2548362 -0.086720906 -0.6766169 0.13582203
000140 79 31 18 bf 70 f9 d0 3d ae 56 b6 3d 3f 00 92 bd
       -0.5945049 0.102038264 0.089032516 -0.07128953
000150 0d 99 27 be 2f e5 86 3d 21 a6 ef 39 38 63 bb be
       -0.16366978 0.06586682 0.00045709408 -0.36599135
000160 b5 ae 60 be db da ab be 60 fb b1 be d9 aa 05 3f
       -0.21941645 -0.3356541 -0.34762096 0.5221382
000170 72 e8 97 be 43 d3 1e bf 0b 9f 0f 3e 41 a9 e7 3d
       -0.2966953 -0.6204111 0.14025514 0.113115795
000180 18 3b 47 be f3 8d 2f 3e db 74 f3 bd b2 c7 05 bd
       -0.19456136 0.17143993 -0.11887523 -0.032661147
000190 77 84 5e be d2 e2 fa be 2b a3 9a 3e ac d1 f0 3d
       -0.21730219 -0.49001175 0.30202612 0.11758742
0001a0 81 48 97 be b6 5d fb 3d dd 50 fa 3d 01 da 3b 3d
       -0.29547504 0.12273733 0.12222455 0.0458622
0001b0 cc cc a7 bb bc ad 26 bd d1 53 86 bc f8 12 83 3d
       -0.0051208492 -0.04069303 -0.016397389 0.064001024
0001c0 ea 07 79 b9 dc af 71 3e c3 63 3f bf 52 e7 ce bc
       -0.00023749439 0.23602241 -0.747616 -0.025256786
0001d0 fe 2d bd bf 9d 1f ea 3d 4f 79 bf 3f 5c e1 e5 bd
       -1.4779661 0.11431811 1.4958895 -0.112246245
0001e0 f3 32 4b 3d 63 89 ca bd 41 9b 30 3d a3 71 7b bd
       0.049609136 -0.09889486 0.04311681 -0.06138767
0001f0 09 c5 43 bd 55 5b 08 3f 9c 71 02 bf 44 f5 40 3e
       -0.04779533 0.5326436 -0.50954604 0.18843561
000200 00 49 6a 3e 71 07 4d 3f d9 ff 03 3e 4b 3d 81 bd
       0.2287941 0.8008948 0.12890567 -0.06310519
000210 d5 8c 80 3d c1 6a 12 bd 5e d5 5b 3e d1 ea 59 be
       0.062768616 -0.03574634 0.21468112 -0.21280982
000220 7c fd c5 bb 5a 43 0f bf 2c 57 72 bf 87 42 b8 be
       -0.0060421806 -0.55962145 -0.94664264 -0.35988256
000230 a4 4f 6c 3d 41 52 71 3f f5 1a d0 bd 33 45 4a bf
       0.05769314 0.94266135 -0.10161392 -0.7901184
000240 dc 80 c7 3e 9b 7e d7 3d 3d 3c 28 be cc 05 86 3c
       0.389655 0.10522195 -0.16429229 0.016360186
000250 81 21 56 bc 5e cd 91 3d 3c c1 2b 3d 72 00 01 3f
       -0.013069511 0.07119249 0.04193233 0.50391304
000260 ac e6 d6 bd bd a0 03 be d7 f5 40 bf 10 bb 9c be
       -0.10493216 -0.12854286 -0.7537512 -0.30611467
000270 55 a4 44 be 56 86 ac be 12 6d fe 3d ca 0a 9e bb
       -0.19203313 -0.3369624 0.12423147 -0.0048230635
000280 59 99 1f 3e 3c bd 95 3d 5a e8 36 be 50 ca 18 40
       0.15585841 0.07311484 -0.17862073 2.3873482
000290 19 e8 57 3f eb 0e a5 bd 02 a4 d7 3e 62 87 4e 3d
       0.8433853 -0.08059486 0.42117316 0.05042208
0002a0 66 f0 85 be 71 a1 89 be 14 70 7e 3e ea c4 8e bd
       -0.26159972 -0.26880983 0.24847442 -0.06971152
0002b0 7a c7 e1 3d 91 84 97 bd 40 41 bb 3b c4 c6 62 be
       0.11024375 -0.07398332 0.0057145655 -0.22146136
0002c0 00 e7 b4 3e 83 cb c5 3d 27 2b c0 3d 58 a6 c6 be
       0.3533249 0.096579574 0.09383231 -0.38798785
0002d0 a0 fd a3 be 8e 19 73 3d e0 27 e0 3d b3 16 a6 3d
       -0.32029438 0.059350543 0.109451056 0.08109798
0002e0 89 93 81 bc 5e 92 0c bc ad 6b 64 be 07 3e 85 bf
       -0.01581742 -0.0085798185 -0.223067 -1.0409554
0002f0 00 34 7d 3f 3d d4 27 bc 3b 1d 9b 3e 14 68 ae bc
       0.9890747 -0.010243473 0.3029574 -0.021289863
000300 fe 47 ed 3c 71 26 aa bd a7 79 91 3d a7 ec 1f 3e
       0.028964993 -0.08308113 0.071032815 0.1561762
000310 bc 4a ea 3c dc 51 b6 3d c8 3a aa bc a9 7f 6d bd
       0.02860009 0.08902332 -0.020779982 -0.057983074
000320 0b 64 4c 3e 4f 6d 87 3f 6d d5 9a be a4 b5 57 be
       0.19960038 1.0580233 -0.30240956 -0.21065384
000330 7d e6 d0 be bb ca 75 3e ab dc ca bd da 23 79 3d
       -0.4080085 0.24003117 -0.0990537 0.060825206
000340 33 91 f7 bd 1e 4e 89 be 18 f9 51 3d 52 f8 ca 3d
       -0.120882414 -0.2681741 0.051262945 0.099106446
000350 f4 c0 1e be bf b1 01 c0 b8 89 0c 3f 32 ae ab 3b
       -0.15503293 -2.0264738 0.5489764 0.0052392716
000360 03 e8 af bf 8d 58 40 3e cd a8 b9 3f 29 b3 f3 3d
       -1.3742679 0.1878378 1.4504639 0.118994065
000370 01 e4 ae 3e 98 d9 c8 bd 24 56 3d 3e 9b 29 39 3d
       0.34158328 -0.09807128 0.18489891 0.045205694
000380 24 89 ab 3d 28 84 c5 be 80 c9 8c bd 29 ea 66 3e
       0.08375767 -0.3857739 -0.068743706 0.22550263
000390 e0 b9 7f be a1 9b f4 be 76 ad b0 bd 75 36 e1 bd
       -0.2497325 -0.47774985 -0.08626835 -0.10996715
0003a0 be 06 d0 3d ed 82 00 be ae 0e 4d bd 0b d7 09 bd
       0.10157536 -0.12549944 -0.050062828 -0.033652347
0003b0 bf 32 a8 3d 0a 12 2c bf 9a 09 94 3f ff 37 19 3f
       0.08212804 -0.67215025 1.156543 0.5985107
0003c0 24 f4 38 3e 3f 81 7e bf 4b 9c 1a 3e 2b 90 8d 3f
       0.18061882 -0.99415964 0.15098684 1.1059622
0003d0 3f 7e ce bd eb 8f 25 be da 72 ea 3d 7d 75 d1 3d
       -0.10082673 -0.16168182 0.114476874 0.10227487
0003e0 e8 8f 73 bd ea 46 35 be f1 33 7e bf df ae b3 3e
       -0.05946341 -0.17702833 -0.99298006 0.35094354
0003f0 66 8a 2f bf 96 4e 9c 3e 0c 3c 67 bf 91 70 ef 3e
       -0.68570554 0.30528706 -0.90326 0.4676557

actor.0.bias f4 [64]
000000 bf 45 8c be 06 ad df be ac 7b 68 be 82 3e 05 bf
       -0.27396962 -0.43686694 -0.22703427 -0.52048504
000010 e7 31 cc bd 97 13 98 be 84 c8 9e bd 6c 71 fe 3d
       -0.099704556 -0.29702446 -0.07753089 0.12423977
000020 2f c7 46 bd 20 df 27 3e 5a 83 5e bd 1f f5 6f be
       -0.0485298 0.16393709 -0.054324485 -0.2343335
000030 0f 0d 1a be f5 34 7e bd 00 1f ed 3c 35 0c 17 be
       -0.15044044 -0.062062223 0.028945446 -0.1475075
000040 5e a5 7b 3d 19 57 4c 3e 5e 6a ca bd a8 a3 92 bd
       0.061437003 0.199551 -0.09883569 -0.07160121
000050 7a ed 2c 3d 1f 2e 7d bd 43 96 f5 ba 87 a7 51 be
       0.042218663 -0.061811563 -0.0018736798 -0.20474063
000060 f8 84 47 3d fe c9 4f be f2 0c 56 3d 7b 98 d8 bb
       0.048710793 -0.20291898 0.05225844 -0.006609974
000070 37 26 35 be db 85 af 3e c9 4c 1f be ff 7b 97 be
       -0.17690359 0.3428181 -0.15556635 -0.2958679
000080 e2 a8 32 bc fd 9f 09 bd 29 b1 df 3d 94 5e 4a 3e
       -0.010904523 -0.033599842 0.109224625 0.19762641
000090 62 ae 0c 3d 33 d1 d1 be ba 6f 1d 3e 3c 9c b2 be
       0.034345992 -0.4097992 0.15374652 -0.34884822
0000a0 21 73 56 bc 6c 9c 8c bd 67 3a 45 be 98 be e7 3d
       -0.013088972 -0.068657726 -0.1926056 0.1131565
0000b0 f2 24 a8 3c 7c e7 6a be 7e d3 b6 3d f9 00 1f bd
       0.02052543 -0.22939867 0.08927058 -0.038819287
0000c0 dd 67 14 3c d0 95 1b 3e ff 40 00 be 59 80 54 be
       0.009057966 0.15193868 -0.12524794 -0.20752086
0000d0 12 43 72 be 0a 24 5d be ef d4 34 3d 14 7d 81 be
       -0.23658398 -0.21595779 0.04414838 -0.2529074
0000e0 0c 97 16 3c 8a 03 3c be c6 5f 0e 3e 97 e8 dd 3c
       0.009191286 -0.18360725 0.13903722 0.027088447
0000f0 59 d4 07 3e 3e b1 17 bd 5d ec 65 3e 65 21 2e 3e
       0.13264598 -0.037034266 0.22453447 0.17004927

actor.2.weight f4 [64, 64]
000000 7b 45 49 3e 62 a2 1f 3e ac 36 7d bb 1e a3 17 3e
       0.19655411 0.15589288 -0.0038637323 0.14808318
000010 71 75 bc bd ab 84 0b bd d6 bf 53 bc 24 4b 70 3d
       -0.09202088 -0.03406207 -0.012924155 0.05866541
000020 9d 38 cd bd 56 82 4b be ba 84 a5 3d 42 7e 73 3d
       -0.10020564 -0.19873938 0.08081956 0.05944658
000030 56 05 ea bc e8 05 4c 3e 9c 84 f8 bc 29 05 0a 3d
       -0.028566997 0.19924128 -0.03033667 0.033696327
000040 06 86 0c be 4b d4 5c bc 5c cd 57 bd 0e 4d a5 bd
       -0.13723001 -0.013478349 -0.05268608 -0.08071338
000050 bf 0f 4f 3d f8 8f 65 bd 54 18 3e be 9f 6f 92 bd
       0.050552126 -0.056045502 -0.18563968 -0.07150196
000060 73 03 07 bd c1 f9 19 be 10 76 a7 3c f4 ea 38 3e
       -0.032962274 -0.1503668 0.020442039 0.18058378
000070 31 85 1b 3e c6 3f 58 bd 21 9c 29 3b 58 59 e7 3b
       0.15187527 -0.052795194 0.0025880414 0.007060211
000080 0c 36 ec 3d 0b 69 2e 3e 12 1b f5 bd 6c a8 ed 3d
       0.11533746 0.17032258 -0.11968054 0.116043895
000090 fb 54 ca 3d 5f ea ea 3d c0 00 37 3e fd 59 df 3d
       0.0987949 0.11470484 0.1787138 0.10905836
0000a0 eb 3c 51 3d 81 db 01 3e b4 a1 93 bc c5 8c 78 bd
       0.051083487 0.1268139 -0.018021442 -0.060681123
0000b0 5a 51 c1 bd c8 96 2e 3e 97 d9 30 be 26 d3 93 bd
       -0.09439345 0.17049706 -0.17270504 -0.07218008
0000c0 20 66 3e be ed 0f 75 be 06 e9 7a 3c de f2 04 bd
       -0.18593645 -0.23931856 0.015314346 -0.03245818
0000d0 35 d0 3a 3e a1 7a da 3c 0b db a8 3d 9a 3f 4a ba
       0.18243487 0.026669802 0.08244904 -0.0007715166
0000e0 29 8e 97 bc 61 1f 60 3d 94 35 25 be 10 60 7b bd
       -0.018500404 0.054717425 -0.1613372 -0.06137091
0000f0 a5 60 aa 3c 32 41 28 bc d2 a2 f9 bd 85 46 89 3d
       0.020798037 -0.01026945 -0.12189259 0.06702904
000100 0b 07 50 bd cc 16 eb bd a1 82 80 3e a1 2c 14 3d
       -0.050787967 -0.114789575 0.25099662 0.036175374
000110 d0 55 0a be 1f dc 71 3e fc 1b ea 3d fd a5 79 3e
       -0.13509297 0.23619126 0.11431119 0.24379726
000120 5e a9 80 bc ed 3a e8 3d be 5c 83 be 94 fe 9a bc
       -0.01570576 0.11339364 -0.25656694 -0.01892022
000130 b7 d3 6b 3d b1 15 19 3e 22 e7 fb bd d3 64 dc 3c
       0.057574954 0.14949681 -0.122999445 0.026903545
000140 43 c7 ba 3c eb f3 9e bd d9 d8 cb bd 05 1c f4 bd
       0.022800094 -0.077613674 -0.0995347 -0.11919407
000150 87 36 2e 3e b5 3c f9 3d 4a 09 6c be 87 76 2c 3d
       0.17012988 0.12169782 -0.23050418 0.042105224
000160 89 9f 4d be 67 17 c0 bb d2 d0 d0 3d ad 8f a1 3b
       -0.20080389 -0.005862165 0.10196079 0.0049304576
000170 ea f1 9c 3d 78 ac 3d 3e cd 84 3e be e1 88 33 be
       0.07663329 0.18522823 -0.18605347 -0.17532684
000180 e9 52 ef 3d 8f 27 17 3e 5b ab b1 bd 30 7f b7 3d
       0.11685736 0.14761184 -0.086752616 0.08959806
000190 16 0d 81 bc e4 57 2e 3d b4 1c e8 3d c3 0c 13 bd
       -0.01575331 0.042564288 0.113336 -0.035900842
0001a0 c1 a5 6f 3b 6f 75 a7 3d b9 02 40 3c 4d 3b eb bc
       0.0036567303 0.081766956 0.011719399 -0.0287148
0001b0 70 93 79 3d 50 df b9 3c 7a 4d 26 be 6c 9c 8b bd
       0.060931623 0.022689492 -0.16240492 -0.068169445
0001c0 8a 61 b0 3e 96 13 3c be 18 28 95 bd e7 48 aa bd
       0.34449416 -0.18366846 -0.07283038 -0.08314686
0001d0 1b 86 89 3c ba e6 9e be 70 b9 59 bd e6 e5 ca 3e
       0.01678758 -0.31035405 -0.053155363 0.39628524
0001e0 d7 10 89 bb e7 97 90 bd a0 73 eb bd 92 7e f5 3c
       -0.0041829157 -0.07060223 -0.11496663 0.02996758
0001f0 ed c7 c5 be 9c 6f a1 bd b4 bc d8 3d ab 3b e8 bd
       -0.38629094 -0.07882616 0.10582867 -0.11339506
000200 77 3e 35 3e 20 4c 16 3f 3d 2e 69 be 5d 5b ac 3e
       0.1769961 0.5870991 -0.22771545 0.33663455
000210 8d 81 45 be b6 7c 30 be 2f 8e 02 3e de a0 b6 3d
       -0.19287701 -0.17235073 0.12749551 0.08917402
000220 ac 0c 07 be cc c8 e7 bd 12 61 0c bd 43 f4 66 3e
       -0.13188428 -0.11317596 -0.03427226 0.22554116
000230 09 6d 79 be df 6a aa 3e df 64 66 3e 60 37 80 3d
       -0.24358 0.3328466 0.22499417 0.06260562
000240 da 14 9f be 57 cd 30 bc 40 cc 48 bd 99 bc e8 bd
       -0.31070596 -0.010791144 -0.049022913 -0.11364097
000250 61 e6 94 3d 8c 05 06 be f9 8d b6 bc 74 98 2c be
       0.07270504 -0.13088053 -0.022284495 -0.16855031
000260 52 5e 0b 3e 28 ea a2 bc 70 dd af 3e 32 9c 5e 3e
       0.13610199 -0.019887045 0.3434863 0.21739271
000270 83 91 5f 3e 1e 0d 9c 3b 9d bc 80 bd 02 cb c8 3c
       0.21832852 0.004762306 -0.06285975 0.024510864
000280 12 bb 7c 3e 66 19 60 3e 33 8f ec bc 70 cb ab bc
       0.24680737 0.21884689 -0.028876876 -0.02097103
000290 26 b4 52 bd d9 c2 6f 3d d6 46 90 3e b2 5f 4e 3e
       -0.051441334 0.05853543 0.28179044 0.20153692
0002a0 d4 08 4b be 8e c7 f1 3e f8 8f 88 be ee 82 89 be
       -0.19827586 0.4722256 -0.2667234 -0.26857704
0002b0 51 f7 30 3d fd 93 49 3e 74 ac e6 3c cf 1c d6 bd
       0.04320461 0.1968536 0.028158404 -0.104547136
0002c0 e4 26 20 be 91 db 13 bc bc b0 e6 bd 7e c2 cf bd
       -0.15639836 -0.009024517 -0.11264178 -0.10144518
0002d0 e7 88 82 3e c1 0b 01 bc 7a 58 06 3e 5e 08 ee 3d
       0.25495073 -0.0078763375 0.13119689 0.1162269
0002e0 5a dd 25 bd c6 25 1a 3c 3f d7 14 3e 5e dd 53 3e
       -0.0404943 0.00940842 0.14535235 0.20689914
0002f0 e3 d8 db 3d 4e f2 48 bc b3 cc 08 be 12 b4 2f bc
       0.10734727 -0.012264801 -0.13359337 -0.010724084
000300 a1 ec 48 3d 6b 26 cd 3d 1a fd 1b be 79 d8 ad bd
       0.049053792 0.10017093 -0.1523327 -0.084885545
000310 82 3d 05 3e c6 57 c3 bd 74 63 ae be fb 87 92 be
       0.13011745 -0.09538226 -0.34060252 -0.2861937
000320 af 03 66 be 21 bc df be 45 7a 92 bd ea e1 9e bd
       -0.22462343 -0.43698218 -0.07152227 -0.077579334
000330 e0 8e 60 3e 5c 5b 4a 3e 41 6d 8d bd 5c 27 96 bd
       0.21929502 0.19761413 -0.06905604 -0.07331726
000340 86 16 35 3e 47 14 27 bd 46 dc 13 3e d9 96 cb 3e
       0.17684373 -0.040790822 0.14439496 0.39763525
000350 63 8b a8 bd 0c 38 f4 3a 0f d6 56 3e e9 4a 30 bd
       -0.08229711 0.0018632426 0.20980094 -0.04304019
000360 76 07 62 3d 49 27 15 3c d3 d8 6b bd 54 78 87 bd
       0.055182897 0.009103605 -0.057579827 -0.06614748
000370 7f c6 70 bc 6b 1e 84 be 0e f3 50 3e e6 ad c6 3d
       -0.014695763 -0.25804457 0.20405218 0.09701137
000380 85 1b c4 bd 56 9a 93 3c 71 13 af be 7d 9f be 3d
       -0.095755614 0.018017929 -0.3419452 0.09307764
000390 dc f1 61 bb 9e f7 a0 bd 79 a3 e5 bc 62 eb 18 3d
       -0.0034476435 -0.07859729 -0.028032051 0.037333854
0003a0 df 61 3a 3e 37 dc 27 3e bd fd 13 3e 91 49 05 3d
       0.18201397 0.16392599 0.14452262 0.03254086
0003b0 69 d8 0c 3e 22 1c 0d 3e 48 1e 93 3e 4b 73 55 3e
       0.13754429 0.13780263 0.2873404 0.20844762
0003c0 84 c2 a4 be f5 24 2d 3e ec f5 c3 3e cb 90 41 be
       -0.32179654 0.16908629 0.3827356 -0.1890289
0003d0 df 7f c2 3d a9 b4 9a 3e 19 76 15 be de 85 e9 be
       0.09497046 0.30215958 -0.14595832 -0.45609945
0003e0 0d a6 c7 3d 1d f4 d4 3d 09 84 28 be 20 ef c0 bd
       0.097484685 0.103981234 -0.16456617 -0.094206095
0003f0 be ae 14 3f 57 75 97 3d 67 da 62 3e ad 82 2d 3e
       0.58079135 0.07395428 0.22153626 0.1694438

actor.2.bias f4 [64]
000000 93 15 46 be 21 dd c7 3c c0 11 b8 be 4b 10 b5 bd
       -0.19344167 0.024397435 -0.35951042 -0.08840998
000010 23 42 20 3e 55 96 7d be e0 ab b9 bb 9c 9f a8 be
       0.15650229 -0.24764378 -0.005666241 -0.32934272
000020 12 a9 3d be f1 73 0d 3e a3 ff 64 be 51 38 19 3e
       -0.18521526 0.1381376 -0.22363143 0.14962889
000030 07 bd 1a be 6e a1 69 bd 85 88 bb bd 8e 5c 80 bc
       -0.1511117 -0.057038717 -0.091568984 -0.015669134
000040 82 db 0a be 96 d8 2b 3e 5e 1e d3 bc 10 2b a3 be
       -0.13560298 0.1678184 -0.025771316 -0.31868792
000050 c9 57 7f 3e e8 a2 b1 3d 00 c3 ac be c9 71 8d bc
       0.24935831 0.0867365 -0.33742523 -0.017266171
000060 b7 47 1d 3e ae f3 ab bd c2 7e 05 be 60 15 78 3d
       0.15359388 -0.083960876 -0.13036636 0.06056726
000070 55 35 a5 bd 35 06 a9 bd 29 fc f3 be 13 8a aa 3d
       -0.08066813 -0.08253137 -0.4765332 0.08327117
000080 d1 c3 96 be 01 61 4f 3c 02 98 fd be 37 08 a1 be
       -0.2944627 0.012657405 -0.49530035 -0.3145158
000090 ac c4 a8 bb dc 7a dd bd 19 f2 82 3e 9b c6 4d bc
       -0.0051503982 -0.10814449 0.2557533 -0.012559558
0000a0 9e 42 d7 3c c9 b0 f1 bd cb f9 37 bc 0f e1 57 3d
       0.026276883 -0.11801297 -0.011228989 0.052704867
0000b0 04 04 1d bd 51 aa 0e 3d 4b 04 a8 3c c9 de 62 bc
       -0.038333908 0.034830395 0.02050986 -0.013847061
0000c0 f7 66 49 3d 5d 37 38 bd d9 14 28 3e ff 0b 71 be
       0.04917046 -0.044974674 0.16414203 -0.23539732
0000d0 47 d8 ae be f2 0b f5 bc ce 07 db be 94 b6 4d be
       -0.34149382 -0.029912923 -0.42779392 -0.2008918
0000e0 82 d6 6f bd e2 27 83 be 09 d8 85 bd 54 df 92 bd
       -0.05855418 -0.25616366 -0.06535346 -0.07171503
0000f0 8d 1a 41 bd 77 96 8f 3b 8c 39 84 3d a0 4c 60 be
       -0.04714446 0.0043819505 0.06456289 -0.2190423

actor.4.weight f4 [6, 64]
000000 a1 57 b4 bd 01 23 d4 3d 83 b8 65 bc 06 fa f6 3c
       -0.088057764 0.10358239 -0.014021042 0.030148517
000010 74 4a a8 bb fa 7e 1f 3e 80 49 90 bd 24 8c 18 bd
       -0.0051358286 0.15575781 -0.07045269 -0.037243024
000020 a7 a9 f0 3d 3b d9 16 3e 37 ce 01 be 44 94 04 3e
       0.117511086 0.14731304 -0.12676321 0.12947184
000030 87 ec ad be b1 b9 1b be f8 ae 3f 3e 4f 4b 06 3e
       -0.3396952 -0.15207554 0.18719089 0.13114665
000040 31 f0 aa bd c6 a1 02 3d cc 69 14 3c 46 60 90 3d
       -0.08346594 0.03189256 0.009058427 0.07049613
000050 4b 62 0f bd 01 f7 30 3d 3b ed 9a 3c f9 8d ee 3d
       -0.03500585 0.04320431 0.018911948 0.11648173
000060 59 62 bd bd f5 87 d7 3d 41 51 64 3e 5c 0f 0f 3a
       -0.09247274 0.105239786 0.22296621 0.0005457306
000070 60 c4 05 be 77 45 d8 bd 1e 8f 1b 3d f9 77 01 3e
       -0.13063192 -0.10560124 0.037978284 0.12643422
000080 c5 7e 6e bd df d9 1f bd 6e 43 8d 3d a6 54 9e be
       -0.058226366 -0.039026137 0.06897627 -0.30923957
000090 fa 79 7f be 87 05 9c 3d a2 80 90 bc c3 b6 c6 bc
       -0.24948874 0.07618242 -0.017639462 -0.02425707
0000a0 0a 08 26 bd 5f 59 04 be 11 9f 44 3e f5 b1 89 3d
       -0.04053501 -0.12924717 0.19201304 0.06723396
0000b0 48 09 31 3e 4b cd 09 3e 7d f7 0b 3d 9f 31 c9 bd
       0.17288697 0.1345722 0.03417157 -0.098239176
0000c0 b7 87 25 bd 50 c7 88 3d 0e 24 85 3d 01 6b 97 bd
       -0.04041263 0.06678641 0.065010175 -0.07393456
0000d0 7a 60 cf bd 15 fb e8 3d 73 5e a8 bd 18 03 bd bd
       -0.10125823 0.11376015 -0.0822114 -0.09229106
0000e0 92 7e 81 bd 22 d8 b6 bd 1f 4c de 3b aa 07 87 bd
       -0.063229695 -0.08927943 0.0067839767 -0.06593259
0000f0 52 ee f3 bd 68 26 08 be b5 23 14 3d 33 67 3a 3e
       -0.1191069 -0.13295901 0.036166865 0.1820343
000100 68 08 fc bc 46 07 04 be 76 03 16 bd 7b db b6 3e
       -0.030765727 -0.128934 -0.036624394 0.35714325
000110 e2 82 39 3d 1f 49 1e 3e 1b ce 69 be d2 f5 d8 3d
       0.045290835 0.15457581 -0.22832529 0.105937615
000120 23 38 05 3d 15 53 d0 3c a1 3b b3 bd 10 85 4b be
       0.03252424 0.025430242 -0.08751608 -0.19874978
000130 a7 a7 d2 bc a3 4d 4d bd fb 5e 6e be 1e da b2 3c
       -0.025714708 -0.05012287 -0.2327842 0.021832522
000140 71 63 77 bd 03 83 1b be 04 b7 30 bd 3a 7c e9 3c
       -0.06039757 -0.15186696 -0.043143287 0.028501619
000150 1b ec 78 bd 6b 66 23 bb 9d a8 9d bc d6 03 be 3d
       -0.060772043 -0.0024932872 -0.01924544 0.092780754
000160 b2 61 6b bd 63 15 56 be da ff 27 bd db d4 61 be
       -0.057466216 -0.20906596 -0.041015483 -0.22053854
000170 e4 9f 05 be 3c 17 8d bd ca 69 c7 3d 29 01 81 3d
       -0.13049275 -0.06889197 0.097369745 0.062990494
000180 45 52 82 bd 96 af 23 bd 71 88 a2 3d 15 1c 23 be
       -0.06363348 -0.039962374 0.079361804 -0.15928681
000190 40 cf fa bd e4 1c b5 bd ba c3 58 3d 30 36 03 bc
       -0.12246561 -0.08843401 0.052921034 -0.008008525
0001a0 47 8b 23 be 23 43 aa bd 25 b3 e7 3d 48 24 38 3e
       -0.15971099 -0.083135866 0.11313466 0.1798259
0001b0 ae 41 f5 bb 49 73 c5 bd 58 0d 4b be 97 7a 89 bd
       -0.0074846363 -0.096411295 -0.19829309 -0.06712835
0001c0 83 cd a3 3d c9 8d 1e 3d 2e 21 c4 bc 31 7b 06 be
       0.079981826 0.038709436 -0.023941603 -0.13132931
0001d0 f5 62 6b 3c 80 31 0f be b0 d3 3f bd 2b cb c1 bc
       0.014366855 -0.13983727 -0.04683274 -0.023656448
0001e0 ff f0 31 bd 0b f1 1d be b6 ef 7d 3e 05 36 53 be
       -0.043442722 -0.15423982 0.24798474 -0.20626076
0001f0 55 e5 0c be e1 f7 a3 bd 07 11 20 be 72 36 4e 3e
       -0.13759358 -0.080062635 -0.15631495 0.20137957
000200 ba 98 14 bd 9c b2 8a 3c 30 19 c6 3c c1 4e 86 bd
       -0.036278464 0.01693087 0.024181932 -0.0655799
000210 0e bf dc 3d 5c 1d 93 bd 34 f6 07 3e 53 c1 c2 bd
       0.10778628 -0.07183334 0.13277513 -0.0950953
000220 84 93 d0 3d 03 e8 e8 3d a2 9f 80 3d 2f 5e 8f bd
       0.101843864 0.11372378 0.062804475 -0.07000386
000230 40 b0 29 3d 81 2b 02 be af 22 8b be 91 9f 05 3d
       0.04142785 -0.12711908 -0.271749 0.032622878
000240 de 00 81 be 55 39 29 3d 38 f8 09 be cd 2d a7 bd
       -0.25195974 0.04131444 -0.13473594 -0.08163033
000250 68 e5 dd 3d 0a 4e fc bd 4e f5 05 3e 56 7d e3 bd
       0.108347714 -0.12319572 0.13081858 -0.1110789
000260 7f 07 04 3c ca 7d 85 bd 06 65 db bd d6 f5 91 3d
       0.008058428 -0.06518133 -0.10712628 0.071269676
000270 43 4d 51 be 14 09 99 bd d0 eb 7a be 10 bd 17 3d
       -0.2043963 -0.07472435 -0.24504018 0.03704554
000280 1f 57 b2 bd 06 27 01 3d 4b 96 ba bd fa d8 8e 3d
       -0.08708023 0.031531356 -0.09110697 0.06974979
000290 29 6d a9 3e 1c b9 09 3e df b4 0d 3d b5 6f 6c bc
       0.33091095 0.1344952 0.03459632 -0.01443093
0002a0 10 51 ee 3c dd 17 22 bd 18 68 89 3d 79 80 0a 3e
       0.029091388 -0.03957354 0.067093074 0.13525571
0002b0 f1 d6 68 3e 89 ec 22 3c 81 9c 93 3d f1 28 c3 bc
       0.22738244 0.00994409 0.07207585 -0.023823233
0002c0 20 c7 1f 3e da a5 0a 3e 56 84 69 3d 23 2b 73 bd
       0.15603304 0.1353983 0.05701097 -0.05936731
0002d0 31 e2 06 be 08 73 89 3d 2d fd 2d 3d a9 53 8c bd
       -0.13172223 0.067113936 0.042477775 -0.068518944
0002e0 39 bb 3f bd 8f d7 f8 bd 28 0c f6 bd 1a 33 a8 bd
       -0.04680941 -0.121504895 -0.12014037 -0.08212872
0002f0 03 27 f9 bd a8 04 be bd fe bf 94 bd 54 a6 1c 3e
       -0.12165644 -0.09278232 -0.07263182 0.15297824
000300 3d 53 02 be 24 f6 e3 3c b4 6d b5 be 3d 5c e5 3b
       -0.12727065 0.02782733 -0.3543526 0.006999521
000310 c2 b1 18 3e 51 ce 1c be 31 6c 9b bd 87 a1 bb be
       0.14911559 -0.15313078 -0.07588995 -0.36646673
000320 8a 50 89 bd a6 5a 9e 3d 9d 17 b5 bd 12 53 23 3d
       -0.06704815 0.077321336 -0.088423945 0.039874144
000330 04 9a 54 bd e1 20 0d be 39 66 92 3d dc d1 31 3e
       -0.051904693 -0.13782074 0.07148404 0.17365211
000340 1d 9a 09 be 68 67 d4 bd a3 2f 26 3c 3c 4e b0 be
       -0.13437696 -0.10371286 0.010143193 -0.34434688
000350 32 4c 58 3e 3d 32 6a 3d d4 9a 4f be 64 18 e1 3d
       0.21122816 0.057176817 -0.20273906 0.1099098
000360 71 ff 76 3d e7 b9 85 bd ee 13 6b 3d c4 fe 6d 3b
       0.0603022 -0.06529599 0.057392053 0.0036315182
000370 33 70 bb bd ab 97 0b bc 50 b3 c5 be 24 53 d9 3d
       -0.0915226 -0.008520047 -0.38613367 0.10611561
000380 d7 97 5e be 63 54 08 3d d7 57 9b be e5 54 8b bd
       -0.2173761 0.033283602 -0.30340454 -0.06803302
000390 a5 69 22 3d 67 fb 39 bd f7 24 62 3e 7a 19 0d be
       0.03965153 -0.04540577 0.22084413 -0.1377925
0003a0 af 22 88 3e 8f 9b a1 bd d2 d4 db 3d 6e a8 61 3d
       0.2658896 -0.078909986 0.10733952 0.055092268
0003b0 eb 1c 01 bd 6b 57 ca bd 70 02 62 bd 5b 2f aa bc
       -0.03152172 -0.09879955 -0.055178106 -0.020774534
0003c0 8c f3 58 3d 4a ab 92 3d 09 73 9a bd 8e 74 d9 bd
       0.05296664 0.07161577 -0.075414725 -0.10617934
0003d0 e0 b9 8d be 68 48 d7 3b e4 7a 7f be ff 94 17 be
       -0.27680874 0.006569911 -0.24949223 -0.14802931
0003e0 12 56 08 be 5c e5 2e be 4b 6c a2 3d 15 8b 07 3e
       -0.13314083 -0.17079681 0.079308115 0.1323665
0003f0 98 c0 17 3d d4 b8 3d bd d0 e6 b0 3d 9f 03 38 bd
       0.037048906 -0.046318844 0.08637774 -0.04492533

actor.4.bias f4 [6]
000000 f4 2b 4a be e9 11 70 bc 95 25 ee 3d 34 eb a2 3e
       -0.1974333 -0.014652708 0.11628262 0.3182007
000010 d4 63 8b 3d df c8 84 3e
       0.0680615 0.25934502

critic.0.weight f4 [64, 25]
000000 a3 0b 30 3e 2e 91 90 3d c3 62 9d 3d 86 72 11 be
       0.17191939 0.07058941 0.07684853 -0.14203843
000010 50 76 9b 3d 47 9e ba bd 4b 3b ad bc 45 85 7c bd
       0.07590926 -0.0911222 -0.021146437 -0.061650533
000020 e6 42 e5 3c 83 08 84 bd 16 2c fe 3c 3e 9e 02 bd
       0.027986001 -0.06446936 0.031026881 -0.031889193
000030 fe cb 24 bd df d7 3a 3e f4 f1 42 be a5 79 11 be
       -0.040233605 0.18246411 -0.1903761 -0.1420656
000040 11 f7 6c 3f 39 92 ce bc dc 36 57 bf 42 22 38 3d
       0.92564493 -0.025216209 -0.84068084 0.044954546
000050 2c 24 4b bd 0a 81 11 be 44 fc 6d 3d aa 71 a8 bd
       -0.049595043 -0.14209381 0.058101907 -0.08224805
000060 9f 1f 60 3d ef 35 98 3e e9 13 2b be f7 3c 77 be
       0.054717656 0.29728648 -0.16706814 -0.2414435
000070 de c6 48 be 10 ec c3 bd 3e 41 15 3c 93 e3 e1 3d
       -0.19607112 -0.0956651 0.009109793 0.110297345
000080 4b bd 5a 3e d5 c7 19 be b0 78 ec bd eb ad e7 bc
       0.21361272 -0.15017636 -0.11546457 -0.028281173
000090 76 c0 2a 3e 56 24 0e be d0 b8 e2 3e ee 66 2b bd
       0.1667498 -0.13881049 0.44281626 -0.04184621
0000a0 67 9d 18 3d 43 c2 17 3e 6d c7 24 3c 12 71 99 be
       0.037259486 0.14820199 0.010057312 -0.29969078
0000b0 8b 6c db bd 0f 30 07 be a8 6e d9 3d af b1 80 bd
       -0.10714062 -0.13201927 0.10616809 -0.062838905
0000c0 64 56 04 be cd 27 e7 3d 6e 95 2b be 73 06 61 bc
       -0.1292358 0.11286888 -0.16756222 -0.013734448
0000d0 f9 5a 29 bc 9a 08 78 3d 9a f3 8b 3d 81 0c 35 3e
       -0.010336631 0.060555078 0.06833573 0.17680551
0000e0 b9 04 51 bb 47 a7 6e 3d 7a e4 88 3b 82 26 38 bd
       -0.0031893684 0.058264997 0.004177627 -0.0449586
0000f0 36 72 85 bd f0 53 e8 3c af 86 79 3e 26 d7 2f bf
       -0.06515925 0.028360337 0.24367784 -0.68687665
000100 99 64 5d be 57 52 5b 3e 54 c7 b3 be b0 e5 ce bd
       -0.21620406 0.21418129 -0.35113013 -0.10102403
000110 db 62 d7 3d 07 20 a2 bd 95 bc 4d bd 9c ac b8 3d
       0.10516902 -0.07916265 -0.050228674 0.090172976
000120 72 2f 2c bd 5e 92 fb 3c 3a 5e ee bc ca 89 83 be
       -0.042037435 0.030709442 -0.029097665 -0.25691062
000130 66 24 b3 bb c1 25 9c 3c 44 82 0b 3e 47 a2 5f be
       -0.0054669855 0.019060971 0.13623911 -0.21839248
000140 4d 89 f1 bd 04 d3 2a 3e 10 9d 8c be bb 2e 05 3e
       -0.11793766 0.16682059 -0.2746358 0.13006108
000150 97 00 ec bd 85 ab ab 3d 42 fe 19 3d 28 e0 71 3e
       -0.1152355 0.08382324 0.037595995 0.23620665
000160 82 50 ce be 11 6a 45 3e 38 30 3e be a1 98 89 3d
       -0.40295798 0.19278742 -0.18573081 0.06718565
000170 90 74 28 3e 65 8d d5 3d bc f4 62 3d 59 eb 41 3e
       0.16450715 0.104273595 0.05540918 0.18937434
000180 db 80 59 3d 16 c4 e7 3d 2d 25 c7 bd 38 ab f1 bd
       0.0531014 0.11316697 -0.097238876 -0.118002355
000190 07 55 33 3e 9f 52 90 bd dd f7 54 3e c2 a4 5e be
       0.17512904 -0.07047009 0.20797677 -0.21742538
0001a0 d6 78 bb bd 91 95 4a be 9c 5e c8 3d ae 34 a1 3d
       -0.09153907 -0.19783618 0.0978367 0.07871376
0001b0 07 fd c7 bc 37 cb bb bd c0 b8 4a bb 2e 6a 71 bd
       -0.024412645 -0.091696195 -0.0030932873 -0.05893915
0001c0 42 fb 0e be 86 3f 81 3f c8 df cf 3e 36 77 77 3d
       -0.13963035 1.0097511 0.4060042 0.060416423
0001d0 4a 37 4a 3e 6b f5 2e 3d 65 8e 02 be 0f 1c d1 bd
       0.19747654 0.042714518 -0.12749632 -0.1021043
0001e0 f9 fe 27 3e c9 d3 4d 3d c0 fa 01 3e 6e 48 67 3c
       0.16405858 0.050250802 0.1269331 0.01411639
0001f0 87 22 ce bc ce 97 bb be c5 d5 0b be 4d 6f 71 3d
       -0.025162948 -0.36639255 -0.13655765 0.058944035
000200 fe 9d c3 bc ff 9e d2 3c f1 ba 5b 3e 90 1c d0 bd
       -0.023879047 0.02571058 0.21458031 -0.10161698
000210 10 02 c9 3d 0d b7 32 3d 40 e7 53 bd 41 a9 aa bd
       0.098148465 0.043631602 -0.05173421 -0.08333064
000220 20 17 e4 bc a5 4d 54 bd 1d 40 a9 be 06 b4 79 be
       -0.027843058 -0.05183186 -0.33056727 -0.2438508
000230 e4 af c9 bd 0c 83 02 bf 94 6e 16 3d d8 0e d0 3e
       -0.098480016 -0.5098121 0.03672655 0.40636325
000240 f8 7a 91 bd 8a 07 a1 3d aa 65 94 3d fb 50 6c bc
       -0.071035326 0.07862766 0.072459534 -0.014423604
000250 6a 98 1f 3d 3c 86 98 bc 47 a2 17 3e 44 13 49 3e
       0.038963713 -0.018618695 0.14807998 0.19636256
000260 bc 27 0b be 1d 4c 77 bd 90 e4 fc 3d 71 5d 45 3d
       -0.13589376 -0.06037532 0.12348282 0.048184816
000270 ee 74 d7 bd 2a b1 3a 3d 91 25 19 ba f1 6a 62 bd
       -0.105203494 0.045579113 -0.00058420846 -0.05527777
000280 44 59 8b 3d 6c 0c 08 3e ff 2a f9 bd cb 3e 0d 3f
       0.068041354 0.13285989 -0.12166404 0.5517394
000290 e5 26 38 3e ea 4b 58 3c 4a 45 05 3f 23 9b 0a be
       0.17983587 0.013201693 0.5205885 -0.13535742
0002a0 83 56 b0 be f9 14 0b 3d 2c e3 ef 3c c3 79 91 3d
       -0.34441003 0.033955548 0.029283129 0.07103302
0002b0 2f 80 9c 3d 78 37 e5 3c 52 fa e5 bd d1 bb 77 be
       0.076416366 0.027980551 -0.112293854 -0.2419274
0002c0 da 78 25 be e0 9c 9e be 2d 0e ec 3d bf db 1a 3e
       -0.16159382 -0.3097906 0.11526141 0.15122889
0002d0 cc e4 13 3d 26 3f 00 bd 4f 7e b1 bd a1 02 c0 3c
       0.03610687 -0.031310223 -0.086666696 0.023438754
0002e0 d7 d7 32 3e 69 7d 56 3d 91 4f 94 bc d8 de 8b 3d
       0.17465149 0.052365694 -0.018104346 0.068296134
0002f0 eb e6 74 3f 4f b5 eb be 82 bc 42 3e 83 26 27 3e
       0.9566485 -0.46036765 0.19017223 0.16323285
000300 e3 df 04 be b7 19 52 be 0d 9f 22 be 86 cf b0 bd
       -0.12976031 -0.20517622 -0.15880986 -0.08633332
000310 60 9c 27 3d b4 7c 8f 3d 17 48 86 bd 81 e8 be bd
       0.040920615 0.07006207 -0.06556719 -0.0932169
000320 da 2f 5e 3e 1f 20 4f be 51 1c 27 3d 76 c5 d4 bd
       0.21697941 -0.20227097 0.04079849 -0.10389225
000330 9e ae 7e 3d bf ec 88 bd 18 74 36 3d ac f9 f8 bd
       0.062178247 -0.06685781 0.04454431 -0.12156996
000340 ec 77 ae 3d 79 6a 3e be 30 9f 98 3d 45 8d 16 bd
       0.08518967 -0.18595304 0.074522376 -0.03675582
000350 ce 9b ce bc 27 d9 46 be 02 44 b6 be 92 52 0e be
       -0.025220778 -0.19418775 -0.3559876 -0.13898686
000360 53 bf 04 3e 80 64 f6 3d 36 62 0f 3d 5f a3 0d bd
       0.1296361 0.120308876 0.03500577 -0.03457963
000370 ab d4 b8 3d a6 27 05 be 93 0f 1c 3e 64 26 41 be
       0.09024938 -0.13003406 0.15240316 -0.18862301
000380 ff ab 91 3d 0b 27 53 be dc 9c f4 bd e1 6e 51 3d
       0.07112884 -0.20620362 -0.11943981 0.051131133
000390 6f a3 e1 bd 13 76 95 3d 44 c5 fa bd f1 a9 0a bc
       -0.110175006 0.072979115 -0.12244657 -0.008463369
0003a0 5b d4 89 3b 52 b3 9b 3d e5 d5 70 bd 2f 7a 95 3c
       0.004206223 0.07602562 -0.058797736 0.018246738
0003b0 0f ad 68 3b b3 52 a9 3e d7 7c 93 40 1b 23 49 bf
       0.0035503542 0.33070907 4.6089892 -0.7856919
0003c0 34 1c 80 be cc 5c 29 3f e0 5e 85 be 45 3e 07 bf
       -0.25021517 0.6615722 -0.26048946 -0.5282939
0003d0 34 ce 9b bd aa 07 bc 3c bc 4d 94 3c 8b 32 79 3d
       -0.076076895 0.022952873 0.018103473 0.060839217
0003e0 cd 9b 99 bc a1 0b 82 3c 6e 6f 14 3e 76 65 d8 bd
       -0.01875105 0.015874686 0.14495632 -0.10566227
0003f0 a3 1b 45 be 9c 3d af bd f5 07 ba 3d 03 ca ce 3c
       -0.19248824 -0.08556673 0.09083549 0.025242811

critic.0.bias f4 [64]
000000 ee 4d 38 3e 5a bd 75 3e 1e 56 1c be 80 fb ed bb
       0.17998478 0.23998013 -0.15267226 -0.007262647
000010 3e 3b bf 3c 6a e0 36 be 15 25 1c 3e eb 9d 04 be
       0.023343679 -0.17859045 0.1524852 -0.12950866
000020 a3 cd 88 bc 70 d6 a2 3d 39 63 13 3e 9f d6 b0 3d
       -0.016699618 0.07951057 0.14393319 0.08634686
000030 71 f3 2e be a2 dd 28 bd 06 c4 37 3d f8 e2 a8 bc
       -0.17085053 -0.04122699 0.044864677 -0.02061604
000040 e9 d9 42 be e7 c7 07 3d db 00 e1 3c 1c 19 a1 3d
       -0.19028439 0.033149626 0.027466228 0.07866117
000050 7d 92 32 3e 14 5f a2 3d 96 ea a2 3d 07 34 1e 3e
       0.17438693 0.07928291 0.079549 0.15449534
000060 cd 20 cd ba 4a 88 84 bc 92 8e 64 bd 0e c9 78 bc
       -0.0015650034 -0.016178269 -0.05580003 -0.015184654
000070 34 50 98 3d 71 8d 29 3e 85 d1 e8 3a ec 01 d9 bd
       0.074371725 0.16557862 0.0017762637 -0.1059607
000080 b4 26 8c bc 4f 10 d1 bd 4a ab 84 3e c2 76 ba bd
       -0.017108299 -0.10208189 0.25911933 -0.091046825
000090 e2 7b 3d 3d 5c 1e d0 bd b1 5e d7 bc 57 e8 f5 3d
       0.046260722 -0.101620406 -0.02629027 0.12007206
0000a0 a7 5e 29 be 81 40 1f be 51 c0 8c bd 8f 65 04 3e
       -0.16540013 -0.1555195 -0.06872619 0.12929367
0000b0 6f 84 9a bc ea e5 f3 ba 5e 7a 04 be 1d 67 eb 3d
       -0.018861977 -0.0018607948 -0.12937304 0.11494277
0000c0 a9 e1 69 3c 69 b0 1e 3e 0f 48 dd 3c 63 05 5b bc
       0.014274993 0.15496983 0.0270119 -0.0133679835
0000d0 75 d1 b6 bd be a0 e6 bd 10 d6 2c 3e b2 5b 1c 3d
       -0.089266695 -0.11261128 0.16878533 0.038173385
0000e0 4c eb eb bd 12 49 af 3d 58 0d 07 be 9f 1f d5 3d
       -0.11519489 0.08558859 -0.13188684 0.10406422
0000f0 c8 63 15 be fe d4 98 3b da 02 d3 3b 94 d0 07 3d
       -0.14588845 0.0046640625 0.006439549 0.0331579

critic.2.weight f4 [64, 64]
000000 1b eb c7 bd 88 9f eb bc ae ed 44 be 4d fb 28 3d
       -0.0976164 -0.028762594 -0.19231293 0.041255284
000010 1a 9b 4e 3d f1 4f 13 be fc a6 9d 3d fc c3 73 3d
       0.050440885 -0.14385964 0.07697865 0.059513077
000020 79 a3 cb ba c3 9e e1 bd a1 5c b7 3d fe 36 ac 3c
       -0.001553639 -0.110166095 0.089532144 0.021022316
000030 6d 95 06 bd e4 79 e8 3d ea ce 16 bc c5 83 ac bd
       -0.032857347 0.11351374 -0.009204606 -0.084235705
000040 93 24 65 bd 89 60 2e bd 6a 2b 85 bc 5e 94 58 bd
       -0.055943083 -0.04257253 -0.016256053 -0.05287587
000050 4d 3c cb 3d 72 8f 0c 3e 74 b4 c6 3d 26 2b f2 3b
       0.09923611 0.13726595 0.097023875 0.0073903976
000060 98 33 a9 3c fc b3 1b 3d 63 ff a0 3d f5 dd a7 3c
       0.020654485 0.038013443 0.07861211 0.02049158
000070 56 f8 b2 bd 45 9c 30 3d 87 47 68 3d 69 d1 cd bd
       -0.087387726 0.04311778 0.05670884 -0.100497074
000080 ee 05 ff 3d db 8d b6 3d af d6 d0 bc 53 35 8e 3d
       0.12452303 0.089137755 -0.025492994 0.069437645
000090 65 da 03 be c3 84 57 3d 23 e5 42 bc f6 97 d1 3d
       -0.1287628 0.052616846 -0.011895451 0.102340624
0000a0 af 67 3a be e0 38 5d bc 6c 20 71 bd 8a 30 ca bd
       -0.18203615 -0.01350233 -0.05886881 -0.09872539
0000b0 23 55 0d 3d dc d5 20 be 3c 75 4a 3c ae 87 ef 3d
       0.03450502 -0.15706581 0.012357052 0.11695801
0000c0 ff 76 74 bc 90 23 c1 3d 79 76 01 3e ac 15 89 bc
       -0.014920949 0.09430611 0.1264285 -0.016733967
0000d0 08 c4 b3 3d ad 3e f5 3d e4 12 61 bd 70 40 a5 bc
       0.08777624 0.11974845 -0.054949656 -0.020172328
0000e0 e7 2f 38 3c 35 7e 85 bd 03 19 8c 3d 45 15 9f bd
       0.01124189 -0.06518213 0.06840708 -0.07767729
0000f0 84 ff bf 3b e9 50 ce 3d 5b 2f 15 bc f8 88 ca 3c
       0.0058593173 0.10074026 -0.009105529 0.024723515
000100 ce 12 84 bc c9 d7 21 3d f6 e0 d0 3c 0b d2 97 bb
       -0.016122248 0.03951243 0.025497895 -0.0046331934
000110 88 a4 8c bd e1 ab 18 3e b6 3d 03 bd ce 90 20 bd
       -0.06867319 0.14909317 -0.032041274 -0.039200597
000120 14 03 55 bd 8a ce 68 3d d8 6d 25 3e b9 1e b1 bd
       -0.05200489 0.056837596 0.16155183 -0.08648438
000130 ab ff bf 3d db aa 2b bd 07 1f a2 3c e5 32 83 bd
       0.09374937 -0.041910987 0.019790186 -0.06406192
000140 02 d7 0c 3d a8 d2 85 3d 03 fe c2 3d 16 4b 30 bd
       0.034384735 0.0653432 0.09521105 -0.043040358
000150 26 7d c0 b6 b4 97 90 3d fc f7 23 bd 23 16 04 3e
       -5.736615e-06 0.07060185 -0.04003142 0.1289907
000160 35 57 22 3e 62 ff dc 3d 05 6c f5 bd a9 34 e2 3c
       0.1585358 0.10790898 -0.11983494 0.027613001
000170 04 d2 a3 bd 97 de fd 3d 75 a9 91 bd 31 1b f1 3d
       -0.07999042 0.12395971 -0.071123995 0.117727645
000180 23 f1 5d 3b 2f 95 fd bd b6 c9 16 bd 76 e1 d5 bd
       0.0033865653 -0.1238197 -0.03681346 -0.10443394
000190 63 c8 f1 bd 8f 96 43 3d c0 0b 87 bd dd 0d 1c bd
       -0.11805799 0.047751006 -0.06594038 -0.03809916
0001a0 d9 ee a3 bc 07 f5 5c 3d 09 17 90 3d 90 e8 97 3c
       -0.020011352 0.053944614 0.070356436 0.018543512
0001b0 44 ed da bb 76 32 1e bc 92 15 2d bc 37 f8 b4 bd
       -0.0066811163 -0.0096555855 -0.010564225 -0.08836406
0001c0 09 01 22 be 2d 86 6b bd 87 78 9c 3b c0 8d ab 3d
       -0.15820707 -0.057501007 0.00477511 0.08376646
0001d0 31 f9 ca 3d a0 95 3d bc 1f 4b 01 be 91 9a d9 bd
       0.09910811 -0.011571318 -0.12626313 -0.10625184
0001e0 d4 2c fc 3d 11 8a d4 3c 64 13 f1 3d f7 29 b7 bd
       0.12313238 0.025944741 0.117712766 -0.08943551
0001f0 82 c6 17 be e6 5f ac 3d 52 d2 a0 bd b0 70 77 3d
       -0.14821818 0.08416729 -0.078526154 0.0604102
000200 a9 df d4 3d 88 5f d1 bc 24 ab a1 bd 8c 54 82 3c
       0.10394222 -0.025558248 -0.078939706 0.015909456
000210 f9 e7 4b bd 90 89 9f 3b 0b b4 b3 bd 7e 17 bc 3d
       -0.049781773 0.0048686936 -0.08774575 0.09184168
000220 ef f1 01 bd 6a fe 5d 3c e3 b6 da bc aa c4 12 3c
       -0.031724866 0.013549427 -0.026698535 0.008958021
000230 08 b3 00 be e1 e5 43 bd f2 0b 6f 3d 63 e7 78 bd
       -0.12568295 -0.04782665 0.058361 -0.060767543
000240 f9 4f df 3d 66 17 71 3b c7 60 39 3d 2c 71 f2 bd
       0.109039254 0.0036787628 0.04525831 -0.11837992
000250 cc 17 00 bd 65 37 18 3e 1c 1e e0 3b 9d ec e1 3c
       -0.031272694 0.14864881 0.006839527 0.027578646
000260 6a 03 e8 3d af 1a 5b 3d 9b ce a9 bd 11 09 dc bb
       0.11328776 0.053492244 -0.0829136 -0.006714948
000270 fd cb c6 bc c0 45 e1 3d 42 3f 4b 3d b5 de bf 3d
       -0.024267191 0.10999632 0.049620874 0.0936865
000280 63 2b 0d 3d 6c 8c 77 bd fd 98 4e 3c 75 72 c8 bd
       0.034465205 -0.06043665 0.012609717 -0.09787456
000290 de bd 06 3e 7a 4d 9d bc 56 9a 57 3d a6 8c ab 3d
       0.13158366 -0.019201983 0.05263742 0.08376436
0002a0 5f 1b c3 bc 25 e4 c8 3d f8 20 0f bb 74 02 42 3c
       -0.023816762 0.0980914 -0.002183972 0.011841405
0002b0 48 93 6f 3d f8 ce 95 bd aa 73 92 3d 2a 66 9c bd
       0.058490068 -0.07314867 0.071509674 -0.07636674
0002c0 ba 56 1d be 18 fa c4 3d d2 e1 8f bd ee 9d c2 3d
       -0.15365115 0.09618014 -0.07025494 0.09502779
0002d0 8f 50 be ba fe 96 60 bc 7b b1 85 3d 40 2e ec 3d
       -0.0014519858 -0.013707874 0.06527992 0.11532259
0002e0 18 f7 f1 bc a7 fc 9f 3d 42 f0 07 3e 6d 8d 85 bc
       -0.029536769 0.078118615 0.13275245 -0.016302789
0002f0 d8 b8 84 3d c3 49 ec bd 56 e8 88 bd 55 ab 08 3e
       0.06480569 -0.115375064 -0.066849396 0.13346608
000300 7a 5e 85 3d d3 6b 25 bb 2a a7 b5 3d 19 dd 12 bd
       0.065121606 -0.002524127 0.08869775 -0.035855386
000310 00 dd d8 3d f0 96 0b 3e 92 dd 87 3c fd 4a cf 3d
       0.105890274 0.13631797 0.016585145 0.10121725
000320 c9 09 17 bd bd 99 9e bc 88 df 20 be 83 86 c7 bd
       -0.036874566 -0.019360418 -0.1571027 -0.09742453
000330 c3 e6 a0 3d 4e 25 a2 bd ea 57 94 bc e5 da 83 bd
       0.07856514 -0.079172716 -0.018108327 -0.06438235
000340 40 aa ec 3d 03 ee bb 3c 86 1a df bc b8 c2 7d bd
       0.1155591 0.022940641 -0.027234327 -0.061953276
000350 7c ba 34 bc dc 6d 26 bd 66 08 06 be 1a 79 e7 bd
       -0.011030789 -0.040632114 -0.13089141 -0.11302395
000360 fb 05 9c bd 92 de c5 3d 0b e3 01 3d fb dd 4b 3d
       -0.07618328 0.096615925 0.031710666 0.049772244
000370 42 09 ae 3d 6d 4d f0 bd 50 ce dc 3c 28 d4 8e bd
       0.084978595 -0.11733518 0.026953846 -0.06974059
000380 a9 0e 7c 3d eb 86 63 bc 5a 0d ae 3d 7a 39 9e bc
       0.06153742 -0.013887147 0.0849864 -0.019314516
000390 f0 f7 b5 bd a9 95 a8 3c 29 dd 9c bc de 43 f1 3d
       -0.08885181 0.020579176 -0.019148426 0.11780523
0003a0 e8 f3 09 be 41 40 de bc 4b bc a4 bd 3c 2e dc 3d
       -0.13471949 -0.027130248 -0.080437265 0.10751006
0003b0 75 a1 b4 bb c6 b5 ae bd 59 e4 53 3d 84 be a6 3d
       -0.0055124112 -0.08530764 0.05173144 0.08141807
0003c0 37 92 c6 bd 0d 68 32 3d dd 0d d7 bd ab 8d e9 bd
       -0.09695857 0.04355626 -0.10500691 -0.11403974
0003d0 72 60 e8 3d de c0 db 3d a2 4f 9d 3d c7 83 a9 bd
       0.113465205 0.10730146 0.076812044 -0.08277088
0003e0 49 ff 5e bc 70 3d 36 bd f2 6c 8d bd 67 8e db bc
       -0.013610669 -0.044492185 -0.06905545 -0.026801301
0003f0 37 82 81 bc 85 16 49 bc b9 cb 30 bc 31 11 84 bb
       -0.015809162 -0.0122734355 -0.010790759 -0.0040303697

critic.2.bias f4 [64]
000000 be 69 8d bd c3 1c cb 3c ea 8b ee bd 53 d5 12 bd
       -0.06904934 0.024793988 -0.1164778 -0.035847973
000010 75 80 9f bd 12 67 84 bd ef 5d 8b 3d c9 3d c0 bd
       -0.07788173 -0.064649716 0.06805026 -0.093867846
000020 2f 48 85 bd 8d 31 87 3d 60 97 ec bd c4 b6 1a bd
       -0.065079086 0.06601248 -0.1155231 -0.037771955
000030 c3 c2 7d 3c 54 9d 51 bd da 54 7d 3d 59 31 4e be
       0.015488329 -0.05117543 0.0618485 -0.20136012
000040 18 c2 4a bd 35 be 51 3d 06 35 39 3d 2a ee 00 3d
       -0.04950151 0.051206786 0.045216583 0.03147713
000050 6a b5 9f bd e7 f8 15 bd 30 5f 1a be 76 06 80 bd
       -0.07798274 -0.036614325 -0.15075374 -0.06251232
000060 40 30 30 3d 12 d9 ab bd 02 70 2a 3d a8 e8 9c bd
       0.043014765 -0.08391012 0.041610725 -0.07661563
000070 bb ac 11 3e a1 ae d4 3c 5f 81 1c 3c ca 61 ab bd
       0.14226048 0.025962176 0.009552329 -0.08368261
000080 49 7e 01 3e 66 b0 c3 bd 76 91 85 3d 6f 6d bb 3c
       0.1264583 -0.0955513 0.06521885 0.02287933
000090 39 e5 d7 bb 73 63 7f bc d2 0e 92 3d c4 5c fa 3d
       -0.0065886048 -0.015587675 0.07131733 0.12224725
0000a0 ef 98 07 be 30 39 39 3d 41 a5 6a bc ab f1 de bd
       -0.13241933 0.045220554 -0.014321626 -0.10885938
0000b0 1b e4 bd bd 16 5a e2 bd 74 f3 eb 3d 83 d2 00 be
       -0.09272023 -0.11052339 0.115210444 -0.12580304
0000c0 df 07 cd bc 16 7b fc bd 7d 2f 57 3b 9d a1 0e bd
       -0.025028167 -0.12328164 0.0032834702 -0.034822095
0000d0 d9 b6 23 3d ac 58 7c bd 77 2c fc bd 9e dc 3f bd
       0.0399693 -0.061608 -0.123131685 -0.046841256
0000e0 3d 32 af bd b7 2f 65 3b ea 9b d9 bc dd cf 27 be
       -0.08554504 0.0034971067 -0.026563603 -0.16387887
0000f0 bb b3 41 3d 74 62 18 3d eb 21 54 3d 64 a5 6f 3c
       0.047290545 0.037203267 0.05179016 0.014626835

critic.4.weight f4 [1, 64]
000000 de d5 5e 3d 90 ac f6 3c 46 ec e7 3c 6c 40 e0 3b
       0.05440318 0.030111581 0.028310906 0.006843617
000010 a1 74 d8 bd 25 e4 4e bd 54 2b a6 3d 9d b0 2c bd
       -0.1056912 -0.050510544 0.08113733 -0.04216062
000020 6e d0 46 bd b7 43 55 3b 41 30 36 3d 27 9e 7b 3b
       -0.048538618 0.0032541582 0.044479612 0.0038393827
000030 e3 9e 5c bc 14 61 c8 bc c6 29 c3 bd 83 a7 f0 3d
       -0.013465616 -0.024460353 -0.09529452 0.117507
000040 6a 50 73 bd 9c 62 84 3b 46 91 d0 3d 5f 25 38 bd
       -0.05940286 0.0040400755 0.10183959 -0.044957515
000050 a1 a0 63 bd b0 df 62 bd 99 85 02 bd fe 41 0d bd
       -0.05557311 -0.055389106 -0.03186569 -0.034486763
000060 92 df de bb cb 1c 68 bd 92 73 6a bc a3 1d 96 39
       -0.006801554 -0.056668084 -0.014309781 0.0002863231
000070 65 27 80 bd 90 43 7a bd 6d 5b 42 3c af 3b fd bd
       -0.06257514 -0.06109959 0.011862618 -0.12364899
000080 87 9d 34 bd fa 62 99 3b 2b 16 95 3c b7 44 96 bd
       -0.044095542 0.0046809884 0.018199047 -0.07337325
000090 2e ad 84 bc 6b d6 42 3d f1 ad 20 3d ce fa 7d bc
       -0.01619586 0.047567766 0.039228383 -0.015501691
0000a0 6c 1f 57 bc ac 72 b8 bd cc 01 bf bd fb f5 14 be
       -0.01313005 -0.09006247 -0.093265146 -0.14546959
0000b0 e0 7e 25 3e 11 1e 83 bd 0c bb cb bc 31 f2 80 bd
       0.1616168 -0.06402219 -0.024869464 -0.06296194
0000c0 0f 84 32 3d d9 ff 80 3d 70 f1 de bb d5 62 07 bd
       0.043582972 0.06298799 -0.006803684 -0.033053238
0000d0 cb e1 29 bd a9 b0 51 bd dd 18 92 bd 07 de 9f 3d
       -0.0414751 -0.051193867 -0.071336485 0.0780602
0000e0 2d c4 8d bd 9c 88 60 3d 79 1c 3c 3d ce 77 23 ba
       -0.06922183 0.05481778 0.04592559 -0.0006235809
0000f0 39 39 61 3d 98 0c 3f bb 8f d1 64 3d 6e 71 a4 bd
       0.054986212 -0.0029151794 0.055863913 -0.080294475

exp_avg f4 [6]
000000 37 fc 12 39 9b 37 3c 3a f4 0c 8b 3b 05 a0 34 39
       0.00014017602 0.0007179917 0.0042434875 0.0001722575
000010 09 f2 3a 39 65 35 22 3b
       0.00017828507 0.0024751064

exp_avg_sq f4 [6]
000000 e6 68 54 35 39 c1 c1 37 24 d4 88 3a 2c c9 fe 35
       7.91288e-07 2.309737e-05 0.0010439199 1.8983023e-06
000010 41 74 97 36 d2 fa 95 38
       4.5136844e-06 7.1515926e-05
