04-goal-pose-l6/logs/rsl_rl/joint_position/2026-02-18_14-34-58/model_2900.pt (torch, 161397 bytes, 36 tensors)

std f4 [6]
0	0x3dc2baa7	0.09508257
1	0x3cce7559	0.02520244
2	0x3b21a67d	0.0024665885
3	0x3d189901	0.03725529
4	0x3d0e9081	0.03480578
5	0x3c7e955e	0.015538542

actor.0.weight f4 [64, 25]
0	0xbd1c99ed	-0.038232733
1	0x3e8c1e2d	0.27366772
2	0xbeb217b7	-0.34783718
3	0xbe7e9474	-0.24861318
4	0xbeabeff4	-0.33581507
5	0xbe4d2c57	-0.20036446
6	0x3cefad16	0.029257338
7	0xbdf0f378	-0.11765188
8	0x3e24795f	0.16061924
9	0xbe01b003	-0.126648
10	0x3d86669d	0.06562541
11	0x3ce15d67	0.027510358
12	0xbe433c24	-0.1906591
13	0xbea763b1	-0.32693246
14	0xbed49f97	-0.41528007
15	0xbeae75c1	-0.34074214
16	0xbf006b57	-0.5016379
17	0xbe0f35c5	-0.13985355
18	0x3f0cd063	0.5500547
19	0xbb3c0ca4	-0.0028694058
20	0x3ea7e42a	0.32791263
21	0xbef594f5	-0.47965208
22	0x3dad7b2b	0.08470758
23	0xbdd4f92f	-0.103990905
24	0xbde84116	-0.11340539
25	0x3e4c6b7f	0.19962882
26	0x3e0e74ce	0.13911745
27	0xbebac460	-0.36477947
28	0xbed5c8ed	-0.41754857
29	0xbda4b897	-0.0804302
30	0xbed9d281	-0.42543414
31	0xbe132ad8	-0.14371812
32	0x3dbca528	0.092111886
33	0x3d826c95	0.06368367
34	0x3cee31f8	0.029076561
35	0xbd9d8cce	-0.07692872
36	0xbd4f9365	-0.050677676
37	0xbe8c91ce	-0.2745499
38	0xbd005a05	-0.03133585
39	0xbed2de2c	-0.4118513
40	0xbe68e9d7	-0.22745453
41	0x3f8424b9	1.0323707
42	0xbe979b62	-0.29610735
43	0xbf7daefe	-0.9909514
44	0x3db856cc	0.0900093
45	0x3e178afa	0.14799109
46	0xbe7d8e9e	-0.24761435
47	0xbe5aa912	-0.21353558
48	0x3e5d6774	0.21621495
49	0xbe77eede	-0.24212214
50	0xbea9f782	-0.33196646
51	0x3e5f2c87	0.2179433
52	0xbdd32743	-0.10310223
53	0x3e1e323e	0.15448853
54	0xbe7e117e	-0.2481136
55	0x3e0387c1	0.12844755
56	0xbe80896d	-0.25104848
57	0x3e6424ad	0.22279616
58	0x3e0499a5	0.12949236
59	0x3ce8332c	0.028344713
60	0x3d03291f	0.032021638
61	0x3dee1b72	0.116263285
62	0xbeda1130	-0.42591238
63	0xbde8bb1c	-0.11363813
64	0xbd89f68e	-0.0673648
65	0xbe6a6743	-0.22890954
66	0x3f107ed2	0.5644351
67	0xbe9bd32e	-0.30434555
68	0xbf070003	-0.5273439
69	0xbe3a0dae	-0.18169281
70	0xbe90abf0	-0.28256178
71	0xba32745e	-0.0006807501
72	0x3e0f93f4	0.14021283
73	0x3dcd8e76	0.10036938
74	0xbc178861	-0.009248824
75	0x3e2e7bae	0.17039368
76	0x3e837746	0.25676936
77	0xbdaeabfd	-0.08528898
78	0xbf2d252a	-0.6763483
79	0x3e0c1c80	0.13682747
80	0xbf17fe8b	-0.59372777
81	0x3dd09a1a	0.101856425
82	0x3dae12ea	0.08499701
83	0xbd8c3084	-0.06845191
84	0xbe1af072	-0.15130785
85	0x3d9b22bc	0.075749844
86	0x3acd37ed	0.0015656926
87	0xbebb4171	-0.36573365
88	0xbe5bfe14	-0.21483642
89	0xbeabb87f	-0.33539197
90	0xbeb1cf81	-0.34728625
91	0x3f05848d	0.5215538
92	0xbe97bc99	-0.29636076
93	0xbf1eacf8	-0.6198268
94	0x3e1109dc	0.14163917
95	0x3de8353d	0.113382794
96	0xbe454660	-0.19265127
97	0x3e308ef8	0.17242038
98	0xbdefbfc1	-0.11706496
99	0xbd0122ce	-0.031527333
100	0xbe5e758d	-0.2172453
101	0xbefb0169	-0.49024513
102	0x3e9a9f0f	0.30199477
103	0x3df1fdde	0.118159994
104	0xbe970cbb	-0.295019
105	0x3dfafecf	0.12255632
106	0x3df9d879	0.12199492
107	0x3d38b90e	0.045098357
108	0xbbd8da90	-0.0066178516
109	0xbd2395f1	-0.039937917
110	0xbc8f74ac	-0.017511688
111	0x3d833245	0.064060725
112	0x38cdee01	9.8194934e-05
113	0x3e71b3c5	0.23603733
114	0xbf3f4cd1	-0.7472659
115	0xbccc2877	-0.024921639
116	0xbfbd0fa2	-1.4770396
117	0x3deacf8e	0.11465369
118	0x3fbf5af5	1.4949633
119	0xbde5cdeb	-0.11220916
120	0x3d4a60df	0.04940879
121	0xbdcaa612	-0.09894957
122	0x3d33352b	0.043751877
123	0xbd797f87	-0.060912635
124	0xbd44c3a4	-0.04803814
125	0x3f083225	0.53201514
126	0xbf02b12e	-0.51051605
127	0x3e3f856d	0.18703242
128	0x3e68be82	0.22728923
129	0x3f4ca904	0.799454
130	0x3e03e356	0.1287969
131	0xbd7b61d9	-0.06137261
132	0x3d7531c9	0.059861932
133	0xbcfcb36e	-0.030847277
134	0x3e5c8897	0.2153648
135	0xbe5e7013	-0.2172244
136	0xbb4f1162	-0.0031596054
137	0xbf0faa00	-0.56118774
138	0xbf725efa	-0.9467617
139	0xbeb91235	-0.36146703
140	0x3d668d45	0.05628707
141	0x3f71d542	0.9446603
142	0xbdd2fc26	-0.10302
143	0xbf4ac830	-0.7921171
144	0x3ec7aff9	0.39001444
145	0x3dd50e40	0.104031086
146	0xbe2981f7	-0.16553484
147	0x3c731b4c	0.014838051
148	0xbc7200bb	-0.014770682
149	0x3d9193c5	0.07108263
150	0x3d2f6ddd	0.042829383
151	0x3f0141b6	0.5049089
152	0xbdd4a139	-0.10382313
153	0xbe02ece5	-0.1278568
154	0xbf411c8b	-0.7543418
155	0xbe9c3e4e	-0.30516285
156	0xbe4169eb	-0.18888061
157	0xbeabd4dd	-0.3356084
158	0x3e03bb61	0.12864448
159	0xbbf5111f	-0.0074788476
160	0x3e1eb351	0.15498091
161	0x3d9c6203	0.07635882
162	0xbe35db9b	-0.17759554
163	0x4018c49b	2.3869998
164	0x3f583014	0.8444836
165	0xbda312c4	-0.07962564
166	0x3ed6d4ea	0.41959316
167	0x3d528012	0.05139167
168	0xbe852153	-0.26001987
169	0xbe891284	-0.2677194
170	0x3e7f64d2	0.24940804
171	0xbd8c62f5	-0.06854812
172	0x3de2e6c1	0.11079169
173	0xbd98c706	-0.07459836
174	0x3bde8154	0.0067903195
175	0xbe63a72e	-0.22231743
176	0x3eb50218	0.3535316
177	0x3dc5192b	0.09623941
178	0x3dbf030d	0.09326754
179	0xbec73e05	-0.38914505
180	0xbea3ba61	-0.31978133
181	0x3d72ff01	0.059325222
182	0x3dde970c	0.10868654
183	0x3daaf4e5	0.08347491
184	0xbc98b628	-0.018641546
185	0xbc43e7a9	-0.011957088
186	0xbe6179ec	-0.22019166
187	0xbf854db0	-1.0414333
188	0x3f7c7a4f	0.9862413
189	0xbc329cb3	-0.010901618
190	0x3e9adce5	0.30246654
191	0xbca81d2d	-0.020521725
192	0x3ce93f08	0.028472438
193	0xbdabb972	-0.0838498
194	0x3d90da0f	0.070728414
195	0x3e2010a1	0.15631343
196	0x3ce833c6	0.028345
197	0x3db4db4a	0.088308886
198	0xbcb4825f	-0.022034822
199	0xbd6be3a7	-0.057590153
200	0x3e4c109a	0.19928208
201	0x3f877a2e	1.0584161
202	0xbe9ab750	-0.3021798
203	0xbe57993f	-0.21054552
204	0xbed0daf8	-0.4079206
205	0x3e75a16c	0.23987359
206	0xbdc74e8c	-0.097317785
207	0x3d78d611	0.060751025
208	0xbdf50e3b	-0.11965605
209	0xbe89f65a	-0.26945764
210	0x3d49aa67	0.049234774
211	0x3dcdef26	0.100553796
212	0xbe1ea88f	-0.15493988
213	0xc001c643	-2.027726
214	0x3f0c8de4	0.5490401
215	0x3baea5f5	0.005329842
216	0xbfafd7d0	-1.3737736
217	0x3e407004	0.1879273
218	0x3fb9989a	1.4499695
219	0x3df3c408	0.11902624
220	0x3eaf05fd	0.34184256
221	0xbdc84ed8	-0.09780663
222	0x3e3d5400	0.18489075
223	0x3d39196e	0.045190267
224	0x3dab7a36	0.08372919
225	0xbec5d17a	-0.3863638
226	0xbd8e6279	-0.06952376
227	0x3e62f516	0.22163805
228	0xbe83c1f1	-0.25733903
229	0xbef81093	-0.48450145
230	0xbdb1539c	-0.08658525
231	0xbde52001	-0.11187745
232	0x3dc1aa73	0.09456339
233	0xbdfa8ad1	-0.122335084
234	0xbd6677c6	-0.05626657
235	0xbd31a35a	-0.043368675
236	0x3db1e3fb	0.08686062
237	0xbf2e1145	-0.679951
238	0x3f93c0d6	1.1543224
239	0x3f171d96	0.5902952
240	0x3e318463	0.17335658
241	0xbf7eaf01	-0.99485785
242	0x3e132c82	0.14372447
243	0x3f8da71a	1.106662
244	0xbdcb90e7	-0.09939747
245	0xbe297750	-0.1654942
246	0x3de302b2	0.110844985
247	0x3dc0d1af	0.09414994
248	0xbd88877e	-0.06666468
249	0xbe3677fd	-0.1781921
250	0xbf7de4d1	-0.9917727
251	0x3eb3157d	0.34977332
252	0xbf2f37e8	-0.6844468
253	0x3e9cca06	0.30622882
254	0xbf66f35e	-0.902151
255	0x3eefdbd6	0.4684741

actor.0.bias f4 [64]
0	0xbe8c8423	-0.27444562
1	0xbee0f02c	-0.43933237
2	0xbe6aaff3	-0.22918682
3	0xbf05295a	-0.5201622
4	0xbdcb95a1	-0.09940649
5	0xbe98c2a4	-0.29836
6	0xbd9cbefc	-0.07653615
7	0x3dfd941a	0.12381764
8	0xbd46376b	-0.048392694
9	0x3e210521	0.15724613
10	0xbd58d50e	-0.05293756
11	0xbe77d20c	-0.2420122
12	0xbe19e68c	-0.15029353
13	0xbd7b0b01	-0.06128979
14	0x3cf4a822	0.029865328
15	0xbe16a488	-0.14711201
16	0x3d7bb14f	0.06144839
17	0x3e4d9681	0.20076944
18	0xbdc9fc12	-0.09862532
19	0xbd92850b	-0.07154282
20	0x3d2d05bb	0.042241793
21	0xbd7b94b9	-0.06142113
22	0xb9045772	-0.00012621077
23	0xbe5791f7	-0.21051775
24	0x3d4b0a72	0.04957051
25	0xbe4e9e8d	-0.2017767
26	0x3d567e1e	0.05236637
27	0xbb763c4e	-0.0037572565
28	0xbe34db40	-0.17661762
29	0x3eaff678	0.34367728
30	0xbe1dcd2c	-0.15410298
31	0xbe9807cf	-0.29693457
32	0xbc3fac66	-0.011698818
33	0xbd099716	-0.033591352
34	0x3de4d221	0.111728914
35	0x3e49e478	0.1971606
36	0x3d070e7d	0.0329728
37	0xbed282bc	-0.41115367
38	0x3e1d54b4	0.15364343
39	0xbeb275c7	-0.34855482
40	0xbc49b455	-0.012311061
41	0xbd8e4706	-0.069471404
42	0xbe429cb0	-0.19005084
43	0x3de2c03a	0.110718206
44	0x3cafa8d3	0.021442806
45	0xbe6e2966	-0.2325798
46	0x3dbb814e	0.09155522
47	0xbd140163	-0.036134135
48	0x3c18baab	0.009321849
49	0x3e1cceae	0.15313217
50	0xbdffe568	-0.12494928
51	0xbe59bf11	-0.21264292
52	0xbe70c962	-0.23514321
53	0xbe5b47a0	-0.21414042
54	0x3d352b58	0.04423079
55	0xbe8287ca	-0.25494224
56	0x3c19e9b3	0.009394097
57	0xbe3c4875	-0.18387015
58	0x3e0d883e	0.13821504
59	0x3cc8c9e1	0.024510326
60	0x3e08368f	0.13302062
61	0xbd11ed2f	-0.035626587
62	0x3e66197c	0.22470659
63	0x3e317201	0.17328645

actor.2.weight f4 [64, 64]
0	0x3e47a514	0.19496566
1	0x3e1e1d3f	0.15440844
2	0xbba67d53	-0.005080858
3	0x3e16255e	0.14662692
4	0xbdbe97cd	-0.093062975
5	0xbcfa441b	-0.030550053
6	0xbc60fd72	-0.013732301
7	0x3d7c39fc	0.061578736
8	0xbdcb4e0c	-0.09926996
9	0xbe4c8247	-0.19971572
10	0x3da3bb76	0.0799474
11	0x3d766df8	0.060163468
12	0xbcd78a0b	-0.026310941
13	0x3e4a0978	0.19730175
14	0xbce9eb5f	-0.028554616
15	0x3d038e04	0.03211786
16	0xbe0cc286	-0.1374608
17	0xbc28b057	-0.010295949
18	0xbd56243e	-0.052280657
19	0xbda086d1	-0.07838214
20	0x3d39cda8	0.045362145
21	0xbd54a7ab	-0.051917713
22	0xbe3e62e4	-0.18592411
23	0xbd926ab6	-0.0714926
24	0xbd044de9	-0.032300863
25	0xbe18a44d	-0.14906426
26	0x3cbfafb4	0.023399211
27	0x3e38aaab	0.18033855
28	0x3e1b16f5	0.15145476
29	0xbd5047ad	-0.050849605
30	0x3b422357	0.0029623115
31	0x3bbb8690	0.005722828
32	0x3df0476f	0.11732375
33	0x3e2c9a03	0.16855626
34	0xbdfae046	-0.12249808
35	0x3de8c1a4	0.11365059
36	0x3dce0ba6	0.100608155
37	0x3dedffe0	0.1162107
38	0x3e37921f	0.17926835
39	0x3ddd14f5	0.10795013
40	0x3d568a5c	0.052378044
41	0x3e005817	0.12533604
42	0xbc84418a	-0.016144533
43	0xbd67af9b	-0.056563955
44	0xbdc4b0cf	-0.09604036
45	0x3e2cf5f6	0.16890702
46	0xbe328424	-0.1743322
47	0xbd964c60	-0.07338786
48	0xbe4070bf	-0.18793009
49	0xbe7bab49	-0.24577059
50	0x3c900acd	0.017583275
51	0xbd02611f	-0.031830903
52	0x3e3aa687	0.18227588
53	0x3cf3b140	0.029747605
54	0x3da789c6	0.08180575
55	0x3b28105f	0.0025644524
56	0xbc926386	-0.017869722
57	0x3d66d06d	0.056351114
58	0xbe245005	-0.1604615
59	0xbd7cbb68	-0.061702162
60	0x3cc7ff16	0.024413627
61	0xbc0a326e	-0.008434875
62	0xbdf2badd	-0.118520476
63	0x3d887f02	0.0666485
64	0xbd3e0820	-0.046394467
65	0xbde1fb92	-0.11034311
66	0x3e7a82b4	0.24463922
67	0x3d25b6ae	0.04045742
68	0xbe04b2f9	-0.12958898
69	0x3e69ac6c	0.2281968
70	0x3df70761	0.12061954
71	0x3e745f14	0.23864394
72	0xbc394f8b	-0.011310468
73	0x3deeee84	0.11666587
74	0xbe808054	-0.25097907
75	0xbce532ed	-0.027978385
76	0x3d540951	0.051766697
77	0x3e1f1239	0.15534295
78	0xbe04fa91	-0.12986208
79	0x3d0fc8a2	0.035103448
80	0x3cd6c1b6	0.026215415
81	0xbd972415	-0.07379929
82	0xbdda4e06	-0.10659413
83	0xbdfed3f4	-0.124427706
84	0x3e277b8e	0.16355726
85	0x3de634ee	0.11240564
86	0xbe65e8f9	-0.22452153
87	0x3d29a7be	0.041419737
88	0xbe4ba9b4	-0.19888955
89	0xbc95af2b	-0.018272003
90	0x3dc694b5	0.09696332
91	0x3bfd3db0	0.007728301
92	0x3db19b65	0.08672217
93	0x3e3d2ab4	0.18473321
94	0xbe367e8a	-0.17821708
95	0xbe2deeff	-0.16985701
96	0x3dedef46	0.116179034
97	0x3e20f602	0.15718845
98	0xbd9d3953	-0.07676949
99	0x3da6d6f6	0.08146469
100	0xbcab34e1	-0.020899238
101	0x3cfe717f	0.031059979
102	0x3dfaf4fb	0.122537576
103	0xbcfb3102	-0.030663017
104	0x3b8afbb4	0.004241431
105	0x3daf8462	0.08570172
106	0x3c7ae38c	0.01531304
107	0xbd142e85	-0.036177177
108	0x3d852310	0.06500828
109	0x3cdb63c9	0.02678098
110	0xbe1dc83a	-0.15408412
111	0xbd6ec451	-0.05829269
112	0x3eab9036	0.33508462
113	0xbe327d91	-0.17430712
114	0xbda701f2	-0.08154668
115	0xbd922433	-0.07135811
116	0x3ca6091b	0.020268014
117	0xbea1dbda	-0.31613046
118	0xbd4803be	-0.048831694
119	0x3ec39190	0.38196993
120	0xbc57d6c7	-0.0131737655
121	0xbda50b54	-0.08058801
122	0xbdf65921	-0.12028719
123	0x3d0a2532	0.03372688
124	0xbeca7d34	-0.39548647
125	0xbdb092b5	-0.08621732
126	0x3dc1904e	0.09451352
127	0xbddbf9b1	-0.10740984
128	0x3e2fece3	0.17180209
129	0x3f14f81f	0.581911
130	0xbe6026b3	-0.21889763
131	0x3ea9d64a	0.33171302
132	0xbe3d4416	-0.18483004
133	0xbe26ad7a	-0.16277114
134	0x3df4dafb	0.1195583
135	0x3daf4d9d	0.085597254
136	0xbe07b75c	-0.1325354
137	0xbde63839	-0.11241192
138	0xbd196f91	-0.037459914
139	0x3e66e9e1	0.22550155
140	0xbe8094c5	-0.25113502
141	0x3ea2605b	0.31714138
142	0x3e6660dd	0.22497888
143	0x3d5167a4	0.05112423
144	0xbe9eae37	-0.3099229
145	0xbb3f33b7	-0.0029175112
146	0xbd393eb7	-0.045225825
147	0xbdd81d62	-0.10552479
148	0x3d9232b8	0.0713858
149	0xbe036658	-0.1283201
150	0xbce5f036	-0.028068643
151	0xbe2567dd	-0.16152902
152	0x3e0fa188	0.14026463
153	0xbc9442bd	-0.01809823
154	0x3eadffcb	0.33984217
155	0x3e5d4439	0.21608056
156	0x3e5bd208	0.2146684
157	0x3c52592c	0.012838643
158	0xbd82fa85	-0.06395439
159	0x3ccf7580	0.025324583
160	0x3e8040b8	0.25049376
161	0x3e56e556	0.20985922
162	0xbd1a8fc6	-0.03773477
163	0xbcbbb50a	-0.022913475
164	0xbd334382	-0.043765552
165	0x3d72bd86	0.059262775
166	0x3e8f965c	0.28044403
167	0x3e484c8b	0.19560449
168	0xbe4afe96	-0.1982368
169	0x3eef2d52	0.46714264
170	0xbe880dc1	-0.26572993
171	0xbe81b185	-0.2533075
172	0x3d0fc5f9	0.03510091
173	0x3e44440a	0.1916658
174	0x3cad0ece	0.021125223
175	0xbde9de07	-0.114193015
176	0xbe2a0a01	-0.16605379
177	0xbbb36e11	-0.0054757674
178	0xbddb3a04	-0.10704425
179	0xbdd0e3b8	-0.10199684
180	0x3e827667	0.2548096
181	0x3b1339dd	0.002246491
182	0x3e012005	0.1260987
183	0x3def974d	0.1169878
184	0xbd2603c9	-0.040530954
185	0x3c848523	0.016176766
186	0x3e1dbd4b	0.15404241
187	0x3e555d6e	0.20836422
188	0x3df687a2	0.12037589
189	0xbca6678a	-0.020313043
190	0xbe08363c	-0.13301939
191	0xbc4d99ee	-0.012548907
192	0x3d3c3032	0.0459444
193	0x3dc6c227	0.09705
194	0xbe179afd	-0.14805217
195	0xbdb42980	-0.08796978
196	0x3e0406ef	0.1289327
197	0xbdb84645	-0.08997778
198	0xbeb00b66	-0.34383696
199	0xbe902c21	-0.28158668
200	0xbe65930b	-0.22419374
201	0xbee18fea	-0.4405511
202	0xbd976e0f	-0.07394039
203	0xbd9c632e	-0.076361045
204	0x3e62b8e9	0.2214085
205	0x3e47cd37	0.19511877
206	0xbd8b3d96	-0.06798856
207	0xbd9f8ab5	-0.07790128
208	0x3e34596e	0.1761224
209	0xbd25a78c	-0.04044299
210	0x3e18f663	0.14937739
211	0x3ecd38dc	0.40082443
212	0xbda352c6	-0.07974772
213	0x3bfa4de2	0.007638679
214	0x3e539dbb	0.20665638
215	0xbd2b6e15	-0.04185303
216	0x3d60fe4e	0.054930024
217	0x3c79668a	0.015222201
218	0xbd6a1b7c	-0.057155117
219	0xbd8fdd54	-0.07024637
220	0xbc9eccb7	-0.019384725
221	0xbe8628c0	-0.26202965
222	0x3e4fd74e	0.20296976
223	0x3dbd4c66	0.092430875
224	0xbdc5c7c3	-0.09657242
225	0x3c43e615	0.011956711
226	0xbeb15096	-0.34631795
227	0x3dc2884f	0.09498655
228	0x3a08abae	0.00052135705
229	0xbd978afc	-0.07399556
230	0xbcfc32d5	-0.030785957
231	0x3d097ede	0.033568256
232	0x3e3bea07	0.18350993
233	0x3e24b0c3	0.16083054
234	0x3e14c0f6	0.14526734
235	0x3d1cc21c	0.038271055
236	0x3e095cb0	0.13414264
237	0x3e09e5d3	0.13466577
238	0x3e9202c8	0.28517747
239	0x3e4c5a7b	0.1995639
240	0xbea4f8a9	-0.32220963
241	0x3e264f9b	0.16241305
242	0x3ec74f16	0.38927525
243	0xbe453ca0	-0.19261408
244	0x3dbdeae6	0.09273319
245	0x3e9dae0c	0.3079685
246	0xbe177b05	-0.14793022
247	0xbee746bd	-0.45171157
248	0x3dd05968	0.10173303
249	0x3de30fa6	0.11086969
250	0xbe23c4e4	-0.15993077
251	0xbdc572ee	-0.09641062
252	0x3f1612af	0.5862226
253	0x3d902d93	0.070399426
254	0x3e69885f	0.22805928
255	0x3e298dd0	0.16558003

actor.2.bias f4 [64]
0	0xbe4493f5	-0.19197066
1	0x3ca13534	0.01967869
2	0xbeb5cca0	-0.3550768
3	0xbdae997c	-0.085253686
4	0x3e20c30b	0.15699403
5	0xbe7c1871	-0.24618699
6	0xbbb3a078	-0.005481776
7	0xbea541de	-0.32276815
8	0xbe3e1c52	-0.18565491
9	0x3e0d5783	0.13802914
10	0xbe64beea	-0.22338453
11	0x3e1551ca	0.14581981
12	0xbe17d57c	-0.14827532
13	0xbd6692eb	-0.056292456
14	0xbdbd882d	-0.09254489
15	0xbc9c9707	-0.019114984
16	0xbe0a7183	-0.13519864
17	0x3e2fddba	0.17174426
18	0xbcd172b4	-0.02556739
19	0xbea17fc7	-0.315428
20	0x3e7eccac	0.24882764
21	0x3db25860	0.087082624
22	0xbead5f49	-0.3386176
23	0xbc8e6780	-0.017383337
24	0x3e180e32	0.14849165
25	0xbdb28e01	-0.08718491
26	0xbe0757ef	-0.13217138
27	0x3d72fa97	0.059321012
28	0xbda50b9e	-0.080588564
29	0xbda9a0ad	-0.082825996
30	0xbef313f3	-0.47476158
31	0x3daed61f	0.08536934
32	0xbe95bd15	-0.2924582
33	0x3c5dcb55	0.013537248
34	0xbefccb82	-0.49374014
35	0xbea56724	-0.32305253
36	0xbba80df9	-0.005128619
37	0xbdde023f	-0.10840272
38	0x3e82c70e	0.25542492
39	0xbbf54e2c	-0.0074861255
40	0x3c9b56e0	0.018962324
41	0xbdeba24f	-0.11505567
42	0xbc23a22c	-0.009987395
43	0x3d59d07b	0.053177338
44	0xbd1e8a72	-0.03870625
45	0x3cfe920f	0.031075506
46	0x3cbaa08d	0.022781635
47	0xbc88f44d	-0.016718054
48	0x3d47edd2	0.048810787
49	0xbd3c1e9a	-0.04592762
50	0x3e2a8746	0.16653165
51	0xbe7405a2	-0.23830274
52	0xbeae37b0	-0.3402686
53	0xbd08fab1	-0.033442203
54	0xbed7ef64	-0.42174828
55	0xbe4b57ce	-0.19857714
56	0xbd6d4236	-0.05792447
57	0xbe833ab1	-0.25630715
58	0xbd81422c	-0.063114494
59	0xbd95fe2c	-0.0732387
60	0xbd42970e	-0.04750734
61	0x3ba2a926	0.0049640117
62	0x3d7dfcfd	0.062008847
63	0xbe618e93	-0.22027044

actor.4.weight f4 [6, 64]
0	0xbd3756e6	-0.044760607
1	0x3d802fba	0.06259103
2	0x3cdf6975	0.027271966
3	0xbce575b4	-0.028010227
4	0xbd6c0473	-0.05762143
5	0x3e06e947	0.13174926
6	0xbd7d7084	-0.06187488
7	0x3b6cb2d6	0.0036117337
8	0x3deaf375	0.11472217
9	0x3dc1affa	0.09457393
10	0xbde34c85	-0.11098579
11	0x3e145355	0.14484914
12	0xbe9579e6	-0.29194564
13	0xbdfe4cce	-0.12416993
14	0x3e28df0f	0.1649134
15	0x3dbab1ba	0.0911593
16	0xbd9f82e5	-0.07788638
17	0x3d5fb1c8	0.054612905
18	0xbd87eaf0	-0.06636608
19	0x3ddd80b5	0.108155645
20	0xbda4457c	-0.080210656
21	0xbb2d5525	-0.0026448455
22	0x3d963aaf	0.07335412
23	0x3d67b67a	0.056570508
24	0xbdb4c1f3	-0.088260554
25	0x3e3324e8	0.17494547
26	0x3e3980af	0.18115495
27	0xbd50ca5f	-0.050974246
28	0xbe1749c0	-0.14774227
29	0xbd2e1144	-0.042496935
30	0x3da2a457	0.079415016
31	0x3dac8d4f	0.0842539
32	0xbca76903	-0.020435816
33	0xbd55f5b6	-0.05223628
34	0x3de25155	0.11050669
35	0xbe88be43	-0.26707658
36	0xbe98697f	-0.29767987
37	0x3de86f4f	0.113493554
38	0xbd8ea267	-0.069645695
39	0xbc49335f	-0.012280314
40	0xbdda0395	-0.106452145
41	0xbddc4db9	-0.10757012
42	0x3e16a48f	0.14711212
43	0x3d662ef3	0.056197118
44	0x3e597ce0	0.21239042
45	0x3e3d6989	0.1849729
46	0x3c335d42	0.010947527
47	0x3a7c25b8	0.00096186576
48	0xbdbacde8	-0.09121305
49	0xbbbf070f	-0.005829699
50	0x3da139d3	0.07872357
51	0xbd337542	-0.043812998
52	0xbdbf4a17	-0.093403034
53	0x3da70b92	0.08156504
54	0xbd2b7d9e	-0.041867845
55	0xbd9fa290	-0.07794678
56	0xbd105ede	-0.035246722
57	0xbd4571a4	-0.04820408
58	0xbd6e937a	-0.058246113
59	0xbdcea599	-0.10090179
60	0xbd9b65cf	-0.07587778
61	0xbe05a0bc	-0.13049597
62	0x3c67413d	0.014114675
63	0x3e3351c1	0.17511655
64	0xbd39d96b	-0.04537336
65	0xbe065959	-0.13120021
66	0xbd4ea049	-0.05044583
67	0x3ebc23c4	0.36746037
68	0x3d4e876a	0.05042211
69	0x3e1464f2	0.14491633
70	0xbe79a2c4	-0.24378496
71	0x3dbd2aeb	0.092367016
72	0x3c87a77a	0.016559351
73	0x3cefde50	0.029280812
74	0xbddad7bf	-0.106856816
75	0xbe4aac3f	-0.19792269
76	0xbd3095f3	-0.043111753
77	0xbd75ce3e	-0.06001114
78	0xbe6b9672	-0.23006609
79	0x3d1e8595	0.038701613
80	0xbd89c517	-0.06727045
81	0xbe269458	-0.16267526
82	0xbcdf2854	-0.02724091
83	0x3c7fa7b8	0.015603952
84	0xbd37e8d5	-0.04489978
85	0x3b3a6076	0.0028438843
86	0xbd254c32	-0.04035587
87	0x3dd4785b	0.103745185
88	0xbd6e05ae	-0.058110885
89	0xbe6a2d7a	-0.2286891
90	0xbcec1c9d	-0.028822238
91	0xbe59161a	-0.21199837
92	0xbe064b76	-0.13114724
93	0xbdbe5e3e	-0.09295319
94	0x3dab4fa5	0.083648
95	0x3d722d94	0.059125498
96	0xbd9f5287	-0.07779413
97	0xbd6eb676	-0.058279477
98	0x3d863947	0.065538935
99	0xbe31ad7b	-0.17351334
100	0xbddff7ce	-0.10935937
101	0xbdd639a6	-0.10460214
102	0x3d9d5340	0.07681894
103	0xbc80e5cb	-0.015734574
104	0xbe104c62	-0.14091638
105	0xbdbe42ab	-0.0929006
106	0x3de1d514	0.110269696
107	0x3e38d9b5	0.18051799
108	0xbc5797f3	-0.013158786
109	0xbdb139e2	-0.086536184
110	0xbe5029c5	-0.20328434
111	0xbdd33bf3	-0.10314169
112	0x3d95f7fb	0.07322689
113	0x3d4866e6	0.048926257
114	0xbcfb6032	-0.030685518
115	0xbe10ead0	-0.14152074
116	0x3b7e1066	0.0038767098
117	0xbe104da9	-0.14092125
118	0xbd77932d	-0.060443092
119	0xbd0caded	-0.034345556
120	0xbd62e163	-0.055390727
121	0xbe2b9012	-0.16754177
122	0x3e815700	0.25261688
123	0xbe431029	-0.19049133
124	0xbe193fc4	-0.14965731
125	0xbdab4e55	-0.0836455
126	0xbe26d99a	-0.16293946
127	0x3e39dd1f	0.18150757
128	0xbd149995	-0.03627928
129	0x3c86534d	0.016397143
130	0x3cc6b322	0.024255339
131	0xbd875ac0	-0.06609106
132	0x3ddb93c6	0.10721545
133	0xbd923833	-0.071396254
134	0x3e0800a8	0.132815
135	0xbdc29f55	-0.095030464
136	0x3dd18221	0.10229898
137	0x3de89ec2	0.11358406
138	0x3d8238bc	0.063584775
139	0xbd90112c	-0.07034525
140	0x3d292197	0.0412918
141	0xbe01f6f4	-0.12691861
142	0xbe8c18fb	-0.2736281
143	0x3d0548fe	0.032540314
144	0xbe80da36	-0.25166482
145	0x3d2979e6	0.041376017
146	0xbe0a7e23	-0.1352468
147	0xbda6ec8d	-0.08150587
148	0x3de2b574	0.11069766
149	0xbdfe072c	-0.12403712
150	0x3e060efd	0.13091655
151	0xbde60300	-0.11231041
152	0x3c0bfd48	0.008544274
153	0xbd855e64	-0.06512144
154	0xbdddf50f	-0.10837757
155	0x3d952070	0.072815776
156	0xbe50cebb	-0.20391361
157	0xbd9b7ef3	-0.07592573
158	0xbe7ae068	-0.24499667
159	0x3d1c5cb8	0.03817436
160	0xbdb21cc1	-0.086968906
161	0x3d025eab	0.031828564
162	0xbdba7924	-0.09105137
163	0x3d8eb4ce	0.069680795
164	0x3ea96121	0.33081916
165	0x3e09efa3	0.1347032
166	0x3d0d8af1	0.034556333
167	0xbc6b0989	-0.014345535
168	0x3cebfd17	0.028807206
169	0xbd217941	-0.039422277
170	0x3d893033	0.066986464
171	0x3e0bef85	0.13665588
172	0x3e69c504	0.22829062
173	0x3c20d01d	0.009815243
174	0x3d95844f	0.073006265
175	0xbccec21d	-0.025239045
176	0x3e1f2f65	0.15545423
177	0x3e0b33df	0.13594006
178	0x3d6a36ff	0.057181355
179	0xbd742416	-0.059604727
180	0xbe07164b	-0.13192098
181	0x3d8803f4	0.06641379
182	0x3d2e5283	0.042559158
183	0xbd8c405e	-0.068482146
184	0xbd40dc95	-0.047085363
185	0xbdf8e666	-0.1215332
186	0xbdf82bad	-0.121177055
187	0xbda91c2c	-0.082573265
188	0xbdfa7b4c	-0.12230548
189	0xbdbd89d8	-0.09254807
190	0xbd949572	-0.07255067
191	0x3e1d2cba	0.15349093
192	0xbde2efef	-0.1108092
193	0x3cf6293c	0.030048959
194	0xbeac3b05	-0.33638778
195	0x3c829dd3	0.015944397
196	0x3e1da9ed	0.15396853
197	0xbe2b557f	-0.16731833
198	0xbd8ef054	-0.06979433
199	0xbeb2eb43	-0.34945115
200	0xbd08f10a	-0.033432998
201	0x3d96cb18	0.07362956
202	0xbd850c34	-0.06496468
203	0xbbdc9874	-0.006732041
204	0x3b0438c5	0.002017544
205	0xbdfd262d	-0.12360797
206	0x3d7781aa	0.06042639
207	0x3e14bcea	0.1452519
208	0xbe0e5c5f	-0.13902424
209	0xbdafcdd1	-0.08584178
210	0x3c89c0dc	0.016815595
211	0xbea8b336	-0.32949227
212	0x3e0c19b8	0.13681686
213	0x3d91f0b4	0.071259886
214	0xbe2f57c1	-0.17123319
215	0x3deb58a9	0.1149152
216	0x3d4711bf	0.04860091
217	0xbd89b4be	-0.06723927
218	0x3d1a6a2a	0.037698902
219	0xbd10f7f3	-0.035392713
220	0xbdc61448	-0.09671837
221	0xbb3ff386	-0.0029289438
222	0xbebc8748	-0.3682196
223	0x3d3e1de9	0.046415243
224	0xbe516de6	-0.20452079
225	0x3d83d9b2	0.064380065
226	0xbe92349e	-0.2855577
227	0xbd4e57e2	-0.05037678
228	0x3c70bc02	0.014693262
229	0xbca60c41	-0.020269515
230	0x3e44fd8d	0.19237347
231	0xbe00ad0b	-0.1256601
232	0x3e813b4a	0.25240546
233	0xbd961446	-0.073280856
234	0x3dc7b103	0.09750559
235	0x3d273335	0.04082032
236	0xbce9ff6d	-0.02856418
237	0xbe09db9f	-0.13462685
238	0xbdb8f9a0	-0.09031987
239	0xbc8f8b27	-0.017522408
240	0x3da47cbb	0.08031603
241	0x3d91d49f	0.071206324
242	0xbd862db9	-0.0655169
243	0xbda96d9c	-0.082728595
244	0xbe820922	-0.25397593
245	0x3c6e62bf	0.01454991
246	0xbe6e0e33	-0.23247604
247	0xbe05c222	-0.13062337
248	0xbde44881	-0.111466415
249	0xbe1dcbe9	-0.15409817
250	0x3dd26822	0.10273768
251	0x3de44e65	0.11147765
252	0x3d2dd1e4	0.042436495
253	0xbd36cc98	-0.04462871
254	0x3da4767b	0.08030411
255	0xbd712da1	-0.058881406

actor.4.bias f4 [6]
0	0xbe7512e7	-0.23932992
1	0xba406133	-0.00073387026
2	0x3dee070a	0.11622436
3	0x3e99c0a9	0.300298
4	0x3dbd0c20	0.09230828
5	0x3e84b4db	0.25919232

critic.0.weight f4 [64, 25]
0	0x3e3e05ac	0.18556851
1	0x3d4e5e11	0.050382677
2	0x3d94bb7b	0.072623216
3	0xbe0a5e08	-0.13512433
4	0x3daa2823	0.08308437
5	0xbdc4d10f	-0.09610187
6	0x3b6541e5	0.0034981903
7	0xbd99ff4f	-0.075193994
8	0x3cedce2b	0.029028973
9	0xbcbe03fa	-0.023195256
10	0x3d37aa31	0.04484004
11	0xba967de7	-0.0011481614
12	0xbde03d1c	-0.10949156
13	0x3e5b1bba	0.21397296
14	0xbe48638f	-0.19569229
15	0xbe04cd67	-0.1296898
16	0x3f559adb	0.83439416
17	0xbc526152	-0.012840586
18	0xbf3fdaa5	-0.74943
19	0x3d47be5b	0.04876552
20	0xbd64b401	-0.055835728
21	0xbe11ba0b	-0.14231126
22	0x3d80525e	0.0626571
23	0xbd90e75f	-0.070753805
24	0x3d747031	0.059677307
25	0x3e99ed0a	0.3006366
26	0xbe39c2ea	-0.1814076
27	0xbe62c22f	-0.22144388
28	0xbe512648	-0.2042476
29	0xbdb951ac	-0.09048781
30	0x3ccef999	0.025265502
31	0x3e082483	0.13295178
32	0x3e79cd26	0.24394664
33	0xbe12a196	-0.14319453
34	0xbda6b160	-0.081393
35	0x3c5bcfcf	0.013416245
36	0x3e088f12	0.13335827
37	0xbe689f46	-0.22717008
38	0x3edb0408	0.42776513
39	0xbd204197	-0.03912505
40	0x3cb302e7	0.02185197
41	0x3e2e27b3	0.17007332
42	0xbbaf4dc9	-0.005349849
43	0xbea4a431	-0.32156518
44	0xbe09144f	-0.13386653
45	0xbe2408a6	-0.16018924
46	0x3decc559	0.115610786
47	0xbd7bb034	-0.061447337
48	0xbdd8322b	-0.10556444
49	0x3dec629c	0.11542246
50	0xbe2418d8	-0.16025102
51	0x3c0772fc	0.0082671605
52	0x3b040199	0.0020142554
53	0x3d2269bf	0.03965163
54	0x3d94e1ea	0.07269652
55	0x3e28a291	0.16468264
56	0x3c9b57e1	0.018962802
57	0x3d582572	0.052770086
58	0xbcd835c8	-0.026392832
59	0xbc328578	-0.010896079
60	0xbd94eaca	-0.07271345
61	0x3c4e3bbc	0.012587484
62	0x3e24419a	0.1604065
63	0xbf2b5b7a	-0.6693646
64	0xbe521304	-0.20515066
65	0x3e4930d0	0.19647527
66	0xbe9fdfe6	-0.31225508
67	0xbdf3285f	-0.118729346
68	0x3d87c53e	0.06629418
69	0xbd9a27d9	-0.075271316
70	0xbd0dabe5	-0.03458776
71	0x3dd0663d	0.101757504
72	0xbd6715bb	-0.05641721
73	0x3d240eb5	0.04005309
74	0xbd1ff969	-0.039056215
75	0xbe841f42	-0.25805098
76	0x3ba90d96	0.0051590903
77	0x3c361ce4	0.0111152865
78	0x3e035819	0.12826575
79	0xbe5af051	-0.21380736
80	0xbe06b3e5	-0.13154562
81	0x3de58612	0.112072125
82	0xbe93f25b	-0.2889584
83	0x3df0e152	0.117617264
84	0xbdadb53f	-0.084818356
85	0x3cf78d4b	0.03021874
86	0x3d9be083	0.076111816
87	0x3e186731	0.14883114
88	0xbed49f74	-0.41527903
89	0x3e4c618b	0.19959085
90	0xbe3d60e8	-0.18493998
91	0x3d70c96d	0.058785845
92	0x3e2943e4	0.16529804
93	0x3de6c171	0.11267365
94	0x3cf24924	0.029575892
95	0x3e2ccb99	0.16874541
96	0x3d470b2d	0.048594642
97	0x3de26999	0.110552974
98	0xbdb7b5e5	-0.089702405
99	0xbe15123f	-0.14557742
100	0x3e2b9467	0.1675583
101	0xbdb01004	-0.08596805
102	0x3e495cef	0.19664358
103	0xbe5e568e	-0.21712705
104	0xbdd82b0d	-0.10555086
105	0xbe4a679d	-0.19766088
106	0x3db7a489	0.089669295
107	0x3d5394e3	0.05165566
108	0xbc7362db	-0.014855112
109	0xbd5d0a3d	-0.053964842
110	0x3c08801f	0.008331328
111	0xbd84f0ef	-0.06491267
112	0xbe6f9a17	-0.23398624
113	0x3f81d14b	1.0141996
114	0x3ec817c5	0.39080635
115	0x3d975755	0.07389704
116	0x3e22d761	0.15902473
117	0x3d662d3e	0.05619549
118	0xbdb65d30	-0.08904493
119	0xbde5b678	-0.11216444
120	0x3e19a9c9	0.15006174
121	0x3d299776	0.04140421
122	0x3dffb5f1	0.124858744
123	0x3b90c150	0.004417576
124	0xbc91575a	-0.017741848
125	0xbeac69f0	-0.33674574
126	0xbdcd29b3	-0.10017719
127	0x3dce1c51	0.10063995
128	0xbdcf3ccb	-0.10119017
129	0x3c399483	0.011326912
130	0x3e74086d	0.23831339
131	0xbda19205	-0.07889179
132	0x3db276b0	0.08714044
133	0xbb52471c	-0.0032085842
134	0xbd142d78	-0.036176175
135	0xbd9e0f53	-0.077177666
136	0x3c552420	0.013009101
137	0xbe21118d	-0.15729351
138	0xbe8d0981	-0.27546313
139	0xbe58e668	-0.21181643
140	0xbe12b6a8	-0.1432749
141	0xbef11ccd	-0.47092286
142	0xbc0429f0	-0.008066639
143	0x3ebc253d	0.3674716
144	0xbd762363	-0.06009234
145	0x3d93f4b3	0.07224407
146	0x3dc204d9	0.09473581
147	0xbd83a5b4	-0.0642809
148	0x3d78f352	0.060778923
149	0xbc5076bc	-0.012723621
150	0x3e10002b	0.14062564
151	0x3e440a88	0.19144642
152	0xbe0f2fef	-0.13983129
153	0xbd7bbffa	-0.06146238
154	0x3de4601a	0.111511424
155	0x3d4398f5	0.047753293
156	0xbdf76e11	-0.120815404
157	0xbd0276d3	-0.0318516
158	0xbb4ec83f	-0.0031552461
159	0xbc0044e1	-0.007828922
160	0x3e08f9b8	0.1337651
161	0x3deabb02	0.1146145
162	0xbe4a3669	-0.19747318
163	0x3f101a0f	0.5628976
164	0x3e276910	0.16348672
165	0x3ccca749	0.024982112
166	0x3efc0b98	0.49227595
167	0xbdfd1656	-0.12357776
168	0xbea1d85c	-0.31610382
169	0x3c9401bb	0.018067231
170	0x3ca55284	0.020180948
171	0x3d93f3dd	0.072242476
172	0x3d9c06ce	0.076184854
173	0x3ca16d1e	0.019705351
174	0xbdd17291	-0.1022693
175	0xbe7e1868	-0.24813998
176	0xbe27a73d	-0.1637239
177	0xbe9e8897	-0.30963585
178	0x3df10117	0.11767786
179	0x3e2a073b	0.1660432
180	0x3d04d2fb	0.03242777
181	0xbce9bd2f	-0.028532593
182	0x3d1f4f66	0.03889408
183	0x3ce1b987	0.027554287
184	0x3db2d104	0.08731273
185	0x3d59e0d8	0.053192943
186	0x3cdc86fa	0.02691983
187	0x3e5ab44d	0.21357842
188	0x3f6dd208	0.9289861
189	0xbee9a7fa	-0.45635968
190	0x3e354dc1	0.17705442
191	0x3e15634e	0.14588663
192	0xbe124ea7	-0.14287816
193	0xbe405681	-0.18782999
194	0xbe19550d	-0.1497385
195	0xbd1d2a00	-0.038370132
196	0x3d2726c5	0.040808458
197	0x3d8f73c6	0.07004504
198	0xbd7dc49d	-0.061955083
199	0xbdc8290a	-0.097734526
200	0x3e42f060	0.19037008
201	0xbe5eeaa0	-0.2176919
202	0x3d202900	0.0391016
203	0xbdcc9d08	-0.09990889
204	0x3d9b213b	0.075746976
205	0xbd8809f3	-0.06642523
206	0x3d9d258e	0.076731786
207	0xbd97cc44	-0.074120075
208	0x3d046f5b	0.03233276
209	0xbe2af59d	-0.16695257
210	0x3d878103	0.06616404
211	0xbd01334b	-0.031543057
212	0x3da0f16c	0.078585476
213	0xbe56a21c	-0.20960277
214	0xbeb031c4	-0.34412968
215	0xbe10053e	-0.140645
216	0x3def735d	0.11691926
217	0x3df2ffa2	0.11865164
218	0x3d437830	0.04772204
219	0xbd4720e9	-0.04861537
220	0x3daa6bd2	0.08321346
221	0xbe0c46ab	-0.13698833
222	0x3e23aa8e	0.1598303
223	0xbe3c8c7c	-0.18412966
224	0x3d8de822	0.069290414
225	0xbe6ee2ba	-0.23328677
226	0xbe1b79e7	-0.15183221
227	0x3d2d66ce	0.04233437
228	0xbddae869	-0.1068886
229	0x3d298f9d	0.041396726
230	0xbdf0c8d1	-0.11757053
231	0xbcaeebd4	-0.021352686
232	0x3cca53c9	0.024698155
233	0x3c0a52f5	0.00844263
234	0xbdeb6971	-0.11494721
235	0x3c6bfcc1	0.014403523
236	0xbbfceffc	-0.007719038
237	0x3e8f6f05	0.2801439
238	0x40924100	4.5704346
239	0xbf492b20	-0.7858143
240	0xbe66c24d	-0.22535057
241	0x3f3081ae	0.68947875
242	0xbe7146f8	-0.23562229
243	0xbf0e6327	-0.55620044
244	0xbda7f6bf	-0.0820136
245	0x3cfaa717	0.030597253
246	0x3aa06f8a	0.0012240272
247	0x3d4b3709	0.049613032
248	0xbd63bf84	-0.055602565
249	0x3ce2241c	0.027605109
250	0x3e19b983	0.15012173
251	0xbde882f5	-0.11353103
252	0xbe4c74db	-0.19966452
253	0xbda4fbfc	-0.08055875
254	0x3ddb38b5	0.107041754
255	0x3c6e6146	0.014549559

critic.0.bias f4 [64]
0	0x3e405a33	0.18784408
1	0x3e622aa8	0.22086585
2	0xbe2f7ba4	-0.17137009
3	0xbc1be733	-0.009515571
4	0x3d01fdd9	0.03173623
5	0xbe65ae49	-0.22429766
6	0x3e23f7cb	0.16012494
7	0xbe0cd512	-0.13753155
8	0xbc5d41b2	-0.0135044325
9	0x3dcb374b	0.09922656
10	0x3e17d426	0.14827022
11	0x3db20884	0.086930305
12	0xbe4752e3	-0.19465213
13	0xbd390374	-0.04516931
14	0x3d4478ed	0.047966886
15	0x3bd33cf5	0.0064464756
16	0xbe4e62a3	-0.20154814
17	0xbcb9eb07	-0.022695078
18	0x3d439377	0.047748055
19	0x3d930451	0.07178558
20	0x3e36e08c	0.17859095
21	0x3d869e93	0.065732144
22	0x3d9fae0e	0.0779687
23	0x3e029ebc	0.12755865
24	0xbc8771b7	-0.016533716
25	0xbcbb1e4e	-0.022841599
26	0xbd66d742	-0.05635763
27	0xbd0b3928	-0.033990055
28	0x3d3e0584	0.04639198
29	0x3e1710f2	0.14752558
30	0xbd182bde	-0.03715121
31	0xbdd4f007	-0.10397344
32	0xbd42e68d	-0.04758315
33	0xbda84d56	-0.08217876
34	0x3e7abc7c	0.24485964
35	0xbda94ea6	-0.08266954
36	0x3c9a0a08	0.018803611
37	0xbdae60a7	-0.08514529
38	0xbc85f25b	-0.016350916
39	0x3dde8a2a	0.108661965
40	0xbe4ea92f	-0.20181726
41	0xbe16a7ed	-0.14712496
42	0xbd7ae81d	-0.061256517
43	0x3e09faae	0.13474533
44	0xbc81ab23	-0.015828675
45	0xbd40dbf1	-0.047084752
46	0xbdd3e540	-0.1034646
47	0x3df86c14	0.12129989
48	0xbbcb6201	-0.0062067513
49	0x3e1406b1	0.14455678
50	0x3bbe6a64	0.0058110226
51	0xbc43df42	-0.011955084
52	0xbdc89684	-0.097943336
53	0xbdfa75ce	-0.12229501
54	0x3e2594e0	0.16170073
55	0x3cfe398b	0.031033298
56	0xbdde6d7c	-0.10860726
57	0x3dd91fb9	0.10601754
58	0xbe013e60	-0.1262145
59	0x3ddf6804	0.10908511
60	0xbe1a0f59	-0.15044917
61	0xbc263431	-0.010144279
62	0x3c58de92	0.013236659
63	0x3d188d51	0.037244145

critic.2.weight f4 [64, 64]
0	0xbdb9ec4b	-0.090782724
1	0xbd040d28	-0.03223911
2	0xbe1f6bb0	-0.15568423
3	0x3d5ac491	0.053410117
4	0x3d255ee3	0.040373694
5	0xbe122d32	-0.14275053
6	0x3d94595a	0.07243605
7	0x3d8aedf7	0.067836694
8	0x3c93e39f	0.018052874
9	0xbd9ca153	-0.07647958
10	0x3db0b183	0.08627608
11	0x3cc9dd85	0.024641762
12	0xbcdb0a3c	-0.026738279
13	0x3de0c266	0.109745786
14	0xbd0e8216	-0.03479203
15	0xbdb44871	-0.088028796
16	0xbd350124	-0.04419054
17	0xbd08ca68	-0.033396155
18	0xbc23bb3c	-0.009993371
19	0xbd2de27b	-0.042452317
20	0x3e02c934	0.12772065
21	0x3e117b2e	0.14207146
22	0x3dcd002f	0.10009801
23	0x3c592eff	0.013255834
24	0xbc66ca86	-0.014086371
25	0x3d0e67cb	0.034766953
26	0x3d5db673	0.054129075
27	0x39b40e69	0.00034343012
28	0xbda5768e	-0.08079253
29	0x3d701950	0.05861789
30	0x3d4d2585	0.05008461
31	0xbda5846b	-0.08081897
32	0x3de084d7	0.10962837
33	0x3dbd91c0	0.09256315
34	0xbca1b028	-0.019737318
35	0x3d9270f4	0.0715045
36	0xbdfc0785	-0.12306122
37	0x3cd8166a	0.026377875
38	0xbc9d1ab1	-0.019177767
39	0x3dafae1d	0.08578131
40	0xbe219213	-0.15778379
41	0xbc873fec	-0.016509973
42	0xbd32266c	-0.043493673
43	0xbde642b4	-0.11243191
44	0x3be035d2	0.0068423534
45	0xbe1c1822	-0.15243581
46	0x3c4100ea	0.011780003
47	0x3dcbeca5	0.09957246
48	0xbbe91fcc	-0.007114386
49	0x3dc0a8e7	0.094072156
50	0x3de68b6c	0.11257061
51	0xbcb4d51c	-0.022074275
52	0x3da3c4bf	0.07996511
53	0x3e0140f7	0.12622438
54	0xbd95071e	-0.07276748
55	0xbc97528a	-0.018471975
56	0x3d0d2c7f	0.034466263
57	0xbd80dd1b	-0.062921725
58	0x3da72883	0.08162024
59	0xbd9a22c7	-0.075261645
60	0x3c1d4d37	0.009600929
61	0x3dc64c2e	0.09682499
62	0x3c4af644	0.012387816
63	0x3d642b6f	0.055705484
64	0xbb89e2a6	-0.004207927
65	0x3d20749a	0.0391737
66	0x3d7c146a	0.061542906
67	0x3c0cc4ef	0.0085918745
68	0xbd9a5dc7	-0.07537418
69	0x3e18ca4f	0.14920925
70	0xbd06f4fe	-0.032948487
71	0xbd0717d2	-0.0329817
72	0xbd297d17	-0.04137906
73	0x3da5b92e	0.08091961
74	0x3e263814	0.1623233
75	0xbdafb77f	-0.08579921
76	0x3dcdab43	0.10042431
77	0xbd3eac6d	-0.046551157
78	0xbbd3df34	-0.006465817
79	0xbd78d4c1	-0.060749773
80	0x3d1919ad	0.037378002
81	0x3d9ff6ca	0.07810743
82	0x3dc87873	0.09788599
83	0xbd00a7cc	-0.031410024
84	0x3cc5b0fe	0.024132248
85	0x3d713cf6	0.058896028
86	0xbd101432	-0.03517551
87	0x3e0d4a45	0.13797863
88	0x3e1a5084	0.15069777
89	0x3ddadaeb	0.106862865
90	0xbe06a94f	-0.13150524
91	0xbc88c15b	-0.016693762
92	0xbd9e7527	-0.07737189
93	0x3e116443	0.14198403
94	0xbda2b196	-0.07944028
95	0x3df96a38	0.12178463
96	0xbc9aa002	-0.018875126
97	0xbdfa322f	-0.12216603
98	0xbc454b05	-0.012041812
99	0xbdca1114	-0.09866539
100	0xbdf691b7	-0.12039512
101	0x3ca24923	0.019810265
102	0xbd834af5	-0.06410781
103	0xbd834dd3	-0.06411328
104	0x3bcc6e3f	0.0062387283
105	0x3d5477db	0.051872116
106	0x3d756920	0.05991471
107	0x3ca71846	0.020397317
108	0xbca27e17	-0.019835515
109	0xbc297d33	-0.010344791
110	0xbbb44abc	-0.005502073
111	0xbde69510	-0.112589
112	0xbe13ce20	-0.14434099
113	0xbd544ced	-0.051831175
114	0xbc74ba84	-0.014937047
115	0x3da7e444	0.08197835
116	0x3d9d2ba7	0.07674342
117	0xbc405ef8	-0.011741392
118	0xbe0ec971	-0.13944031
119	0xbdd5a898	-0.10432547
120	0x3e070997	0.13187252
121	0x3cbad92c	0.022808634
122	0x3e058d1e	0.13042113
123	0xbdb30fb6	-0.08743231
124	0xbe144ad3	-0.14481668
125	0x3d9c9186	0.07644944
126	0xbd82e35d	-0.06391022
127	0x3d965171	0.073397525
128	0x3def4b9b	0.116843425
129	0xbcd23425	-0.02565963
130	0xbd1318c1	-0.03591228
131	0x3cdea12f	0.027176468
132	0xbd7df15c	-0.061997756
133	0x3c24a27d	0.010048506
134	0xbdba34b4	-0.090920836
135	0x3db01fb9	0.085998006
136	0xbd0cf2e4	-0.034411326
137	0x3d142836	0.03617116
138	0xbcb4587e	-0.022014853
139	0x3c266249	0.010155269
140	0xbdd7bac9	-0.10533673
141	0xbd5d0c22	-0.05396665
142	0x3d07d882	0.033165462
143	0xbd578ecd	-0.05262642
144	0x3defb704	0.11704829
145	0x3c85ec60	0.016348064
146	0x3d519183	0.05116416
147	0xbdd3e304	-0.10346034
148	0xbc9cea6b	-0.019154748
149	0x3e0296fc	0.12752908
150	0x3c43461c	0.011918571
151	0x3d169740	0.036765337
152	0x3de8d98a	0.11369617
153	0x3d859a63	0.065235876
154	0xbdcd3ec4	-0.10021737
155	0xbd4b8334	-0.049685672
156	0xbc9b3a15	-0.018948594
157	0x3df3aef8	0.11898607
158	0x3d10c418	0.03534326
159	0x3dbfae44	0.093594104
160	0x3cc47969	0.023983674
161	0xbd8665b0	-0.06562364
162	0x3d3c1adb	0.04592405
163	0xbdb8efef	-0.09030139
164	0x3e094545	0.1340533
165	0xbd13399a	-0.035943605
166	0x3d64327f	0.05571222
167	0x3d8180e3	0.06323411
168	0x3c16f2c5	0.009213154
169	0x3dc67d37	0.096918516
170	0xbc9eaf24	-0.019370623
171	0x3c935e5c	0.01798933
172	0x3d671b1c	0.056422338
173	0xbd928ea5	-0.071561135
174	0x3d964c5d	0.07338784
175	0xbde5cd50	-0.11220801
176	0xbe151777	-0.14559732
177	0x3dd5d75e	0.10441469
178	0xbda51da5	-0.08062295
179	0x3dc1772a	0.09446557
180	0xbc5ca30d	-0.013466609
181	0xbc3305d8	-0.010926686
182	0x3d5e5322	0.0542785
183	0x3dd5c8bc	0.10438678
184	0xbc81902e	-0.01581582
185	0x3da01e4b	0.07818278
186	0x3e129939	0.14316262
187	0xbca02ef7	-0.019553645
188	0x3d881c4a	0.06646021
189	0xbe027032	-0.12738112
190	0xbd35a493	-0.044346403
191	0x3e104198	0.14087522
192	0x3d8f6202	0.070011154
193	0xbb9657eb	-0.0045881174
194	0x3dbb4b69	0.09145243
195	0xbd27f7a0	-0.041007638
196	0x3dcddbe7	0.10051709
197	0x3e0b448e	0.1360037
198	0x3c556d62	0.013026567
199	0x3dce222f	0.10065114
200	0xbcc2d884	-0.023784883
201	0xbc40e78f	-0.011773958
202	0xbe2a62e8	-0.16639292
203	0xbdc6edb9	-0.09713311
204	0x3db85668	0.09000856
205	0xbda2e5f4	-0.07954016
206	0xbc95b25f	-0.01827353
207	0xbd88b17a	-0.06674476
208	0x3deba6b1	0.11506403
209	0x3c2d70f9	0.010586017
210	0xbcffd5f2	-0.031229947
211	0xbd820d69	-0.06350214
212	0x3bdec36d	0.006798199
213	0xbd083438	-0.033252925
214	0xbe05247f	-0.13002203
215	0xbde23de5	-0.11046962
216	0xbda5b262	-0.080906644
217	0x3dda01ac	0.1064485
218	0x3c92a4a1	0.017900767
219	0x3d2199e7	0.039453413
220	0x3db108e9	0.086442776
221	0xbde34958	-0.110979736
222	0x3caf5ec4	0.021407492
223	0xbd8df12f	-0.06930768
224	0x3d4b1ed0	0.049589932
225	0xbc902176	-0.01759408
226	0x3dc029eb	0.09382995
227	0xbc7d0304	-0.0154426135
228	0xbdbd315a	-0.09237929
229	0x3c4183cd	0.011811209
230	0xbc931ae0	-0.017957151
231	0x3dfda66d	0.12385259
232	0xbe09f10c	-0.13470858
233	0xbccc2ef0	-0.024924725
234	0xbdad5b8f	-0.08464729
235	0x3def419e	0.11682437
236	0xbc847231	-0.016167732
237	0xbdbd5239	-0.09244198
238	0x3d565c0d	0.05233388
239	0x3d89eca5	0.067345895
240	0xbdb9574d	-0.090498544
241	0x3d2f35ef	0.042776044
242	0xbdc3256e	-0.095286235
243	0xbdec23b5	-0.11530248
244	0x3de78b14	0.11305824
245	0x3de4d462	0.11173321
246	0x3d92c875	0.071671404
247	0xbda8a9c9	-0.08235509
248	0x3a3f754a	0.0007303549
249	0xbd4468bb	-0.04795144
250	0xbd956506	-0.07294659
251	0xbcbfb1f6	-0.023400288
252	0xbbe77865	-0.0070639127
253	0xbc4debdd	-0.012568441
254	0x3b767ccf	0.0037611013
255	0x3c964218	0.018342063

critic.2.bias f4 [64]
0	0xbd97c129	-0.07409889
1	0x3cdef0d6	0.027214449
2	0xbdf1e7fe	-0.11811827
3	0xbd175deb	-0.0369548
4	0xbda52035	-0.08062784
5	0xbd7c8f94	-0.061660364
6	0x3d930028	0.07177764
7	0xbdbea93c	-0.09309623
8	0xbd89cf31	-0.06728972
9	0x3d807f49	0.06274278
10	0xbde2c0b8	-0.110719144
11	0xbd1e025d	-0.038576473
12	0x3c8dc805	0.01730729
13	0xbd3c4176	-0.045960866
14	0x3d82a92c	0.06379923
15	0xbe4c48bd	-0.19949622
16	0xbd414aed	-0.047190595
17	0x3d4c035c	0.04980789
18	0x3d402e6c	0.04691927
19	0x3d11902a	0.035537876
20	0xbdab83f4	-0.083747774
21	0xbcc14099	-0.023590373
22	0xbe1fb53b	-0.15596478
23	0xbd8304b3	-0.06397381
24	0x3d439e9c	0.047758684
25	0xbd9cd802	-0.07658388
26	0x3d277fce	0.04089337
27	0xbd958617	-0.07300966
28	0x3e19ee12	0.15032223
29	0x3d07e304	0.033175483
30	0x3c01059d	0.0078748735
31	0xbddbbee1	-0.10729767
32	0x3e027d89	0.127432
33	0xbdb47dae	-0.08813034
34	0x3d809ee9	0.0628031
35	0x3cb5fd1c	0.022215419
36	0xbc1422e7	-0.0090415245
37	0xbc06c65b	-0.008226003
38	0x3d92c348	0.07166153
39	0x3df9ed79	0.122034974
40	0xbe018c13	-0.1265109
41	0x3d7662a2	0.060152657
42	0xbc67b178	-0.014141433
43	0xbde10716	-0.1098768
44	0xbdbaa0e3	-0.09112718
45	0xbde78f30	-0.11306608
46	0x3df647b5	0.12025396
47	0xbdfc9b09	-0.12334258
48	0xbcbd61eb	-0.02311798
49	0xbe01c39c	-0.12672275
50	0x3b596809	0.0033173582
51	0xbd18da06	-0.0373173
52	0x3d12fb33	0.035884093
53	0xbd81daae	-0.06340538
54	0xbde58ca1	-0.112084635
55	0xbd4d41b4	-0.050111488
56	0xbdb307af	-0.087417
57	0xbb8342cd	-0.004005766
58	0xbcb0d2bf	-0.021584867
59	0xbe2aa541	-0.16664602
60	0x3d533ebf	0.05157351
61	0x3d173b87	0.036922004
62	0x3d5f23b6	0.054477416
63	0x3c9d077e	0.019168612

critic.4.weight f4 [1, 64]
0	0x3ca9e94c	0.020741127
1	0x3d9cd311	0.07657445
2	0x3d4cc0fe	0.04998874
3	0xbc2d5dee	-0.010581477
4	0xbd918a11	-0.07106412
5	0xbd6fff02	-0.058592804
6	0x3d9523d6	0.07282226
7	0xbd092397	-0.033481207
8	0xbd168a81	-0.03675318
9	0xbcdd44fe	-0.027010437
10	0x3d3c7a1f	0.0460149
11	0xbc349906	-0.011022812
12	0xbc92a4cb	-0.017900845
13	0xbd3f33ed	-0.04668038
14	0xbde5e969	-0.1122616
15	0x3de6de84	0.1127291
16	0x3cf75437	0.030191524
17	0xbb16f328	-0.0023033116
18	0x3da11af1	0.07866467
19	0xbcfdf4ff	-0.031000612
20	0xbd4f18c3	-0.050560724
21	0xbd5e4fdb	-0.054275375
22	0xbcac2204	-0.021012314
23	0xbce9cd5c	-0.028540306
24	0xbce52e62	-0.027976219
25	0xbd2ee2d5	-0.042696793
26	0x3caf46fd	0.021396155
27	0x3cdcd426	0.026956629
28	0xbd84597a	-0.06462379
29	0xbd47d5b3	-0.048787784
30	0x3c821c2a	0.01588257
31	0xbde0341e	-0.109474406
32	0xbd3b11dc	-0.04567133
33	0x3c57bf97	0.013168237
34	0x3ccf3ff2	0.025299046
35	0xbda5e7b9	-0.08100838
36	0xbcfae233	-0.030625438
37	0x3d47b76b	0.048758905
38	0x3d3299aa	0.043603577
39	0xbcb937b8	-0.022609577
40	0x3c76b6d7	0.015058241
41	0xbd9f7f94	-0.077880055
42	0xbd7f2fb5	-0.062301356
43	0xbdf8e208	-0.12152487
44	0xbcc588af	-0.024113027
45	0xbd648b1d	-0.05579673
46	0xbcb240c3	-0.021759396
47	0xbcf0d151	-0.029396685
48	0x3d79aa94	0.06095369
49	0x3d0ce16a	0.03439466
50	0xbc243191	-0.010021583
51	0xbcd81efd	-0.026381964
52	0xbd172407	-0.036899593
53	0xbd2809eb	-0.041025084
54	0xbd91bda8	-0.07116252
55	0x3d75cd49	0.06001023
56	0xbd6d90c6	-0.057999395
57	0x3d7811c0	0.060563803
58	0x3d6bcc71	0.057568017
59	0xbb512e31	-0.0031918401
60	0x3d707a9d	0.058710683
61	0x3cb59e7d	0.0221703
62	0x3d423f01	0.047423366
63	0xbda660c1	-0.08123923

exp_avg f4 [6]
0	0xb7cdedf1	-2.4548704e-05
1	0xb9517c81	-0.00019978175
2	0xbb71361b	-0.003680593
3	0xb8401591	-4.5796452e-05
4	0xba58fd8d	-0.0008277528
5	0x3a6a89f1	0.00089469465

exp_avg_sq f4 [6]
0	0x354562b4	7.353185e-07
1	0x372beeae	1.0247966e-05
2	0x3ae55c4f	0.0017498824
3	0x36e4a518	6.814149e-06
4	0x36d7da8b	6.432941e-06
5	0x38094fdf	3.273773e-05

exp_avg f4 [64, 25]
0	0x3604fcc8	1.981667e-06
1	0xb7124e97	-8.720576e-06
2	0xb7f72d3e	-2.9465762e-05
3	0xb879216c	-5.9397353e-05
4	0xb7dc1533	-2.6235915e-05
5	0xb7b00ea7	-2.0987658e-05
6	0x370731d3	8.058228e-06
7	0x3533cf54	6.69844e-07
8	0xb6b18213	-5.2901537e-06
9	0xb7320ee0	-1.061309e-05
10	0xb820dff8	-3.835556e-05
11	0x367e64e2	3.790767e-06
12	0xb610923f	-2.1542799e-06
13	0xb681fce6	-3.873941e-06
14	0xb734b890	-1.0771808e-05
15	0xb76b603f	-1.4029501e-05
16	0x3618e876	2.2785075e-06
17	0xb76b603f	-1.4029501e-05
18	0xb618e867	-2.278504e-06
19	0x3792acb2	1.7484974e-05
20	0xb7654704	-1.3665998e-05
21	0xb87c04b2	-6.0085855e-05
22	0xb8fcf284	-0.000120614684
23	0xb887c8e6	-6.474722e-05
24	0xb80adc74	-3.3107077e-05
25	0x33946967	6.9109596e-08
26	0xb4dccb48	-4.11261e-07
27	0xb50cebcc	-5.2497194e-07
28	0xb52c1317	-6.410277e-07
29	0xb51d4ef5	-5.8601955e-07
30	0xb355a0af	-4.9739068e-08
31	0x358f4d82	1.0676888e-06
32	0x3507e44b	5.062363e-07
33	0xb595a364	-1.1148918e-06
34	0xb3eaff50	-1.0942915e-07
35	0xb652e55d	-3.1425946e-06
36	0xb4f54176	-4.5682435e-07
37	0x33b32e2a	8.343734e-08
38	0xb6099eb0	-2.050696e-06
39	0xb55b65ea	-8.173216e-07
40	0xb580409e	-9.555549e-07
41	0xb478b73d	-2.3163462e-07
42	0xb580409e	-9.555549e-07
43	0x3478b728	2.3163432e-07
44	0x3477533d	2.303395e-07
45	0xb36ed946	-5.5611302e-08
46	0xb5ce4cf7	-1.5370596e-06
47	0xb62a6d62	-2.5395643e-06
48	0xb60bde5c	-2.0842044e-06
49	0xb54cf2e7	-7.634939e-07
50	0xb814c791	-3.547181e-05
51	0xb79bae54	-1.8558618e-05
52	0xb9739417	-0.00023229454
53	0xb9a8ef9a	-0.00032221974
54	0xb8c9ef29	-9.628974e-05
55	0xb9bc2a30	-0.00035889586
56	0xb791ec44	-1.7395367e-05
57	0xb842b9c3	-4.642621e-05
58	0xb8d2eba2	-0.0001005747
59	0xb94f8bbf	-0.00019793118
60	0xb95250c7	-0.00020057253
61	0xb9118d80	-0.0001388099
62	0xb87f51d6	-6.0872953e-05
63	0x36d1c483	6.2515624e-06
64	0xb8cece65	-9.8612894e-05
65	0xb931026c	-0.00016880938
66	0x388cdfd0	6.7174085e-05
67	0xb931026c	-0.00016880938
68	0xb88cdfce	-6.717407e-05
69	0xb8c6e3b4	-9.483789e-05
70	0xb819cf97	-3.6671376e-05
71	0xba0baf28	-0.00053285295
72	0xba3ce912	-0.0007206361
73	0xb96536ab	-0.00021859507
74	0xba5c318c	-0.0008399717
75	0x367a61ae	3.730976e-06
76	0xb641279f	-2.8782304e-06
77	0xb70f744f	-8.550544e-06
78	0xb7dd9cf0	-2.6418333e-05
79	0xb78e6cc5	-1.6978369e-05
80	0xb46cdf05	-2.2060347e-07
81	0x36f395f6	7.259422e-06
82	0x36420f5d	2.8917195e-06
83	0x36a33874	4.8643506e-06
84	0xb3d177df	-9.754125e-08
85	0xb7b93f40	-2.2083172e-05
86	0x36d0f619	6.2275326e-06
87	0xb5629a6a	-8.441626e-07
88	0xb612e894	-2.1891074e-06
89	0xb69965e0	-4.571615e-06
90	0xb6c8a1f6	-5.979319e-06
91	0x355522ef	7.939952e-07
92	0xb6c8a1f6	-5.979319e-06
93	0xb55522e2	-7.9399445e-07
94	0x378ad882	1.6551701e-05
95	0xb6674275	-3.4460365e-06
96	0xb756b0ed	-1.2796588e-05
97	0xb8527cb4	-5.018404e-05
98	0xb82e7cc1	-4.160102e-05
99	0x376d06cb	1.4127882e-05
100	0x386aaa89	5.594877e-05
101	0xb9f0ce39	-0.00045930015
102	0xbade810b	-0.0016975714
103	0xbb2cec61	-0.002638601
104	0xba2c0501	-0.0006562025
105	0xbb0021da	-0.0019551427
106	0x3829678d	4.038918e-05
107	0x378858bb	1.6253782e-05
108	0xb9a52e91	-0.00031505947
109	0xba091eb1	-0.00052307086
110	0xba585348	-0.0008252156
111	0x38ba81be	8.8933375e-05
112	0xb9c379d5	-0.0003728407
113	0x3905b2f0	0.00012750528
114	0xba1b7f3c	-0.000593174
115	0xba8235fc	-0.0009934301
116	0x39823a21	0.00024838842
117	0xba8235fc	-0.0009934301
118	0xb9823a1a	-0.0002483882
119	0x3a0ca83f	0.0005365647
120	0xba314e9a	-0.00067637267
121	0xbb6c4bd4	-0.003605594
122	0xbbadbbcb	-0.0053019277
123	0xbacd5001	-0.0015664102
124	0xbb847170	-0.004041843
125	0x38b4c5f3	8.61994e-05
126	0xb9828090	-0.0002489132
127	0xba7eca70	-0.00097194966
128	0xbac90177	-0.001533552
129	0xb9e55b20	-0.00043746177
130	0xba8d7fda	-0.0010795549
131	0x386a654a	5.588428e-05
132	0x386eb800	5.6914985e-05
133	0xb93adeed	-0.00017821389
134	0xba2c79fd	-0.0006579457
135	0xba081906	-0.0005191717
136	0xb97d1e36	-0.00024139215
137	0xb9800317	-0.00024416365
138	0x38b3ba9e	8.570145e-05
139	0xb9b539b1	-0.00034565994
140	0xba21377e	-0.00061499316
141	0x38f1ab42	0.00011523675
142	0xba21377e	-0.00061499316
143	0xb8f1ab34	-0.000115236646
144	0x39bbbc14	0.0003580755
145	0xb9bf9440	-0.00036540814
146	0xbb0b621d	-0.0021268197
147	0xbb580d3a	-0.0032966868
148	0xba8865ae	-0.001040628
149	0xbb1ab416	-0.0023605875
150	0x375bd77a	1.3103587e-05
151	0xb6f9f91a	-7.4497775e-06
152	0x39af90df	0.00033486538
153	0x3a1198c8	0.0005554077
154	0x396aa3d4	0.0002237701
155	0x39f7a780	0.00047236308
156	0x37ada993	2.0702171e-05
157	0x37000385	7.630214e-06
158	0x396949c3	0.0002224809
159	0x398dc1ef	0.00027038108
160	0x399a10e0	0.00029385742
161	0xb7a1930c	-1.926117e-05
162	0x389a2584	7.35028e-05
163	0xb806387d	-3.20007e-05
164	0x3920756c	0.00015302532
165	0x39713281	0.00023002365
166	0xb8d1d97c	-0.00010006406
167	0x39713281	0.00023002365
168	0x38d1d96d	0.00010006395
169	0xb7ba61db	-2.2218495e-05
170	0xb85de5ac	-5.2904405e-05
171	0x3a4a5422	0.0007718225
172	0x3a9c4f0c	0.0011925413
173	0x3a09cc9c	0.00052566244
174	0x3a78d9d5	0.0009492909
175	0xb7d935cd	-2.5893469e-05
176	0xb9a26986	-0.0003097767
177	0xbab316e0	-0.0013663433
178	0xbb03b3f8	-0.0020096283
179	0xba024e1b	-0.0004970745
180	0xbaf211c9	-0.0018468435
181	0xb92a0eeb	-0.00016218021
182	0xb75907e1	-1.2936042e-05
183	0xb92d321c	-0.00016517233
184	0xba0ce1c3	-0.0005374217
185	0xba9ece2f	-0.0012115891
186	0x3951b610	0.00019999617
187	0xb99caa78	-0.00029881648
188	0x38740415	5.8177935e-05
189	0xba00b11d	-0.00049092044
190	0xba56a861	-0.00081885426
191	0x399132fc	0.00027694541
192	0xba56a861	-0.00081885426
193	0xb99132f7	-0.00027694527
194	0xb9334f3a	-0.00017100284
195	0xb9ef5a0d	-0.00045652725
196	0xbb3c8bd8	-0.0028769877
197	0xbb86392b	-0.0040961704
198	0xbabd73f1	-0.0014454109
199	0xbb5df0e1	-0.00338655
200	0xb8d8dd6f	-0.00010340928
201	0x395c732f	0.00021023744
202	0x3a5f8567	0.00085266534
203	0x3acafff2	0.0015487655
204	0x3a08de10	0.0005221078
205	0x3a692c97	0.0008894889
206	0xb713711e	-8.78822e-06
207	0xb53043fc	-6.566404e-07
208	0x38eabb7d	0.00011192912
209	0x39a9b7ef	0.00032371233
210	0x3a241f84	0.00062608
211	0xb92816e4	-0.00016030256
212	0x39458821	0.00018838096
213	0xb8880f96	-6.4878885e-05
214	0x39a300dc	0.00031090423
215	0x3a06fcb5	0.00051493506
216	0xb92b8f6f	-0.00016361264
217	0x3a06fcb5	0.00051493506
218	0x392b8f68	0.00016361254
219	0xb9bd2412	-0.00036075764
220	0x3998c62e	0.00029139355
221	0x3aee92f9	0.001820176
222	0x3b4ddfa5	0.003141382
223	0x3aa6fe14	0.0012740516
224	0x3ae54857	0.0017492872
225	0xb9545409	-0.00020249201
226	0xb8240130	-3.9101753e-05
227	0xb7e04517	-2.6735053e-05
228	0x39ea5a75	0.00044699354
229	0x39cde8f7	0.0003927422
230	0xb9ca2cbd	-0.00038561775
231	0xb913826e	-0.00014067601
232	0xb938099d	-0.00017551189
233	0xb898fbe4	-7.294843e-05
234	0x38877fe3	6.4611224e-05
235	0xb991572f	-0.00027721512
236	0xb7ca86ca	-2.4143043e-05
237	0xb69b75ea	-4.633087e-06
238	0xb840b391	-4.59436e-05
239	0x37d23c6e	2.506209e-05
240	0x3873c6a5	5.8120717e-05
241	0x381711d0	3.6017795e-05
242	0x3873c6a5	5.8120717e-05
243	0xb81711d3	-3.6017806e-05
244	0xba26c9f9	-0.0006362494
245	0xb95e764c	-0.00021215639
246	0xb7f1945c	-2.8798524e-05
247	0x3a8053d4	0.0009790608
248	0x3a248631	0.00062760996
249	0xba21e939	-0.00061764155
250	0x39a8518c	0.00032104214
251	0x39105c49	0.00013767289
252	0x39dd6d77	0.00042233962
253	0x39b036fc	0.00033610302
254	0xb901ec05	-0.00012390323
255	0x3a2808f7	0.0006410027
