04-goal-pose-l6/logs/rsl_rl/joint_position/2026-02-18_14-34-58/model_600.pt (torch, 161339 bytes, 36 tensors)

std f4 [6]
000000 5b 14 b5 3d 44 fd 65 3d 8f b3 05 3d 22 a6 20 3d
       0.08841773 0.056149736 0.032641944 0.039220937
000010 55 01 44 3d 11 60 11 3d
       0.047852833 0.035492007

actor.0.weight f4 [64, 25]
000000 e9 a3 27 bd b6 29 8d 3e 4b 42 b1 be 31 d2 7d be
       -0.0409278 0.27570885 -0.3462089 -0.24787213
000010 f9 fb ab be 15 40 4a be d0 e1 db 3c f4 2f e3 bd
       -0.33590677 -0.19751008 0.026841074 -0.11093131
000020 4e 31 19 3e 04 14 03 be 0d b2 8c 3d 47 b1 87 3c
       0.14960214 -0.12800604 0.06869898 0.016564025
000030 64 42 3f be 3b 2e a7 be 84 a6 d3 be 5b a1 ac be
       -0.1867767 -0.3265246 -0.4133798 -0.33716854
000040 1f 93 fd be fc 8c 0b be ce 2e 0b 3f 0c ac 0c bb
       -0.49526307 -0.13628 0.54368293 -0.0021464853
000050 7e 16 a9 3e 5e 1a f5 be 4a da ae 3d 99 de d1 bd
       0.33024973 -0.4787168 0.08537729 -0.10247535
000060 a5 72 e5 bd c3 30 43 3e 03 7e 15 3e 75 5d b8 be
       -0.11203507 0.1906157 0.14598851 -0.36008802
000070 43 ec d1 be 99 30 9c bd b7 2e d8 be b5 bf 06 be
       -0.41000566 -0.07626457 -0.4222314 -0.13159068
000080 69 2e c6 3d 84 4f 59 3d 3a e0 93 3c e3 95 a2 bd
       0.09676821 0.053054348 0.018051255 -0.07938745
000090 89 ac 5b bd 43 52 8a be 46 7f 0c bd fb 99 d1 be
       -0.05363134 -0.27015886 -0.034301065 -0.4093779
0000a0 52 b9 65 be 63 ce 83 3f 4d 03 96 be ec 00 7d bf
       -0.22433975 1.0297359 -0.29299393 -0.9882953
0000b0 3e fd c3 3d 80 3e 1d 3e 6c 8d 7a be 61 bc 54 be
       0.095697865 0.15355873 -0.2446801 -0.20774986
0000c0 39 e8 5f 3e d8 5b 76 be 7b 7b a9 be 4c 90 61 3e
       0.2186593 -0.24058473 -0.3310202 0.22027701
0000d0 dd ee d4 bd 8a 5b 18 3e 42 bf 7f be b8 08 05 3e
       -0.10397122 0.1487867 -0.24975303 0.12991607
0000e0 83 20 84 be ef 01 3b 3e 9b 23 f1 3d 20 f8 d7 3c
       -0.25806054 0.18262456 0.11774369 0.026363432
0000f0 2e 59 13 3d a1 59 e1 3d 2c a9 db be 97 85 e7 bd
       0.03597372 0.110034235 -0.42902505 -0.11304777
000100 01 ba 8f bd 28 3a 6d be 94 0e 12 3f c4 3b 9d be
       -0.07017899 -0.23166716 0.57053494 -0.3070966
000110 c3 8f 08 bf c1 31 3c be 28 c2 91 be f2 b1 00 bb
       -0.5334436 -0.18378355 -0.28468442 -0.0019637314
000120 d1 03 0c 3e ed 2f ca 3d 65 8a 26 bc 2a 86 26 3e
       0.13673331 0.09872422 -0.010164832 0.16262117
000130 6d 5a 84 3e d4 cc ac bd 47 db 2c bf ff d8 0b 3e
       0.2585024 -0.08437505 -0.6752209 0.13656996
000140 cd 52 17 bf d9 4d a2 3d 04 8e a1 3d 66 15 9d bd
       -0.5911072 0.079250045 0.078884155 -0.07670097
000150 fc 08 0f be 61 1b c0 3d e7 a7 7c bc a7 d5 b9 be
       -0.13968271 0.09380222 -0.01542089 -0.36295816
000160 3a 4e 67 be 08 e9 aa be f5 8b b0 be 15 06 08 3f
       -0.22588435 -0.33380914 -0.3448178 0.5313428
000170 02 79 96 be 7d 2e 21 bf c5 88 04 3e ea 7d e5 3d
       -0.29389197 -0.6296156 0.12942798 0.11205657
000180 ff 7e 44 be 32 c1 32 3e c9 04 e5 bd d5 75 00 bd
       -0.1918907 0.1745651 -0.11182553 -0.031362373
000190 f6 c4 5d be d8 10 fb be 13 6b 9a 3e 6f f4 f2 3d
       -0.21657166 -0.49036288 0.30159816 0.11863028
0001a0 c2 c2 96 be 2b 50 f9 3d 4e a1 fb 3d 9f 68 42 3d
       -0.29445463 0.12173494 0.12286626 0.047463056
0001b0 8c b6 fc b9 bf f7 26 bd 22 48 79 bc 85 f2 7e 3d
       -0.00048201194 -0.040763613 -0.015214952 0.062243003
0001c0 54 ef 0e b9 c7 25 72 3e 05 6a 3f bf b7 c6 cd bc
       -0.00013631332 0.23647223 -0.7477115 -0.025119169
0001d0 f0 41 bd bf 5f 67 ea 3d 42 8d bf 3f 6d 3f e6 bd
       -1.4785748 0.11445498 1.4964983 -0.11242566
0001e0 c3 de 49 3d 04 31 cb bd 08 f8 35 3d 8c aa 75 bd
       0.049284708 -0.09921458 0.044425994 -0.0599771
0001f0 ce 98 46 bd 59 ed 07 3f 4c 52 02 bf 74 3a 40 3e
       -0.04848557 0.5309654 -0.50906825 0.18772298
000200 e2 b6 67 3e 8f 53 4c 3f 27 09 05 3e 98 93 6d bd
       0.22628358 0.79815 0.12991773 -0.058002084
000210 f0 4c f6 3c 98 13 18 bd b9 77 5a 3e 11 c6 63 be
       0.030065984 -0.03712806 0.21334733 -0.22243525
000220 72 dd 41 3a d5 28 10 bf 03 da 71 bf 19 b2 b8 be
       0.00073953636 -0.56312305 -0.94473284 -0.36073378
000230 9c 70 69 3d 16 dc 73 3f 85 8a d1 bd 0a cf 4c bf
       0.05699216 0.952577 -0.10231499 -0.80003417
000240 4a a7 c7 3e 86 08 d0 3d 64 ef 28 be 8d 2f 6c 3c
       0.3899482 0.10157876 -0.1649757 0.014415634
000250 8f 69 82 bc 94 73 94 3d 2b 61 2d 3d ff cc 01 3f
       -0.015919475 0.07248607 0.042328995 0.50703424
000260 06 75 d1 bd a2 25 06 be 76 48 41 bf c5 ab 9a be
       -0.102273986 -0.13100293 -0.7550119 -0.30209175
000270 eb 2f 3f be 06 bb b9 be 1e 8f e5 3d 68 c1 84 bc
       -0.18670623 -0.362755 0.11208938 -0.016205505
000280 0f ef 10 3e 89 f8 85 3d 60 61 34 be 58 b8 18 40
       0.14153694 0.06541545 -0.1761527 2.3862514
000290 69 38 58 3f 66 32 a1 bd 4a a5 d3 3e 2a 41 56 3d
       0.84461075 -0.07870941 0.41337043 0.05230824
0002a0 b3 f1 81 be 93 56 89 be 3e 31 80 3e 00 33 8a bd
       -0.25379714 -0.26823863 0.2503757 -0.06748009
0002b0 5f 0c df 3d 2e fc 9c bd 81 a7 09 3c 1a 8a 62 be
       0.108910315 -0.07665287 0.008401752 -0.22122994
0002c0 0c 51 b5 3e 3a 4b c3 3d 40 b0 b7 3d 18 37 c7 be
       0.35413396 0.09535833 0.08969164 -0.3890922
0002d0 19 f4 a3 be 53 94 8c 3d 1e a8 a9 3d 58 98 a0 3d
       -0.3202217 0.06864228 0.08284019 0.07841557
0002e0 fe 1b e0 bc 10 c8 8e bc c6 9a 61 be 7e a7 85 bf
       -0.027357098 -0.017429382 -0.22031698 -1.044174
0002f0 42 12 7d 3f 91 4c 50 bc c4 ef 99 3e fc 6d a5 bc
       0.98855984 -0.012713567 0.3006574 -0.020194046
000300 ac 6f da 3c 81 64 ac bd 98 5a 97 3d b2 e2 1c 3e
       0.026664577 -0.08417607 0.07390326 0.15320852
000310 14 fb dd 3c 6d 82 af 3d 7f 99 b5 bc b7 36 71 bd
       0.027097262 0.085697986 -0.02216792 -0.05889007
000320 27 f5 49 3e f5 3a 87 3f a6 0c 9b be 7b b2 5a be
       0.19722424 1.0564867 -0.30283087 -0.21357147
000330 cf eb d1 be a2 72 75 3e 88 9c c5 bd 08 1e 87 3d
       -0.4100022 0.2396951 -0.096489966 0.06597525
000340 d6 10 06 be ae fe 8d be 8e 4b 4c 3d 05 62 d9 3d
       -0.1309236 -0.27733368 0.049876742 0.10614399
000350 f7 f1 1f be 69 ed 01 c0 3c 51 0c 3f 3d 9a 87 3b
       -0.15619646 -2.0301154 0.54811454 0.0041382597
000360 2a c7 af bf 54 37 3f 3e f1 87 b9 3f 49 1a f3 3d
       -1.3732655 0.1867345 1.4494611 0.11870248
000370 67 26 ae 3e 1e 73 ca bd a1 8d 39 3e 07 10 37 3d
       0.34013674 -0.09885238 0.18120433 0.04469302
000380 9a 58 aa 3d 5d ef cc be 7a 88 8f bd 03 b7 60 3e
       0.08317681 -0.4002637 -0.07008453 0.21944813
000390 b4 c4 85 be de 1c f7 be d1 82 b7 bd 32 14 d1 bd
       -0.26126635 -0.4826421 -0.08960498 -0.1020893
0003a0 e0 0e 9a 3d 52 f7 fa bd bb 13 65 bd 3e 0b 29 bd
       0.075223684 -0.12254204 -0.05592702 -0.041270487
0003b0 2f 83 ca 3d 2b 92 2f bf 30 5a 92 3f 9e 36 16 3f
       0.098883025 -0.6858241 1.1433773 0.5867709
0003c0 01 f6 2d 3e fe 0e 7b bf 27 9e 0f 3e b8 d6 8b 3f
       0.16988374 -0.9806975 0.14025174 1.0924902
0003d0 89 8b d8 bd 8f 72 30 be e4 63 dd 3d e3 a6 b9 3d
       -0.10573489 -0.172312 0.10810068 0.09065034
0003e0 03 ec 86 bd cb 45 39 be 62 55 7e bf 48 8d b3 3e
       -0.065879844 -0.1809303 -0.99349034 0.35068727
0003f0 57 f0 2e bf 4f 9c 9d 3e 33 be 67 bf 32 e6 f0 3e
       -0.6833548 0.30783316 -0.90524596 0.47050625

actor.0.bias f4 [64]
000000 0e b3 8a be f9 59 df be e9 50 6d be 19 82 04 bf
       -0.27089733 -0.4362333 -0.23175396 -0.51761013
000010 ef 12 cc bd 54 7a 98 be c0 94 9a bd 1e d4 f9 3d
       -0.09964549 -0.2978083 -0.07547903 0.12198661
000020 99 96 4b bd fe 8a 1d 3e ba 94 56 bd a5 74 75 be
       -0.049704168 0.15385053 -0.05238793 -0.23970278
000030 5f 91 18 be be bc 78 bd e8 aa f2 3c 62 94 14 be
       -0.14899205 -0.060726874 0.02962251 -0.14509729
000040 57 98 77 3d d9 44 4d 3e 30 2c c3 bd 9b 67 92 bd
       0.060448017 0.20045795 -0.095299125 -0.071486674
000050 9d ec 21 3d d5 3c 71 bd 6d c9 64 b6 f3 47 58 be
       0.039532293 -0.058895905 -3.4091893e-06 -0.21121196
000060 74 6f 4d 3d 7c 3f 4f be 07 25 57 3d 1e 8c ad 3a
       0.050155118 -0.20239061 0.052525546 0.0013240611
000070 24 36 34 be 0d dc b2 3e 14 0e 1f be bd cb 97 be
       -0.17598778 0.3493351 -0.15532714 -0.29647627
000080 03 01 3d bc cd 28 04 bd ee bc e3 3d d8 ab 4b 3e
       -0.011535886 -0.032265473 0.1112002 0.19889772
000090 9f a2 08 3d d9 53 d0 be 1c 4a 1e 3e 3c f7 b0 be
       0.033358213 -0.4068897 0.15457958 -0.34563625
0000a0 5e 5e 53 bc 05 f2 87 bd d3 90 41 be 09 1a e1 3d
       -0.012900917 -0.066379584 -0.18902902 0.10991294
0000b0 31 c7 a5 3c 9b df 67 be 37 eb d2 3d 3a 5d 0f bd
       0.020236583 -0.22643892 0.1029877 -0.035001017
0000c0 b2 b4 16 3c f2 6f 1b 3e 2c 94 00 be d4 ce 5b be
       0.009198355 0.15179422 -0.12556523 -0.21465617
0000d0 14 7e 71 be 8a 80 57 be 02 46 35 3d ab af 84 be
       -0.23583251 -0.21045128 0.044256218 -0.25915274
0000e0 ed 27 1b 3c e7 17 3a be 98 42 0f 3e 5d 39 c7 3c
       0.009469968 -0.1817318 0.13990247 0.024319345
0000f0 22 4d 0a 3e f9 6d 0a bd 0f 20 67 3e 88 76 34 3e
       0.13505986 -0.033796284 0.22570823 0.17623341

actor.2.weight f4 [64, 64]
000000 ec b9 43 3e d3 19 1a 3e 29 c9 fd bb 19 1c 12 3e
       0.19113892 0.15048914 -0.0077449274 0.14268531
000010 38 b2 d1 bd 70 c6 0f bd e1 88 37 bc c7 9a 83 3d
       -0.10239071 -0.035101354 -0.011202068 0.06426006
000020 be e9 c3 bd ea d4 5a be 38 2d ac 3d 40 4f 6c 3d
       -0.09566067 -0.21370283 0.08407062 0.057692766
000030 8e af d1 bc 55 8f 4d 3e 06 30 06 bd 8a 04 21 3d
       -0.025596406 0.20074208 -0.032760642 0.03931097
000040 65 f4 08 be 3b ed f4 bb 3a 14 5f bd 7e ab a5 bd
       -0.13374479 -0.007474569 -0.05446265 -0.0808935
000050 d7 6b 30 3d e8 92 62 bd eb d3 3b be bf 46 9e bd
       0.043071594 -0.055315882 -0.18342559 -0.077283375
000060 e0 af 12 bd 1f a4 15 be c3 c1 8d 3c e2 53 35 3e
       -0.03581226 -0.14613388 0.017304307 0.1770778
000070 e6 75 1d 3e f1 11 54 bd 45 24 e6 3b ef cc 17 bb
       0.15377006 -0.051774923 0.0070233666 -0.0023162921
000080 46 51 f2 3d 38 36 30 3e d9 65 fb bd 3f 29 e1 3d
       0.11831908 0.17208183 -0.12275285 0.10994195
000090 8c 98 d8 3d 8c e4 ea 3d 6b f9 3a 3e 4a 97 db 3d
       0.10575971 0.11469373 0.18259208 0.107222155
0000a0 2a 53 64 3d c5 67 f8 3d e9 43 64 bc 5c f7 79 bd
       0.055743374 0.121291675 -0.013932207 -0.061026916
0000b0 31 11 b8 bd 2e 15 29 3e 11 5a 2d be ce fd 94 bd
       -0.08987654 0.16511986 -0.16928889 -0.07274972
0000c0 58 14 42 be 95 26 79 be cc da fd 3c 50 41 f7 bc
       -0.18953073 -0.24331124 0.03098812 -0.03018251
0000d0 8e 54 31 3e 30 86 bd 3c c2 19 ae 3d 04 ea 3a 3a
       0.17317411 0.023135275 0.08501007 0.0007130208
0000e0 89 a7 93 bc 1d ae 67 3d 16 2d 28 be 17 9c 90 bd
       -0.018024223 0.05656253 -0.16423449 -0.07061022
0000f0 7d 6a 9e 3c 7e 95 86 bc 9b 86 f2 bd d7 19 8f 3d
       0.019337887 -0.016428705 -0.1184208 0.069873504
000100 dd 26 35 bd 32 93 dd bd f7 ef 75 3e 48 9c 2f 3d
       -0.044226516 -0.10819091 0.2401732 0.04287365
000110 24 e3 1a be 76 0a 68 3e 20 23 10 3e c5 a1 74 3e
       -0.1512571 0.2266024 0.14075899 0.23889835
000120 4d f7 38 bc ea b2 e7 3d 06 a0 7c be 03 05 03 bd
       -0.01128943 0.11313422 -0.24670419 -0.0319872
000130 bf ec 8b 3d 0a 1f 27 3e d6 c8 0b be da 2b 73 3d
       0.06832265 0.16320434 -0.13650832 0.059367992
000140 0d e4 03 3d 12 86 7d bd c6 38 e9 bd 9c 33 18 be
       0.032199908 -0.061895438 -0.11387782 -0.14863437
000150 c1 b3 0a 3e 81 0c fb 3d 31 de 5e be aa b6 02 3d
       0.13545133 0.12258244 -0.21764447 0.031912483
000160 3b 77 52 be eb 12 93 bc 6b 1b cf 3d c7 87 5e 3c
       -0.20553295 -0.017953357 0.101126514 0.0135821765
000170 50 80 c3 3d cb 09 44 3e 0f 5a 2e be 2b 1a 34 be
       0.09545958 0.1914436 -0.17026542 -0.17588107
000180 ea 0b fc 3d 7c 9b 29 3e a1 19 81 bd 23 5d a9 3d
       0.1230696 0.16563219 -0.063037165 0.082697175
000190 82 dc b5 bc 6f 98 f1 3c 45 ec 02 3e 83 cb db bc
       -0.022199873 0.029491631 0.12785442 -0.02683044
0001a0 27 bf 05 3b db d1 b3 3d d3 f4 8b 3c 7f 17 2c bd
       0.0020408125 0.08780261 0.017084515 -0.042014595
0001b0 f5 50 9a 3d 7c 53 ee 3c 8e d7 13 be 27 cf 2e bd
       0.075349726 0.029092543 -0.14437696 -0.042678025
0001c0 2a c0 b0 3e 6b 07 36 be 8e c6 b0 bd d4 c1 94 bd
       0.3452161 -0.17776267 -0.08631621 -0.07263532
0001d0 f1 32 c3 3c 92 e3 a5 be 54 64 12 bd 2b f2 c2 3e
       0.023828002 -0.32400185 -0.03574021 0.38075384
0001e0 dc 9f 8b bc f3 9d bb bd 95 a9 05 be 82 30 6b 3c
       -0.017044 -0.09160986 -0.13052972 0.014354827
0001f0 c7 cd ce be 0d 05 a9 bd f5 1a c8 3d 34 28 d7 bd
       -0.4039137 -0.082529165 0.09770767 -0.10505715
000200 04 d9 29 3e ce 7c 13 3f 07 1d 61 be d6 f8 a6 3e
       0.16586691 0.5761231 -0.2198373 0.32611722
000210 23 07 46 be 6c e1 38 be ee 4a f8 3d 03 89 a2 3d
       -0.1933866 -0.18054742 0.12123667 0.07936289
000220 df d4 ff bd 11 cc 05 be 21 2c ee bc 03 6c 60 3e
       -0.12491774 -0.13066126 -0.029073777 0.21916203
000230 39 e3 7d be 6b d6 a0 3e cc 2b 5b 3e b1 bb 67 3d
       -0.2479371 0.31413588 0.21403426 0.05657548
000240 f4 ec 9b be ff 03 1e ba 3f 87 55 bd 7f 49 c7 bd
       -0.30454218 -0.0006027817 -0.052130934 -0.09730815
000250 ce de 81 3d f6 48 16 be 3c 81 b0 bc c1 27 2e be
       0.06341325 -0.1467627 -0.021545999 -0.17007352
000260 8d 28 04 3e 64 c5 58 bc f3 90 a4 3e 80 6c 58 3e
       0.12906094 -0.013230655 0.32141837 0.2113514
000270 af 6a 65 3e a3 ac 43 3c b7 af 5e bd e8 ba ab 3c
       0.22403978 0.011943015 -0.054366793 0.020963147
000280 92 f9 82 3e e0 02 67 3e 47 6b 04 bd 62 1f ee bc
       0.25581032 0.2255969 -0.03232887 -0.029067699
000290 1f cd 11 bd a4 20 6b 3d 48 d7 93 3e a5 ca 47 3e
       -0.03559601 0.057404175 0.28875184 0.19510897
0002a0 4f b5 40 be 32 8a eb 3e 23 e0 84 be 49 5b 84 be
       -0.18819164 0.46003872 -0.25952253 -0.25850895
0002b0 f9 af 50 3d 0e c9 3d 3e e2 f3 dd 3c 4a b2 dd bd
       0.05094907 0.18533728 0.027093831 -0.108250216
0002c0 7d d9 32 be 2e 8e 8b 3b 78 a0 e1 bd 3e 8a bb bd
       -0.17465778 0.0042588925 -0.11016935 -0.09157227
0002d0 67 bc 74 3e 96 f8 47 bc 57 c6 fc 3d 9e 43 eb 3d
       0.23899995 -0.012205264 0.12342518 0.11487506
0002e0 eb e5 27 bd a9 d4 7b 3c e9 3e 12 3e 46 7e 38 3e
       -0.04099075 0.015370526 0.14281811 0.1801692
0002f0 04 68 df 3d 5d e1 04 bd bb 19 13 be 92 a2 db bb
       0.10908511 -0.032441486 -0.14365284 -0.0067027295
000300 4c 68 35 3d cf 44 c3 3d f3 68 15 be 10 a1 b7 bd
       0.04428892 0.095346086 -0.14590816 -0.08966267
000310 64 20 13 3e 7c 79 a1 bd 1e 42 b3 be 74 b5 8c be
       0.14367825 -0.078844994 -0.3501138 -0.27482188
000320 2f 2e 65 be e0 78 e2 be fe bf 9b bd b4 df 9a bd
       -0.22380899 -0.44232845 -0.07604979 -0.07562199
000330 f8 05 5a 3e ac 2f 46 3e d4 29 88 bd 86 79 b5 bd
       0.2129134 0.19354123 -0.06648603 -0.088610694
000340 cd 6e 33 3e 6e fa 1e bd ea fe 1e 3e fe f1 cc 3e
       0.17522736 -0.038813047 0.1552693 0.40028375
000350 a5 45 96 bd 37 59 3f 3c 90 26 50 3e 9b 13 2a bd
       -0.073375024 0.011678985 0.2032721 -0.041522603
000360 b8 f9 6d 3d a4 86 8d 3c 45 e4 4f bd 89 f0 8f bd
       0.05809948 0.017276116 -0.050754804 -0.070283
000370 4f 74 c1 bc 79 17 87 be 3c ff 4d 3e f4 53 b2 3d
       -0.02361503 -0.26385096 0.20116895 0.08707419
000380 4c d3 c8 bd f7 8e 7d 3b cb af b3 be ef a4 c1 3d
       -0.09805927 0.003868995 -0.35095057 0.09455287
000390 a9 0d 24 3b 49 f5 92 bd 91 71 07 bd 8b 1b 02 3d
       0.0025032556 -0.07175691 -0.03306729 0.03176455
0003a0 12 7c 3c 3e e1 36 23 3e c3 dd 15 3e 33 54 3e 3d
       0.18406704 0.15938903 0.14635377 0.046467017
0003b0 bc de 00 3e be 1d 08 3e db e0 8f 3e e6 43 43 3e
       0.12584966 0.13292596 0.2810124 0.1906887
0003c0 0e e7 a6 be 93 ca 23 3e 3c f0 d1 3e 73 b2 46 be
       -0.32598156 0.15995245 0.41003597 -0.1940401
0003d0 ce 5f c3 3d 10 61 a5 3e d7 de 19 be cf 09 e5 be
       0.09539758 0.32300615 -0.15026413 -0.44734046
0003e0 27 0a d9 3d e4 aa f2 3d 39 8c 1f be 4f c1 b0 bd
       0.105976395 0.11849001 -0.15580834 -0.08630621
0003f0 90 c4 17 3f fb 2c 8e 3d c2 ae 76 3e f7 e8 26 3e
       0.59284306 0.06942173 0.24090102 0.16299807

actor.2.bias f4 [64]
000000 72 72 40 be 59 9d 8c 3c c5 36 b3 be 4c e1 aa bd
       -0.18793657 0.017164873 -0.35002723 -0.08343753
000010 85 f5 22 3e da 87 7d be c2 b4 bc bb 28 c4 a5 be
       0.15913971 -0.24758855 -0.0057588527 -0.32376218
000020 60 f6 3c be cd df 0d 3e dd 05 63 be 16 17 14 3e
       -0.1845336 0.13854904 -0.22170205 0.14461932
000030 33 97 12 be d4 13 67 bd 8d ae be bd b7 72 d6 bc
       -0.1431549 -0.056415394 -0.09310637 -0.026177747
000040 e2 23 0d be ce 37 30 3e 33 3d d2 bc e5 4f a0 be
       -0.1378322 0.17208788 -0.025663948 -0.31310955
000050 07 84 7d 3e cb e2 af 3d d0 cc ac be 74 da 92 bc
       0.24757396 0.08588179 -0.3375001 -0.017926432
000060 d0 f9 0f 3e c3 d1 b1 bd c9 be 07 be 62 b5 73 3d
       0.1406014 -0.08682587 -0.13256373 0.059499152
000070 78 d3 a2 bd 48 a2 a5 bd f0 8f f1 be 9a 51 ad 3d
       -0.07950491 -0.08087593 -0.47180128 0.0846283
000080 87 64 94 be 80 46 5e 3c 4b 39 fb be 95 a5 ab be
       -0.28982946 0.013566613 -0.4906715 -0.33524767
000090 a5 86 95 bb 0c a7 e0 bd 75 e3 7b 3e d3 b9 d4 bb
       -0.00456317 -0.10969362 0.24598487 -0.0064918785
0000a0 6f 9b 64 3c b7 dd eb bd e4 da b3 bb 79 3d 5d 3d
       0.013953074 -0.11516898 -0.0054887403 0.054013703
0000b0 f5 3e 27 bd a5 64 15 3d 67 79 c6 3c 56 f6 76 bc
       -0.040831525 0.036472935 0.024227811 -0.0150733795
0000c0 78 da 3c 3d 72 41 38 bd 1d bc 29 3e 8e 2a 71 be
       0.046106786 -0.04498429 0.16575666 -0.2355139
0000d0 64 5d ac be 22 25 06 bd a4 d4 d7 be 84 e6 49 be
       -0.33665 -0.032750256 -0.4215442 -0.19716841
0000e0 6d b6 60 bd 76 d8 81 be e6 c6 81 bd fc c2 9f bd
       -0.054861475 -0.2536046 -0.06336765 -0.07800862
0000f0 1f c1 34 bd d7 b6 89 3b 64 1c 81 3d c4 28 61 be
       -0.044129487 0.0042027044 0.06304243 -0.21988207

actor.4.weight f4 [6, 64]
000000 14 8c 1f bd 89 c8 c5 3d 4a db 13 3d 99 ea 3e bd
       -0.03895195 0.0965739 0.036097802 -0.04661045
000010 7f 7f 9e 3c 2b 77 87 3d 36 19 a2 bd 01 c0 62 3c
       0.019347904 0.06614526 -0.07914965 0.013839723
000020 57 24 ed 3d 19 88 0e 3e ad 55 d3 bd 5d a9 1f 3e
       0.11579197 0.13919105 -0.10319076 0.1559195
000030 f7 07 73 be 81 81 df bd a0 16 09 3e f8 8d 9f 3d
       -0.23733507 -0.10913373 0.13387537 0.0779075
000040 f1 02 40 bd 2b ac 80 3d 8f 1c 84 bd 37 27 f5 3d
       -0.046877805 0.062828384 -0.064507596 0.1197037
000050 7d 8f 7f bd db f5 55 3c 2a 57 10 3d e2 68 1e bb
       -0.0623927 0.013059105 0.035239376 -0.0024171402
000060 49 ea 57 bd 04 3c 05 3e a3 ca 8c 3d 32 a6 8e bd
       -0.052713666 0.13011175 0.068745874 -0.06965293
000070 aa 88 00 be 25 7f 10 bd 51 cf b6 3d 63 3a 1d 3d
       -0.12552133 -0.035277504 0.08926261 0.03838576
000080 df d0 b2 bc 25 69 6f ba d7 20 f6 3d be b8 84 be
       -0.021828113 -0.0009132794 0.120179825 -0.25922197
000090 dc 4a a8 be af 99 c0 3d 73 e7 8a bd f7 5b 90 bc
       -0.32869613 0.09404313 -0.06782427 -0.017621977
0000a0 ea 3b cb bd 2c cd bd bd 70 9b 3b 3e b5 b1 d7 3d
       -0.09923537 -0.09267649 0.18321013 0.10531942
0000b0 20 59 78 3e 2c 6e 21 3e 62 b0 55 bc a2 66 39 bc
       0.24252748 0.15764683 -0.013042541 -0.0113159735
0000c0 b6 7d a9 bd 90 a0 8f bc 96 ad a9 3d 90 59 24 bd
       -0.082759306 -0.017532617 0.08285062 -0.040124476
0000d0 8f c3 b0 bd 21 84 e5 3d 6e 98 05 bd fc 4d 9b bd
       -0.0863105 0.11206842 -0.03261607 -0.07583234
0000e0 30 8f fa bc eb 92 1b bd 5d 05 2c bd 8e 1c c9 bd
       -0.030585855 -0.03798191 -0.041997302 -0.098198995
0000f0 b6 fd 86 bd 32 55 e6 bd 8e 72 06 3d ba fd d2 3d
       -0.0659136 -0.112467185 0.03282409 0.10302301
000100 8e 91 49 bd 72 38 0b be 99 f9 5f bd e7 0c bd 3e
       -0.049211077 -0.13595751 -0.054681394 0.36923906
000110 16 fe 06 3d b8 e5 13 3e fe d1 78 be f0 74 b4 3d
       0.03295716 0.144431 -0.24298856 0.088113666
000120 c2 f6 9a 3b da 21 ca 3c 19 9a ef bd 1c 00 4b be
       0.004729123 0.024674345 -0.11699314 -0.1982426
000130 bc 05 92 bd e4 72 84 bd 04 80 71 be e7 fe 35 3d
       -0.0713 -0.06467226 -0.2358399 0.044432547
000140 de cd 8c bd 5e a3 31 be 52 26 93 bc b2 38 3e 3c
       -0.068752035 -0.17347476 -0.017962608 0.011610197
000150 f4 65 02 bd 4f 7d 8e 3b a8 19 37 bd c9 2d e6 3d
       -0.03183551 0.004348434 -0.044702202 0.112392016
000160 73 45 6f bd ed ca 76 be 73 37 c1 bc 18 e3 55 be
       -0.05841584 -0.24100848 -0.02358601 -0.2088741
000170 0b fa 0d be b8 81 cc bd a9 ac a2 3d 3e 8a 81 3d
       -0.13864915 -0.099856794 0.079430886 0.06325196
000180 40 e5 a5 bd cd 62 a9 bd a3 59 7b 3d 36 0e 36 be
       -0.081003666 -0.08270798 0.06136478 -0.17778859
000190 aa 52 cc bd 13 7f eb bd a8 69 ac 3d 87 26 ba bc
       -0.099767044 -0.11498847 0.0841859 -0.02272345
0001a0 5a aa fa bd 03 86 c9 bd ca 7e d6 3d 04 01 36 3e
       -0.12239523 -0.09840014 0.10473402 0.17773825
0001b0 a8 69 60 bc 49 bb 95 bd ef 8b 4f be f9 2f e9 bd
       -0.013697065 -0.073111124 -0.20268224 -0.11386103
0001c0 e0 2e 6f 3d 36 66 56 3d db 6e 1b bd 8e 96 15 be
       0.058394313 0.05234357 -0.037947517 -0.14608213
0001d0 0e da 51 ba 09 c2 13 be 42 14 85 bd aa 46 1d bd
       -0.000800521 -0.14429487 -0.064980045 -0.03839747
0001e0 6d 0d 74 bd 31 b9 2f be 37 8e 74 3e cc 0b 3f be
       -0.059583116 -0.17160489 0.23882376 -0.18656844
0001f0 00 9e 20 be e2 f8 b4 bd 18 eb 29 be d0 72 34 3e
       -0.15685272 -0.08836533 -0.16593587 0.17621922
000200 a4 34 13 bd aa f8 89 3c 0f f4 c8 3c 16 62 8a bd
       -0.035938874 0.016842205 0.024530439 -0.0675699
000210 43 d6 d2 3d 06 b0 92 bd 35 a3 07 3e bf e1 c1 bd
       0.102947734 -0.0716248 0.13245852 -0.09466886
000220 74 c3 d1 3d 45 4a e5 3d d4 e7 80 3d ae e4 8f bd
       0.10242358 0.111958064 0.06294218 -0.07026039
000230 8b 97 1c 3d a5 6d 01 be 13 cd 8d be fa 14 0c 3d
       0.03823046 -0.12639482 -0.27695522 0.034199692
000240 0b 6c 80 be 8c 74 21 3d b1 78 09 be a7 0c a6 bd
       -0.2508243 0.03941779 -0.13424946 -0.08107882
000250 04 18 ec 3d b7 a0 fc bd 39 50 06 3e 2a 22 f0 bd
       0.11528018 -0.123353414 0.1311654 -0.11725266
000260 eb 15 0b 3c 47 fb 88 bd 46 37 e6 bd 55 0d 98 3d
       0.008489112 -0.06688552 -0.11241011 0.07424418
000270 9a ce 4f be ac 60 9d bd 22 83 7a be d6 bf 1d 3d
       -0.20293656 -0.07684454 -0.24464086 0.038513027
000280 70 84 b1 bd a0 2d ee 3c fb c0 b9 bd b1 c3 8e 3d
       -0.086678386 0.02907449 -0.09070011 0.06970919
000290 53 41 aa 3e 1b de 0b 3e c6 a4 11 3d 27 c1 81 bc
       0.33252963 0.13658945 0.03555753 -0.015839173
0002a0 9f f4 02 3d 89 06 20 bd 5d 5f 81 3d 06 c1 0c 3e
       0.03197157 -0.039068732 0.06317017 0.13745508
0002b0 5b 09 6c 3e 9a 57 2d 3c a2 e8 95 3d a5 14 de bc
       0.23050444 0.010579968 0.07319762 -0.027109453
0002c0 7e 8c 1b 3e 10 1b 0d 3e 04 28 64 3d 11 d2 73 bd
       0.15190312 0.13779855 0.055702224 -0.059526507
0002d0 66 b4 06 be f2 96 87 3d 36 a8 2f 3d a3 08 8c bd
       -0.13154754 0.066205874 0.042885028 -0.06837585
0002e0 6f 09 40 bd b1 a1 f8 bd 0d f3 00 be c1 29 a4 bd
       -0.046883997 -0.12140215 -0.12592717 -0.080157764
0002f0 af 1b fa bd e9 67 bc bd e2 b2 94 bd 27 f8 19 3e
       -0.122123115 -0.09199507 -0.07260682 0.15036069
000300 9a 23 cb bd 28 ac 13 3d f4 53 a5 be 32 57 1e 3c
       -0.099189 0.036052853 -0.32290614 0.009664344
000310 e1 53 41 3e e9 6a 38 be 30 5d 8d bd 41 f0 ab be
       0.18879654 -0.18009533 -0.0690254 -0.33581737
000320 75 f3 b0 bc 56 73 af 3d 57 93 5e bd f3 74 4c ba
       -0.021600464 0.085669205 -0.054339733 -0.0007799409
000330 7c e7 1d 3d af 06 e1 bd 40 83 0c 3d 01 bc 0d 3e
       0.03855084 -0.10987603 0.034304857 0.13841249
000340 ad 42 ff bd 18 79 b3 bd aa 17 6d 3c ed 3b a1 be
       -0.12463889 -0.08763331 0.014470974 -0.31491032
000350 04 ea fb 3d 30 dc 9d 3d f0 a5 33 be a6 f1 04 3e
       0.12300494 0.07708013 -0.17543769 0.12982807
000360 f8 2b 86 3d 52 08 9f bd a9 47 61 bc 3d e1 0a bd
       0.06551355 -0.07765259 -0.013749995 -0.03390621
000370 35 bf a1 bd 03 49 a4 3b b3 ab b5 be 2c 63 35 3d
       -0.07897798 0.0050135865 -0.3548256 0.04428403
000380 d3 9c 44 be 9a e1 b5 3d 00 5c 8b be 44 60 1a bd
       -0.19200449 0.08880921 -0.27218628 -0.037689462
000390 05 33 06 bc 64 97 de bb ad 55 43 3e 03 02 05 be
       -0.008190875 -0.0067929495 0.19075651 -0.12989049
0003a0 0e 6c 6c 3e 43 63 5b bd ba e4 00 3e 96 db 9e 3d
       0.23088095 -0.05356146 0.12587252 0.077567264
0003b0 fa f7 2e ba c6 7e 12 be a1 eb cb bd bf b8 c4 bc
       -0.00066745246 -0.14306173 -0.09957052 -0.024013875
0003c0 7d a9 82 3d 3a a3 88 3d d6 9f 8c bd b3 70 95 bd
       0.063799836 0.06671758 -0.06866424 -0.07296886
0003d0 30 af 75 be e5 18 ef 3c 1f 9a 5f be 1d 54 ee bd
       -0.2399261 0.029186675 -0.21836136 -0.11637137
0003e0 7a e0 ca bd 1b c0 0f be c9 c8 d3 3d e4 1c de 3d
       -0.09906097 -0.14038126 0.10341031 0.10845354
0003f0 b8 87 73 3d 95 8d d0 bc 89 7a b2 3d 78 7c 93 bd
       0.059455603 -0.025458137 0.08714778 -0.07201475

actor.4.bias f4 [6]
000000 9d 05 7f be c4 ef 63 3b 4a 41 ed 3d ac e8 92 3e
       -0.24904485 0.0034780363 0.115847185 0.2869314
000010 d8 69 b6 3d ed e9 83 3e
       0.08906907 0.2576441

critic.0.weight f4 [64, 25]
000000 8c fc 2b 3e dc 7d 77 3d d8 8b 9e 3d 5e 6c f8 bd
       0.16795558 0.060422763 0.07741517 -0.121300444
000010 bc 5d 9f 3d a3 65 bd bd 51 ac ad bc 1b 41 9f bd
       0.0778155 -0.09247901 -0.02120033 -0.0777609
000020 16 0a 2a 3d e2 73 92 bd f0 23 9f 3c d1 c3 9a 3c
       0.041513525 -0.07151009 0.019426316 0.0188922
000030 8e 93 df bd fe 60 34 3e 35 a9 4f be 04 d3 f3 bd
       -0.10916816 0.17615125 -0.20279391 -0.119054824
000040 ba 2b 51 3f ac 98 10 bb 89 6b 3b bf 8b e1 24 3d
       0.81707346 -0.0022063656 -0.7321096 0.040254157
000050 5f 24 65 bd e5 f9 0b be 5e 35 93 3d 27 f1 85 bd
       -0.05594289 -0.13669546 0.07187913 -0.06540137
000060 a4 97 81 3d f1 ce 89 3e 9d cf 28 be 1d 41 5e be
       0.06327751 0.26915696 -0.16485448 -0.21704526
000070 31 8c 47 be 7f 2b e9 bd 1a f6 0f 3d 3d ef b0 3d
       -0.19487073 -0.11385249 0.03514681 0.08639381
000080 24 07 87 3e a7 30 03 be c3 82 8c bd b9 89 fe 3c
       0.26372635 -0.12811528 -0.06860878 0.03107153
000090 0a 57 c1 3c f9 48 75 be 15 b4 c6 3e ec 84 0a bd
       0.023601074 -0.23953618 0.38809267 -0.03381817
0000a0 39 46 c1 3c 76 c3 29 3e 1a 81 6c bb 6e 72 a2 be
       0.023593055 0.16578469 -0.0036087693 -0.31727928
0000b0 be 85 0a be 78 bc 2d be 6e 2b ec 3d d2 be 7b bd
       -0.13527581 -0.16966426 0.11531721 -0.061461277
0000c0 4b 15 03 be 3b 2c f8 3d 0d 1a 1c be 11 2e 26 3b
       -0.12801091 0.12117811 -0.15244313 0.0025357048
0000d0 cc f0 7a 38 30 4b 18 3d 04 21 ad 3d 66 94 20 3e
       5.9828904e-05 0.03718108 0.08453563 0.1568161
0000e0 5d dd 5c 3b 2e 91 a1 3d 0c d3 b1 bd 65 72 02 bd
       0.0033701279 0.07889019 -0.08682832 -0.031847376
0000f0 80 4e 9b bd 29 c5 f9 bb 9c 27 2c 3e 23 18 29 bf
       -0.07583332 -0.0076223803 0.16811985 -0.66052455
000100 56 ce 47 be a6 c0 3e 3e e7 ef 9e be 51 04 04 be
       -0.19512305 0.18628177 -0.31042406 -0.12892272
000110 30 06 84 3d ee d1 a5 bd da a4 1e bd a6 db ca 3d
       0.06446493 -0.080966815 -0.038731433 0.09905176
000120 2e 6e 78 bd bd be 34 3d ec 26 47 bd b0 f9 63 be
       -0.06065195 0.044127215 -0.048621103 -0.22263217
000130 78 ae 96 bb 6f 24 07 3c 40 4d ec 3d 81 97 54 be
       -0.004598435 0.008248433 0.11538172 -0.20760919
000140 6e 94 06 be 4a e6 aa 3d a2 55 83 be 88 4a fb 3d
       -0.13142559 0.083447054 -0.2565127 0.12270075
000150 f0 cf ad bd ce 80 5b 3d 84 06 da 3d 3e df 1f 3e
       -0.084869266 0.053589635 0.10645774 0.15612504
000160 0f d9 b4 be 5d 82 57 3e d7 a0 42 be c3 5f 22 3d
       -0.35321853 0.21045823 -0.19006668 0.039642107
000170 f1 03 24 3e f7 fa 06 3e f1 04 29 3d 1b 45 2b 3e
       0.16017129 0.13181673 0.041264478 0.1672558
000180 85 d2 45 3d 1f 1c d1 3d 30 c9 bc bd 5c d3 14 be
       0.04829647 0.10210442 -0.09218061 -0.14533752
000190 ab 1e 32 3e c0 1c ae bd 2e ae 45 3e 8f d4 5c be
       0.17394511 -0.085015774 0.19304726 -0.2156546
0001a0 f1 01 ed bd ae 5b 49 be c5 2e 88 3d 4b 92 1d 3d
       -0.11572636 -0.1966388 0.066495456 0.038469594
0001b0 f3 38 1a bc 70 ce b2 bd f3 23 13 3c c5 27 9b bd
       -0.009412992 -0.08730781 0.008980739 -0.07575945
0001c0 a2 4b 81 be 01 fe 82 3f 7a d6 bc 3e 39 36 9c 3d
       -0.25253016 1.0233766 0.36882383 0.0762753
0001d0 c4 07 1b 3e 8f ea 6f 3d 35 bf a6 bd d7 ec dd bd
       0.15139681 0.058573302 -0.081419386 -0.10836189
0001e0 0c 4e 17 3e a5 a8 16 3d 90 c8 fc 3d 47 1c 93 3b
       0.14775866 0.036781926 0.12342942 0.004489455
0001f0 ca e5 8d bc 21 23 92 be c7 ae e6 bd 7e 81 92 3d
       -0.017321486 -0.28542426 -0.11263805 0.07153605
000200 f6 45 bc bd 00 98 b1 3c a4 0f 5f 3e 36 5d bd bb
       -0.091930315 0.021678925 0.2178331 -0.005778934
000210 f3 d5 3c 3d b2 9c 01 bd d8 25 9e 3c f6 68 30 bd
       0.046102475 -0.031643577 0.019305155 -0.04306885
000220 7f 76 b6 3d cf fd 2e be b2 75 29 be 23 ef 28 be
       0.0890932 -0.17089008 -0.16548803 -0.16497473
000230 89 8a 1b be 3e a0 ea be 9d b0 88 bc a9 a8 b5 3e
       -0.15189566 -0.4582538 -0.016685778 0.3548024
000240 44 3a 64 bd 7b d8 e7 3c 7b 3d 8b 3d bc 0b 29 bd
       -0.05571963 0.028301468 0.06798836 -0.041270956
000250 27 46 2e 3d 96 3e 1a bd ea 8f 14 3e b4 6c 3c 3e
       0.04254737 -0.037657343 0.14508024 0.18400842
000260 61 32 18 be 68 86 7f bd 7a 95 e5 3d 67 7b 28 3d
       -0.14862968 -0.06238404 0.11210151 0.04113331
000270 be af fc bd 43 48 48 3c fe d9 fc bc 68 81 18 bc
       -0.12338208 0.01222426 -0.030865666 -0.009308197
000280 07 75 d8 3d 14 3e f6 3d 7d 20 5c be 59 bf 14 3f
       0.10569196 0.12023559 -0.21496768 0.58104473
000290 1c 5d 0a 3e c2 fc c8 3c a9 b3 f9 3e 20 01 fe bd
       0.13512081 0.024534587 0.48769882 -0.12402558
0002a0 6c 80 9f be 0c 16 de 3c 5a dc 8e 3c 5a 07 7a 3d
       -0.31152666 0.027110122 0.017439056 0.061042167
0002b0 83 1d 97 3d 9c 81 e4 3c f8 3e de bd 91 08 90 be
       0.07378676 0.027893834 -0.10851854 -0.28131536
0002c0 ea e4 27 be fa 1c 9e be 27 92 eb 3d 3a 13 39 3e
       -0.16395918 -0.30881482 0.11502486 0.1807374
0002d0 44 8b d2 3c 59 8b 4f 3d 15 1f 3f 3c 09 5a 7a 3d
       0.025701173 0.05067 0.011665125 0.06112102
0002e0 47 51 84 3d 2d 33 5f 3d 4d 60 7b 3d 28 b4 7b 3e
       0.06460815 0.054492164 0.061371136 0.24580443
0002f0 ad fb 68 3f 31 62 db be ad d0 30 3e 35 a7 45 3e
       0.91009027 -0.42848352 0.17267103 0.19302066
000300 bd cb 16 be 72 9a 70 be 06 cb 23 be e4 c2 23 bd
       -0.14726157 -0.23496416 -0.15995416 -0.039980784
000310 59 c2 47 3d ac 43 8e 3d 81 56 a6 bd 71 e5 be bd
       0.04876933 0.06946501 -0.08121968 -0.09321106
000320 ee 2b 55 3e fb 33 67 be be 50 2f 3d 9e a3 d5 bd
       0.20817539 -0.22578423 0.04280161 -0.10431598
000330 95 6d ad 3d 63 76 8a bd c1 4b 00 3e 95 d4 bc bd
       0.08468167 -0.06760862 0.12528898 -0.09220234
000340 46 71 38 3c 36 1a d6 bd 3b 34 42 3d b3 c9 96 3a
       0.011257475 -0.10454218 0.047413092 0.0011504203
000350 46 85 b7 3d 21 2c 48 be 37 71 a9 be 91 83 11 be
       0.08960967 -0.19548084 -0.3309419 -0.14210345
000360 57 f3 f0 3d a1 02 f0 3d 67 77 40 3d 99 29 c1 bc
       0.117651634 0.117192514 0.04698887 -0.023579406
000370 df b3 a5 3d 03 3c 09 be 76 c1 22 3e 4e a2 3d be
       0.08090948 -0.13401799 0.15894112 -0.18518946
000380 ee 88 90 3d 86 cf 55 be 26 27 37 be 37 12 cf 3c
       0.07057367 -0.20879945 -0.17886028 0.02527724
000390 96 ca 10 be 0e 28 21 3d 52 a9 f8 bd fd a1 77 3c
       -0.1413978 0.03934484 -0.1214167 0.015114305
0003a0 81 03 e9 bb 26 19 77 bc a5 d0 db bd 5c 4d 2c bc
       -0.0071110134 -0.015081679 -0.10733155 -0.010516491
0003b0 a7 fb 8c 3c 98 df 8b 3e 9a 76 92 40 25 42 46 bf
       0.017209841 0.27319026 4.5769777 -0.7744468
0003c0 d0 4a 6d be f1 70 31 3f 6f cf 77 be 6f 52 0f bf
       -0.2317307 0.6931296 -0.24200223 -0.5598516
0003d0 24 d7 58 bd b2 2d 59 3c cb 67 7a bc fd b0 d5 3c
       -0.05293955 0.0132555235 -0.015283535 0.026085371
0003e0 0a c4 96 bd df f7 ed 3c 0b 48 20 3e ef 0a ef bd
       -0.0736161 0.029048858 0.15652482 -0.11672007
0003f0 c6 bd 49 be cc 34 aa bd d7 4d e6 3d e5 33 e4 3b
       -0.19701299 -0.083108515 0.112453155 0.006964194

critic.0.bias f4 [64]
000000 86 ad 4c 3e f7 a4 63 3e 94 d3 3a be 65 c6 82 bc
       0.19988069 0.22230898 -0.18244773 -0.015963743
000010 6c e4 0d 3d d6 8f 76 be 5d 09 24 3e dc 55 10 be
       0.03464167 -0.24078307 0.16019197 -0.14095253
000020 9d b9 7a bc 1e 11 bd 3d 18 77 10 3e 39 93 b0 3d
       -0.015303043 0.092317805 0.1410793 0.086218305
000030 42 f9 4c be 5d 1a 30 bd d8 4e 7f 3d 6e 70 a1 3c
       -0.2001696 -0.042993892 0.06233105 0.019706931
000040 7a 15 42 be c9 fc 5a bd 64 9f 78 3d 59 66 b7 3d
       -0.18953505 -0.05346373 0.06069888 0.08955068
000050 91 a2 31 3e be 40 84 3d c4 1a 9a 3d d6 fe f9 3d
       0.1734717 0.06457661 0.075246364 0.12206809
000060 ea fe f4 bc d3 6f 02 bd 50 58 63 bd f1 ff 28 bd
       -0.029906709 -0.031844925 -0.055504143 -0.04125971
000070 c3 b7 60 3d ed fe 10 3e 53 99 95 bc f3 bd bb bd
       0.05486275 0.14159746 -0.018261587 -0.09167089
000080 d6 71 57 bd d2 05 8f bd 58 f3 65 3e da 75 a2 bd
       -0.052598797 -0.06983532 0.2245611 -0.07932635
000090 83 3c bc bb 67 fd a6 bd b8 8e f7 bb 5b 66 e5 3d
       -0.0057445182 -0.081538014 -0.007554855 0.112011634
0000a0 46 fc 58 be cf aa 12 be 16 e4 65 bd e4 ab 0b 3e
       -0.21189985 -0.14322971 -0.056125723 0.1363979
0000b0 06 2e 06 bc 45 9c 66 bd 1a f2 df bd ce a0 02 3e
       -0.008189684 -0.056301374 -0.10934849 0.12756655
0000c0 b4 6c 06 bd 74 4e 1b 3e 51 f2 eb b9 f7 b3 51 bc
       -0.03281851 0.15166646 -0.00045003233 -0.012799255
0000d0 aa 2a dd bd e3 8c dd bd e0 c3 24 3e ef 1f c3 3c
       -0.10799153 -0.10817888 0.16090345 0.023818938
0000e0 13 c6 e2 bd 4b 8b db 3d 79 bc 01 be 24 2a f3 3d
       -0.11072936 0.107199274 -0.12669553 0.11873272
0000f0 06 dc 2a be 7c 0d 8a bc a4 6b 54 3c 43 f9 1a 3d
       -0.16685495 -0.016852133 0.012965117 0.03783537

critic.2.weight f4 [64, 64]
000000 09 25 a7 bd 00 f0 17 bd 8b 42 06 be 59 b5 85 3d
       -0.08161361 -0.037094116 -0.13111322 0.0652873
000010 8b dc 31 3d ca ea 13 be 10 00 95 3d 8b d1 a6 3d
       0.043423217 -0.14445034 0.072754025 0.08145436
000020 a6 1f 2f 3c a2 5b 91 bd 80 95 95 3d ad f3 07 3d
       0.010688698 -0.07097556 0.073039055 0.03319137
000030 16 b4 29 bd 0f a2 db 3d 07 3a 57 bd c8 82 bd bd
       -0.04143151 0.107242696 -0.052545574 -0.0925346
000040 e9 16 61 bd 9f 41 d0 bc 55 6a 90 bb 3c 5d 37 bd
       -0.05495349 -0.025421916 -0.004407207 -0.04476665
000050 2c a1 df 3d be 24 07 3e f8 84 be 3d 88 be 0c 3c
       0.10919413 0.1319761 0.093027055 0.008590348
000060 5e 2f c6 bc e5 19 61 3c 3b 2e 5e 3d d8 c0 74 bc
       -0.024192508 0.013739084 0.054243308 -0.014938556
000070 d9 a4 99 bd 02 74 83 3d 40 65 43 3d 4d bd 8f bd
       -0.07502145 0.06418611 0.04770398 -0.07018528
000080 95 f3 fb 3d 44 04 ba 3d 10 fa 2d bc 0c a8 6a 3d
       0.12302319 0.09082845 -0.010618702 0.05728917
000090 96 2d 0b be 15 8f d1 3c 04 d1 c4 bc 9d 0d 94 3d
       -0.13591608 0.025580922 -0.024025448 0.07229159
0000a0 64 d3 23 be aa de aa bc 90 de 15 bd 70 8e f9 bd
       -0.15998608 -0.020858128 -0.036589205 -0.12185371
0000b0 7a 02 fe 3a 2f 3d 17 be 4d 0b f5 3c e3 ae c9 3d
       0.00193794 -0.14769433 0.029912615 0.0984781
0000c0 65 a2 38 bc 99 9e b5 3d 24 19 c2 3d 72 84 e5 bc
       -0.011269187 0.08868141 0.094774514 -0.028017256
0000d0 06 8d 98 3d c2 24 f2 3d c7 1b 94 bd 3b 9f 9a bc
       0.07448773 0.11823417 -0.072318606 -0.018874755
0000e0 da 70 d4 3c d9 c7 8e bd 0b e1 ac 3d 94 55 9d bd
       0.025932718 -0.06971712 0.08441361 -0.07682338
0000f0 b4 94 90 3b b1 d8 d1 3d a3 6d b3 ba 7d 04 2f 3d
       0.004412258 0.10246409 -0.001368929 0.04272889
000100 27 36 35 bc 94 6e 25 3d 9a 0e b3 3d 03 d9 d6 b8
       -0.011060274 0.04038866 0.087430194 -0.00010244737
000110 ad a1 95 bd 61 4c 1c 3e b0 fc 16 bd 11 38 f7 bc
       -0.07306228 0.15263511 -0.036862075 -0.030178102
000120 f3 49 7b bd b9 52 b1 3d cf c9 12 3e 37 85 ab bd
       -0.06134982 0.08658356 0.14334796 -0.08375018
000130 c2 82 c5 3d 7b 2a 34 bd 3d 1a cd bc 60 7e 71 bd
       0.09644081 -0.043985825 -0.025036925 -0.05895841
000140 48 53 17 3d 4d 18 b4 3d 41 6b cd 3d 5a d2 d1 bc
       0.036944658 0.087936975 0.10030223 -0.025612999
000150 eb 2c 9d 3c d5 d0 5b 3d 63 a2 08 bd 33 61 0e 3e
       0.019186458 0.053665955 -0.03335799 0.13904266
000160 90 54 f8 3d be a5 dd 3d bf 1b ff bd d6 91 05 bd
       0.12125504 0.108226284 -0.12456464 -0.032609783
000170 1c 65 9c bd c5 e2 0d 3e 5d 94 a7 bd d4 a8 e7 3d
       -0.076364726 0.13856037 -0.08182595 0.11311498
000180 7f f8 be 3b 7b a9 fb bd 2b 8c e9 3b ff c5 c9 bd
       0.005827963 -0.12288185 0.007127305 -0.09852218
000190 e2 17 01 be 44 35 f9 3c 17 ae 87 bd 22 42 b1 bd
       -0.12606767 0.030420907 -0.06625002 -0.08655192
0001a0 fd 0c c7 3b fd 40 66 3d ec e0 83 3d b7 17 ac 3c
       0.0060745464 0.05621432 0.06439385 0.021007402
0001b0 a0 67 9b bc 34 7a 44 bc 18 84 89 bb b8 9c ec bd
       -0.01897031 -0.011992026 -0.004196655 -0.11553329
0001c0 22 40 08 be a9 bc 4c bd 36 41 9d bc 12 6a a1 3d
       -0.13305715 -0.049984608 -0.019196134 0.078815594
0001d0 46 76 8b 3d 4a 28 72 bc 74 36 0f be 68 2c d7 bd
       0.06809668 -0.0147801135 -0.13985616 -0.10506517
0001e0 d4 b3 e3 3d 80 83 e3 3c 08 5e 07 3e 57 0f d7 bd
       0.11118284 0.027772665 0.13219464 -0.10500973
0001f0 43 52 0b be 65 88 ac 3d 2e 88 61 bd 35 7d 6d 3d
       -0.13605599 0.08424453 -0.05506151 0.057980735
000200 fa 97 e6 3d a2 a9 d3 bc 8b a1 8d bc d2 0a 8b 3c
       0.11259456 -0.025837723 -0.017288944 0.016972933
000210 78 d4 3a bd 16 46 b4 3a c8 cd b7 bd c4 f5 b8 3d
       -0.045612782 0.0013753797 -0.089747965 0.09031251
000220 03 f2 3d bd 1b c8 4d 3d b2 9f 53 bd a3 ba 31 3c
       -0.04637338 0.050239664 -0.05166597 0.01084772
000230 42 38 d9 bd 93 18 5a bd 30 20 14 3d 28 86 52 bd
       -0.106064335 -0.053246092 0.03616351 -0.051397473
000240 bd e2 d1 3d c5 6d a2 3c b9 78 3b 3d 28 70 c5 bd
       0.10248325 0.019827733 0.045769427 -0.09640533
000250 2c bd 6a bc fc 53 ec 3d e2 dc 19 3c f2 12 06 3d
       -0.014327329 0.11539456 0.0093910415 0.03273291
000260 4e 2b 9f 3d ea 9e 3c 3d 67 be b6 bd 16 87 a9 bd
       0.077719316 0.04604999 -0.08923035 -0.08277719
000270 56 05 a9 bc c1 ed f9 3d 31 41 ce 3c 65 a0 af 3d
       -0.020632427 0.12203551 0.02517757 0.08575515
000280 d4 1e b7 3c 0f bf a4 bd f2 f7 92 3d de 7b bb bd
       0.022353567 -0.08044254 0.07176198 -0.09154485
000290 87 fb e8 3d 78 aa 06 bd 05 68 68 3d 80 9f 1e 3d
       0.113761 -0.032877415 0.056739826 0.03872633
0002a0 11 34 6a 3b 6e 5b bc 3d cf 26 d2 bc d3 19 bf 3c
       0.00357366 0.09197126 -0.025653271 0.023327744
0002b0 2c 79 46 3d 24 e5 97 bd a8 3d ac 3d 69 79 f8 bd
       0.048455402 -0.07416752 0.084101975 -0.12132532
0002c0 67 fa 06 be bd 41 ce 3d 8b a2 82 bd 70 92 bc 3d
       -0.13181458 0.10071132 -0.06378659 0.09207618
0002d0 9f c3 b6 bc 77 07 7e bc 5a 6b 5c 3d 0d 71 dd 3d
       -0.022310076 -0.015504709 0.053813316 0.10812578
0002e0 d1 c8 f8 bb c4 36 9a 3d 63 a8 0c 3e 52 fb fe bc
       -0.0075922986 0.07529977 0.1373611 -0.031125698
0002f0 20 b0 8c 3d a6 0b fa bd 4a 27 f7 bc 25 d3 0b 3e
       0.06869531 -0.12209253 -0.030170102 0.13654764
000300 49 df 95 3d 21 32 56 bc e2 0d 83 3d f2 1c 12 bd
       0.07317979 -0.013073475 0.06399132 -0.035672136
000310 99 4a d8 3d 1a 35 e0 3d 25 94 ff 3c 19 48 cf 3d
       0.105611034 0.10947628 0.03119857 0.101211734
000320 b0 f2 8d bc 64 88 76 bc 3f 78 0d be 23 60 cf bd
       -0.017327636 -0.0150471665 -0.13815401 -0.101257585
000330 87 9a b4 3d 5f 64 b5 bd e3 41 18 3c 4b b7 96 bd
       0.08818536 -0.08857035 0.009293052 -0.07359179
000340 5e b8 e3 3d 7b 6e 16 3a 08 1d c6 bc db 10 9e bd
       0.111191496 0.0005738509 -0.024183765 -0.07718059
000350 50 ec c3 3c 10 20 a8 bc 5e 4a 09 be cd dd f9 bd
       0.023916394 -0.020523101 -0.13407275 -0.12200508
000360 3b f5 93 bd 6a 21 d5 3d f6 fe a3 3c d4 f0 16 3d
       -0.072245084 0.10406764 0.020019036 0.036850765
000370 4b f1 a8 3d a9 bf d0 bd e0 22 db 3c 6f b4 9c bd
       0.08249148 -0.10192806 0.026750028 -0.076516025
000380 78 fc 08 3d a2 28 4e bc 4c 7d aa 3d 9b 13 40 bc
       0.033443898 -0.01258293 0.0832468 -0.011723424
000390 f8 86 c7 bd 73 e9 8b 3c 05 c8 b0 bc 3d e8 00 3e
       -0.0974254 0.01707909 -0.021579752 0.12588592
0003a0 9c f8 0a be 20 91 1c bd 0f ac c8 bd 6e 11 f0 3d
       -0.135714 -0.03822434 -0.097984426 0.117220744
0003b0 02 51 cf bb 3e 38 be bd d6 d9 1d 3d 9f e7 9a 3d
       -0.0063267956 -0.09288071 0.038537823 0.075637095
0003c0 5f b6 b0 bd 6e 13 fa 3c ed 15 98 bd b3 80 f3 bd
       -0.086285345 0.030526843 -0.07426057 -0.11889782
0003d0 95 01 f6 3d 1d 72 d6 3d b6 33 a3 3d 5c 0d ac bd
       0.120120205 0.10470984 0.079688475 -0.084009856
0003e0 9c 8a 0c 3c 98 a8 66 bd 46 07 8d bd b3 0b 70 bc
       0.008577969 -0.056313127 -0.06886153 -0.014651227
0003f0 6b 51 91 bc f7 97 aa bc 04 55 77 bb fa 5a 2d 3d
       -0.017739018 -0.020824416 -0.0037739882 0.04232309

critic.2.bias f4 [64]
000000 41 98 a5 bd b4 08 c8 3c b3 dd f2 bd 67 a4 00 bd
       -0.08085681 0.024418212 -0.11858692 -0.031406786
000010 53 b3 9d bd 07 7d 5d bd 8f 60 91 3d 09 c5 b7 bd
       -0.07700219 -0.054074313 0.07098495 -0.08973128
000020 17 b2 81 bd 8e f7 8b 3d 12 a2 e1 bd 53 11 1f bd
       -0.06332796 0.06834327 -0.110172406 -0.03883488
000030 a1 fb b3 3c e8 d4 27 bd 85 b1 90 3d 73 85 3f be
       0.021970572 -0.040974528 0.07065109 -0.1870325
000040 d4 f3 53 bd 5c ee 5f 3d 91 63 2f 3d e4 bd 1d 3d
       -0.051746204 0.054670677 0.042819563 0.038511172
000050 cd f9 a4 bd cc 9e 84 bc 0b 4b 23 be 64 e8 7b bd
       -0.08055458 -0.016189002 -0.15946595 -0.06150092
000060 2a 44 53 3d 33 40 94 bd 13 04 2c 3d 03 20 a1 bd
       0.05157868 -0.072388075 0.041996073 -0.07867434
000070 db 5b 16 3e e5 44 36 3d 85 f3 b1 bb de 9c d1 bd
       0.14683478 0.044499297 -0.005430641 -0.10234998
000080 e5 f2 04 3e 89 05 b0 bd 5d 3c 6b 3d d3 65 b7 3c
       0.12983282 -0.08594806 0.057430614 0.02238742
000090 42 cc 19 bc 0c 7f ea bb 9b 67 82 3d 45 89 03 3e
       -0.009387078 -0.0071562584 0.063674174 0.12845333
0000a0 f2 bd f4 bd bf 8a 90 3d a6 f6 14 bc 18 df da bd
       -0.11950292 0.07057714 -0.009092009 -0.10687083
0000b0 82 c9 b3 bd 90 69 e8 bd 61 c7 f9 3d 85 18 f8 bd
       -0.08778669 -0.113482594 0.12196232 -0.12114052
0000c0 0f 55 dc bc 42 5e 03 be e4 16 2e 3c 26 94 10 bd
       -0.026896028 -0.12828925 0.010625575 -0.035297535
0000d0 20 45 15 3d 09 03 79 bd 80 2e d4 bd 73 6b 72 bd
       0.036442876 -0.06079391 -0.10360432 -0.059184503
0000e0 32 01 a8 bd 03 38 19 bc 81 9d db bc 91 f4 25 be
       -0.08203353 -0.009351733 -0.026808502 -0.16206576
0000f0 5e f8 51 3d a6 36 ea 3c a6 26 68 3d 74 c4 c9 3c
       0.051262252 0.028590512 0.056677483 0.024629809

critic.4.weight f4 [1, 64]
000000 6f f1 69 3a 13 b1 68 3d 33 88 05 3d c9 1b 73 bc
       0.0008924221 0.056809496 0.032600593 -0.0148381675
000010 91 25 32 bd 8c 17 59 bd 43 46 1f 3d 31 18 07 bd
       -0.043492857 -0.05300097 0.038885366 -0.032982055
000020 85 d1 ea bc 24 a3 dd bc ad f1 38 3d 12 68 76 bc
       -0.02866436 -0.02705533 0.045152355 -0.015039461
000030 c8 22 bd bc bf 62 45 bd 35 af d7 bd 6c 8c d9 3d
       -0.023087874 -0.048189875 -0.10531465 0.106224865
000040 41 be 24 3d 79 a8 c9 bb ed 1f a0 3d aa 8a d9 bc
       0.040220503 -0.0061541167 0.07818589 -0.026555378
000050 57 3c 1b bd 7b 71 c2 bc 38 d3 28 bc 16 1b d8 bc
       -0.03789934 -0.023735752 -0.010304265 -0.026380103
000060 b1 4d 07 bd 67 0e f1 bc 41 c9 54 3c c2 97 38 3c
       -0.033033077 -0.029425813 0.012987436 0.011266651
000070 88 72 8e bd 57 b9 3f bd 4f 0b 95 3c e8 fa a6 bd
       -0.06955439 -0.046807613 0.018193869 -0.08153325
000080 a5 8a 3b bd c0 ac 7e 3b 2a a5 c1 3c 71 fc ae bd
       -0.04578652 0.0038860291 0.023638327 -0.08544243
000090 d2 de e6 bc f3 63 54 3d 58 1a 1c 3d ee f5 df bc
       -0.02818242 0.05185313 0.03811106 -0.027338948
0000a0 b3 1a a2 3c ec b4 96 bd ed 2a a7 bc 56 71 9d bd
       0.019788122 -0.07358727 -0.02040621 -0.07687633
0000b0 55 53 88 bd 4f c2 62 bd d4 76 d1 bc 43 8b bf bc
       -0.06656519 -0.05536109 -0.025569357 -0.023381835
0000c0 9c 04 4b 3d d6 0e e9 3c 3c ed 66 bc f2 4e 11 bd
       0.049564943 0.028449457 -0.014094647 -0.03547568
0000d0 81 de 91 bc 70 ad fa bc 99 dd 82 bd ba 28 70 3d
       -0.017806293 -0.03060028 -0.06389923 0.05863259
0000e0 22 a6 35 bd 1f b4 42 3d b1 10 59 3d f6 c8 89 bb
       -0.04434789 0.047535058 0.052994434 -0.0042048646
0000f0 21 6c 3d 3d 77 3e 78 3c 9e b5 f4 3c be dc b0 bd
       0.046245698 0.0151516115 0.029871758 -0.08635853

exp_avg f4 [6]
000000 fc 03 c8 39 d2 05 22 bb c1 d7 05 3b 6c 44 8c 38
       0.0003814994 -0.0024722707 0.0020422789 6.688465e-05
000010 c2 46 01 39 24 df 88 b9
       0.00012328758 -0.00026106194

exp_avg_sq f4 [6]
000000 78 1d 98 38 da bc 3e 39 14 77 14 3a 50 73 da 39
       7.253414e-05 0.00018190165 0.0005663496 0.00041666115
000010 00 49 84 39 39 52 eb 39
       0.0002523139 0.00044883954
