04-goal-pose-l6/logs/rsl_rl/joint_position/2026-02-18_14-34-58/model_6000.pt (torch, 161397 bytes, 36 tensors)

std f4 [6]
00000000: 1cd2 d33d 1b26 b13c eccb 523b c152 8c3d
00000010: 5ebd 5c3d ae01 333c
0.103428096 0.021624615 0.0032165004 0.068517216 0.053891532 0.010925693

actor.0.weight f4 [64, 25]
00000000: 5249 23bd a215 8b3e d969 b2be ce68 7ebe
00000010: 1622 acbe 4191 4dbe 8890 003d 5ab7 ecbd
00000020: 580b 213e f318 0bbe c897 723d 3b40 d13c
00000030: d5c2 42be 2a9c a9be 8f59 d4be f937 aebe
00000040: 5cb4 00bf 6bba 0ebe 6a19 0d3f 6385 68bb
00000050: 1e47 a73e a11c f6be a4cb ac3d d3fc d6bd
00000060: e855 e9bd 13cd 3e3e efc6 043e a360 bebe
00000070: 69c0 d6be 5694 b0bd 5354 dabe d7c4 0abe
00000080: 6e66 c73d ac87 643d dc61 653c 649c b4bd
00000090: 0edf 63bd 820d 8cbe bc39 a5bc 6d12 d2be
000000a0: 78e4 66be 78d9 833f d197 96be 1f18 7dbf
000000b0: 3517 ae3d 1b1d 163e c58d 83be 278a 5fbe
000000c0: 511a 543e 6d93 7bbe 65ed a9be 8b33 5e3e
000000d0: e0ba d0bd 24a4 203e 4f12 7bbe 72ef 023e
000000e0: 120e 80be 328f 623e ec4b 013e e861 fc3c
000000f0: 44b9 073d 673c f23d 25ce d8be 73d0 e6bd
00000100: a851 84bd 2d06 68be 93ef 0f3f 57a2 9abe
00000110: c270 06bf 8f13 3bbe c13f 91be b0bb 0a3a
00000120: 0124 123e 00a2 d33d 1b58 17bc baaf 2b3e
00000130: 7659 823e 2791 b1bd 0d32 2dbf 67f9 0a3e
00000140: 7a31 18bf 8c4c d13d b5f8 b73d 392e 92bd
00000150: 8a40 28be c722 863d 7c6a de39 ed58 bbbe
00000160: adb3 61be d3c1 abbe 99ed b1be eecb 053f
00000170: abda 97be 58f4 1ebf 6e7f 0f3e 09dd e73d
00000180: 953f 47be 138f 2f3e 66bb f3bd fa8d 05bd
00000190: bf91 5ebe 54e2 fabe b8a5 9a3e 359c f03d
000001a0: b25b 97be d571 fb3d 014a fa3d f719 3b3d
000001b0: 6e11 a0bb 88c9 27bd cff0 84bc e59e 833d
000001c0: 6d82 9eb9 6679 713e 7364 3fbf be31 cfbc
000001d0: aa34 bdbf 230d ea3d fb7f bf3f 05c5 e5bd
000001e0: e29a 4b3d cb7d cabd 4521 303d 2013 7cbd
000001f0: 4c88 43bd 7670 083f 2b56 02bf ae34 413e
00000200: f150 6a3e 4403 4d3f 7c29 043e eab2 82bd
00000210: a479 7e3d b1e6 13bd b9f3 5b3e fb34 5abe
00000220: cfbf c1bb cf38 0fbf ea46 72bf a234 b8be
00000230: acc8 6c3d 9e45 713f 40de cfbd 8f38 4abf
00000240: c28f c73e a669 d83d 42fe 27be c988 863c
00000250: bf07 57bc 2121 923d 469c 2a3d f0fc 003f
00000260: 600e d7bd 17a3 03be d8f1 40bf b2c2 9cbe
00000270: fd4d 44be 8e42 acbe 9e9d fe3d 10b4 8dbb
00000280: 3d8e 1f3e 0108 963d bcf4 36be 9bc6 1840
00000290: c8e3 573f 5c22 a5bd d716 d83e 3e60 4e3d
000002a0: 3a63 86be 57c9 89be 5f5f 7e3e 3dee 8ebd
000002b0: 5cd2 e13d 6a5f 97bd 9d5a b93b 0097 62be
000002c0: cff5 b43e 51f0 c53d 9b17 c03d cbaa c6be
000002d0: e3fa a3be e454 723d 440c e03d 5499 a53d
000002e0: c626 7dbc b7a7 10bc 484f 64be 8c3d 85bf
000002f0: 6d3b 7d3f eeae 27bc 171f 9b3e 01e5 aebc
00000300: 6a66 ed3c 2807 aabd 108f 913d 6a30 203e
00000310: 88bf ea3c 3b4d b63d 7690 aabc 045d 6dbd
00000320: c585 4c3e 086f 873f 95d6 9abe 0ba9 57be
00000330: 73de d0be 3ad8 753e e976 cbbd 48ed 783d
00000340: 0138 f8bd 151b 89be d0bc 533d 4b05 ca3d
00000350: 2ab2 1ebe 7ba9 01c0 7889 0c3f 45ce ac3b
00000360: 6beb afbf a061 403e 35ac b93f ec9b f33d
00000370: 25d8 ae3e 39e1 c8bd a069 3d3e 128c 393d
00000380: 5d8d ab3d 10e1 c4be f9c6 8cbd c5d3 663e
00000390: 4192 7fbe 9231 f4be 7140 b1bd 505e e1bd
000003a0: a952 ce3d 8105 01be 8118 49bd 0949 03bd
000003b0: 7448 a73d f901 2cbf df31 943f 7133 193f
000003c0: 030c 393e ced8 7ebf 29b4 1a3e e5bb 8d3f
000003d0: 8dc6 cdbd d47f 25be 1339 ea3d b426 d23d
000003e0: dfce 6fbd abb3 35be 283e 7ebf f986 b33e
000003f0: bf97 2fbf da61 9c3e e732 67bf 5e61 ef3e
-0.039864846 0.27164942 -0.3484638 -0.24844667 -0.33619756 -0.20074941 0.031387836 -0.11558409
0.15726984 -0.13583736 0.05922678 0.025543323 -0.19019635 -0.33126956 -0.41474578 -0.3402708
-0.50275207 -0.139383 0.55116904 -0.0035479895 0.32671446 -0.48068717 0.08437279 -0.10497441
-0.113933384 0.18632917 0.12966512 -0.37183103 -0.41943672 -0.08622043 -0.4264246 -0.13551651
0.09736334 0.05579345 0.014000382 -0.08818892 -0.055632643 -0.27354056 -0.020169131 -0.41029683
-0.22548091 1.0300741 -0.29412702 -0.9886493 0.0850052 0.1465954 -0.256941 -0.21830045
0.20713164 -0.24567957 -0.3318893 0.2169935 -0.101918936 0.15687615 -0.24518703 0.12786654
-0.25010735 0.22124937 0.12626618 0.030808404 0.033135667 0.11827927 -0.42344776 -0.11270227
-0.06460887 -0.22658606 0.56224936 -0.3020198 -0.52515805 -0.1826918 -0.28368953 0.000529225
0.14271547 0.103336334 -0.009237315 0.16766253 0.25458878 -0.08670264 -0.67654496 0.13571702
-0.59450495 0.10219678 0.08982984 -0.071377225 -0.1643087 0.06549602 0.00042422477 -0.36591282
-0.22041197 -0.33546314 -0.34751585 0.52264297 -0.29659018 -0.6209159 0.14013454 0.11321456
-0.19457848 0.17144422 -0.11900978 -0.032606103 -0.21735285 -0.490008 0.30204558 0.11748544
-0.29562145 0.12277571 0.122211464 0.04567906 -0.0048848903 -0.04096368 -0.016228108 0.06426791
-0.00030233283 0.23581466 -0.7476265 -0.025292274 -1.4781697 0.11428287 1.4960932 -0.11219219
0.049708255 -0.09887274 0.04300048 -0.061541677 -0.047737405 0.532966 -0.5091273 0.18867752
0.22882439 0.8008311 0.1290645 -0.063817814 0.062127724 -0.036108676 0.21479692 -0.21309273
-0.005912758 -0.5594606 -0.94639456 -0.35977656 0.057808563 0.9424685 -0.10149813 -0.7899255
0.38976866 0.10567026 -0.16405585 0.016422646 -0.013124405 0.07135225 0.04165294 0.5038595
-0.10500789 -0.12855183 -0.75369024 -0.3061729 -0.19170375 -0.33644527 0.12432407 -0.0043244436
0.15581603 0.073257454 -0.17866796 2.387122 0.8433194 -0.08063194 0.42204925 0.050384752
-0.2624758 -0.26911423 0.24841069 -0.06979034 0.11026451 -0.07391246 0.005656554 -0.22127914
0.35343787 0.09664977 0.093795024 -0.3880218 -0.3202735 0.05916299 0.109398395 0.08085886
-0.015451139 -0.008829049 -0.22295868 -1.0409408 0.989188 -0.010234578 0.30297157 -0.021349432
0.028979499 -0.08302146 0.07107365 0.15643468 0.028655782 0.08901449 -0.020820837 -0.057950035
0.19972904 1.0580759 -0.30241838 -0.21060579 -0.40794715 0.24008265 -0.0993479 0.060773164
-0.12120057 -0.26778474 0.051693738 0.09864291 -0.15497652 -2.0259693 0.5489726 0.0052736127
-1.3743719 0.18787241 1.4505678 0.11894974 0.3414928 -0.09808583 0.18497324 0.045299597
0.08376572 -0.3845296 -0.068738885 0.22541721 -0.24958135 -0.4769407 -0.08654869 -0.11004317
0.1007436 -0.12599756 -0.049095634 -0.032052074 0.08168116 -0.6719051 1.157772 0.5984412
0.18070988 -0.9954957 0.15107788 1.1072966 -0.10047636 -0.16162044 0.11436667 0.10261288
-0.058546897 -0.17744319 -0.9931359 0.35063913 -0.6859092 0.30543405 -0.90312046 0.46753973

actor.0.bias f4 [64]
00000000: 5f41 8cbe 84f3 dfbe 4e6e 68be 0e38 05bf
00000010: ab43 ccbd be05 98be 2cdd 9ebd 0c74 fe3d
00000020: 2ca5 46bd c3f0 273e 7870 5ebd e096 6fbe
00000030: a11c 1abe ae1a 7fbd acd1 ec3c 711c 17be
00000040: ec50 7b3d 2742 4c3e e494 cabd 8aa1 92bd
00000050: 2acc 2c3d f61d 7dbd 637b fcba e48e 51be
00000060: 0865 473d 7cd0 4fbe 9051 563d f0fb dcbb
00000070: bf25 35be 9681 af3e 1c49 1fbe df72 97be
00000080: 5e08 31bc eb9e 09bd cec2 df3d 4e3d 4a3e
00000090: 8cf0 0c3d bac7 d1be 3b69 1d3e a9a3 b2be
000000a0: 9cc0 56bc 5470 8bbd c254 45be 1704 e83d
000000b0: a3c2 a73c 58fe 6abe 384c b63d 6b5e 1fbd
000000c0: b06a 143c eea5 1b3e f551 00be 30a5 54be
000000d0: d056 72be 4533 5dbe 0eaa 343d 8478 81be
000000e0: 9a3e 153c 9df4 3bbe c072 0e3e f83f e03c
000000f0: cf02 083e 68e8 19bd 22df 653e c55e 2e3e
-0.27393624 -0.43740475 -0.22698328 -0.5203866 -0.09973844 -0.2969188 -0.07757029 0.12424478
-0.048497364 0.16400437 -0.054306477 -0.23397398 -0.15049984 -0.062281303 0.028908573 -0.14756943
0.06135647 0.1994711 -0.0989168 -0.071597174 0.042186894 -0.06179615 -0.0019262846 -0.20464665
0.048680335 -0.20294374 0.052323878 -0.0067439005 -0.1769018 0.34278554 -0.15555233 -0.29579827
-0.010805218 -0.03359882 0.10925828 0.19749948 0.03440909 -0.40972692 0.15372173 -0.34890488
-0.013107445 -0.06808534 -0.19270614 0.11328905 0.020478552 -0.22948587 0.08901256 -0.038908403
0.009058639 0.15200016 -0.12531264 -0.20766139 -0.23665929 -0.21601589 0.04410749 -0.2528726
0.009109164 -0.18355031 0.13910961 0.027374253 0.13282321 -0.037575155 0.224484 0.17028339

actor.2.weight f4 [64, 64]
00000000: d752 493e b7af 1f3e ff95 63bb 31af 173e
00000010: 7b17 bcbd 9627 0cbd ce1d 58bc faeb 6f3d
00000020: b0a4 cdbd 2c62 4bbe a638 a53d 764c 733d
00000030: c776 ecbc 95d8 4b3e 89e6 f9bc 932d 083d
00000040: 987a 0cbe 4c0e 63bc d43c 57bd 46fd a4bd
00000050: d207 523d 58c1 66bd 654e 3ebe 371a 92bd
00000060: e9ca 06bd 6e2e 1abe 2904 a53c dfe2 383e
00000070: 8466 1b3e adfd 58bd f4af 233b 5a58 ed3b
00000080: 1f54 eb3d a85a 2e3e 5a52 f5bd 5adb ed3d
00000090: 296e ca3d 73c1 ea3d bfdc 363e 8d1e df3d
000000a0: 14db 503d cfea 013e 5e59 95bc 1c6d 78bd
000000b0: 036d c1bd ffa4 2e3e 15f4 30be 3b6f 94bd
000000c0: 1d4f 3ebe 3289 74be 01b7 783c ed9f 05bd
000000d0: facf 3a3e e339 da3c b801 a83d 8604 83ba
000000e0: 7c4f 96bc d75f 603d c012 25be 3600 7cbd
000000f0: 342e a93c 9a47 2ebc c404 fabd 971e 893d
00000100: 8155 52bd fd4b ecbd eec8 803e 64bb 113d
00000110: 5436 09be 0924 723e 379d e93d 92db 793e
00000120: 02de 75bc 01fc e83d 2739 83be 3373 a0bc
00000130: 2275 6d3d 218c 183e 9802 fdbd af3e d83c
00000140: 7838 c23c 32a1 9ebd 6fcb cabd 572a f3bd
00000150: 4bbe 2e3e affd f93d f321 6cbe 079a 2b3d
00000160: bf78 4ebe 7b9c b5bb 32d8 cf3d e0da 943b
00000170: 76ce 9c3d 3827 3d3e a59b 3dbe 9610 34be
00000180: 0ce2 f03d 90cc 163e c1dd b2bd c28c b83d
00000190: 73e6 75bc 86a7 2e3d b063 e83d c21a 16bd
000001a0: 4a54 883b 9044 a63d 70ac 4b3c d46b e8bc
000001b0: d08b 7b3d 2a44 b53c 9b0c 26be befd 8cbd
000001c0: ec2c b03e f71d 3cbe 203e 94bd 928b abbd
000001d0: 8f35 833c 1e79 9ebe 203d 5cbd d9b6 ca3e
000001e0: 4e5d 97bb 77e0 8fbd f463 ebbd 4d70 f43c
000001f0: cf85 c5be 920a a5bd 444e d93d 7e59 e8bd
00000200: a380 353e 7859 163f e6ac 68be 5b7d ac3e
00000210: 4af5 44be 39ea 30be bc75 023e 364c b63d
00000220: 851e 07be 686d e6bd 1c3b 0cbd 151c 673e
00000230: 4af2 78be b924 aa3e e373 663e e601 803d
00000240: 752e 9fbe 2a91 3abc 74a8 47bd 104c e7bd
00000250: 64ba 943d 65f7 06be ed90 b6bc 304d 2cbe
00000260: fea6 0b3e 842e 9cbc 1c97 af3e 0acb 5e3e
00000270: 22a9 5f3e 922f 723b 73e4 80bd abab cb3c
00000280: 614d 7c3e 23ac 603e 9976 eabc 9f0d aabc
00000290: 0bda 53bd d380 703d a031 903e 006d 4e3e
000002a0: bde0 4abe b6d5 f13e ef8c 88be 241b 8abe
000002b0: d487 313d 4acb 493e ef25 e73c 2364 d5bd
000002c0: 087d 20be e8a3 11bc 7721 e7bd a441 cfbd
000002d0: e494 823e 20e0 02bc 6170 053e 35fd ed3d
000002e0: a9d0 24bd 2267 183c 07d3 143e 361c 543e
000002f0: 8669 da3d 476f 4cbc caa3 09be af6e 32bc
00000300: 423d 493d f052 cd3d 480e 1cbe 79ae adbd
00000310: b235 053e ab0c c4bd 635d aebe 1497 92be
00000320: 4606 66be cca7 dfbe 1d47 92bd c81c 9fbd
00000330: c939 603e 661d 4a3e c8d5 8dbd 234b 96bd
00000340: 302b 353e 71f5 28bd fc99 133e 5bb8 cb3e
00000350: 479a a7bd 9345 aa3a 66ce 563e 3620 30bd
00000360: f229 623d dc5e 0e3c cebb 6bbd 4226 87bd
00000370: 2286 6cbc 8322 84be dffa 503e ac03 c83d
00000380: 20e2 c4bd e83e 963c a5fe aebe e32e be3d
00000390: 40fa 63bb b5c4 a1bd c95f e4bc 90fd 183d
000003a0: b475 3a3e 8ff4 273e eedb 133e 4cb7 043d
000003b0: 5753 0d3e 6332 0d3e 952a 933e ced6 553e
000003c0: 3ac9 a4be 3848 2e3e bbad c33e 5334 41be
000003d0: 477f c23d f66a 9a3e 42e7 15be 0ab6 e9be
000003e0: 9e5e c73d 8079 d43d 8593 28be 0ba7 c1bd
000003f0: b898 143f 509f 973d da5b 623e fcaa 2d3e
0.19660507 0.15594374 -0.0034726856 0.14812924 -0.09184166 -0.03421744 -0.0131907 0.058574654
-0.10041177 -0.19861668 0.080674455 0.05939909 -0.028865231 0.19906838 -0.030505436 0.033246588
-0.13718641 -0.013858389 -0.052548245 -0.080561206 0.05127699 -0.05633673 -0.18584593 -0.07133906
-0.032908354 -0.15056774 0.020143585 0.18055294 0.15175825 -0.0529763 0.0024976702 0.0072431983
0.11490654 0.1702677 -0.11978598 0.116141036 0.09884293 0.11462679 0.17857645 0.10894499
0.05099018 0.12687229 -0.01823109 -0.06065093 -0.094446205 0.17055129 -0.1728061 -0.07247778
-0.18584867 -0.23880461 0.01518035 -0.03262322 0.182434 0.02663893 0.08203453 -0.0009995855
-0.018348448 0.0547789 -0.16120434 -0.06152364 0.020651914 -0.010637188 -0.1220794 0.06695288
-0.051351074 -0.11537931 0.25153297 0.0355791 -0.13399631 0.23646559 0.114069395 0.24400166
-0.015006544 0.11376191 -0.2562954 -0.019586181 0.057973035 0.14897205 -0.1235401 0.026397077
0.023708567 -0.07745589 -0.09902083 -0.1187331 0.17064779 0.122065894 -0.23059826 0.04189494
-0.20163248 -0.0055423356 0.10148658 0.0045426935 0.07656567 0.18471992 -0.18516405 -0.17584452
0.11761865 0.14726472 -0.087337025 0.090112224 -0.015008557 0.04264023 0.11347139 -0.036646612
0.0041604387 0.08118546 0.012431249 -0.028371729 0.061412632 0.02212723 -0.16215746 -0.06884335
0.34409273 -0.18370806 -0.07238412 -0.0837623 0.01601675 -0.3095178 -0.05376923 0.39592627
-0.004619277 -0.07025235 -0.11493674 0.029838705 -0.3857865 -0.08058657 0.10610631 -0.11345194
0.17724852 0.5873027 -0.22722206 0.3368939 -0.19234195 -0.17276849 0.12740225 0.08901255
-0.13195236 -0.11251336 -0.03423606 0.22569306 -0.24311176 0.33231142 0.22505145 0.06250362
-0.3109013 -0.011387149 -0.048744634 -0.11293805 0.07262114 -0.13180311 -0.022285903 -0.1682632
0.13637921 -0.01906515 0.34294975 0.21757141 0.21841863 0.0036954624 -0.06293573 0.024862131
0.24638893 0.21940665 -0.028621005 -0.020758448 -0.051721614 0.058716606 0.2816286 0.20158768
-0.19812293 0.4723336 -0.26670024 -0.26973832 0.043342426 0.19706455 0.02821633 -0.1041949
-0.15672696 -0.008889176 -0.1128568 -0.10119942 0.2550422 -0.007988006 0.1303115 0.11620561
-0.040238056 0.0093019325 0.14533626 0.20713887 0.10664658 -0.012477702 -0.13441387 -0.010890647
0.049130686 0.10025585 -0.15239823 -0.08480544 0.13008764 -0.09572729 -0.34055623 -0.28630888
-0.2246333 -0.43682706 -0.0714247 -0.077691615 0.21897043 0.19737777 -0.06925541 -0.0733855
0.17692256 -0.041249696 0.14414209 0.3978909 -0.08183723 0.0012990705 0.20977172 -0.04299947
0.055215783 0.008689608 -0.05755215 -0.06599094 -0.014436277 -0.2580758 0.204082 0.09766325
-0.096134424 0.018340543 -0.34178653 0.09286287 -0.0034786612 -0.07898847 -0.027877705 0.03735119
0.18208963 0.16401885 0.14439365 0.032401368 0.13801323 0.13788752 0.28743425 0.20882723
-0.32184774 0.17019737 0.38218483 -0.18867616 0.094969325 0.3015973 -0.14638999 -0.45646697
0.09734844 0.10374737 -0.16462524 -0.09455689 0.5804553 0.07403433 0.22105351 0.16959757

actor.2.bias f4 [64]
00000000: 2a22 46be 0e7d cc3c 7440 b8be a439 b5bd
00000010: 6454 203e c573 7dbe acaf b7bb c0aa a8be
00000020: e0a5 3dbe 1e88 0d3e 81fb 64be e66e 193e
00000030: b504 1bbe 2691 69bd f294 bbbd 3a99 81bc
00000040: 93ed 0abe f956 2b3e 5058 d3bc 6041 a3be
00000050: e548 7f3e 5279 b13d 44c1 acbe 3c09 8ebc
00000060: cb8c 1d3e 3d29 acbd 9981 05be 3bef 773d
00000070: 9a69 a5bd 6ff8 a8bd 7812 f4be c0f2 aa3d
00000080: 61cb 96be 1b9b 543c c69a fdbe 3cce a0be
00000090: d9e8 a6bb cc71 ddbd 47e8 823e 2ea4 54bc
000000a0: c38b d63c 9eed f1bd cfac 3abc faf1 573d
000000b0: bf26 1dbd cb8b 0f3d 56aa a73c cc2f 62bc
000000c0: 597f 493d 3377 38bd 6104 283e 04ee 70be
000000d0: 20d6 aebe f8f8 f2bc cb52 dbbe 76b2 4dbe
000000e0: 475b 6fbd 5130 83be 0abe 85bd eebd 92bd
000000f0: 2ca7 40bd 8c95 8f3b db33 843d 442d 60be
-0.1934897 0.024961974 -0.35986674 -0.08848885 0.15657192 -0.24751194 -0.0056056585 -0.32942772
-0.18520308 0.13821456 -0.22361566 0.1498371 -0.15138514 -0.05702319 -0.091592684 -0.015820134
-0.1356719 0.16732396 -0.025798947 -0.31885815 0.24930151 0.08665718 -0.337412 -0.017338388
0.1538574 -0.08406303 -0.13037719 0.060530882 -0.080767825 -0.0825051 -0.4767034 0.08347082
-0.2945204 0.012976433 -0.49532145 -0.31407344 -0.0050936756 -0.10812721 0.2556784 -0.012978597
0.02618969 -0.118129 -0.01139374 0.052721 -0.03836703 0.035045426 0.020466965 -0.013805341
0.049193714 -0.045035552 0.1640792 -0.23528296 -0.3414774 -0.029659733 -0.42836604 -0.20087609
-0.05843666 -0.256228 -0.06530388 -0.071651325 -0.047034428 0.004381841 0.06455203 -0.21892267

actor.4.weight f4 [6, 64]
00000000: 73e4 b1bd beec cf3d 0209 54bc 6a7e fa3c
00000010: 2512 a9bb d343 263e e9e7 8fbd 732e 14bd
00000020: 6219 f13d e094 173e 375a fdbd 24e9 053e
00000030: ecd9 adbe 135a 1abe 7cef 3e3e 3072 063e
00000040: 078a a7bd 0841 003d 0386 1a3c 2d7d 923d
00000050: 888e 12bd 9e55 303d d3ff a23c 4731 eb3d
00000060: e50a babd cfcf e03d 3d7b 643e 54cd 2a3c
00000070: edf2 02be 1f61 d9bd bf04 203d ac28 0a3e
00000080: 7f23 65bd 35da 23bd da75 8f3d 89cf 9dbe
00000090: 3964 80be 52e8 a03d 09ee 93bc d70f cabc
000000a0: 369c 2cbd c60c 02be dbd0 483e 9d32 943d
000000b0: 93ca 343e 9f47 0b3e ba8b 233d a944 cfbd
000000c0: 8569 33bd f07f 863d 4431 843d a79f 95bd
000000d0: fbef c9bd 018a e93d 4a1b a6bd 6fdb b7bd
000000e0: 4821 7dbd 125b b4bd 3864 9d3b 1bbb 88bd
000000f0: 68a6 efbd d87c 05be af42 163d 6516 3d3e
00000100: ee07 fcbc b24d 04be 33de 15bd 6ab6 b63e
00000110: 595e 353d 5a75 1f3e dd93 69be bc01 d93d
00000120: 3273 0b3d 7d52 cc3c c576 b3bd 83ac 4cbe
00000130: 6d04 cfbc 9dcb 4cbd 5c57 6ebe 1606 ad3c
00000140: 6a6b 74bd 9043 1abe 89e9 33bd 848f e93c
00000150: 3c2a 77bd 721b 59bb 5293 95bc 772b be3d
00000160: 7b20 6cbd 9997 54be 7b42 29bd 4ffa 60be
00000170: 75d3 05be 8bd3 8cbd fb71 c73d 0959 823d
00000180: 4e2f 82bd 5b74 20bd ec94 a23d 9b15 23be
00000190: 5b0e fbbd 653d b3bd 214d 543d eb94 e4bb
000001a0: 5092 24be 417e aabd 8053 e53d cc71 363e
000001b0: 1dc7 04bc 5501 c8bd dfec 49be ec7c 86bd
000001c0: 4298 a43d bc92 1b3d 9a3b bbbc 4f7f 06be
000001d0: 699f 6e3c 33e9 0fbe d0ba 3fbd 36ca bfbc
000001e0: ef6b 31bd aa0b 1ebe e5ae 7d3e 8fab 53be
000001f0: 46ea 0cbe 8970 a4bd 8e5b 20be 6a3b 503e
00000200: b1b5 14bd 1a39 8b3c 45d1 c53c 4e41 86bd
00000210: bde5 dc3d 2545 93bd b1f5 073e a9d0 c2bd
00000220: d7a9 d03d 4304 e93d 5678 803d c93b 8fbd
00000230: 2ce4 293d dd38 02be d61b 8bbe 95ad 053d
00000240: 5917 81be 3822 293d d2cf 09be 4944 a7bd
00000250: 9751 dd3d 6b08 fcbd f1f1 053e 4878 e3bd
00000260: 29b4 043c 5f2f 85bd b45b dbbd 70f6 913d
00000270: ce59 51be 91d2 98bd 82f2 7abe ae6f 173d
00000280: 4859 b2bd ab73 013d eca5 babd 34cf 8e3d
00000290: ed60 a93e f7bf 093e 70d2 0d3d e8d2 6cbc
000002a0: d52d ef3c ba31 22bd d06c 893d 3b85 0a3e
000002b0: d105 693e d009 243c 2faf 933d 9c67 c3bc
000002c0: 4cc6 1f3e a3aa 0a3e 0765 693d 76f0 72bd
000002d0: 85d7 06be 0595 893d 87dd 2d3d c15b 8cbd
000002e0: 92bf 3fbd 48d9 f8bd bee1 f5bd c710 a8bd
000002f0: 50d9 f8bd 811c bebd 50bf 94bd 6933 1c3e
00000300: fda1 00be fc56 ef3c 8dab b4be 2bd1 863b
00000310: e335 1b3e 0fd2 1dbe f536 97bd 47da babe
00000320: 7299 8abd 6bb2 a43d 737f b0bd 6347 383d
00000330: 7009 59bd d4b2 0bbe cab3 8e3d aea2 303e
00000340: 4a3d 08be 4946 d7bd 4627 153c 087f afbe
00000350: 14b1 5a3e 1a1a 6a3d fdc4 4fbe d3ef d83d
00000360: 4f50 7f3d 506f 86bd dc8f 623d ef45 443b
00000370: 919a b7bd 01c6 05bc 54ef c4be d65e dd3d
00000380: 2c3f 5dbe 34b2 0c3d da93 9abe d55a 88bd
00000390: db4c 1d3d 1cf2 3bbd 2aa9 603e 826a 0ebe
000003a0: b7bf 873e 4a0f 9ebd bb88 e53d 2ade 6f3d
000003b0: f21f 03bd 81ae c5bd ff75 5bbd 4712 91bc
000003c0: 8060 583d a7c9 913d 37a0 9cbd 9e94 d9bd
000003d0: bfac 8dbe 34da 063c 22ee 7dbe 56db 17be
000003e0: b602 08be 4656 2dbe 6452 a03d ca12 063e
000003f0: b576 213d dddb 3abd 8b75 b73d 9c8e 2fbd
-0.08686151 0.10152577 -0.012941601 0.030577857 -0.0051596337 0.1623681 -0.07026655 -0.03617711
0.117724195 0.14802885 -0.12370723 0.13077217 -0.33955324 -0.15073423 0.18646044 0.13129497
-0.081806235 0.03131202 0.009431365 0.07152782 -0.03578046 0.0430504 0.019897377 0.11484008
-0.09084109 0.10977136 0.22312637 0.010424931 -0.12787981 -0.106142275 0.039067026 0.13492078
-0.055942055 -0.04000302 0.070049 -0.308224 -0.25076464 0.078568116 -0.01805784 -0.024665756
-0.04214116 -0.12700185 0.19610922 0.07236216 0.17655401 0.1360154 0.039928176 -0.10120518
-0.043801803 0.06567371 0.06454709 -0.07305842 -0.09860226 0.11403275 -0.08110674 -0.089774005
-0.061799318 -0.08806433 0.004803207 -0.066763125 -0.11701661 -0.13035905 0.03668469 0.18465574
-0.0307655 -0.12920263 -0.03658886 0.35686046 0.04427943 0.1557211 -0.22810312 0.10596034
0.034045406 0.024941677 -0.08762888 -0.19987683 -0.025270665 -0.04999887 -0.23275512 0.021121066
-0.05967275 -0.15064836 -0.04392389 0.028510816 -0.060343012 -0.003312793 -0.018258724 0.09285634
-0.057648163 -0.20760955 -0.041323166 -0.21970485 -0.13068946 -0.06876286 0.09738537 0.06364638
-0.06356679 -0.039173465 0.07938561 -0.1592621 -0.122585975 -0.087519445 0.05183137 -0.00697576
-0.16071439 -0.08324862 0.11197567 0.17816848 -0.008104113 -0.09765879 -0.19719265 -0.06566796
0.080368534 0.037981734 -0.022855569 -0.13134502 0.0145643735 -0.14053802 -0.046809018 -0.023411851
-0.043315824 -0.15434137 0.24773748 -0.20670913 -0.13761243 -0.08029277 -0.15659925 0.20335165
-0.036306087 0.016995002 0.024147639 -0.06555425 0.107860066 -0.07190923 0.13277318 -0.09512455
0.101886444 0.11377766 0.06272952 -0.06993825 0.041477367 -0.12717004 -0.27169675 0.032636244
-0.25213125 0.0412924 -0.13458183 -0.08167321 0.10806578 -0.12306293 0.13080575 -0.11106926
0.008099594 -0.06503176 -0.1071085 0.07127082 -0.20444414 -0.07462037 -0.24506572 0.03697174
-0.08708435 0.03160445 -0.09113678 0.069731146 0.3308176 0.13452135 0.034624517 -0.014454581
0.02919666 -0.039598204 0.067102075 0.13527386 0.22756125 0.010012105 0.07211148 -0.023853116
0.15602988 0.13541655 0.056981113 -0.059311353 -0.13168152 0.06717876 0.042447593 -0.06853438
-0.046813555 -0.12150818 -0.120059475 -0.08206325 -0.12150824 -0.092827804 -0.072630525 0.15253986
-0.12561794 0.029216282 -0.35287133 0.0041142902 0.15157275 -0.15412162 -0.07383529 -0.36494657
-0.067675486 0.08041843 -0.08618059 0.044989955 -0.052987516 -0.13642436 0.06967886 0.17249557
-0.1330463 -0.10511453 0.009103602 -0.34276605 0.21356612 0.0571538 -0.20289989 0.10592618
0.062332448 -0.065642 0.055312976 0.002994891 -0.08965028 -0.008164884 -0.38463843 0.10809104
-0.2160613 0.034349635 -0.30190927 -0.0665795 0.038403373 -0.04588519 0.21939531 -0.13907817
0.26513454 -0.0771776 0.1120772 0.05856148 -0.032012887 -0.096524246 -0.053579327 -0.01770891
0.052826405 0.0711854 -0.07647746 -0.106240496 -0.27670857 0.008230735 -0.24797872 -0.14829764
-0.13282284 -0.16927442 0.07828215 0.13093105 0.03941985 -0.045619834 0.089579664 -0.042860612

actor.4.bias f4 [6]
00000000: a347 4bbe 4066 70bc 6534 ee3d b625 a23e
00000010: cb88 8c3d 42dc 843e
-0.19851546 -0.014672816 0.11631087 0.31669396 0.06862029 0.25949293

critic.0.weight f4 [64, 25]
00000000: 1a22 313e 899b 913d 3977 a03d cf93 0fbe
00000010: a31c 9c3d 4aef b8bd 2e8f acbc 91e1 7bbd
00000020: e08a fd3c 2e0d 83bd 40d5 033d 4dc0 0fbd
00000030: 605f 22bd ff00 3b3e b27a 42be 5cea 10be
00000040: fd58 6e3f 0918 cabc c898 58bf 1ddb 3e3d
00000050: fb49 46bd f97e 10be b00a 723d cfba a7bd
00000060: 4066 623d 7980 973e 6372 27be d481 78be
00000070: 08e6 48be a6d3 c8bd 29b2 ee3b a3a9 e73d
00000080: 1287 573e b6f4 1bbe d4c2 efbd 01ed 01bd
00000090: 073f 283e 4a75 0bbe d340 e53e 9521 38bd
000000a0: 5840 183d 962b 113e 3b53 233c ec25 96be
000000b0: c08c d1bd 7029 01be 737d d73d bf42 83bd
000000c0: f07c 07be f49a e73d 330f 29be 3d35 58bc
000000d0: 528c 27bc 079b 7a3d 278d 8d3d cbc0 343e
000000e0: 42f1 17bb 8375 6e3d fb76 c83b a43d 37bd
000000f0: f68d 89bd f8fc 003d 32a8 7e3e cfb2 2fbf
00000100: 038b 5fbe 14b6 5b3e c0e5 b5be 2c1e cebd
00000110: 2adc df3d 70e0 9dbd cc1f 4cbd fe0e ba3d
00000120: bcfc 27bd bd2d fc3c b4e2 f0bc bb55 82be
00000130: 1f7d 92bb f5b8 a33c 6174 0b3e 49c5 5ebe
00000140: 49fb efbd 33fc 2f3e d663 8dbe 2a05 083e
00000150: b6c6 f2bd 969d af3d a568 203d ca1a 793e
00000160: b666 cebe 2ae7 433e 90f5 3dbe 10ee 863d
00000170: 36af 283e f937 d83d b534 633d 8492 423e
00000180: 7390 623d d2fc e83d b93d c7bd 7899 f0bd
00000190: de41 373e 654b 91bd 26b7 553e 2dd7 5dbe
000001a0: ce38 b8bd 8345 4abe a175 c53d f346 9f3d
000001b0: aa60 c8bc 092d c4bd 41b0 96ba 8617 7bbd
000001c0: ff19 10be ce85 813f ed21 d03e cb54 743d
000001d0: 0171 4d3e fbd2 2b3d 1cc8 05be 169d cebd
000001e0: 5133 283e 1f33 4e3d 45d5 013e 628f 823c
000001f0: ce0a d0bc c79c bdbe b46b 0cbe eafd 643d
00000200: 5370 c3bc 2602 cb3c c718 5a3e 3f9e c8bd
00000210: d456 bb3d db23 373d 397c 5dbd d2fe a9bd
00000220: 3627 e0bc c3aa 3cbd 37bb a8be da34 7ebe
00000230: d3cc c7bd 4ff9 04bf 7134 1a3d 52fb d43e
00000240: 9a23 8cbd 2c8f 973d 6fc7 913d eba3 51bc
00000250: 6804 143d a225 a1bc 3955 1c3e 58c0 483e
00000260: 6d58 0bbe ee09 77bd 6849 003e 79b1 423d
00000270: 010c d9bd 51ea 503d 222f 87ba 1ccc 76bd
00000280: 1ae2 853d 0991 073e f256 00be b7d7 0d3f
00000290: 323b 373e 27a3 383c 7804 063f 8b95 0cbe
000002a0: 02d5 b1be cc31 183d d0fd fa3c a728 8e3d
000002b0: be4a 993d 37b1 f73c 0fb2 e8bd c9ab 7cbe
000002c0: 3ede 24be e94a 9ebe 63f7 eb3d 5d36 1a3e
000002d0: d9ba 123d 2ecd c4bc 03e2 a6bd 657c cc3c
000002e0: 3334 333e 54a3 5e3d 6c14 94bc 61fb 7d3d
000002f0: 3625 743f 9762 eabe 6fad 433e 3de2 283e
00000300: f6ee 03be 72d5 53be bf5a 26be 52ab afbd
00000310: f2e3 293d 2035 903d 8b08 86bd 2806 bfbd
00000320: ae87 5f3e f16a 4dbe 7e81 2d3d 4f87 d4bd
00000330: 0acc 7a3d c000 86bd 1c3a 393d 9368 f0bd
00000340: 5487 b33d 28f6 38be 35d6 9c3d d15e 10bd
00000350: a2cd c4bc 5678 48be 4c3a b5be ff78 0dbe
00000360: ef14 083e 9117 f83d a70b 023d 4de8 08bd
00000370: 715a bd3d 3af5 02be 405b 1c3e bdb5 41be
00000380: 6a32 943d f66a 4fbe a304 fcbd 8528 503d
00000390: 19c7 e0bd 730b 993d 53af fabd f980 ecbb
000003a0: 01f2 e43b 6732 993d bcd8 62bd a3ec 963c
000003b0: 8afc 8a38 6ec8 ab3e 3e88 9340 8632 49bf
000003c0: 54a5 80be 0616 293f 02e8 85be 7ef7 06bf
000003d0: 87ad 97bd cb0a b63c e331 933c 02b9 783d
000003e0: 90e6 8dbc a3fe 843c bdd0 0f3e 37d9 d9bd
000003f0: d8ae 44be 9f9a afbd 9a5b b73d 3c8a d53c
0.17298165 0.07109744 0.0783524 -0.14021228 0.076226495 -0.09030016 -0.021064367 -0.061494414
0.03095001 -0.06398998 0.032185793 -0.0350955 -0.039641738 0.18262099 -0.18992117 -0.14151901
0.93104535 -0.024669664 -0.84608126 0.04659568 -0.048410397 -0.14110936 0.059092224 -0.08189928
0.055273294 0.29590204 -0.16352229 -0.24268275 -0.19619 -0.09805994 0.007284422 0.113116525
0.21047619 -0.15230069 -0.117070824 -0.031720165 0.16430293 -0.13618961 0.4477602 -0.0449539
0.037170738 0.14176783 0.009968574 -0.29325807 -0.10231924 -0.12613463 0.105219744 -0.06409215
-0.13231254 0.11308852 -0.16509704 -0.013196287 -0.010226326 0.061183 0.06911688 0.1765167
-0.0023184572 0.058217537 0.006117699 -0.04473652 -0.0671653 0.03149125 0.24868849 -0.68632215
-0.21830373 0.21456176 -0.35526848 -0.100643486 0.10930665 -0.07708824 -0.04983501 0.09084891
-0.04101251 0.030783528 -0.029404975 -0.25456032 -0.004470482 0.019985655 0.13618614 -0.21754946
-0.11717851 0.1718605 -0.2761523 0.1328322 -0.11854307 0.08574979 0.039162297 0.24326625
-0.40312737 0.19131151 -0.18550706 0.065883756 0.16473088 0.10557551 0.055470187 0.19001204
0.05531354 0.11376347 -0.097285695 -0.11748022 0.1789622 -0.070944585 0.20870647 -0.21664114
-0.0899521 -0.19753079 0.096415766 0.07777204 -0.024460156 -0.09578902 -0.001149662 -0.06130173
-0.14072417 1.0118959 0.40650883 0.059651177 0.20062639 0.041949254 -0.13064617 -0.100885555
0.16425826 0.05034172 0.12679012 0.01593751 -0.025395777 -0.37033674 -0.1371296 0.055906214
-0.023857271 0.024781298 0.21298514 -0.09795808 0.091474205 0.04471193 -0.054073546 -0.08300556
-0.027362447 -0.04606129 -0.32955334 -0.24824849 -0.09755864 -0.51942915 0.03764767 0.41597992
-0.06842728 0.07400355 0.07118117 -0.012795429 0.036137015 -0.019671265 0.15266885 0.19604623
-0.1360795 -0.060312204 0.12528002 0.047532532 -0.10597993 0.05100471 -0.0010313729 -0.060253248
0.06537266 0.1323892 -0.12533167 0.5540728 0.17893675 0.011269367 0.5235057 -0.13728921
-0.34732825 0.037156865 0.030638605 0.069413476 0.07484959 0.03023587 -0.11362087 -0.24674906
-0.16100404 -0.30916527 0.11521795 0.150598 0.035822723 -0.024023619 -0.08148577 0.02496166
0.17500381 0.05435498 -0.018076144 0.06200731 0.9536928 -0.45778343 0.19109128 0.16492553
-0.12884125 -0.20686892 -0.16245554 -0.08577599 0.04147715 0.07041383 -0.06544598 -0.09327346
0.21829101 -0.20060326 0.04235982 -0.103773706 0.061229743 -0.06543112 0.045221433 -0.11738696
0.08766046 -0.18062651 0.07658044 -0.035246674 -0.024023835 -0.19577155 -0.3539604 -0.13815688
0.13289236 0.1211387 0.031749394 -0.033424664 0.09245766 -0.12788859 0.15269184 -0.18916984
0.07236178 -0.20255646 -0.12305572 0.050819892 -0.10975475 0.07472887 -0.12240472 -0.007217523
0.006986857 0.074803166 -0.055382475 0.018423384 6.627392e-05 0.33551353 4.610381 -0.7859272
-0.25126135 0.6604923 -0.2615357 -0.52721393 -0.074061446 0.022221943 0.017968124 0.060723312
-0.017321855 0.016234701 0.14044471 -0.106371336 -0.19207323 -0.085744135 0.089530185 0.026066892

critic.0.bias f4 [64]
00000000: 3bd6 383e 6da5 753e 3add 1bbe 8abd e3bb
00000010: c15e b83c 75e3 35be c5ed 193e a0b6 03be
00000020: cdc3 81bc cbbd a03d 77c6 133e 1447 ae3d
00000030: 21c8 2dbe c7c6 28bd 4f45 373d 2ba0 b0bc
00000040: e952 43be b3f4 0e3d 5de0 d03c 9329 a23d
00000050: 25cc 313e 1ff4 a23d 8776 a13d d3b8 1e3e
00000060: 2f52 87ba cd7e 82bc 2e23 66bd c6d9 75bc
00000070: 8944 983d a1ca 283e 4681 9b3b 4263 d9bd
00000080: 3d9f 85bc c9dc d0bd 568a 843e 3e0d bbbd
00000090: 29c7 3e3d 659b d1bd 76f7 ddbc cf14 f83d
000000a0: e125 29be 7022 1ebe 10e2 8dbd 7b4b 043e
000000b0: b48b 99bc 93b1 bf3a d258 05be de85 ec3d
000000c0: 3b79 5e3c 8c19 1e3e a600 df3c ae64 4dbc
000000d0: b56a b5bd 2316 e4bd 17a5 2e3e ea06 213d
000000e0: 4984 ecbd a7fa ae3d 07d9 07be 67f3 d33d
000000f0: 66f3 16be d70c 623b 651b cd3b 1ffc 0b3d
0.18050472 0.23988886 -0.1522111 -0.006950085 0.02250612 -0.17762549 0.15032108 -0.12862635
-0.015840435 0.078487 0.14431177 0.08509651 -0.16970874 -0.041205194 0.044743832 -0.021560749
-0.19074596 0.034901332 0.02549761 0.07918086 0.17363031 0.07956719 0.078839354 0.15500192
-0.0010324175 -0.015929604 -0.056185894 -0.0150055345 0.07434947 0.16483547 0.004745635 -0.10614635
-0.016311282 -0.101983614 0.25886792 -0.09133385 0.046576653 -0.10234717 -0.027095538 0.12113344
-0.16518356 -0.15442824 -0.069278836 0.12919419 -0.018743373 0.0014625065 -0.13022164 0.11548971
0.013578708 0.15439433 0.027221989 -0.012536211 -0.088582434 -0.11137035 0.17055164 0.039313234
-0.11548669 0.08543902 -0.13266383 0.1034916 -0.14741287 0.0034492516 0.006259369 0.03417599

critic.2.weight f4 [64, 64]
00000000: a60a cbbd 563b efbc 9489 47be 17a9 2a3d
00000010: 3d3f 513d 3c4a 14be f3ac 9d3d 4e3a 743d
00000020: d175 76bb dd25 e8bd 7972 b93d 051d a83c
00000030: 4bf3 0abd cc23 e83d 2e58 1fbc 9d66 afbd
00000040: 47f0 66bd 5afc 2bbd 83b5 8bbc 27a8 60bd
00000050: d8c5 c93d 413d 0d3e db41 c63d c338 f43b
00000060: 903d b93c c472 1c3d facb a63d 9d54 be3c
00000070: 5660 b4bd 4c0e 2f3d 5ae3 6a3d 634b d1bd
00000080: a413 ff3d e87d b73d 461f dabc 8143 8d3d
00000090: ed16 04be 638a 553d e192 4fbc 30a4 cc3d
000000a0: 14d8 3abe 6f79 67bc 18ad 77bd a635 cabd
000000b0: 5e41 0d3d 9b34 20be f3f2 453c 91e8 f43d
000000c0: 4041 75bc d633 bf3d b4cc 003e c8f6 8bbc
000000d0: 558f b33d b4e0 f13d 0fce 5cbd b900 a1bc
000000e0: de25 263c 004d 86bd 12b2 8b3d 49ee 9fbd
000000f0: 47f8 d13b 2096 ce3d cf4c 51bc c258 c13c
00000100: 7f0f 83bc 3228 223d 7683 ce3c 50bb 8ebb
00000110: e3d1 8bbd c4c5 183e 1ab1 03bd 39e7 23bd
00000120: 457b 5abd a6b6 603d 45b5 263e f44b b1bd
00000130: 5b65 be3d e5d1 2abd c216 9d3c 2472 84bd
00000140: 280a 0c3d 7d09 863d 3aaa c33d 0e56 33bd
00000150: e398 01bb 961b 903d 2d25 25bd cf9f 043e
00000160: 916e 233e 44df db3d 04b8 f2bd 174b fd3c
00000170: d16d a4bd 3e07 fc3d d698 91bd 5077 f13d
00000180: 3ac1 793b 4528 febd e574 1fbd e6ac d6bd
00000190: 6b3d f0bd 80e2 433d 0822 88bd f19a 22bd
000001a0: 0174 a8bc 4ea7 5e3d 7f2d 903d 34f9 943c
000001b0: 6d0d c5bb f787 16bc c940 26bc 72f9 b1bd
000001c0: 2f47 23be d22a 6abd efeb 503b c45a ac3d
000001d0: ed6f cc3d 11d4 4ebc fb10 01be 0ba7 d9bd
000001e0: 4d9b fb3d e05b d63c f155 f03d 8fa5 b7bd
000001f0: b7c0 17be ebf0 ac3d 4cf0 a2bd 33a9 743d
00000200: 8dfb d43d 3964 d0bc 5ee1 a1bd f0fc 823c
00000210: 6cfc 49bd a18c 9c3b 86ec b3bd 36c5 bb3d
00000220: 362e 05bd e203 3e3c b724 cfbc fe02 133c
00000230: 2d92 01be c2e7 40bd e92c 6c3d 4c02 7ebd
00000240: c9ca de3d 88ff 783b 7d67 383d bd09 f5bd
00000250: dfde 04bd 47ea 183e 6413 d63b b4fc e23c
00000260: ff15 eb3d 7f9b 593d 7d5f a7bd 0059 8abb
00000270: be18 c8bc 0e16 e03d c00f 4c3d 4e4b c13d
00000280: a595 0b3d d09a 75bd 357a 333c d676 cabd
00000290: 3b7a 073e b12f 9ebc 5362 543d ea58 a83d
000002a0: 025c c4bc 0f22 c93d 6734 1cbb d72a 333c
000002b0: eb59 6e3d 849c 94bd 5f7f 933d d225 98bd
000002c0: 2a3f 1ebe 27f6 c43d 8234 93bd dc6b c23d
000002d0: 2460 5aba 20df 6dbc 6b35 873d da7f ec3d
000002e0: 1583 f5bc 92ed 9f3d 7db0 073e 27bf 8abc
000002f0: a570 853d 7bb2 ebbd a41c 8bbd f21b 083e
00000300: 3ce8 853d 59fe 2abb ef05 b33d 9085 11bd
00000310: ae73 da3d 720e 0b3e 35ae 893c 6a4f cf3d
00000320: d2e3 1bbd 26e7 a6bc 9f44 20be 4dbd c7bd
00000330: 19aa 9d3d 600b a4bd 3866 94bc e04d 84bd
00000340: 2cbc eb3d 58ea bb3c 53ed d9bc 75b4 80bd
00000350: e09f 45bc f0bd 25bd 8a2c 06be da44 e8bd
00000360: 31e8 9cbd baae c23d c05c 073d 61e3 503d
00000370: 7345 ad3d 6bf7 f0bd b1f1 de3c 0f0a 8fbd
00000380: 48b1 7d3d 5a32 67bc a7ba aa3d d177 9bbc
00000390: 5323 b8bd f0cd ac3c fab9 9cbc 507a ef3d
000003a0: 0451 0bbe 8c22 debc 624a a4bd 7774 db3d
000003b0: f831 89bb 04b4 acbd fb49 553d 8bf0 a93d
000003c0: 07e4 c7bd b869 323d 172c d8bd 573f e9bd
000003d0: 1195 e83d 3816 d93d 9b96 9e3d 4313 a9bd
000003e0: 6d73 68bc c315 35bd 9466 8dbd f027 dabc
000003f0: 92e0 91bc 7d67 59bc 7e25 50bc 0052 84bb
-0.099141404 -0.029203098 -0.19486076 0.041665163 0.0510857 -0.14481443 0.07699003 0.059625916
-0.0037606845 -0.11335347 0.09055037 0.02052165 -0.03392343 0.11334953 -0.0097256135 -0.08564494
-0.05638149 -0.041988708 -0.017054325 -0.054847863 0.09852189 0.13792898 0.0968053 0.0074530556
0.022612363 0.038195387 0.08144374 0.023233706 -0.08807437 0.042738244 0.057345726 -0.10219457
0.12454918 0.089595616 -0.02662624 0.06897641 -0.1289937 0.05213393 -0.012669296 0.09992254
-0.1824649 -0.014128073 -0.06046781 -0.09873514 0.034486167 -0.15645067 0.012081849 0.11958421
-0.01496917 0.09336059 0.12578088 -0.017085448 0.08767573 0.11810437 -0.05390745 -0.019653665
0.010140864 -0.06557655 0.068210736 -0.07809121 0.006407771 0.10087228 -0.01277466 0.023601893
-0.0159986 0.039589114 0.02520917 -0.0043558255 -0.06827142 0.14919192 -0.03215132 -0.040015433
-0.053340215 0.054861687 0.16280086 -0.08657065 0.09296676 -0.041704077 0.01917589 -0.06467083
0.034189373 0.065447785 0.095539525 -0.04378324 -0.0019774965 0.070365116 -0.040318657 0.12951587
0.15960146 0.10735944 -0.118515044 0.030919595 -0.08028758 0.12306069 -0.07109229 0.11790335
0.0038109557 -0.124100246 -0.03892984 -0.104821965 -0.117304645 0.04782343 -0.06647116 -0.039698545
-0.020563127 0.054358773 0.07039928 0.018185236 -0.0060135634 -0.00918769 -0.010147282 -0.08690156
-0.15945123 -0.057169743 0.0031878909 0.0841575 0.09982286 -0.012623803 -0.12604134 -0.10627564
0.12285481 0.026166856 0.11735142 -0.08967125 -0.14819609 0.08444389 -0.07955989 0.059731673
0.10399542 -0.025438415 -0.079043135 0.01598975 -0.049312994 0.0047775065 -0.08785348 0.091684744
-0.032514773 0.011597605 -0.025286062 0.008972881 -0.12653418 -0.04709602 0.057660017 -0.06201391
0.10878522 0.0037994105 0.04502057 -0.11964748 -0.03243911 0.1493312 0.0065330733 0.027708389
0.11478805 0.05312681 -0.0817251 -0.0042220354 -0.02442586 0.109417066 0.049819708 0.09438191
0.03407826 -0.059962094 0.010954429 -0.098859474 0.13230221 -0.01930985 0.05185158 0.08220084
-0.023969654 0.09820949 -0.0023834945 0.010935507 0.05819122 -0.072564155 0.072020285 -0.07429089
-0.15453783 0.09617262 -0.071877494 0.09493229 -0.0008330366 -0.014518529 0.066019855 0.11547823
-0.029969731 0.07808985 0.13250919 -0.016936852 0.06515626 -0.11508652 -0.06792572 0.1329191
0.06538436 -0.0026091544 0.08741366 -0.035527766 0.106665954 0.13579729 0.016806701 0.10122569
-0.038059063 -0.020373892 -0.15651177 -0.09752903 0.07698459 -0.08009982 -0.018115148 -0.06460166
0.115105 0.022938892 -0.026602423 -0.062844194 -0.012062043 -0.04046434 -0.13102928 -0.113412574
-0.076614745 0.09505983 0.033047438 0.050998095 0.08460512 -0.11765941 0.027214857 -0.069843404
0.061936647 -0.014111126 0.08336382 -0.018978031 -0.089911126 0.021094292 -0.01913165 0.11693251
-0.13605124 -0.027116083 -0.08022 0.10715573 -0.004186865 -0.08432773 0.052072506 0.08297833
-0.0976029 0.043557853 -0.105552845 -0.11389034 0.11356557 0.10599941 0.077435695 -0.08255627
-0.014187676 -0.044210207 -0.06904331 -0.026630372 -0.017807279 -0.013269302 -0.012704251 -0.0040380955

critic.2.bias f4 [64]
00000000: e187 8bbd 51e7 ce3c 0d9c edbd 34de 10bd
00000010: 821c a1bd 9675 84bd 4ba6 8c3d 35a1 c1bd
00000020: 071d 86bd e880 883d 74b4 ebbd 803b 1abd
00000030: 01da 793c ac4c 54bd 3578 7b3d baa0 4dbe
00000040: dcfb 4dbd d656 553d f997 3a3d 1c55 f93c
00000050: 7b1f a1bd 4de7 1bbd b94f 1abe ac56 81bd
00000060: c06a 2c3d ec76 aebd 6308 2b3d 3ac7 9cbd
00000070: 041f 113e f5d3 d03c 55e6 2a3c 2cd6 aabd
00000080: 55f8 003e c683 c2bd 0b41 873d 0e34 b93c
00000090: ee0b ebbb 9f96 7bbc 45fb 923d 1ecb f83d
000000a0: 5a69 08be 9295 353d e7ea 6bbc c3d3 debd
000000b0: 4ae0 bdbd ff81 e4bd f406 ea3d 88b8 01be
000000c0: 3621 cbbc 75be fbbd 69d5 3f3b a7be 0fbd
000000d0: 6e87 203d 8012 7fbd 2066 fdbd 4273 3cbd
000000e0: 0192 afbd 347e 6d3b 4c18 d7bc aafa 27be
000000f0: 6af6 433d 63dd 143d ea2f 593d 77fe 5d3c
-0.06813026 0.025256785 -0.1160203 -0.03536816 -0.078667656 -0.0646774 0.06867655 -0.09454576
-0.06548505 0.06665212 -0.11509028 -0.0376544 0.01524973 -0.051830932 0.061393935 -0.20080844
-0.05028902 0.052084766 0.04555509 0.030436091 -0.078673325 -0.038062382 -0.15069474 -0.063153595
0.042093992 -0.08518776 0.041756045 -0.07655187 0.14171988 0.025491694 0.010430892 -0.08341631
0.12594731 -0.0949779 0.06604203 0.02260783 -0.007173053 -0.015355735 0.07176832 0.121481165
-0.13321438 0.044332094 -0.014399267 -0.10880234 -0.09271295 -0.11157607 0.114271075 -0.1266805
-0.02479611 -0.12292186 0.002927149 -0.03509393 0.039191656 -0.062273502 -0.123729944 -0.046008356
-0.0857277 0.0036238553 -0.026256703 -0.16404215 0.04784242 0.036343943 0.05302421 0.013549439

critic.4.weight f4 [1, 64]
00000000: 5067 673d a901 f93c 9350 e83c 9cf4 d73b
00000010: 4175 dabd d3fc 52bd 01dc aa3d 2119 2cbd
00000020: 7483 4cbd 8db0 793b 5cb1 3a3d 5a50 943b
00000030: 321f 6ebc 4bdb c7bc baff c4bd 5227 f23d
00000040: 5761 81bd 57af 833b bb3f d23d 77eb 39bd
00000050: 848f 62bd b4da 67bd 1a58 02bd 8c79 0bbd
00000060: 55bf f3bb 7ffc 6dbd 467d 83bc 6660 8c3a
00000070: 3a0d 81bd f621 7fbd 7ca9 4e3c e2f6 00be
00000080: 2cd4 37bd fe87 c43b 6c15 a53c b010 99bd
00000090: 1aa5 77bc 9083 443d 016b 213d 780b 80bc
000000a0: 14d1 68bc 60e6 babd dd9d c4bd a27d 16be
000000b0: 3447 2a3e 979a 84bd 35c1 e9bc fe5f 83bd
000000c0: 4de0 353d b087 853d 62d4 d9bb 45cb 08bd
000000d0: aa3c 2ebd 0258 50bd d6df 93bd f398 a63d
000000e0: ece6 8fbd 0d10 653d 08fe 3e3d 1b5d 45ba
000000f0: 90fe 633d d028 8cbb 4a5b 693d c83d a4bd
0.05649501 0.0303963 0.028358733 0.006590439 -0.10666896 -0.051510643 0.08342744 -0.042016152
-0.04993005 0.0038099617 0.0455793 0.00452618 -0.014533805 -0.02439656 -0.096190885 0.11823906
-0.06317394 0.004018705 0.10266062 -0.045390572 -0.05531265 -0.056605056 -0.0318223 -0.034051463
-0.00743858 -0.058102127 -0.016050946 0.0010709881 -0.06301351 -0.062288247 0.01261365 -0.12594178
-0.044880077 0.005997657 0.020151816 -0.07473886 -0.015115047 0.04797703 0.039408688 -0.015630469
-0.014210004 -0.09125972 -0.096004225 -0.14696363 0.16628724 -0.06474798 -0.028534511 -0.064147934
0.044403363 0.06520021 -0.0066476325 -0.033396978 -0.042538323 -0.05086518 -0.07220428 0.081346415
-0.07026467 0.05592351 0.04662898 -0.00075288274 0.05566269 -0.004277326 0.056971826 -0.08019596

exp_avg f4 [6]
00000000: 9280 2db8 1d82 08ba fd3f ebbb 559d 1f39
00000010: 5f29 de39 454a 843a
-4.1366155e-05 -0.00052073767 -0.007179259 0.00015222032 0.00042373964 0.0010092935

exp_avg_sq f4 [6]
00000000: 3414 8135 dee3 a737 9629 863a a571 3036
00000010: cff3 8536 5250 a038
9.617129e-07 2.001406e-05 0.0010235782 2.6292194e-06 3.992092e-06 7.644355e-05

exp_avg f4 [64, 25]
00000000: 7266 bab7 ce24 1fb8 d157 a8b8 9332 82b7
00000010: 3abd 8838 3ad1 1eb9 a910 4cb3 e41d bc36
00000020: ef4e edb7 abaf 0bb8 6f55 6db6 6cdf 2cb7
00000030: b6c7 afb7 816e ebb6 6897 c6b7 8ea9 4bb8
00000040: 6cd1 87b6 57a9 4bb8 6cd1 8736 8d04 59b8
00000050: 8df0 7ab8 3054 36b9 7a2a 93b8 f0fe 0239
00000060: d447 a5b9 a240 5935 e27b b235 da56 3236
00000070: a49c 1a36 6737 d1b5 49b2 8236 8a74 a134
00000080: 7790 2a35 0f7c beb4 4739 8fb5 d7a1 b4b5
00000090: ab0f a1b3 a25f bab5 507d b534 5a89 bab5
000000a0: 7ced 48b6 1d4e 49b5 40ed 48b6 1d4e 4935
000000b0: aad6 2a36 07ec 5836 b609 9336 2ba8 3036
000000c0: b779 66b6 9a6a 0d37 674a f7b8 facb b5b9
000000d0: 8e3f 2cba 3ad7 8338 fab2 2e3a 251e acba
000000e0: 3a67 5d38 b1f8 8938 3e74 8838 2994 49b9
000000f0: 4706 04b8 3772 6939 d32e e9b8 3b3e ccb7
00000100: 5c4b fbb8 7d60 83b9 71cb efb7 8b60 83b9
00000110: 70cb ef37 89c8 38b9 852a 0bba 17db a8ba
00000120: 735e de38 f4f2 a83a af2b 23bb 3122 51b5
00000130: 54b9 56b7 5b6f d7b7 d67c 1437 1da1 f837
00000140: e8ba 68b8 46e4 75b6 2e33 4ab1 1469 48b7
00000150: c29d 7bb7 c28d bb35 bce2 18b7 259f 16b7
00000160: ecd1 d5b5 76b1 28b7 923e abb7 3504 3bb6
00000170: 5c3e abb7 3604 3b36 8697 83b6 cb07 a6b7
00000180: 1cf6 6eb8 4de2 1836 c615 7538 2a8a 00b9
00000190: a6f1 c1ba 344e 07bb 202d 9cbb 0e68 3cbb
000001a0: b279 573b b293 09bc b074 c438 f798 f239
000001b0: b7cc 7fb9 05b3 78ba 3edd 68b9 557c c639
000001c0: 22da 83ba 83c9 8ab9 ce46 96ba c27e 19bb
000001d0: 298a 74b8 ac7e 19bb 298a 7438 783a 48bb
000001e0: 7a29 51bb 2830 1fbc f283 ccbb 1c90 d23b
000001f0: 2919 89bc 97c5 05ba ed7e 56ba eedd f3ba
00000200: 0f98 53ba 9626 bb3a 113d 5ebb 7b3e 9c36
00000210: db82 4739 9b7f 8038 f14a 04ba 88ba c4b8
00000220: b90b d539 27b3 c3b9 20bd beb8 16ed d2b9
00000230: 73ba 62ba 9114 f2b7 64ba 62ba 8c14 f237
00000240: ea35 8bba d72f a5ba 0451 74bb c534 eeba
00000250: 5ec0 343b 0ead dabb 55a7 363a 7291 8f3a
00000260: 5ecb 1a3b c979 a93a cf1a dcba 3e83 883b
00000270: 2db9 26b8 9dde 68b9 93cf cb38 9e8f 9039
00000280: 279a cd38 68ec 21b9 0179 fd39 cc05 0f39
00000290: cab3 123a b0d9 923a 611d a038 aad9 923a
000002a0: 621d a0b8 6491 b33a f4aa e23a ad22 9d3b
000002b0: b89c 323b 1f67 59bb dea1 083c 361b 67ba
000002c0: fed8 e8ba b215 7ebb 94c3 97ba 1e8e 4e3b
000002d0: aa7d e9bb 293c 7338 c9a8 d439 d4ad 91b9
000002e0: c622 a3ba 2e7e c4b9 4fe4 db39 e14d 50ba
000002f0: a7fc 10b9 4684 65ba bf9e f0ba cbb3 ceb8
00000300: b79e f0ba cbb3 ce38 27a5 ceba 83d8 27bb
00000310: 5471 02bc b0bb 55bb 08d5 c63b bedd 6abc
00000320: fac3 2e3a b812 a23a 2377 2e3b 96f8 873a
00000330: d9db 07bb 1e5d 9d3b a8c0 bdb8 77c9 86b9
00000340: d916 2a39 9c8f 1f3a a8c8 9838 995e 7bb9
00000350: 4d1d 0e3a 1c6c dd38 60c7 213a 21fa a23a
00000360: 593d 9538 0afa a23a 593d 95b8 a66f a33a
00000370: 0989 f93a 830f b23b 439b 203b 1c31 85bb
00000380: 8e5b 1d3c 3dde 6138 9016 5739 f073 3c38
00000390: c4ab 5aba 9f43 04ba 32db ea39 0fba a338
000003a0: 5c80 ae38 daac b3b9 2a5f 1dba 12b2 97b9
000003b0: d40a 83b9 9a97 9fb8 ee47 6d38 34e1 5fb8
000003c0: 2829 3db9 e275 4038 cf29 3db9 e375 40b8
000003d0: 80f7 0339 b2be 193a 183f 02b9 975f 22bb
000003e0: c1b9 95ba 477b 2d3a 0f81 113a 465b 723a
000003f0: b876 0e3b 5e9b a73a d64c baba 9afb 773b
-2.2220633e-05 -3.794283e-05 -8.027221e-05 -1.5520758e-05 6.5202315e-05 -0.00015145997 -4.7512604e-08 5.6063163e-06
-2.8289358e-05 -3.3303786e-05 -3.536548e-06 -1.0304018e-05 -2.0954623e-05 -7.01641e-06 -2.3673943e-05 -4.855688e-05
-4.0476934e-06 -4.855668e-05 4.0476934e-06 -5.174107e-05 -5.9828675e-05 -0.00017388235 -7.017418e-05 0.00012492738
-0.0003152477 8.093285e-07 1.3298088e-06 2.6574621e-06 2.3038965e-06 -1.5587838e-06 3.895057e-06 3.007338e-07
6.354016e-07 -3.5480522e-07 -1.0671e-06 -1.3458147e-06 -7.499997e-08 -1.3885913e-06 3.3805054e-07 -1.3898054e-06
-2.9940556e-06 -7.4992005e-07 -2.994042e-06 7.4992005e-07 2.5456925e-06 3.2323894e-06 4.382072e-06 2.632393e-06
-3.4343518e-06 8.429075e-06 -0.00011791736 -0.00034674985 -0.00065707497 6.286656e-05 0.0006664243 -0.0013131542
5.2786643e-05 6.5789915e-05 6.506637e-05 -0.00019224048 -3.14771e-05 0.0002226316 -0.000111190275 -2.4347673e-05
-0.000119826494 -0.00025058156 -2.8585755e-05 -0.00025058197 2.8585753e-05 -0.00017622313 -0.0005308765 -0.0012882677
0.000106033775 0.0012889788 -0.0024897864 -7.790832e-07 -1.2798544e-05 -2.5681851e-05 8.850553e-06 2.9638928e-05
-5.548718e-05 -3.6640718e-06 -2.942396e-09 -1.1945394e-05 -1.4997497e-05 1.3973843e-06 -9.112697e-06 -8.97775e-06
-1.5930832e-06 -1.0054899e-05 -2.0413925e-05 -2.786762e-06 -2.0413827e-05 2.7867623e-06 -3.921744e-06 -1.9792371e-05
-5.697283e-05 2.278149e-06 5.843283e-05 -0.00012258501 -0.0014796748 -0.0020645978 -0.0047661215 -0.0028748545
0.0032878933 -0.00839703 9.367743e-05 0.00046271805 -0.00024394957 -0.0009487125 -0.00022207663 0.00037858138
-0.0010059515 -0.0002647155 -0.0011465193 -0.00234215 -5.8302805e-05 -0.002342145 5.8302805e-05 -0.0030552428
-0.003191559 -0.009716071 -0.006241315 0.0064258706 -0.01673563 -0.00051029905 -0.00081823656 -0.0018605569
-0.000807167 0.0014278467 -0.003391091 4.656436e-06 0.00019026866 6.127284e-05 -0.00050465675 -9.3807525e-05
0.0004063526 -0.00037326777 -9.095133e-05 -0.00040230964 -0.0008648999 -2.8858225e-05 -0.000864899 2.8858216e-05
-0.0010620926 -0.0012602758 -0.0037279734 -0.0018173686 0.002758048 -0.0066734618 0.00069676834 0.001095338
0.0023619751 0.0012929972 -0.0016792658 0.004166036 -3.9749943e-05 -0.00022208174 9.718458e-05 0.00027572823
9.803875e-05 -0.00015442225 0.00048346075 0.00013639702 0.00055962487 0.0011203792 7.634867e-05 0.0011203785
-7.6348675e-05 0.0013699946 0.001729338 0.0047953934 0.0027254056 -0.0033173037 0.008339373 -0.00088160054
-0.0017764864 -0.0038770256 -0.0011578673 0.0031517814 -0.007125576 5.7991743e-05 0.00040561546 -0.00027786067
-0.0012446276 -0.00037478044 0.00041941038 -0.0007946175 -0.0001382703 -0.0008755367 -0.0018357857 -9.8563345e-05
-0.0018357848 9.8563345e-05 -0.0015765772 -0.0025611229 -0.00796159 -0.0032613091 0.006067876 -0.014335094
0.0006666776 0.0012365198 0.0026621304 0.0010373767 -0.0020730405 0.00480236 -9.048107e-05 -0.00025708575
0.00016220975 0.0006086768 7.2853e-05 -0.00023972466 0.0005421236 0.00010558238 0.0006171372 0.0012434163
7.1163005e-05 0.0012434137 -7.1163005e-05 0.0012469187 0.0019038032 0.005433978 0.0024506606 -0.004064692
0.009604348 5.3851156e-05 0.00020512403 4.4930668e-05 -0.0008341635 -0.0005045477 0.0004479527 7.807102e-05
8.320875e-05 -0.00034270325 -0.0006003255 -0.00028933637 -0.00024994335 -7.609949e-05 5.6572193e-05 -5.337708e-05
-0.00018039776 4.5886154e-05 -0.0001804002 -4.5886158e-05 0.00012585334 0.00058649026 -0.0001242127 -0.0024776214
-0.0011423157 0.0006617796 0.0005550542 0.0009245168 0.0021738242 0.0012787392 -0.0014213573 0.0037839175
