04-goal-pose-l6/logs/rsl_rl/joint_position/2026-02-18_14-34-58/model_6850.pt (torch, 161397 bytes, 36 tensors)

std f4 [6]
0.101488344 0.024112593 0.0031915798 0.05975937 0.050001886 0.006110137
00000000: 1fd9 cf3d c687 c53c d329 513b 3ec6 743d
00000010: c7ce 4c3d 8b37 c83b

actor.0.weight f4 [64, 25]
-0.04172952 0.27082062 -0.34817678 -0.24777797 -0.33590314 -0.20088093 0.0321734 -0.11498902
0.15733866 -0.13810189 0.06015079 0.024466055 -0.18957508 -0.33345613 -0.4142404 -0.3398071
-0.5015443 -0.13892043 0.5499613 -0.0044500935 0.3259927 -0.4804731 0.084943555 -0.104655504
-0.11406978 0.18199849 0.12788507 -0.3711131 -0.4170801 -0.085541286 -0.42659655 -0.13290703
0.09965133 0.05783607 0.013439236 -0.08867673 -0.05515415 -0.27107015 -0.016289258 -0.40845063
-0.22420587 1.0324692 -0.2928534 -0.9910519 0.08313935 0.14532964 -0.25612146 -0.21617988
0.2076217 -0.24514236 -0.33019102 0.2172428 -0.10151388 0.1572237 -0.24490373 0.12782526
-0.25404587 0.22186042 0.12348307 0.030062765 0.032898135 0.11701094 -0.42283863 -0.11107514
-0.064351134 -0.22637889 0.5612462 -0.30181205 -0.52415496 -0.18220088 -0.28333682 0.00078524667
0.14294735 0.1035242 -0.009311798 0.16633728 0.25350162 -0.08633953 -0.67587024 0.13591568
-0.59456986 0.103333086 0.09140187 -0.07031709 -0.16693527 0.0654843 0.00075158133 -0.36495826
-0.22233984 -0.3347133 -0.34680697 0.5234519 -0.2958813 -0.62172484 0.14003384 0.112712644
-0.19433428 0.1720209 -0.118748054 -0.032510977 -0.21766338 -0.48960066 0.30228814 0.11728299
-0.2959503 0.123062745 0.12278644 0.046004653 -0.0045532733 -0.04097108 -0.016346563 0.06455445
-0.0002281957 0.23508513 -0.7476326 -0.02528218 -1.4779055 0.11429308 1.495829 -0.11199636
0.04999958 -0.098652646 0.042810995 -0.06188576 -0.047513124 0.5346692 -0.5080159 0.18941812
0.22902565 0.8009548 0.12940845 -0.066623986 0.062516995 -0.037039254 0.215396 -0.21317336
-0.008330488 -0.55882144 -0.94490755 -0.35958377 0.058082566 0.9406049 -0.10122405 -0.7880619
0.39064842 0.10647608 -0.1634029 0.016663814 -0.013015967 0.071577735 0.041039646 0.50392956
-0.10500355 -0.12858601 -0.75387824 -0.30614257 -0.1915003 -0.3360722 0.12510088 -0.003922717
0.15618052 0.0732043 -0.17871398 2.3865495 0.8433919 -0.08055724 0.4246854 0.050459992
-0.26511192 -0.27013224 0.24859574 -0.069757424 0.11023054 -0.07411486 0.0057628765 -0.22032177
0.35403246 0.09697746 0.09382634 -0.3879756 -0.32013968 0.056967862 0.109207295 0.07991953
-0.014739999 -0.009682483 -0.22441901 -1.0406353 0.99056035 -0.010241991 0.30303112 -0.021840494
0.029038316 -0.08252982 0.071314104 0.15698232 0.028874746 0.0890568 -0.020852763 -0.05785239
0.20026165 1.057884 -0.30267304 -0.21050653 -0.40760687 0.23979189 -0.09910538 0.060569294
-0.12097489 -0.2673476 0.05232125 0.09800999 -0.15507942 -2.0248504 0.54889584 0.005176536
-1.3748658 0.18777542 1.4510617 0.118933745 0.34134355 -0.09829168 0.18507716 0.045658514
0.083538875 -0.3780308 -0.06670653 0.22619691 -0.24907395 -0.47441086 -0.08759939 -0.113377996
0.09897738 -0.12608829 -0.045315873 -0.032358784 0.07796085 -0.67068887 1.1651782 0.5981897
0.18071674 -1.0011096 0.1510848 1.1129094 -0.097196765 -0.15990187 0.11503277 0.103526615
-0.056141384 -0.17847149 -0.9930961 0.3505997 -0.68578386 0.30628136 -0.9035923 0.46790186
00000000: 93ec 2abd 00a9 8a3e 3a44 b2be 82b9 7dbe
00000010: 7ffb abbe bbb3 4dbe 41c8 033d 5d7f ebbd
00000020: 631d 213e 956a 0dbe ad60 763d 096d c83c
00000030: f81f 42be c3ba aabe 5117 d4be 32fb adbe
00000040: 3565 00bf 2841 0ebe 44ca 0c3f 17d2 91bb
00000050: 84e8 a63e 9200 f6be e3f6 ad3d a055 d6bd
00000060: 6b9d e9bd d05d 3a3e 4ef4 023e 8902 bebe
00000070: 868b d5be 4530 afbd dd6a dabe c818 08be
00000080: ff15 cc3d 84e5 6c3d 3e30 5c3c 259c b5bd
00000090: 51e9 61bd b5c9 8abe 0d71 85bc 7120 d1be
000000a0: 3996 65be f327 843f e1f0 95be 94b5 7dbf
000000b0: f744 aa3d 4bd1 143e 5a22 83be 425e 5dbe
000000c0: c89a 543e 9906 7bbe cc0e a9be e674 5e3e
000000d0: 82e6 cfbd 40ff 203e 0bc8 7abe a0e4 023e
000000e0: 4d12 82be 612f 633e b1e4 fc3d 3046 f63c
000000f0: 32c0 063d 6fa3 ef3d 4e7e d8be 5d7b e3bd
00000100: 87ca 83bd decf 67be d5ad 0f3f 1c87 9abe
00000110: 052f 06bf de92 3abe 8611 91be 03d9 4d3a
00000120: ca60 123e 7f04 d43d 8390 18bc 5254 2a3e
00000130: f7ca 813e c8d2 b0bd d505 2dbf 7b2d 0b3e
00000140: bb35 18bf 4ca0 d33d e730 bb3d 6802 90bd
00000150: 14f1 2abe a21c 863d c505 453a cfdb babe
00000160: 0ead 63be 8b5f abbe af90 b1be f200 063f
00000170: c17d 97be 5c29 1fbf 0865 0f3e e3d5 e63d
00000180: 91ff 46be 3f26 303e 2e32 f3bd 3b2a 05bd
00000190: 26e3 5ebe f0ac fabe 83c5 9a3e 1032 f03d
000001a0: cc86 97be 5208 fc3d 7577 fb3d 606f 3c3d
000001b0: a033 95bb 4bd1 27bd 3ae9 85bc 2035 843d
000001c0: d147 6fb9 28ba 703e da64 3fbf 931c cfbc
000001d0: 022c bdbf 7e12 ea3d 5377 bf3f 595e e5bd
000001e0: 5ccc 4c3d 660a cabd 955a 2f3d ec7b 7dbd
000001f0: 1f9d 42bd 15e0 083f 540d 02bf d3f6 413e
00000200: b385 6a3e 600b 4d3f a683 043e 2872 88bd
00000210: e908 803d 79b6 17bd c590 5c3e 1e4a 5abe
00000220: 997c 08bc ec0e 0fbf 76e5 71bf 5d1b b8be
00000230: fce7 6d3d 7ccb 703f 8e4e cfbd 6dbe 49bf
00000240: 1203 c83e 2210 da3d 1753 27be 8d82 883c
00000250: ec40 55bc 5997 923d 3019 283d 8701 013f
00000260: 1a0c d7bd 0dac 03be 2afe 40bf b8be 9cbe
00000270: a818 44be a811 acbe 721a 003e 238a 80bb
00000280: c9ed 1f3e 23ec 953d cc00 37be 3abd 1840
00000290: 88e8 573f 32fb a4bd 5d70 d93e 23af 4e3d
000002a0: c0bc 87be c64e 8abe e28f 7e3e fbdc 8ebd
000002b0: 8dc0 e13d 88c9 97bd 83d6 bc3b 089c 61be
000002c0: be43 b53e 1e9c c63d 0628 c03d bda4 c6be
000002d0: 59e9 a3be 2257 693d 13a8 df3d daac a33d
000002e0: 0980 71bc 47a3 1ebc 19ce 65be 8a33 85bf
000002f0: 5d95 7d3f 06ce 27bc e526 9b3e d6ea b2bc
00000300: c3e1 ed3c 6505 a9bd 210d 923d f9bf 203e
00000310: bb8a ec3c 6963 b63d 6ad3 aabc a1f6 6cbd
00000320: 6411 4d3e be68 873f f6f7 9abe 068f 57be
00000330: d9b1 d0be 018c 753e c3f7 cabd 8217 783d
00000340: afc1 f7bd c9e1 88be cf4e 563d 76b9 c83d
00000350: 24cd 1ebe 2697 01c0 7084 0c3f ee9f a93b
00000360: 9afb afbf 3348 403e 64bc b93f 8993 f33d
00000370: 95c4 ae3e 264d c9bd de84 3d3e 6c04 3b3d
00000380: 6e16 ab3d 418d c1be 6f9d 88bd 2aa0 673e
00000390: 3e0d 7fbe fbe5 f2be 4f67 b3bd b932 e8bd
000003a0: a7b4 ca3d 4a1d 01be 239d 39bd a58a 04bd
000003b0: f0a9 9f3d 44b2 2bbf 8f24 953f f622 193f
000003c0: cf0d 393e 5c24 80bf f9b5 1a3e d173 8e3f
000003d0: 190f c7bd 51bd 23be 4d96 eb3d c305 d43d
000003e0: 82f4 65bd 3bc1 36be 8c3b 7ebf ce81 b33e
000003f0: 888f 2fbf e9d0 9c3e d351 67bf d590 ef3e

actor.0.bias f4 [64]
-0.2735222 -0.43619063 -0.22681381 -0.51972115 -0.09974019 -0.29666254 -0.07748731 0.12426882
-0.048578247 0.16398622 -0.053607725 -0.23258635 -0.15049525 -0.062382963 0.028819233 -0.14779213
0.061224304 0.19925986 -0.09897715 -0.071562275 0.042083036 -0.06191844 -0.0018600404 -0.20471558
0.04860329 -0.20309725 0.052172836 -0.0060646175 -0.17701453 0.34230667 -0.15538208 -0.29550785
-0.010667814 -0.033675306 0.10961544 0.1972423 0.034514412 -0.4096837 0.15368333 -0.3490845
-0.013129098 -0.06833492 -0.19275887 0.113535814 0.020653944 -0.22928597 0.08809278 -0.039004426
0.009131109 0.15213694 -0.12528376 -0.20752612 -0.23666887 -0.21628241 0.043999843 -0.2528967
0.008914781 -0.18322296 0.13920532 0.027295865 0.13323487 -0.03931006 0.22442056 0.17085834
00000000: 1a0b 8cbe 6154 dfbe e141 68be 720c 05bf
00000010: 9644 ccbd 27e4 97be abb1 9ebd a780 fe3d
00000020: fcf9 46bd 01ec 273e c693 5bbd 1e2b 6ebe
00000030: 6d1b 1abe 4785 7fbd 5016 ec3c d256 17be
00000040: 56c6 7a3d c70a 4c3e 88b4 cabd 3e8f 92bd
00000050: 435f 2c3d 319e 7dbd 99cc f3ba f6a0 51be
00000060: 3e14 473d baf8 4fbe 2fb3 553d b3b9 c6bb
00000070: 4c43 35be d242 af3e 7b1c 1fbe ce4c 97be
00000080: 0ec8 2ebc 1eef 09bd 0f7e e03d e3f9 493e
00000090: fc5e 0d3d 10c2 d1be 2a5f 1d3e 34bb b2be
000000a0: 6e1b 57bc 2ef3 8bbd 9562 45be 7785 e83d
000000b0: 7632 a93c f1c9 6abe fd69 b43d 1bc3 1fbd
000000c0: a69a 153c c9c9 1b3e 634a 00be ba81 54be
000000d0: 5359 72be 2379 5dbe 2e39 343d ad7b 81be
000000e0: 4d0f 123c cd9e 3bbe d78b 0e3e 949b df3c
000000f0: b96e 083e 9603 21bd 81ce 653e 7df5 2e3e

actor.2.weight f4 [64, 64]
0.19687638 0.1561912 -0.0018912324 0.14838015 -0.09037346 -0.034517348 -0.014331275 0.057894897
-0.10130377 -0.19750829 0.08038852 0.059954386 -0.029357485 0.19908895 -0.03043321 0.03212532
-0.13728948 -0.01539334 -0.051909335 -0.08009937 0.05344439 -0.056952637 -0.18645436 -0.0699727
-0.0325003 -0.15119746 0.018966885 0.18079284 0.15058562 -0.053627357 0.0017606557 0.00844058
0.11329638 0.16916102 -0.120320365 0.11666311 0.09878716 0.11456207 0.17734051 0.10887784
0.05056273 0.12708844 -0.019289453 -0.060637828 -0.09537256 0.17082588 -0.17353828 -0.073150635
-0.18550606 -0.23772253 0.015061736 -0.03339354 0.18255512 0.027163217 0.08134996 -0.0012833282
-0.017617626 0.055512372 -0.15994619 -0.06195859 0.020640785 -0.01087257 -0.12240876 0.06569552
-0.05148437 -0.115529165 0.24958621 0.03538237 -0.1301656 0.23631328 0.114558935 0.24336813
-0.013282136 0.116439946 -0.25511745 -0.02021066 0.05723403 0.14909656 -0.12247977 0.026018692
0.025726346 -0.07789937 -0.09807035 -0.119193695 0.16897553 0.122767456 -0.23000462 0.041365087
-0.20337509 -0.0057017123 0.09848311 0.0053761317 0.07653641 0.18534687 -0.1836832 -0.17692637
0.12137803 0.14735548 -0.08890253 0.09160813 -0.0149124665 0.04210069 0.11374369 -0.036992393
0.0044341064 0.08113857 0.012784291 -0.027965276 0.0601176 0.022034626 -0.16116904 -0.07064757
0.34250575 -0.18699117 -0.071649484 -0.08523122 0.015265611 -0.30641747 -0.053699277 0.39527068
-0.0075406 -0.070749044 -0.11495374 0.029374044 -0.38508356 -0.08253706 0.10696364 -0.11311434
0.17703086 0.58711976 -0.22757693 0.33669794 -0.19239917 -0.17211315 0.12681966 0.08820992
-0.13211422 -0.113704704 -0.03407039 0.22540385 -0.24513216 0.33330336 0.22480348 0.06272347
-0.3110277 -0.013004396 -0.04922457 -0.112723425 0.07692648 -0.1301936 -0.022670504 -0.16907224
0.13607989 -0.01899162 0.3457038 0.21636756 0.21850418 0.0029282495 -0.06383177 0.023679083
0.2465589 0.21851343 -0.028973643 -0.020528473 -0.053272102 0.05828645 0.28094307 0.20149833
-0.1985576 0.47267696 -0.26746598 -0.2746266 0.043008387 0.1969387 0.028632915 -0.10308616
-0.1517163 -0.008812421 -0.11170899 -0.10310258 0.25422177 -0.009286337 0.1276283 0.11629933
-0.04071865 0.009398457 0.14471973 0.20818819 0.105238095 -0.011477553 -0.1325473 -0.010906571
0.049453888 0.10056123 -0.15169813 -0.0844998 0.13001688 -0.09688792 -0.3405342 -0.28787163
-0.22458512 -0.43649575 -0.070567325 -0.07793273 0.218311 0.1975146 -0.06946007 -0.07289887
0.17716023 -0.042332783 0.14294407 0.39856598 -0.080042675 -0.0002521477 0.21009606 -0.04270745
0.05503507 0.007250858 -0.058063686 -0.06521023 -0.013548213 -0.25776064 0.20424654 0.09969995
-0.09727486 0.01921136 -0.3408471 0.09236098 -0.0035220901 -0.07996125 -0.027425041 0.037807997
0.18213093 0.16429004 0.14374529 0.030997733 0.13986565 0.13823074 0.2879504 0.21121457
-0.32144397 0.17375304 0.38079587 -0.18746741 0.095041886 0.29940048 -0.14660776 -0.45760638
0.09683604 0.103272185 -0.16488457 -0.09524821 0.57923025 0.07418901 0.21943906 0.17010705
00000000: f699 493e 96f0 1f3e 3be3 f7ba f7f0 173e
00000010: b815 b9bd 1062 0dbd b9cd 6abc 3323 6d3d
00000020: 5a78 cfbd 9d3f 4abe bda2 a43d bb92 753d
00000030: 1c7f f0bc f9dd 4b3e 114f f9bc d795 033d
00000040: 9d95 0cbe 5934 7cbc e29e 54bd 230b a4bd
00000050: 81e8 5a3d 2b47 69bd e4ed 3ebe d94d 8fbd
00000060: 091f 05bd 82d3 1abe 7160 9b3c c221 393e
00000070: 1e33 1a3e 5ca8 5bbd cdc5 e63a 5c4a 0a3c
00000080: ef07 e83d 8c38 2d3e 866a f6bd 12ed ee3d
00000090: ec50 ca3d 859f ea3d c098 353e 58fb de3d
000000a0: dd1a 4f3d 7923 023e ea04 9ebc 5f5f 78bd
000000b0: b052 c3bd fbec 2e3e 05b4 31be 00d0 95bd
000000c0: 4df5 3dbe 896d 73be 80c5 763c aac7 08bd
000000d0: bbef 3a3e 6585 de3c cf9a a63d 5935 a8ba
000000e0: d752 90bc f160 633d efc8 23be 4ac8 7dbd
000000f0: dd16 a93c dd22 32bc 72b1 fabd 5f8b 863d
00000100: 46e1 52bd 8e9a ecbd 8793 7f3e 1bed 103d
00000110: 224a 05be 1cfc 713e e09d ea3d 7f35 793e
00000120: 519d 59bc 1178 ee3d c19e 82be d390 a5bc
00000130: 3b6e 6a3d c5ac 183e acd6 fabd 2725 d53c
00000140: 0fc0 d23c b489 9fbd 1cd9 c8bd d31b f4bd
00000150: ec07 2d3e 816d fb3d 5586 6bbe 706e 293d
00000160: 8f41 50be 6ed5 babb 83b1 c93d 432a b03b
00000170: 1fbf 9c3d 92cb 3d3e 7317 3cbe 302c 35be
00000180: 0b95 f83d 5be4 163e 8812 b6bd 0b9d bb3d
00000190: 6b53 74bc c671 2c3d 74f2 e83d 5685 17bd
000001a0: fb4b 913b fb2b a63d 3475 513c 6f17 e5bc
000001b0: df3d 763d f681 b43c 7f09 25be acaf 90bd
000001c0: ea5c af3e 9d7a 3fbe f7bc 92bd b58d aebd
000001d0: 9d1c 7a3c c0e2 9cbe c6f3 5bbd eb60 ca3e
000001e0: 2317 f7bb e0e4 90bd de6c ebbd d6a1 f03c
000001f0: ac29 c5be 3109 a9bd c10f db3d 7ea8 e7bd
00000200: 9447 353e 7b4d 163f ed09 69be ac63 ac3e
00000210: 4a04 45be 6e3e 30be 03dd 013e 67a7 b43d
00000220: f348 07be 03de e8bd 658d 0bbd 44d0 663e
00000230: ed03 7bbe bda6 aa3e e232 663e 2a75 803d
00000240: 063f 9fbe 6410 55bc b49f 49bd 8adb e6bd
00000250: a18b 9d3d 7951 05be 7eb7 b9bc 4621 2dbe
00000260: 8758 0b3e 5094 9bbc 1700 b13e 758f 5d3e
00000270: 8fbf 5f3e e0e7 3f3b 3bba 82bd a3fa c13c
00000280: f079 7c3e fcc1 5f3e 225a edbc 542b a8bc
00000290: d933 5abd c6bd 6e3d c5d7 8f3e 9455 4e3e
000002a0: af52 4bbe b702 f23e 4df1 88be dc9b 8cbe
000002b0: 9029 303d 4caa 493e 938f ea3c d61e d3bd
000002c0: 855b 1bbe f961 10bc afc7 e4bd 7227 d3bd
000002d0: 5b29 823e b825 18bc feb0 023e 582e ee3d
000002e0: 99c8 26bd fcfb 193c 6931 143e 492f 553e
000002f0: 1287 d73d 590c 3cbc 7bba 07be 79b1 32bc
00000300: 2990 4a3d 0cf3 cd3d c156 1bbe 3b0e adbd
00000310: 2523 053e 2c6d c6bd 805a aebe e963 93be
00000320: a4f9 65be 5f7c dfbe 9a85 90bd 329b 9fbd
00000330: eb8c 5f3e 4441 4a3e 1541 8ebd 014c 95bd
00000340: 7e69 353e 2465 2dbd ee5f 123e d710 cc3e
00000350: 6aed a3bd b132 84b9 6c23 573e 02ee 2ebd
00000360: 746c 613d 9b98 ed3b 30d4 6dbd f18c 85bd
00000370: 53f9 5dbc 34f9 83be 0126 513e 7d2f cc3d
00000380: 0b38 c7bd 2461 9d3c 8383 aebe c127 bd3d
00000390: ded2 66bb b9c2 a3bd 7baa e0bc 8fdc 1a3d
000003a0: 8880 3a3e a63b 283e f731 133e f5ee fd3c
000003b0: f138 0f3e 5c8c 0d3e 3c6e 933e a248 583e
000003c0: 4e94 a4be 51ec 313e adf7 c23e 75f7 3fbe
000003d0: 52a5 c23d 054b 993e 5820 16be 624b eabe
000003e0: f951 c63d 5e80 d33d 80d7 28be 7e11 c3bd
000003f0: 6f48 143f 68f0 973d a2b4 603e 8b30 2e3e

actor.2.bias f4 [64]
-0.19374132 0.025135737 -0.3594484 -0.08879308 0.15691665 -0.24629402 -0.0052850675 -0.3300065
-0.18500113 0.13838717 -0.2236254 0.1500808 -0.15138999 -0.057346344 -0.09159913 -0.016298901
-0.1359982 0.1661327 -0.025724757 -0.32006347 0.24913721 0.086538956 -0.3374413 -0.017600285
0.15526026 -0.08452313 -0.13054915 0.05991383 -0.08122069 -0.08257657 -0.47711968 0.08355592
-0.2943341 0.013575807 -0.49583593 -0.3130301 -0.005047378 -0.10805314 0.2552316 -0.014132954
0.026148157 -0.11833667 -0.011695307 0.052849807 -0.038366992 0.03559416 0.020460771 -0.013641514
0.049314905 -0.04520695 0.16401866 -0.23505685 -0.34108564 -0.029319365 -0.42851228 -0.20013376
-0.05781127 -0.25628716 -0.06535676 -0.071432546 -0.046751086 0.0046036723 0.064910166 -0.21849112
00000000: 2064 46be 76e9 cd3c 9f09 b8be 25d9 b5bd
00000010: c2ae 203e 8034 7cbe 5c2e adbb 9df6 a8be
00000020: f070 3dbe 5eb5 0d3e 0ffe 64be c8ae 193e
00000030: fa05 1bbe 00e4 6abd 5398 bbbd 4685 85bc
00000040: 1d43 0bbe b11e 2a3e babc d2bc 5cdf a3be
00000050: d31d 7f3e 563b b13d 1bc5 acbe 792e 90bc
00000060: 8cfc 1e3e 761a adbd adae 05be 3468 753d
00000070: 0857 a6bd e81d a9bd 0849 f4be 5e1f ab3d
00000080: f6b2 96be 106d 5e3c 35de fdbe 7b45 a0be
00000090: 7a64 a5bb f74a ddbd b7ad 823e e88d 67bc
000000a0: a934 d63c 7f5a f2bd ac9d 3fbc 0a79 583d
000000b0: b526 1dbd 2fcb 113d 599d a73c a880 5fbc
000000c0: 6dfe 493d ec2a 39bd 82f4 273e beb2 70be
000000d0: c7a2 aebe 2a2f f0bc f665 dbbe ddef 4cbe
000000e0: 83cb 6cbd 1238 83be c4d9 85bd 3a4b 92bd
000000f0: 117e 3fbd 67da 963b 9fef 843d 23bc 5fbe

actor.4.weight f4 [6, 64]
-0.080082044 0.09245597 -0.0066192476 0.032799188 0.0012215358 0.19582452 -0.07046808 -0.029920487
0.11980491 0.15273467 -0.10550525 0.14315891 -0.33339185 -0.14423564 0.18036288 0.12898602
-0.07459815 0.033649947 0.010270141 0.0775732 -0.04432636 0.04334262 0.02709962 0.10658741
-0.087920405 0.12057118 0.22549547 0.047420595 -0.11613327 -0.09878275 0.045448963 0.17799632
-0.04436181 -0.04028896 0.07634088 -0.30224738 -0.25735113 0.092297524 -0.02436838 -0.0218532
-0.054090276 -0.1165697 0.22162902 0.105254486 0.19914497 0.1519807 0.069732726 -0.10422643
-0.056628212 0.054288764 0.066776566 -0.07110519 -0.085848905 0.11874479 -0.074750476 -0.07912408
-0.055065155 -0.08118199 0.0010531222 -0.07252761 -0.09864133 -0.11935566 0.0389975 0.20080313
-0.030760704 -0.13074364 -0.036468495 0.35565633 0.040612843 0.15907963 -0.22787248 0.10600808
0.039077386 0.021673415 -0.086435616 -0.20623957 -0.022107536 -0.04998885 -0.23298566 0.018343734
-0.058621563 -0.14586219 -0.046865165 0.02844694 -0.059393346 -0.0061808475 -0.014161497 0.09370204
-0.058901448 -0.20134863 -0.042173274 -0.2176173 -0.13163877 -0.06443313 0.09745367 0.065298095
-0.063429564 -0.03595103 0.079465196 -0.15922877 -0.123134516 -0.08348774 0.047830235 -0.0027017624
-0.16414912 -0.08376218 0.106166765 0.17078516 -0.0116606215 -0.105688736 -0.19370514 -0.05955169
0.08315323 0.036723226 -0.018661393 -0.13085267 0.014917057 -0.14391026 -0.04673137 -0.022615554
-0.04325064 -0.15467829 0.24797499 -0.20840944 -0.14056638 -0.08110574 -0.15842393 0.2080272
-0.03641456 0.017047433 0.02403276 -0.065398104 0.107991 -0.07218092 0.13268147 -0.095243685
0.10201608 0.11372462 0.062427696 -0.06976316 0.04156954 -0.12724547 -0.27149877 0.0325412
-0.25216478 0.04147213 -0.13445467 -0.08178217 0.10767923 -0.122952335 0.13073865 -0.11094706
0.008086584 -0.064868614 -0.10696813 0.070922494 -0.2045433 -0.074249625 -0.24518661 0.036393657
-0.08718064 0.03179411 -0.09125904 0.06960147 0.33073038 0.1346701 0.03452234 -0.014279207
0.029198058 -0.039700493 0.06686426 0.13527839 0.22762501 0.010057617 0.07171417 -0.023436645
0.15626487 0.1351725 0.0571148 -0.05927666 -0.131717 0.06717767 0.0423244 -0.06863397
-0.04690966 -0.12158735 -0.11980607 -0.08202922 -0.12129743 -0.09291873 -0.0727495 0.15187399
-0.11853698 0.03633039 -0.34687462 -0.0040963413 0.16164096 -0.16086426 -0.06547817 -0.35897055
-0.066420354 0.09108993 -0.07537744 0.06274524 -0.05398579 -0.13118239 0.06305916 0.1649359
-0.13321546 -0.10968651 0.009254104 -0.33667147 0.21310484 0.059895094 -0.20015176 0.08877514
0.06918606 -0.07225952 0.047657 -0.005928035 -0.08175367 -0.012292038 -0.37862504 0.1074676
-0.21144661 0.038507767 -0.295922 -0.06057175 0.033398062 -0.04509407 0.21099404 -0.14275366
0.26424995 -0.07034428 0.12936246 0.065779425 -0.035058502 -0.08520027 -0.048947956 -0.0045288117
0.05561777 0.06347921 -0.080120325 -0.10515582 -0.27594742 0.018581662 -0.24195479 -0.15126202
-0.13104533 -0.16268054 0.077900305 0.12327246 0.047625355 -0.044524528 0.10103211 -0.03546281
00000000: 0e02 a4bd 8e59 bd3d 46e6 d8bb 7158 063d
00000010: f11b a03a 3986 483e 9251 90bd cf1b f5bc
00000020: 475c f53d 7a66 1c3e 2313 d8bd 4098 123e
00000030: 56b2 aabe 82b2 13be 0cb1 383e e914 043e
00000040: eac6 98bd 87d4 093d 1844 283c b3de 9e3d
00000050: 8f8f 35bd 0888 313d 0600 de3c 804a da3d
00000060: 9d0f b4bd 06ee f63d 49e8 663e 193c 423d
00000070: 48d7 edbd 9c4e cabd b128 3a3d ab44 363e
00000080: bbb4 35bd 0906 25bd 9b58 9c3d 2bc0 9abe
00000090: 87c3 83be 7c06 bd3d 32a0 c7bc 7b05 b3bc
000000a0: c48d 5dbd 18bc eebd b8f2 623e aa8f d73d
000000b0: a9ec 4b3e d4a0 1b3e 08d0 8e3d ab74 d5bd
000000c0: fcf2 67bd e55d 5e3d 27c2 883d 999f 91bd
000000d0: 8dd1 afbd 7830 f33d c716 99bd ce0b a2bd
000000e0: 008c 61bd be42 a6bd eb08 8a3a 5b89 94bd
000000f0: 7704 cabd be70 f4bd d8bb 1f3d 569f 4d3e
00000100: dffd fbbc a9e1 05be fd5f 15bd 9618 b63e
00000110: a759 263d c5e5 223e 6757 69be c41a d93d
00000120: 9c0f 203d 728c b13c 2805 b1bd 7730 53be
00000130: dd1a b5bc 1cc1 4cbd cb93 6ebe 9945 963c
00000140: 2a1d 70bd e65c 15be b0f5 3fbd 8f09 e93c
00000150: 7046 73bd b588 cabb a005 68bc dbe6 bf3d
00000160: a542 71bd 562e 4ebe e2bd 2cbd 12d7 5ebe
00000170: 50cc 06be 84f5 83bd ca95 c73d 02bb 853d
00000180: 5ce7 81bd 6341 13bd a6be a23d de0c 23be
00000190: f32d fcbd 9ffb aabd a3e9 433d 0d10 31bb
000001a0: b516 28be 818b abbd f66d d93d 4ee2 2e3e
000001b0: 310c 3fbc 5673 d8bd a45a 46be 79ec 73bd
000001c0: 3e4c aa3d 186b 163d c7df 98bc 3efe 05be
000001d0: ac66 743c 365d 13be 6569 3fbd 4144 b9bc
000001e0: 9527 31bd fc63 1ebe 28ed 7d3e 4969 55be
000001f0: a2f0 0fbe c41a a6bd e239 22be 1505 553e
00000200: 6f27 15bd 0fa7 8b3c 5ae0 c43c 71ef 85bd
00000210: 632a dd3d 97d3 93bd a7dd 073e 1f0f c3bd
00000220: ceed d03d 74e8 e83d 2fb4 7f3d fddf 8ebd
00000230: d244 2a3d a34c 02be e301 8bbe ec49 053d
00000240: be1b 81be aede 293d 7cae 09be 697d a7bd
00000250: ee86 dc3d 6fce fbbd 5ae0 053e 3638 e3bd
00000260: 977d 043c d6d9 84bd 1b12 dbbd d03f 913d
00000270: cd73 51be 3010 98bd 3312 7bbe 8411 153d
00000280: c38b b2bd 8a3a 023d 05e6 babd 378b 8e3d
00000290: 7e55 a93e f5e6 093e 4c67 0d3d 56f3 69bc
000002a0: c430 ef3c fc9c 22bd 21f0 883d 6b86 0a3e
000002b0: 8816 693e b4c8 243c e1de 923d 35fe bfbc
000002c0: e603 203e a96a 0a3e 35f1 693d 15cc 72bd
000002d0: d2e0 06be 7294 893d 5a5c 2d3d f88f 8cbd
000002e0: 5824 40bd ca02 f9bd e35c f5bd f0fe a7bd
000002f0: c96a f8bd 2d4c bebd b1fd 94bd db84 1b3e
00000300: 84c3 f2bd 2dcf 143d 8d99 b1be 9a3a 86bb
00000310: 3585 253e 9ab9 24be 6b19 86bd fdca b7be
00000320: 6507 88bd 5b8d ba3d 7d5f 9abd 9480 803d
00000330: 3420 5dbd ad54 06be 2925 813d f5e4 283e
00000340: a269 08be 52a3 e0bd 879e 173c 3460 acbe
00000350: 2838 5a3e 8f54 753d 95f4 4cbe becf b53d
00000360: 6cb1 8d3d cdfc 93bd fd33 433d f63f c2bb
00000370: 786e a7bd 8b64 49bc 24db c1be f917 dc3d
00000380: 7685 58be 52ba 1d3d 1783 97be 151a 78bd
00000390: 68cc 083d 8fb4 38bd d20e 583e 042e 12be
000003a0: c54b 873e a910 90bd 9877 043e 5db7 863d
000003b0: 8199 0fbd 7b7d aebd a77d 48bd 6d66 94bb
000003c0: 75cf 633d 6301 823d 2016 a4bd ef5b d7bd
000003d0: fb48 8dbe 9238 983c ffc2 77be 6ee4 1abe
000003e0: bf30 06be ba95 26be 328a 9f3d 4676 fc3d
000003f0: ce12 433d 5a5f 36bd ece9 ce3d 7441 11bd

actor.4.bias f4 [6]
-0.20486476 -0.01474238 0.11643839 0.3106566 0.0723006 0.2598001
00000000: 11c8 51be 068a 71bc 4077 ee3d 620e 9f3e
00000010: 5612 943d 8504 853e

critic.0.weight f4 [64, 25]
0.17728351 0.07540273 0.08408924 -0.13496365 0.079162665 -0.08786605 -0.023122663 -0.059200097
0.03399189 -0.07071304 0.035349697 -0.05019847 -0.040210538 0.18601795 -0.19146867 -0.14178702
0.9511896 -0.024938222 -0.8662258 0.05192432 -0.041718062 -0.13806005 0.060565166 -0.0795414
0.05629613 0.29058194 -0.1411563 -0.24437675 -0.19648771 -0.11186912 0.0004015519 0.119469486
0.20375259 -0.18038535 -0.138674 -0.056070276 0.13234155 -0.12287686 0.46783113 -0.060622957
0.033224843 0.111786805 0.0060226554 -0.26327735 -0.058850087 -0.08839421 0.10208712 -0.07084071
-0.15069929 0.10943622 -0.15989274 -0.010871791 -0.012264887 0.06106791 0.07486052 0.17315802
0.007447843 0.06066784 0.019681461 -0.037856854 -0.07031289 0.048011012 0.26612788 -0.6857085
-0.22988978 0.21462053 -0.36213169 -0.10058499 0.1161724 -0.06629604 -0.04809105 0.09249296
-0.038277615 0.03297032 -0.03320883 -0.25028992 0.0020839968 0.02133917 0.13371333 -0.21377738
-0.11425913 0.2052736 -0.28574452 0.13590524 -0.1314294 0.096721016 0.042911846 0.2688742
-0.40252838 0.18319388 -0.18489003 0.063705124 0.16534804 0.107754126 0.058156047 0.19115075
0.06307005 0.11501435 -0.097911306 -0.115453824 0.1969932 -0.07296802 0.2129892 -0.20543593
-0.07916469 -0.19658811 0.10949084 0.070662536 -0.02450679 -0.113463715 0.008111105 -0.06899141
-0.15480556 1.0209701 0.4131885 0.058396406 0.2184629 0.04069447 -0.14848278 -0.10142708
0.16266592 0.05034796 0.13070302 0.028434288 -0.025875906 -0.39674348 -0.14370465 0.041777972
-0.024495061 0.02273383 0.20338137 -0.084839374 0.065801196 0.037946206 -0.06662058 -0.07169132
-0.025596978 -0.023688141 -0.32457 -0.2650138 -0.09444684 -0.5540335 0.040759664 0.4505761
-0.044636283 0.05138008 0.065041274 -0.006659287 0.026746709 -0.031647567 0.16836429 0.19353016
-0.13838795 -0.060119327 0.13385804 0.044907086 -0.09173714 0.07522367 0.00048853 -0.077238694
0.06807564 0.12815636 -0.14277071 0.5578407 0.17176068 0.003095439 0.5327294 -0.14546311
-0.35654917 0.044292744 0.03402301 0.06126692 0.06909503 0.04008832 -0.11882967 -0.26473123
-0.15985118 -0.30755678 0.11347665 0.14758573 0.03169638 0.015225015 -0.05277454 0.031849857
0.17379703 0.05488132 -0.016195279 0.046606388 0.93902475 -0.44925 0.1923528 0.1612825
-0.12757967 -0.20322576 -0.17875932 -0.08166934 0.04437389 0.07050094 -0.066023625 -0.09472954
0.2241857 -0.1958925 0.04774667 -0.10763363 0.05746586 -0.060600214 0.04689701 -0.11166307
0.10195303 -0.1541702 0.09369441 -0.026739586 -0.009128838 -0.20325139 -0.34652862 -0.13716826
0.14508972 0.12212661 0.019552704 -0.03067711 0.099432856 -0.11860301 0.1512598 -0.19148013
0.07740465 -0.17875625 -0.13819066 0.052281745 -0.107430935 0.079824865 -0.11801528 -0.0012523332
0.018245377 0.0680418 -0.047641326 0.007740321 -0.00228172 0.3618637 4.6249156 -0.7848256
-0.25188076 0.6568612 -0.26215515 -0.5235829 -0.06525789 0.019880677 0.019869851 0.060684055
-0.014357401 0.022196464 0.12804085 -0.110530995 -0.18949729 -0.08571041 0.08393803 0.028698122
00000000: cf89 353e bf6c 9a3d fb36 ac3d e933 0abe
00000010: 0920 a23d 1ef3 b3bd bd6b bdbc cd7b 72bd
00000020: 143b 0b3d 00d2 90bd d8ca 103d e99c 4dbd
00000030: ceb3 24bd 7d7b 3e3e 5d10 44be 9e30 11be
00000040: 2981 733f 3e4b ccbc f9c0 5dbf 99ae 543d
00000050: 8fe0 2abd 9d5f 0dbe 2e13 783d 9ae6 a2bd
00000060: c596 663d 28c7 943e 478b 10be e63d 7abe
00000070: 1334 49be a31b e5bd 6287 d239 6bac f43d
00000080: 85a4 503e f0b6 38be 8f00 0ebe f2a9 65bd
00000090: 8b84 073e dda6 fbbd 9087 ef3e c74f 78bd
000000a0: c616 083d 7bf0 e43d b259 c53b 4acc 86be
000000b0: ca0c 71bd 0608 b5bd 0d13 d13d ef14 91bd
000000c0: ea50 1abe 1920 e03d ecba 23be 991f 32bc
000000d0: aaf2 48bc 5822 7a3d 7950 993d 5650 313e
000000e0: 090d f43b d77e 783d 043b a13c ca0f 1bbd
000000f0: 3400 90bd 32a7 443d ea41 883e 988a 2fbf
00000100: 3a68 6bbe 7cc5 5b3e 5369 b9be 81ff cdbd
00000110: cceb ed3d 38c6 87bd 1ffb 44bd f36c bd3d
00000120: fdc8 1cbd e30b 073d fb05 08bd 0026 80be
00000130: aa93 083b 7ccf ae3c 26ec 083e 75e8 5abe
00000140: b100 eabd 3e33 523e 1b4d 92be be2a 0b3e
00000150: 6e95 06be ab15 c63d 55c4 2f3d e1a9 893e
00000160: 3318 cebe 2d97 3b3e d053 3dbe d577 823d
00000170: ff50 293e 32ae dc3d 0935 6e3d 06bd 433e
00000180: df2a 813d a58c eb3d b985 c8bd 0e73 ecbd
00000190: 96b8 493e 4270 95bd d719 5a3e cc5d 52be
000001a0: 1921 a2bd 654e 49be bc3c e03d 85b7 903d
000001b0: 77c2 c8bc aa5f e8bd 71e4 043c 5e4b 8dbd
000001c0: 5985 1ebe 26af 823f 718d d33e 1231 6f3d
000001d0: bdb4 5f3e 3faf 263d df0b 18be 00b9 cfbd
000001e0: e591 263e aa39 4e3d 03d7 053e 06ef e83c
000001f0: b5f9 d3bc f621 cbbe 5027 13be 611f 2b3d
00000200: dea9 c8bc 4c3c ba3c 3543 503e 44c0 adbd
00000210: c7c2 863d 7b6d 1b3d 5f70 88bd e6d2 92bd
00000220: c1b0 d1bc a20d c2bc 0a2e a6be e4af 87be
00000230: 586d c1bd 24d5 0dbf 9bf3 263d e9b1 e63e
00000240: 89d4 36bd eb73 523d 5c34 853d 2636 dabb
00000250: ea1b db3c e1a0 01bd b067 2c3e c52c 463e
00000260: 92b5 0dbe af3f 76bd 1512 093e 7ef0 373d
00000270: afe0 bbbd de0e 9a3d b110 003a 522f 9ebd
00000280: 3e6b 8b3d 6c3b 033e 7c32 12be a6ce 0e3f
00000290: 08e2 2f3e d9dc 4a3b f460 083f 48f4 14be
000002a0: 9d8d b6be 4f6c 353d b65b 0b3d 06f3 7a3d
000002b0: b281 8d3d a633 243d f85c f3bd da8a 87be
000002c0: 07b0 23be 1578 9dbe 7266 e83d b720 173e
000002d0: 10d4 013d 5772 793c 1e2a 58bd ff74 023d
000002e0: d9f7 313e 3ccb 603d f6ab 84bc 57e6 3e3d
000002f0: ed63 703f 1904 e6be 22f8 443e 3d27 253e
00000300: 3fa4 02be 6a1a 50be af0c 37be 4142 a7bd
00000310: 65c1 353d cc62 903d 6537 87bd 9001 c2bd
00000320: f090 653e 0b98 48be 0392 433d 056f dcbd
00000330: 5261 6b3d ee37 78bd 1417 403d 9caf e4bd
00000340: c0cc d03d cbde 1dbe dbe2 bf3d fa0c dbbc
00000350: 1f91 15bc 2221 50be 336c b1be d675 0cbe
00000360: 6692 143e 841d fa3d fe2c a03c 904e fbbc
00000370: 74a3 cb3d 23e6 f2bd d9e3 1a3e 5e13 44be
00000380: 5486 9e3d e10b 37be da81 0dbe 6225 563d
00000390: c004 dcbd 387b a33d ffb1 f1bd 5425 a4ba
000003a0: 5477 953c 8059 8b3d 8d23 43bd 85a2 fd3b
000003b0: e988 15bb 3346 b93e 4fff 9340 55ea 48bf
000003c0: 84f6 80be 0e28 283f 3339 86be 8709 06bf
000003d0: eea5 85bd cddc a23c 19c6 a23c d88f 783d
000003e0: 4e3b 6bbc 5cd5 b53c 241d 033e 135e e2bd
000003f0: 940b 42be f088 afbd b4e7 ab3d 5318 eb3c

critic.0.bias f4 [64]
0.18049508 0.23516287 -0.15243864 -0.006527439 0.021945857 -0.17572065 0.14177573 -0.1274293
-0.014255793 0.07829727 0.14570834 0.079635404 -0.16704716 -0.038659535 0.046316385 -0.022118399
-0.19214791 0.041438233 0.01731381 0.08292263 0.17031328 0.07969483 0.077723116 0.1573063
-0.0011566286 -0.014546818 -0.058142718 -0.012992801 0.0743657 0.1605906 0.018715989 -0.10640139
-0.014341586 -0.10833376 0.25598055 -0.09117367 0.046880823 -0.10422889 -0.02958978 0.12661299
-0.16541854 -0.15485644 -0.0696091 0.13300958 -0.017478893 0.009021083 -0.13467965 0.1169447
0.0102792485 0.15309069 0.02843464 -0.011043618 -0.08616817 -0.10655246 0.17457505 0.042310502
-0.11743578 0.08578497 -0.13474596 0.10370502 -0.14635682 0.0013312668 0.005883182 0.037971668
00000000: b4d3 383e 89ce 703e e018 1cbe 21e4 d5bb
00000010: ccc7 b33c 1df0 33be a82d 113e d47c 02be
00000020: 2191 69bc 525a a03d 9134 153e e317 a33d
00000030: 690e 2bbe 7659 1ebd 40b6 3d3d a531 b5bc
00000040: 6cc2 44be 23bb 293d b1d5 8d3c 57d3 a93d
00000050: 9b66 2e3e 0b37 a33d 4c2d 9f3d e714 213e
00000060: 049a 97ba c755 6ebc 0f27 6ebd c2df 54bc
00000070: 0b4d 983d dd71 243e 4652 993c f9e8 d9bd
00000080: f9f8 6abc 17de ddbd e20f 833e 43b9 babd
00000090: 1b06 403d f575 d5bd 4466 f2bc d6a6 013e
000000a0: 7a63 29be b092 1ebe 378f 8ebd aa33 083e
000000b0: e52f 8fbc 2acd 133c 76e9 09be b480 ef3d
000000c0: 4b6a 283c cec3 1c3e c3ef e83c 4bf0 34bc
000000d0: f078 b0bd 2d38 dabd cdc3 323e c74d 2d3d
000000e0: 2c82 f0bd 08b0 af3d d8fa 09be 4c63 d43d
000000f0: 90de 15be e77d ae3a b5c7 c03b 2e88 1b3d

critic.2.weight f4 [64, 64]
-0.107043974 -0.03189579 -0.20106122 0.04368057 0.0542643 -0.1447416 0.07529516 0.05720418
-0.011645612 -0.12973545 0.09494476 0.019037666 -0.04044734 0.1084896 -0.013999162 -0.09272407
-0.05758877 -0.038190182 -0.020059375 -0.06676246 0.096651085 0.13962516 0.09465712 0.010482277
0.02637409 0.03993059 0.09223662 0.037167583 -0.09036983 0.040187966 0.06017451 -0.11060619
0.12650871 0.09326406 -0.03293312 0.06571312 -0.12839548 0.052105058 -0.016375931 0.09447517
-0.18368563 -0.016837016 -0.06619596 -0.10055855 0.03475902 -0.15216829 0.011049069 0.12930168
-0.018122291 0.08842353 0.121241786 -0.01912123 0.08801886 0.11217397 -0.04728461 -0.018035369
0.0061052917 -0.06702552 0.06783285 -0.082902856 0.008771678 0.10111235 -0.029475985 0.018664518
-0.016324539 0.040105727 0.024283117 -0.0029133833 -0.06567385 0.15062806 -0.032461893 -0.04615744
-0.0583515 0.04489499 0.16755652 -0.08778429 0.09108675 -0.03811544 0.016976526 -0.0663826
0.03439376 0.06652568 0.09705935 -0.047109682 -0.010075493 0.06931343 -0.040643588 0.13342458
0.16125308 0.10886029 -0.11264434 0.042654432 -0.08238964 0.11922567 -0.07038515 0.11921324
0.005448352 -0.124753065 -0.047067825 -0.105678245 -0.11224295 0.047930673 -0.0691294 -0.048625786
-0.02111335 0.05657277 0.07187155 0.018476782 -0.003123009 -0.008088209 -0.010189093 -0.08231063
-0.1638011 -0.055921208 -0.0031914313 0.086870015 0.102457605 -0.015876262 -0.124693125 -0.10518632
0.121475965 0.02789142 0.11550658 -0.09048303 -0.14773172 0.083636746 -0.080347285 0.054809634
0.10465409 -0.024818042 -0.08155315 0.015332945 -0.048198037 0.004961466 -0.08956126 0.08924958
-0.035772197 0.0010547831 -0.01809428 0.009333965 -0.12994556 -0.0405306 0.054822814 -0.066298746
0.10889603 0.0054988246 0.045495685 -0.12614465 -0.036416516 0.14917348 0.005103453 0.029166242
0.12007352 0.053374585 -0.07663599 0.005436073 -0.024986474 0.106222264 0.05062555 0.09780847
0.032419346 -0.056378543 0.0016231725 -0.10283634 0.1370835 -0.018302599 0.048445713 0.07429575
-0.023275902 0.099355355 -0.0015430284 0.007846417 0.058681555 -0.06912925 0.07363155 -0.066764064
-0.16119371 0.09625016 -0.079158746 0.0954581 0.0034807909 -0.016446272 0.06947896 0.11558976
-0.031381417 0.077287294 0.13181953 -0.02002394 0.06684894 -0.11684481 -0.06715165 0.1301116
0.0651904 -0.0034488146 0.08315954 -0.034217052 0.11033555 0.13562009 0.017378462 0.09849885
-0.04243094 -0.025735699 -0.15459628 -0.09834646 0.07098836 -0.08541361 -0.018519608 -0.065913744
0.113747224 0.023569798 -0.024910333 -0.068134986 -0.015400876 -0.038287893 -0.13193408 -0.1136488
-0.08097714 0.09071084 0.038659282 0.057286937 0.08260965 -0.11971725 0.02872463 -0.07303955
0.06392753 -0.015000116 0.07774776 -0.017214341 -0.093486406 0.023726767 -0.019363252 0.1144462
-0.14109091 -0.027138086 -0.07989089 0.10646137 0.0011400748 -0.08088304 0.05270296 0.088314064
-0.09979175 0.042985253 -0.10636256 -0.113431886 0.114628464 0.10121549 0.08026058 -0.081625745
-0.016406 -0.042163916 -0.06960741 -0.027345693 -0.025149245 -0.016602302 -0.019235477 -0.004315883
00000000: df39 dbbd 29a5 02bd fee2 4dbe 66ea 323d
00000010: 3e44 5e3d 2437 14be 5934 9a3d ee4e 6a3d
00000020: 3dcd 3ebc 5fd9 04be 6672 c23d e1f4 9b3c
00000030: 1cac 25bd cc2f de3d be5c 65bc 1ee6 bdbd
00000040: 34e2 6bbd 4f6d 1cbd 8f53 a4bc c2ba 88bd
00000050: 01f1 c53d e6f9 0e3e 98db c13d dbbd 2b3c
00000060: 7a0e d83c 428e 233d 8ee6 bc3d 093d 183d
00000070: d113 b9bd 239c 243d 8c79 763d 8085 e2bd
00000080: 808b 013e 3a01 bf3d e1e4 06bd 9a94 863d
00000090: 1b7a 03be 1d6c 553d d126 86bc 337c c13d
000000a0: 1618 3cbe c8ed 89bc bf91 87bd a4f1 cdbd
000000b0: 795f 0e3d 01d2 1bbe 2807 353c a967 043e
000000c0: 3375 94bc 6517 b53d 9d4d f83d 20a4 9cbc
000000d0: 3b43 b43d 77bb e53d 82ad 41bd e9be 93bc
000000e0: e60e c83b ad44 89bd f3eb 8a3d f9c8 a9bd
000000f0: 16b7 0f3c fe13 cf3d 9f77 f1bc 55e6 983c
00000100: 0abb 85bc e745 243d 63ed c63c 76ee 3ebb
00000110: 0380 86bd 3e3e 1a3e c3f6 04bd 950f 3dbd
00000120: fc01 6fbd cfe3 373d f093 2b3e 40c8 b3bd
00000130: b18b ba3d f01e 1cbd 5b12 8b3c 9af3 87bd
00000140: 79e0 0c3d 9e3e 883d 0dc7 c63d 15f6 40bd
00000150: ae13 25bc 33f4 8d3d e479 26bd 74a0 083e
00000160: 871f 253e 25f2 de3d 13b2 e6bd 6ab6 2e3d
00000170: e6bb a8bd 972c f43d 1726 90bd 1226 f43d
00000180: 1788 b23b 897e ffbd 31ca 40bd d66d d8bd
00000190: a2df e5bd f452 443d b793 8dbd d52b 47bd
000001a0: e7f5 acbc d9b8 673d 6431 933d 9f5c 973c
000001b0: 66ab 4cbb 6884 04bc 27f0 26bc 7a92 a8bd
000001c0: 7abb 27be a30d 65bd 5527 51bb e8e8 b13d
000001d0: 4bd5 d13d ef0e 82bc 1c5f ffbd ed6b d7bd
000001e0: 64c8 f83d 8c7c e43c b78e ec3d 2b4f b9bd
000001f0: fc46 17be be49 ab3d 1e8d a4bd 1180 603d
00000200: e254 d63d 354f cbbc 5705 a7bd 0837 7b3c
00000210: 4e6b 45bd cb93 a23b e56b b7bd 7cc8 b63d
00000220: de85 12bd a640 8a3a 753a 94bc 7ded 183c
00000230: 7310 05be 6a03 26bd e38d 603d a3c7 87bd
00000240: e204 df3d 7c2f b43b af59 3a3d 102c 01be
00000250: 7c29 15bd efc0 183e de3a a73b 0bee ee3c
00000260: 1be9 f53d 4f9f 5a3d 54f3 9cbd 1621 b23b
00000270: 6fb0 ccbc 0f8b d93d bd5c 4f3d cf4f c83d
00000280: 26ca 043d 30ed 66bd a2c0 d43a dc9b d2bd
00000290: 9e5f 0c3e 55ef 95bc 036f 463d 5f28 983d
000002a0: 1bad bebc d27a cb3d 713f caba 428e 003c
000002b0: 125c 703d a393 8dbd 23cc 963d 99bb 88bd
000002c0: f70f 25be ce1e c53d fb1d a2bd 897f c33d
000002d0: fb1d 643b 55ba 86bc fc4a 8e3d 53ba ec3d
000002e0: cd89 00bd cd48 9e3d b3fb 063e 3f09 a4bc
000002f0: 19e8 883d 554c efbd ce86 89bd fa3b 053e
00000300: 8b82 853d 8205 62bb 8d4f aa3d 2e27 0cbd
00000310: 9bf7 e13d fedf 0a3e 475d 8e3c c4b9 c93d
00000320: 11cc 2dbd acd3 d2bc 7d4e 1ebe de69 c9bd
00000330: 5862 913d 55ed aebd 6fb6 97bc c9fd 86bd
00000340: 4ef4 e83d 7315 c13c c110 ccbc 5b8a 8bbd
00000350: f553 7cbc c4d3 1cbd ba19 07be b4c0 e8bd
00000360: 58d7 a5bd 9bc6 b93d 3259 1e3d b5a5 6a3d
00000370: 402f a93d 512e f5bd ea4f eb3c c295 95bd
00000380: 70ec 823d 0cc3 75bc 383a 9f3d 1705 8dbc
00000390: cd75 bfbd a35e c23c af9f 9ebc c562 ea3d
000003a0: 237a 10be b150 debc d69d a3bd 6b08 da3d
000003b0: 906e 953a 02a6 a5bd 0fdf 573d 01de b43d
000003c0: 9e5f ccbd 4e11 303d 9dd4 d9bd fa4e e8bd
000003d0: 54c2 ea3d 114a cf3d a95f a43d 662b a7bd
000003e0: e065 86bc 12b4 2cbd 548e 8ebd 1304 e0bc
000003f0: ca05 cebc 8d01 88bc b893 9dbc 406c 8dbb

critic.2.bias f4 [64]
-0.06565759 0.027547168 -0.115074985 -0.033730663 -0.08217878 -0.06535216 0.07028237 -0.09690952
-0.06711326 0.06802571 -0.11450163 -0.03743345 0.014877321 -0.054627515 0.06121693 -0.20026088
-0.052883334 0.055160444 0.046438966 0.02812946 -0.081033505 -0.04386287 -0.15081914 -0.06561238
0.038535837 -0.09086603 0.041740544 -0.07600891 0.14162076 0.024005938 0.014002715 -0.08441909
0.12248218 -0.091517285 0.06917579 0.0229264 -0.010285389 -0.013946731 0.07392526 0.11871827
-0.13611814 0.039681584 -0.014554531 -0.108709045 -0.09212656 -0.1185552 0.11147385 -0.12870096
-0.024114866 -0.12101407 0.0025568586 -0.03591357 0.036137685 -0.066161536 -0.124595776 -0.045441907
-0.08724662 0.004903608 -0.026246913 -0.16393293 0.050501876 0.030936575 0.060129937 0.011007223
00000000: 7d77 86bd 99aa e13c 6fac ebbd 2a29 0abd
00000010: 594d a8bd 5ad7 85bd 34f0 8f3d 8078 c6bd
00000020: ad72 89bd 1051 8b3d d57f eabd d153 19bd
00000030: 02c0 733c 1ac1 5fbd 9bbe 7a3d 3011 4dbe
00000040: 329c 58bd ebef 613d c936 3e3d c16f e63c
00000050: e5f4 a5bd 8ea9 33bd 5570 1abe c95f 86bd
00000060: c1d7 1d3d f817 babd 22f8 2a3d 8faa 9bbd
00000070: 0805 113e 1aa8 c43c a56b 653c eae3 acbd
00000080: f0d7 fa3d 6a6d bbbd 09ac 8d3d 25d0 bb3c
00000090: 0c84 28bc d480 64bc 2066 973d 9022 f33d
000000a0: 8e62 0bbe 2889 223d 2176 6ebc d9a2 debd
000000b0: daac bcbd 12cd f2bd 674c e43d 2fca 03be
000000c0: 8a8c c5bc 3ad6 f7bd f890 273b 1c1a 13bd
000000d0: 1c05 143d b37f 87bd 122c ffbd 4b21 3abd
000000e0: 5bae b2bd 72ae a03b c403 d7bc 09de 27be
000000f0: 0edb 4e3d b36e fd3c cf4a 763d a457 343c

critic.4.weight f4 [1, 64]
0.064855635 0.033653587 0.03132447 0.007549464 -0.111820534 -0.05575861 0.09510411 -0.041540977
-0.05459978 0.008139062 0.05283853 0.0098599065 -0.020480838 -0.024251195 -0.100143254 0.12207439
-0.07664927 0.0033425598 0.10699825 -0.04676964 -0.055764474 -0.06292279 -0.02838484 -0.03274142
-0.010916286 -0.0649937 -0.024543675 0.0052454756 -0.06476049 -0.06600051 0.016596429 -0.13671255
-0.05115682 0.011939186 0.030337289 -0.079435766 -0.012067369 0.051532652 0.040195093 -0.017241022
-0.017679125 -0.09574951 -0.1032061 -0.15375657 0.18679614 -0.06628087 -0.041690428 -0.06984766
0.04681832 0.07714893 -0.0065332153 -0.034259688 -0.048610497 -0.04928706 -0.07648195 0.10058179
-0.07330931 0.06059439 0.051999275 0.001964495 0.06059749 -0.012635811 0.06690532 -0.08001017
00000000: 08d3 843d 58d8 093d 164e 003d 7e61 f73b
00000010: 2a02 e5bd 2463 64bd f2c5 c23d df26 2abd
00000020: 05a4 5fbd b359 053c 376d 583d 728b 213c
00000030: 6ec7 a7bc 71aa c6bc e817 cdbd 2302 fa3d
00000040: 4bfa 9cbd d90e 5b3b e621 db3d 8691 3fbd
00000050: 4a69 64bd aadd 80bd 5387 e8bc de1b 06bd
00000060: 39da 32bc 6b1b 85bd d10f c9bc 3de2 ab3b
00000070: 26a1 84bd 462b 87bd 3cf5 873c 60fe 0bbe
00000080: d089 51bd 939c 433c e885 f83c 38af a2bd
00000090: 37b6 45bc e713 533d 9ca3 243d 0b3d 8dbc
000000a0: d0d3 90bc 5218 c4bd b85d d3bd 5d72 1dbe
000000b0: 7d47 3f3e 44be 87bd 95c3 2abd 4a0c 8fbd
000000c0: 91c4 3f3d 4200 9e3d 9514 d6bb e353 0cbd
000000d0: cd1b 47bd 3ae1 49bd 92a2 9cbd d3fd cd3d
000000e0: 3123 96bd d331 783d 31fd 543d c2be 003b
000000f0: 1335 783d 6f06 4fbc a805 893d 5fdc a3bd

exp_avg f4 [6]
-0.00014548881 -0.00047025896 0.00082012767 0.00031166835 -0.00011696476 0.0015256328
00000000: 5b8e 18b9 178d f6b9 d6fd 563a 6b67 a339
00000010: fa4a f5b8 bef7 c73a

exp_avg_sq f4 [6]
9.736248e-07 1.9218216e-05 0.0009341302 2.8621166e-06 3.686677e-06 0.00027111167
00000000: 7ead 8235 ce36 a137 6be0 743a ca12 4036
00000010: a168 7736 fe23 8e39

exp_avg f4 [64, 25]
6.545796e-06 4.294626e-05 6.361713e-05 -9.19879e-05 -9.3751216e-05 0.00016156524 6.282189e-06 -1.7392199e-06
2.908299e-05 3.8141174e-05 2.4264638e-05 4.319092e-05 7.694977e-06 4.83198e-06 9.3845265e-06 1.5998537e-05
2.2003992e-06 1.5998543e-05 -2.200408e-06 3.1894717e-05 7.694795e-05 0.00014675272 -0.0001661725 -0.00018245206
0.0003564402 -1.0879722e-06 -3.0794818e-06 -4.522918e-06 -9.746863e-07 2.2713443e-06 -6.954773e-06 4.1476632e-08
8.315071e-07 1.7044722e-07 1.0381724e-06 2.0988223e-07 3.4813326e-07 -9.682693e-07 1.6156091e-06 -1.4198615e-06
-2.6824482e-06 -8.7893845e-08 -2.6824478e-06 8.789392e-08 -1.1457247e-06 -4.4618882e-06 -7.937497e-06 -1.5838123e-06
4.434173e-06 -1.3517749e-05 -3.2347863e-05 0.00042214553 0.0006499521 -0.0007438805 -0.0009139868 0.001600115
7.26549e-05 -5.456772e-06 4.6466237e-05 4.4269178e-05 5.4722685e-05 0.00010944693 7.007741e-05 -8.817668e-06
0.00011344906 0.00018857594 2.5013647e-05 0.00018857601 -2.5013751e-05 9.648088e-05 0.00078949577 0.0013100107
-0.0017074458 -0.0018348194 0.0031985326 -6.70777e-06 1.8457098e-05 1.2102128e-05 -9.9029436e-05 -5.6916935e-05
6.498348e-05 -5.566312e-06 6.1340575e-06 1.184213e-05 6.1536875e-06 -3.235052e-06 2.077783e-05 -1.1050423e-06
1.5756984e-06 -1.5988021e-06 -3.5992985e-06 -1.6107729e-06 -3.5992966e-06 1.6107656e-06 -1.0090482e-05 3.7500213e-05
3.2039294e-05 -0.00019944232 -0.000114620394 0.00014631521 0.0008635861 0.0026185277 0.004500117 -0.0013120311
-0.004105469 0.008817575 0.0002536297 -2.1752765e-05 0.0005003505 0.0008673503 -8.104039e-05 0.00074361
0.0007432414 0.00015628035 0.00086131133 0.0016273545 9.847227e-05 0.0016273544 -9.847264e-05 0.0019337886
0.004436809 0.009226529 -0.002792011 -0.008194514 0.018041797 9.9689976e-05 0.0013613636 0.0020252254
-0.0024469872 -0.002668137 0.0046730326 -5.098975e-06 -0.00012900017 7.678231e-05 0.00050081935 -1.4536218e-05
0.00022455724 0.00021626549 1.09669145e-05 0.0003085065 0.0005130148 1.3468645e-05 0.0005130148 -1.3468953e-05
0.0002596637 0.0023277856 0.004051741 -0.0050886488 -0.005356588 0.009326528 -0.00052481645 -0.0014379324
-0.002543851 0.00021292643 0.0020749602 -0.0048746383 -0.00014365237 4.8597274e-05 -0.00032565717 -0.00032323427
0.00014017674 -0.00037910236 -0.00043545853 -0.000107392436 -0.00052775536 -0.0010030289 -9.6132855e-05 -0.0010030289
9.613297e-05 -0.0011785273 -0.0024715513 -0.005209081 0.00046228737 0.004181906 -0.009960848 0.00013903865
0.0026098979 0.003828664 -0.0048385565 -0.005108714 0.008833824 9.949728e-05 -0.000119703705 0.0007708321
0.001149728 -2.432825e-05 0.0010488108 0.00044147132 1.43347825e-05 0.000596953 0.0010423821 7.925272e-05
0.0010423822 -7.9253216e-05 0.00035812147 0.0043798313 0.008029945 -0.009314802 -0.010217058 0.018445358
-0.00047897626 -0.0016093666 -0.0028993343 0.0001889026 0.0023846154 -0.0054309154 -0.00012800086 2.5133217e-05
-0.0005375354 -0.0008653598 -1.2740129e-05 -0.00036113308 -0.0005254302 -6.561956e-05 -0.0006068973 -0.001155659
-9.9450444e-05 -0.0011556589 9.9450626e-05 -0.0010743907 -0.0026400941 -0.0060771396 0.00027685723 0.004773123
-0.01123426 -0.000118607975 0.00013228596 -5.1851905e-05 -0.0017107251 -0.0005115408 0.0002462571 -7.3622423e-06
-6.314696e-05 0.00024634527 0.00041780886 -0.00019573473 0.00056147523 -9.508089e-05 -3.1012292e-05 -8.0317695e-05
-0.00018349924 2.01635e-05 -0.00018349926 -2.0163601e-05 -0.0002665433 0.00014271351 0.00015647168 -0.0025843557
-0.0009773944 0.00096349616 -0.00044513046 -0.0013402172 -0.0022840367 0.00011037229 0.0016835604 -0.0040807705
00000000: f6a3 db36 3221 3438 306a 8538 a1e9 c0b8
00000010: 4d9c c4b8 d769 2939 98cb d236 246f e9b5
00000020: 3ff7 f337 c6f9 1f38 ea8b cb37 e627 3538
00000030: ad19 0137 6422 a236 3c72 1d37 9934 8637
00000040: 92aa 1336 9c34 8637 b9aa 13b6 b1c6 0538
00000050: 1e5f a138 a2e1 1939 973e 2eb9 9a50 3fb9
00000060: 98e0 ba39 7106 92b5 18a9 4eb6 92c3 97b6
00000070: f7d1 82b5 666d 1836 0c5d e9b6 0a24 3233
00000080: bc34 5f35 2d04 3734 5557 8b35 fd5b 6134
00000090: 12e7 ba34 7bf5 81b5 e8d7 d835 1292 beb5
000000a0: 1c04 34b6 27c0 bcb3 1a04 34b6 32c0 bc33
000000b0: cdc6 99b5 54b7 95b6 4a2b 05b7 6093 d4b5
000000c0: 42c9 9436 4aca 62b7 41ad 07b8 6a53 dd39
000000d0: 8c61 2a3a fa00 43ba 9e98 6fba f3ba d13a
000000e0: 4d5e 9838 5119 b7b6 bee4 4238 abad 3938
000000f0: 0986 6538 e086 e538 86f6 9238 98ef 13b7
00000100: 80eb ed38 78bc 4539 66d4 d137 7dbc 4539
00000110: 9fd4 d1b7 c755 ca38 2af6 4e3a aab4 ab3a
00000120: 60cc dfba 537e f0ba 799e 513b 4e13 e1b6
00000130: 51d4 9a37 3e0a 4b37 06ae cfb8 18ba 6eb8
00000140: bd47 8838 42c6 bab6 27d3 cd36 90ad 4637
00000150: c67b ce36 c519 59b6 0d4c ae37 f750 94b5
00000160: 967c d335 6c96 d6b5 7a8b 71b6 bc31 d8b5
00000170: 728b 71b6 7c31 d835 4a4a 29b7 8c49 1d38
00000180: ee61 0638 6421 51b9 5b60 f0b8 316c 1939
00000190: 4862 623a 9b9b 2b3b b875 933b 75f8 abba
000001a0: 2c87 86bb 9777 103c 9af9 8439 b579 b6b7
000001b0: f429 033a e55e 633a 3af4 a9b8 d3ee 423a
000001c0: 16d6 423a 30df 2339 a0c9 613a f54c d53a
000001d0: e682 ce38 f44c d53a 1983 ceb8 2e77 fd3a
000001e0: a762 913b de2a 173c 2cfa 36bb 4842 06bc
000001f0: 64cc 933c a610 d138 c86f b23a a5b9 043b
00000200: a25d 20bb e9db 2ebb 3d20 993b dd17 abb6
00000210: 3844 07b9 3006 a138 6b49 033a 95e0 73b7
00000220: 2077 6b39 53c5 6239 8afe 3737 0bbf a139
00000230: d77b 063a 64f7 6137 d77b 063a b6f8 61b7
00000240: 7923 8839 c38d 183b 78c4 843b aebe a6bb
00000250: 5186 afbb 4bce 183c d693 09ba 0179 bcba
00000260: bdb6 26bb 0145 5f39 0efc 073b 6ebb 9fbb
00000270: 64a1 16b9 edd4 4b38 f7bc aab9 c577 a9b9
00000280: 68fc 1239 42c2 c6b9 414e e4b9 e037 e1b8
00000290: 1059 0aba 1178 83ba ef9a c9b8 1178 83ba
000002a0: ff9a c938 d078 9aba c0f9 21bb f0b0 aabb
000002b0: 295f f239 5f08 893b d332 23bc e7ca 1139
000002c0: d20a 2b3b 53ea 7a3b c18c 9ebb 0067 a7bb
000002d0: bebb 103c 32a9 d038 7009 fbb8 ab11 4a3a
000002e0: 78b2 963a 8514 ccb7 4078 893a 4775 e739
000002f0: 6c7f 7037 d67c 1c3a 8aa0 883a 7b34 a638
00000300: 8ba0 883a bf34 a6b8 40c2 bb39 b084 8f3b
00000310: 0890 033c 1c9d 18bc 7265 27bc b81a 973c
00000320: 1b1f fbb9 62f1 d2ba c202 3ebb 2814 4639
00000330: 3547 1c3b d2f5 b1bb f837 06b9 2cd5 d237
00000340: 64e9 0cba 50d9 62ba 70be 55b7 7656 bdb9
00000350: 06bd 09ba 3c9d 89b8 3018 1fba 7b79 97ba
00000360: 0d90 d0b8 7a79 97ba 2690 d038 92d2 8cba
00000370: 6e05 2dbb be22 c7bb 2627 9139 dc67 9c3b
00000380: e70f 38bc 2cbd f8b8 3eb6 0a39 8f7b 59b8
00000390: 693a e0ba ec18 06ba 121c 8139 2e09 f7b6
000003a0: c46d 84b8 e727 8139 5b0d db39 243e 4db9
000003b0: f72f 133a 2a66 c7b8 3213 02b8 3c70 a8b8
000003c0: b469 40b9 c924 a937 b569 40b9 0125 a9b7
000003d0: d6be 8bb9 5ea5 1539 8c12 2439 4b5e 29bb
000003e0: ea1b 80ba 2293 7c3a 6660 e9b9 3aaa afba
000003f0: c7af 15bb ac77 e738 eaaa dc3a fcb7 85bb
