04-goal-pose-l6/logs/rsl_rl/joint_position/2026-02-18_14-34-58/model_1300.pt (torch, 161397 bytes, 36 tensors)

std f4 [6]
0.08154041 0.019165557 0.003238243 0.021676445 0.028435407 0.016688848
00000000: a9fe a63d 1601 9d3c b438 543b cd92 b13c
00000010: 5ff1 e83c 0db7 883c

actor.0.weight f4 [64, 25]
-0.037846975 0.27392924 -0.34721935 -0.248342 -0.33622372 -0.19931494 0.0263861 -0.11884876
0.15982401 -0.12563209 0.06593413 0.026332365 -0.19061363 -0.3253028 -0.41444921 -0.34023282
-0.5011256 -0.13934487 0.5495424 -0.0029804767 0.32822937 -0.4792184 0.08494611 -0.10427158
-0.11261018 0.19400002 0.14301139 -0.36099303 -0.41284594 -0.07674692 -0.42347863 -0.14502203
0.089288004 0.061861742 0.028353794 -0.07877918 -0.052951343 -0.27804223 -0.030698866 -0.41305822
-0.22957939 1.0355532 -0.29823261 -0.99412215 0.088413484 0.15209068 -0.2449606 -0.2097441
0.21910225 -0.2409478 -0.330926 0.21799356 -0.103909954 0.1525043 -0.24990559 0.12855351
-0.24967507 0.21348329 0.12572156 0.022706961 0.031040637 0.115687676 -0.42755425 -0.11313495
-0.06888458 -0.23046374 0.56632084 -0.30589646 -0.52922964 -0.18076427 -0.28372255 -0.0016172815
0.13824446 0.09850047 -0.009469363 0.17014994 0.25728667 -0.084369436 -0.67566895 0.13662113
-0.59223187 0.096726485 0.08261397 -0.07015401 -0.14990322 0.07770333 -0.0013846011 -0.36599064
-0.21510656 -0.3347007 -0.34704143 0.5233908 -0.29611593 -0.62166375 0.14042069 0.11388999
-0.19210538 0.17300643 -0.116850294 -0.030792093 -0.21675368 -0.49072915 0.30168155 0.118018754
-0.29491368 0.122233935 0.12140847 0.04557373 -0.006090429 -0.03870981 -0.01732892 0.06420316
-0.00032328482 0.23683709 -0.7475095 -0.025147345 -1.4770875 0.11442709 1.4950112 -0.112352386
0.048862867 -0.099233486 0.043730874 -0.060819004 -0.048328616 0.53253216 -0.51101834 0.18653375
0.2264905 0.79913425 0.12840827 -0.06087507 0.054203283 -0.031011898 0.21629931 -0.21905734
-0.0028524722 -0.56201774 -0.94584304 -0.36217177 0.055554762 0.94488305 -0.10375262 -0.79233986
0.39037973 0.1027673 -0.16603775 0.014117279 -0.015262321 0.07070531 0.042998955 0.5055642
-0.10337659 -0.12813647 -0.75500745 -0.30449793 -0.18790014 -0.33654928 0.126266 -0.009593909
0.15438676 0.07594765 -0.17709023 2.3869777 0.84470344 -0.07944033 0.4190316 0.0515776
-0.2594582 -0.26685727 0.25023064 -0.06819675 0.11039737 -0.075307146 0.0073391516 -0.2217789
0.35335326 0.09573066 0.09221296 -0.38968846 -0.32007828 0.06134777 0.103106335 0.0832521
-0.02100993 -0.014439382 -0.21881102 -1.0423808 0.98699087 -0.011730484 0.30159178 -0.020529194
0.027600192 -0.08384133 0.07139857 0.15534958 0.027809558 0.08728289 -0.022761239 -0.05792476
0.1985261 1.05838 -0.3023424 -0.2109672 -0.4081258 0.23976825 -0.09646724 0.060536865
-0.12060806 -0.27018383 0.049037807 0.1003287 -0.15501112 -2.0294604 0.5487039 0.005001042
-1.3736931 0.18759762 1.4498891 0.11869324 0.34170204 -0.097995885 0.18432498 0.04505028
0.083610125 -0.3926052 -0.069938734 0.21927853 -0.26138878 -0.4842453 -0.089467816 -0.109543785
0.08134182 -0.12335802 -0.05867769 -0.043814674 0.08970628 -0.68368375 1.1482582 0.58631057
0.16936097 -0.9921632 0.1397289 1.1039577 -0.10158209 -0.16988727 0.108118735 0.08983998
-0.06752896 -0.18076485 -0.9926489 0.3500183 -0.68378836 0.30663568 -0.9025039 0.4692058
00000000: 6e05 1bbd 7440 8c3e bcc6 b1be 5e4d 7ebe
00000010: 8425 acbe 3719 4cbe aa27 d83c fb66 f3bd
00000020: e8a8 233e b3a5 00be 7908 873d f9b6 d73c
00000030: 3830 43be 178e a6be b032 d4be ff32 aebe
00000040: c449 00bf 6cb0 0ebe d0ae 0c3f 1a54 43bb
00000050: ae0d a83e 1d5c f5be 3af8 ad3d 578c d5bd
00000060: 2ba0 e6bd f1a7 463e 9471 123e 14d4 b8be
00000070: 8b60 d3be 7d2d 9dbd 31d2 d8be a880 14be
00000080: a1dc b63d bd62 7d3d 3746 e83c fb56 a1bd
00000090: 82e3 58bd 8d5b 8ebe 307c fbbc 5e7c d3be
000000a0: dc16 6bbe 028d 843f f2b1 98be ca7e 7ebf
000000b0: 2112 b53d a9bd 1b3e f4d6 7abe 28c7 56be
000000c0: 575c 603e 05bb 76be 226f a9be b439 5f3e
000000d0: bece d4bd 162a 1c3e 40e7 7fbe 88a3 033e
000000e0: d2aa 7fbe 5d9b 5a3e 27bd 003e f303 ba3c
000000f0: ef48 fe3c a9ed ec3d 64e8 dabe 4cb3 e7bd
00000100: 5c13 8dbd b0fe 6bbe 67fa 103f 769e 9cbe
00000110: 987b 07bf 451a 39be 1544 91be f6fa d3ba
00000120: f58f 0d3e 9dba c93d 6325 1bbc c93b 2e3e
00000130: 14bb 833e e2c9 acbd a4f8 2cbf 69e6 0b3e
00000140: 829c 17bf 8918 c63d 8331 a93d e8ac 8fbd
00000150: 3b80 19be ec22 9f3d 817b b5ba 2063 bbbe
00000160: e544 5cbe e45d abbe 6aaf b1be f1fc 053f
00000170: 829c 97be 5b25 1fbf 71ca 0f3e 283f e93d
00000180: 46b7 44be 9928 313e 354f efbd b33f fcbc
00000190: adf4 5dbe da40 fbbe 0176 9a3e d1b3 f13d
000001a0: edfe 96be c955 fa3d 01a5 f83d 85ab 3a3d
000001b0: 3992 c7bb 2d8e 1ebd 61f5 8dbc f27c 833d
000001c0: 8e7e a9b9 6c85 723e c85c 3fbf ce01 cebc
000001d0: 3411 bdbf c058 ea3d 875c bf3f 0219 e6bd
000001e0: 6e24 483d ed3a cbbd 251f 333d 591d 79bd
000001f0: 3af4 45bd 0754 083f 19d2 02bf b402 3f3e
00000200: 20ed 673e 1094 4c3f 757d 033e 2358 79bd
00000210: 4304 5e3d aa0c febc 917d 5d3e 9150 60be
00000220: 8bf0 3abb 65e0 0fbf c522 72bf 946e b9be
00000230: 648d 633d dbe3 713f 417c d4bd c9d6 4abf
00000240: dadf c73e aa77 d23d cd05 2abe 294c 673c
00000250: d00e 7abc f2cd 903d ac1f 303d a86c 013f
00000260: 1bb7 d3bd 3536 03be 2b48 41bf 27e7 9bbe
00000270: e568 40be 3050 acbe e04b 013e c52f 1dbc
00000280: 9017 1e3e 718a 9b3d 2457 35be 3ec4 1840
00000290: 7c3e 583f 9db1 a2bd 4f8b d63e 0943 533d
000002a0: b5d7 84be 84a1 88be 3b1e 803e bdaa 8bbd
000002b0: 0418 e23d a23a 9abd 447d f03b 021a 63be
000002c0: b8ea b43e 700e c43d 26da bc3d 3f85 c7be
000002d0: 4de1 a3be cd47 7b3d 6a29 d33d 1480 aa3d
000002e0: 041d acbc 2893 6cbc ff0f 60be bc6c 85bf
000002f0: 6fab 7c3f 3731 40bc 3d6a 9a3e d72c a8bc
00000300: cc19 e23c 01b5 abbd 6a39 923d f613 1f3e
00000310: dfd0 e33c 5fc1 b23d c775 babc 8342 6dbd
00000320: 6d4a 4b3e ff78 873f a0cc 9abe c907 58be
00000330: ddf5 d0be cf85 753e 9e90 c5bd 81f5 773d
00000340: 5c01 f7bd 8955 8abe dedb 483d 2279 cd3d
00000350: 3cbb 1ebe aee2 01c0 dc77 0c3f c8df a33b
00000360: 2dd5 afbf 9719 403e f795 b93f 7115 f33d
00000370: 92f3 ae3e 11b2 c8bd b0bf 3c3e a486 383d
00000380: c93b ab3d 8c03 c9be 0a3c 8fbd 8d8a 603e
00000390: c0d4 85be 00ef f7be e73a b7bd 7e58 e0bd
000003a0: 8a96 a63d 21a3 fcbd 0458 70bd 0477 33bd
000003b0: edb7 b73d e605 2fbf 20fa 923f 7318 163f
000003c0: f66c 2d3e 68fe 7dbf 1815 0f3e 7c4e 8d3f
000003d0: 450a d0bd eef6 2dbe 5b6d dd3d 06fe b73d
000003e0: a04c 8abd 6c1a 39be 3d1e 7ebf 9935 b33e
000003f0: c10c 2fbf 5aff 9c3e 7f0a 67bf be3b f03e

actor.0.bias f4 [64]
-0.2738949 -0.44144976 -0.23065871 -0.5198928 -0.099618874 -0.29905307 -0.07634578 0.122987784
-0.048729066 0.15345356 -0.052507725 -0.2418239 -0.15017097 -0.06076096 0.030111348 -0.14682092
0.061109655 0.20072736 -0.09821446 -0.07175554 0.041750245 -0.060516596 0.0012090857 -0.212777
0.04993673 -0.20153897 0.052709494 -0.0012910007 -0.17627169 0.34503105 -0.15393305 -0.2973391
-0.012274405 -0.0334361 0.11223004 0.19713752 0.03279709 -0.41089547 0.1539736 -0.3475557
-0.012304898 -0.07120237 -0.18901797 0.10967514 0.021616552 -0.23217113 0.09503198 -0.034700662
0.0094366595 0.15352646 -0.12495307 -0.21453924 -0.2352889 -0.21250036 0.044362135 -0.25614673
0.00937218 -0.18391357 0.1380418 0.02327211 0.1333305 -0.03264066 0.22540292 0.17540145
00000000: f43b 8cbe b405 e2be cc31 6cbe b217 05bf
00000010: fb04 ccbd 7c1d 99be 2d5b 9cbd 05e1 fb3d
00000020: 2198 47bd ee22 1d3e 5712 57bd afa0 77be
00000030: 6bc6 19be 7ce0 78bd 13ac f63c 3958 16be
00000040: 1e4e 7a3d 798b 4d3e aa24 c9bd 92f4 92bd
00000050: 4e02 2b3d 40e0 77bd 2f7a 9e3a 37e2 59be
00000060: 758a 4c3d 3b60 4ebe e9e5 573d cc36 a9ba
00000070: 9180 34be e9a7 b03e a0a0 1dbe d53c 98be
00000080: 961a 49bc 4bf4 08bd ddd8 e53d 6bde 493e
00000090: 3e56 063d e460 d2be 41ab 1d3e d2f2 b1be
000000a0: 7c9a 49bc 8cd2 91bd ed8d 41be 5c9d e03d
000000b0: 3215 b13c 45be 6dbe 20a0 c23d 4822 0ebd
000000c0: 389c 1a3c 0a36 1d3e 65e7 ffbd 2db0 5bbe
000000d0: 93ef 70be b299 59be 12b5 353d aa25 83be
000000e0: c68d 193c d753 3cbe d45a 0d3e 27a5 be3c
000000f0: ca87 083e 36b2 05bd 06d0 663e 709c 333e

actor.2.weight f4 [64, 64]
0.19323474 0.15269925 -0.004508154 0.1449103 -0.09478089 -0.030603895 -0.014415421 0.0637068
-0.0984827 -0.20349479 0.08030713 0.059750684 -0.024860559 0.19566563 -0.029749298 0.032351293
-0.13679658 -0.0094953235 -0.05245257 -0.075658046 0.045052923 -0.05250939 -0.18607388 -0.07172286
-0.03250179 -0.14698367 0.022595678 0.17859285 0.15165435 -0.05168833 0.0039220923 0.0044380478
0.1175515 0.1692891 -0.12436697 0.11226861 0.10293278 0.11604835 0.18016286 0.10621989
0.053710036 0.12356607 -0.015016332 -0.05530374 -0.0950344 0.16716747 -0.17413352 -0.07401688
-0.1891825 -0.24389271 0.019721 -0.031055499 0.18020888 0.028566938 0.08070985 0.0022224418
-0.017102 0.057188164 -0.16034569 -0.0639026 0.024523664 -0.010295442 -0.11731081 0.06672244
-0.042124365 -0.1060934 0.2382878 0.044754118 -0.13501956 0.22411935 0.13216348 0.23784113
-0.011151194 0.11686769 -0.24684581 -0.029733546 0.055785522 0.16346075 -0.13275434 0.047156468
0.02991222 -0.07038909 -0.11105452 -0.13830577 0.15166365 0.11321662 -0.21792352 0.035460487
-0.2042516 -0.021845795 0.097125426 0.012558694 0.09260913 0.18670124 -0.17394705 -0.16988057
0.12106618 0.16240856 -0.06631545 0.08355022 -0.025233857 0.029618448 0.12514815 -0.025430536
0.0026767878 0.0896912 0.015245309 -0.04363575 0.070718646 0.030989077 -0.14693224 -0.04967512
0.34178248 -0.17895968 -0.086463176 -0.07159332 0.022523 -0.32294732 -0.039825056 0.37954968
-0.016979756 -0.08763842 -0.12715046 0.025422996 -0.4016074 -0.081737146 0.089624986 -0.1044016
0.16781686 0.5782294 -0.21730007 0.32809797 -0.18615894 -0.16563942 0.11585831 0.08746544
-0.12860511 -0.12265451 -0.03484398 0.22396204 -0.2481004 0.3138943 0.22056223 0.050913136
-0.30759344 -0.0022601585 -0.046765577 -0.09516776 0.066439316 -0.1354983 -0.026646167 -0.1623175
0.137702 -0.013814953 0.33272865 0.21266298 0.21861105 0.010736254 -0.059126843 0.024831688
0.2542648 0.21678804 -0.041350488 -0.027291086 -0.037323177 0.059565667 0.28480804 0.19308423
-0.19178054 0.462741 -0.26177785 -0.252191 0.04212048 0.18736605 0.023181567 -0.11252198
-0.1722971 -0.0015189564 -0.10427088 -0.09572795 0.24859893 -0.002318343 0.12354006 0.11577989
-0.03818473 0.018480113 0.15188944 0.1955657 0.1183489 -0.02723016 -0.13554277 -0.011907316
0.04441108 0.09549163 -0.14609224 -0.08952329 0.13016087 -0.08565717 -0.34590414 -0.27810812
-0.2241073 -0.44130638 -0.074554265 -0.07634547 0.22155382 0.19380976 -0.06815047 -0.0799316
0.17619951 -0.03951426 0.15083511 0.40233615 -0.07740521 0.011423946 0.205397 -0.041114587
0.05556114 0.017159235 -0.0563666 -0.071533516 -0.021218918 -0.2631495 0.20285602 0.089934774
-0.09673295 0.009297282 -0.3488934 0.09415539 0.0019284668 -0.07310526 -0.031470932 0.03199875
0.1843779 0.15928343 0.14625011 0.040919483 0.1311851 0.13313258 0.283695 0.19643226
-0.32320833 0.16224252 0.39563075 -0.19316378 0.09248164 0.3116448 -0.14968298 -0.44987273
0.10377774 0.11395422 -0.1586731 -0.09442795 0.58767736 0.069092765 0.23284657 0.16452394
00000000: 54df 453e 315d 1c3e 23b9 93bb 5e63 143e
00000010: 7c1c c2bd 05b5 fabc a82e 6cbc b678 823d
00000020: 4cb1 c9bd f060 50be 1178 a43d 22bd 743d
00000030: 5fa8 cbbc 925c 483e cdb4 f3bc ca82 043d
00000040: 6714 0cbe 4692 1bbc 82d8 56bd 9bf2 9abd
00000050: 6a89 383d 1614 57bd 278a 3ebe 6fe3 92bd
00000060: 9920 05bd e382 16be 921a b93c 0be1 363e
00000070: 474b 1b3e 24b7 53bd e584 803b 0b6d 913b
00000080: d7be f03d 1f5a 2d3e 1cb4 febd 16ed e53d
00000090: 6cce d23d c2aa ed3d 9d7c 383e d089 d93d
000000a0: 0eff 5b3d 3510 fd3d 1007 76bc 2d86 62bd
000000b0: 65a1 c2bd f32d 2b3e 0f50 32be 2996 97bd
000000c0: 0fb9 41be 03bf 79be ef8d a13c 1a68 febc
000000d0: ad88 383e 3605 ea3c 354b a53d 63a6 113b
000000e0: 7e19 8cbc 233e 6a3d a931 24be 5edf 82bd
000000f0: dae5 c83c 37ae 28bc a640 f0bd c6a5 883d
00000100: 998a 2cbd 7f47 d9bd b801 743e 1850 373d
00000110: 9142 0abe 8b7f 653e dd55 073e a08c 733e
00000120: 7fb3 36bc 5458 ef3d 26c5 7cbe c493 f3bc
00000130: 5c7f 643d 4162 273e c1f0 07be 2427 413d
00000140: 790a f53c 2828 90bd 8d70 e3bd 07a0 0dbe
00000150: b74d 1b3e 1ede e73d 5827 5fbe 043f 113d
00000160: 5527 51be f4f5 b2bc b2e9 c63d fbc2 4d3c
00000170: dba9 bd3d 9c2e 3f3e 2d1f 32be 2cf5 2dbe
00000180: 8cf1 f73d 6e4e 263e 65d0 87bd 611c ab3d
00000190: 3cb7 cebc 63a2 f23c d626 003e b353 d0bc
000001a0: 0c6d 2f3b 05b0 b73d 76c7 793c 66bb 32bd
000001b0: f0d4 903d cedc fd3c 6875 16be 2378 4bbd
000001c0: 1dfe ae3e 3541 37be 9b13 b1bd 859f 92bd
000001d0: 2882 b83c 5a59 a5be 991f 23bd 5654 c23e
000001e0: 2119 8bbc c67b b3bd bb33 02be e343 d03c
000001f0: 7c9f cdbe ce65 a7bd 4e8d b73d 82d0 d5bd
00000200: 2fd8 2b3e d806 143f e983 5ebe 75fc a73e
00000210: 73a0 3ebe 619d 29be 1f47 ed3d 1521 b33d
00000220: 0fb1 03be 4a32 fbbd 90b8 0ebd 4e56 653e
00000230: 080e 7ebe c1b6 a03e 11db 613e 4b8a 503d
00000240: e37c 9dbe 2b1f 14bb 438d 3fbd 51e7 c2bd
00000250: 5611 883d 11c0 0abe 1049 dabc 8f36 26be
00000260: c101 0d3e 1d58 62bc 695b aa3e 53c4 593e
00000270: 93db 5f3e 1de7 2f3c fd2e 72bd d36b cb3c
00000280: ff2e 823e affd 5d3e 215f 29bd 8e91 dfbc
00000290: 30e0 18bd 21fb 733d 5cd2 913e dfb7 453e
000002a0: 1e62 44be 63ec ec3e bf07 86be 2e1f 81be
000002b0: 8686 2c3d e3dc 3f3e 45e7 bd3c ed71 e6bd
000002c0: a76e 30be b817 c7ba f98b d5bd 040d c4bd
000002d0: b890 7e3e 57ef 17bb 9202 fd3d 021e ed3d
000002e0: 9767 1cbd 9b63 973c e888 1b3e 6042 483e
000002f0: e860 f23d c911 dfbc b9cb 0abe e716 43bc
00000300: 65e8 353d 1e91 c33d 3499 15be fd57 b7bd
00000310: e448 053e 076d afbd 591a b1be 3064 8ebe
00000320: 627c 65be e9f2 e1be e8af 98bd 045b 9cbd
00000330: 01df 623e 1176 463e 7992 8bbd 2eb3 a3bd
00000340: a56d 343e b4d9 21bd 8574 1a3e 01ff cd3e
00000350: 9f86 9ebd 812b 3b3c 9753 523e c567 28bd
00000360: 1494 633d 8691 8c3c aae0 66bd 2a80 92bd
00000370: 4cd3 adbc 88bb 86be 7db9 4f3e b92f b83d
00000380: ed1b c6bd a153 183c 28a2 b2be 8bd4 c03d
00000390: 9cc4 fc3a 36b8 95bd aae7 00bd 1f11 033d
000003a0: 8fcd 3c3e 321b 233e 97c2 153e 309b 273d
000003b0: 6355 063e e853 083e 7940 913e 8a25 493e
000003c0: 907b a5be e722 263e 1d90 ca3e bacc 45be
000003d0: 0467 bd3d e88f 9f3e 7f46 19be b855 e6be
000003e0: 6c89 d43d d560 e93d 337b 22be 7163 c1bd
000003f0: 0672 163f 8280 8d3d 556f 6e3e f778 283e

actor.2.bias f4 [64]
-0.19027287 0.015300519 -0.35198784 -0.08367072 0.1574539 -0.2455585 -0.0055012302 -0.3218213
-0.18550935 0.13818212 -0.22291808 0.14456306 -0.14671373 -0.05636035 -0.09308177 -0.022981623
-0.13444006 0.1722625 -0.025803799 -0.31561136 0.24822627 0.08664465 -0.3382649 -0.01777383
0.14451009 -0.087734565 -0.13277937 0.05847332 -0.08018791 -0.08286499 -0.47382525 0.08532669
-0.29146072 0.012553424 -0.49245915 -0.32416916 -0.0048487387 -0.108432434 0.25202262 -0.0053977803
0.015597622 -0.11509737 -0.007966063 0.054045998 -0.038562663 0.032531794 0.022749094 -0.017101659
0.048905745 -0.04562813 0.16675024 -0.23743911 -0.3397474 -0.03460928 -0.42074224 -0.19789104
-0.05677021 -0.2561077 -0.0630878 -0.07534967 -0.04705725 0.0049355216 0.060219884 -0.22010075
00000000: e4d6 42be 07af 7a3c c037 b4be 8e5b abbd
00000010: 983b 213e b073 7bbe aa43 b4bb c3c5 a4be
00000020: 2af6 3dbe 9d7f 0d3e a344 64be 5708 143e
00000030: 203c 16be 1cda 66bd a8a1 bebd f543 bcbc
00000040: a8aa 09be 9565 303e 7d62 d3bc d097 a1be
00000050: 072f 7e3e c072 b13d 0f31 adbe 6c9a 91bc
00000060: 74fa 133e 2eae b3bd 51f7 07be b881 6f3d
00000070: 8f39 a4bd 1fb5 a9bd 3999 f2be c2bf ae3d
00000080: 573a 95be e0ac 4d3c 9b23 fcbe 80f9 a5be
00000090: 2be2 9ebb d311 debd 1c09 813e dddf b0bb
000000a0: 2b8d 7f3c 2cb8 ebbd 1784 02bc 565f 5d3d
000000b0: e2f3 1dbd 0f40 053d 4f5c ba3c c718 8cbc
000000c0: 6451 483d 90e4 3abd 93c0 2a3e 3d23 73be
000000d0: 5ff3 adbe 76c2 0dbd 876b d7be f3a3 4abe
000000e0: e187 68bd 8c20 83be 2d34 81bd ee50 9abd
000000f0: 1abf 40bd 28ba a13b 20a9 763d 1762 61be

actor.4.weight f4 [6, 64]
-0.038738813 0.07963608 0.03487445 -0.04174598 -0.006202378 0.10166241 -0.07278106 0.011620942
0.11653377 0.1254541 -0.10071017 0.15400171 -0.25380972 -0.11164284 0.15256673 0.07848074
-0.059800897 0.06543121 -0.070582904 0.11615921 -0.08561563 0.002158453 0.06798203 0.00463323
-0.07116439 0.16370727 0.12152083 -0.06281236 -0.13161619 -0.04103438 0.087344855 0.05900719
-0.017342038 -0.01791786 0.11834217 -0.25944594 -0.32436234 0.11869895 -0.077474095 -0.010247862
-0.116857916 -0.09669452 0.1820576 0.0948836 0.24496946 0.18599465 -0.0038015437 0.0008253463
-0.08507463 -0.035004046 0.08641542 -0.041966572 -0.08814467 0.09976193 -0.034544293 -0.07727091
-0.032059614 -0.0398764 -0.04957004 -0.109732576 -0.06688455 -0.12054694 0.023769291 0.1354924
-0.049735274 -0.13497145 -0.055214945 0.36825004 0.04326801 0.14251393 -0.24288477 0.08763358
0.010187074 0.027466914 -0.11306675 -0.19796702 -0.05879383 -0.064247414 -0.23099348 0.043089144
-0.07048505 -0.16851246 -0.021222614 0.011219727 -0.03760106 0.0025188394 -0.04641281 0.10214705
-0.05746737 -0.23275478 -0.024931893 -0.20977737 -0.13379927 -0.09794919 0.07885746 0.060026057
-0.08193595 -0.07268419 0.06077511 -0.17818166 -0.10333605 -0.11064599 0.08285839 -0.019374752
-0.12771559 -0.09741093 0.10575227 0.1777803 -0.013272354 -0.079497166 -0.20274197 -0.1083872
0.06362946 0.05144459 -0.034254774 -0.1461262 -0.0014575217 -0.1450548 -0.065311916 -0.039395493
-0.06002547 -0.17210613 0.2472839 -0.18743816 -0.15551707 -0.0869625 -0.16513395 0.1769468
-0.036329065 0.016049229 0.024221532 -0.065834165 0.106411226 -0.071174085 0.13327311 -0.09508132
0.10264722 0.11345758 0.06374995 -0.07083573 0.040756907 -0.12701286 -0.2743337 0.03279844
-0.25182796 0.041093495 -0.1348985 -0.081561305 0.1103393 -0.12424558 0.13118362 -0.111730024
0.008408349 -0.065414846 -0.10826118 0.07320949 -0.20427747 -0.07629712 -0.2450322 0.037983138
-0.087010495 0.031221222 -0.09108415 0.06982775 0.3312234 0.13488248 0.034717746 -0.01452043
0.029466776 -0.03955508 0.066361204 0.13653097 0.22833666 0.009082255 0.07287962 -0.02557841
0.15481618 0.13628586 0.056964286 -0.05949674 -0.13186105 0.066070914 0.042519715 -0.06829679
-0.047056098 -0.121558934 -0.121631235 -0.08226696 -0.122650206 -0.09266849 -0.07276712 0.15312679
-0.101802975 0.033139233 -0.32604706 0.00747829 0.17184468 -0.18018885 -0.070945024 -0.3390667
-0.023564871 0.08567423 -0.057557005 -0.0035527213 0.027466534 -0.11209854 0.03770836 0.13871881
-0.12710051 -0.086272635 0.015554921 -0.31881538 0.12681542 0.07501941 -0.16908582 0.104273506
0.061404448 -0.07371047 -0.002253364 -0.03552422 -0.08316292 -8.5346e-05 -0.35792497 0.040007208
-0.19543557 0.07974845 -0.2752839 -0.040559746 -0.0044841287 -0.011348986 0.18907484 -0.12842019
0.23861063 -0.059485126 0.11550653 0.06598371 -0.008119628 -0.13604836 -0.09910501 -0.02292306
0.07152604 0.06329726 -0.06728573 -0.074817196 -0.24313027 0.02396321 -0.22193006 -0.120315135
-0.102306835 -0.14354339 0.10115346 0.105985254 0.054309882 -0.030897366 0.08524658 -0.07511589
00000000: 97ac 1ebd 3e18 a33d 83d8 0e3d d5fd 2abd
00000010: 513d cbbb 6234 d03d 3d0e 95bd c365 3e3c
00000020: 42a9 ee3d 0a77 003e 2241 cebd a0b2 1d3e
00000030: 59f3 81be 00a5 e4bd 743a 1c3e 83ba a03d
00000040: c9f1 74bd cc00 863d c58d 90bd e1e4 ed3d
00000050: 3f57 afbd d574 0d3b 2a3a 8b3d 5ad2 973b
00000060: a3be 91bd e1a2 273e eadf f83d c4a3 80bd
00000070: 65c6 06be ab13 28bd dce1 b23d 86b1 713d
00000080: e410 8ebc 7ac8 92bc 615d f23d 19d6 84be
00000090: d212 a6be 6f18 f33d bdaa 9ebd a6e6 27bc
000000a0: 3453 efbd c707 c6bd 4f6d 3a3e 5552 c23d
000000b0: 46d9 7a3e 6275 3e3e 5223 79bb 0d5c 583a
000000c0: 9c3b aebd 6760 0fbd 91fa b03d 24e5 2bbd
000000d0: 3185 b4bd fc4f cc3d 517e 0dbd 3640 9ebd
000000e0: f150 03bd 7055 23bd f409 4bbd 79bb e0bd
000000f0: c4fa 88bd 50e1 f6bd d1b7 c23c 85be 0a3e
00000100: 37b7 4bbd f535 0abe 1129 62bd 458b bc3e
00000110: cc39 313d 2cef 113e c9b6 78be 3c79 b33d
00000120: afe7 263c 4b02 e13c 8a8f e7bd deb7 4abe
00000130: cdd1 70bd 2694 83bd 8e89 6cbe 3e7e 303d
00000140: 775a 90bd 888e 2cbe 0cdb adbc f2d2 373c
00000150: 9203 1abd 1d13 253b 5c1b 3ebd 7932 d13d
00000160: e862 6bbd 4557 6ebe f83d ccbc e1cf 56be
00000170: ad02 09be 9699 c8bd 0580 a13d e2dd 753d
00000180: 09ce a7bd 73db 94bd 52ef 783d 4175 36be
00000190: daa1 d3bd 5d9a e2bd a9b1 a93d cdb7 9ebc
000001a0: e0c7 02be 627f c7bd a594 d83d 0a0c 363e
000001b0: 4a74 59bc 69cf a2bd 979b 4fbe 1cfa ddbd
000001c0: 2a50 823d 90b7 523d bc4e 0cbd 1ba2 15be
000001d0: 500a bfba 3f89 14be 41c2 85bd 2b5d 21bd
000001e0: 44dd 75bd 973c 30be fe37 7d3e caef 3fbe
000001f0: de3f 1fbe 6519 b2bd e018 29be 8b31 353e
00000200: c9cd 14bd ac79 833c 3c6c c63c 10d4 86bd
00000210: 21ee d93d b8c3 91bd bf78 083e ffb9 c2bd
00000220: b538 d23d 735c e83d 558f 823d 5312 91bd
00000230: b7f0 263d a90f 02be 7775 8cbe a857 063d
00000240: 98ef 80be a751 283d d522 0abe 9d09 a7bd
00000250: 92f9 e13d 7774 febd 0055 063e b6d2 e4bd
00000260: 2cc3 093c 38f8 85bd 0ab8 ddbd dbee 953d
00000270: 1d2e 51be aa41 9cbd b9e9 7abe 3594 1b3d
00000280: 8f32 b2bd a6c3 ff3c 548a babd da01 8f3d
00000290: 1d96 a93e a21e 0a3e 3234 0e3d 19e7 6dbc
000002a0: 4f64 f13c 8204 22bd 62e8 873d c6ce 0b3e
000002b0: 16d1 693e bdcd 143c e941 953d d089 d1bc
000002c0: 2288 1e3e 858e 0b3e 6253 693d dbb2 73bd
000002d0: 9506 07be 3050 873d 2729 2e3d 30df 8bbd
000002e0: e5bd 40bd e4f3 f8bd cc19 f9bd 947b a8bd
000002f0: 0830 fbbd fac8 bdbd ee06 95bd 45cd 1c3e
00000300: 147e d0bd 01bd 073d a4ef a6be 710c f53b
00000310: 0df8 2f3e 6d83 38be a04b 91bd 279a adbe
00000320: 1e0b c1bc f875 af3d e5c0 6bbd c6d4 68bb
00000330: 7f01 e13c eb93 e5bd 1574 1a3d 4e0c 0e3e
00000340: a326 02be b5af b0bd 11da 7e3c c53b a3be
00000350: e7db 013e c7a3 993d d524 2dbe 598d d53d
00000360: 3b83 7b3d 84f5 96bd 2dad 13bb d881 11bd
00000370: 5251 aabd c9fb b2b8 f141 b7be 99de 233d
00000380: 4320 48be 2853 a33d 03f2 8cbe fa21 26bd
00000390: 99ef 92bb 19f1 39bc d69c 413e 9580 03be
000003a0: 5856 743e ada6 73bd b08e ec3d 7822 873d
000003b0: 3008 05bc 4350 0bbe 91f7 cabd 24c9 bbbc
000003c0: 3f7c 923d fea1 813d 1acd 89bd c239 99bd
000003d0: 24f7 78be 7e4e c43c a241 63be c867 f6bd
000003e0: 3f86 d1bd 0afd 12be 8c29 cf3d cc0e d93d
000003f0: 0a74 5e3d 791c fdbc c295 ae3d 5cd6 99bd

actor.4.bias f4 [6]
-0.24730943 0.00406568 0.11625723 0.29001904 0.088382185 0.25675955
00000000: af3e 7dbe 6539 853b 4518 ee3d 607d 943e
00000010: b801 b53d fd75 833e

critic.0.weight f4 [64, 25]
0.17947161 0.054787394 0.07771228 -0.12422614 0.08402026 -0.094356164 0.015697347 -0.052784856
0.040059835 -0.031532884 0.024652015 0.0154917175 -0.11917347 0.19331999 -0.20149621 -0.12088942
0.8185587 -0.0040402464 -0.7335946 0.047146514 -0.056442175 -0.13794103 0.07214528 -0.06421114
0.061981782 0.2880484 -0.1717119 -0.2183565 -0.19827946 -0.1063529 0.030848451 0.0967942
0.26037207 -0.15198174 -0.084393404 0.032869957 0.07292185 -0.24941932 0.4174508 -0.04120985
0.019353503 0.17072833 -0.007848433 -0.32222342 -0.13755077 -0.16662978 0.11316936 -0.06288399
-0.11639753 0.11727735 -0.1616878 0.0012228035 -0.00092929136 0.04081789 0.08069138 0.15872517
0.02076222 0.061915573 -0.061524045 -0.026959727 -0.0839933 0.0031715527 0.17452838 -0.6702089
-0.1928742 0.18846068 -0.30543345 -0.12674372 0.05947145 -0.077314295 -0.03649888 0.099181056
-0.058285195 0.041544933 -0.046449125 -0.24780916 -0.00017591054 0.009920127 0.12334497 -0.21469899
-0.12811473 0.07592316 -0.27307278 0.124402456 -0.086871505 0.033258036 0.07965525 0.16486375
-0.4096797 0.21236788 -0.18716042 0.060750138 0.16307767 0.11070922 0.026098894 0.17227307
0.05037001 0.10608686 -0.0934279 -0.14359698 0.17370549 -0.083641 0.19474205 -0.2192043
-0.11052901 -0.1978296 0.076100394 0.045419823 -0.013808596 -0.054422297 0.009722201 -0.074074045
-0.25589922 1.016347 0.37150955 0.076748036 0.15050375 0.059046347 -0.08052635 -0.11185032
0.14782384 0.03748749 0.123095416 0.005277208 -0.018013725 -0.31494662 -0.09515265 0.08522724
-0.10407178 -0.0040985127 0.23201935 -0.05510317 0.072158225 -0.020979984 -0.04937226 -0.0690329
0.061449103 -0.16232757 -0.22901264 -0.20071462 -0.15523411 -0.45207956 -0.020023115 0.34862825
-0.021955157 0.065949365 0.07917649 -0.0658819 0.041064188 -0.022866009 0.14029281 0.18944861
-0.14391246 -0.06309917 0.1149241 0.042848498 -0.12951408 -0.037748493 -0.014296324 0.0026750711
0.12651148 0.11330023 -0.21626249 0.5706579 0.14122665 0.027365062 0.4889285 -0.12119446
-0.31275627 0.016380802 0.016085204 0.06559541 0.07586678 0.026415613 -0.10619795 -0.2622642
-0.166613 -0.3068704 0.12079367 0.16861188 0.032498065 -0.014920885 0.059499122 0.04039097
0.06405853 0.061213754 0.034434557 0.24011661 0.91026765 -0.42944705 0.17392983 0.15388441
-0.14600286 -0.19582784 -0.16068262 -0.037041474 0.04861432 0.0716208 -0.06753476 -0.092999764
0.20158528 -0.22497866 0.040734768 -0.10222573 0.07989025 -0.066611566 0.10446012 -0.086791396
0.02133176 -0.14202319 0.06319983 -0.010743455 0.09533232 -0.19988522 -0.3311943 -0.14295077
0.110848784 0.11634604 0.05379185 -0.03085287 0.08103271 -0.13459475 0.15805422 -0.18659133
0.07071114 -0.212248 -0.16513824 0.03418511 -0.11831381 0.03615844 -0.11592072 -0.0008977862
0.031646118 -0.005047943 -0.09951574 0.0066559245 0.018793114 0.28802773 4.592846 -0.77667046
-0.22787611 0.6840254 -0.23814765 -0.55074704 -0.05202602 0.023557289 -0.0050279885 0.04158705
-0.07307831 0.0349658 0.14791438 -0.121427 -0.19944878 -0.07924199 0.113659635 0.00861139
00000000: 68c7 373e bf68 603d 9e27 9f3d 466a febd
00000010: d012 ac3d ce3d c1bd b997 803c ef34 58bd
00000020: c815 243d a028 01bd 06f3 c93c f9d0 7d3c
00000030: 3811 f4bd adf5 453e 0655 4ebe df94 f7bd
00000040: 108d 513f 0b64 84bb dbcc 3bbf b41c 413d
00000050: e92f 67bd 6a40 0dbe e8c0 933d 2181 83bd
00000060: 9ce0 7d3d 147b 933e 3fd5 2fbe d998 5fbe
00000070: c509 4bbe 8dcf d9bd e4b5 fc3c 0a3c c63d
00000080: 7d4f 853e 1aa1 1bbe 73d6 acbd a6a2 063d
00000090: 0d58 953d c767 7fbe 1cbc d53e a9cb 28bd
000000a0: 3d8b 9e3c 68d3 2e3e b796 00bc 78fa a4be
000000b0: 1cda 0cbe ffa0 2abe 56c5 e73d 52c9 80bd
000000c0: d461 eebd 1b2f f03d 7d91 25be 7a46 a03a
000000d0: b09b 73ba a930 273d 8641 a53d da88 223e
000000e0: 8815 aa3c 2f9b 7d3d a300 7cbd a5da dcbc
000000f0: ae04 acbd d3d9 4f3b 91b7 323e cf92 2bbf
00000100: d080 45be d6fb 403e c661 9cbe 1bc9 01be
00000110: 5698 733d f556 9ebd d97f 15bd 701f cb3d
00000120: 75bc 6ebd 052b 2a3d 7041 3ebd afc1 7dbe
00000130: a074 38b9 0788 223c 4a9c fc3d 0dda 5bbe
00000140: 8230 03be 9a7d 9b3d 32d0 8bbe b7c6 fe3d
00000150: b0e9 b1bd 9439 083d 4b22 a33d 0bd2 283e
00000160: 8ac1 d1be f776 593e fba6 3fbe 23d5 783d
00000170: d5fd 263e 84bb e23d 59cd d53c 5a68 303e
00000180: c950 4e3d 1144 d93d 2057 bfbd 160b 13be
00000190: dadf 313e f94b abbd 766a 473e 1877 60be
000001a0: 095d e2bd d893 4abe 86da 9b3d 230a 3a3d
000001b0: 733d 62bc eae9 5ebd de49 1f3c 22b4 97bd
000001c0: 3905 83be a917 823f 8036 be3e 132e 9d3d
000001d0: a81d 1a3e 95da 713d 00eb a4bd c811 e5bd
000001e0: 225f 173e 7b8c 193d 7319 fc3d 6eec ac3b
000001f0: 8591 93bc af40 a1be 64df c2bd 9f8b ae3d
00000200: 9623 d5bd d14c 86bb 7b96 6d3e ddb3 61bd
00000210: b1c7 933d 37de abbc 913a 4abd 1f61 8dbd
00000220: 0eb2 7b3d 3339 26be 4a82 6abe 2288 4dbe
00000230: b1f5 1ebe f976 e7be 8407 a4bc 677f b23e
00000240: 4ddb b3bc 7610 873d 4927 a23d 17ed 86bd
00000250: ec32 283d 7f51 bbbc eba8 0f3e d1fe 413e
00000260: ca5d 13be 233a 81bd 545d eb3d e881 2f3d
00000270: 579f 04be 2a9e 1abd 213b 6abc 3f50 2f3b
00000280: 3a8c 013e f309 e83d ea73 5dbe a316 123f
00000290: b89d 103e b22c e03c d654 fa3e cd34 f8bd
000002a0: 9721 a0be 0831 863c 1ec5 833c e356 863d
000002b0: 0b60 9b3d 8e65 d83c 507e d9bd 7e47 86be
000002c0: 999c 2abe 1e1e 9dbe ac62 f73d 98a8 2c3e
000002d0: b11c 053d ba76 74bc 5ab5 733d 0071 253d
000002e0: 1e31 833d 46bb 7a3d 400b 0d3d 21e1 753e
000002f0: 4d07 693f 7ce0 dbbe a91a 323e e093 1d3e
00000300: c681 15be 1887 48be fc89 24be cdb8 17bd
00000310: cf1f 473d edad 923d aa4f 8abd a976 bebd
00000320: 5f6c 4e3e ce60 66be 80d9 263d b95b d1bd
00000330: 809d a33d a56b 88bd 30ef d53d b0bf b1bd
00000340: f1bf ae3c 876e 11be ea6e 813d 5105 30bc
00000350: 973d c33d b6ae 4cbe 4d92 a9be b061 12be
00000360: b004 e33d d546 ee3d d854 5c3d 28bf fcbc
00000370: 7af4 a53d 35d3 09be f7d8 213e cc11 3fbe
00000380: 01d1 903d 8a57 59be 001a 29be b005 0c3d
00000390: 834e f2bd df1a 143d d867 edbd 6959 6bba
000003a0: 5c9f 013d 3769 a5bb e9ce cbbd f119 da3b
000003b0: 04f4 993c 5f78 933e 98f8 9240 e0d3 46bf
000003c0: 5b58 69be 4a1c 2f3f fadc 73be c2fd 0cbf
000003d0: 3c19 55bd 37fb c03c d3c1 a4bb 2f57 2a3d
000003e0: 15aa 95bd 4c38 0f3d de76 173e b8ae f8bd
000003f0: 4d3c 4cbe a049 a2bd 62c6 e83d ca16 0d3c

critic.0.bias f4 [64]
0.19660188 0.21703029 -0.17891392 -0.011182396 0.033722322 -0.23977491 0.16149054 -0.13860565
-0.014860831 0.09728359 0.14356509 0.08957686 -0.19608654 -0.041689564 0.05887937 0.014935776
-0.20127246 -0.037977196 0.060604867 0.08025819 0.17334606 0.061338466 0.07672673 0.12028595
-0.025207622 -0.030231759 -0.05491802 -0.039026108 0.04846818 0.14414114 -0.024015922 -0.1009525
-0.04865199 -0.08204345 0.23388912 -0.08226666 0.0074729007 -0.08174333 -0.01040344 0.11216657
-0.2081959 -0.1511732 -0.05796564 0.13550328 -0.010897068 -0.057085767 -0.106260285 0.12599936
-0.01667949 0.1452305 -0.00061393355 -0.009883301 -0.10552812 -0.11351623 0.16081093 0.025462901
-0.111721866 0.10710025 -0.1220158 0.11417905 -0.15771669 -0.017210161 0.011495934 0.034912586
00000000: 0152 493e 303d 5e3e 3635 37be 5e36 37bc
00000010: 6b20 0a3d 8e87 75be c75d 253e a4ee 0dbe
00000020: d87a 73bc 9e3c c73d ba02 133e 1374 b73d
00000030: e9ca 48be adc2 2abd 7f2b 713d 2fb5 743c
00000040: 5e1a 4ebe fa8d 1bbd cf3c 783d 685e a43d
00000050: a181 313e 0b3e 7b3d e722 9d3d 7b58 f63d
00000060: 3780 cebc 98a8 f7bc b8f1 60bd d7d9 1fbd
00000070: 9286 463d bc99 133e 0abd c4bc 2fc0 cebd
00000080: 4f47 47bd 6506 a8bd a180 6f3e 6c7b a8bd
00000090: 3cdf f43b 0c69 a7bd 3173 2abc 96b7 e53d
000000a0: 4e31 55be 26cd 1abe 616d 6dbd 5fc1 0a3e
000000b0: 9e89 32bc c4d2 69bd fe9e d9bd fa05 013e
000000c0: 6da3 88bc 4eb7 143e 62f0 20ba 92ed 21bc
000000d0: 211f d8bd 327b e8bd 9fab 243e 9397 d03c
000000e0: 6fce e4bd 6057 db3d 6be3 f9bd b5d6 e93d
000000f0: 7c80 21be 53fc 8cbc 7159 3c3c 8000 0f3d

critic.2.weight f4 [64, 64]
-0.08989097 -0.033203892 -0.1444352 0.059705015 0.041966353 -0.14135921 0.068022504 0.070945896
0.014966477 -0.065665886 0.08982152 0.027785676 -0.033455517 0.113017194 -0.043492295 -0.08869004
-0.046306655 -0.027833857 -0.0069896653 -0.039904874 0.123227365 0.13726662 0.09876616 0.0155650135
-0.019657519 0.024715196 0.05668614 -0.005632854 -0.07809473 0.05797788 0.048972677 -0.07753475
0.111587144 0.0899574 -0.01857972 0.067633204 -0.1251044 0.02657188 -0.019854762 0.07400832
-0.15768734 -0.018534197 -0.038857967 -0.11756185 0.004909564 -0.1545284 0.022036318 0.09740118
-0.009907015 0.092186034 0.10418981 -0.023708602 0.07409331 0.12478585 -0.0767109 -0.018118449
0.028149908 -0.064889595 0.08354006 -0.07582195 0.010714924 0.09918439 0.012055096 0.04741241
-0.00932871 0.037750743 0.07916895 0.0144321 -0.07773543 0.15236995 -0.039163064 -0.033962402
-0.056338076 0.09002948 0.16858336 -0.08470033 0.09548444 -0.044217747 -0.022255933 -0.060180333
0.035834115 0.08963678 0.10157176 -0.027849555 0.02094416 0.05357904 -0.033804018 0.14289662
0.13840033 0.1056059 -0.12210506 -0.027584497 -0.07628975 0.13980462 -0.07951738 0.120098144
-0.00969155 -0.12318381 -0.00029797296 -0.09713762 -0.11084287 0.027442938 -0.06648284 -0.08693346
0.011490948 0.054197434 0.06124709 0.019758066 -0.018594323 -0.015092728 -0.000194447 -0.11516699
-0.14156331 -0.051687922 -0.023640655 0.07967226 0.06899229 -0.015191574 -0.14194424 -0.103621796
0.113215476 0.024849601 0.13399495 -0.09400805 -0.1373912 0.08192364 -0.061744142 0.059160355
0.11265845 -0.02884591 -0.015473563 0.033279154 -0.059822787 0.012903271 -0.09314452 0.08811387
-0.046958566 0.05273561 -0.016146367 0.011939394 -0.10725682 -0.054889753 0.026779246 -0.05377004
0.10653563 0.024351249 0.05193349 -0.100668505 -0.026367245 0.11820311 0.008891734 0.033653926
0.09746629 0.05173257 -0.09419217 -0.07089435 -0.017578658 0.121362016 0.031625878 0.08954143
0.024553623 -0.073923 0.063620865 -0.09133739 0.12605931 -0.030707665 0.05409411 0.041848544
0.011365759 0.094844766 -0.022562321 0.01769952 0.057966925 -0.07386291 0.08197658 -0.11779177
-0.14077073 0.10052382 -0.07332145 0.090671994 -0.018282652 -0.016345493 0.05372786 0.105022
-0.017641908 0.07648345 0.14349717 -0.024830483 0.06243245 -0.12346279 -0.0428627 0.1389299
0.07471885 -0.0066693756 0.07714856 -0.044069532 0.10507477 0.12551774 0.023743814 0.10287642
-0.017640144 -0.017940672 -0.16722961 -0.09873327 0.09028079 -0.08502324 -0.003435725 -0.068907626
0.11375306 0.0020921244 -0.029502677 -0.06904471 0.010070255 -0.025137579 -0.1312123 -0.12124928
-0.07927207 0.10486773 0.012672325 0.039281927 0.08391399 -0.10554656 0.022042884 -0.06930496
0.046532962 -0.013648361 0.089531936 -0.013318126 -0.10396144 0.014008232 -0.01848257 0.13617288
-0.14103983 -0.029828819 -0.086404346 0.11827876 -0.015520753 -0.08902885 0.04170178 0.07113419
-0.08781428 0.039080385 -0.08498254 -0.11593062 0.11836967 0.1093061 0.079150535 -0.08343479
0.009986255 -0.04869073 -0.07348802 -0.017908052 -0.018250117 -0.01679313 0.00034347145 0.03671096
00000000: c218 b8bd ce00 08bd d2e6 13be 3f8d 743d
00000010: e9e4 2b3d 78c0 10be 624f 8b3d 154c 913d
00000020: f435 753c d67b 86bd 58f4 b73d c99e e33c
00000030: a708 09bd 8f75 e73d fa24 32bd 20a3 b5bd
00000040: 0cac 3dbd d403 e4bc 9009 e5bb 4b73 23bd
00000050: a15e fc3d 9f8f 0c3e ea45 ca3d 6604 7f3c
00000060: ce08 a1bc 8677 ca3c ba2f 683d ce93 b8bb
00000070: 21f0 9fbd 377a 6d3d 9397 483d 8aca 9ebd
00000080: cd87 e43d 963b b83d 7f34 98bc 4783 8a3d
00000090: 5e1b 00be 45ad d93c 74a6 a2bc ad91 973d
000000a0: ca78 21be 07d5 97bc 8829 1fbd 44c4 f0bd
000000b0: 68e0 a03b b13c 1ebe 8285 b43c 457a c73d
000000c0: 0851 22bc 08cc bc3d 7861 d53d 8b38 c2bc
000000d0: 3cbe 973d b98f ff3d 9b1a 9dbd 246d 94bc
000000e0: a39a e63c d6e4 84bd 0d17 ab3d 8a48 9bbd
000000f0: a68d 2f3c 2f21 cb3d bd82 453c 8433 423d
00000100: 72d7 18bc 86a0 1a3d 5523 a23d 9d74 6c3c
00000110: c133 9fbd de06 1c3e 7369 20bd 291c 0bbd
00000120: c1c2 66bd 6061 b83d 1ea1 2c3e 5e77 adbd
00000130: 598d c33d ab1d 35bd 1352 b6bc a77f 76bd
00000140: cbc6 123d 7d93 b73d db04 d03d c024 e4bc
00000150: 1693 ab3c b275 5b3d 1576 0abd 7e53 123e
00000160: d1b8 0d3e e847 d83d 3812 fabd e2f8 e1bc
00000170: cd3d 9cbd f128 0f3e 02da a2bd 04f6 f53d
00000180: 4fc9 1ebc cb47 fcbd 4139 9cb9 17f0 c6bd
00000190: 9601 e3bd 03d0 e03c 2828 88bd 2b0a b2bd
000001a0: 8744 3c3c 21fe 5d3d 3bde 7a3d abdb a13c
000001b0: 1f53 98bc 7d47 77bc 78e4 4bb9 acdc ebbd
000001c0: f9f5 10be b7b6 53bd 0caa c1bc 362b a33d
000001d0: d44b 8d3d 14e6 78bc d559 11be aa37 d4bd
000001e0: 84dd e73d 6491 cb3c f935 093e 4b87 c0bd
000001f0: 47b0 0cbe 95c7 a73d 6de7 7cbd 2152 723d
00000200: 79b9 e63d 424e ecbc d484 7dbc b94f 083d
00000210: bd08 75bd 3e68 533c 8ec2 bebd 0b75 b43d
00000220: a057 40bd 4c01 583d 6345 84bc 739d 433c
00000230: 77a9 dbbd 14d4 60bd 2660 db3c f93d 5cbd
00000240: 5a2f da3d 457c c73c 36b8 543d 4a2b cebd
00000250: 1f00 d8bc 7914 f23d a3ae 113c b3d8 093d
00000260: 689c c73d 88e5 533d d3e7 c0bd 0f31 91bd
00000270: 1e01 90bc a68c f83d 238a 013d 7f61 b73d
00000280: ae24 c93c f164 97bd a84b 823d 190f bbbd
00000290: b115 013e a48e fbbc c991 5d3d 6169 2b3d
000002a0: 7337 3a3c f93d c23d 9ed4 b8bc 95fe 903c
000002b0: ba6e 6d3d 7045 97bd 56e3 a73d d03c f1bd
000002c0: 3426 10be 6fdf cd3d 8e29 96bd 3db2 b93d
000002d0: 80c5 95bc fce6 85bc bf11 5c3d c615 d73d
000002e0: c385 90bc 5ba3 9c3d ecf0 123e 4c69 cbbc
000002f0: 2bb9 7f3d 0fda fcbd cc90 2fbd a443 0e3e
00000300: 3206 993d c78a dabb 1000 9e3d 4182 34bd
00000310: 7131 d73d b987 003e 6382 c23c dfb0 d23d
00000320: 1082 90bc 51f8 92bc 3d3e 2bbe ab34 cabd
00000330: 23e5 b83d aa20 aebd e729 61bb 711f 8dbd
00000340: 5df7 e83d 061c 093b 99af f1bc 5067 8dbd
00000350: b6fd 243c 53ed cdbc 845c 06be 8b51 f8bd
00000360: 6559 a2bd e4c4 d63d 959f 4f3c 16e6 203d
00000370: 19db ab3d cb28 d8bd 4793 b43c c2ef 8dbd
00000380: 5999 3e3d 609d 5fbc 855c b73d 4534 5abc
00000390: bce9 d4bd c982 653c c268 97bc e770 0b3e
000003a0: bf6c 10be 915b f4bc c3f4 b0bd 223c f23d
000003b0: c24a 7ebc c254 b6bd 7ccf 2a3d cdae 913d
000003c0: f9d7 b3bd c112 203d 530b aebd 086d edbd
000003d0: cc6b f23d e0db df3d ad19 a23d dcdf aabd
000003e0: 649d 233c ee6f 47bd e380 96bd e8b3 92bc
000003f0: 4581 95bc bf91 89bc f513 b439 3b5e 163d

critic.2.bias f4 [64]
-0.077232175 0.026299573 -0.11953529 -0.03379877 -0.07921004 -0.05943732 0.070555836 -0.09125203
-0.063762784 0.06639912 -0.11152451 -0.037833504 0.019883318 -0.042346854 0.0700927 -0.19395033
-0.049094178 0.05133728 0.045063455 0.03658375 -0.0836027 -0.017080044 -0.15909423 -0.062488426
0.049656764 -0.073139995 0.042716376 -0.07568451 0.14968166 0.040773712 0.0020529507 -0.104010746
0.12879236 -0.0875907 0.06026497 0.019649956 -0.009851459 -0.007308953 0.066372156 0.124629855
-0.122496516 0.06756561 -0.011278735 -0.10715304 -0.08729116 -0.112118214 0.12132932 -0.12164463
-0.02624892 -0.12821747 0.006304905 -0.036409885 0.036985617 -0.062184162 -0.10785543 -0.057016518
-0.08373775 -0.007879997 -0.026580224 -0.16431683 0.05072662 0.03175412 0.056230213 0.023346435
00000000: e72b 9ebd 3472 d73c ebce f4bd 9470 0abd
00000010: e038 a2bd 8c74 73bd 947f 903d 58e2 babd
00000020: 1096 82bd 43fc 873d f666 e4bd 4ef7 1abd
00000030: 57e2 a23c e573 2dbd c38c 8f3d ea9a 46be
00000040: fa16 49bd 0a47 523d 7594 383d d8d8 153d
00000050: e437 abbd 73eb 8bbc 99e9 22be ddf3 7fbd
00000060: e464 4b3d 6cca 95bd 5ef7 2e3d 7b00 9bbd
00000070: 2646 193e 5602 273d cc8a 063b 9603 d5bd
00000080: 25e2 033e c162 b3bd 67d8 763d f2f8 a03c
00000090: 0468 21bc f17f efbb 20ee 873d f03d ff3d
000000a0: 74df fabd d75f 8a3d 71ca 38bc 0e73 dbbd
000000b0: b5c5 b2bd 3c9e e5bd 827b f83d d220 f9bd
000000c0: fa07 d7bc 714b 03be 6099 ce3b 8822 15bd
000000d0: 3b7e 173d d2b4 7ebd 4fe3 dcbd 278a 69bd
000000e0: b37e abbd 1a1b 01bc c5be d9bc ac42 28be
000000f0: b7c6 4f3d 9c10 023d a751 663d 0641 bf3c

critic.4.weight f4 [1, 64]
0.006895344 0.080513015 0.044071566 -0.016808681 -0.048501715 -0.062930144 0.06671913 -0.03158816
-0.025887376 -0.029252341 0.046903476 -0.01064507 -0.015954232 -0.048619404 -0.099242225 0.10782617
0.045030378 -0.006616718 0.0788775 -0.024580609 -0.04116605 -0.031054521 -0.015446071 -0.020459628
-0.03426685 -0.043969993 0.027107751 0.011720328 -0.06629589 -0.043868206 0.019815542 -0.07576451
-0.04793914 0.0058368803 0.027239488 -0.07800657 -0.026083263 0.049561046 0.043973066 -0.026560474
0.021089276 -0.07402825 -0.036372688 -0.08934267 -0.052567203 -0.053495843 -0.025237914 -0.020055607
0.058960453 0.029007565 -0.011759147 -0.02920865 -0.019304192 -0.032554764 -0.066062324 0.062559724
-0.060910445 0.05947612 0.05511057 -0.004944627 0.049580693 0.02569136 0.027391525 -0.08546658
00000000: 56f2 e13b 02e4 a43d 6384 343d 5cb2 89bc
00000010: bca9 46bd 85e1 80bd 0aa4 883d 9662 01bd
00000020: c311 d4bc 9ba2 efbc dc1d 403d a968 2ebc
00000030: 73b2 82bc 2425 47bd 823f cbbd f8d3 dc3d
00000040: c671 383d 0ed1 d8bb 878a a13d 465d c9bc
00000050: bb9d 28bd 0d66 febc 8411 7dbc f39a a7bc
00000060: 665b 0cbd e119 34bd 1311 de3c 9e06 403c
00000070: 24c6 87bd 26af 33bd 3454 a23c 6c2a 9bbd
00000080: d55b 44bd 4d43 bf3b 5925 df3c e9c1 9fbd
00000090: 91ac d5bc 8600 4b3d 1a1d 343d 5a95 d9bc
000000a0: 6bc3 ac3c 209c 97bd 87fb 14bd 4af9 b6bd
000000b0: b550 57bd 751e 5bbd bebf cebc a84b a4bc
000000c0: 8480 713d 46a1 ed3c 70a9 40bc fb46 efbc
000000d0: d323 9ebc 2558 05bd af4b 87bd 501f 803d
000000e0: 3b7d 79bd 3b9d 733d 9fbb 613d 8a06 a2bb
000000f0: 2015 4b3d b076 d23c 3164 e03c 1a09 afbd

exp_avg f4 [6]
-0.00056880835 -0.0020833265 0.009655237 -0.00056526205 0.00017370631 0.0008394229
00000000: 151c 15ba 6b88 08bb 0031 1e3c 182e 14ba
00000010: ef24 3639 b80c 5c3a

exp_avg_sq f4 [6]
3.2186176e-06 4.9871738e-05 0.0017547443 4.060365e-05 2.2862465e-05 7.0031056e-05
00000000: 6eff 5736 5f2d 5138 73ff e53a d64d 2a38
00000010: c5c8 bf37 a3dd 9238

exp_avg f4 [64, 25]
3.975589e-06 5.0162347e-05 0.00010661516 8.900253e-05 -6.1691567e-06 0.00013435374 2.576703e-05 -3.0301988e-05
1.4211357e-05 6.0952707e-06 -9.206393e-06 2.8258646e-05 2.1219017e-05 2.0083448e-06 2.1264454e-05 4.1991458e-05
1.8036138e-07 4.1991458e-05 -1.8036177e-07 4.094335e-05 7.0575086e-05 0.00023790963 0.00020828376 -5.1293437e-06
0.00029703835 -3.0529466e-07 -1.6680491e-06 -3.338399e-06 -3.7472669e-06 -9.0982553e-07 -3.362107e-06 -2.3605784e-07
-1.5616929e-06 1.3739436e-06 3.5913808e-06 -9.683283e-07 2.1715932e-06 4.572415e-07 8.5258205e-07 6.3240105e-07
1.1328161e-06 4.876907e-07 1.1328161e-06 -4.876908e-07 9.635369e-07 -3.9813617e-06 -4.4842304e-06 -3.812767e-06
-1.3825507e-06 -3.3326528e-06 -6.6036766e-05 0.0005300629 0.0010216873 0.0008975777 -8.012319e-05 0.0012370129
-2.1319194e-05 -0.00015307931 -3.9455364e-05 -0.00018733398 -6.4561274e-05 -8.0100275e-05 0.00023110218 -2.4986626e-05
0.00022923895 0.0004708544 2.2754634e-06 0.0004708544 -2.2754668e-06 -6.797307e-05 0.0007800561 0.0020744673
0.0017602198 -6.5116255e-05 0.0023855162 -2.8196564e-06 2.4054058e-05 4.8810827e-05 5.219254e-05 4.723792e-06
5.010518e-05 1.9730087e-05 -2.6720165e-05 1.2250698e-05 9.2567525e-06 -4.4801764e-06 1.9136236e-05 1.3472312e-05
-9.140939e-09 1.3773411e-05 2.7532515e-05 1.2829765e-06 2.7532515e-05 -1.2829769e-06 9.251745e-06 2.888497e-05
0.000115103416 0.00012787194 1.4970335e-05 0.00012053164 0.00055237266 0.0026465375 0.005564742 0.0038447632
-0.0011598929 0.00785587 0.0003310896 -0.00077084807 -0.00017805138 -0.0009393144 -0.0002083353 6.617565e-05
0.00125682 6.0287184e-05 0.0012417126 0.002557577 -0.00018938494 0.002557577 0.0001893849 0.0018393927
0.0042244988 0.011306893 0.0074719423 -0.0018766524 0.0155847315 6.626839e-05 0.001276286 0.0025281906
0.0021566038 -0.00025453506 0.003190442 0.0001911674 -0.00030368933 -1.4833114e-05 -0.00040104488 -0.00034331589
-0.00016868084 0.0005690446 6.1825735e-06 0.0005684076 0.0011476504 -3.312496e-05 0.0011476504 3.312495e-05
0.0005316129 0.0020523227 0.005134396 0.0040988075 -0.00052792823 0.006202132 -0.00026615674 -0.0011166651
-0.0023628948 -0.0016001107 0.0006552813 -0.0033569764 -0.00013467246 0.00027993016 -5.610876e-05 0.00023131067
0.00021846467 -0.0002497413 -0.0005277549 -4.221658e-05 -0.0005442795 -0.0010886858 5.475543e-06 -0.0010886858
-5.475539e-06 -0.0006842616 -0.0018050767 -0.0048706816 -0.0031717885 0.0012158586 -0.006722118 1.9005858e-05
0.0027729277 0.00556083 0.004612091 -0.00033462167 0.0069518313 0.0008135763 -0.001065458 -7.0953014e-05
-0.00082369527 -0.0006718506 0.00021233298 0.0012274311 5.4480765e-06 0.0012233823 0.0025061397 -0.00013149122
0.0025061397 0.0001314912 0.0013855731 0.0040633446 0.011421366 0.009194105 -0.00044776357 0.013971378
-0.0003160794 -0.0015919368 -0.0032372589 -0.0022874905 0.0006551844 -0.004515509 -0.00021794015 0.00067595753
0.00027001856 0.0006888592 0.00015291244 0.00013304339 -0.00072739273 -1.46689035e-05 -0.00070817483 -0.0014635093
0.00010682917 -0.0014635093 -0.000106829146 -0.0010236305 -0.0023899244 -0.0064803846 -0.0044119884 0.0010045605
-0.008813652 -8.3736006e-05 -6.6803946e-06 -0.00014823813 -0.0003898486 -0.0002772618 0.00010912251 0.00019171604
-0.00017541849 -2.7832612e-05 7.8120815e-05 4.2185125e-06 8.151765e-07 -7.8710196e-05 -2.2407201e-05 -4.779951e-05
-0.000100786965 5.7140096e-05 -0.000100786965 -5.7140092e-05 0.00034337456 -0.00017882862 -0.0002899313 -0.0006901127
-0.0007101 0.00050680636 -9.098607e-05 -0.0011345505 -0.0024427553 -0.002030239 3.724012e-05 -0.0031333312
00000000: 0d66 8536 6965 5238 9496 df38 dfa6 ba38
00000010: a700 cfb6 4fe1 0c39 4726 d837 0631 feb7
00000020: 506d 6e37 fa85 cc36 2875 1ab7 fb0c ed37
00000030: 7eff b137 1ac7 0636 1161 b237 fc1f 3038
00000040: 5ca9 4134 fc1f 3038 77a9 41b4 96ba 2b38
00000050: b601 9438 6177 7939 bf66 5a39 ba1c acb6
00000060: d0bb 9b39 61e7 a3b4 bbe1 dfb5 4209 60b6
00000070: 8e79 7bb6 bc3a 74b5 8fa0 61b6 1677 7db4
00000080: 5c9b d1b5 5868 b835 7403 7136 82f7 81b5
00000090: b0bb 1136 cb7a f534 fedc 6435 45c2 2935
000000a0: 440b 9835 dae9 0235 440b 9835 dbe9 02b5
000000b0: e052 8135 a397 85b6 3f77 96b6 d7de 7fb6
000000c0: 1590 b9b5 8aa6 5fb6 387d 8ab8 ebf3 0a3a
000000d0: 23ea 853a 6b4b 6b3a cf07 a8b8 4423 a23a
000000e0: 9fd6 b2b7 ea83 20b9 e07c 25b8 156f 44b9
000000f0: 1265 87b8 82fb a7b8 0554 7239 5f9a d1b7
00000100: dd5f 7039 02dd f639 2ab4 1836 02dd f639
00000110: 39b4 18b6 c48c 8eb8 ae7c 4c3a c9f3 073b
00000120: 2db7 e63a 068f 88b8 5256 1c3b 5439 3db6
00000130: b2c7 c937 3aba 4c38 50e9 5a38 1081 9e36
00000140: 0728 5238 0a82 a537 1e25 e0b7 5988 4d37
00000150: 734d 1b37 6c54 96b6 c186 a037 2407 6237
00000160: 460a 1db2 5a14 6737 a0f5 e637 bd32 ac35
00000170: a0f5 e637 c032 acb5 f137 1b37 004e f237
00000180: ad63 f138 5d15 0639 1929 7b37 eec5 fc38
00000190: 1acd 103a 8871 2d3b 7058 b63b 6cf8 7b3b
000001a0: 8c07 98ba e8b5 003c 1896 ad39 bd12 4aba
000001b0: 4eb3 3ab9 533c 76ba 9574 5ab9 c8c7 8a38
000001c0: e2bb a43a dfdc 7c38 f6c0 a23a 069d 273b
000001d0: a295 46b9 069d 273b 9f95 4639 c717 f13a
000001e0: aa6d 8a3b 8c40 393c 32d7 f43b 01fa f5ba
000001f0: 1a57 7f3c 92f9 8a38 0d49 a73a 00b0 253b
00000200: cf55 0d3b 1e73 85b9 bc16 513b 1c74 4839
00000210: 7e38 9fb9 bddb 78b7 5543 d2b9 14ff b3b9
00000220: ebdf 30b9 f02b 153a e773 cf36 3001 153a
00000230: c26c 963a a8ef 0ab8 c26c 963a a5ef 0a38
00000240: f05b 0b3a 4380 063b 6f3e a83b 4a4f 863b
00000250: aa64 0aba 413b cb3b f48a 8bb9 105d 92ba
00000260: ccda 1abb ceba d1ba 2fc7 2b3a b800 5cbb
00000270: dd36 0db9 97c3 9239 5356 6bb8 fc8b 7239
00000280: aa13 6539 b6ef 82b9 0859 0aba b511 31b8
00000290: fbad 0eba 3cb2 8eba 8eba b736 3cb2 8eba
000002a0: 86ba b7b6 0560 33ba 5398 ecba 3d9a 9fbb
000002b0: c8dd 4fbb 725d 9f3a 3645 dcbb c56e 9f37
000002c0: 02ba 353b 9f37 b63b 0621 973b 2970 afb9
000002d0: 30cc e33b 2e46 553a d7a6 8bba 9ccc 94b8
000002e0: 41ed 57ba 211f 30ba b3a5 5e39 c1e1 a03a
000002f0: 9fce b636 e659 a03a 0c3e 243b e8e0 09b9
00000300: 0c3e 243b e6e0 0939 1e9c b53a ce25 853b
00000310: ae20 3b3c dfa2 163c cfc1 eab9 35e8 643c
00000320: 75b7 a5b9 89a8 d0ba 3128 54bb b9e9 15bb
00000330: aec0 2b3a d6f6 93bb dd86 64b9 be32 313a
00000340: 4791 8d39 8f94 343a 1f57 2039 9081 0b39
00000350: 80ae 3eba 761a 76b7 cfa4 39ba 39d3 bfba
00000360: 7909 e038 39d3 bfba 7609 e0b8 572b 86ba
00000370: 47a0 1cbb 6859 d4bb 7192 90bb 75ab 833a
00000380: 2367 10bc 6d9b afb8 2728 e0b6 5f70 1bb9
00000390: 9864 ccb9 735d 91b9 b4d8 e438 6207 4939
000003a0: 8bf0 37b9 147a e9b7 cbd4 a338 bf8c 8d36
000003b0: 81d2 5a35 3711 a5b8 19f7 bbb7 557c 48b8
000003c0: 975d d3b8 b6a9 6f38 975d d3b8 b5a9 6fb8
000003d0: f406 b439 f183 3bb9 ec01 98b9 aee8 34ba
000003e0: 0126 3aba 33db 043a c6cf beb8 33b5 94ba
000003f0: a216 20bb c20d 05bb 4632 1c38 9358 4dbb
