04-goal-pose-l6/logs/rsl_rl/joint_position/2026-02-18_14-34-58/model_1450.pt (torch, 161397 bytes, 36 tensors)

std f4 [6]
0.08276878 0.018724468 0.002686317 0.02259965 0.03024235 0.01715218
00000000: ae82 a93d 0e64 993c ec0c 303b e722 b93c
00000010: cebe f73c bb82 8c3c

actor.0.weight f4 [64, 25]
-0.037816156 0.2738016 -0.34729636 -0.24831904 -0.33609462 -0.19949833 0.02690521 -0.118448086
0.16016173 -0.12595952 0.06580289 0.0267692 -0.19047596 -0.3254244 -0.4144567 -0.3402499
-0.5017859 -0.1393614 0.5502027 -0.0028986651 0.32814503 -0.47926724 0.08499607 -0.104199916
-0.112735465 0.19451036 0.14248341 -0.3613049 -0.41311538 -0.07694447 -0.4236276 -0.14370373
0.0899327 0.06266863 0.028760102 -0.077709086 -0.052106388 -0.2781871 -0.030692834 -0.41334686
-0.22991353 1.0354301 -0.29856658 -0.9940015 0.0882639 0.15164275 -0.24508293 -0.20982449
0.21897766 -0.24083176 -0.33101386 0.2178296 -0.103935644 0.15260366 -0.24986053 0.12849964
-0.24990343 0.21447025 0.12565629 0.023105346 0.030504866 0.11561214 -0.42745742 -0.11313507
-0.068856396 -0.23041148 0.566424 -0.30584523 -0.5293328 -0.18076865 -0.2837461 -0.0016521522
0.1383311 0.09858146 -0.009499414 0.17035708 0.25711447 -0.0844684 -0.67571586 0.1366282
-0.5923923 0.097897775 0.08343357 -0.06922138 -0.1497685 0.07746823 -0.0005108738 -0.36583853
-0.21481635 -0.334673 -0.34697333 0.5230795 -0.29604784 -0.62135243 0.14068346 0.1137324
-0.19208273 0.17305773 -0.116860196 -0.030731093 -0.21675031 -0.4906794 0.30174407 0.1180485
-0.29496515 0.12228281 0.12133825 0.045281764 -0.0065613403 -0.039021954 -0.017219966 0.06407494
-0.00021534329 0.23680249 -0.74743956 -0.025107061 -1.477005 0.11446749 1.4949287 -0.1123393
0.04891801 -0.09918566 0.043758254 -0.060859878 -0.048297852 0.532498 -0.51098496 0.18661231
0.22656645 0.79908097 0.12848276 -0.06138999 0.05518433 -0.03055684 0.21609579 -0.218762
-0.0030912068 -0.5618625 -0.946099 -0.3620697 0.055643603 0.9451332 -0.10366388 -0.79258996
0.39025748 0.102861926 -0.16596377 0.014192035 -0.015251127 0.07077175 0.042934064 0.5054906
-0.103434846 -0.12808059 -0.7549714 -0.30454588 -0.18823028 -0.33623075 0.12696187 -0.0092229545
0.15475127 0.0759416 -0.17717649 2.3869362 0.8446789 -0.07945107 0.41933212 0.05156716
-0.2597588 -0.26700756 0.25016317 -0.06823591 0.110453054 -0.07525511 0.007315346 -0.22177972
0.35331553 0.09575641 0.092290506 -0.38972723 -0.3200657 0.06081128 0.10381026 0.08317082
-0.02078676 -0.014308796 -0.21930897 -1.0422652 0.9869507 -0.011688486 0.3016381 -0.020329952
0.027646719 -0.084040344 0.071323514 0.15540968 0.02783046 0.08736292 -0.02274841 -0.057914786
0.19858356 1.0584217 -0.30234143 -0.21093635 -0.40811732 0.23978369 -0.09663082 0.060414195
-0.120342225 -0.2703303 0.049065802 0.10042896 -0.15504164 -2.0292773 0.54870266 0.005020983
-1.3735827 0.18761761 1.4497787 0.11873641 0.34171474 -0.09798191 0.18435742 0.045035392
0.08364068 -0.39222732 -0.07016651 0.21924527 -0.26127213 -0.48416615 -0.08947681 -0.11041527
0.083166786 -0.123216346 -0.05866628 -0.04437073 0.08927181 -0.6835361 1.148877 0.58630115
0.16935006 -0.99238795 0.13971798 1.1041836 -0.10131861 -0.16977336 0.10809753 0.08995735
-0.067450196 -0.18074815 -0.9923917 0.34980014 -0.6839928 0.3066027 -0.90235853 0.46905854
00000000: 1de5 1abd b92f 8c3e d4d0 b1be 5947 7ebe
00000010: 9814 acbe 4a49 4cbe 5168 dc3c e994 f2bd
00000020: 7001 243e 88fb 00be aac3 863d 154b db3c
00000030: 210c 43be 079e a6be ab33 d4be 3c35 aebe
00000040: 0a75 00bf c1b4 0ebe 16da 0c3f 88f7 3dbb
00000050: a002 a83e 8462 f5be 6b12 ae3d c466 d5bd
00000060: dae1 e6bd b92d 473e 2ce7 113e f5fc b8be
00000070: dc83 d3be 1095 9dbd b7e5 d8be 1227 13be
00000080: a32e b83d 6958 803d 4e9a eb3c f125 9fbd
00000090: 826d 55bd 8a6e 8ebe 8a6f fbbc 33a2 d3be
000000a0: 746e 6bbe f988 843f b8dd 98be e276 7ebf
000000b0: b4c3 b43d 3d48 1b3e 05f7 7abe 3bdc 56be
000000c0: ae3b 603e 9a9c 76be a67a a9be b90e 5f3e
000000d0: 36dc d4bd 2244 1c3e 70db 7fbe 6995 033e
000000e0: afe6 7fbe 179e 5b3e 0bac 003e 6c47 bd3c
000000f0: 57e5 f93c 0fc6 ec3d b3db dabe 5cb3 e7bd
00000100: 9504 8dbd fdf0 6bbe 2a01 113f bf97 9cbe
00000110: 5b82 07bf 6b1b 39be 2b47 91be 078d d8ba
00000120: aba6 0d3e 14e5 c93d 6ea3 1bbc 1672 2e3e
00000130: 82a4 833e c5fd acbd b7fb 2cbf 43e8 0b3e
00000140: 06a7 17bf a17e c83d 38df aa3d f0c3 8dbd
00000150: ea5c 19be aaa7 9e3d 29ec 05ba 304f bbbe
00000160: d1f8 5bbe 425a abbe 7da6 b1be 8ae8 053f
00000170: 9593 97be f410 1fbf 530f 103e 88ec e83d
00000180: 56b1 44be 0c36 313e 6654 efbd c6bf fbbc
00000190: cbf3 5dbe 553a fbbe 337e 9a3e 69c3 f13d
000001a0: ac05 97be 696f fa3d 3080 f83d 5f79 393d
000001b0: 8300 d7bb 7cd5 1fbd e310 8dbc b939 833d
000001c0: c6cd 61b9 5a7c 723e 3358 3fbf 53ad cdbc
000001d0: 800e bdbf ee6d ea3d d359 bf3f 2612 e6bd
000001e0: 405e 483d da21 cbbd db3b 333d 3548 79bd
000001f0: f8d3 45bd ca51 083f e9cf 02bf 4c17 3f3e
00000200: 0901 683e 9290 4c3f fc90 033e 1274 7bbd
00000210: f708 623d 5752 fabc 3748 5d3e 2503 60be
00000220: d895 4abb 39d6 0fbf 8b33 72bf 3361 b9be
00000230: 8cea 633d 40f4 713f ba4d d4bd 2de7 4abf
00000240: d4cf c73e 46a9 d23d 68f2 29be b685 683c
00000250: dddf 79bc c7f0 903d a1db 2f3d d567 013f
00000260: a6d5 d3bd 8f27 03be ce45 41bf 70ed 9bbe
00000270: 70bf 40be 7026 acbe 4b02 023e e01b 17bc
00000280: 1e77 1e3e 4587 9b3d c16d 35be 90c3 1840
00000290: e03c 583f 3eb7 a2bd b3b2 d63e 1638 533d
000002a0: 1bff 84be 37b5 88be 6315 803e 45bf 8bbd
000002b0: 3635 e23d 5a1f 9abd 92b5 ef3b 391a 63be
000002c0: c6e5 b43e f01b c43d ce02 bd3d 548a c7be
000002d0: a7df a3be 4015 793d 799a d43d 7655 aa3d
000002e0: ff48 aabc 716f 6abc 8892 60be f268 85bf
000002f0: cda8 7c3f 1081 3fbc 4f70 9a3e 008b a6bc
00000300: 5f7b e23c 581d acbd 1012 923d b723 1f3e
00000310: b4fc e33c 55eb b23d e05a babc 0e38 6dbd
00000320: 7d59 4b3e 5d7a 873f 7fcc 9abe b3ff 57be
00000330: c1f4 d0be db89 753e 61e6 c5bd e074 773d
00000340: fc75 f6bd bc68 8abe 39f9 483d b3ad cd3d
00000350: 3cc3 1ebe aedf 01c0 c777 0c3f 0f87 a43b
00000360: 8fd1 afbf d51e 403e 5992 b93f 132c f33d
00000370: 3cf5 ae3e bdaa c8bd 31c8 3c3e 0877 383d
00000380: ce4b ab3d 05d2 c8be 76b3 8fbd d581 603e
00000390: 76c5 85be a0e4 f7be 9e3f b7bd 6721 e2bd
000003a0: 5953 aa3d da58 fcbd 0e4c 70bd 15be 35bd
000003b0: 24d4 b63d 39fc 2ebf 670e 933f d517 163f
000003c0: 1a6a 2d3e 230d 7ebf 3b12 0f3e e355 8d3f
000003d0: 2280 cfbd 11d9 2dbe 3d62 dd3d 8f3b b83d
000003e0: 5423 8abd 0b16 39be 620d 7ebf 0119 b33e
000003f0: 271a 2fbf 07fb 9c3e f800 67bf 7128 f03e

actor.0.bias f4 [64]
-0.27389422 -0.44172165 -0.23062187 -0.51982003 -0.099582896 -0.2989693 -0.07635369 0.12303012
-0.04870662 0.15345809 -0.052604444 -0.24183169 -0.15011244 -0.06086605 0.030097084 -0.1468779
0.061129164 0.20077081 -0.0982599 -0.07168764 0.041852232 -0.06053265 0.0011647245 -0.21254762
0.04997306 -0.20153101 0.05267745 -0.0011598524 -0.17631058 0.34491608 -0.15384202 -0.2973425
-0.012206099 -0.033472054 0.11227949 0.19711578 0.032823108 -0.41101044 0.15393741 -0.3475181
-0.0122722015 -0.07112788 -0.18910103 0.10975019 0.021673046 -0.2323782 0.0947519 -0.034774717
0.009422016 0.15350266 -0.12501441 -0.2145796 -0.23528926 -0.21257658 0.04436025 -0.25593522
0.009363086 -0.18388051 0.13807423 0.023681859 0.13341433 -0.032730676 0.22539288 0.17507054
00000000: dd3b 8cbe 5729 e2be 2428 6cbe ed12 05bf
00000010: 1ef2 cbbd 8112 99be 535f 9cbd 37f7 fb3d
00000020: 9880 47bd 1e24 1d3e c277 57bd baa2 77be
00000030: 13b7 19be ae4e 79bd 298e f63c 2967 16be
00000040: 9362 7a3d dd96 4d3e 7d3c c9bd f8d0 92bd
00000050: 3f6d 2b3d 16f1 77bd aba9 983a 15a6 59be
00000060: 8db0 4c3d 255e 4ebe 4fc4 573d 3006 98ba
00000070: c38a 34be d798 b03e c388 1dbe 473d 98be
00000080: 17fc 47bc fe19 09bd caf2 e53d b8d8 493e
00000090: 8671 063d f66f d2be c5a1 1d3e e4ed b1be
000000a0: 5811 49bc 7eab 91bd b3a3 41be b5c4 e03d
000000b0: ac8b b13c 8df4 6dbe 490d c23d ef6f 0ebd
000000c0: cd5e 1a3c cd2f 1d3e c703 00be c1ba 5bbe
000000d0: abef 70be adad 59be 18b3 353d f109 83be
000000e0: a167 193c 2c4b 3cbe 5563 0d3e 7500 c23c
000000f0: c49d 083e 9a10 06bd 64cd 663e b145 333e

actor.2.weight f4 [64, 64]
0.1933225 0.15278198 -0.0045545055 0.1449997 -0.094439276 -0.030286115 -0.014572893 0.063275844
-0.09857073 -0.20325413 0.080242895 0.059632283 -0.024981836 0.19570564 -0.029745126 0.032197718
-0.13677542 -0.009517703 -0.052601166 -0.07518227 0.045248635 -0.051929303 -0.1860895 -0.071843624
-0.032679353 -0.14732176 0.022634186 0.17873389 0.1517081 -0.051321775 0.0038605158 0.0045634196
0.11777979 0.16923551 -0.12442121 0.112324975 0.10269641 0.11601932 0.18011053 0.10632859
0.053607598 0.123662695 -0.015174742 -0.055421688 -0.09514189 0.1672551 -0.17421901 -0.073817715
-0.18905383 -0.24412456 0.019601258 -0.031265117 0.18026654 0.028644156 0.08072598 0.0022566763
-0.017277144 0.05707358 -0.16055624 -0.06389973 0.024566565 -0.010082556 -0.11736839 0.06672803
-0.042515725 -0.10648172 0.23913753 0.044355325 -0.13453189 0.22361204 0.13125744 0.23810951
-0.011110291 0.11672212 -0.24715714 -0.02954119 0.055646125 0.16250972 -0.13235396 0.04605364
0.029571097 -0.070682414 -0.11051571 -0.13704929 0.15236641 0.11227531 -0.21835043 0.0360245
-0.2035851 -0.02118078 0.09669303 0.0121161835 0.09209933 0.1863904 -0.17422625 -0.16978385
0.12061894 0.16206352 -0.06734351 0.08338003 -0.024617407 0.029695308 0.12488658 -0.02585175
0.003045953 0.089272425 0.015404169 -0.042812955 0.070317194 0.03058662 -0.14765307 -0.050587572
0.34064534 -0.17830305 -0.08587102 -0.07127129 0.022434218 -0.32240337 -0.040906623 0.37951162
-0.016536355 -0.086993225 -0.12649101 0.025679268 -0.4010388 -0.082504064 0.08978696 -0.10471503
0.16811283 0.5785131 -0.2169391 0.32838008 -0.18504778 -0.16457024 0.116401136 0.08654454
-0.12916242 -0.121148646 -0.03483624 0.22389445 -0.24861023 0.3145522 0.221165 0.05090044
-0.30715233 -0.0013995446 -0.04694028 -0.09651346 0.06671406 -0.13411051 -0.026406532 -0.16229604
0.13734163 -0.014499769 0.3321868 0.21336906 0.2182313 0.012342285 -0.059404485 0.024716001
0.25517222 0.2159285 -0.041447375 -0.026788777 -0.038244385 0.0597315 0.28428885 0.19372983
-0.19259325 0.4631188 -0.26233107 -0.25251564 0.040523473 0.18770185 0.022936461 -0.11288719
-0.17170273 -0.0024596283 -0.102865264 -0.09667821 0.24944781 -0.0017682234 0.124287404 0.11622835
-0.038605854 0.018379003 0.15168628 0.19676822 0.118473075 -0.026562987 -0.1349501 -0.011736784
0.044507507 0.095591225 -0.14629945 -0.08942364 0.13012491 -0.08584219 -0.3458305 -0.2783719
-0.22407661 -0.44116136 -0.07451159 -0.07640359 0.22166929 0.19388166 -0.06833315 -0.07992802
0.17619047 -0.03954038 0.1506724 0.40228367 -0.077558756 0.011411539 0.20541441 -0.041271247
0.055401593 0.01695356 -0.056212407 -0.07154117 -0.021051353 -0.26312333 0.20285414 0.09018679
-0.09657969 0.009437968 -0.3485383 0.094205536 0.0018687503 -0.07313266 -0.031406082 0.032026023
0.18432984 0.15938832 0.14623043 0.04073316 0.13152753 0.13322833 0.28375426 0.19656454
-0.32314488 0.16229737 0.394665 -0.19314414 0.09230733 0.3110203 -0.14945666 -0.4499537
0.103614144 0.11369742 -0.1588692 -0.094567575 0.5876328 0.06925734 0.2323761 0.16455142
00000000: 55f6 453e e172 1c3e f63d 95bb cd7a 143e
00000010: 6169 c1bd 961a f8bc 25c3 6ebc c496 813d
00000020: 73df c9bd da21 50be 6356 a43d fb40 743d
00000030: b5a6 ccbc 0f67 483e 0dac f3bc c1e1 033d
00000040: db0e 0cbe 24f0 1bbc 5274 57bd 29f9 99bd
00000050: a256 393d d2b3 54bd 3f8e 3ebe c022 93bd
00000060: c9da 05bd 84db 16be 546b b93c 0406 373e
00000070: 5e59 1b3e c836 52bd b500 7d3b bd88 953b
00000080: 8836 f13d 134c 2d3e 8cd0 febd a30a e63d
00000090: 7f52 d23d 8a9b ed3d e56e 383e cec2 d93d
000000a0: a493 5b3d de42 fd3d 7b9f 78bc da01 63bd
000000b0: c0d9 c2bd ec44 2b3e 7866 32be be2d 97bd
000000c0: 5497 41be cafb 79be d192 a03c da0f 00bd
000000d0: cb97 383e 26a7 ea3c aa53 a53d bfe4 133b
000000e0: cc88 8dbc fcc5 693d db68 24be dddd 82bd
000000f0: d23f c93c 4e31 25bc d75e f0bd b5a8 883d
00000100: f824 2ebd 1713 dabd 78e0 743e eead 353d
00000110: bac2 09be 8efa 643e 5a68 063e fbd2 733e
00000120: f007 36bc 020c ef3d c316 7dbe 5e00 f2bc
00000130: 31ed 633d f368 263e cc87 07be bea2 3c3d
00000140: 163f f23c f1c1 90bd 1056 e2bd a656 0cbe
00000150: f105 1c3e 99f0 e53d 4197 5fbe 6d8e 133d
00000160: 9d78 50be 5183 adbc ff06 c63d f582 463c
00000170: 939e bc3d 20dd 3e3e 5e68 32be d1db 2dbe
00000180: 1007 f73d fbf3 253e 65eb 89bd 26c3 aa3d
00000190: 72aa c9bc 9343 f33c 89c4 ff3d 0dc7 d3bc
000001a0: 9d9e 473b 76d4 b63d c561 7c3c a35c 2fbd
000001b0: 7602 903d cb90 fa3c 5e32 17be ea34 4fbd
000001c0: 1169 ae3e 1395 36be 25dd afbd aff6 91bd
000001d0: f7c7 b73c 0e12 a5be b48d 27bd 594f c23e
000001e0: 4077 87bc 8129 b2bd dc86 01be 545d d23c
000001f0: f554 cdbe e4f7 a8bd 3ae2 b73d d574 d6bd
00000200: c525 2c3e 6f19 143f 4925 5ebe 6f21 a83e
00000210: 2a7d 3dbe 1a85 28be b863 ee3d 443e b13d
00000220: 2743 04be c81c f8bd 72b0 0ebd 9644 653e
00000230: ae93 7ebe fc0c a13e 1479 623e fb7c 503d
00000240: 1243 9dbe ed70 b7ba 7344 40bd d9a8 c5bd
00000250: 62a1 883d 4454 09be 8352 d8bc ef30 26be
00000260: 49a3 0c3e 7090 6dbc 6314 aa3e 6b7d 5a3e
00000270: 0778 5f3e 4c37 4a3c 1e52 73bd 3679 ca3c
00000280: efa5 823e 5c1c 5d3e b9c4 29bd 2374 dbbc
00000290: 25a6 1cbd 04a9 743d 4f8e 913e 1d61 463e
000002a0: 2a37 45be e81d ed3e 4250 86be bb49 81be
000002b0: f1fb 253d ea34 403e 3fe5 bb3c 6631 e7bd
000002c0: d7d2 2fbe b731 21bb 06ab d2bd 3aff c5bd
000002d0: 3f6f 7f3e bbc3 e7ba 658a fe3d 2109 ee3d
000002e0: 2c21 1ebd 908f 963c a653 1b3e 9c7d 493e
000002f0: 03a2 f23d 9f9a d9bc 5c30 0abe a44b 40bc
00000300: 814d 363d 55c5 c33d 86cf 15be be23 b7bd
00000310: 773f 053e 08ce afbd b210 b1be c386 8ebe
00000320: 5774 65be e7df e1be 8899 98bd 7c79 9cbd
00000330: 46fd 623e ea88 463e 40f2 8bbd 4db1 a3bd
00000340: 466b 343e 18f5 21bd de49 1a3e 20f8 cd3e
00000350: 20d7 9ebd 77f7 3a3c 2858 523e 0a0c 29bd
00000360: c8ec 623d 31e2 8a3c fb3e 66bd 2d84 92bd
00000370: e373 acbc 1ab8 86be ffb8 4f3e dab3 b83d
00000380: 93cb c5bd b5a1 1a3c 9d73 b2be d5ee c03d
00000390: dbf0 f43a 93c6 95bd aaa3 00bd b82d 033d
000003a0: f6c0 3c3e b136 233e 6ebd 153e d0d7 263d
000003b0: 27af 063e 026d 083e 3d48 913e 3748 493e
000003c0: 3f73 a5be 4831 263e 8811 ca3e 94c7 45be
000003d0: a00b bd3d 0e3e 9f3e 2b0b 19be 5560 e6be
000003e0: a733 d43d 31da e83d 9cae 22be a5ac c1bd
000003f0: 1a6f 163f cbd6 8d3d 00f4 6d3e 2b80 283e

actor.2.bias f4 [64]
-0.19035877 0.015679955 -0.3522389 -0.0837682 0.15740064 -0.24576592 -0.005495348 -0.321476
-0.18552233 0.13808702 -0.2229583 0.14453948 -0.14685781 -0.056272954 -0.09312546 -0.022599652
-0.13450785 0.17209159 -0.025782282 -0.31517276 0.24826983 0.086668596 -0.3383577 -0.017770704
0.14467217 -0.087766424 -0.13279906 0.058481835 -0.08024319 -0.08295063 -0.47388092 0.08534266
-0.2914798 0.012658149 -0.4924633 -0.32384786 -0.004842575 -0.10841676 0.25228465 -0.0055345134
0.015812986 -0.11520348 -0.008017492 0.054008733 -0.03868781 0.032608762 0.022697857 -0.017144803
0.048941452 -0.045645196 0.16658987 -0.23760502 -0.33989784 -0.034509525 -0.42080796 -0.19804688
-0.056965835 -0.2561519 -0.06309988 -0.07519774 -0.047132846 0.0048873005 0.060196765 -0.22021906
00000000: 69ed 42be 4073 803c a858 b4be a98e abbd
00000010: a22d 213e 10aa 7bbe 5212 b4bb 8198 a4be
00000020: 91f9 3dbe af66 0d3e 2e4f 64be 2802 143e
00000030: e561 16be 787e 66bd 90b8 bebd e822 b9bc
00000040: 6dbc 09be c738 303e 5d35 d3bc 535e a1be
00000050: 723a 7e3e 4e7f b13d 383d adbe de93 91bc
00000060: f124 143e e2be b3bd 7afc 07be a68a 6f3d
00000070: 8b56 a4bd 05e2 a9bd 85a0 f2be 22c8 ae3d
00000080: d73c 95be 2064 4f3c 2624 fcbe 63cf a5be
00000090: 77ae 9ebb 9b09 debd 742b 813e dd5a b5bb
000000a0: 3c8a 813c cdef ebbd cc5b 03bc 4338 5d3d
000000b0: 1c77 1ebd c490 053d dbf0 b93c 4273 8cbc
000000c0: d576 483d 75f6 3abd 8996 2a3e bb4e 73be
000000d0: 1707 aebe dc59 0dbd 2474 d7be cdcc 4abe
000000e0: 0255 69bd 5826 83be 833a 81bd 4601 9abd
000000f0: 5f0e 41bd a625 a03b e290 763d 1b81 61be

actor.4.weight f4 [6, 64]
-0.039061602 0.076706216 0.03431608 -0.040001735 -0.011640747 0.10393977 -0.071585126 0.011000453
0.11547042 0.12197346 -0.10121948 0.15395726 -0.25669363 -0.112762704 0.15418397 0.079217196
-0.062161565 0.06441224 -0.07067824 0.115401216 -0.087327205 0.0010749546 0.06898433 0.0050982754
-0.07284016 0.16570458 0.12519328 -0.061842225 -0.13350043 -0.04185991 0.08677181 0.060200956
-0.01726394 -0.02166283 0.117772765 -0.26003373 -0.32297173 0.119067654 -0.077076346 -0.010491285
-0.115942106 -0.097588316 0.17922547 0.092113055 0.24386786 0.18828762 -0.0031087862 0.0008204239
-0.0870856 -0.03505329 0.08567652 -0.042151913 -0.088692814 0.09782676 -0.03515773 -0.07748565
-0.03243961 -0.040381413 -0.052288648 -0.10927663 -0.06778778 -0.121622905 0.022299096 0.13670634
-0.049675692 -0.13489708 -0.05513281 0.36775514 0.043998517 0.1431435 -0.24314281 0.08770648
0.010851815 0.027833475 -0.1128203 -0.19799793 -0.05808122 -0.063969366 -0.23070419 0.04308248
-0.07007498 -0.16826876 -0.02168678 0.011258326 -0.0376317 0.0024105075 -0.046261985 0.1019616
-0.057501312 -0.23205663 -0.02454327 -0.2092311 -0.13352005 -0.09777824 0.07893325 0.06022268
-0.08190241 -0.07226632 0.060849864 -0.17813595 -0.10343029 -0.10983062 0.082650244 -0.019158067
-0.1286111 -0.09728609 0.106300674 0.17802237 -0.012900265 -0.07986124 -0.2022186 -0.10818508
0.06375899 0.051480725 -0.03405356 -0.14607367 -0.0013948824 -0.14477636 -0.06522242 -0.039309792
-0.059929773 -0.1720627 0.24705528 -0.18726136 -0.1554103 -0.086831436 -0.16512999 0.17784096
-0.036341213 0.016085073 0.024203224 -0.065897524 0.10648588 -0.07112993 0.13330951 -0.09509937
0.10264717 0.11336367 0.06374416 -0.07079817 0.040827107 -0.1270237 -0.27425244 0.03278965
-0.25182772 0.04111558 -0.13492358 -0.08157616 0.11035104 -0.124237485 0.13113815 -0.11174652
0.008495809 -0.06519854 -0.10812053 0.07328533 -0.20418361 -0.07625147 -0.24505149 0.038107887
-0.08701423 0.031261556 -0.09110417 0.069798775 0.3311794 0.13484265 0.034734037 -0.014508435
0.02942517 -0.039512824 0.066320635 0.13651815 0.22824812 0.009053103 0.07299259 -0.02560328
0.15484066 0.13635999 0.056977965 -0.059492644 -0.13187274 0.066077776 0.042508356 -0.06830366
-0.04705396 -0.12157515 -0.12158025 -0.08231185 -0.122602366 -0.09262901 -0.07276065 0.15331993
-0.102364674 0.03272096 -0.32658494 0.007814597 0.16995408 -0.1799499 -0.07031175 -0.33963826
-0.022986474 0.08492047 -0.05835553 -0.0047015315 0.026192406 -0.112768516 0.03781717 0.13921995
-0.1279886 -0.08621075 0.015364352 -0.31951413 0.12669276 0.07454663 -0.16859666 0.10453248
0.059970647 -0.07421537 -0.0015277945 -0.03545263 -0.08446179 -0.0011261494 -0.35845944 0.039779082
-0.19619898 0.078971945 -0.27581587 -0.041093454 -0.0032968456 -0.011156935 0.1893053 -0.1282751
0.23938112 -0.060539242 0.11391925 0.0631537 -0.01078344 -0.13743815 -0.098982856 -0.02332789
0.073061146 0.064102925 -0.06726949 -0.07522105 -0.24369629 0.023220506 -0.2225058 -0.12085577
-0.10273363 -0.14416675 0.101925455 0.106458835 0.053621296 -0.031947806 0.08476563 -0.0732269
00000000: 0fff 1fbd 2618 9d3d 058f 0c3d dcd8 23bd
00000010: d5b8 3ebc 60de d43d 399b 92bd 3e3b 343c
00000020: c17b ec3d 39cd f93d 294c cfbd f9a6 1d3e
00000030: 596d 83be 22f0 e6bd 67e2 1d3e a03c a23d
00000040: 209d 7ebd 91ea 833d c1bf 90bd 7957 ec3d
00000050: 9bd8 b2bd 7ee5 8c3a a847 8d3d 6f0f a73b
00000060: 392d 95bd 76ae 293e ab32 003e 464e 7dbd
00000070: 56b4 08be 4c75 2bbd 6bb5 b13d 4795 763d
00000080: 1b6d 8dbc 3f76 b1bc d932 f13d 2423 85be
00000090: 8d5c a5be bed9 f33d 34da 9dbd a3e3 2bbc
000000a0: 0e73 edbd 62dc c7bd e286 373e c5a5 bc3d
000000b0: 7fb8 793e 78ce 403e c7bc 4bbb b711 573a
000000c0: ef59 b2bd 0a94 0fbd 2c77 af3d 7ca7 2cbd
000000d0: 94a4 b5bd 6559 c83d 8d01 10bd ccb0 9ebd
000000e0: 66df 04bd fb66 25bd 9f2c 56bd 6dcc dfbd
000000f0: 52d4 8abd 6e15 f9bd 98ac b63c bffc 0b3e
00000100: bd78 4bbd 7622 0abe f1d2 61bd 674a bc3e
00000110: ca37 343d 3694 123e 6efa 78be 749f b33d
00000120: d0cb 313c 0703 e43c 540e e7bd f8bf 4abe
00000130: 93e6 6dbd 5f02 83bd b83d 6cbe 4177 303d
00000140: 7983 8fbd a54e 2cbe 79a8 b1bc d774 383c
00000150: b323 1abd 9bf9 1d3b 357d 3dbd 3ed1 d03d
00000160: 7f86 6bbd 41a0 6dbe f80e c9bc ad40 56be
00000170: 7bb9 08be f53f c8bd c1a7 a13d 0fac 763d
00000180: 73bc a7bd 5d00 94bd b53d 793d 4569 36be
00000190: 43d3 d3bd e0ee e0bd 8844 a93d 61f1 9cbc
000001a0: a1b2 03be ee3d c7bd 2bb4 d93d 7f4b 363e
000001b0: a25b 53bc 4a8e a3bd 6512 4fbe 2490 ddbd
000001c0: 1394 823d 74dd 523d bf7b 0bbd 5694 15be
000001d0: 7dd4 b6ba 4140 14be 5593 85bd 4e03 21bd
000001e0: ec78 75bd 3431 30be 0ffc 7c3e 71c1 3fbe
000001f0: e123 1fbe aed4 b1bd d617 29be f11b 363e
00000200: 86da 14bd d8c4 833c d745 c63c 48f5 86bd
00000210: 4515 da3d 92ac 91bd 4a82 083e 75c3 c2bd
00000220: ae38 d23d 362b e83d 4c8c 823d a2fe 90bd
00000230: 533a 273d 8012 02be d16a 8cbe 714e 063d
00000240: 90ef 80be cf68 283d 6829 0abe 6711 a7bd
00000250: baff e13d 3970 febd 1449 063e 5cdb e4bd
00000260: 0132 0b3c d086 85bd 4c6e ddbd 9e16 963d
00000270: 8215 51be bb29 9cbd c7ee 7abe 0417 1c3d
00000280: 8434 b2bd 1e0c 003d d394 babd a9f2 8e3d
00000290: 5990 a93e 3114 0a3e 4745 0e3d c9b4 6dbc
000002a0: 0e0d f13c 33d8 21bd 1dd3 873d 6acb 0b3e
000002b0: e0b9 693e 7753 143c 247d 953d f8bd d1bc
000002c0: 8d8e 1e3e f4a1 0b3e ba61 693d 8fae 73bd
000002d0: a609 07be c953 873d 3e1d 2e3d cae2 8bbd
000002e0: a7bb 40bd 64fc f8bd 11ff f8bd 1d93 a8bd
000002f0: f316 fbbd 47b4 bdbd 8903 95bd e6ff 1c3e
00000300: 92a4 d1bd 6a06 063d 2436 a7be cc08 003c
00000310: 7108 2e3e c944 38be 9bff 8fbd 11e5 adbe
00000320: 214e bcbc c9ea ad3d 3506 6fbd 4e0f 9abb
00000330: 7591 d63c 2ef3 e6bd 2de6 1a3d ad8f 0e3e
00000340: 720f 03be 438f b0bd c3ba 7b3c 5b97 a3be
00000350: bfbb 013e e7ab 983d 9aa4 2cbe 2015 d63d
00000360: c8a3 753d 3afe 97bd 4740 c8ba c736 11bd
00000370: 4efa acbd 4e9b 93ba ff87 b7be 64ef 223d
00000380: 63e8 48be 0bbc a13d bd37 8dbe 9c51 28bd
00000390: e40f 58bb 94cb 36bc 40d9 413e 8c5a 03be
000003a0: 5320 753e fff7 77bd 7f4e e93d ba56 813d
000003b0: 07ad 30bc 96bc 0cbe 86b7 cabd 221a bfbc
000003c0: 15a1 953d 6548 833d 96c4 89bd 7e0d 9abd
000003d0: 858b 79be ee38 be3c 8fd8 63be 3b83 f7bd
000003e0: 0266 d2bd 73a0 13be 4bbe d03d 1707 da3d
000003f0: 01a2 5b3d b4db 02bd 9a99 ad3d fcf7 95bd

actor.4.bias f4 [6]
-0.24674639 0.003992788 0.11627783 0.29054385 0.08847747 0.25692144
00000000: 16ab 7cbe efd5 823b 1223 ee3d 2ac2 943e
00000010: ad33 b53d 358b 833e

critic.0.weight f4 [64, 25]
0.1800459 0.05376149 0.07735695 -0.1250423 0.08451693 -0.09485907 0.015804404 -0.053724926
0.039367296 -0.029682571 0.026292104 0.014490695 -0.11936569 0.19493987 -0.20099223 -0.12179601
0.81908965 -0.00494676 -0.7341255 0.047444757 -0.056526672 -0.13842951 0.071496055 -0.06441439
0.061613806 0.2896958 -0.17252505 -0.21822725 -0.1985617 -0.105127424 0.030489115 0.09936953
0.2572259 -0.15279303 -0.083163165 0.03114876 0.07795497 -0.24850154 0.4184607 -0.041023254
0.019279977 0.1707536 -0.007921958 -0.322248 -0.13744389 -0.16593696 0.11343766 -0.06270987
-0.115308635 0.11708521 -0.16165823 0.0019765005 -0.0008012513 0.040939514 0.079986155 0.15923809
0.020456444 0.060661215 -0.058362875 -0.025315242 -0.08385389 0.004031745 0.17451072 -0.669966
-0.19360456 0.18921086 -0.30520108 -0.12599355 0.059241105 -0.077081956 -0.036057718 0.099423684
-0.05794963 0.041276805 -0.045837894 -0.24847257 0.00041097755 0.009875285 0.1237813 -0.21461782
-0.12827471 0.077434786 -0.27402893 0.12433401 -0.08615298 0.03292473 0.07817247 0.16458315
-0.41066676 0.21121715 -0.18691142 0.060149614 0.16332665 0.111309886 0.026019426 0.1722111
0.050280534 0.10647952 -0.0928775 -0.14383231 0.17325896 -0.08390621 0.19505805 -0.21910387
-0.110021584 -0.19785489 0.077727824 0.045503907 -0.013908417 -0.053783953 0.009479856 -0.07329363
-0.25510353 1.0162779 0.37305346 0.076620154 0.15070425 0.0589185 -0.08072659 -0.11152268
0.1479542 0.037785172 0.12326011 0.0051351134 -0.01792363 -0.31555182 -0.09456107 0.08616208
-0.10388412 -0.0036582402 0.23280005 -0.05658993 0.073045075 -0.019439561 -0.048899323 -0.06979572
0.059979256 -0.16115056 -0.23109649 -0.20167717 -0.15422691 -0.45348468 -0.019016027 0.35003337
-0.023181722 0.06733694 0.08022169 -0.065638795 0.04227247 -0.021840546 0.13988164 0.1894977
-0.14345841 -0.063008286 0.11474248 0.043266132 -0.12869397 -0.039248884 -0.013232747 0.002863132
0.12852286 0.112049766 -0.2157614 0.5697339 0.14301202 0.02730971 0.48909006 -0.12124965
-0.31291786 0.016276583 0.01598534 0.06609414 0.07592923 0.02592965 -0.10578609 -0.2609265
-0.16639674 -0.30694062 0.12048678 0.16808717 0.032851063 -0.017362872 0.059230924 0.03852996
0.065383196 0.06235234 0.031289175 0.23881595 0.91060674 -0.43132108 0.17397092 0.15257671
-0.14596175 -0.19452016 -0.16055068 -0.036863346 0.048223432 0.07129699 -0.06677508 -0.093460925
0.20086707 -0.22433801 0.040496852 -0.10210846 0.07930058 -0.06640504 0.10320951 -0.08473381
0.022589216 -0.14477313 0.06328244 -0.011749617 0.0948379 -0.20075348 -0.33215365 -0.1428291
0.111344144 0.11646751 0.05329658 -0.032263763 0.08127832 -0.13472794 0.15802422 -0.18669254
0.070708744 -0.21308933 -0.16387248 0.03505762 -0.11663613 0.03652069 -0.11567388 -0.00084552006
0.031566463 -0.0053691273 -0.10095814 0.008505455 0.017408475 0.2880995 4.59129 -0.7776722
-0.22752349 0.68342155 -0.23779505 -0.55014324 -0.053091805 0.023983404 -0.00417068 0.04253068
-0.07193543 0.03491466 0.14797322 -0.1207369 -0.19955166 -0.079178706 0.11314878 0.009095654
00000000: f45d 383e 0235 5c3d 526d 9e3d 170b 00be
00000010: 3617 ad3d 7945 c2bd 3d78 813c ab0e 5cbd
00000020: 9a3f 213d dd28 f3bc 8a62 d73c 616a 6d3c
00000030: 0076 f4bd 519e 473e e8d0 4dbe 3070 f9bd
00000040: dcaf 513f 6e18 a2bb a6ef 3bbf 6f55 423d
00000050: 8388 67bd 77c0 0dbe 866c 923d b1eb 83bd
00000060: c25e 7c3d 0253 943e 68aa 30be f776 5fbe
00000070: c253 4bbe 0c4d d7bd 4fc4 f93c 4182 cb3d
00000080: 1db3 833e c775 1cbe 7351 aabd af2b ff3c
00000090: dba6 9f3d 3077 7ebe 7b40 d63e 0008 28bd
000000a0: 0bf1 9d3c 08da 2e3e 1acb 01bc b1fd a4be
000000b0: 17be 0cbe 61eb 29be 0152 e83d 086e 80bd
000000c0: ef26 ecbd 5fca ef3d bc89 25be 2d88 013b
000000d0: 110b 52ba 31b0 273d c8cf a33d 4f0f 233e
000000e0: 4694 a73c e577 783d e90d 6fbd e961 cfbc
000000f0: 97bb abbd ba1c 843b f0b2 323e e482 2bbf
00000100: 4640 46be 7ec0 413e 5143 9cbe 7404 01be
00000110: cda6 723d 25dd 9dbd 42b1 13bd a59e cb3d
00000120: 975c 6dbd de11 293d 84c0 3bbd 986f 7ebe
00000130: 7978 d739 f3cb 213c 0d81 fd3d c6c4 5bbe
00000140: 725a 03be 2196 9e3d 854d 8cbe d4a2 fe3d
00000150: f970 b0bd 15dc 063d e318 a03d 7c88 283e
00000160: ea42 d2be 4f49 583e b565 3fbe 715f 763d
00000170: 1a3f 273e 70f6 e33d b126 d53c 1b58 303e
00000180: f6f2 4d3d ef11 da3d 8f36 bebd c748 13be
00000190: cc6a 313e 05d7 abbd 4cbd 473e c45c 60be
000001a0: ff52 e1bd 799a 4abe c42f 9f3d 4e62 3a3d
000001b0: 21e0 63bc 904c 5cbd 6651 1b3c f81a 96bd
000001c0: ee9c 82be 6515 823f dd00 bf3e 07eb 9c3d
000001d0: 3752 1a3e 8654 713d fb53 a5bd 0166 e4bd
000001e0: 4e81 173e a0c4 1a3d cc6f fc3d 7444 a83b
000001f0: 94d4 92bc 0290 a1be 3ca9 c1bd bf75 b03d
00000200: 33c1 d4bd 16bf 6fbb 2363 6e3e d8ca 67bd
00000210: a898 953d b73f 9fbc a84a 48bd 0ff1 8ebd
00000220: cfac 753d a704 25be 8fa4 6cbe 7684 4ebe
00000230: a9ed 1dbe 252f e8be 80c7 9bbc 9337 b33e
00000240: 98e7 bdbc f3e7 893d 454b a43d a26d 86bd
00000250: e625 2d3d f2ea b2bc 223d 0f3e af0b 423e
00000260: c3e6 12be 7d0a 81bd 1bfe ea3d d437 313d
00000270: 5ac8 03be 70c3 20bd 2ace 58bc 62a3 3b3b
00000280: 7f9b 033e 597a e53d 8ef0 5cbe 15da 113f
00000290: be71 123e 9db8 df3c 036a fa3e bd51 f8bd
000002a0: c536 a0be 7856 853c b0f3 823c 5d5c 873d
000002b0: c980 9b3d 6b6a d43c 61a6 d8bd 2998 85be
000002c0: e863 2abe 5227 9dbe c6c1 f63d 0b1f 2c3e
000002d0: d68e 063d 953c 8ebc 209c 723d 97d1 1d3d
000002e0: a0e7 853d 2b65 7f3d 1429 003d 2b8c 743e
000002f0: 861d 693f 1ed6 dcbe 6f25 323e 123d 1c3e
00000300: ff76 15be 4b30 47be 6667 24be 05fe 16bd
00000310: ef85 453d 2804 923d 60c1 88bd 7168 bfbd
00000320: 19b0 4d3e ddb8 65be 07e0 253d 3e1e d1bd
00000330: 5868 a23d 5eff 87bd 825f d33d eb88 adbd
00000340: 050d b93c 683f 14be 399a 813d 7781 40bc
00000350: 5f3a c23d 5292 4dbe 0b10 aabe cb41 12be
00000360: 6608 e43d 8586 ee3d 844d 5a3d 0227 04bd
00000370: 3f75 a63d 1ff6 09be 1ad1 213e 542c 3fbe
00000380: bfcf 903d 1734 5abe 30ce 27be 9498 0f3d
00000390: ecde eebd b896 153d 6de6 ecbd e4a5 5dba
000003a0: d64b 013d 81ef afbb 24c3 cebd 775a 0b3c
000003b0: 389c 8e3c c781 933e d9eb 9240 8615 47bf
000003c0: ebfb 68be b7f4 2e3f 8c80 73be 30d6 0cbf
000003d0: cb76 59bd d878 c43c 33aa 88bb a634 2e3d
000003e0: e252 93bd ad02 0f3d 4b86 173e e844 f7bd
000003f0: 4557 4cbe 7228 a2bd 8cba e73d f005 153c

critic.0.bias f4 [64]
0.19562896 0.2169441 -0.17809892 -0.01086059 0.03355005 -0.23854114 0.1613902 -0.13858344
-0.01470836 0.09764373 0.14401104 0.08940757 -0.19591165 -0.041806106 0.057954542 0.014268338
-0.20187674 -0.036761675 0.060194407 0.079512835 0.17367545 0.06120819 0.076888025 0.12078652
-0.0244273 -0.029779157 -0.05503013 -0.038902696 0.047567334 0.14446051 -0.025304353 -0.10208481
-0.048623916 -0.08181662 0.23468825 -0.08223524 0.008901537 -0.08193876 -0.010842637 0.11200696
-0.20760626 -0.15084705 -0.058385495 0.13554361 -0.011468925 -0.056152057 -0.105824724 0.1256409
-0.015534011 0.14495528 -0.00038432283 -0.009641657 -0.1053747 -0.11437732 0.1608334 0.02537223
-0.11165939 0.10709737 -0.12238393 0.11347522 -0.15728469 -0.01704174 0.011811367 0.035213217
00000000: f552 483e 9826 5e3e 905f 36be 9ef0 31bc
00000010: c76b 093d 2144 74be 7943 253e d1e8 0dbe
00000020: 55fb 70bc 70f9 c73d a177 133e 511b b73d
00000030: 109d 48be e13c 2bbd be61 6d3d bfc5 693c
00000040: c7b8 4ebe 6993 16bd 698e 763d a0d7 a23d
00000050: fad7 313e 70b5 7a3d 7877 9d3d ec5e f73d
00000060: c31b c8bc 6bf3 f3bc 4667 61bd 6f58 1fbd
00000070: f7d5 423d 75ed 133e 134b cfbc d711 d1bd
00000080: df29 47bd 798f a7bd 1e52 703e f36a a8bd
00000090: c1d7 113c 82cf a7bd 51a5 31bc e863 e53d
000000a0: bc96 54be a677 1abe a125 6fbd f2cb 0a3e
000000b0: 28e8 3bbc b3ff 65bd a2ba d8bd 02a8 003e
000000c0: 5d82 7ebc 286f 143e f07e c9b9 0af8 1dbc
000000d0: b1ce d7bd a83e eabd 83b1 243e 6cd9 cf3c
000000e0: aead e4bd de55 db3d 6da4 fabd b265 e83d
000000f0: 3d0f 21be 1e9b 8bbc 7784 413c bc3b 103d

critic.2.weight f4 [64, 64]
-0.09003542 -0.03330894 -0.14508125 0.059490785 0.04181967 -0.14149135 0.06850127 0.07070339
0.015014042 -0.06617772 0.08963751 0.027585816 -0.033128656 0.112771116 -0.043051988 -0.0887657
-0.04606014 -0.028144006 -0.0068149595 -0.040097423 0.12352012 0.13799824 0.098759055 0.015395621
-0.019325253 0.02545925 0.056542214 -0.0053629586 -0.0781126 0.05811977 0.049198773 -0.07786241
0.111466214 0.090465896 -0.01873595 0.06772486 -0.124742575 0.026664708 -0.02021875 0.07447121
-0.15740351 -0.01872265 -0.039346658 -0.11751608 0.004973586 -0.15446854 0.021147659 0.09744292
-0.009844443 0.09209114 0.104727484 -0.02386321 0.07444883 0.1248159 -0.076328814 -0.018284088
0.0286645 -0.06489495 0.08367926 -0.075909816 0.010678858 0.09904463 0.012316992 0.048011355
-0.008759106 0.03778939 0.0781434 0.014345744 -0.07795073 0.1521324 -0.03863423 -0.03411644
-0.055462528 0.08938624 0.16839571 -0.084684685 0.09578518 -0.04420976 -0.021168575 -0.060230654
0.035564877 0.08877312 0.10145153 -0.02799182 0.021078851 0.053891636 -0.033810534 0.14281474
0.13967651 0.10561653 -0.12289062 -0.02742715 -0.07622919 0.14003743 -0.07972571 0.12035594
-0.010991853 -0.12281007 -0.0013711626 -0.09737462 -0.110940866 0.02653499 -0.06658978 -0.08549928
0.011542225 0.054013442 0.060786158 0.019617092 -0.018880697 -0.015048593 -0.0001086901 -0.11529975
-0.14184786 -0.051751267 -0.023997644 0.079794705 0.06936732 -0.014964023 -0.14189418 -0.10340062
0.11511827 0.024272837 0.13388062 -0.09345274 -0.13800025 0.08137451 -0.062006105 0.059945688
0.11288182 -0.028997198 -0.01629781 0.033368073 -0.06073184 0.0127824135 -0.092749976 0.08806483
-0.046557914 0.051440366 -0.015636027 0.011929281 -0.10718754 -0.055132512 0.026793046 -0.054032378
0.10681097 0.02419265 0.052367747 -0.1011331 -0.02610284 0.11903495 0.008891211 0.03352182
0.09864641 0.05296467 -0.094925985 -0.06963548 -0.01737828 0.121494085 0.03222167 0.08962805
0.024899984 -0.072900295 0.06248439 -0.091590546 0.12675922 -0.030912628 0.05350923 0.04319671
0.011844625 0.0949176 -0.022837808 0.01715971 0.057914235 -0.07358797 0.08112273 -0.1174079
-0.14096424 0.10050494 -0.07432086 0.09047429 -0.017704159 -0.016254345 0.054067858 0.10458584
-0.017529147 0.07634911 0.1440891 -0.024590356 0.06212714 -0.12371788 -0.04354276 0.13925855
0.07413227 -0.006436546 0.078232065 -0.044116136 0.10471223 0.12658834 0.022541126 0.10268867
-0.018172596 -0.017588153 -0.16721705 -0.09866274 0.09048496 -0.08473707 -0.004700971 -0.0686791
0.11405503 0.0028751963 -0.02992606 -0.06862744 0.009769532 -0.025849411 -0.13110733 -0.12056585
-0.079582036 0.10517499 0.013012772 0.039515346 0.08398736 -0.10615614 0.022058023 -0.069493756
0.0470968 -0.014375111 0.09006915 -0.013227486 -0.10313792 0.013939221 -0.018182222 0.13546209
-0.14082372 -0.029224623 -0.086084664 0.11848999 -0.015623219 -0.08908385 0.042199206 0.070931315
-0.08777476 0.039502013 -0.08551885 -0.115756914 0.11808666 0.10953917 0.07859491 -0.08346743
0.009020124 -0.048207544 -0.07365573 -0.018281056 -0.017248787 -0.016287284 0.00035223732 0.03535915
00000000: 7e64 b8bd f46e 08bd 2e90 14be 9cac 733d
00000010: 1a4b 2b3d 1ce3 10be 654a 8c3d f0cc 903d
00000020: 75fd 753c 2f88 87bd df93 b73d a6fb e13c
00000030: eab1 07bd 8bf4 e63d 4857 30bd cbca b5bd
00000040: 8fa9 3cbd 428e e6bc 0650 dfbb 323d 24bd
00000050: 1ef8 fc3d 694f 0d3e 3042 ca3d ea3d 7c3c
00000060: fe4f 9ebc eb8f d03c cf98 673d c2bb afbb
00000070: 80f9 9fbd ff0e 6e3d a784 493d 5476 9fbd
00000080: 6648 e43d 2f46 b93d 237c 99bc 55b3 8a3d
00000090: 0979 ffbd f26f da3c cba1 a5bc 5d84 983d
000000a0: 632e 21be 3e60 99bc f629 21bd 45ac f0bd
000000b0: 77f9 a23b 002d 1ebe db3d ad3c 2790 c73d
000000c0: 964a 21bc 489a bc3d 5d7b d63d c77c c3bc
000000d0: a178 983d 7b9f ff3d 4852 9cbd 83c8 95bc
000000e0: d0d1 ea3c a5e7 84bd 0860 ab3d 9b76 9bbd
000000f0: 60f6 2e3c e9d7 ca3d 35cd 493c 8ea7 443d
00000100: 5a82 0fbc 0cc9 1a3d a609 a03d 690a 6b3c
00000110: a2a4 9fbd 99c8 1b3e ed3e 1ebd aebd 0bbd
00000120: ad2c 63bd 2210 b73d ed6f 2c3e 2a6f adbd
00000130: 052b c43d 4b15 35bd b869 adbc 6bb4 76bd
00000140: 7aac 113d aece b53d d2c5 cf3d 1a4f e5bc
00000150: 8ead ac3c 7abd 5c3d ea7c 0abd 073e 123e
00000160: 5c07 0f3e 7b4d d83d 14ae fbbd e7ae e0bc
00000170: 0d1e 9cbd f965 0f3e 3c47 a3bd 2d7d f63d
00000180: 2c17 34bc d983 fbbd 95b8 b3ba 586c c7bd
00000190: f734 e3bd e85f d93c 3960 88bd 3f1a afbd
000001a0: 9a1b 3d3c 333d 5d3d e8fa 783d 06b4 a03c
000001b0: b1ab 9abc 608e 76bc 8ef0 e3b8 4622 ecbd
000001c0: 9140 11be 23f9 53bd b596 c4bc 686b a33d
000001d0: 7410 8e3d a92b 75bc b54c 11be b4c3 d3bd
000001e0: 21c3 eb3d d4d7 c63c 0018 093e 2664 bfbd
000001f0: f04f 0dbe aea7 a63d 1dfa 7dbd 9c89 753d
00000200: 952e e73d 888b edbc fc82 85bc f6ac 083d
00000210: f3c1 78bd 546d 513c b3f3 bdbd 555b b43d
00000220: 83b3 3ebd 22b3 523d 2017 80bc 0873 433c
00000230: 2485 dbbd a1d2 61bd 177d db3c 0e51 5dbd
00000240: b6bf da3d aa2f c63c 907f 563d df1e cfbd
00000250: a0d5 d5bc 99c8 f33d 71ac 113c 2d4e 093d
00000260: 2107 ca3d 7bf1 583d 8e68 c2bd 0c9d 8ebd
00000270: e55c 8ebc e4d1 f83d dffa 033d e98e b73d
00000280: 0dfb cb3c c04c 95bd a2ef 7f3d d393 bbbd
00000290: 2bcd 013e 7b3c fdbc 7f2c 5b3d 09ef 303d
000002a0: f50f 423c 2964 c23d 5b16 bbbc 8592 8c3c
000002b0: 7a37 6d3d 4ab5 96bd ad23 a63d 8e73 f0bd
000002c0: ee58 10be 89d5 cd3d 8935 98bd 964a b93d
000002d0: 5008 91bc d527 85bc 4276 5d3d 1a31 d63d
000002e0: 4999 8fbc ec5c 9c3d 188c 133e b771 c9bc
000002f0: 0779 7e3d cd5f fdbd e559 32bd cb99 0e3e
00000300: a9d2 973d a9e9 d2bb 2238 a03d 1fb3 34bd
00000310: 5e73 d63d 60a0 013e 2ba8 b83c 704e d23d
00000320: b2de 94bc 0815 90bc f23a 2bbe b10f cabd
00000330: 2e50 b93d a18a adbd 9a0a 9abb a1a7 8cbd
00000340: af95 e93d ca6d 3c3b 7f27 f5bc 8b8c 8cbd
00000350: 6310 203c 25c2 d3bc 0041 06be 3aeb f6bd
00000360: e8fb a2bd fc65 d73d 8633 553c d8da 213d
00000370: 9101 ac3d 6468 d9bd 07b3 b43c be52 8ebd
00000380: 93e8 403d 9685 6bbc 2d76 b83d 19b8 58bc
00000390: f939 d3bd 5561 643c e2f2 94bc 93b6 0a3e
000003a0: 1834 10be 7a68 efbc 284d b0bd e1aa f23d
000003b0: 88f8 7fbc 9871 b6bd 13d9 2c3d 7044 913d
000003c0: 41c3 b3bd ddcc 213d 8224 afbd f611 edbd
000003d0: 6bd7 f13d 1356 e03d 5ef6 a03d f9f0 aabd
000003e0: 24c9 133c 4675 45bd d1d8 96bd 27c2 95bc
000003f0: 544d 8dbc e96c 85bc 7eac b839 c2d4 103d

critic.2.bias f4 [64]
-0.07709177 0.026479116 -0.11946059 -0.03405908 -0.07947768 -0.059791554 0.07060106 -0.09163269
-0.06402998 0.06614659 -0.111489825 -0.037956975 0.019493503 -0.04267003 0.06963643 -0.19433442
-0.048834562 0.051039193 0.045370296 0.036373403 -0.08383978 -0.017597105 -0.15894125 -0.06264722
0.04941241 -0.07332794 0.042674445 -0.07537297 0.14982474 0.039945766 0.0026208076 -0.10407253
0.12873566 -0.08760578 0.0606798 0.01951177 -0.009842701 -0.0072929733 0.06693535 0.12410832
-0.122795165 0.06699326 -0.01158405 -0.10727835 -0.08742492 -0.1123132 0.12119268 -0.12177605
-0.026070228 -0.12814267 0.0058184657 -0.036505584 0.036980577 -0.062352266 -0.10825068 -0.05666361
-0.08403112 -0.007840485 -0.026029682 -0.16455531 0.050750352 0.032209773 0.05605393 0.023183506
00000000: 4ae2 9dbd bbea d83c c1a7 f4bd 8981 0bbd
00000010: 32c5 a2bd fde7 74bd 4a97 903d eba9 bbbd
00000020: 2622 83bd dd77 873d c754 e4bd c678 1bbd
00000030: d7b0 9f3c c5c6 2ebd 8b9d 8e3d 9aff 46be
00000040: c006 48bd 790e 513d 34d6 393d 47fc 143d
00000050: 31b4 abbd ce27 90bc 7fc1 22be 304d 80bd
00000060: ab64 4a3d f62c 96bd 66cb 2e3d 255d 9abd
00000070: a86b 193e 2c9e 233d dbc1 2b3b fb23 d5bd
00000080: 48d3 033e a96a b3bd 628b 783d 26d7 9f3c
00000090: 4843 21bc e5f9 eebb 6715 893d 812c fe3d
000000a0: 087c fbbd c333 893d 07cb 3dbc c0b4 dbbd
000000b0: d60b b3bd 7704 e6bd de33 f83d b965 f9bd
000000c0: 3b91 d5bc d537 03be d4a8 be3b e186 15bd
000000d0: f278 173d 1765 7fbd 88b2 ddbd 1a18 68bd
000000e0: 8218 acbd 6175 00bc 333c d5bc 3081 28be
000000f0: 9adf 4f3d 65ee 033d ce98 653d 56eb bd3c

critic.4.weight f4 [1, 64]
0.008117128 0.080751374 0.044447843 -0.016587052 -0.049639184 -0.06296233 0.06711756 -0.031724203
-0.026603686 -0.029115468 0.046851724 -0.010395989 -0.015866892 -0.048728373 -0.100112475 0.108045034
0.044569876 -0.0064368187 0.07888848 -0.024975788 -0.04234021 -0.03194822 -0.0155147845 -0.02112334
-0.034095626 -0.043660797 0.02656244 0.011751521 -0.06608062 -0.04431157 0.01955136 -0.07713609
-0.04771523 0.0060481145 0.027060555 -0.07840516 -0.026736306 0.049448274 0.044519152 -0.026401846
0.020751186 -0.07400042 -0.03914912 -0.091766015 -0.051676646 -0.053635992 -0.02538081 -0.020615062
0.06025577 0.029112153 -0.0115253255 -0.02922085 -0.020696377 -0.033518102 -0.06670482 0.062469807
-0.061839815 0.05997684 0.054952543 -0.0046766764 0.05102561 0.025810765 0.02836388 -0.085093275
00000000: b4fd 043c fa60 a53d f10e 363d 92e1 87bc
00000010: 7552 4bbd 65f2 80bd ee74 893d 3df1 01bd
00000020: f9ef d9bc 9083 eebc 98e7 3f3d f053 2abc
00000030: 49fb 81bc 6797 47bd c507 cdbd b746 dd3d
00000040: e78e 363d f3eb d2bb 4990 a13d 069a ccbc
00000050: ee6c 2dbd 23dc 02bd b931 7ebc db0a adbc
00000060: dba7 0bbd aad5 32bd 7999 d93c 7489 403c
00000070: 4755 87bd 0c80 35bd 2c2a a03c 87f9 9dbd
00000080: 0c71 43bd 432f c63b 19ae dd3c e292 a0bd
00000090: 1906 dbbc 468a 4a3d b759 363d af48 d8bc
000000a0: 64fe a93c 888d 97bd d45a 20bd d2ef bbbd
000000b0: e4aa 53bd 6ab1 5bbd 6beb cfbc ebe0 a8bc
000000c0: c1ce 763d 9c7c ee3c b8d4 3cbc 9060 efbc
000000d0: 738b a9bc 474a 09bd 899c 88bd 57e0 7f3d
000000e0: bf4b 7dbd 46aa 753d eb15 613d ce3e 99bb
000000f0: 3b00 513d 1971 d33c 5e5b e83c 6245 aebd

exp_avg f4 [6]
0.0002686311 0.000844775 0.010060367 -0.0008285473 -0.00023987003 0.0005078457
00000000: 0ed7 8c39 e473 5d3a 3dd4 243c de32 59ba
00000010: 9f85 7bb9 f320 053a

exp_avg_sq f4 [6]
1.4847309e-06 2.9029454e-05 0.0016034439 2.222315e-05 1.2480124e-05 3.6429006e-05
00000000: f746 c735 4784 f337 a62a d23a da6b ba37
00000010: b961 5137 59cb 1838

exp_avg f4 [64, 25]
2.9676288e-05 1.4991249e-06 -4.1502763e-06 -6.755288e-05 -6.745619e-05 5.7997127e-05 -4.833744e-06 9.63909e-06
-4.6411686e-05 -7.22936e-05 -3.8127186e-05 -4.4457458e-05 -1.0785448e-05 4.6072287e-06 -1.0069086e-05 -2.0669639e-05
5.18167e-06 -2.0669639e-05 -5.181671e-06 7.0857815e-05 1.0095775e-05 -5.1781215e-05 -0.0001966277 -0.00015193083
5.1691564e-05 -1.8768984e-06 1.4584244e-06 2.9162509e-06 7.5148782e-06 4.7885796e-06 -1.1483709e-06 -1.7639145e-06
9.82605e-07 -4.2909064e-06 -5.0519425e-06 -1.289942e-06 -5.1312218e-06 1.7433051e-07 -3.8647266e-07 5.855855e-07
1.3107237e-06 7.5886e-07 1.3107234e-06 -7.5886027e-07 -2.016674e-06 3.5704522e-06 2.6722892e-06 9.549481e-06
9.298833e-06 -7.6034726e-06 0.0003557781 -3.0310372e-05 -7.10119e-05 -0.00067125517 -0.000652546 0.000569302
8.2911174e-05 -9.520832e-06 -4.4253964e-05 -0.00030661648 -0.00021485245 0.00023175473 -1.6687492e-05 7.3195835e-05
-2.3907289e-05 -4.8084738e-05 1.167032e-05 -4.8084738e-05 -1.1670308e-05 0.0007659644 -0.00011001093 -0.00017412093
-0.001379165 -0.0014812842 0.0012444293 1.3423821e-05 -6.4594605e-07 -6.1514525e-06 -3.7466536e-05 -3.0096953e-05
2.3153316e-05 -1.5060122e-05 1.2313405e-05 -3.4379962e-05 -4.2267427e-05 -2.5137857e-05 -4.1062267e-05 -7.5522044e-06
9.361424e-07 -6.870565e-06 -1.4441884e-05 2.4912056e-06 -1.4441884e-05 -2.4912065e-06 2.7882787e-05 8.910901e-06
-4.602226e-05 -0.00011981672 -7.452617e-05 -5.605536e-06 0.0019095865 0.00013762427 0.00012287364 -0.0039638244
-0.00434048 0.004426006 0.00027563772 5.9585636e-05 -0.00017939691 -0.001197386 -0.0012535591 0.0008764233
-5.738631e-05 0.0003159191 -8.898492e-05 -0.00012222241 0.0002053042 -0.00012222223 -0.0002053042 0.004190333
0.00017035143 -6.013854e-05 -0.008215283 -0.009374835 0.0088548185 0.00086078956 -2.5428635e-05 -3.5768484e-05
-0.0019840181 -0.002024351 0.0019419437 3.2125692e-05 -1.6957398e-05 -6.200433e-05 -0.00040295138 -0.00054122385
0.00055920775 -2.6053141e-05 0.00013084759 -2.8393306e-05 -5.765713e-05 0.00010622682 -5.765713e-05 -0.000106226806
0.0017805643 -0.00013120142 -8.8531e-05 -0.0038659207 -0.0043525235 0.004148147 -0.0006245542 -0.00030034446
-0.00063875056 0.0008241367 0.0013839502 -0.002202344 -0.00011311573 -2.9320563e-05 -0.00016110798 0.0002778977
0.00034152003 -0.00041185762 -0.00011788703 -8.991397e-05 -0.00013546586 -0.00026062873 -3.7148326e-05 -0.00026062873
3.7148337e-05 -0.0012418014 -0.0004931646 -0.001259406 0.0015891467 0.0029828807 -0.004473521 0.0018350186
-0.00026109096 -0.00085069484 -0.004291816 -0.0039817276 0.0027756118 0.0004587871 0.00013896356 -0.000693002
-0.0018467391 -0.0012869089 0.00019904708 -0.00030774644 0.00033353278 -0.00036063598 -0.00069314183 0.00023065512
-0.00069314183 -0.00023065507 0.004211593 -0.00056644116 -0.0023386623 -0.009335648 -0.008751044 0.005037394
-0.0012302654 -4.1571635e-05 7.742904e-05 0.0025168522 0.002656534 -0.0025031972 -0.00025601848 -0.00012149316
0.00027806725 0.00090592116 0.0009073515 -0.00016712144 0.0001030664 -0.00021528846 0.00012208252 0.0002114778
-0.00012889771 0.0002114778 0.00012889765 -0.0027774738 -8.70248e-05 0.00048394108 0.0054300018 0.005809808
-0.0047385585 -0.0002039332 0.00012223607 0.00022739549 0.00063998136 0.00038848762 -0.00017370249 8.241845e-05
-4.9555973e-05 -0.0006003614 -0.0008448026 -0.0002927135 -0.00044235282 -2.3883018e-05 -2.9614966e-05 -1.0988368e-05
-4.2983887e-05 5.569496e-06 -4.2983887e-05 -5.5694727e-06 -2.453847e-05 0.00014606172 6.6692846e-05 0.00065352663
0.0006596399 -0.00089342974 -0.00077365176 -9.849917e-05 0.0001059222 0.0017544302 0.0019789208 -0.0015673024
00000000: 58f1 f837 8a35 c935 9a42 8bb6 2dab 8db8
00000010: 4477 8db8 f141 7338 8b31 a2b6 94b7 2137
00000020: 2baa 42b8 559c 97b8 c1ea 1fb8 d577 3ab8
00000030: 25f3 34b7 cb97 9a36 65ee 28b7 b663 adb7
00000040: 35de ad36 b663 adb7 37de adb6 8099 9438
00000050: 0661 2937 a82f 59b8 d92d 4eb9 9f4f 1fb9
00000060: 65cf 5838 bde9 fbb5 15bf c335 cfb4 4336
00000070: 5028 fc36 96ad a036 b921 9ab5 a4bf ecb5
00000080: 0de2 8335 9bfa 8fb6 db83 a9b6 1222 adb5
00000090: dc2c acb6 9b2f 3b34 667c cfb4 2131 1d35
000000a0: 20ec af35 76b4 4b35 1dec af35 7bb4 4bb5
000000b0: 3256 07b6 e79b 6f36 9455 3336 b536 2037
000000c0: 2f02 1c37 5521 ffb6 ba87 ba39 0743 feb7
000000d0: 39ec 94b8 2cf7 2fba 9f0f 2bba 363d 153a
000000e0: 99e0 ad38 a9bb 1fb7 559d 39b8 5ec1 a0b9
000000f0: 044a 61b9 3003 7339 1efc 8bb7 b780 9938
00000100: 838c c8b7 98ae 49b8 a5cb 4337 98ae 49b8
00000110: 97cb 43b7 00cb 483a abb5 e6b8 3b94 36b9
00000120: 19c5 b4ba a627 c2ba 1e1c a33a df36 6137
00000130: 1365 2db5 9368 ceb6 6325 1db8 b778 fcb7
00000140: 5e39 c237 bbaa 7cb7 ac95 4e37 3433 10b8
00000150: 4e48 31b8 23df d2b7 463a 2cb8 f168 fdb6
00000160: 374b 7b35 b489 e6b6 6b4b 72b7 962e 2736
00000170: 6b4b 72b7 9a2e 27b6 d4e5 e937 0780 1537
00000180: 0708 41b8 1d46 fbb8 ef4a 9cb8 3017 bcb6
00000190: 174b fa3a 3c4f 1039 a4d7 0039 f8e2 81bb
000001a0: 963a 8ebb 0808 913b 7883 9039 97eb 7938
000001b0: 7e1c 3cb9 9bf1 9cba 774e a4ba c6bf 653a
000001c0: 15b2 70b8 f2a1 a539 6a9d bab8 d428 00b9
000001d0: ed46 5739 c828 00b9 ed46 57b9 104f 893b
000001e0: 5da0 3239 443d 7cb8 6599 06bc e898 19bc
000001f0: cd13 113c 9ca6 613a 944f d5b7 1e06 16b8
00000200: 4d06 02bb f9aa 04bb d188 fe3a b3be 0638
00000210: bc3f 8eb7 5208 82b8 3843 d3b9 ebe0 0dba
00000220: cc97 123a b28c dab7 2234 0939 292e eeb7
00000230: dfd4 71b8 17c6 de38 dfd4 71b8 15c6 deb8
00000240: d361 e93a 1d93 09b9 b8a9 b9b8 635b 7dbb
00000250: 9d9f 8ebb 2eed 873b 1fb9 23ba 8d77 9db9
00000260: d371 27ba e10a 583a aa65 b53a 3355 10bb
00000270: 8c38 edb8 6ef5 f5b7 18ef 28b9 ccb2 9139
00000280: 0b0e b339 98ee d7b9 1e3a f7b8 3290 bcb8
00000290: d70b 0eb9 ffa4 88b9 b6cf 1bb8 ffa4 88b9
000002a0: b9cf 1b38 f1c3 a2ba b747 01ba a712 a5ba
000002b0: ea4a d03a 6f7c 433b 9d96 92bb 0285 f03a
000002c0: 09e3 88b9 2a01 5fba 5da2 8cbb 2779 82bb
000002d0: 0ae7 353b 5d89 f039 bfb6 1139 94aa 35ba
000002e0: 480e f2ba 7fad a8ba 4bb7 5039 0759 a1b9
000002f0: 03de ae39 be13 bdb9 f6b3 35ba 03dc 7139
00000300: f6b3 35ba 00dc 71b9 6701 8a3b 397d 14ba
00000310: 3e44 19bb 8cf4 18bc 8a60 0fbc b910 a53b
00000320: db40 a1ba 345d 2eb8 6661 a238 c6f1 243b
00000330: 3f19 2e3b ae0c 24bb 383a 86b9 25ca feb8
00000340: 8ec9 9139 577b 6d3a 54db 6d3a 523d 2fb9
00000350: 5a25 d838 0ebf 61b9 4703 0039 24c0 5d39
00000360: b728 07b9 24c0 5d39 b328 0739 4706 36bb
00000370: 1581 b6b8 79b9 fd39 28ee b13b 3460 be3b
00000380: e945 9bbb e7d6 55b9 7f2c 0039 0371 6e39
00000390: 6cc4 273a edad cb39 e823 36b9 12d8 ac38
000003a0: 52da 4fb8 9261 1dba be75 5dba 5777 99b9
000003b0: 97eb e7b9 6458 c8b7 a86d f8b7 ae5a 38b7
000003c0: 9949 34b8 9be1 ba36 9949 34b8 68e1 bab6
000003d0: f7d7 cdb7 2528 1939 73dd 8b38 6e51 2b3a
000003e0: afeb 2c3a 0e35 6aba e4ce 4aba 5791 ceb8
000003f0: 8c22 de38 e9f4 e53a c8b0 013b f16d cdba
