04-goal-pose-l6/logs/rsl_rl/joint_position/2026-02-18_14-34-58/model_3350.pt (torch, 161397 bytes, 36 tensors)

std f4 [6]
000000 45 aa be 3d 51 8d d9 3c 9a a5 46 3b 7b cc 35 3d
       0.0930982 0.026556643 0.0030311109 0.04438446
000010 70 ce 10 3d d7 49 57 3c
       0.035353124 0.013140163

actor.0.weight f4 [64, 25]
000000 e0 e2 1a bd 9c eb 8b 3e 04 53 b2 be 5b 10 7f be
       -0.03781402 0.27328193 -0.3482896 -0.24908583
000010 83 29 ac be 39 67 4d be de 2f fd 3c 9c a2 ed bd
       -0.3362542 -0.20058908 0.030906614 -0.11603281
000020 20 2a 24 3e c9 d8 02 be 53 d2 85 3d 9e 1f e3 3c
       0.16031694 -0.1277801 0.06534257 0.027725037
000030 70 7f 43 be 1c 37 a7 be f1 dc d4 be a5 a6 ae be
       -0.19091582 -0.32659233 -0.41574815 -0.34111515
000040 de 90 00 bf a9 97 0f be ec f5 0c 3f 87 54 16 bb
       -0.5022105 -0.14022698 0.55062747 -0.0022938566
000050 3c c6 a7 3e 3a db f5 be 5b 44 ac 3d a0 2e d6 bd
       0.32768428 -0.4801882 0.08411475 -0.10458112
000060 60 a3 e8 bd 1d 28 4f 3e 35 a4 0c 3e a4 da bb be
       -0.11359286 0.20230146 0.13734515 -0.36690247
000070 96 02 d7 be f0 bf a9 bd 62 43 da be 4c fe 0f be
       -0.4199416 -0.08288562 -0.42629534 -0.1406185
000080 5c 23 bf 3d 0a 5d 80 3d 8e a1 de 3c 2c 4e 9d bd
       0.09332916 0.06267746 0.027176645 -0.07680926
000090 55 2f 53 bd e0 73 8d be c4 73 f5 bc f4 af d3 be
       -0.05155881 -0.27627468 -0.029962428 -0.4134518
0000a0 c7 b5 6a be 51 e4 83 3f 67 81 98 be d1 2d 7d bf
       -0.22920905 1.0304052 -0.29786226 -0.98898035
0000b0 06 51 bc 3d 10 56 16 3e 8a 03 80 be 94 45 5d be
       0.091951415 0.14681268 -0.250027 -0.21608573
0000c0 ef bc 5a 3e c0 23 79 be e4 4c aa be 54 13 5f 3e
       0.21361135 -0.24330044 -0.33261788 0.21784717
0000d0 34 92 d2 bd 05 e0 1e 3e 6b 54 7d be 88 79 03 3e
       -0.10281792 0.15515144 -0.24739234 0.12839329
0000e0 10 4e 80 be 8b 14 65 3e 13 b9 06 3e cf 1f e9 3c
       -0.25059557 0.22371118 0.13156538 0.02845755
0000f0 47 e9 07 3d d3 65 f0 3d 74 bb d9 be f1 21 e9 bd
       0.033181455 0.117381714 -0.42525828 -0.11383427
000100 12 93 88 bd 28 c7 69 be b7 50 10 3f df 82 9b be
       -0.066686764 -0.22829878 0.5637316 -0.30373284
000110 e8 d1 06 bf 65 68 3a be 7c a4 90 be 4b 4a a1 b9
       -0.5266404 -0.18203886 -0.28250492 -0.00030763666
000120 52 38 10 3e 6f 1d cf 3d f2 76 15 bc 7e 08 2f 3e
       0.14083984 0.10113036 -0.009122597 0.17093083
000130 32 40 83 3e d3 c8 af bd 64 42 2d bf b6 b5 0b 3e
       0.25634915 -0.08583226 -0.6767943 0.13643536
000140 e9 1d 18 bf 88 0b d4 3d 97 f2 b0 3d 0f 26 8c bd
       -0.5942064 0.10353762 0.0864002 -0.068431966
000150 ac 46 1c be 3e 6c 9a 3d 6f 7d ec 3a 6d 89 bb be
       -0.15261334 0.07540177 0.0018042753 -0.36628285
000160 3e 47 5b be 6b 1d ac be 25 28 b2 be 9d 3d 05 3f
       -0.21413895 -0.33616194 -0.34796253 0.5204714
000170 3a 15 98 be 08 66 1e bf 78 be 11 3e 0e cb e7 3d
       -0.29703695 -0.6187444 0.14232814 0.113180265
000180 30 e9 45 be 1e fb 2f 3e 42 bb f0 bd f5 ce 02 bd
       -0.19327235 0.17185637 -0.117544666 -0.03193565
000190 d1 c2 5e be 6f f1 fa be 4e 9f 9a 3e 4b 1d f2 3d
       -0.21754004 -0.49012324 0.30199665 0.118219934
0001a0 f8 07 97 be 1a fe fa 3d 56 f6 f9 3d 5f 5a 39 3d
       -0.29498267 0.12255497 0.12205188 0.0452522
0001b0 af ec d0 bb 47 0c 24 bd 43 9d 90 bc 53 b7 83 3d
       -0.006375871 -0.04005077 -0.017653113 0.06431451
0001c0 38 b4 61 39 9e 5a 71 3e 0f 51 3f bf 73 ee cb bc
       0.00021524809 0.23569724 -0.7473306 -0.024893975
0001d0 86 09 bd bf 07 de ea 3d d9 54 bf 3f 1a 4a e6 bd
       -1.4768531 0.114681296 1.4947768 -0.112446025
0001e0 d4 fc 4a 3d 0a a5 ca bd 5e 2d 33 3d a0 59 79 bd
       0.049557522 -0.0989476 0.043744437 -0.06087649
0001f0 35 bd 44 bd 39 0d 08 3f 3b ac 02 bf 42 95 3f 3e
       -0.048032004 0.53145176 -0.5104405 0.18709281
000200 95 16 69 3e 3a bf 4c 3f 05 c4 03 3e 9f 59 7c bd
       0.2276252 0.7997929 0.12867744 -0.061608907
000210 a0 2d 79 3d 64 29 fe bc f3 a0 5b 3e cc 2f 5e be
       0.060834527 -0.031025596 0.21448116 -0.2169792
000220 5a 20 49 bb 1e 99 0f bf f8 83 72 bf 8e f5 b8 be
       -0.003068945 -0.56093013 -0.9473262 -0.36124843
000230 99 66 67 3d 7d e2 71 3f 51 8f d2 bd 6b d5 4a bf
       0.05649433 0.9448622 -0.10281242 -0.792319
000240 49 67 c7 3e 9b c2 d5 3d 68 70 29 be a6 55 77 3c
       0.38945988 0.10437509 -0.16546786 0.015096104
000250 c8 bb 6b bc 29 59 91 3d d2 47 2f 3d fa 31 01 3f
       -0.014388032 0.07097084 0.042793103 0.50466883
000260 46 d0 d4 bd 81 e3 02 be 5d 0d 41 bf 52 55 9c be
       -0.103912875 -0.12782098 -0.75411016 -0.30533844
000270 d4 bc 41 be 5b e0 ab be 62 82 03 3e 63 19 e4 bb
       -0.18919688 -0.33569607 0.12842706 -0.006961034
000280 e8 19 1f 3e 37 5a 9c 3d b1 f6 35 be 19 c5 18 40
       0.15537226 0.076343946 -0.17769887 2.38703
000290 32 32 58 3f 49 2c a3 bd 96 aa d6 3e 24 4d 52 3d
       0.8445159 -0.07967431 0.41927022 0.0513431
0002a0 00 f7 84 be a3 13 89 be 89 18 7f 3e 57 8b 8c bd
       -0.25969696 -0.26772794 0.24911703 -0.068625145
0002b0 15 2a e3 3d 36 4a 98 bd c2 05 d9 3b 99 04 64 be
       0.11092011 -0.074360296 0.006623001 -0.22267379
0002c0 de f0 b4 3e ab 34 c5 3d d4 a6 bf 3d 69 18 c7 be
       0.35340017 0.09629186 0.09357992 -0.3888581
0002d0 c8 c3 a3 be 90 20 72 3d 68 1d e0 3d 91 89 ab 3d
       -0.31985307 0.059113085 0.10943109 0.08375848
0002e0 4d cf 96 bc 4b 8f 34 bc 19 63 61 be 89 44 85 bf
       -0.018409396 -0.011020492 -0.22010459 -1.041154
0002f0 23 6d 7c 3f 6b 58 2e bc e6 fb 9a 3e c5 a0 a7 bc
       0.9860403 -0.010641198 0.30270308 -0.020462403
000300 49 2e eb 3c 8e d8 ab bd 6e 36 90 3d 0f 1a 20 3e
       0.028708594 -0.08390914 0.07041632 0.1563494
000310 d6 b2 e8 3c 3f 64 b5 3d cd e9 b1 bc b5 f3 6b bd
       0.028405588 0.08857011 -0.02171793 -0.057605464
000320 60 71 4c 3e c7 7c 87 3f 5a 9d 9a be a0 71 57 be
       0.19965124 1.0584954 -0.30198175 -0.21039438
000330 bd d5 d0 be 15 d0 75 3e 4d 27 c8 bd 62 40 79 3d
       -0.4078807 0.24005158 -0.09773121 0.060852416
000340 25 cb f5 bd b2 ec 89 be 58 ba 49 3d 64 81 cd 3d
       -0.12001637 -0.26938397 0.049249977 0.10034445
000350 44 8e 1e be f6 bc 01 c0 41 a1 0c 3f b2 2a b5 3b
       -0.15483958 -2.0271583 0.54933554 0.0055287713
000360 69 de af bf 2d a4 40 3e 33 9f b9 3f 6c 39 f4 3d
       -1.3739749 0.18812628 1.4501709 0.11925015
000370 b7 19 af 3e af e7 c7 bd 71 8e 3d 3e 90 3a 39 3d
       0.34199306 -0.09760987 0.18511368 0.045221865
000380 88 cb ab 3d f4 e1 c5 be 9c d2 8d bd 43 32 64 3e
       0.0838843 -0.3864895 -0.06924936 0.22284798
000390 ca b8 82 be fb 9d f7 be 02 a4 af bd 1b 91 e4 bd
       -0.25531608 -0.48362717 -0.08576204 -0.11160489
0003a0 41 e2 c7 3d 2f 20 fb bd 1d 47 68 bd 54 e0 26 bd
       0.097599514 -0.12261998 -0.056708444 -0.04074128
0003b0 b7 26 b0 3d c8 a9 2d bf a0 a7 93 3f 9b b5 17 3f
       0.08601134 -0.6783719 1.153553 0.5926148
0003c0 fb 5f 33 3e 54 75 7e bf 1e 08 15 3e 46 8a 8d 3f
       0.17517082 -0.9939778 0.14553878 1.1057823
0003d0 f6 8e cc bd cb 7e 27 be f3 3a e5 3d cf 8e c4 3d
       -0.09988205 -0.16356961 0.11192884 0.09597551
0003e0 97 4e 86 bd 62 91 35 be 21 bf 7d bf 67 30 b3 3e
       -0.065579586 -0.1773124 -0.99119765 0.34997866
0003f0 f2 3a 2f bf ce a8 9c 3e 5d fe 66 bf 0b cf ef 3e
       -0.6844932 0.30597538 -0.9023188 0.4683765

actor.0.bias f4 [64]
000000 dd b7 8c be 81 dc e1 be 21 18 6a be 7d 57 05 bf
       -0.27484027 -0.44113544 -0.22860767 -0.5208662
000010 ce 90 cb bd ec aa 98 be 7e d3 9c bd db ff fd 3d
       -0.09939729 -0.29817903 -0.076575264 0.12402316
000020 84 57 45 bd 1b c8 22 3e 22 c1 59 bd 65 a5 77 be
       -0.048179165 0.15896647 -0.0531627 -0.24184187
000030 44 b0 19 be 36 34 7c bd df f8 f1 3c cf e5 16 be
       -0.15008646 -0.06157323 0.029537616 -0.14736103
000040 f7 8a 7c 3d a5 6e 4d 3e f9 5b ca bd 3a 7a 92 bd
       0.061655965 0.20061739 -0.09880824 -0.07152219
000050 3d 80 2d 3d 0c ea 7b bd b3 52 51 ba a0 9d 56 be
       0.042358626 -0.0615025 -0.00079850404 -0.20958567
000060 3a ec 49 3d d1 af 4e be d1 0c 56 3d 19 f1 a0 bb
       0.04929755 -0.20184256 0.052258316 -0.0049115536
000070 90 ec 34 be ea e0 af 3e ca e8 1d be 21 fe 97 be
       -0.17668366 0.34351283 -0.15420833 -0.29686072
000080 d2 c1 3b bc e1 3b 0a bd 59 8e e4 3d 08 f7 49 3e
       -0.011459785 -0.03374851 0.11159963 0.19723141
000090 d9 07 08 3d c6 83 d2 be 1c 51 1d 3e 3e c5 b2 be
       0.03321061 -0.4111616 0.15362972 -0.3491611
0000a0 6d 73 49 bc e3 28 8f bd 00 e0 42 be a4 1b e4 3d
       -0.012295586 -0.069902204 -0.19030762 0.111380845
0000b0 8d d7 af 3c 9e 27 6e be 64 fb b8 3d 31 44 17 bd
       0.021465087 -0.232573 0.09032324 -0.036930267
0000c0 7b 08 1a 3c b6 79 1c 3e ea 00 00 be 95 98 58 be
       0.009401436 0.15280804 -0.12500349 -0.21151955
0000d0 35 f7 70 be 76 af 5b be f1 82 35 3d 16 46 82 be
       -0.23531802 -0.21453652 0.04431433 -0.25444096
0000e0 b1 46 19 3c c1 62 3c be 59 a0 0d 3e 9e b5 cd 3c
       0.009355233 -0.18397047 0.13830699 0.025111016
0000f0 b5 f5 07 3e 3d da 14 bd 24 0b 66 3e 61 72 30 3e
       0.13277324 -0.03634094 0.22465187 0.17231132

actor.2.weight f4 [64, 64]
000000 46 6a 48 3e cb dd 1e 3e 36 a6 b9 bb b1 e7 16 3e
       0.1957179 0.15514295 -0.005665566 0.14736821
000010 68 8a be bd 24 28 01 bd 74 76 57 bc 77 ad 78 3d
       -0.09303743 -0.03153242 -0.0131508 0.060712304
000020 57 f3 cb bd 14 ed 4b be 73 19 a4 3d 00 bc 76 3d
       -0.09958523 -0.19914657 0.080126666 0.060237885
000030 57 de d7 bc d4 fd 4a 3e b0 3d e8 bc bd 8e 06 3d
       -0.026351137 0.1982339 -0.028349727 0.03285097
000040 4d ee 0c be 2a 56 2c bc b9 b8 56 bd 4d 2d a5 bd
       -0.1376278 -0.01051859 -0.05242226 -0.08065281
000050 93 6c 37 3d cf cb 57 bd 48 ea 3d be 45 f8 92 bd
       0.04478128 -0.0526846 -0.18546402 -0.0717626
000060 58 34 05 bd 76 7a 19 be e2 18 be 3c fc 6e 39 3e
       -0.032520622 -0.14988121 0.023205224 0.18108743
000070 b6 55 1b 3e 2e 8e 4f bd 15 78 2e 3b d6 ba cc 3b
       0.15169415 -0.050672702 0.0026621867 0.0062478585
000080 dd 84 f0 3d b6 11 2d 3e 31 be f8 bd 83 09 ea 3d
       0.11744092 0.16901287 -0.12145651 0.114275955
000090 5c e8 cb 3d 88 d4 ed 3d fa 50 37 3e 85 10 df 3d
       0.099564284 0.11612803 0.17901984 0.10891823
0000a0 a6 a3 54 3d cf 18 01 3e 95 fa 86 bc 11 2f 6c bd
       0.05191388 0.1260712 -0.016476909 -0.057662074
0000b0 78 df c4 bd f6 b8 2d 3e e9 4d 32 be 82 f1 94 bd
       -0.09612936 0.16965088 -0.17412533 -0.072726265
0000c0 b3 ed 3f be 92 d2 7c be 2c 1e 8b 3c e4 d4 02 bd
       -0.18743019 -0.24689701 0.01698216 -0.03194131
0000d0 ba 10 3b 3e 6c 8d ee 3c 9c d9 a8 3d 06 0f 27 3b
       0.182681 0.02912017 0.08244631 0.0025491132
0000e0 6a 99 95 bc bb 9e 63 3d fa be 24 be 6e c4 7a bd
       -0.01826163 0.0555713 -0.16088477 -0.061222486
0000f0 4f 31 c2 3c cd 10 f4 bb ce f5 f3 bd e2 ed 88 3d
       0.023705153 -0.007448292 -0.11912118 0.066859975
000100 f8 77 46 bd 6d 30 e6 bd 97 a2 7d 3e 4c 58 1d 3d
       -0.048454255 -0.11239705 0.24769054 0.038414285
000110 61 32 05 be dd ff 6b 3e 36 97 f0 3d 72 c1 75 3e
       -0.130075 0.23046823 0.11747591 0.23999575
000120 44 b2 35 bc dc 8a ec 3d 4e 40 81 be 1f 36 dd bc
       -0.011089865 0.11549923 -0.25244373 -0.027003346
000130 a5 67 57 3d 92 22 1c 3e c3 4d 03 be 02 4f 01 3d
       0.052589078 0.15247563 -0.12822632 0.03156949
000140 4c 16 cd 3c 1f be 98 bd ce c4 d5 bd 83 60 f8 bd
       0.025035046 -0.07458138 -0.10437928 -0.12127783
000150 6e c2 2a 3e 2e 38 ea 3d 59 55 68 be 45 68 2e 3d
       0.16675732 0.11436497 -0.22688808 0.042579908
000160 7b 3d 4a be ae f1 86 bc 02 cb c7 3d 0c dd b7 3b
       -0.19750015 -0.016472664 0.097555175 0.0056110676
000170 93 c2 ac 3d 84 7e 3c 3e 61 1f 38 be df 46 2f be
       0.084355496 0.18407637 -0.1798072 -0.17116879
000180 ba 9b e9 3d b7 27 1e 3e 9f 05 a4 bd c1 84 a5 3d
       0.114066556 0.15444838 -0.08008885 0.080819614
000190 15 fd 99 bc 35 5d 07 3d ed ac f7 3d 68 b8 06 bd
       -0.018797437 0.033047874 0.1209353 -0.032890707
0001a0 83 58 b2 3b cb 7d ab 3d c5 45 80 3c 41 2e 0a bd
       0.0054426803 0.083736025 0.015658269 -0.033735517
0001b0 d0 e1 83 3d cb cf ca 3c 60 29 20 be bb c7 79 bd
       0.06439555 0.024757287 -0.15640783 -0.060981493
0001c0 d0 19 ab 3e 18 8c 30 be 08 45 a1 bd e9 af 94 bd
       0.3341813 -0.17240942 -0.07874495 -0.07260115
0001d0 28 c7 96 3c 55 4b a1 be 14 aa 53 bd 14 f1 c4 3e
       0.018405512 -0.31502786 -0.05167587 0.38465178
0001e0 9d 23 36 bc 93 dc 9e bd cd 62 f2 bd 49 0d 05 3d
       -0.011116889 -0.07756915 -0.11835251 0.032483373
0001f0 55 53 c9 be a5 2a b3 bd d6 33 c7 3d 40 03 df bd
       -0.3932139 -0.08748368 0.09726684 -0.10889292
000200 b6 a1 32 3e ab a7 15 3f c7 70 62 be 16 3b ab 3e
       0.174445 0.58458966 -0.22113334 0.33443516
000210 4f 43 3e be 39 ed 26 be d6 03 f9 3d 8b 06 ae 3d
       -0.18580364 -0.16301431 0.12158935 0.08497342
000220 95 d6 08 be 0d c7 e4 bd af 1b 17 bd 18 4d 67 3e
       -0.13363107 -0.111707784 -0.036891636 0.22588003
000230 12 ec 7e be a1 3d a4 3e d9 0f 67 3e f7 1e 5d 3d
       -0.24894741 0.3207827 0.22564639 0.05398461
000240 da e6 9e be 60 d0 63 bb c0 94 3c bd 22 73 e2 bd
       -0.310355 -0.0034761652 -0.046040297 -0.11057116
000250 15 a4 8c 3d e6 82 02 be 59 bd d7 bc d5 43 27 be
       0.06867234 -0.12745246 -0.026335405 -0.1633447
000260 ac 56 0e 3e f1 5d a7 bc 8f 5a ae 3e ca bd 5f 3e
       0.1390025 -0.020430537 0.34053466 0.21849743
000270 d2 db 5c 3e c2 a1 52 3c cb c2 83 bd 74 bc d5 3c
       0.2156823 0.012855949 -0.06433638 0.026090838
000280 b0 ac 80 3e 45 e7 58 3e 87 3b 0d bd da 7d b0 bc
       0.2513175 0.21181972 -0.034480598 -0.021544386
000290 60 e1 43 bd af aa 75 3d 94 44 8f 3e 88 f7 4b 3e
       -0.047822356 0.05997723 0.27982008 0.19918644
0002a0 35 36 4c be 55 79 f0 3e f9 66 88 be b2 ac 83 be
       -0.19942553 0.4696757 -0.26641062 -0.25717694
0002b0 bd 73 11 3d 7e db 46 3e 66 c3 b5 3c 05 3b e4 bd
       0.035510767 0.19419667 0.0221879 -0.111440696
0002c0 2a 26 28 be f9 f7 21 bc ef f6 dc bd 34 90 d1 bd
       -0.16420808 -0.009885781 -0.10789286 -0.10232583
0002d0 d6 db 82 3e d5 7a e1 39 a9 43 04 3e 87 c7 f1 3d
       0.25558347 0.0004300686 0.12916435 0.11805635
0002e0 7b a2 27 bd a0 d3 60 3c 56 96 1a 3e b9 8e 56 3e
       -0.040926438 0.01372233 0.15096411 0.20952882
0002f0 8e 23 f0 3d 43 e6 87 bc 40 67 09 be 38 22 4b bc
       0.117255315 -0.01658929 -0.13418293 -0.012398295
000300 04 5c 3f 3d 2e 54 c8 3d f9 a9 18 be e8 97 b2 bd
       0.046718612 0.09781681 -0.1490859 -0.0872038
000310 81 85 04 3e dd 4a bb bd ef 99 af be eb dd 90 be
       0.12941553 -0.091451384 -0.3429713 -0.2829431
000320 0e d8 65 be b7 3f e1 be 7e 77 96 bd 48 df 9c bd
       -0.224457 -0.43993923 -0.0734701 -0.07659775
000330 50 52 62 3e 19 92 48 3e 04 b2 8b bd cd 90 9d bd
       0.22101712 0.19586982 -0.06821063 -0.07693634
000340 51 9b 34 3e 56 61 24 bd 84 32 18 3e 6c 71 cc 3e
       0.17637374 -0.04013189 0.1486302 0.39930284
000350 d4 e9 a5 bd 01 40 c5 3b 6e 72 54 3e 83 79 2d bd
       -0.0810124 0.0060195928 0.20746776 -0.04235221
000360 ea 91 5f 3d 0f c5 69 3c ce 03 6d bd 29 d7 8d bd
       0.054582514 0.014268174 -0.057864957 -0.06925804
000370 c5 0c 99 bc 87 bc 85 be e2 0c 50 3e da f7 be 3d
       -0.018682847 -0.26120397 0.20317414 0.09324618
000380 03 e6 c4 bd aa 23 56 3c a7 cb b0 be 2b 52 c3 3d
       -0.09614184 0.013070026 -0.34530374 0.09537157
000390 c0 b0 e1 b9 c8 b8 98 bd ba 66 f9 bc 5e 58 0d 3d
       -0.00043047033 -0.07457119 -0.030444492 0.0345081
0003a0 9d 46 3b 3e 68 7a 25 3e d7 66 14 3e 98 0f 18 3d
       0.18288656 0.16159976 0.14492355 0.037124246
0003b0 9d 90 09 3e 20 b0 0a 3e 45 30 92 3e d3 8b 4d 3e
       0.13434072 0.13543749 0.28552452 0.2007287
0003c0 4c d6 a4 be 09 a9 25 3e 9e 9f c6 3e 07 0f 45 be
       -0.32194746 0.16177763 0.38793653 -0.19244014
0003d0 2a 05 bf 3d 04 4b 9d 3e 72 a9 16 be ba a5 e7 be
       0.09327157 0.30721295 -0.14713076 -0.45243627
0003e0 b9 7b ce 3d 6e c4 df 3d 86 a7 24 be 92 1a c4 bd
       0.10082192 0.10926138 -0.1607953 -0.095753804
0003f0 22 db 15 3f d3 e9 91 3d 79 0c 68 3e 93 4f 2a 3e
       0.58537495 0.071246766 0.22661008 0.16631918

actor.2.bias f4 [64]
000000 0b 57 45 be f9 5a b2 3c 38 3b b7 be 2d 34 b0 bd
       -0.19271486 0.021771895 -0.35787368 -0.08603702
000010 18 c0 20 3e 9d 83 7c be e4 ac b2 bb f9 53 a6 be
       0.15698278 -0.24659581 -0.005452739 -0.3248594
000020 9c ff 3d be 29 53 0d 3e ce e2 64 be 1d a4 15 3e
       -0.18554538 0.13801254 -0.22352144 0.14613385
000030 99 98 18 be 6d 32 67 bd ae 36 bd bd dc b8 8c bc
       -0.14901961 -0.056444574 -0.09238945 -0.017177992
000040 a5 66 0a be 29 67 2f 3e 94 67 d2 bc 0a 2b a2 be
       -0.13515718 0.17129196 -0.025684156 -0.3167346
000050 6b 3f 7f 3e 3a 51 b2 3d a5 48 ad be aa cb 8c bc
       0.24926536 0.08706899 -0.33844486 -0.017186958
000060 34 eb 18 3e 14 85 b1 bd e8 fc 06 be 1a ba 74 3d
       0.14933473 -0.08667961 -0.13182414 0.059747793
000070 68 7d a5 bd 0d e9 a9 bd 3e 5d f3 be 3e e7 ae 3d
       -0.0808056 -0.08296404 -0.47532076 0.085402
000080 77 05 96 be d0 6a 62 3c 95 46 fd be 31 fe a5 be
       -0.29301044 0.013819411 -0.49467912 -0.32420495
000090 03 03 a8 bb e7 8d dd bd f7 6a 83 3e 41 b3 0b bc
       -0.005127312 -0.10818081 0.25667545 -0.008526624
0000a0 56 60 ae 3c 37 78 ec bd c7 fa 29 bc d8 15 59 3d
       0.02128617 -0.11546367 -0.010374731 0.052999347
0000b0 54 7a 1e bd b3 85 fc 3c 8d 92 b8 3c 87 db 86 bc
       -0.03869088 0.030825472 0.022530818 -0.0164621
0000c0 02 b5 47 3d 49 5a 3c bd c3 59 2a 3e 62 0c 74 be
       0.048756607 -0.04598454 0.16635804 -0.23832849
0000d0 66 a2 ae be d1 02 06 bd 4c f9 d8 be f3 25 4c be
       -0.34108275 -0.03271753 -0.42377698 -0.19936351
0000e0 d7 ef 6f bd db 45 83 be 96 f2 81 bd 5f 90 94 bd
       -0.05857834 -0.25639233 -0.06345098 -0.07254099
0000f0 28 0c 43 bd 0d cc 9b 3b 3b 66 80 3d 29 c6 61 be
       -0.047619015 0.0047545494 0.06269499 -0.22048248

actor.4.weight f4 [6, 64]
000000 09 2b 6f bd e0 2e 87 3d c2 20 6a 3c 1a 50 46 bc
       -0.05839065 0.066007376 0.014290037 -0.012104059
000010 98 4c 5b bd 56 35 09 3e 5a b2 5b bd f5 f4 19 bc
       -0.053539842 0.13399252 -0.053636886 -0.009396781
000020 94 79 01 3e ec bf cc 3d b3 9b fa bd c0 46 fa 3d
       0.12644035 0.09997544 -0.122367285 0.12220526
000030 b7 5d 9c be 0f 2b 0d be ec 60 24 3e cc d7 d1 3d
       -0.3054025 -0.13785957 0.16052598 0.10246238
000040 a4 3a b8 bd 95 b3 4b 3d 41 7e 4a bd f5 6f c3 3d
       -0.0899556 0.04973181 -0.04943681 0.095428385
000050 72 12 a3 bd b7 60 84 3a f6 1f 71 3d 46 a1 ad 3d
       -0.079625025 0.0010099624 0.05886837 0.08478026
000060 3b 3c ca bd 4d 43 1e 3e 06 a5 46 3e 36 28 41 bd
       -0.09874769 0.1545536 0.19398889 -0.04715749
000070 c8 3e 24 be cb 82 6c bd ba 0a 88 3d 4d 5c b1 3d
       -0.16039574 -0.05774192 0.06642671 0.08660183
000080 0f f5 0c bd 6e 35 6e bd a0 b2 c7 3d 4b 59 8f be
       -0.034413394 -0.058156423 0.09750867 -0.27997813
000090 c5 0c 90 be 1a bf d5 3d 3a d6 68 bd 49 f2 57 bc
       -0.28134742 0.1043684 -0.056844927 -0.013180324
0000a0 d8 2d b4 bd 67 f2 f7 bd 29 84 0d 3e c8 e6 1d 3d
       -0.087978065 -0.121067815 0.13819946 0.03855017
0000b0 c0 09 45 3e bd 96 25 3e bd 57 2c 3c 3f ca 85 bc
       0.19242 0.16170783 0.010518965 -0.01633179
0000c0 c2 de 9d bd 1a 2b ab 3c a5 cd 9a 3d e2 92 56 bd
       -0.07708503 0.020894576 0.07558755 -0.052386172
0000d0 3e 39 d2 bd 5e 09 9d 3d 6b 06 60 bd 9d c8 ae bd
       -0.10264824 0.07667802 -0.05469362 -0.08534358
0000e0 79 5e 39 bd 16 72 7b bd 4c 7b 15 bd 1b b0 b8 bd
       -0.04525611 -0.061388098 -0.03649454 -0.090179645
0000f0 4a 1a bc bd 75 68 10 be 5b 3d 35 3c 31 ba 36 3e
       -0.09184702 -0.14102347 0.011061992 0.17844464
000100 0e f0 2c bd 05 80 05 be 3e 9c 42 bd 42 4b bb 3e
       -0.04222112 -0.13037117 -0.047512285 0.36580855
000110 51 08 4f 3d 82 f2 15 3e ec 92 77 be 00 12 c3 3d
       0.05054504 0.1464329 -0.2417714 0.095249176
000120 11 c7 97 3c 42 2b ec 3c 66 9a d3 bd 9d 7f 48 be
       0.01852754 0.02882922 -0.103321835 -0.1957993
000130 ee 3f 1c bd 79 71 6c bd bc 56 6a be 8b c9 12 3d
       -0.038146906 -0.057725403 -0.22884649 0.035836738
000140 33 ae 86 bd 46 22 24 be c1 be 01 bd 7d 29 96 3c
       -0.065761946 -0.160287 -0.031676058 0.01833033
000150 13 4d 45 bd e7 89 08 3b 02 66 15 bd ae fb d0 3d
       -0.048169207 0.002083415 -0.036474235 0.10204254
000160 c5 74 6e bd da 16 66 be 28 20 02 bd da 4e 5b be
       -0.05821683 -0.22469655 -0.031768948 -0.21416798
000170 fd 13 06 be 4c a9 b6 bd d2 53 b1 3d e2 fd 73 3d
       -0.13093562 -0.089190096 0.086585656 0.059568293
000180 c4 ea 98 bd b7 fa 59 bd 9a 41 8c 3d 19 55 2e be
       -0.07466653 -0.053217616 0.0684845 -0.1702465
000190 59 f4 e5 bd a4 6c cd bd 81 df 94 3d 65 eb 68 bc
       -0.11228246 -0.10030487 0.072691925 -0.014216279
0001a0 0b 90 15 be 78 c4 b9 bd 25 e4 e6 3d 18 55 3b 3e
       -0.1460573 -0.090706766 0.11273984 0.1829418
0001b0 d3 00 35 bc 96 41 b3 bd 84 c9 4f be e1 a8 ca bd
       -0.01104756 -0.08752744 -0.20291716 -0.09895492
0001c0 12 29 9a 3d e5 c9 37 3d 33 b8 ef bc b5 84 0e be
       0.07527365 0.044870276 -0.029262638 -0.13917811
0001d0 85 0f d5 3b d2 45 0f be e6 b5 6b bd 0f c9 02 bd
       0.006502094 -0.13991478 -0.05754652 -0.031930026
0001e0 11 ed 58 bd 0e 89 28 be 38 8a 80 3e 2b 9d 45 be
       -0.05296046 -0.16458532 0.25105453 -0.19298236
0001f0 bb 92 16 be f6 d5 a9 bd 2c 9b 25 be e5 9a 3b 3e
       -0.1470441 -0.08292763 -0.16172475 0.18320806
000200 c9 e5 14 bd 19 21 88 3c d5 31 c6 3c 1d 87 87 bd
       -0.036351953 0.016617345 0.024193684 -0.06617568
000210 1b 22 dc 3d ae 4b 92 bd 60 c4 07 3e d6 bb c2 bd
       0.107486926 -0.07143341 0.13258505 -0.09508483
000220 d2 53 d1 3d c5 f8 e8 3d 4f 16 82 3d 4f 88 8f bd
       0.102210656 0.11375574 0.06351911 -0.07008421
000230 93 6d 29 3d 7c 01 02 be fb cf 8b be c2 5b 05 3d
       0.041364264 -0.12695879 -0.27307114 0.03255821
000240 03 e2 80 be 10 dd 29 3d f2 a7 0a be fb 11 a7 bd
       -0.25172433 0.041470587 -0.13540629 -0.081577264
000250 89 e7 e2 3d 28 fa fd bd 8a 06 06 3e 49 a6 e5 bd
       0.11079318 -0.12401229 0.13088432 -0.11213357
000260 1d 7a 08 3c 07 82 85 bd 41 19 dd bd f1 54 94 3d
       0.008329895 -0.065189414 -0.107958324 0.07242764
000270 60 d0 50 be de 3a 9b bd a8 ef 7a be 3b 65 1c 3d
       -0.20391989 -0.075795874 -0.24505484 0.03818248
000280 36 45 b2 bd a3 a8 02 3d 2a 98 ba bd d8 93 8e 3d
       -0.08704607 0.031899106 -0.09111054 0.06961793
000290 a9 69 a9 3e dc 08 0a 3e a9 81 0d 3d 5b d9 69 bc
       0.33088425 0.13479942 0.03454748 -0.014273013
0002a0 68 f6 eb 3c 5d b0 21 bd c7 8d 89 3d ea 1a 0c 3e
       0.02880402 -0.039474834 0.06716495 0.13682142
0002b0 56 d1 69 3e 33 ad 24 3c 1f 4c 95 3d eb 42 cd bc
       0.22833762 0.01005106 0.072899096 -0.025056323
0002c0 0c 98 1f 3e 7a 24 0b 3e 18 7e 6a 3d b7 c6 74 bd
       0.15585345 0.13588133 0.05724916 -0.05975982
0002d0 0f 2b 07 be be 19 88 3d fd 0e 2e 3d c5 82 8c bd
       -0.1320002 0.06645535 0.042494763 -0.0686088
0002e0 6c 27 41 bd 4d 0e f9 bd 9e a5 f7 bd 91 10 a9 bd
       -0.047156736 -0.12160931 -0.12092136 -0.08255113
0002f0 e3 3b fa bd b6 95 bd bd 6d 88 94 bd 26 17 1d 3e
       -0.12218454 -0.09257071 -0.07252584 0.15340862
000300 b9 44 f2 bd e6 f3 eb 3c c8 15 b0 be e6 07 b4 3c
       -0.11829514 0.028802823 -0.34391618 0.021976423
000310 7c ba 16 3e dd 8b 26 be ee 79 95 bd 18 b8 b6 be
       0.14719576 -0.16264291 -0.07298647 -0.35687327
000320 23 96 28 bd c0 46 88 3d 85 64 95 bd fe 3d 29 bc
       -0.041158807 0.066541195 -0.07294563 -0.0103297215
000330 4c 1e 3a bc 07 f9 05 be 28 0a 90 3d 19 78 1b 3e
       -0.011359762 -0.13083278 0.07033187 0.15182532
000340 01 a6 13 be da 93 b3 bd 37 b6 a2 3c 30 5c ac be
       -0.14418794 -0.08768435 0.019862277 -0.33664083
000350 6b 4b 18 3e c1 4b 8d 3d 59 34 37 be cb 6c 04 3e
       0.1487252 0.068992145 -0.17891063 0.12932126
000360 54 47 36 3d 73 d8 92 bd a1 3a 5b 3d 84 cf fe bc
       0.044501618 -0.07170191 0.05352271 -0.03110481
000370 10 7c ce bd 1c cc bf bb 1d 60 c0 be d3 54 62 3d
       -0.10082257 -0.005853189 -0.3757333 0.055256676
000380 66 b9 58 be 21 20 67 3d 14 0d 96 be 8a 41 6c bd
       -0.21164474 0.056427125 -0.29306853 -0.05767969
000390 d8 91 d9 3c 11 f9 02 bd f8 11 4c 3e b5 11 01 be
       0.026558802 -0.03197581 0.1992873 -0.12604411
0003a0 46 f7 84 3e 79 b9 a3 bd 24 ae b0 3d 8e 8d eb 3c
       0.25969905 -0.079943605 0.08626965 0.028754022
0003b0 21 c5 27 bd 0d e5 0b be e1 cb aa bd 54 b0 a2 bc
       -0.04095948 -0.13661595 -0.08339668 -0.01985947
0003c0 a0 b3 a6 3d f7 c5 a6 3d 4c b1 86 bd 79 85 b6 bd
       0.081397295 0.081432275 -0.065767854 -0.08912177
0003d0 16 42 85 be c6 83 10 3c d4 97 75 be eb 5b 0b be
       -0.26026982 0.00882048 -0.23983699 -0.13609283
0003e0 21 ab f1 bd 1c bd 25 be db f0 d3 3d ba da f2 3d
       -0.118002184 -0.16185421 0.10348674 0.11858125
0003f0 56 cb 0e 3d 51 76 49 bd 50 42 9e 3d 3d 9f 5b bd
       0.034861885 -0.0491851 0.07727492 -0.05361866

actor.4.bias f4 [6]
000000 ff ab 67 be 97 cc 72 bb a6 26 ee 3d 81 9d 9d 3e
       -0.22624205 -0.0037048215 0.11628465 0.30784228
000010 d0 45 bc 3d 69 f2 84 3e
       0.09193003 0.25966194

critic.0.weight f4 [64, 25]
000000 22 2f 40 3e 5a 29 54 3d d4 dc 91 3d 92 21 0e be
       0.1876798 0.05179725 0.07122198 -0.13879994
000010 e3 8e a6 3d 24 ef c3 bd e6 c8 5d ba 3a 11 af bd
       0.08132722 -0.09567097 -0.0008460417 -0.085482076
000020 3b 0a b9 3c 4c 57 00 bd 28 57 36 3d dc 5e 55 ba
       0.022587886 -0.031333253 0.044516712 -0.00081394403
000030 68 90 d3 bd 28 20 64 3e 1d ba 45 be a2 80 07 be
       -0.10330278 0.22277892 -0.19309278 -0.13232663
000040 7b 50 56 3f f2 94 7d bc 45 90 40 bf 43 3f 52 3d
       0.83716553 -0.015477406 -0.7522014 0.051329862
000050 f4 ab 61 bd f7 bd 12 be 25 cd 72 3d f4 c2 96 bd
       -0.055095628 -0.14330278 0.059277672 -0.07361403
000060 5d f7 72 3d de 64 9f 3e 24 3b 3b be 66 ce 64 be
       0.059317935 0.31131643 -0.18284279 -0.2234436
000070 1f 47 52 be d1 31 b8 bd 07 b3 bf 3c 43 e1 0b 3e
       -0.20534943 -0.08993877 0.023400797 0.1366015
000080 10 9e 70 3e fe e0 14 be d1 63 a5 bd 12 8c 6c 3c
       0.23497796 -0.14538953 -0.08075679 0.014437692
000090 0e c1 14 3e 9a 0b 5b be c3 4c e0 3e f5 c0 1f bd
       0.1452677 -0.21391144 0.43808565 -0.039002378
0000a0 b4 8e bf 3c 55 02 2e 3e c6 3d 7a bb 6b 91 a4 be
       0.023383476 0.16993077 -0.0038183792 -0.32142195
0000b0 ef e0 02 be 6e 4b 20 be a7 b8 ee 3d 24 ed 7a bd
       -0.12781118 -0.15653774 0.116563134 -0.06126131
0000c0 ba 7b da bd c7 c1 ec 3d fd 67 23 be 7b c4 34 3c
       -0.1066813 0.115603976 -0.15957637 0.011033173
0000d0 a3 85 98 3b 39 a4 27 3d 3d aa 93 3d c0 8c 2a 3e
       0.0046546026 0.0409281 0.07210205 0.16655254
0000e0 ef c3 a1 3c e4 77 66 3d 8e 27 68 bc f7 71 09 bc
       0.019746749 0.05626668 -0.014169587 -0.008388988
0000f0 24 0a 83 bd cf ef 48 3c 5a 0d 1d 3e 86 b5 2c bf
       -0.063984185 0.012264206 0.15337124 -0.6746448
000100 32 1e 57 be 40 4c 4c 3e 56 d8 a1 be 8c f1 ec bd
       -0.21007612 0.19950962 -0.31610364 -0.11569509
000110 a7 a7 8f 3d 6c c5 9e bd 7b 60 09 bd a5 5b d5 3d
       0.07014399 -0.07752499 -0.033539277 0.104178704
000120 da d3 5f bd b3 a9 29 3d f2 3c 17 bd 10 fa 87 be
       -0.054645397 0.041421603 -0.036923356 -0.2655797
000130 0d a4 aa 3b eb 22 33 3c d8 e5 03 3e 64 63 5a be
       0.0052075447 0.010933618 0.12880647 -0.21326977
000140 17 d2 09 be 8e ac 00 3e 8a 44 93 be a9 40 ef 3d
       -0.13459049 0.12565824 -0.2876323 0.11682255
000150 ba 49 ae bd e6 4b 02 3d 10 ff 96 3d 8a 87 0e 3e
       -0.08510156 0.031810664 0.07372868 0.13918892
000160 c1 36 d7 be 4d 36 47 3e c1 66 3e be bc bc 81 3d
       -0.4203396 0.19454308 -0.18593885 0.06334826
000170 0f 3e 28 3e 31 69 dd 3d 04 34 ce 3c 1c 07 2a 3e
       0.16429923 0.10811079 0.025171287 0.16604275
000180 fb 71 40 3d 53 68 e2 3d 48 cc b6 bd 04 0c 17 be
       0.0469837 0.110550545 -0.08925682 -0.14750677
000190 bc ba 25 3e f2 29 b2 bd 46 20 49 3e e4 eb 5d be
       0.16184515 -0.08699407 0.19641218 -0.21672016
0001a0 70 35 d4 bd 5b 20 4a be 6f 31 c0 3d 9e e3 5f 3d
       -0.10361755 -0.19738905 0.09384429 0.054660432
0001b0 9f b5 53 bc 4f 90 6c bd b2 cf 09 3c c1 4e 79 bd
       -0.01292172 -0.05775481 0.008411335 -0.06086612
0001c0 eb 21 64 be 2d 70 81 3f ee 00 cc 3e d6 60 95 3d
       -0.22278564 1.0112358 0.3984446 0.072938606
0001d0 49 1a 24 3e 24 40 62 3d e0 e2 b8 bd aa ca e9 bd
       0.16025652 0.05523695 -0.09027648 -0.11415608
0001e0 f3 b0 1a 3e 97 b6 2d 3d 76 6b 00 3e f5 99 b8 3b
       0.15106563 0.04241046 0.12540993 0.0056335875
0001f0 ed ac 93 bc ca bb b1 be 6d b0 cd bd 22 44 da 3d
       -0.018026793 -0.34713584 -0.10043416 0.106575266
000200 57 3f b0 bd b6 59 b4 3c 16 a1 71 3e 97 69 b0 bd
       -0.08605831 0.022015434 0.23596606 -0.0861389
000210 83 9a e3 3d ea 0f a3 3b 92 13 2e bd 07 89 a5 bd
       0.11113455 0.0049762623 -0.042499132 -0.080827765
000220 ca 41 42 bc 30 bb 13 be 93 00 9a be 00 a6 5a be
       -0.011856506 -0.14426875 -0.30078563 -0.21352386
000230 1a e4 0d be dc ce f1 be 8f 0e 5c bb 4b d7 bc 3e
       -0.13856545 -0.47228134 -0.0033578014 0.36883005
000240 4b 15 ab bd af f8 b5 3d cc 3b d4 3d 73 fe 5e bd
       -0.08353671 0.08885323 0.10362968 -0.05444188
000250 82 12 8b 3d b6 9b 6b bc 5e ad 0c 3e 49 80 44 3e
       0.067906395 -0.014380386 0.1373801 0.19189562
000260 85 60 0e be 62 ad 79 bd 73 49 e4 3d 94 07 4b 3d
       -0.13904007 -0.060956366 0.11146822 0.049567774
000270 c1 e3 f5 bd 6e e6 ce bc 52 36 0d 3b 35 c2 43 bc
       -0.12006331 -0.025256362 0.002154727 -0.011948158
000280 1d b2 08 3e e4 05 ed 3d 02 30 3f be 98 b1 0e 3f
       0.13349195 0.11573389 -0.18670657 0.55739737
000290 21 2a 30 3e 75 7a c7 3c ee 99 fb 3e 8a 61 fe bd
       0.17203571 0.024350384 0.49140877 -0.12420948
0002a0 b0 66 a1 be 5d 04 86 3c a8 eb bb 3c 76 7b 98 3d
       -0.31523657 0.016359502 0.022939518 0.07445423
0002b0 6c fa 9c 3d ef ba 9e 3c 6f a2 cf bd b1 3c 71 be
       0.07664952 0.019376246 -0.101384036 -0.23558308
0002c0 0d 21 25 be 4f 4f 9e be 9d ef ef 3d ac 23 28 3e
       -0.16125889 -0.30919883 0.117156245 0.16419858
0002d0 f6 14 02 3d f6 7c 05 bd 31 e0 8a 3c 86 0a c8 3c
       0.03175827 -0.032589875 0.016952606 0.02441908
0002e0 c9 67 db 3d b2 55 42 3d 2e d6 f2 3c a5 52 4e 3e
       0.10713155 0.047445007 0.029643144 0.20148714
0002f0 f0 a3 72 3f 41 d7 ee be 7c ec 36 3e 9a 3a 18 3e
       0.947814 -0.466486 0.17863649 0.14866105
000300 ea af 10 be cf 2d 43 be 28 41 11 be 41 14 30 bd
       -0.14129606 -0.19060443 -0.14185011 -0.042988066
000310 31 18 20 3d cb 03 90 3d d4 61 80 bd 57 86 c7 bd
       0.03908557 0.070319735 -0.06268659 -0.0974242
000320 b0 bd 43 3e 09 f9 5b be 8b d4 20 3d 7f 85 cb bd
       0.19115329 -0.21481718 0.039265197 -0.09937572
000330 03 20 98 3d 41 78 87 bd 9c 18 83 3d 44 aa a1 bd
       0.07427981 -0.066147335 0.06401178 -0.07893804
000340 00 48 1c 3d c7 b3 2f be 27 09 8e 3d 16 9a 28 bd
       0.038154602 -0.17158423 0.069353394 -0.041162573
000350 f0 4d 8c 3d ca fb 54 be 20 ff b2 be 4f d0 0e be
       0.06850803 -0.20799175 -0.3496027 -0.13946651
000360 ad 1f f1 3d 7f 69 f5 3d 8e 1f 40 3d 7d 39 4e bd
       0.1177362 0.119830124 0.046905093 -0.050347794
000370 ed 74 a9 3d 7a 9b 0c be 09 06 24 3e 9a 13 3c be
       0.08274255 -0.13731185 0.16017927 -0.18366852
000380 4c fd 8d 3d de 84 77 be 8f 14 14 be 04 62 24 3d
       0.06933078 -0.24171779 -0.14460967 0.040132537
000390 e9 d4 df bd 05 d2 45 3d 52 90 f5 bd bd aa 02 bd
       -0.10929281 0.048295993 -0.119904175 -0.03190111
0003a0 c5 b2 c6 3c b0 88 01 3d c3 7c ed bd 9e af 5e 3c
       0.024255166 0.031624496 -0.11596062 0.013591675
0003b0 09 97 29 3b 8d 5d 8e 3e e8 59 92 40 c6 43 49 bf
       0.0025877377 0.2780575 4.573475 -0.7861904
0003c0 ca bb 66 be 84 f5 2f 3f 75 40 71 be fd d6 0d bf
       -0.22532573 0.68734 -0.23559745 -0.5540617
0003d0 0d eb c2 bd dd 41 08 3d 84 80 92 3a 0f 6f 5c 3d
       -0.09517489 0.033265937 0.0011177217 0.05381685
0003e0 21 3b 28 bd 0c 99 a0 3c 3e ff 21 3e b4 a3 e0 bd
       -0.041072015 0.019604228 0.15820023 -0.10968724
0003f0 4d e1 4a be 98 72 a6 bd 1f 93 d4 3d 34 82 92 3c
       -0.19812508 -0.08127326 0.103796236 0.017884351

critic.0.bias f4 [64]
000000 2c b8 3d 3e 80 7e 64 3e 79 5b 2c be 5e 96 30 bc
       0.18527287 0.22313881 -0.16831769 -0.010778038
000010 68 3b fe 3c 8b e0 5e be 91 a4 23 3e 45 b7 0b be
       0.031034186 -0.21765344 0.15980746 -0.1364413
000020 92 98 4f bc 52 51 cb 3d 21 99 19 3e 4b 61 b2 3d
       -0.012670653 0.0992762 0.1499982 0.087099634
000030 d7 e4 45 be 39 b8 41 bd 35 30 37 3d ea 10 94 3b
       -0.19325577 -0.04729483 0.04472371 0.004518618
000040 53 be 52 be 54 b5 7a bc 71 b8 36 3d 95 83 87 3d
       -0.20580415 -0.015302021 0.04460949 0.06616894
000050 32 7f 39 3e 5a 76 89 3d 3a fe a1 3d bf 6e 05 3e
       0.18114927 0.06712027 0.07909818 0.13030528
000060 ec 2e 59 bc 5c 08 a3 bc a8 37 68 bd 76 01 df bc
       -0.013255816 -0.019901447 -0.056693703 -0.027222376
000070 50 c3 46 3d 59 ab 18 3e cd fe 24 bd e6 1f d5 bd
       0.04852611 0.14909114 -0.04028206 -0.10406475
000080 be 36 3c bd 47 de a7 bd c5 e9 7e 3e 40 90 ab bd
       -0.045950644 -0.08196693 0.24893863 -0.08377123
000090 58 ce bb 3c ae 51 b1 bd bd 61 9b bc e3 a7 dd 3d
       0.02292554 -0.08658157 -0.018967504 0.108230375
0000a0 bc 15 4b be 50 cf 17 be d6 8a 80 bd de e9 09 3e
       -0.1983251 -0.14825177 -0.06276481 0.1346812
0000b0 2b 33 8a bc 5b 9a 37 bd 42 04 db bd 47 b3 f4 3d
       -0.016870102 -0.04482494 -0.106941715 0.11948257
0000c0 70 01 32 bb 04 30 16 3e 0a 9c 45 3c 89 7b 62 bc
       -0.0027161501 0.14666754 0.012061128 -0.013823398
0000d0 2e 5e bd bd 4e 5c fe bd 64 7f 26 3e 0e f7 03 3d
       -0.09246479 -0.124199495 0.16259533 0.03221803
0000e0 37 dc d9 bd f4 49 d5 3d d7 4f 02 be e2 92 dd 3d
       -0.10637706 0.10414496 -0.12725769 0.10819031
0000f0 9c 82 15 be 27 a9 ca bb 18 d2 5c 3c 36 e9 15 3d
       -0.14600605 -0.0061847153 0.013477825 0.03659936

critic.2.weight f4 [64, 64]
000000 43 0d b6 bd 1e c3 fd bc ee e7 25 be e6 a0 4a 3d
       -0.08889248 -0.030976828 -0.16201755 0.04946985
000010 c5 c4 26 3d 5d b0 13 be d5 a1 96 3d d3 db 87 3d
       0.040714998 -0.14422746 0.07355086 0.06633725
000020 c3 3e ac 3c 2b 00 a7 bd e6 8b ab 3d b9 25 c0 3c
       0.02102602 -0.08154329 0.08376293 0.023455488
000030 b7 06 ba bc 3b f6 de 3d ec c6 00 bd 02 71 b4 bd
       -0.02270828 0.108868085 -0.031439707 -0.08810617
000040 8d b6 37 bd 15 33 23 bd 54 c5 2c bc 98 cb 37 bd
       -0.04485183 -0.039843637 -0.010545094 -0.044871897
000050 27 0f 04 3e 23 83 13 3e 64 46 ce 3d d5 15 44 3c
       0.12896405 0.14405493 0.1007202 0.011968096
000060 71 32 15 bc 6a 36 1d 3d be 4e 56 3d ef db ba 3a
       -0.009106264 0.03838197 0.05232119 0.0014256219
000070 de 1d a8 bd fe a3 6a 3d db 7a 4a 3d 8a 9b a5 bd
       -0.08208822 0.0572853 0.04943357 -0.08086307
000080 02 e1 e0 3d d9 c6 ba 3d 2f 07 b2 bc 8b 26 95 3d
       0.10980417 0.091199584 -0.021731941 0.07282742
000090 9e 48 fe bd e4 47 de 3c 21 ef 89 bc 3b 1e bf 3d
       -0.124161944 0.02713389 -0.016837658 0.09331938
0000a0 20 ea 25 be 2b 00 5f bc 0a 3c 32 bd a2 59 df bd
       -0.16202593 -0.01361088 -0.04351429 -0.10905768
0000b0 dc e9 1c 3c 7e 43 1b be 2e f8 39 3c d2 aa cc 3d
       0.009577241 -0.15162465 0.011350675 0.09993519
0000c0 b0 84 ff bb 41 9b c3 3d ea 5a f0 3d 5c 85 a9 bc
       -0.0077978 0.09551097 0.117360905 -0.020693474
0000d0 f8 d1 a9 3d 65 d3 01 3e 1e 8e 91 bd 51 03 8d bc
       0.082920015 0.12678297 -0.07107185 -0.017213495
0000e0 04 1c 12 3d 18 43 7b bd 09 ca a0 3d 94 7a 96 bd
       0.03567125 -0.061343282 0.07851035 -0.07347599
0000f0 1f 98 03 3c 10 03 c1 3d 44 f9 4e 3c a5 8b 74 3d
       0.008031874 0.09424412 0.012632672 0.059703488
000100 b3 f9 10 bb f9 e1 22 3d 2f d5 54 3d 58 da a4 3b
       -0.0022121489 0.039766286 0.05196112 0.0050309114
000110 75 a2 96 bd 6c fe 14 3e 70 48 fe bc 42 eb 09 bd
       -0.07355205 0.14550179 -0.0310404 -0.033671625
000120 0d d4 0c bd 52 f3 9c 3d e4 db 22 3e eb a3 b2 bd
       -0.034381915 0.07663597 0.15904194 -0.08722671
000130 c2 9c d4 3d 93 91 41 bd 09 7a 6e ba 62 a7 7c bd
       0.10381462 -0.04725797 -0.0009097164 -0.061683066
000140 6b 03 1f 3d 00 f7 8e 3d 6f 36 ca 3d a5 ab 0e bd
       0.03882162 0.06980705 0.09873664 -0.03483166
000150 89 57 d5 3c 16 8e 84 3d c3 b2 10 bd 5f 4b 0b 3e
       0.026042717 0.06472413 -0.03532673 0.1360297
000160 74 f7 1e 3e e5 36 e0 3d 92 f8 09 be c8 7b 0e bc
       0.15524083 0.1094797 -0.13473728 -0.008696504
000170 b7 65 a1 bd 6c 0a 10 3e f1 cf a3 bd b2 9a fb 3d
       -0.07880729 0.14066476 -0.07998646 0.12285365
000180 f5 64 8e bc 2b 7f fc bd 46 43 90 bc b1 40 c8 bd
       -0.017382124 -0.12328943 -0.017610203 -0.09777964
000190 68 d3 f9 bd fa 69 a3 3c f9 d4 7f bd 32 bd 58 bd
       -0.12198526 0.019947995 -0.062458966 -0.052914806
0001a0 88 a9 00 bb a8 fd 58 3d 15 7c 7d 3d 16 20 b8 3c
       -0.0019632298 0.05297628 0.061885912 0.022476237
0001b0 eb 27 9f bc c5 f0 14 bc 95 38 d8 bb c1 b8 e5 bd
       -0.019428214 -0.009090607 -0.006598542 -0.1121688
0001c0 37 bd 15 be 8f 32 54 bd 13 2c d8 bb 44 43 aa 3d
       -0.14622961 -0.05180603 -0.006597051 0.08313611
0001d0 d2 fb a3 3d ab bf 2d bc 48 50 0d be 65 8f d4 bd
       0.08007015 -0.010604779 -0.13800156 -0.10378913
0001e0 5a f3 0b 3e 43 1f d2 3c 2e ad 01 3e 4f 0f ac bd
       0.1366705 0.025649672 0.12663719 -0.084013574
0001f0 67 d8 15 be ee 47 97 3d b5 56 80 bd f0 79 a5 3d
       -0.14633332 0.073867664 -0.06266538 0.08079898
000200 db c7 f4 3d ff 23 c6 bc d5 84 38 bd d7 82 c7 3c
       0.11952182 -0.024187086 -0.045048553 0.024354381
000210 c2 d9 77 bd 10 ce f1 3b 50 c8 b8 bd ac b2 b2 3d
       -0.060510404 0.007379301 -0.090225816 0.08725485
000220 31 34 e6 bc 8f e3 fe 3c b1 39 d7 bc ed f6 14 3c
       -0.028101059 0.031114368 -0.026272627 0.009092075
000230 03 ff d7 bd d1 3f 5c bd 02 ed 0e 3d e8 b3 59 bd
       -0.105466865 -0.053771798 0.034893997 -0.053150088
000240 2a e0 f1 3d 58 89 07 3c d9 0b 57 3d af 66 da bd
       0.11810334 0.008272491 0.052501533 -0.106641166
000250 05 1e 84 bc 6b 42 06 3e e9 8d 50 3c 90 80 1b 3d
       -0.016127596 0.13111274 0.0127291465 0.037964404
000260 9f 21 f7 3d bf fd 86 3d ef 7e d0 bd 6d fd 2c bd
       0.120669596 0.06591367 -0.10180461 -0.042233873
000270 d2 7f a6 bc d7 61 f2 3d 9b d3 10 3d 0d ae c6 3d
       -0.020324621 0.11835068 0.035358053 0.09701166
000280 39 78 d5 3c ea 2b 86 bd 12 de 1a 3d db aa b8 bd
       0.026058303 -0.06551345 0.03780944 -0.09016963
000290 ad 81 08 3e 6f ed 17 bd 5b 9d 6b 3d 20 49 95 3d
       0.13330717 -0.03709167 0.057523113 0.07289338
0002a0 3d 52 59 3b 7e c7 cb 3d 98 95 73 bc 62 7d 9a 3c
       0.003316059 0.099501595 -0.014867209 0.018858615
0002b0 15 58 68 3d ba 2c 8f bd a7 91 96 3d 61 e7 e1 bd
       0.056724627 -0.06990953 0.07352 -0.1103046
0002c0 e2 fe 17 be 41 a4 d8 3d 51 46 a3 bd ac 1d c5 3d
       -0.14843324 0.10578204 -0.07972396 0.096248
0002d0 5c 3d 48 bc 75 35 18 bc 43 b0 5f 3d aa 26 d9 3d
       -0.01222166 -0.009290089 0.054611456 0.10603078
0002e0 26 c0 81 bc 19 a6 a2 3d 80 5c 10 3e c6 5d 7f bc
       -0.015838694 0.07941837 0.14097786 -0.015586322
0002f0 9b e7 88 3d cb cc 04 be c7 3b 39 bd 86 83 13 3e
       0.066848 -0.12968747 -0.045223024 0.14405641
000300 89 f4 8b 3d 41 dc 8a bb 2c 43 c7 3d b4 4f 1c bd
       0.06833751 -0.004237682 0.09729609 -0.03816195
000310 0e f1 c9 3d 9b 66 0f 3e d8 ec 29 3c 55 a0 ce 3d
       0.09860431 0.14003985 0.010371409 0.10089175
000320 5f 29 d4 bc 66 34 1e bc 2c 9a 28 be cf 84 c4 bd
       -0.025898634 -0.009656047 -0.16465062 -0.09595644
000330 ec d4 b5 3d ba d6 9f bd 8b 9a b8 bc 6f 54 86 bd
       0.08878502 -0.07804628 -0.02253463 -0.06559073
000340 0b c9 ec 3d 7d 05 8b 3c 95 fa 05 bd 6d e1 77 bd
       0.115617834 0.01697039 -0.032709677 -0.060517717
000350 da 52 a2 3b 53 58 1e bd f2 1a 05 be 2b b9 da bd
       0.0049537243 -0.03865845 -0.1299856 -0.10679849
000360 5b c4 a6 bd 79 43 d9 3d 60 7b a1 3c af b0 1f 3d
       -0.081429206 0.106085725 0.01971215 0.038986858
000370 df f8 b3 3d 23 55 e3 bd 6a ee b1 3c 88 59 8c bd
       0.08787703 -0.11100223 0.02172013 -0.06853014
000380 27 4a 4c 3d fc 44 93 bc 70 6b c4 3d 62 b3 8a bc
       0.049875405 -0.01797723 0.095908046 -0.01693124
000390 8e 52 b6 bd f2 7a 2d 3c 6f ec 9b bc 85 b0 f4 3d
       -0.08902465 0.0105883945 -0.019033639 0.11947731
0003a0 95 54 04 be f8 9b ca bc 79 19 ae bd 83 52 e9 3d
       -0.1292289 -0.024732575 -0.08500952 0.11392691
0003b0 39 8b 89 bc 5d e1 be bd cf 37 5d 3d 97 5e 88 3d
       -0.01679002 -0.093203284 0.0540083 0.066586666
0003c0 db 5b b9 bd 47 85 34 3d a8 3b cf bd fa 63 ec bd
       -0.09050723 0.044072416 -0.101188004 -0.115425065
0003d0 fb 16 e4 3d 48 3e e6 3d 5d 95 8d 3d cb 53 a9 bd
       0.11137196 0.11242348 0.069132544 -0.08267935
0003e0 5d 96 d6 ba 05 fc 4b bd 29 84 90 bd c8 29 d3 bc
       -0.0016371716 -0.04980089 -0.070564575 -0.025776759
0003f0 66 69 95 bb 81 86 29 bc 0d 2a 65 3b d9 1c 47 3c
       -0.0045596836 -0.01034701 0.0034967691 0.012152874

critic.2.bias f4 [64]
000000 f8 7a 95 bd d8 47 e4 3c d8 a6 f0 bd 82 7e 1c bd
       -0.07298845 0.027866289 -0.11750573 -0.038206585
000010 9f 3c a5 bd 79 ae 7e bd 64 61 93 3d f7 0f be bd
       -0.08068203 -0.06217811 0.0719631 -0.09280389
000020 ec bf 8a bd 2c 4f 7c 3d 09 89 e4 bd 2b 7a 1d bd
       -0.067748874 0.06159894 -0.1115895 -0.038446587
000030 19 bd 84 3c f2 13 3e bd ee 1d 7d 3d c1 d9 4f be
       0.01620345 -0.04640574 0.06179612 -0.2029791
000040 a6 18 42 bd e2 21 4c 3d 25 09 40 3d c1 a8 11 3d
       -0.047386788 0.049837 0.04688372 0.035561327
000050 54 c7 a9 bd 0d 70 d5 bc 94 e0 1e be fd 72 83 bd
       -0.08289972 -0.026054407 -0.15515357 -0.06418417
000060 7a c3 44 3d 14 96 9f bd 84 4a 29 3d a5 aa 94 bd
       0.048037983 -0.07792297 0.04133083 -0.0725911
000070 4a 3e 1b 3e 35 a4 01 3d 99 b5 2f 3c 67 7b d9 bd
       0.1516048 0.03165074 0.010724449 -0.1061924
000080 43 e5 00 3e 9b f2 b4 bd 0d dc 80 3d 86 a2 b6 3c
       0.12587456 -0.08835336 0.06291971 0.022294294
000090 cf da 0e bc a1 dc 19 bc 0f 2c 97 3d 76 89 f8 3d
       -0.00871916 -0.009390981 0.073814504 0.121355936
0000a0 af 1d 03 be 78 b6 6d 3d 8b 15 62 bc 35 c5 e1 bd
       -0.12804292 0.058035344 -0.013799082 -0.110239424
0000b0 69 8b bc bd ea 44 e7 bd a9 4e f5 3d 92 c6 fc bd
       -0.09206278 -0.11292441 0.11977894 -0.12342562
0000c0 8c 1b ba bc c0 c4 00 be 7a 44 25 3b f7 2d 1a bd
       -0.022718213 -0.12575054 0.0025217817 -0.03764149
0000d0 07 6d 16 3d d0 f8 81 bd ec 82 e7 bd 78 49 43 bd
       0.03672507 -0.06346285 -0.11304268 -0.047677487
0000e0 b2 75 b5 bd 1c 6a 3e bb 20 4d a8 bc 9e 44 2b be
       -0.08860339 -0.0029054945 -0.020544589 -0.16725394
0000f0 0e 73 55 3d f1 12 22 3d b8 8f 60 3d c3 92 82 3c
       0.052111678 0.039568845 0.05482456 0.015939122

critic.4.weight f4 [1, 64]
000000 ec 6f e4 3c e2 ec 99 3d ec 0f 65 3d b3 da e2 bb
       0.0278854 0.07515885 0.055923387 -0.0069230436
000010 31 3f ae bd a6 7f 67 bd 21 7b 9e 3d 8c 0e 0e bd
       -0.085081466 -0.05651822 0.07738329 -0.03468184
000020 50 73 28 bd 38 a1 c7 bc dd 60 44 3d bd 73 1e bc
       -0.041125596 -0.024368867 0.04794394 -0.009671149
000030 63 4d af bc c9 69 39 bd 99 86 eb bd 68 38 ea 3d
       -0.021399206 -0.0452669 -0.11500282 0.1143654
000040 01 b5 c4 3c c9 4f 65 3a 00 cc a2 3d 2e 2f 09 bd
       0.02401209 0.00087475457 0.07949066 -0.03349226
000050 70 8f 54 bd 5e ce 7b bd 31 e2 e9 bc 9f 51 fe bc
       -0.051894605 -0.061476104 -0.02855024 -0.03104478
000060 a9 d1 ca bc 39 30 25 bd eb d3 4b 3c fe e7 05 3d
       -0.024758177 -0.04032919 0.012440662 0.032691948
000070 57 ae 80 bd f2 fd 4c bd 60 1a 56 3c 44 35 f9 bd
       -0.06283253 -0.05004687 0.013067812 -0.12168363
000080 00 20 30 bd 18 cc 63 3c 36 5c cb 3c c6 88 a5 bd
       -0.042999268 0.01390364 0.024824243 -0.08082728
000090 01 db 0e bd 19 8b 4c 3d f5 ce 37 3d 2d f1 a8 bc
       -0.034876827 0.04993734 0.044875104 -0.020622814
0000a0 11 96 3f 3c f9 64 9b bd 13 9d 93 bd 25 b1 0a be
       0.011693493 -0.075876184 -0.07207694 -0.13544138
0000b0 bb 39 1c bc 70 d0 6a bd 51 2e a2 bc 7a e6 0a bd
       -0.009535248 -0.057327688 -0.019797476 -0.033911206
0000c0 58 29 7b 3d 65 a8 1c 3d a3 3c f3 bb f3 cf d5 bc
       0.061318725 0.03824653 -0.007423 -0.026100134
0000d0 73 83 37 bd 96 15 37 bd 9e f6 94 bd b4 68 82 3d
       -0.044803094 -0.04469832 -0.07273601 0.06367627
0000e0 41 47 65 bd ba 3c 72 3d 45 3c 62 3d 49 1f dc ba
       -0.055976156 0.059139945 0.05523326 -0.0016793992
0000f0 c1 f7 84 3d e3 ba c6 3c c9 7c 70 3d 6f 2e a8 bd
       0.06492568 0.024259036 0.058712754 -0.082119815

exp_avg f4 [6]
000000 75 83 d1 38 08 eb 68 b9 0c 80 f1 39 1d 18 f0 b9
       9.9903824e-05 -0.000222128 0.00046062504 -0.00045794333
000010 9d 70 f2 38 d0 8b 54 b8
       0.00011560435 -5.067495e-05

exp_avg_sq f4 [6]
000000 44 38 43 35 f7 7e 12 37 e9 97 6c 3a 88 47 61 36
       7.272504e-07 8.731839e-06 0.0009025322 3.356925e-06
000010 28 ef 8e 36 7b 8b f9 37
       4.2597712e-06 2.9748064e-05
