04-goal-pose-l6/logs/rsl_rl/joint_position/2026-02-18_14-34-58/model_1800.pt (torch, 161397 bytes, 36 tensors)

std f4 [6]
000000 a1 bd ac 3d 81 9b a6 3c c5 59 3c 3b 9b f3 cd 3c
       0.08434606 0.020337822 0.002874003 0.025140574
000010 46 cc 06 3d bd 42 94 3c
       0.032909654 0.01809823

actor.0.weight f4 [64, 25]
000000 c4 9d 1b bd 66 18 8c 3e b3 e3 b1 be 65 4e 7e be
       -0.037992254 0.27362365 -0.34744033 -0.24834593
000010 46 f9 ab be ba 80 4c be 3a c7 dd 3c 64 73 f2 bd
       -0.33588618 -0.1997098 0.027072538 -0.11838415
000020 74 42 24 3e 7d aa 00 be ce 0d 87 3d 71 d4 e0 3c
       0.16040975 -0.12565036 0.0659443 0.02744505
000030 41 36 43 be 8c 99 a6 be 5c 42 d4 be 05 3e ae be
       -0.19063665 -0.32539022 -0.41456878 -0.34031692
000040 91 65 00 bf 30 c6 0e be 9d ca 0c 3f 73 fd 3d bb
       -0.5015498 -0.1394279 0.54996663 -0.0028990179
000050 56 f3 a7 3e b8 6b f5 be cb 10 ae 3d 62 11 d5 bd
       0.32802838 -0.47933745 0.08499297 -0.10403706
000060 8f 0b e7 bd ed ee 47 3e 67 14 11 3e 21 69 b9 be
       -0.112815015 0.19524737 0.14167939 -0.3621302
000070 5d 07 d4 be 8e 4b 9f bd 79 34 d9 be ba 10 14 be
       -0.41411868 -0.07778083 -0.42422846 -0.14459506
000080 09 0e ba 3d 97 92 82 3d 1d 47 f4 3c d5 89 9e bd
       0.09084708 0.06375616 0.029819066 -0.07741133
000090 8b 99 51 bd fb 4c 8e be 38 2c f9 bc fe c9 d3 be
       -0.05117182 -0.27793106 -0.030416593 -0.41365045
0000a0 08 7c 6b be 1d 7c 84 3f 49 e4 98 be 1a 5d 7e bf
       -0.22996533 1.0350376 -0.29861668 -0.9936081
0000b0 a2 3a b5 3d 5b 96 1a 3e 9f 7a 7b be 78 a7 57 be
       0.08849074 0.15096419 -0.24558495 -0.21059978
0000c0 2c a3 5f 3e e7 9b 76 be 9f 8d a9 be 98 ed 5e 3e
       0.21839589 -0.2408291 -0.3311586 0.21770322
0000d0 39 a0 d4 bd 47 b3 1c 3e aa 5e 7f be 2a 8e 03 3e
       -0.103821225 0.15302764 -0.24938455 0.128472
0000e0 61 f6 7f be a6 8d 5d 3e ed bc 01 3e 5b cc c9 3c
       -0.2499633 0.21636066 0.12669726 0.024633577
0000f0 5b 1c fc 3c a5 cf ed 3d 57 bc da be 06 c6 e7 bd
       0.03077524 0.11611871 -0.42721817 -0.11317067
000100 b3 5e 8c bd a0 9b 6b be 4e da 10 3f 02 6d 9c be
       -0.06854 -0.23008585 0.56583107 -0.30551916
000110 7f 5b 07 bf 3a 47 39 be f5 35 91 be fe c9 c1 ba
       -0.52873987 -0.18093577 -0.28361478 -0.001478493
000120 84 17 0e 3e 80 c8 ca 3d c9 f8 1a bc b9 26 2e 3e
       0.13876158 0.099015236 -0.009458729 0.17006959
000130 50 90 83 3e b3 44 ad bd f5 ff 2c bf 08 30 0c 3e
       0.2569604 -0.08460369 -0.6757806 0.13690197
000140 e6 ba 17 bf a4 a3 ca 3d d9 cb ae 3d b3 5c 8d bd
       -0.5926956 0.09894493 0.085349746 -0.069024466
000150 b8 82 19 be e6 70 9e 3d c7 d8 8e 39 11 53 bb be
       -0.14991271 0.077363774 0.00027245862 -0.36586812
000160 88 ee 5b be 14 61 ab be bd a4 b1 be ae c9 05 3f
       -0.21477711 -0.33472502 -0.34695998 0.52260864
000170 d6 91 97 be 19 f2 1e bf 4a 5c 10 3e e0 2e e9 3d
       -0.29603451 -0.6208816 0.14097705 0.11385894
000180 b6 ce 44 be b6 19 31 3e 29 1e ef bd da 59 fc bc
       -0.19219479 0.17294964 -0.116756745 -0.030804563
000190 65 31 5e be d4 33 fb be af 88 9a 3e 09 f2 f1 3d
       -0.2169853 -0.4906298 0.30182406 0.11813743
0001a0 5e f6 96 be 77 98 fa 3d 09 a1 f7 3d 5b 6c 37 3d
       -0.29484838 0.122361116 0.12091262 0.04478107
0001b0 a2 30 dc bb 65 50 20 bd 64 c6 8c bc 40 38 83 3d
       -0.0067196647 -0.03913917 -0.017184444 0.06407213
0001c0 34 a0 5f b9 01 4b 72 3e da 4f 3f bf f0 d3 cc bc
       -0.00021326618 0.23661424 -0.7473122 -0.025003403
0001d0 2a 0a bd bf 47 a4 ea 3d 7d 55 bf 3f 3b 5f e6 bd
       -1.4768727 0.11457115 1.4947964 -0.112486325
0001e0 c8 84 48 3d 98 f6 ca bd 68 8b 33 3d e2 f8 78 bd
       0.048954755 -0.09910315 0.04383412 -0.06078423
0001f0 f7 93 45 bd 74 48 08 3f da ca 02 bf 61 3a 3f 3e
       -0.048236813 0.53235555 -0.51090777 0.18674614
000200 f0 38 68 3e 8e 9e 4c 3f 6f b7 03 3e d4 d7 7b bd
       0.2267797 0.79929435 0.12862943 -0.061485127
000210 6c f7 65 3d 2d da fa bc 62 6e 5d 3e 62 cb 5f be
       0.056144163 -0.030621612 0.21624139 -0.21854928
000220 d8 d0 29 bb 43 ce 0f bf c2 36 72 bf 31 44 b9 be
       -0.0025911834 -0.56174105 -0.94614804 -0.36184838
000230 38 e7 64 3d 7d dd 71 3f 72 cf d3 bd 69 d0 4a bf
       0.05588457 0.9447859 -0.103423014 -0.7922426
000240 95 c1 c7 3e ea 11 d3 3d 83 ca 29 be 2b 12 6c 3c
       0.3901488 0.10306151 -0.16581158 0.014408628
000250 b7 f9 76 bc db 3a 91 3d b6 80 2f 3d 9a 63 01 3f
       -0.015074185 0.07091304 0.042847358 0.50542605
000260 71 f7 d3 bd 3b 0f 03 be 27 40 41 bf e6 ff 9b be
       -0.1034993 -0.12798779 -0.75488514 -0.30468673
000270 15 d4 40 be 13 f0 ab be 2e 36 03 3e 88 4f 13 bc
       -0.18830903 -0.335816 0.12813637 -0.00899113
000280 8c 61 1e 3e 8b 42 9c 3d 4b 6a 35 be 75 bf 18 40
       0.15466899 0.076298796 -0.17716329 2.3866856
000290 b0 36 58 3f 3b d3 a2 bd 45 c2 d6 3e f6 ff 52 3d
       0.84458447 -0.07950445 0.4194509 0.051513635
0002a0 ab 0e 85 be bc c4 88 be 08 0d 80 3e c2 d8 8b bd
       -0.25987753 -0.26712596 0.25009942 -0.06828453
0002b0 28 64 e2 3d a6 e8 99 bd 75 72 ec 3b 6f 40 63 be
       0.110542595 -0.07515077 0.007215793 -0.22192548
0002c0 2f e1 b4 3e 13 4a c4 3d 7c 70 bd 3d 29 6f c7 be
       0.3532805 0.09584441 0.0924997 -0.38951996
0002d0 f1 d2 a3 be 65 4b 77 3d c1 68 d6 3d f8 0a aa 3d
       -0.31996873 0.060374636 0.10469199 0.083028734
0002e0 9f 01 a5 bc 2e 16 62 bc eb af 60 be a7 65 85 bf
       -0.020142375 -0.013799233 -0.21942107 -1.0421647
0002f0 0a a2 7c 3f ba 69 3c bc 3f 8b 9a 3e 7c 29 a7 bc
       0.9868475 -0.011499817 0.3018436 -0.020405523
000300 9c 28 e4 3c d0 f5 ab bd c0 ac 91 3d a7 45 1f 3e
       0.027851395 -0.083964944 0.071130276 0.15553914
000310 d7 df e4 3c 5c 56 b3 3d 7a c7 b8 bc dd c9 6c bd
       0.027938766 0.08756706 -0.022556055 -0.0578097
000320 88 b3 4b 3e dc 78 87 3f 6f d6 9a be c0 08 58 be
       0.19892704 1.0583758 -0.30241725 -0.21097088
000330 ca 03 d1 be 62 7c 75 3e be 3a c5 bd 90 7d 79 3d
       -0.40823203 0.2397323 -0.09630345 0.06091076
000340 16 bc f5 bd c4 3d 8a be 5f 3e 49 3d ab ab cd 3d
       -0.11998765 -0.27000248 0.049131747 0.10042509
000350 74 c2 1e be 95 d8 01 c0 e7 71 0c 3f f4 7a a2 3b
       -0.15503865 -2.028844 0.548613 0.004958505
000360 ac d2 af bf 8e 0e 40 3e 77 93 b9 3f 5e 8e f3 3d
       -1.3736167 0.18755552 1.4498128 0.11892389
000370 6f f4 ae 3e dd d2 c8 bd c2 c6 3c 3e 46 0d 38 3d
       0.34170863 -0.09805844 0.18435195 0.044934534
000380 8c 39 ab 3d cd dc c7 be a9 6a 90 bd fc 90 60 3e
       0.083605856 -0.39035645 -0.07051594 0.21930307
000390 62 9c 85 be 32 20 f8 be a3 3b b6 bd 14 9e e2 bd
       -0.26095873 -0.48462063 -0.088980936 -0.11065307
0003a0 fa 47 ad 3d a7 d4 fb bd ba 4e 6c bd bc 4e 32 bd
       0.08460994 -0.122964196 -0.057692267 -0.04353212
0003b0 89 02 b6 3d f9 dc 2e bf 57 41 93 3f 85 2b 16 3f
       0.08887202 -0.6830593 1.1504315 0.58660156
0003c0 0c df 2d 3e 25 71 7e bf 2a 87 0f 3e 0f 88 8d 3f
       0.16979617 -0.99391395 0.14016405 1.1057147
0003d0 d3 69 cd bd 46 7d 2d be 19 bd dd 3d 2b fe b8 3d
       -0.1002995 -0.1694232 0.10827083 0.09032854
0003e0 59 43 8a bd cb a6 38 be c6 ea 7d bf 65 19 b3 3e
       -0.06751127 -0.18032376 -0.9918636 0.34980312
0003f0 05 1e 2f bf e4 e8 9c 3e 96 02 67 bf 50 1d f0 3e
       -0.6840518 0.3064643 -0.9023832 0.46897364

actor.0.bias f4 [64]
000000 4b 49 8c be d3 32 e2 be b6 d7 6b be 93 13 05 bf
       -0.27399668 -0.441794 -0.23031506 -0.5198299
000010 72 bf cb bd 2a f4 98 be 0b 7a 9c bd 7f 5d fc 3d
       -0.09948625 -0.29873782 -0.07640465 0.123225205
000020 43 bc 47 bd 33 90 1d 3e ba db 57 bd 83 a8 77 be
       -0.048763525 0.15387039 -0.052699782 -0.24185376
000030 6b af 19 be 94 ab 79 bd ad c5 f6 3c fe 63 16 be
       -0.15008323 -0.060954645 0.030123556 -0.14686581
000040 42 ad 7a 3d da ab 4d 3e fd 5e c9 bd a0 af 92 bd
       0.061200388 0.20085087 -0.09832571 -0.07162404
000050 28 82 2b 3d 70 b4 78 bd 9a 80 69 3a 86 8b 59 be
       0.041872174 -0.060718954 0.0008907408 -0.2124463
000060 0a b3 4c 3d c3 80 4e be a6 79 57 3d 09 f8 d6 ba
       0.049975432 -0.20166306 0.052606247 -0.0016400825
000070 7f a1 34 be 5d 7d b0 3e ca 9d 1d be e2 28 98 be
       -0.17639731 0.34470645 -0.15392223 -0.2971869
000080 8c fc 42 bc 9f 11 09 bd d3 df e5 3d 28 ee 49 3e
       -0.011901032 -0.03346407 0.11224332 0.19719756
000090 cb 2a 06 3d 79 6e d2 be 99 84 1d 3e c5 ef b1 be
       0.032755654 -0.4109991 0.15382613 -0.34753242
0000a0 dd b9 48 bc 45 a4 90 bd 0d de 41 be 67 cd e0 3d
       -0.0122513445 -0.07062582 -0.18932362 0.109766774
0000b0 f1 82 b1 3c 9b 30 6e be a9 65 c0 3d a2 ee 0e bd
       0.021668883 -0.23260729 0.0939439 -0.034895547
0000c0 8f 2b 18 3c 06 1b 1d 3e cd f9 ff bd aa bc 5b be
       0.009287729 0.1534234 -0.124988176 -0.21458688
0000d0 80 c9 70 be 97 15 5a be d3 50 35 3d 6a ef 82 be
       -0.23514366 -0.21297298 0.044266533 -0.25573283
0000e0 ff c7 1a 3c 54 24 3c be d3 5c 0d 3e 30 46 c4 3c
       0.009447097 -0.18373233 0.13804941 0.02395925
0000f0 ab 8a 08 3e e0 74 07 bd 55 89 66 3e bf f6 32 3e
       0.13334148 -0.033070445 0.22513326 0.17476939

actor.2.weight f4 [64, 64]
000000 f8 4e 46 3e d9 ca 1c 3e 81 95 96 bb a7 d2 14 3e
       0.19366062 0.15311755 -0.004595459 0.14533482
000010 4f 2b bf bd 8e 93 f4 bc a1 2f 6e bc 33 9e 7f 3d
       -0.09334432 -0.029855516 -0.014537723 0.06240673
000020 dd 53 ca bd ec 98 4e be 7f 66 a4 3d 6c 05 75 3d
       -0.09879277 -0.20175523 0.08027362 0.059819624
000030 ac 90 d2 bc b7 12 49 3e 3a a2 f0 bc 25 d4 03 3d
       -0.02570375 0.19636045 -0.02937423 0.03218474
000040 5d 14 0c be b8 e8 1b bc 38 2c 57 bd 4c 1e 9c bd
       -0.13679643 -0.009515934 -0.052532405 -0.07622966
000050 72 10 39 3d ae 46 54 bd df 52 3e be 10 9c 92 bd
       0.0451817 -0.051825218 -0.185863 -0.07158673
000060 c8 0b 05 bd 92 7a 17 be 97 21 b9 3c 83 aa 37 3e
       -0.03248194 -0.1479285 0.022599025 0.17936139
000070 ff 21 1b 3e 10 aa 4f bd bb ec 6d 3b 77 71 9f 3b
       0.15149687 -0.050699294 0.0036304432 0.004865821
000080 b5 34 f1 3d f7 00 2d 3e f6 43 fe bd 52 87 e6 3d
       0.11777631 0.168949 -0.12415306 0.11256279
000090 74 e4 d0 3d ef c3 ed 3d cf 32 38 3e 1c 93 da 3d
       0.10199824 0.11609637 0.17988132 0.1067259
0000a0 e7 1e 5a 3d 44 fd fd 3d 94 0e 7d bc 4d 27 64 bd
       0.053252127 0.12401822 -0.01544537 -0.055701543
0000b0 1a 5e c4 bd 65 9f 2b 3e d2 66 32 be bb 28 97 bd
       -0.09588261 0.16760023 -0.17422035 -0.073808156
0000c0 bf 74 41 be 4a c0 7a be fe a9 a1 3c 89 a2 00 bd
       -0.18892191 -0.24487415 0.019734379 -0.031405006
0000d0 95 3f 39 3e fa bb ef 3c 0f 1b a6 3d 30 7b 18 3b
       0.18090661 0.029264439 0.0811063 0.0023266785
0000e0 7d 34 8e bc 73 a4 69 3d da 40 24 be cb 30 81 bd
       -0.017359013 0.057041597 -0.16040364 -0.06308135
0000f0 a9 b9 c8 3c 45 45 1f bc 36 0c f1 bd 17 90 88 3d
       0.024502592 -0.009721105 -0.11769907 0.06668108
000100 ef dc 2f bd 73 ee da bd fb a7 76 3e f2 ee 33 3d
       -0.042935308 -0.10690012 0.24087517 0.043929048
000110 74 69 07 be ba e2 65 3e 63 3e 03 3e 2c f5 72 3e
       -0.13223821 0.2244977 0.12816767 0.23726338
000120 49 98 3c bc 2d 59 ef 3d 8b 54 7e be d2 97 ea bc
       -0.011510917 0.11686931 -0.24836938 -0.028636847
000130 86 cc 5e 3d f9 d3 24 3e fd 63 06 be b5 7d 2e 3d
       0.054394267 0.16096486 -0.1312408 0.042600352
000140 b5 68 e9 3c 04 bf 92 bd ec e7 df bd c1 58 08 be
       0.028492311 -0.071653396 -0.109329075 -0.13315107
000150 a0 28 1f 3e 30 17 e4 3d 16 76 61 be 26 5b 19 3d
       0.15542841 0.11137235 -0.22017702 0.03744044
000160 d5 34 4f be 87 fd ab bc 6b 0f c5 3d 77 d4 3d 3c
       -0.20234998 -0.020994915 0.09622081 0.0115863
000170 dc e7 b9 3d e7 21 3f 3e 48 ab 33 be 63 43 2d be
       0.09077427 0.18665276 -0.17545807 -0.16920237
000180 38 99 f5 3d 1e 9d 24 3e 82 24 90 bd 30 fd aa 3d
       0.11992115 0.1607556 -0.07038213 0.08349073
000190 c0 d0 c3 bc a8 83 fa 3c 52 09 fe 3d f8 60 d9 bc
       -0.02390325 0.030580357 0.124041215 -0.026535496
0001a0 a9 77 33 3b a9 2b b6 3d 80 b6 73 3c 2e 26 2a bd
       0.0027384555 0.08895046 0.014875054 -0.041540317
0001b0 62 fb 8c 3d 66 4d f7 3c 27 3b 19 be 12 7a 56 bd
       0.06883885 0.030188274 -0.14963971 -0.05236251
0001c0 a4 8f ad 3e 01 a6 35 be ad 2c ae bd 58 74 93 bd
       0.33898652 -0.17739107 -0.08504615 -0.07199925
0001d0 15 68 b9 3c 3e 43 a4 be 4e c9 2e bd 5b ce c2 3e
       0.022632638 -0.32082552 -0.042672448 0.38048062
0001e0 94 09 80 bc 6d 54 ae bd 53 09 00 be 8c 14 e8 3c
       -0.015629567 -0.08512197 -0.12503557 0.02833011
0001f0 a0 63 cc be 1f c0 aa bd 36 59 b9 3d 38 03 d8 bd
       -0.39919758 -0.083374254 0.09050219 -0.10547489
000200 e8 e4 2c 3e d3 46 14 3f 90 6a 5d be 13 7b a8 3e
       0.16884196 0.5792057 -0.21622682 0.32906398
000210 de 36 3b be fe 69 26 be 0c 7e ed 3d 46 26 b0 3d
       -0.18282649 -0.1625137 0.11596307 0.0860105
000220 e1 27 05 be 0c ea f3 bd c2 49 12 bd cf 8d 66 3e
       -0.13003494 -0.11909875 -0.035714872 0.22515033
000230 b6 9a 7f be fb 7f a1 3e 28 2f 64 3e bd 06 4d 3d
       -0.24961361 0.31542954 0.22283614 0.050055254
000240 4a b3 9d be 0e 08 e8 ba d9 96 3b bd 11 49 c8 bd
       -0.3080085 -0.0017702596 -0.045798156 -0.09779561
000250 f8 13 8c 3d 8f 6a 07 be 8b 34 df bc 34 e9 24 be
       0.06839746 -0.13224243 -0.027246734 -0.16104585
000260 3c 4d 0e 3e 46 fc 7a bc b7 dd aa 3e b2 04 5b 3e
       0.1389665 -0.015318936 0.3337228 0.2138851
000270 26 ee 5d 3e fa 45 4c 3c c4 bb 79 bd ac 95 ce 3c
       0.21672878 0.012467856 -0.060970083 0.025217853
000280 96 0a 82 3e 2e 4e 5a 3e 17 80 2b bd cc 39 d6 bc
       0.253987 0.21318886 -0.041870203 -0.026150607
000290 1e 7d 21 bd ce 1a 76 3d 8a d9 90 3e 36 ca 46 3e
       -0.03942596 0.060084157 0.2829097 0.19413075
0002a0 90 8c 46 be 03 8e ed 3e 30 bf 86 be 93 34 81 be
       -0.19389558 0.4639741 -0.2631774 -0.25235423
0002b0 09 da 1b 3d 5c fb 40 3e db 3a b6 3c ee 7d e8 bd
       0.03804973 0.18845886 0.022244861 -0.11352144
0002c0 48 ea 2e be e1 8c 69 bb 93 66 d1 bd 22 7e c8 bd
       -0.17081559 -0.003563695 -0.102246426 -0.09789683
0002d0 b5 ac 80 3e 10 cd 17 39 93 a1 fd 3d e1 e6 ee 3d
       0.25131765 0.00014476874 0.123843335 0.116651304
0002e0 66 04 1d bd 63 98 9b 3c 60 dd 1c 3e 4d bd 4d 3e
       -0.038334273 0.018993562 0.15318823 0.20091744
0002f0 ce 0d f5 3d f4 ea cd bc d2 85 09 be 01 bb 4c bc
       0.11965524 -0.025136448 -0.13429955 -0.012495757
000300 ad 16 37 3d c5 2f c4 3d ba f4 15 be a0 b9 b6 bd
       0.04469936 0.09579424 -0.14644137 -0.08922124
000310 09 45 04 3e a9 60 b1 bd 01 cb b0 be e7 ba 8e be
       0.1291696 -0.086610146 -0.3452988 -0.2787697
000320 ff 78 65 be a7 d5 e1 be 20 83 98 bd 06 54 9c bd
       -0.22409438 -0.44108316 -0.07446885 -0.07633214
000330 5a 21 63 3e 03 c7 46 3e 23 e2 8b bd 1a 44 a2 bd
       0.22180691 0.19411854 -0.068302415 -0.079231456
000340 10 40 34 3e 99 85 23 bd 8b f9 19 3e 70 f1 cd 3e
       0.17602563 -0.03992233 0.150366 0.40223265
000350 8b 5c 9f bd fd 06 32 3c 63 8c 52 3e 79 42 28 bd
       -0.07781323 0.010865924 0.20561366 -0.04107902
000360 4e 74 63 3d 7b 27 8a 3c fe 55 65 bd c4 20 92 bd
       0.05553084 0.016864529 -0.05599021 -0.07135156
000370 df 54 aa bc 17 bf 86 be d5 af 4f 3e 62 d8 b9 3d
       -0.020792423 -0.26317665 0.20281918 0.09074475
000380 9f a1 c6 bd b0 7a 23 3c ff 30 b2 be 22 14 c1 3d
       -0.096987955 0.009977981 -0.34803006 0.09427668
000390 82 0a dc 3a 33 35 96 bd 02 1d 00 bd 34 c0 03 3d
       0.00167878 -0.07334366 -0.031277664 0.03216572
0003a0 44 b3 3c 3e 80 6a 23 3e 4f 9f 15 3e 60 c9 24 3d
       0.1842776 0.15958595 0.14611553 0.04023111
0003b0 a7 5a 07 3e b3 9f 08 3e 8b 7c 91 3e 31 f1 49 3e
       0.13218175 0.1334217 0.2841533 0.19720913
0003c0 d1 46 a5 be a7 6d 26 3e d5 42 c9 3e ff 89 45 be
       -0.3228059 0.16252767 0.393088 -0.19290923
0003d0 eb 26 bd 3d 67 d9 9e 3e 4e fb 18 be 36 9c e6 be
       0.09235939 0.3102524 -0.14939615 -0.45041054
0003e0 a5 ba d3 3d 29 de e7 3d cc ae 22 be c2 33 c2 bd
       0.10338334 0.113216706 -0.15886992 -0.09482528
0003f0 51 55 16 3f 8d 27 8e 3d a5 d5 6c 3e 3a 9c 28 3e
       0.5872393 0.069411375 0.23128374 0.16465846

actor.2.bias f4 [64]
000000 a3 44 43 be 36 22 84 3c 5b a9 b4 be 2d fb ab bd
       -0.19069152 0.016129594 -0.35285458 -0.08397517
000010 10 18 21 3e 44 c4 7b be a3 31 b8 bb 4a a6 a4 be
       0.15731835 -0.24586588 -0.0056211515 -0.32158118
000020 88 07 3e be 55 7b 0d 3e 5e 86 64 be 0d 82 14 3e
       -0.1855756 0.13816579 -0.22316882 0.14502735
000030 f1 8c 16 be ff be 65 bd f4 5b be bd d2 43 b1 bc
       -0.14702202 -0.05609035 -0.092948824 -0.021638785
000040 3d c2 09 be cf 01 30 3e 7c 5c d1 bc c4 4c a1 be
       -0.13453002 0.1718819 -0.025556795 -0.3150388
000050 d1 54 7e 3e 3a 1d b2 3d 20 52 ad be 2c c1 90 bc
       0.24837042 0.08696981 -0.3385172 -0.017670237
000060 70 e4 14 3e b7 5b b3 bd 48 d5 07 be da 91 6f 3d
       0.14540267 -0.087577276 -0.13264954 0.058488704
000070 f9 ba a4 bd e6 a4 a9 bd 25 92 f2 be 8a cc ae 3d
       -0.08043475 -0.08283405 -0.47377124 0.085351065
000080 93 39 95 be d5 35 55 3c 1b 25 fc be f3 64 a6 be
       -0.29145488 0.013013323 -0.4924706 -0.32498893
000090 4e 9c a1 bb c1 20 de bd aa 8b 81 3e 70 ff c8 bb
       -0.004931963 -0.10846091 0.25301868 -0.006133966
0000a0 f0 a6 86 3c 82 d4 eb bd 63 36 0a bc f1 dd 5c 3d
       0.016437024 -0.11515142 -0.008435818 0.053922597
0000b0 49 75 1e bd a8 ee 03 3d 26 86 b9 3c b8 08 8c bc
       -0.03868607 0.032210022 0.022646975 -0.017094001
0000c0 84 1b 48 3d fc 6d 3b bd 95 90 2a 3e 4b 52 73 be
       0.048854366 -0.045759186 0.16656716 -0.23761861
0000d0 08 01 ae be a4 05 0d bd 7c 78 d7 be ab ca 4a be
       -0.33985162 -0.034429207 -0.4208411 -0.19803874
0000e0 dd e2 69 bd ad 1b 83 be e9 d8 80 bd 78 13 99 bd
       -0.05710112 -0.25607052 -0.06291372 -0.074744165
0000f0 4f 11 41 bd 8a 61 a1 3b ee c1 78 3d 0f 6c 61 be
       -0.047135647 0.0049249576 0.06073182 -0.22013877

actor.4.weight f4 [6, 64]
000000 33 26 27 bd 23 de 8f 3d 02 08 04 3d 29 5c 1c bd
       -0.040807914 0.07024791 0.0322342 -0.03817383
000010 22 44 cf bc c5 7c e1 3d 4b 57 8b bd 31 58 11 3c
       -0.025301043 0.11010126 -0.06803759 0.008871124
000020 cf de ed 3d 40 58 eb 3d bc ad d6 bd 0e 2c 1d 3e
       0.11614763 0.11491442 -0.10482356 0.15348837
000030 c2 9f 88 be e7 bb ec bd 86 17 20 3e 52 6f ac 3d
       -0.26684386 -0.11559277 0.15633973 0.0841967
000040 13 1b 88 bd 16 11 76 3d 08 b4 92 bd 5f 35 e8 3d
       -0.06645789 0.06007489 -0.071632445 0.11338305
000050 92 86 ab bd 1a a7 b6 ba 05 4a 8e 3d 6b 5e 33 3c
       -0.083752766 -0.0013935298 0.06947712 0.010947804
000060 f3 e9 98 bd 3f 6c 2c 3e fe 01 0e 3e 99 0b 67 bd
       -0.07466497 0.16838168 0.13867947 -0.056407545
000070 a1 9e 0a be 3a 77 2e bd 48 4b ad 3d 02 68 89 3d
       -0.13537075 -0.042594172 0.084616244 0.06709291
000080 35 cf 93 bc bf 2b 05 bd 13 cd ec 3d 44 3c 86 be
       -0.01804314 -0.032512423 0.11562552 -0.26217854
000090 77 de a1 be a4 04 f8 3d 63 f7 95 bd 1f 93 51 bc
       -0.3161504 0.1211026 -0.07322576 -0.012791424
0000a0 bb b8 e9 bd 8a 7e ca bd c3 05 30 3e f1 0b aa 3d
       -0.11412188 -0.09887417 0.17189698 0.08303059
0000b0 06 60 74 3e b5 09 45 3e c2 a7 ac 39 47 1a ae b8
       0.23864755 0.19241984 0.00032931386 -8.301861e-05
0000c0 df 42 bc bd 45 2a fe bc 29 64 a8 3d e0 ae 30 bd
       -0.09192442 -0.031026015 0.08222229 -0.043135524
0000d0 4a ee b8 bd f3 c8 be 3d ee fc 17 bd fb ad 9f bd
       -0.09029825 0.09315672 -0.037106447 -0.07796856
0000e0 d1 83 09 bd a6 78 2d bd 38 6f 74 bd e7 7d d6 bd
       -0.033572976 -0.042351387 -0.05967638 -0.10473233
0000f0 b1 10 8d bd 1c 96 fa bd fd d9 9c 3c 8c e3 14 3e
       -0.06887949 -0.12235662 0.019146914 0.14539927
000100 8f c1 49 bd 8b 54 09 be ea 3d 5f bd 7c 4f bc 3e
       -0.049256857 -0.13411157 -0.054502405 0.36779392
000110 65 2f 3d 3d b6 49 12 3e f2 ed 78 be a7 e2 b4 3d
       0.046187777 0.14285931 -0.24309519 0.08832293
000120 4e f2 49 3c 5c 9e e5 3c 3e 27 e5 bd 7b 5f 4b be
       0.012325836 0.028029613 -0.111891255 -0.19860642
000130 66 e3 5e bd 29 f9 81 bd 92 d8 6c be ac a5 2d 3d
       -0.054416083 -0.06346352 -0.2312949 0.042394325
000140 29 0e 8f bd 0e 0b 2b be de f8 b7 bc 32 77 41 3c
       -0.06985123 -0.16703436 -0.022457536 0.0118082035
000150 8d 1e 21 bd 43 af 1c 3b 9d e7 3a bd e4 09 d3 3d
       -0.039335776 0.0023908175 -0.04563104 0.10304621
000160 65 49 6d bd 67 b1 6d be 8a f4 da bc c3 8a 56 be
       -0.057931323 -0.23212205 -0.026727933 -0.20951371
000170 4a 4f 08 be 4e dc c7 bd 95 f4 a2 3d 88 e4 72 3d
       -0.13311496 -0.09758817 0.079568066 0.059299976
000180 4b 1a a7 bd cd a8 8d bd 2b d3 7b 3d 00 b4 35 be
       -0.08159312 -0.06916962 0.061480682 -0.17744446
000190 af ef d5 bd 50 c4 de bd 75 ba a7 3d df c5 96 bc
       -0.10446107 -0.108772874 0.08189861 -0.0184049
0001a0 73 fe 05 be f7 15 c6 bd 7c 2d da 3d 44 cb 36 3e
       -0.13085346 -0.09672158 0.10653207 0.17850977
0001b0 0f 82 5e bc c1 34 a9 bd b9 a4 4f be 19 16 dd bd
       -0.013580813 -0.08262015 -0.2027768 -0.107952304
0001c0 3b c6 86 3d df d3 55 3d 43 42 08 bd 2d e4 14 be
       0.06580778 0.05220401 -0.033266317 -0.14540167
0001d0 58 3d 27 ba 8f 9f 13 be bc 30 84 bd 20 0d 1e bd
       -0.00063796854 -0.14416336 -0.06454608 -0.038586736
0001e0 26 da 72 bd fc 98 2f be 8b 4a 7f 3e 55 14 40 be
       -0.059290074 -0.17148203 0.2493078 -0.18757756
0001f0 0b 35 1e be dc ab b0 bd fb e6 28 be 0d 29 37 3e
       -0.15449922 -0.086265296 -0.16494362 0.17886753
000200 e9 b1 14 bd 6b 88 84 3c b1 a1 c6 3c c3 d3 86 bd
       -0.03630248 0.01617833 0.024247022 -0.06583359
000210 99 6c da 3d 36 a3 91 bd ad 56 08 3e c3 a8 c2 bd
       0.106652446 -0.07111208 0.13314314 -0.09504845
000220 60 44 d2 3d bd 11 e8 3d 0e 7c 82 3d ec ff 90 bd
       0.10266948 0.11331508 0.06371318 -0.07080063
000230 5a c6 27 3d 49 02 02 be cb 61 8c be 2c 3b 06 3d
       0.040960647 -0.12696184 -0.2741836 0.032771274
000240 4c de 80 be c4 96 28 3d 9a 4e 0a be 58 ef a6 bd
       -0.251696 0.041159406 -0.13506547 -0.0815112
000250 3e 83 e2 3d ff 85 fe bd 08 40 06 3e 5a 60 e4 bd
       0.11060189 -0.124279015 0.13110363 -0.1115119
000260 52 af 0a 3c 23 bc 85 bd 7c d1 dd bd 3f 11 96 3d
       0.008464651 -0.06530025 -0.108309716 0.07327508
000270 79 00 51 be d2 0e 9c bd bf e2 7a be c7 55 1c 3d
       -0.20410337 -0.07620014 -0.2450056 0.03816774
000280 ba 2c b2 bd b4 ee 00 3d 3c 7c ba bd 8d f4 8e 3d
       -0.08699937 0.031477645 -0.09105727 0.06980238
000290 c6 8c a9 3e 58 37 0a 3e 18 f4 0d 3d c9 e0 6c bc
       0.33115214 0.13497674 0.034656614 -0.01445789
0002a0 8e fc ee 3c 3e c7 21 bd ef c4 87 3d f4 d7 0b 3e
       0.029173162 -0.039496653 0.06629359 0.13656598
0002b0 80 cd 69 3e 57 a1 13 3c f7 98 95 3d c5 63 d1 bc
       0.22832298 0.009010634 0.07304566 -0.02556027
0002c0 9f d3 1e 3e f6 62 0b 3e b6 8b 69 3d 6e e3 73 bd
       0.15510415 0.1361197 0.057018004 -0.059543066
0002d0 d7 04 07 be 84 65 87 3d b4 49 2e 3d b3 ee 8b bd
       -0.1318544 0.066111594 0.042550758 -0.06832638
0002e0 43 ac 40 bd b1 f0 f8 bd 37 9a f8 bd df 8b a8 bd
       -0.04703928 -0.12155283 -0.12138789 -0.08229803
0002f0 a1 fe fa bd 8e a8 bd bd b6 e6 94 bd 26 a9 1c 3e
       -0.12255598 -0.09260665 -0.07270567 0.152989
000300 34 2b d5 bd 07 28 03 3d 42 3f a8 be 44 6b 1a 3c
       -0.10408631 0.032020595 -0.32860762 0.009424988
000310 55 f4 2a 3e 0e 4a 36 be 89 b8 90 bd 32 f2 ae be
       0.16694768 -0.17801687 -0.07066447 -0.34169155
000320 b5 ce bc bc 9e 91 ac 3d b1 e7 74 bd c2 96 c4 bb
       -0.023047784 0.08426212 -0.05979127 -0.005999417
000330 49 16 b0 3c 55 55 eb bd 6a f1 25 3d 25 d6 0f 3e
       0.021495001 -0.11490885 0.040513434 0.14046533
000340 ce df 05 be 7e 30 b0 bd 65 e2 7f 3c 71 af a4 be
       -0.13073656 -0.08602999 0.0156179415 -0.321651
000350 fb 41 02 3e fd fe 96 3d a8 35 2c be f8 b2 d1 3d
       0.12720482 0.07372854 -0.16817343 0.10239214
000360 7e 2f 6a 3d e3 12 97 bd aa e5 9b 3b 25 29 13 bd
       0.0571742 -0.07376649 0.0047576027 -0.03592791
000370 f3 6e b2 bd 21 f6 29 bb ea 8f b8 be 25 99 22 3d
       -0.08712568 -0.0025934058 -0.36047298 0.03969683
000380 c8 ed 4a be c6 fd 9b 3d bf 3e 8e be 1a d6 30 bd
       -0.19817269 0.07616763 -0.27782246 -0.043172933
000390 8c 2f 04 b9 e7 fc 35 bc 1b 38 42 3e ae b7 02 be
       -0.00012606214 -0.01110766 0.18966715 -0.1276538
0003a0 89 83 78 3e 7e a2 81 bd 50 9c e3 3d fd 97 6d 3d
       0.24268927 -0.06329821 0.111137986 0.058006275
0003b0 bd 4d 60 bc 21 6d 0c be 0f 52 c9 bd f2 35 bd bc
       -0.013690409 -0.13713504 -0.098301046 -0.023097012
0003c0 04 0c 9b 3d 3f 50 82 3d 56 00 89 bd 5c 84 9d bd
       0.07570651 0.06362962 -0.06689517 -0.07691261
0003d0 98 bf 7b be 45 da ad 3c 25 07 66 be ae 76 fc bd
       -0.24584806 0.021222243 -0.22463663 -0.12327324
0003e0 64 82 d6 bd a4 ad 15 be ca 7b d2 3d 39 dc db 3d
       -0.10474089 -0.1461702 0.10277517 0.107353635
0003f0 53 a8 51 3d 76 f9 0e bd d8 31 ab 3d df 15 94 bd
       0.051185917 -0.034905873 0.08359116 -0.07230734

actor.4.bias f4 [6]
000000 a6 70 7a be ca 95 5b 3b 6a 09 ee 3d 1e c9 95 3e
       -0.24457034 0.003350603 0.11622889 0.29255003
000010 08 1e b7 3d 2d cb 83 3e
       0.08941275 0.25740948

critic.0.weight f4 [64, 25]
000000 4d 7b 39 3e 65 d4 53 3d bd 99 9b 3d ae b8 02 be
       0.18113442 0.051716227 0.075976826 -0.12765762
000010 17 f6 ae 3d 33 7f c4 bd 3a 0b 71 3c a3 a1 6a bd
       0.08543032 -0.09594574 0.014712149 -0.057283055
000020 ed 94 18 3d 54 a5 ca bc f3 50 fd 3c 11 c5 2a 3c
       0.0372514 -0.024737038 0.030922389 0.010422961
000030 b1 d7 f3 bd c5 6b 4b 3e 85 f8 4c be 1e 18 fe bd
       -0.11906374 0.1986533 -0.20016678 -0.12406944
000040 90 3f 52 3f e3 96 ec bb 5a 7f 3c bf 9e f4 42 3d
       0.8212824 -0.0072201355 -0.73631823 0.047596566
000050 21 14 6a bd a2 2d 0f be 84 d6 8d 3d fa 62 85 bd
       -0.057148103 -0.13982251 0.06925681 -0.06513019
000060 c5 78 78 3d 15 e7 95 3e 06 11 32 be 7f af 5f be
       0.06066205 0.29277864 -0.17389306 -0.2184429
000070 09 7f 4c be 94 ee d0 bd f0 46 f2 3c 2d c7 db 3d
       -0.19970335 -0.10201755 0.029574841 0.10731349
000080 23 3b 81 3e 6d 67 1b be 26 0a a8 bd 4e 34 ce 3c
       0.2524043 -0.15176173 -0.08205061 0.025171425
000090 d8 ef b9 3d 18 53 7b be dc ff d6 3e 93 b3 26 bd
       0.0907895 -0.24543417 0.4199208 -0.0406986
0000a0 2d ea 9d 3c 2e 22 2f 3e 46 d8 01 bc c4 21 a5 be
       0.019276703 0.17102882 -0.007925099 -0.32252324
0000b0 ab 59 0c be a4 10 28 be 2e 7f e9 3d a8 f7 7f bd
       -0.1370608 -0.16412598 0.11401211 -0.062492043
0000c0 f2 00 e7 bd df b6 ee 3d e1 34 25 be 78 17 66 3b
       -0.11279477 0.11655974 -0.16133453 0.0035109203
0000d0 b5 f1 c1 b9 b9 67 27 3d 43 e1 9f 3d a7 5c 24 3e
       -0.00036991914 0.040870402 0.07806637 0.16050969
0000e0 b2 0e a7 3c 44 5f 6c 3d 1c 5e 50 bd 48 7b ad bc
       0.02039275 0.05770804 -0.050871 -0.02117695
0000f0 83 c3 a9 bd 64 4e d0 3b 94 8a 31 3e e6 2e 2b bf
       -0.08289244 0.006357001 0.1733802 -0.66868436
000100 36 4f 48 be 16 8e 43 3e d8 6a 9c be d4 6d fe bd
       -0.19561467 0.1909717 -0.30550265 -0.12423292
000110 7d e1 73 3d a4 c8 9b bd 3a 85 10 bd ef 94 cc 3d
       0.059541214 -0.076066285 -0.035283305 0.09989344
000120 49 2c 6b bd 11 e0 25 3d f6 4d 35 bd 79 b1 7f be
       -0.05741528 0.04049689 -0.044263802 -0.24970044
000130 0a 3e ce 3a 5a c8 24 3c fd c0 ff 3d 27 69 5b be
       0.0015735042 0.010057533 0.124879815 -0.21426831
000140 33 b6 03 be e3 bc ac 3d 63 24 8e be e4 b0 fc 3d
       -0.12862472 0.08434465 -0.27762136 0.12338427
000150 43 05 af bd df 92 03 3d 87 34 9c 3d 19 e8 26 3e
       -0.085459255 0.03212249 0.07627206 0.16299476
000160 17 a8 d2 be 7c a1 55 3e 14 aa 3e be 3c d7 6d 3d
       -0.41143867 0.20862383 -0.18619567 0.05806659
000170 bd fa 27 3e 7a 3a e8 3d e3 66 e1 3c 7b 24 30 3e
       0.16404243 0.113392785 0.02751488 0.17201416
000180 cd f1 4c 3d 0c 24 dc 3d 1b d3 bb bd 7d 94 13 be
       0.050035287 0.10749063 -0.091711245 -0.14412113
000190 dd 69 30 3e 23 cf ac bd 8d 4a 48 3e b6 f7 5f be
       0.17227884 -0.08437946 0.19559689 -0.21871838
0001a0 85 f6 de bd 12 a2 4a be 80 3e a7 3d 5c ba 3f 3d
       -0.108868636 -0.19788387 0.08166218 0.046808586
0001b0 08 ab 68 bc fc c4 56 bd 04 d4 18 3c 19 7f 92 bd
       -0.014200933 -0.052433953 0.009327892 -0.07153148
0001c0 0c 2f 81 be 9a 0a 82 3f 75 e2 c0 3e fc ff 9b 3d
       -0.25231206 1.0159485 0.37672773 0.076171845
0001d0 1a 91 1b 3e 89 7e 6f 3d 69 d1 a7 bd 46 a4 e3 bd
       0.1519207 0.058470283 -0.08194239 -0.11115317
0001e0 aa cb 17 3e 32 ed 1d 3d 39 51 fd 3d dc df 9e 3b
       0.14823785 0.038556285 0.123690076 0.0048484635
0001f0 79 cc 91 bc 2d db a2 be 88 e8 be bd d8 57 b6 3d
       -0.017797695 -0.31807843 -0.093216956 0.089034736
000200 53 73 d3 bd 84 7c 05 bb da b1 70 3e 5c ba 73 bd
       -0.10324731 -0.0020368407 0.23505345 -0.059503898
000210 a2 71 98 3d 6f 54 7d bc e4 8a 46 bd 3c f1 94 bd
       0.07443549 -0.015462025 -0.0484723 -0.07272574
000220 da 7c 66 3d 7b 99 22 be c3 b8 72 be 64 59 50 be
       0.05627141 -0.1587886 -0.23703294 -0.203466
000230 b5 de 1a be fc fc e9 be 28 51 83 bc 6a 05 b5 3e
       -0.15124018 -0.45700824 -0.01602991 0.35355693
000240 ad 5d e0 bc be 14 90 3d 96 6a aa 3d 43 9e 84 bd
       -0.027388418 0.07035206 0.08321111 -0.064754985
000250 d2 d0 3a 3d af 1b 9b bc fb c4 0e 3e 28 12 42 3e
       0.045609303 -0.018934099 0.1394233 0.18952239
000260 67 29 12 be 69 92 80 bd d3 5f e9 3d f1 67 34 3d
       -0.14273606 -0.062779255 0.1139523 0.04404444
000270 6a f8 01 be 40 71 23 bd 9c 55 36 bc 34 6f 33 3b
       -0.12692419 -0.039902925 -0.011128809 0.0027379515
000280 d8 7c 08 3e 15 c4 e0 3d 0b f7 5a be 25 41 11 3f
       0.13328874 0.109749 -0.21383302 0.5674003
000290 d8 b1 16 3e 2a 95 db 3c 7c e4 fa 3e c4 5a f9 bd
       0.1471628 0.026804525 0.49002445 -0.12175515
0002a0 3f b1 a0 be 6a 9d 82 3c e2 e4 81 3c 90 94 89 3d
       -0.31385228 0.015944201 0.01585621 0.06717789
0002b0 24 9b 9b 3d 26 88 c9 3c b1 52 d7 bd 72 01 84 be
       0.0759795 0.024601053 -0.10513819 -0.25782353
0002c0 bf ae 29 be fa 4b 9d be b7 33 f5 3d 12 89 2b 3e
       -0.16570567 -0.30722028 0.119727544 0.16751507
0002d0 c6 b3 08 3d 7a 2c b8 bc 67 05 68 3d 13 a5 11 3d
       0.03337457 -0.022482146 0.056645777 0.035557818
0002e0 a1 fd 8b 3d 84 2d 81 3d 56 53 d1 3c 5d b0 70 3e
       0.06835485 0.063075095 0.025552433 0.23504777
0002f0 6b 91 69 3f 13 75 df be f3 85 32 3e 9d 7d 18 3e
       0.91237515 -0.43644008 0.1743391 0.14891668
000300 7a 16 15 be d3 70 43 be 9d ab 22 be 2f ff 14 bd
       -0.14559355 -0.19086008 -0.15885778 -0.036376175
000310 9c 74 40 3d bd 9a 90 3d ab ec 84 bd f4 5b c1 bd
       0.046986207 0.07060764 -0.06490453 -0.09441367
000320 fc fb 4a 3e ca 9a 64 be 8f d6 23 3d 15 2b d0 bd
       0.19822687 -0.22324672 0.03999954 -0.10164467
000330 86 79 a0 3d 84 c0 87 bd c7 1c ca 3d 16 8b a6 bd
       0.07835679 -0.06628516 0.0986877 -0.08131997
000340 00 83 cf 3c ea 85 1a be 04 c4 81 3d 21 77 69 bc
       0.02533102 -0.15090147 0.06336215 -0.014249594
000350 52 d6 bd 3d 69 03 50 be 3f 44 ab be d0 ee 11 be
       0.09269394 -0.20313801 -0.33450505 -0.14251256
000360 ca 7c e6 3d 8a 2c ef 3d 78 64 55 3d 9b fe 14 bd
       0.112542704 0.11678417 0.052097768 -0.036375623
000370 18 05 a7 3d e7 7c 0a be 79 13 22 3e cc d0 3e be
       0.081552684 -0.13524209 0.1582774 -0.18634337
000380 eb 51 90 3d 7a 9c 5d be a9 2c 25 be 02 09 18 3d
       0.070468746 -0.21641722 -0.16130318 0.037117966
000390 86 26 e8 bd 0e 1d 18 3d 6e 0d ec bd b2 04 33 bb
       -0.11335473 0.037137084 -0.11525999 -0.002731603
0003a0 3b 2e f3 3c 0b 9c cb bb e0 2f da bd 85 1c 37 3c
       0.02968513 -0.00621367 -0.10653663 0.011176233
0003b0 66 8d 5a 3c 59 20 93 3e 53 bf 92 40 ac 95 47 bf
       0.013339376 0.28735617 4.585855 -0.77962756
0003c0 7b 14 68 be 6d 10 2f 3f 1d 99 72 be e8 f1 0c bf
       -0.22664063 0.6838444 -0.2369122 -0.5505662
0003d0 f0 6c 69 bd d0 89 cd 3c d0 40 1f bb e3 af 35 3d
       -0.056988657 0.025090128 -0.0024300106 0.04435719
0003e0 0c 21 8e bd 72 e7 0d 3d b8 80 17 3e a0 57 f4 bd
       -0.06939897 0.03464455 0.14795196 -0.11930776
0003f0 31 a2 4c be 69 b2 a2 bd 7a 04 e5 3d 56 c8 25 3c
       -0.19983746 -0.07944185 0.111824945 0.010118565

critic.0.bias f4 [64]
000000 78 f5 45 3e 57 3e 5e 3e 40 95 34 be 19 2a 26 bc
       0.1933192 0.21703468 -0.1763506 -0.010141873
000010 49 de 07 3d 65 ca 70 be af d3 24 3e 11 c6 0d be
       0.033170972 -0.23514707 0.16096376 -0.13845088
000020 05 f8 6c bc a3 8e c9 3d 59 52 14 3e 8c eb b5 3d
       -0.014463429 0.09841659 0.14484538 0.088828176
000030 aa 3c 48 be 20 bc 2d bd 1b ad 63 3d 76 5f 4c 3c
       -0.19554392 -0.042415738 0.055585008 0.012473932
000040 97 82 4e be be d2 0a bd d3 7f 69 3d cc f2 9f 3d
       -0.20167004 -0.033892386 0.05700667 0.07809982
000050 6b aa 32 3e da 6c 7b 3d a9 e3 9d 3d 3e 49 fa 3d
       0.17447822 0.061383106 0.07709438 0.12221001
000060 2e 34 bc bc 2e 10 ea bc 70 ba 62 bd 8f 70 1e bd
       -0.0229741 -0.028572168 -0.055353582 -0.038681563
000070 f1 73 3d 3d cd 86 14 3e 06 56 eb bc 7b 1d d5 bd
       0.04625315 0.14504547 -0.028727543 -0.104060136
000080 f0 14 47 bd 9f 78 a6 bd 47 6c 72 3e b9 67 a8 bd
       -0.048603952 -0.081284754 0.23674117 -0.082229085
000090 ae 34 46 3c 09 10 a9 bd b1 1c 42 bc c1 51 e4 3d
       0.012097521 -0.082550116 -0.011847661 0.11148406
0000a0 46 09 53 be 07 55 19 be 7a 64 72 bd e4 e0 0a 3e
       -0.20609006 -0.14973842 -0.059177853 0.13562351
0000b0 e4 e6 4f bc 8b a9 5c bd 0f 27 d6 bd 7c 56 ff 3d
       -0.012689326 -0.053872626 -0.104566686 0.124676675
0000c0 d1 8e 58 bc 04 7d 13 3e 91 e0 09 3a 4c 12 1d bc
       -0.013217644 0.14403158 0.0005259598 -0.009586882
0000d0 c0 13 d7 bd da b8 ee bd 2d cf 24 3e 4a d5 d3 3c
       -0.10501814 -0.116563514 0.16094656 0.02585854
0000e0 c8 9c e3 bd 91 76 db 3d dd a2 fc bd c7 b0 e5 3d
       -0.11113888 0.10715974 -0.12335751 0.11215358
0000f0 49 de 1f be 8e 06 84 bc cc cc 48 3c a3 70 13 3d
       -0.15612139 -0.016116407 0.012255859 0.03599609

critic.2.weight f4 [64, 64]
000000 64 10 b9 bd c1 aa 08 bd 9d 7d 16 be fa d4 6f 3d
       -0.090363294 -0.03336597 -0.14696355 0.05855272
000010 9c f2 28 3d b5 0d 11 be 27 1e 8e 3d 86 5f 8f 3d
       0.041246995 -0.14165385 0.06939345 0.070006415
000020 c3 5b 7b 3c 7c c3 8b bd 07 7b b6 3d 4a d8 dd 3c
       0.015341702 -0.06824395 0.08910184 0.027080674
000030 db 2b 04 bd c4 89 e5 3d b9 7c 2a bd d4 ba b5 bd
       -0.032268386 0.11207917 -0.04162285 -0.08873525
000040 ea c9 3a bd 62 c3 ec bc 15 4d e0 bb a8 c7 26 bd
       -0.045602717 -0.02890176 -0.0068451264 -0.04071775
000050 8d da ff 3d ed 97 0e 3e 0c 5f ca 3d 5f 98 75 3c
       0.12492857 0.13925143 0.0988141 0.014989941
000060 81 4c 9a bc 36 a9 de 3c b1 bf 65 3d 45 14 81 bb
       -0.018835308 0.027180295 0.056091014 -0.003939184
000070 63 5f a0 bd c2 eb 6e 3d c5 0f 4b 3d e4 c5 a0 bd
       -0.078306936 0.058330305 0.049575586 -0.07850245
000080 f6 0a e4 3d 34 14 bb 3d a7 9b 99 bc 0e cf 8b 3d
       0.11134903 0.09134713 -0.018750979 0.06826602
000090 f0 f5 fd bd 93 b5 da 3c b7 b1 a9 bc f8 cd 9b 3d
       -0.124004245 0.02669791 -0.020714624 0.07607645
0000a0 ad f8 20 be 6b 10 9a bc dd 2d 26 bd 84 9e ef bd
       -0.15719862 -0.018806657 -0.040571082 -0.11700156
0000b0 43 96 a4 3b 21 cd 1d be a5 01 97 3c 75 0d c8 3d
       0.0050227954 -0.15410282 0.018433401 0.09768192
0000c0 38 17 16 bc 05 b2 bc 3d 37 a7 d9 3d 0d cc c3 bc
       -0.009160809 0.09213642 0.10627597 -0.02390101
0000d0 e0 81 9a 3d 62 1b 00 3e e2 ac 9a bd 84 8f 98 bc
       0.07544303 0.12510446 -0.07552506 -0.018623121
0000e0 96 19 f7 3c 9e 4c 85 bd 09 9c ab 3d d0 8f 9b bd
       0.030163568 -0.06508754 0.08379371 -0.075957894
0000f0 45 ce 2e 3c e0 79 ca 3d 06 e2 4e 3c 16 3f 4a 3d
       0.010669296 0.09886527 0.01262713 0.04937657
000100 b2 7c f2 bb c9 54 1c 3d 96 ae 99 3d 56 80 5b 3c
       -0.0074001187 0.038166795 0.07504003 0.013397297
000110 11 2a a0 bd 5b 8f 1b 3e c1 94 19 bd 41 ff 0b bd
       -0.078205235 0.15191405 -0.03749538 -0.034178976
000120 27 5e 57 bd c9 fd b2 3d d4 90 2b 3e 94 56 ad bd
       -0.052580025 0.08739812 0.16754466 -0.08463779
000130 c0 69 c5 3d ca e1 35 bd df da 93 bc a7 8f 76 bd
       0.09639311 -0.044404782 -0.018048702 -0.06019559
000140 69 6e 10 3d 32 a7 b1 3d 67 6e ce 3d fe e6 e8 bc
       0.035261545 0.08674468 0.10079651 -0.028430458
000150 8a d7 b9 3c 6a 26 5f 3d 0c 1c 0b bd f4 96 11 3e
       0.022685785 0.054479994 -0.033962294 0.1421774
000160 e3 61 11 3e e3 7b d7 3d bf 12 00 be e4 7d d1 bc
       0.14197497 0.105216764 -0.12507151 -0.025572725
000170 27 d5 9b bd 76 f4 0f 3e dc b2 a3 bd 27 1d f8 3d
       -0.07609015 0.14058098 -0.07993099 0.12114935
000180 9b fc 5c bc be 96 fa bd 06 db 70 bb f8 29 c8 bd
       -0.01348796 -0.12235783 -0.0036751642 -0.0977363
000190 13 d0 e6 bd 65 9d ca 3c e7 38 88 bd 02 20 a7 bd
       -0.11270156 0.024733255 -0.06651478 -0.08160402
0001a0 5a 75 34 3c 68 0c 5b 3d 91 a9 75 3d 9b b5 9e 3c
       0.011014307 0.05347863 0.059976164 0.019373706
0001b0 56 5c 9f bc 84 4d 6b bc 59 e2 cb ba 69 c0 eb bd
       -0.019453209 -0.014361743 -0.0015555128 -0.11511309
0001c0 9c 99 11 be fb d2 53 bd 69 24 c2 bc 98 1d a4 3d
       -0.14218754 -0.05171488 -0.023699002 0.08013457
0001d0 9d c8 90 3d 52 f8 66 bc 60 fd 10 be a7 b3 d3 bd
       0.07069514 -0.01409729 -0.14159155 -0.10337
0001e0 cc d1 f4 3d b2 9e bc 3c 28 c6 08 3e 5f 2c bc bd
       0.11954078 0.02302489 0.1335684 -0.091881506
0001f0 28 01 0f be d7 35 a4 3d 85 7b 80 bd 53 40 7f 3d
       -0.13965285 0.08018082 -0.062735595 0.062317204
000200 76 f6 e8 3d de 10 ec bc aa 73 a3 bc 8e e5 05 3d
       0.11375134 -0.028816637 -0.019952614 0.032689624
000210 91 ed 7d bd 85 3d 47 3c 6e 93 bc bd b4 c3 b3 3d
       -0.06199414 0.0121606635 -0.092078075 0.08777562
000220 95 1e 36 bd 0b ce 44 3d ec b0 83 bc 4f 77 41 3c
       -0.04446276 0.04804806 -0.016075574 0.011808231
000230 95 3f db bd d4 d4 62 bd e0 7c e3 3c 91 56 5d bd
       -0.10705487 -0.05537875 0.027769506 -0.054037634
000240 ad d5 de 3d 78 8c be 3c 93 b9 58 3d e7 a1 d0 bd
       0.10880599 0.02326034 0.052911352 -0.101871304
000250 50 be c7 bc ee 9c f7 3d 4f c4 15 3c da 74 08 3d
       -0.02438274 0.12090479 0.009141042 0.033314563
000260 4e 25 cf 3d 79 77 63 3d d4 0f c6 bd b9 ce 85 bd
       0.10114537 0.05553386 -0.09670988 -0.0653357
000270 6e ed 8b bc c3 99 f8 3d 69 53 09 3d dc 5f b9 3d
       -0.017080989 0.12138703 0.03352681 0.09051487
000280 76 d5 d0 3c be ee 90 bd 4e a9 72 3d 80 ad bb bd
       0.025492411 -0.070767865 0.059243493 -0.09163952
000290 5b c5 02 3e 2d 71 01 bd ef 1d 58 3d f7 a0 3e 3d
       0.12770598 -0.031602073 0.052762922 0.046540227
0002a0 09 69 45 3c 78 51 c2 3d 1c 6d ba bc 44 e2 86 3c
       0.012048968 0.09488195 -0.022757106 0.016465314
0002b0 4e d2 6c 3d 7b 18 95 bd 7e aa 9f 3d 3d 4a ee bd
       0.05781775 -0.0728006 0.07796191 -0.116352536
0002c0 9d 2f 11 be 71 ba ce 3d 27 78 9b bd 2b 6b b9 3d
       -0.1417832 0.100941546 -0.075912766 0.09053644
0002d0 0c 1d 86 bc 92 86 7b bc 7a 70 5f 3d 28 25 d4 3d
       -0.016371273 -0.015351908 0.054550625 0.103586495
0002e0 f4 31 8a bc 08 46 9c 3d 47 84 14 3e e3 8d be bc
       -0.016869523 0.07630545 0.14503585 -0.023261016
0002f0 83 2d 7d 3d 3b 88 ff bd 9c cf 35 bd 7c 6d 0f 3e
       0.06181098 -0.12477156 -0.044387445 0.14006609
000300 26 07 95 3d eb 02 cb bb f6 1e a6 3d 36 bd 32 bd
       0.07276754 -0.006195416 0.08111374 -0.043637477
000310 39 2b d5 3d e6 e5 03 3e 66 ee a4 3c fa 84 d1 3d
       0.10408635 0.12880668 0.020133208 0.102304414
000320 dc 47 a1 bc 14 ba 85 bc 6d 41 2b be 22 d2 c9 bd
       -0.019687586 -0.01632408 -0.16724177 -0.09854533
000330 62 11 ba 3d 7b ef ab bd 32 54 03 bc 46 1c 8c bd
       0.09085347 -0.08395287 -0.008015679 -0.0684133
000340 9b c3 ea 3d 53 a7 95 3b a9 86 fa bc 60 a8 8a bd
       0.1146309 0.0045670657 -0.03058179 -0.06770396
000350 5e 95 07 3c 5a 78 de bc 45 20 06 be 4c 18 f3 bd
       0.008275358 -0.027156997 -0.13098247 -0.11869869
000360 d0 4d a3 bd 13 22 d9 3d ff 24 69 3c f1 88 20 3d
       -0.07973826 0.10602202 0.014230012 0.039193098
000370 ca 5d ac 3d 0e 0b dc bd fc 77 b4 3c f2 90 8f bd
       0.08416326 -0.10744296 0.02202987 -0.07010068
000380 6a 50 44 3d 40 17 7c bc 6b 69 ba 3d 41 36 5d bc
       0.04792825 -0.015386403 0.09102138 -0.013501705
000390 79 71 ce bd 85 da 5f 3c df 43 92 bc bb 4d 08 3e
       -0.10080237 0.013662939 -0.01785463 0.13310902
0003a0 53 05 0f be 43 f6 e5 bc 52 30 af bd 92 fa f2 3d
       -0.13966875 -0.028071528 -0.08554138 0.11864199
0003b0 c9 82 80 bc 2b bd b7 bd 33 da 36 3d 31 ef 8f 3d
       -0.015687363 -0.08971628 0.044641685 0.07028044
0003c0 23 d2 b4 bd 39 49 24 3d a8 9a b2 bd db c9 ec bd
       -0.08829143 0.040108893 -0.087209046 -0.115619384
0003d0 b7 d3 ef 3d db d6 e0 3d 3e 09 9e 3d b7 93 aa bd
       0.11710303 0.109784804 0.077166066 -0.083289556
0003e0 9f d0 d5 3b 97 5b 41 bd 78 5e 97 bd e3 f0 9f bc
       0.0065251137 -0.047206488 -0.07391065 -0.019524043
0003f0 d8 70 72 bc bf df 7a bc 6e 24 2f 3a db 64 02 3d
       -0.014797412 -0.015312134 0.00066811487 0.031834465

critic.2.bias f4 [64]
000000 62 f9 9c bd 3e 4d da 3c a1 8f f4 bd dd b6 0d bd
       -0.076647535 0.02664816 -0.119414575 -0.03459822
000010 a8 eb a3 bd 0f 7e 77 bd 71 fe 90 3d 0d fe bc bd
       -0.08003932 -0.060422953 0.07079781 -0.09228144
000020 1a 82 84 bd 4a 3f 86 3d 3c e5 e3 bd cc a8 1c bd
       -0.064701274 0.0655504 -0.11127707 -0.038246915
000030 0a 9d 99 3c 33 17 32 bd 9f 39 8c 3d 0c b9 47 be
       0.01875164 -0.043479156 0.06846928 -0.19504184
000040 c7 ca 45 bd 86 9a 4e 3d 11 49 3c 3d 33 03 14 3d
       -0.048289087 0.050440334 0.04596812 0.036135864
000050 ec 58 ac bd 49 90 9a bc 82 44 22 be 95 f4 80 bd
       -0.08415398 -0.018867629 -0.15846446 -0.0629665
000060 64 5e 48 3d 8f 05 97 bd ba 0d 2d 3d ef 10 99 bd
       0.048918143 -0.07374107 0.04224942 -0.07473933
000070 5f 50 19 3e 06 21 1c 3d a7 76 6a 3b 42 c0 d5 bd
       0.14972065 0.03811743 0.0035776289 -0.10437061
000080 f2 b3 03 3e 01 66 b3 bd 85 23 7c 3d 68 dc a0 3c
       0.12861612 -0.0875969 0.06155731 0.019636348
000090 7c 7a 1e bc 67 cf ef bb 1d 33 8b 3d 23 7a fc 3d
       -0.009672757 -0.0073184255 0.067968585 0.12327983
0000a0 b5 27 fd bd 23 74 86 3d 33 59 48 bc 48 96 dc bd
       -0.12361089 0.0656512 -0.012228298 -0.107708514
0000b0 1d 08 b4 bd 34 b8 e6 bd 78 8f f7 3d b3 0d fa bd
       -0.0879061 -0.11265603 0.12087911 -0.12209644
0000c0 cd 50 d1 bc 34 00 03 be da 4a a5 3b 03 5b 16 bd
       -0.025551224 -0.12793046 0.0050443234 -0.03670789
0000d0 bf 2c 17 3d f9 41 80 bd f4 70 df bd d1 97 63 bd
       0.036907908 -0.06262583 -0.10910216 -0.055564705
0000e0 3a 69 ad bd 4b fd f6 bb a3 ec c8 bc fa 04 29 be
       -0.08467336 -0.007537519 -0.0245269 -0.16505805
0000f0 2d c7 4f 3d 16 ad 07 3d a2 8c 63 3d 92 5d ba 3c
       0.05072706 0.033124052 0.05555404 0.022749696

critic.4.weight f4 [1, 64]
000000 61 db 38 3c 94 e3 a3 3d 13 8a 37 3d 33 a4 80 bc
       0.011282773 0.080023915 0.044809412 -0.015703296
000010 27 d7 57 bd 08 18 7f bd 24 5d 8b 3d f1 42 02 bd
       -0.05269542 -0.062278777 0.068048745 -0.03180212
000020 26 25 ec bc 5f d3 eb bc 55 f4 3c 3d 10 d8 28 bc
       -0.028826308 -0.028787313 0.04613145 -0.01030542
000030 20 0f 83 bc a2 61 45 bd 24 87 d2 bd a7 53 de 3d
       -0.015998423 -0.048188813 -0.10279682 0.10855799
000040 b3 9d 2c 3d 4f e2 ba bb 93 8d a0 3d d2 1a d9 bc
       0.04214258 -0.0057032476 0.07839503 -0.026502047
000050 13 81 38 bd a2 5d 0f bd e3 42 6b bc 4b 8b bc bc
       -0.04504497 -0.035001405 -0.014359209 -0.023015639
000060 50 1c 07 bd 5a 4b 31 bd da 96 cf 3c 18 c6 44 3c
       -0.032985985 -0.04328475 0.025340486 0.01201012
000070 da 76 86 bd 03 ed 39 bd 1f 44 99 3c 8a 98 a8 bd
       -0.06565638 -0.045392048 0.01870924 -0.082322195
000080 9a 3d 41 bd 7c 0d ec 3b e7 f0 d9 3c d9 17 a2 bd
       -0.04717789 0.007203756 0.026604129 -0.07914705
000090 c3 9b e2 bc 52 fa 47 3d 73 09 37 3d 8a b5 d2 bc
       -0.027662164 0.04882271 0.044686746 -0.02572133
0000a0 fc 70 a0 3c 5c 95 98 bd f9 7e 39 bd 84 43 c9 bd
       0.019585125 -0.07450363 -0.045287106 -0.09827331
0000b0 e7 82 40 bd 96 ca 5c bd 7f 56 cd bc b0 52 b6 bc
       -0.04699984 -0.05390414 -0.025065659 -0.022256225
0000c0 91 f3 79 3d 62 ee f2 3c 97 77 36 bc de 2a ec bc
       0.0610233 0.029654685 -0.011136911 -0.028829034
0000d0 90 cf c6 bc c5 6f 10 bd d8 34 8b bd ad 77 7b 3d
       -0.024268895 -0.03526284 -0.067971885 0.06139343
0000e0 55 1f 7b bd fd 61 7a 3d 29 d1 5f 3d c3 0c 81 bb
       -0.061309177 0.061128605 0.05464283 -0.003938289
0000f0 75 f6 5b 3d 93 29 cb 3c a6 f7 ff 3c 31 e0 ab bd
       0.053701837 0.024800098 0.031246018 -0.083923705

exp_avg f4 [6]
000000 1b e2 f9 b8 9e 74 a7 ba 81 27 59 3c f0 26 54 3b
       -0.00011915361 -0.0012775843 0.013254047 0.0032371841
000010 51 cb 6b 3a df 0f 3a bb
       0.0008994835 -0.0028390808

exp_avg_sq f4 [6]
000000 fc c1 ff 35 99 c1 10 38 f4 29 c9 3a b5 3d b6 37
       1.9055437e-06 3.4512577e-05 0.0015347586 2.1724825e-05
000010 d3 52 20 37 dd 54 03 38
       9.556027e-06 3.131187e-05
