04-goal-pose-l6/logs/rsl_rl/joint_position/2026-02-18_14-34-58/model_3000.pt (torch, 161397 bytes, 36 tensors)

std f4 [6]
000000 10 84 c0 3d d4 1f d2 3c be 2a 30 3b 76 14 1e 3d
       0.09400189 0.025649942 0.0026880945 0.03859373
000010 a1 3a 14 3d 22 c9 6e 3c
       0.036188725 0.014574321

actor.0.weight f4 [64, 25]
000000 2d 73 1c bd f5 13 8c 3e 91 23 b2 be cd ab 7e be
       -0.038195778 0.27358976 -0.3479276 -0.24870224
000010 1f 04 ac be 5d 35 4d be 96 fd f4 3c ec 14 f0 bd
       -0.33596894 -0.20039888 0.029906075 -0.117227405
000020 3d 1c 24 3e 36 2e 02 be 59 ea 85 3d 68 75 e0 3c
       0.16026397 -0.1271294 0.06538839 0.027399734
000030 9a 51 43 be e2 70 a7 be 0f a8 d4 be 28 80 ae be
       -0.19074097 -0.3270331 -0.4153447 -0.3408215
000040 40 7b 00 bf 96 4a 0f be 4c e0 0c 3f 47 46 38 bb
       -0.50188065 -0.13993296 0.5502975 -0.002811806
000050 02 dc a7 3e 22 a5 f5 be 2f 2a ad 3d bb 5a d5 bd
       0.3278504 -0.4797755 0.084553115 -0.10417696
000060 28 65 e8 bd 40 40 4d 3e 5f e4 0d 3e cb 0c bb be
       -0.11347419 0.2004404 0.13856648 -0.36533198
000070 30 19 d6 be 43 14 a6 bd 2f fa d9 be d2 50 12 be
       -0.41816092 -0.08109333 -0.42573687 -0.14288643
000080 9d 7c bd 3d 93 ab 81 3d ac 8b ea 3c 8e 7f 9d bd
       0.09252284 0.06331553 0.028631054 -0.07690345
000090 4e ff 50 bd 39 ce 8c be 96 5b 02 bd fd 12 d3 be
       -0.051024728 -0.27501085 -0.031825624 -0.41225424
0000a0 95 6d 69 be d9 03 84 3f 47 dd 97 be 44 6d 7d bf
       -0.22795708 1.0313674 -0.2966101 -0.9899485
0000b0 ec 2c b9 3d 09 f5 16 3e 4d 22 7e be c5 62 5b be
       0.09041771 0.14741911 -0.24817772 -0.21424396
0000c0 ef ba 5c 3e e3 5c 78 be b7 04 aa be f5 1f 5f 3e
       0.21555685 -0.24254183 -0.33206722 0.21789534
0000d0 2e 15 d3 bd ec 4d 1e 3e b8 f6 7d be 12 8c 03 3e
       -0.10306774 0.15459412 -0.24801147 0.12846401
0000e0 1c cd 80 be 14 65 64 3e 70 18 05 3e 31 0b e9 3c
       -0.25156486 0.22304183 0.12997603 0.02844772
0000f0 93 43 05 3d a9 6a ee 3d 79 02 da be ab b9 e8 bd
       0.032535147 0.116414376 -0.4258001 -0.11363538
000100 88 c1 89 bd 13 4b 6a be b8 7a 10 3f 02 c5 9b be
       -0.06726366 -0.22880201 0.56437254 -0.30423743
000110 e9 fb 06 bf 03 1d 3a be 56 aa 90 be 1f c4 25 ba
       -0.52728134 -0.1817513 -0.28254956 -0.0006323475
000120 38 ad 0f 3e b9 c0 cd 3d f1 b6 16 bc b3 97 2e 3e
       0.14030921 0.100465246 -0.00919889 0.17050056
000130 02 67 83 3e 59 f0 ae bd 2a 2d 2d bf 76 e9 0b 3e
       0.25664526 -0.085419364 -0.6764704 0.13663277
000140 d5 03 18 bf 95 08 d2 3d b0 f8 ae 3d 10 64 8c bd
       -0.5938085 0.10255543 0.08543527 -0.06855023
000150 b7 46 1b be 59 d9 9a 3d a8 93 d6 3a b3 5c bb be
       -0.15163694 0.07560987 0.0016370909 -0.3659416
000160 12 0d 5c be df d4 ab be 54 eb b1 be b2 78 05 3f
       -0.21489361 -0.33560845 -0.34749854 0.5213729
000170 6c d8 97 be 1e a1 1e bf 24 26 11 3e de dc e7 3d
       -0.29657304 -0.61964595 0.14174706 0.11321424
000180 ef 68 45 be 1c 62 30 3e fd 28 f0 bd 43 60 01 bd
       -0.1927831 0.17224926 -0.11726568 -0.031585943
000190 e7 81 5e be 64 07 fb be 12 99 9a 3e d8 f0 f1 3d
       -0.21729241 -0.49029076 0.30194908 0.118135154
0001a0 e6 0f 97 be 1f f8 fa 3d a8 36 fa 3d d3 de 38 3d
       -0.29504317 0.122543566 0.12217456 0.045134377
0001b0 f1 92 db bb da 6c 24 bd 8b c5 8f bc 3f 98 83 3d
       -0.0067008664 -0.04014287 -0.01755025 0.06425523
0001c0 6e 57 90 38 8e a5 71 3e ee 4f 3f bf 11 68 cc bc
       6.88274e-05 0.2359831 -0.7473134 -0.024951966
0001d0 e6 0e bd bf ad bf ea 3d 39 5a bf 3f 59 d5 e5 bd
       -1.4770172 0.114623405 1.4949409 -0.112223335
0001e0 60 50 4a 3d cf bd ca bd d0 0a 33 3d cb 96 79 bd
       0.049393058 -0.09899484 0.043711483 -0.060934823
0001f0 8a d5 44 bd 68 2d 08 3f cc b5 02 bf e5 82 3f 3e
       -0.04805521 0.53194284 -0.5105865 0.18702276
000200 c7 cc 68 3e 53 ab 4c 3f 31 e4 03 3e 7c 2b 7b bd
       0.22734366 0.7994892 0.12880017 -0.061320767
000210 39 55 76 3d 53 0c fa bc 21 6f 5c 3e 38 14 5e be
       0.06013987 -0.030523455 0.21526767 -0.216874
000220 f7 a3 4c bb a4 a7 0f bf 6c 64 72 bf b3 0b b9 be
       -0.003122566 -0.56115174 -0.9468448 -0.36141738
000230 43 be 66 3d 5e d4 71 3f a2 e3 d2 bd 4c c7 4a bf
       0.05633379 0.9446467 -0.10297324 -0.7921035
000240 fd ab c7 3e e4 04 d5 3d ee 81 29 be 60 d5 73 3c
       0.38998404 0.104013234 -0.1655347 0.0148824155
000250 f0 f6 70 bc f3 94 91 3d ca 58 2f 3d 38 3f 01 3f
       -0.014707312 0.07108488 0.042809285 0.5048709
000260 89 9a d4 bd 81 e2 02 be ac 18 41 bf b1 41 9c be
       -0.10381038 -0.12781717 -0.7542827 -0.3051887
000270 19 66 41 be b0 ca ab be 5a 0c 04 3e a3 e9 f0 bb
       -0.18886603 -0.33553076 0.12895337 -0.0073520704
000280 d4 ab 1e 3e e6 53 9c 3d 26 da 35 be 66 c4 18 40
       0.15495235 0.0763319 -0.17758998 2.3869872
000290 db 33 58 3f 87 08 a3 bd d0 cc d6 3e 93 94 52 3d
       0.84454125 -0.07960611 0.41953135 0.051411223
0002a0 3a 19 85 be 9a 16 89 be dc 51 7f 3e 9b 59 8c bd
       -0.2599581 -0.26775056 0.2493357 -0.068530284
0002b0 2b 04 e3 3d 58 a7 98 bd 98 f4 dd 3b 1a c5 63 be
       0.11084779 -0.07453793 0.0067735426 -0.22243157
0002c0 38 f8 b4 3e 0f 0c c5 3d 34 26 bf 3d 6e 38 c7 be
       0.35345626 0.096214406 0.093334585 -0.3891024
0002d0 2c be a3 be 16 02 73 3d 9f 5d df 3d 3d 0e ab 3d
       -0.31981027 0.05932816 0.10906529 0.08352325
0002e0 df 50 97 bc 68 9e 3d bc e4 75 61 be 89 4c 85 bf
       -0.01847118 -0.0115734115 -0.22017628 -1.0413982
0002f0 b3 75 7c 3f 1f 04 32 bc 23 e2 9a 3e 07 fc a6 bc
       0.98617095 -0.01086524 0.30250654 -0.020383848
000300 f8 91 e9 3c bc 01 ac bd 20 b1 90 3d 51 13 20 3e
       0.028511986 -0.08398768 0.07065034 0.15632369
000310 ea 01 e8 3c c3 f5 b4 3d 26 2a b4 bc 8b ed 6b bd
       0.028321225 0.08835938 -0.021992754 -0.057599586
000320 42 1a 4c 3e af 7b 87 3f dd af 9a be 93 8f 57 be
       0.19931892 1.058462 -0.30212298 -0.21050863
000330 17 d5 d0 be d6 a6 75 3e ad ce c7 bd 83 05 79 3d
       -0.40787575 0.23989424 -0.09756217 0.060796272
000340 89 02 f5 bd 64 e6 89 be 3a c1 49 3d e2 c2 cd 3d
       -0.11963374 -0.26933587 0.04925654 0.100469366
000350 c3 9c 1e be 98 c4 01 c0 24 92 0c 3f 24 14 b0 3b
       -0.15489487 -2.0276241 0.5491049 0.0053734947
000360 16 d9 af bf 75 7b 40 3e e0 99 b9 3f 05 c2 f3 3d
       -1.3738124 0.18797095 1.4500084 0.11902241
000370 4a 0c af 3e ee 30 c8 bd 18 63 3d 3e 22 43 39 3d
       0.34189063 -0.097749576 0.18494833 0.04523004
000380 93 84 ab 3d 4c c5 c5 be bb 4b 8e bd 45 3c 63 3e
       0.08374896 -0.38627088 -0.06948038 0.2219096
000390 d8 80 83 be ca e6 f7 be cb 21 b1 bd 88 9a e5 bd
       -0.25684237 -0.48418266 -0.086490236 -0.11211115
0003a0 4f ea c2 3d 30 00 fb bd d2 05 67 bd 0f 1b 2e bd
       0.09517347 -0.12255895 -0.056402035 -0.042506274
0003b0 72 f2 b0 3d 3c f8 2d bf 7c c1 93 3f cc 3e 17 3f
       0.08639993 -0.679569 1.1543422 0.59080195
0003c0 5d d7 31 3e 81 bc 7e bf 7d 7f 13 3e df ad 8d 3f
       0.17367311 -0.99506384 0.14404102 1.1068686
0003d0 51 f2 cb bd 41 27 29 be 3e 70 e3 3d 96 8b c1 3d
       -0.099583276 -0.1651888 0.11105393 0.09450452
0003e0 e8 d7 87 bd 01 64 36 be b1 de 7d bf 75 18 b3 3e
       -0.06632978 -0.17811586 -0.99167925 0.34979597
0003f0 07 3c 2f bf 54 bb 9c 3e 44 f3 66 bf 11 d3 ef 3e
       -0.6845097 0.3061167 -0.90214944 0.46840718

actor.0.bias f4 [64]
000000 88 8e 8c be dc 31 e1 be 75 95 6a be b1 37 05 bf
       -0.27452493 -0.43983352 -0.22908576 -0.52038103
000010 04 a5 cb bd 9b bc 98 be 6f b6 9c bd 55 a7 fd 3d
       -0.099435836 -0.29831395 -0.07651984 0.12385432
000020 fd 09 46 bd 21 58 21 3e fc 4d 59 bd 11 c4 77 be
       -0.04834937 0.15756275 -0.053052887 -0.24195887
000030 7b d7 19 be ff 27 7b bd b0 31 f4 3c 1b ad 16 be
       -0.15023606 -0.06131744 0.02980885 -0.14714472
000040 59 f5 7b 3d 27 8a 4d 3e df 1b ca bd c8 85 92 bd
       0.06151328 0.20072232 -0.09868597 -0.07154423
000050 64 29 2d 3d 45 a8 7b bd 6c 51 9a b9 73 50 57 be
       0.0422758 -0.06143977 -0.00029433833 -0.21026783
000060 39 d9 4a 3d 44 a5 4e be 3a 6d 56 3d 01 83 80 bb
       0.049523566 -0.20180231 0.05235026 -0.003921867
000070 58 e1 34 be 31 e8 af 3e d8 cb 1d be e5 01 98 be
       -0.17664087 0.34356835 -0.15409791 -0.29688945
000080 76 db 3e bc 6e 9d 09 bd 5a ae e4 3d 63 ed 49 3e
       -0.011649003 -0.033597402 0.111660674 0.19719462
000090 83 36 07 3d 7b 86 d2 be c8 59 1d 3e f0 8c b2 be
       0.03301097 -0.41118225 0.1536628 -0.34873152
0000a0 b8 74 49 bc fd a8 8e bd 01 a4 42 be fb 0d e3 3d
       -0.012295894 -0.06965826 -0.19007875 0.11086651
0000b0 e8 4a b0 3c f1 10 6e be 5c ec ba 3d 0b a5 14 bd
       0.021520093 -0.2324865 0.09127113 -0.03629021
0000c0 de 79 18 3c a8 c6 1c 3e 43 dd ff bd 07 7e 59 be
       0.009306399 0.15310156 -0.12493374 -0.21239482
0000d0 da db 70 be ce 5a 5b be a5 41 35 3d dd 83 82 be
       -0.23521367 -0.21421358 0.044252057 -0.2549123
0000e0 2c a4 19 3c 2a 50 3c be 07 96 0d 3e 4f d6 c9 3c
       0.0093775205 -0.18389955 0.13826762 0.024638323
0000f0 ee 2b 08 3e 71 9b 12 bd a1 11 66 3e 54 1f 31 3e
       0.13298008 -0.03579277 0.22467662 0.17297107

actor.2.weight f4 [64, 64]
000000 cd c7 47 3e 94 3e 1e 3e d0 88 aa bb a7 47 16 3e
       0.19509812 0.15453559 -0.0052042976 0.1467577
000010 f9 75 be bd 3f 4f fb bc 3d 25 60 bc df 74 7b 3d
       -0.09299845 -0.030677436 -0.013680753 0.061390754
000020 77 73 cb bd 06 8d 4c be 93 c3 a3 3d f1 4f 76 3d
       -0.099341325 -0.19975671 0.07996287 0.06013483
000030 a4 81 d7 bc da 25 4a 3e 9a 32 ea bc 12 b4 03 3d
       -0.026306935 0.19741002 -0.028588582 0.03215415
000040 af c9 0c be b6 a5 29 bc d8 63 56 bd 76 db a0 bd
       -0.13748811 -0.01035445 -0.052341312 -0.07854359
000050 32 ff 39 3d e2 b2 54 bd df 58 3e be 06 af 92 bd
       0.04540939 -0.05192841 -0.18588589 -0.07162289
000060 d8 e9 04 bd 0a de 18 be a5 87 bf 3c be be 38 3e
       -0.032449573 -0.14928451 0.02338011 0.18041512
000070 b4 2b 1b 3e 47 4c 50 bd 94 4f 3e 3b 5e 5c bf 3b
       0.1515339 -0.050853994 0.0029039131 0.0058398684
000080 e5 94 f0 3d b4 b9 2c 3e 87 5d fa bd a8 fb e8 3d
       0.117471494 0.16867715 -0.1222487 0.113761246
000090 21 9a cd 3d b9 dc ed 3d f0 87 37 3e 98 5b dd 3d
       0.100391634 0.11614365 0.1792295 0.10808486
0000a0 2d 3f 56 3d 85 79 00 3e 7b dc 84 bc 7a 7f 68 bd
       0.052306343 0.12546356 -0.016218415 -0.056762196
0000b0 db 91 c4 bd 07 18 2d 3e 83 81 32 be 86 07 96 bd
       -0.09598132 0.16903697 -0.17432217 -0.07325654
0000c0 2c 5e 40 be 59 ce 7b be 9d 79 8e 3c 5e a8 02 bd
       -0.18785924 -0.24590434 0.017391974 -0.03189885
0000d0 cc b4 3a 3e 35 4c f2 3c fa e8 a7 3d 0b fa 25 3b
       0.18233031 0.029577354 0.08198734 0.002532604
0000e0 57 45 93 bc 67 39 66 3d bf 77 24 be 25 b3 7c bd
       -0.0179774 0.056207087 -0.16061305 -0.061694283
0000f0 8c 19 c7 3c e4 96 06 bc 52 03 f3 bd b2 97 88 3d
       0.024304174 -0.008214686 -0.11865868 0.066695586
000100 ca 08 40 bd 5b fb e2 bd 8f da 7a 3e 4d b3 23 3d
       -0.046883382 -0.110830985 0.24497436 0.039965916
000110 1e 7b 04 be 24 cd 69 3e 94 73 f5 3d 5f 8d 74 3e
       -0.1293759 0.22832161 0.119849354 0.23882054
000120 2f a3 35 bc 4d 6c ee 3d 7e a4 80 be 7d 6d e6 bc
       -0.011086269 0.116417505 -0.25125498 -0.02812838
000130 32 3d 53 3d 66 50 1e 3e fc c2 04 be 59 0f 0c 3d
       0.051572032 0.15460357 -0.12965006 0.034194324
000140 c2 14 d5 3c 61 25 97 bd 97 6d d9 bd 69 f3 fd bd
       0.026010875 -0.07380176 -0.10616606 -0.123999424
000150 93 e6 27 3e 97 00 e6 3d 2b 6d 66 be 92 66 2a 3d
       0.16396551 0.11230581 -0.22502582 0.041601725
000160 66 3a 4b be e6 01 94 bc 1b 84 c6 3d ba 05 eb 3b
       -0.19846496 -0.018067311 0.09693166 0.0071723135
000170 af e5 b0 3d b6 e6 3c 3e 6f c8 36 be eb 2e 2e be
       0.08637559 0.18447384 -0.17849897 -0.17010085
000180 ba 2d ed 3d 67 85 20 3e 41 55 9e bd 1e 31 a6 3d
       0.11580987 0.15675889 -0.07731105 0.08114837
000190 17 eb a7 bc be da fd 3c 93 91 fa 3d 60 61 ff bc
       -0.020497842 0.030988093 0.12234797 -0.031174362
0001a0 d7 1a 96 3b c0 8a ae 3d 95 07 7e 3c 46 c0 11 bd
       0.0045808363 0.08522558 0.015504737 -0.035583757
0001b0 8f a0 84 3d 5d 71 d7 3c 6f 47 1e be 43 56 71 bd
       0.064759366 0.026299173 -0.15456937 -0.058920156
0001c0 fc 1f ab 3e cd 0f 32 be 5a 15 a6 bd 75 b7 91 bd
       0.3342284 -0.1738884 -0.08109541 -0.0711507
0001d0 ce 86 a2 3c 9c b6 a1 be dd be 4a bd 11 86 c3 3e
       0.01983967 -0.31584632 -0.049498428 0.38188222
0001e0 8a 0f 56 bc 8c 68 a4 bd c0 6c f5 bd 7a 0a 0a 3d
       -0.013065228 -0.08027753 -0.11983633 0.033701397
0001f0 ae 38 ca be 98 7e b1 bd 23 59 c2 3d ef 87 dc bd
       -0.39496368 -0.08666724 0.09489658 -0.10768115
000200 62 81 30 3e 8f 1e 15 3f 95 db 60 be dd 23 aa 3e
       0.17236856 0.58249754 -0.21958764 0.33230487
000210 15 c7 3d be 79 92 26 be 31 38 f5 3d 68 6b ae 3d
       -0.18532975 -0.16266812 0.11973608 0.0851658
000220 93 02 08 be 3f d1 e6 bd 9a af 19 bd 9e d7 66 3e
       -0.13282232 -0.11270379 -0.037520982 0.22543189
000230 bf 8c 80 be 63 ad a2 3e 03 5f 66 3e 52 90 52 3d
       -0.2510738 0.3177291 0.22497182 0.051407166
000240 5f c1 9e be 46 ce 49 bb a0 c4 3a bd 56 02 d9 bd
       -0.31006905 -0.0030793115 -0.045597672 -0.10596149
000250 64 97 91 3d 02 c4 02 be 26 e8 e4 bc a9 08 26 be
       0.071089536 -0.12770084 -0.027942728 -0.16214241
000260 2c 24 0f 3e 72 d1 9a bc 91 3c ae 3e dd c0 5d 3e
       0.13978642 -0.0188987 0.34030584 0.21655603
000270 9d 26 5c 3e 02 c4 55 3c 4b 3e 83 bd 54 f9 d0 3c
       0.21499105 0.01304722 -0.06408366 0.025509514
000280 93 5d 80 3e 16 5a 57 3e 58 49 18 bd 7a df b9 bc
       0.2507139 0.21030459 -0.03717932 -0.02268957
000290 d1 88 36 bd 04 eb 72 3d 92 89 8f 3e 2d 10 49 3e
       -0.044564072 0.05930616 0.28034645 0.19635077
0002a0 fb 60 4b be 85 7a ef 3e ea 33 88 be ac 15 82 be
       -0.19861214 0.46773162 -0.26602107 -0.2540716
0002b0 0b c3 10 3d 7e d4 44 3e 03 d6 ad 3c 85 8e e8 bd
       0.035342257 0.19221684 0.021220213 -0.113553084
0002c0 6f b2 29 be 77 30 ca bb 4c 35 dc bd b3 88 d1 bd
       -0.16571973 -0.0061703282 -0.10752353 -0.102311514
0002d0 b0 88 82 3e 86 c9 e2 3a 03 9d 01 3e ea f2 ef 3d
       0.2549491 0.001730249 0.12657551 0.11716254
0002e0 6c 23 27 bd 61 1d 80 3c 74 e7 1c 3e d3 77 55 3e
       -0.040805265 0.015639009 0.15322667 0.2084649
0002f0 44 88 f5 3d b5 59 a0 bc 3f 7c 08 be cb bb 4b bc
       0.11988881 -0.019574026 -0.13328646 -0.01243491
000300 1e c5 3c 3d dc 09 c7 3d af bd 17 be 57 e0 b3 bd
       0.046086423 0.097186774 -0.14818452 -0.08783024
000310 de 3b 04 3e e3 a8 b8 bd 71 fa af be 87 4c 90 be
       0.12913463 -0.090165876 -0.3437076 -0.28183386
000320 98 99 65 be 92 7e e1 be 70 23 97 bd 31 7d 9c bd
       -0.22421873 -0.44041878 -0.07379806 -0.07641066
000330 41 a9 62 3e 43 fa 47 3e 81 86 8b bd 96 3b 9f bd
       0.22134878 0.19529061 -0.06812764 -0.07775037
000340 2d 76 34 3e 2e 4c 25 bd 39 c4 18 3e 9a 25 cd 3e
       0.17623205 -0.040355854 0.14918603 0.4006775
000350 6f a1 a3 bd 82 b5 f0 3b 43 ca 53 3e 23 0f 2c bd
       -0.079897754 0.007345856 0.20682625 -0.042006623
000360 f7 5e 60 3d ef 74 75 3c 3f e6 6a bd 0c 81 8f bd
       0.054778066 0.014981492 -0.057348486 -0.070070356
000370 d5 50 9d bc 01 14 86 be 2e e9 4f 3e 5e a4 bd 3d
       -0.019203583 -0.26187137 0.20303795 0.09259866
000380 e1 5b c5 bd d7 05 47 3c 26 32 b1 be 9c b3 c2 3d
       -0.09636665 0.012147388 -0.34608573 0.09506914
000390 df 61 c1 39 ae b6 97 bd bf a8 fb bc ea 19 0a 3d
       0.00036884748 -0.0740789 -0.030720113 0.03371612
0003a0 06 cd 3b 3e 21 d5 24 3e 48 ac 14 3e ef 95 1b 3d
       0.18339929 0.16096927 0.14518845 0.037984785
0003b0 94 74 09 3e 69 0a 0a 3e ab 0d 92 3e 82 a1 4c 3e
       0.13423377 0.13480534 0.28526053 0.19983485
0003c0 87 f1 a4 be ff 38 26 3e 5f 30 c7 3e 82 45 45 be
       -0.3221552 0.1623268 0.38904092 -0.19264796
0003d0 e7 14 be 3d d7 89 9d 3e d1 57 17 be 8a 55 e7 be
       0.092813306 0.30769226 -0.14779593 -0.4518245
0003e0 5e f9 cf 3d cd 86 e2 3d 2e 02 24 be 42 62 c5 bd
       0.10154985 0.110608675 -0.16016456 -0.09637882
0003f0 f6 06 16 3f 90 61 90 3d ab 29 69 3e 9d b5 29 3e
       0.5860437 0.070498586 0.22769801 0.16573186

actor.2.bias f4 [64]
000000 ba b6 44 be 0b 58 a5 3c 36 19 b6 be 3b e4 ae bd
       -0.1921033 0.020183584 -0.3556611 -0.08539625
000010 a5 c1 20 3e ae 36 7c be e6 d7 b2 bb b7 69 a5 be
       0.1569887 -0.24630234 -0.005457866 -0.32307217
000020 45 14 3e be 14 45 0d 3e ed c8 64 be d3 5b 15 3e
       -0.1856242 0.13795882 -0.22342272 0.1458581
000030 88 0c 18 be 7a c5 66 bd 72 6f bd bd 12 e3 99 bc
       -0.1484853 -0.056340672 -0.09249772 -0.018785033
000040 c2 89 0a be 58 cb 2f 3e ff b3 d1 bc c5 8b a1 be
       -0.13529113 0.17167413 -0.025598524 -0.31551948
000050 0f e6 7e 3e 29 61 b2 3d 0a 5c ad be 02 ff 8d bc
       0.24892448 0.08709938 -0.33859283 -0.017333511
000060 b5 6c 18 3e 5f 5a b2 bd de 54 07 be bb 51 73 3d
       0.14885218 -0.08708643 -0.13215968 0.059404116
000070 0c 3b a5 bd 80 af a9 bd b5 28 f3 be 0b d2 ae 3d
       -0.08067903 -0.08285427 -0.47491995 0.08536156
000080 b9 c6 95 be 0c e8 5d 3c 2e ea fc be 9b 97 a5 be
       -0.29253176 0.013544094 -0.49397415 -0.32342228
000090 5a 48 a8 bb 75 dd dd bd 91 ee 82 3e 0a 5d fc bb
       -0.005135578 -0.10833255 0.25572637 -0.007701521
0000a0 12 f6 9f 3c a6 de eb bd d7 48 24 bc fb 96 59 3d
       0.019526515 -0.11517076 -0.010027132 0.0531225
0000b0 20 7d 1e bd 6f 2b fd 3c c1 1a ba 3c a4 a8 88 bc
       -0.038693547 0.0309045 0.022717835 -0.016681977
0000c0 e6 f2 47 3d e7 21 3c bd 26 70 2a 3e 6a 10 74 be
       0.04881563 -0.04593077 0.16644344 -0.23834386
0000d0 b8 4e ae be 7d 4b 08 bd a9 2b d8 be b4 74 4b be
       -0.34044433 -0.033275116 -0.4222081 -0.19868737
0000e0 cf bd 6d bd b1 3f 83 be d4 63 81 bd 52 91 95 bd
       -0.058042344 -0.2563453 -0.06317869 -0.07303108
0000f0 e9 44 42 bd 77 09 a1 3b 39 96 7e 3d 79 92 61 be
       -0.047429 0.0049144584 0.062154982 -0.22028531

actor.4.weight f4 [6, 64]
000000 87 de 3e bd 83 a1 7f 3d b2 9d d0 3c af aa d3 bc
       -0.046598937 0.06240989 0.02546582 -0.025838224
000010 c0 70 70 bd 69 3c 09 3e 5a c3 78 bd 8a 47 eb 3a
       -0.058701277 0.13401951 -0.060733177 0.0017950397
000020 c9 11 ed 3d 97 03 c0 3d de 32 e6 bd a9 46 11 3e
       0.11575658 0.09375685 -0.11240171 0.14187111
000030 56 97 96 be 63 1a 01 be 41 75 28 3e 7f 12 bd 3d
       -0.29412335 -0.12607722 0.16450979 0.092320435
000040 19 5b a2 bd f3 53 5f 3d 25 57 85 bd c2 ff d9 3d
       -0.07927532 0.05452342 -0.06510762 0.10644485
000050 6b f5 a2 bd b0 a3 51 bb b1 07 93 3d 62 aa 7d 3d
       -0.07956966 -0.0031988434 0.071792014 0.061930068
000060 58 43 b8 bd a9 92 31 3e 7e 74 3c 3e 23 37 4d bd
       -0.0899722 0.17341103 0.18403813 -0.05010141
000070 46 77 19 be 34 85 35 bd fc e1 9e 3d 7b 72 b0 3d
       -0.14986905 -0.044316486 0.07757947 0.086155854
000080 9e ee b5 bc 12 87 5a bd ae 93 de 3d ca aa 89 be
       -0.022208508 -0.05335147 0.108680114 -0.26888114
000090 93 29 97 be 81 34 e6 3d f4 1e 8c bd e7 0b 3f bc
       -0.29523906 0.11240483 -0.06841841 -0.011660553
0000a0 27 0e d6 bd 3d f2 e0 bd fa 3f 14 3e 2a 4b 5b 3d
       -0.10451918 -0.10983703 0.1447753 0.05353848
0000b0 25 d8 55 3e 06 ba 39 3e 93 9b 49 3c 0a e1 46 ba
       0.20883234 0.18137369 0.012305158 -0.0007586634
0000c0 54 09 b7 bd e0 7a de ba 94 ac a1 3d af 6f 38 bd
       -0.08937326 -0.0016973875 0.07894245 -0.045028385
0000d0 f5 2e c2 bd 8f 93 a3 3d 2f db 32 bd db f3 a1 bd
       -0.094816126 0.07987129 -0.04366606 -0.0790784
0000e0 5d 26 16 bd 45 36 4d bd c8 9f 64 bd 5b de cc bd
       -0.03665768 -0.050100584 -0.05581644 -0.100033484
0000f0 7b 3a a0 bd d6 9c 07 be a1 f1 5e 3c cd 9a 35 3e
       -0.07823654 -0.13243422 0.0136074135 0.17734833
000100 1e 2f 37 bd 86 e6 05 be 8f 1e 4c bd 44 00 bc 3e
       -0.04472267 -0.13076219 -0.04983383 0.36718953
000110 ca 07 50 3d df 22 15 3e 41 48 79 be 41 6c be 3d
       0.05078868 0.14564084 -0.24343969 0.092979915
000120 d1 9e 86 3c 9f 4b ed 3c ec 38 d9 bd f6 3d 4a be
       0.016433151 0.028966723 -0.1060656 -0.19750199
000130 14 51 2c bd 86 ca 73 bd 02 9d 6a be 42 18 1c 3d
       -0.04206951 -0.059519313 -0.22911456 0.03810907
000140 01 17 89 bd 5d 31 26 be 0e 81 e4 bc c1 af 84 3c
       -0.06693841 -0.16229768 -0.02789357 0.016197087
000150 9c a5 39 bd 09 d0 3f 3b 37 7e 22 bd c4 d1 d5 3d
       -0.045323953 0.0029268286 -0.03967115 0.104404
000160 10 db 6d bd 33 36 69 be 53 32 ea bc 15 6f 59 be
       -0.058070242 -0.22774582 -0.02858845 -0.2123378
000170 ab 17 06 be b4 3a bc bd 26 93 ac 3d 28 5e 73 3d
       -0.13094966 -0.09190884 0.08426504 0.059415966
000180 1f f3 9d bd 06 8a 6a bd fa 7b 87 3d 0f f4 30 be
       -0.07712387 -0.057260536 0.066154435 -0.17280601
000190 e7 f0 e0 bd f5 7f d5 bd 92 ac 9b 3d 07 39 7d bc
       -0.109834485 -0.104247965 0.076012745 -0.015455491
0001a0 3a 3c 11 be cf 44 bd bd 3e 59 e2 3d bb 15 39 3e
       -0.14183131 -0.0924164 0.11052178 0.18074696
0001b0 30 7f 58 bc 31 6d b2 bd b5 d8 4f be 6a 60 d1 bd
       -0.013213918 -0.08712233 -0.20297511 -0.10223468
0001c0 52 f1 96 3d 19 9a 46 3d 5a 66 f9 bc 91 62 10 be
       0.07370247 0.048486803 -0.030444313 -0.141001
0001d0 66 9c 94 3b 87 fa 0f be d8 12 75 bd 29 30 0a bd
       0.0045352457 -0.14060412 -0.059832424 -0.033737335
0001e0 af 89 60 bd e2 ec 2a be 45 72 81 3e ec 67 43 be
       -0.054818805 -0.16691926 0.25282493 -0.19082612
0001f0 37 ba 18 be 16 e1 aa bd 2e 70 26 be 63 5f 3a 3e
       -0.14914785 -0.08343713 -0.1625373 0.1820045
000200 71 9d 14 bd e9 ad 86 3c 53 b0 c6 3c a9 6f 87 bd
       -0.03628296 0.016440349 0.024254 -0.06613094
000210 6a cf db 3d 64 4f 92 bd b7 f7 07 3e c9 a0 c2 bd
       0.107329205 -0.07144049 0.1327809 -0.095033236
000220 32 80 d1 3d 41 a1 e8 3d 9c 33 82 3d bd fd 8f bd
       0.102295294 0.11358882 0.063575 -0.070308186
000230 b1 0a 29 3d 56 f2 01 be 25 1e 8c be df 51 05 3d
       0.04126996 -0.126901 -0.27366748 0.03254878
000240 c4 db 80 be 6f 79 29 3d c5 88 0a be 89 f0 a6 bd
       -0.25167668 0.041375574 -0.13528736 -0.08151347
000250 de a4 e2 3d 15 03 fe bd fc 13 06 3e 17 51 e6 bd
       0.11066602 -0.124029316 0.13093561 -0.112459354
000260 d4 f4 0a 3c 44 69 85 bd 01 eb dd bd 01 ec 94 3d
       0.008481223 -0.065142184 -0.10835839 0.07271577
000270 29 cc 50 be 63 90 9b bd c0 e0 7a be e5 3f 1c 3d
       -0.20390381 -0.07595899 -0.24499798 0.038146872
000280 7b 25 b2 bd df 49 02 3d 1c 7a ba bd 7a ba 8e 3d
       -0.08698555 0.03180873 -0.09105322 0.06969161
000290 ef 62 a9 3e f8 f5 09 3e 5a 98 0d 3d c1 71 6b bc
       0.33083293 0.13472736 0.034569122 -0.014370383
0002a0 a9 ff eb 3c b8 83 21 bd 69 7c 89 3d 3f f1 0b 3e
       0.028808432 -0.039432257 0.067131825 0.13666247
0002b0 88 c5 69 3e 37 95 22 3c bf 55 95 3d 8e 8e ce bc
       0.22829258 0.009923271 0.072917454 -0.02521446
0002c0 6f 36 1f 3e a4 35 0b 3e 1e 2b 6a 3d d5 46 74 bd
       0.15548109 0.13594681 0.057170026 -0.059637863
0002d0 2c 18 07 be 4f 1d 88 3d 44 4e 2e 3d 4a 55 8c bd
       -0.13192815 0.06646215 0.04255511 -0.06852205
0002e0 9a e7 40 bd 8d e9 f8 bd bd 2f f8 bd 3e 1e a9 bd
       -0.047095872 -0.12153921 -0.1211848 -0.08257721
0002f0 aa 72 fa bd 30 8d bd bd 14 83 94 bd 5f 2a 1d 3e
       -0.12228902 -0.09255445 -0.07251564 0.15348195
000300 d2 fe e5 bd 72 45 f4 3c e7 ff ac be cd c2 8a 3c
       -0.11230244 0.02981827 -0.33788988 0.016938591
000310 e6 d0 1c 3e e8 9d 2a be 06 fb 8e bd 6b ad b3 be
       0.15314063 -0.16661799 -0.06981473 -0.35093245
000320 5a c5 0b bd e6 ca 94 3d a3 43 88 bd 3c 5f fd bb
       -0.034123756 0.07265262 -0.06653526 -0.0077323
000330 b3 c8 6f b9 e6 0a 00 be 14 7b 7b 3d b1 eb 15 3e
       -0.00022867582 -0.12504157 0.061396673 0.1464069
000340 2e 4a 0f be 07 b4 af bd ca 49 8b 3c 37 70 a9 be
       -0.13993141 -0.08579259 0.017002959 -0.33093426
000350 e5 34 0e 3e fb 59 90 3d 36 ce 30 be f0 75 f0 3d
       0.13887365 0.070484124 -0.17266163 0.11741245
000360 e1 94 44 3d cb 8f 8b bd 72 c0 24 3d 52 f0 0d bd
       0.047993544 -0.06814536 0.040222593 -0.034653015
000370 47 08 c8 bd 01 cb 71 bb 73 4b bd be fd 36 44 3d
       -0.09767204 -0.0036894681 -0.36971626 0.047904003
000380 53 e9 52 be b4 77 81 3d 9a f8 92 be 31 1a 54 bd
       -0.20596819 0.0632166 -0.28705293 -0.05178279
000390 3b 9b 88 3c d3 02 b4 bc 56 44 46 3e 4d 78 00 be
       0.016675582 -0.021974003 0.19362006 -0.12545891
0003a0 98 f5 81 3e 2e d0 98 bd f2 d1 c3 3d 5f 53 1f 3d
       0.25382686 -0.07461582 0.09561528 0.03889787
0003b0 81 4f fa bc 76 b5 0a be 8d 50 b6 bd ee d2 94 bc
       -0.030555489 -0.13545784 -0.089020826 -0.018166985
0003c0 b8 12 a5 3d 5b d6 95 3d ba 8c 85 bd 01 ff ab bd
       0.08060211 0.07316276 -0.06520982 -0.083982475
0003d0 0c b7 82 be 04 4d 5c 3c 97 8f 6f be 7b ed 06 be
       -0.2553028 0.013446096 -0.23394619 -0.13176529
0003e0 9c 19 e7 bd f8 5a 1f be 77 f9 d2 3d 9e c1 e6 3d
       -0.112841815 -0.15562046 0.10301488 0.11267398
0003f0 0d 20 27 3d df d4 3a bd 68 29 a3 3d 7e 5f 6c bd
       0.04080205 -0.045613166 0.07966882 -0.057708256

actor.4.bias f4 [6]
000000 e4 2d 73 be aa a3 b1 ba 43 08 ee 3d c6 85 9a 3e
       -0.23747975 -0.0013552804 0.116226695 0.30180186
000010 c5 45 bd 3d 31 c7 84 3e
       0.09241823 0.2593322

critic.0.weight f4 [64, 25]
000000 c5 99 3e 3e f1 e9 4d 3d 2f e9 93 3d 8b 3a 0b be
       0.18613346 0.050271932 0.072222106 -0.13596551
000010 98 98 a9 3d b8 ef c4 bd 98 db 23 3b d2 93 9e bd
       0.08281058 -0.09616035 0.0025002714 -0.07743038
000020 03 70 e4 3c 07 03 c4 bc 00 b8 39 3d 42 9b de ba
       0.027885443 -0.023927225 0.04534149 -0.0016983526
000030 e8 98 dc bd 15 c1 5c 3e a8 c4 47 be c8 84 05 be
       -0.10771352 0.2155803 -0.19508612 -0.13038933
000040 68 d2 55 3f 2c d7 5d bc 32 12 40 bf 80 9c 48 3d
       0.8352418 -0.0135400705 -0.75027764 0.048977375
000050 00 75 64 bd 3f 06 12 be 48 78 7d 3d cb f4 91 bd
       -0.055775642 -0.14260195 0.061882287 -0.07126769
000060 77 aa 73 3d 3d f7 9a 3e 98 85 3a be ba 3e 63 be
       0.05948874 0.30266753 -0.18215024 -0.22191897
000070 6e c0 51 be be 70 b8 bd 9c ba ca 3c 5d 2b 09 3e
       -0.20483562 -0.09005879 0.024747185 0.13395448
000080 22 e7 77 3e 52 72 12 be 60 eb a6 bd 5a e6 66 3c
       0.24209264 -0.14301422 -0.08150363 0.014093006
000090 8e c2 0b 3e fd 86 65 be 49 1e dc 3e 86 6c 1f bd
       0.13648435 -0.22414775 0.42991856 -0.038921855
0000a0 b8 43 b5 3c ea 40 2e 3e dd 4a a6 bb d7 b0 a4 be
       0.022127017 0.1701695 -0.0050748424 -0.32166168
0000b0 ae 59 08 be da 26 23 be 61 29 ed 3d c8 10 7c bd
       -0.1331546 -0.1593279 0.11580158 -0.06153944
0000c0 d9 fe d7 bd d7 48 ec 3d 07 e7 23 be 0b 2c 13 3c
       -0.10546655 0.115373306 -0.16006099 0.008982669
0000d0 62 7e 21 3b 6b 72 22 3d fa 11 94 3d 60 30 29 3e
       0.002464198 0.0396599 0.07229991 0.1652236
0000e0 c3 9b 9b 3c 37 97 56 3d d2 ef c2 bc b0 5a 22 bc
       0.018995171 0.052390303 -0.023795996 -0.009909317
0000f0 1b 16 91 bd eb 72 56 3c 41 00 22 3e 49 78 2b bf
       -0.070842944 0.013088922 0.1582041 -0.66980416
000100 25 5a 53 be 74 de 49 3e e3 76 a0 be 16 cd f1 bd
       -0.20639856 0.19713765 -0.31340703 -0.11806695
000110 64 21 8a 3d f5 0f 9a bd 92 ba 0d bd 70 25 d1 3d
       0.0674465 -0.07522575 -0.034601755 0.10212219
000120 e7 44 66 bd fd 6f 24 3d 94 66 1d bd 1a ae 84 be
       -0.056218054 0.040145863 -0.038427904 -0.2591408
000130 c9 03 b8 3b a0 4a 37 3c 03 86 03 3e 6b 18 5b be
       0.0056156856 0.011187226 0.1284409 -0.21396033
000140 07 12 07 be 9b 26 ec 3d 9d 37 94 be 66 f6 ef 3d
       -0.1319047 0.11530801 -0.2894868 0.11716919
000150 55 da ad bd 7a 65 f8 3c 87 a4 9b 3d 52 ee 15 3e
       -0.08488909 0.030321825 0.075997405 0.14641693
000160 70 d5 d4 be 96 2a 4b 3e 0f 63 3d be 81 91 73 3d
       -0.4156909 0.19840464 -0.18494819 0.059464935
000170 bd 41 29 3e 42 5d e5 3d e4 b8 f2 3c f5 2c 2c 3e
       0.16528983 0.11199428 0.029629178 0.16814025
000180 a7 ea 45 3d 18 91 e2 3d ae f9 b7 bd c5 39 15 be
       0.048319485 0.11062831 -0.089831695 -0.14572819
000190 4a c7 2a 3e 42 d3 b0 bd e8 6a 49 3e c8 33 5e be
       0.16677585 -0.08634044 0.19669688 -0.2169944
0001a0 a0 43 d7 bd 5e 70 4a be 58 6b b9 3d 26 4e 57 3d
       -0.10510945 -0.19769427 0.09053677 0.052564763
0001b0 6b 53 6d bc 64 c4 5e bd a8 f8 07 3c 79 63 83 bd
       -0.01448522 -0.05438651 0.00829903 -0.06415457
0001c0 f1 91 6c be ac b9 81 3f e3 02 c9 3e d4 bc 96 3d
       -0.23102547 1.0134788 0.39260015 0.07360235
0001d0 a3 61 23 3e 06 f8 64 3d c8 71 b7 bd 1b b1 e6 bd
       0.15955214 0.055900596 -0.08957249 -0.11264249
0001e0 7f 00 1a 3e 59 fa 2a 3d 32 f6 ff 3d 44 b8 97 3b
       0.15039252 0.041742656 0.1249813 0.0046301205
0001f0 e1 2c 92 bc 7c ee ac be 25 ed cc bd 56 0e d3 3d
       -0.017843666 -0.337757 -0.10006169 0.10305469
000200 b1 74 cc bd ff 30 4d 3c 02 de 74 3e d1 0e a7 bd
       -0.099831946 0.012523889 0.23912814 -0.08157123
000210 11 9f ba 3d 73 d4 09 bb 2b 11 16 bd b0 1d 9f bd
       0.09112371 -0.002103117 -0.036637466 -0.07769334
000220 d0 b0 fa 3b 03 34 1f be 70 67 8f be ca 65 59 be
       0.007650472 -0.15547185 -0.28008604 -0.21230236
000230 fa 82 11 be 45 ba f1 be 24 e0 e1 bb b5 c2 bc 3e
       -0.1421012 -0.47212425 -0.0068931747 0.368673
000240 89 1a 83 bd a0 61 9b 3d 17 11 c8 3d f2 ad 82 bd
       -0.064015456 0.0758698 0.09768885 -0.06380834
000250 8c b0 7a 3d 47 93 3c bc f2 bf 0f 3e c4 0c 44 3e
       0.061203524 -0.011509723 0.14038065 0.19145495
000260 14 e9 0e be 38 45 7b bd ef 64 e4 3d 02 9a 44 3d
       -0.139561 -0.06134531 0.11152064 0.047998436
000270 66 ec f6 bd d0 1a f9 bc 5b ef f7 ba f4 99 10 bc
       -0.12056808 -0.030408293 -0.0018915938 -0.008825768
000280 5d bb 08 3e e8 ff eb 3d da 64 47 be 06 cf 0f 3f
       0.13352723 0.115234196 -0.19472066 0.5617527
000290 9f 70 29 3e d8 89 ca 3c 5a 16 fc 3e a1 9d fd bd
       0.16546868 0.024723932 0.49235803 -0.12383581
0002a0 1d e3 a1 be ef e5 90 3c 27 1f ab 3c d7 30 95 3d
       -0.31618586 0.017687766 0.020888878 0.07284706
0002b0 72 28 9c 3d fd 47 a0 3c dc 3a d1 bd b2 55 7c be
       0.07624902 0.019565577 -0.10216305 -0.24642065
0002c0 3b 53 27 be 3b a9 9e be d6 bb f0 3d da c5 29 3e
       -0.16340344 -0.30988488 0.11754577 0.1657938
0002d0 53 9d 03 3d cf a3 ea bc f1 03 0f 3d 5f 99 d9 3c
       0.032132458 -0.028642563 0.03491587 0.02656239
0002e0 82 9f b8 3d f1 89 52 3d 88 43 e6 3c 8b 8d 57 3e
       0.09014799 0.051401082 0.028108373 0.21050088
0002f0 0e cb 6e 3f a7 da ea be a3 ae 35 3e 48 9e 15 3e
       0.93278587 -0.45869943 0.177424 0.14611161
000300 c6 ed 11 be 7d 91 40 be 0b 97 17 be 3b b5 21 bd
       -0.1425086 -0.188055 -0.14803712 -0.039479475
000310 28 21 24 3d c2 87 8f 3d 6e cb 7d bd 81 a8 c8 bd
       0.040070683 0.070083156 -0.061961584 -0.097977646
000320 e7 44 42 3e b7 19 5e be 67 e3 1f 3d 8f 25 cc bd
       0.18971597 -0.21689497 0.039035227 -0.09968101
000330 5f b1 9a 3d 55 e8 87 bd 8b 3e 97 3d e1 1f 98 bd
       0.07553362 -0.06636111 0.07384976 -0.074279554
000340 46 ca 07 3d a9 e8 2b be d4 3b 89 3d 94 6c 0b bd
       0.033151887 -0.16787972 0.067008644 -0.034039095
000350 bf ce 9b 3d 06 1c 57 be 76 da b0 be 01 ab 0f be
       0.07607793 -0.21006784 -0.34541672 -0.14030077
000360 a8 18 f0 3d 21 b4 f3 3d 7a 2d 42 3d 5a c2 4a bd
       0.11723453 0.11899591 0.04740665 -0.049501754
000370 0c 6e aa 3d 8d 79 0c be 99 e2 23 3e 9f 4b 3c be
       0.08321771 -0.13718243 0.16004409 -0.18388222
000380 dd ce 8d 3d 2a 49 72 be 0e 55 1a be 97 87 29 3d
       0.06924222 -0.23660722 -0.15071508 0.041389074
000390 9a 10 db bd 27 f1 30 3d 74 21 f5 bd 5d 10 cc bc
       -0.10696526 0.04319873 -0.11969271 -0.024910146
0003a0 6c bd d3 3c 6b 24 5a 3c e3 54 eb bd 70 69 64 3c
       0.02584716 0.013314347 -0.114908 0.013941154
0003b0 79 e7 dc bb 33 c5 8e 3e 31 37 92 40 0b 6f 49 bf
       -0.006741461 0.27884826 4.569237 -0.78685063
0003c0 f2 5f 67 be 06 7d 30 3f 9d e4 71 be 7f 5e 0e bf
       -0.22595194 0.6894077 -0.23622365 -0.5561294
0003d0 bc 26 b3 bd 0c b6 00 3d fe ad 98 39 d1 da 4d 3d
       -0.08747622 0.031423613 0.00029121334 0.050257508
0003e0 f0 b1 53 bd 9b 61 c3 3c 11 ac 1a 3e 4b df e6 bd
       -0.051683366 0.023850253 0.151047 -0.112730585
0003f0 57 51 4c be 24 31 a5 bd f2 00 da 3d 79 74 7a 3c
       -0.19952904 -0.080660135 0.106447116 0.015286558

critic.0.bias f4 [64]
000000 10 a6 3f 3e c2 9f 62 3e 30 d2 2e be 4b 25 1d bc
       0.18715692 0.22131255 -0.17072368 -0.009591411
000010 2c 17 01 3d ed d9 63 be ad cc 23 3e 5e 9d 0c be
       0.03151624 -0.22251101 0.15996046 -0.13731906
000020 89 2e 59 bc 31 cb c9 3d ca 50 18 3e 7e fa b1 3d
       -0.013255724 0.09853209 0.14874569 0.08690356
000030 c9 0f 47 be 64 6b 3b bd 6d bd 40 3d 4d 99 bc 3b
       -0.19439615 -0.045756713 0.04705565 0.0057555796
000040 ea 6d 4f be 11 e7 ae bc 28 bc 3f 3d 57 be 90 3d
       -0.20256773 -0.021350415 0.0468103 0.070675544
000050 76 9c 37 3e ce 48 87 3d 7c 3d a0 3d f3 5c 03 3e
       0.17930779 0.06605683 0.07824227 0.12828426
000060 65 0a 80 bc 4b 0c b5 bc cf 44 67 bd a7 e8 05 bd
       -0.015629956 -0.022100588 -0.056462105 -0.032692578
000070 27 f2 3e 3d 46 76 17 3e 69 a1 1b bd a4 0b d5 bd
       0.046617653 0.14791211 -0.03799573 -0.10402611
000080 12 20 42 bd ac ac a8 bd 84 b8 7b 3e a9 1c aa bd
       -0.047393866 -0.082360595 0.24582106 -0.08306248
000090 8c ad a0 3c 71 0b af bd ca 9f 8b bc da ce dd 3d
       0.019614004 -0.08547104 -0.017043967 0.108304694
0000a0 71 0e 4e be ac bc 16 be 92 3c 7c bd 8a dc 09 3e
       -0.20122696 -0.1472041 -0.0615812 0.13463035
0000b0 27 f5 84 bc 84 86 3e bd 52 c4 d4 bd 94 51 f7 3d
       -0.016230179 -0.046515003 -0.10389008 0.12076107
0000c0 57 7b ab bb 08 3a 14 3e a3 ef ea 3b 25 f7 49 bc
       -0.005233209 0.14475262 0.00716968 -0.01232699
0000d0 2c d8 c5 bd 5f eb fb bd fc ad 25 3e 90 14 02 3d
       -0.09660372 -0.12300753 0.16179651 0.03175789
0000e0 52 5f dd bd 4c 9d d8 3d 7d 5d 01 be 59 fc de 3d
       -0.108091965 0.10576877 -0.12633319 0.10887975
0000f0 ff 08 19 be b1 32 16 bc e9 7b 5a 3c b5 b6 18 3d
       -0.14944838 -0.009167359 0.013335207 0.037283618

critic.2.weight f4 [64, 64]
000000 0d 3a b9 bd 46 f6 02 bd 8e c4 20 be 28 62 57 3d
       -0.090442754 -0.031973146 -0.1569998 0.052583843
000010 a6 bd 24 3d 6a 88 12 be 83 f9 94 3d a5 80 8a 3d
       0.040219925 -0.1430985 0.07274153 0.06762818
000020 ba 16 98 3c 37 45 9e bd dd 0f b0 3d a3 59 c7 3c
       0.018565524 -0.077280454 0.08596776 0.024334734
000030 7d bf d4 bc 42 4b e0 3d 60 cc 0a bd 2b 24 b4 bd
       -0.025970215 0.10951854 -0.033886313 -0.08795961
000040 c8 fd 34 bd 63 81 0c bd ba 60 2a bc b5 b5 2f bd
       -0.044187337 -0.03430308 -0.010399038 -0.0428979
000050 7e 51 03 3e 79 3b 12 3e 53 53 cd 3d 0b 7f 54 3c
       0.12824056 0.142805 0.100256585 0.0129697425
000060 71 77 58 bc 98 1a 12 3d 45 24 5c 3d 6e aa 55 3a
       -0.013212071 0.035669893 0.053745527 0.0008150701
000070 76 0b a6 bd 9c 7e 6f 3d e2 f7 4d 3d 7b b2 a5 bd
       -0.08107655 0.058470353 0.050285228 -0.08090683
000080 41 66 e0 3d 01 4a bd 3d 8f 27 a5 bc e3 6f 93 3d
       0.109570034 0.09242631 -0.020160465 0.07199075
000090 bb 25 fc bd 8a d6 d9 3c 6c 93 99 bc bd c1 b2 3d
       -0.12311884 0.026591558 -0.018747054 0.08728359
0000a0 d0 2a 22 be 66 fa 82 bc 37 f9 32 bd 8a 11 e5 bd
       -0.15836644 -0.01598854 -0.0436947 -0.11184986
0000b0 07 56 f9 3b a6 b3 1b be d1 3e 3a 3c e3 1a cd 3d
       0.007609132 -0.15205249 0.011367516 0.10014894
0000c0 a2 be e8 bb a4 40 c1 3d bb 69 e8 3d 42 9b b2 bc
       -0.0071028033 0.09436157 0.113482915 -0.021802548
0000d0 b1 78 a5 3d bc 61 01 3e f2 4c 94 bd dc 65 97 bc
       0.08079661 0.12634939 -0.07241239 -0.018481188
0000e0 27 41 0d 3d ad 1e 80 bd cd 34 a6 3d bb 5e 99 bd
       0.034485962 -0.06255851 0.0811554 -0.074887715
0000f0 f7 03 19 3c e9 80 c5 3d 9d 3a 49 3c cc 7b 68 3d
       0.009339324 0.09643728 0.012282041 0.056758687
000100 c4 f4 71 bb 04 53 21 3d 37 d8 73 3d 1b 27 00 3c
       -0.0036919573 0.03938581 0.05953237 0.0078218235
000110 75 b2 99 bd 92 05 18 3e 9f fe 04 bd 51 96 07 bd
       -0.07504741 0.14845875 -0.032469388 -0.033102337
000120 a3 6c 23 bd 36 7d a4 3d 2a c2 25 3e 59 88 b0 bd
       -0.039898526 0.080316946 0.16187349 -0.08619756
000130 3a 59 cf 3d 92 12 3f bd be eb 9e bb d4 db 78 bd
       0.101244405 -0.04664857 -0.00484988 -0.06075652
000140 83 35 1a 3d 0c 2d 9d 3d b2 01 c8 3d b1 b5 02 bd
       0.03764869 0.07674608 0.09765948 -0.031911556
000150 13 77 c9 3c 2e b9 75 3d 83 05 10 bd 4a e3 0c 3e
       0.024592912 0.059991054 -0.035161506 0.13758579
000160 5c 78 1b 3e 6e b4 db 3d ff 5e 07 be bc 8d 76 bc
       0.15182632 0.107277736 -0.13219832 -0.015048441
000170 3c 3e 9f bd 0c 33 11 3e b1 90 a2 bd 92 c0 f9 3d
       -0.07775542 0.14179629 -0.07937754 0.12194933
000180 3f 5a 9b bc ea 0b fb bd f5 b9 59 bc 72 65 c9 bd
       -0.018963931 -0.12258132 -0.0132889645 -0.09833802
000190 65 26 f7 bd dc a3 a0 3c 17 46 82 bd 56 99 7c bd
       -0.1206787 0.019609384 -0.06361025 -0.06166967
0001a0 48 09 9a 3b de c5 54 3d 38 44 76 3d 8a 4b ab 3c
       0.0047008134 0.051946513 0.060123652 0.020910043
0001b0 64 75 9f bc 95 37 23 bc 71 57 bb bb 97 c2 e5 bd
       -0.019465156 -0.009961982 -0.005717211 -0.11218756
0001c0 4f 1a 14 be c6 fa 53 bd 42 4c 5a bc b0 bf a8 3d
       -0.14463161 -0.051752828 -0.013323845 0.082396865
0001d0 6d dd 9e 3d 2d 0a 3b bc 6f af 0e be 69 a7 d5 bd
       0.07757077 -0.011416 -0.1393411 -0.104323216
0001e0 61 04 08 3e b3 7c bf 3c bc cd 04 3e fe 61 b1 bd
       0.1328292 0.02337489 0.12969106 -0.08661269
0001f0 8b 82 14 be e0 af 9b 3d 63 c6 82 bd 61 cb 99 3d
       -0.14502923 0.07601905 -0.063854955 0.075094946
000200 3b 8e f0 3d b5 4d ce bc 2a 7a 1b bd 9e 27 d9 3c
       0.11745878 -0.025183538 -0.0379583 0.026508149
000210 51 20 7d bd cc 40 1c 3c 74 cf b9 bd af ff af 3d
       -0.061798397 0.009536933 -0.09072772 0.0859369
000220 7f 74 07 bd b1 b4 10 3d a0 1a ba bc c9 89 1f 3c
       -0.033070084 0.03532857 -0.022717774 0.00973744
000230 b5 64 d7 bd 0c 6a 5c bd c9 e4 0a 3d a9 b3 56 bd
       -0.10517255 -0.05381207 0.033909593 -0.05241743
000240 f5 cd f0 3d d7 15 77 3c d9 92 51 3d 88 97 d4 bd
       0.11758033 0.015080891 0.051165435 -0.10380465
000250 5c 49 96 bc 32 9d 03 3e 2e 07 49 3c 30 b1 18 3d
       -0.018345527 0.12852934 0.012269778 0.037278354
000260 fc ab eb 3d 03 e6 86 3d 91 0a ce bd 0d a0 42 bd
       0.11507413 0.0658684 -0.10060609 -0.047515918
000270 7c 78 9e bc 94 13 f3 3d 21 4c 11 3d fd d5 c0 3d
       -0.01934456 0.118689686 0.035472993 0.09415815
000280 84 c4 c7 3c 4b 7f 86 bd 65 84 34 3d 52 21 b8 bd
       0.024385698 -0.06567248 0.044071574 -0.0899073
000290 1e b4 09 3e 1b 32 14 bd d1 98 66 3d c2 35 86 3d
       0.13447616 -0.036180597 0.05629808 0.06553222
0002a0 35 cb 02 3c 23 69 c7 3d 62 75 98 bc 25 1f 96 3c
       0.007983019 0.0973685 -0.01861066 0.018325398
0002b0 45 79 68 3d 88 db 91 bd 1b 17 96 3d 1c 8e e4 bd
       0.056756277 -0.071219504 0.07328626 -0.11159918
0002c0 40 a4 15 be ab d4 d6 3d 2e 4b a5 bd 4f ba c2 3d
       -0.14613438 0.10489782 -0.0807098 0.09508192
0002d0 21 f4 56 bc 3f 86 2a bc ca dd 5d 3d 83 33 d6 3d
       -0.013119728 -0.010407983 0.054166593 0.10459044
0002e0 b3 50 82 bc 84 47 a1 3d 2e 18 12 3e a0 ae 98 bc
       -0.015907621 0.07874969 0.14267036 -0.018637955
0002f0 e1 16 89 3d 1d bf 02 be 07 d8 35 bd 80 ef 10 3e
       0.06693817 -0.12768216 -0.044395473 0.14153862
000300 2b 9f 8e 3d d0 65 94 bb ac 02 be 3d 69 63 25 bd
       0.06963953 -0.0045287386 0.09277853 -0.040378008
000310 f6 41 cd 3d 70 34 0c 3e 37 89 4b 3c 26 17 ce 3d
       0.10022347 0.13691878 0.012422851 0.10063009
000320 d2 7d c6 bc 8b c2 3a bc 9b 35 2a be 6d 57 c6 bd
       -0.024229918 -0.011398922 -0.16622011 -0.09684644
000330 d0 ab b7 3d 64 37 a2 bd 20 5f 9f bc d0 4c 88 bd
       0.089683175 -0.07920721 -0.019454539 -0.06655276
000340 84 f2 eb 3d 0d 38 3e 3c a9 de ff bc 6e c9 80 bd
       0.115208656 0.011610043 -0.031234102 -0.0628842
000350 70 65 cc 3b 57 45 0d bd 95 26 05 be f8 79 e0 bd
       0.006237678 -0.034489956 -0.13002999 -0.10960764
000360 0d 1f a6 bd 4d 9d d9 3d d0 d5 95 3c 03 30 21 3d
       -0.08111391 0.10625706 0.01829043 0.03935243
000370 79 bf b1 3d bf 77 e3 bd f3 1c ae 3c a8 8a 8d bd
       0.08679099 -0.11106824 0.021254038 -0.06911212
000380 bf e4 4b 3d bc 88 90 bc 31 0e c1 3d b3 03 82 bc
       0.049778696 -0.017643325 0.09426535 -0.015870905
000390 4f d4 bb bd 68 ff 3d 3c 3e 0e 95 bc e5 90 fb 3d
       -0.09171354 0.011596538 -0.018195268 0.12283496
0003a0 39 e0 08 be 26 1c cb bc ef 3c ad bd cf 04 ee 3d
       -0.13366784 -0.024793696 -0.08458888 0.11622011
0003b0 a2 78 86 bc 99 e2 bd bd 39 8f 58 3d da e2 88 3d
       -0.016414944 -0.09271736 0.052870963 0.066838935
0003c0 53 b0 b9 bd 03 5b 30 3d e7 dd c5 bd e5 49 ec bd
       -0.09066834 0.043055546 -0.09661465 -0.11537532
0003d0 c9 7e e6 3d 80 1b e5 3d cb b5 91 3d 0c 81 a8 bd
       0.11254651 0.11186886 0.071147524 -0.08227739
0003e0 fd 92 a3 39 96 8a 45 bd ca 8d 94 bd 7e f6 c3 bc
       0.00031199298 -0.04822787 -0.072536066 -0.023921248
0003f0 fd 46 d9 bb 7b 2b 48 bc ac 8c 7e 3b 9e 24 8a 3c
       -0.006630777 -0.012217398 0.0038841171 0.016863164

critic.2.bias f4 [64]
000000 12 33 97 bd aa e6 e0 3c 49 64 f1 bd 2a c9 18 bd
       -0.07382788 0.02745374 -0.11786706 -0.03730122
000010 d3 5e a5 bd 5c 84 7d bd 09 69 93 3d c8 a8 be bd
       -0.08074727 -0.061893806 0.07197768 -0.09309536
000020 d9 4f 8a bd ac 58 7f 3d ed c4 e2 bd 9a 0f 1e bd
       -0.06753511 0.062340423 -0.11072717 -0.038589098
000030 b7 1d 8b 3c 1d 5e 3d bd dc 8c 81 3d 8d 2d 4d be
       0.016981943 -0.04623233 0.06325695 -0.20036907
000040 8c f5 40 bd 81 f7 4b 3d 05 92 40 3d b2 96 11 3d
       -0.04710917 0.049796585 0.047014255 0.035544105
000050 de 6e ab bd c6 91 c4 bc 90 87 1f be fd 55 83 bd
       -0.083707556 -0.023995291 -0.15579057 -0.06412885
000060 c9 44 43 3d 6d ae 9d bd e0 d5 27 3d b6 05 95 bd
       0.04767302 -0.07699285 0.04097545 -0.0727648
000070 6e 17 1a 3e 99 aa 05 3d 81 8f 0c 3c bc fb db bd
       0.15048 0.032633398 0.008579136 -0.10741374
000080 04 19 02 3e 8d 7e b4 bd 03 d8 80 3d b2 f9 b6 3c
       0.12704855 -0.088132 0.06291201 0.02233586
000090 28 a0 14 bc 7e 61 09 bc a1 ff 93 3d 57 76 f9 3d
       -0.009071387 -0.00838506 0.07226492 0.12180775
0000a0 de f3 01 be 79 e4 73 3d 59 a6 67 bc b5 6f e1 bd
       -0.12690684 0.05954406 -0.014138781 -0.110076346
0000b0 4f 72 bb bd e4 8b e7 bd dc ed f5 3d b0 eb fc bd
       -0.09152662 -0.11305979 0.12008259 -0.12349641
0000c0 11 f5 ba bc 98 84 01 be 62 a8 4c 3b 63 ac 19 bd
       -0.022821935 -0.12648237 0.0031228294 -0.037517916
0000d0 9e 9d 12 3d d1 20 82 bd 6d 50 e6 bd 1f 5c 4a bd
       0.035794847 -0.063539155 -0.11245809 -0.04940426
0000e0 07 eb b3 bd 84 65 60 bb 83 88 ae bc f1 ce 2a be
       -0.08785062 -0.0034240196 -0.021305328 -0.16680504
0000f0 0d 13 54 3d 8d af 19 3d dd 95 5f 3d b1 98 97 3c
       0.05177598 0.037520934 0.05458628 0.018505426

critic.4.weight f4 [1, 64]
000000 cf 87 b6 3c 84 3d 9c 3d e3 ec 50 3d c7 dc 22 bc
       0.022281555 0.07628921 0.051007163 -0.009940333
000010 ef 97 97 bd ab 37 6e bd ce 51 97 3d 6f 54 0a bd
       -0.07402026 -0.058158558 0.0738865 -0.03377193
000020 eb d6 1a bd bf 88 da bc ab 62 3d 3d 38 10 33 bc
       -0.037802618 -0.026676534 0.046236675 -0.01092916
000030 de 07 97 bc 7a 97 3d bd 80 19 e7 bd 3f fb e7 3d
       -0.018436369 -0.046287037 -0.112841606 0.11327218
000040 39 26 ec 3c e7 0e e1 ba cf 5e a1 3d df e4 00 bd
       0.02882682 -0.0017170579 0.078794114 -0.03146827
000050 50 27 50 bd 0c 2f 65 bd 53 65 bd bc d1 ce ed bc
       -0.05081874 -0.05595307 -0.023119604 -0.029029282
000060 64 7c e0 bc 98 47 31 bd fa 7a a8 3c f5 0f ef 3c
       -0.027403064 -0.043281168 0.020566452 0.029182414
000070 70 9b 83 bd 9a 84 48 bd f5 50 7d 3c 49 dc e5 bd
       -0.06426132 -0.048954584 0.015461196 -0.11223657
000080 13 b2 39 bd ff 57 62 3c de 3e ce 3c d2 74 a5 bd
       -0.04533584 0.013814925 0.025176462 -0.08078922
000090 9d 25 00 bd 95 a9 48 3d eb 36 32 3d 33 7a b5 bc
       -0.03128587 0.04898985 0.043509405 -0.022152996
0000a0 42 89 6c 3c f5 9e 9f bd 3d db 83 bd de 0e fe bd
       0.014437022 -0.077939905 -0.06438301 -0.124051794
0000b0 44 5b ad bc 54 b2 65 bd 54 30 ae bc 84 c0 f8 bc
       -0.021161683 -0.05607827 -0.021263279 -0.030365236
0000c0 24 f8 76 3d c5 ee 0f 3d e8 bd 1d bc ed 57 d4 bc
       0.06029524 0.035139818 -0.009627797 -0.025920833
0000d0 4d 05 1e bd e0 54 2a bd 29 2b 92 bd dc 29 76 3d
       -0.038579274 -0.04158485 -0.071371384 0.060098514
0000e0 25 36 69 bd dd f6 77 3d 59 a3 6c 3d 04 4b 55 bb
       -0.056936402 0.06053816 0.057772968 -0.0032545933
0000f0 f8 47 73 3d 81 ac b7 3c f1 07 4a 3d bf 83 a6 bd
       0.059394807 0.022421123 0.04932398 -0.08130597

exp_avg f4 [6]
000000 ae a4 29 39 d5 df b8 39 a0 fe 31 3b fb 38 92 b9
       0.00016178444 0.00035261983 0.0027159825 -0.00027889744
000010 58 cf 38 3a f2 72 74 3a
       0.00070499396 0.00093249895

exp_avg_sq f4 [6]
000000 d4 0b bf 35 6a d4 42 37 fb 78 7a 3a a1 0d c9 36
       1.4234051e-06 1.1612758e-05 0.00095547707 5.9918534e-06
000010 45 dd 0d 37 d5 70 30 38
       8.455773e-06 4.2066753e-05
