04-goal-pose-l6/logs/rsl_rl/joint_position/2026-02-18_14-34-58/model_6650.pt (torch, 161397 bytes, 36 tensors)

std f4 [6]
0	0x3dcf75e9	0.101299115
1	0x3caca985	0.021076927
2	0x3b4cba1a	0.0031238855
3	0x3d79f180	0.061021328
4	0x3d4e5181	0.050370697
5	0x3be9e168	0.007137466

actor.0.weight f4 [64, 25]
0	0xbd29cf21	-0.0414573
1	0x3e8a95b3	0.27067336
2	0xbeb250bd	-0.34827223
3	0xbe7dc806	-0.24783334
4	0xbeabec5c	-0.33578765
5	0xbe4dbf3c	-0.20092481
6	0x3d010e45	0.03150775
7	0xbdeb50e5	-0.11490039
8	0x3e21a05f	0.15783833
9	0xbe0c8436	-0.1372231
10	0x3d78575d	0.06063019
11	0x3ccf39b9	0.025296079
12	0xbe425264	-0.18976742
13	0xbeaa7ecb	-0.3329986
14	0xbed42526	-0.41434592
15	0xbeae10b1	-0.3399711
16	0xbf0083bf	-0.5020103
17	0xbe0e6c62	-0.13908532
18	0x3f0ce8ce	0.5504273
19	0xbb8b3dd5	-0.0042493143
20	0x3ea6e3c6	0.32595652
21	0xbef60666	-0.48051757
22	0x3dadfa84	0.08495048
23	0xbdd60316	-0.10449807
24	0xbde997e3	-0.11405923
25	0x3e3abc14	0.18235809
26	0x3e034b73	0.1282175
27	0xbebe1385	-0.37124267
28	0xbed5caa7	-0.41756174
29	0xbdaf5d34	-0.08562699
30	0xbeda5f3e	-0.4265079
31	0xbe08eb42	-0.13370994
32	0x3dc99269	0.09842379
33	0x3d6c5a4c	0.0577033
34	0x3c6abf6f	0.014327868
35	0xbdb42177	-0.087954454
36	0xbd5f7fb1	-0.054565135
37	0xbe8b8190	-0.27247286
38	0xbc916428	-0.017747954
39	0xbed1cb38	-0.40975356
40	0xbe66ea1e	-0.22550246
41	0x3f842276	1.0323017
42	0xbe969ac4	-0.29414952
43	0xbf7daa36	-0.99087846
44	0x3daa632d	0.083196975
45	0x3e14eeaf	0.14544176
46	0xbe832dc1	-0.25620845
47	0xbe5da670	-0.21645522
48	0x3e548f53	0.20757799
49	0xbe7b01c7	-0.24512397
50	0xbea95cc3	-0.33078584
51	0x3e5e67f0	0.21719337
52	0xbdcffe55	-0.10155932
53	0x3e20f256	0.15717444
54	0xbe7ad96a	-0.24497
55	0x3e02f0bd	0.12787147
56	0xbe819600	-0.25309753
57	0x3e632b2c	0.22184438
58	0x3dfb95c1	0.12284423
59	0x3cf5ff3c	0.030028932
60	0x3d03fdd7	0.032224502
61	0x3defe027	0.117126755
62	0xbed88ee6	-0.42296523
63	0xbde49dd6	-0.11162917
64	0xbd83ca13	-0.06435027
65	0xbe67d4fa	-0.22639838
66	0x3f0fc2e6	0.56156766
67	0xbe9a899f	-0.30183122
68	0xbf064416	-0.5244764
69	0xbe3ad6da	-0.18246022
70	0xbe910a60	-0.28328228
71	0x3a45b8dd	0.00075425004
72	0x3e125b5a	0.1429266
73	0x3dd3f050	0.1034857
74	0xbc1810a1	-0.009281308
75	0x3e2a94de	0.16658351
76	0x3e81c4dc	0.25345504
77	0xbdb0fd8e	-0.08642112
78	0xbf2d0ab1	-0.6759444
79	0x3e0b4410	0.13600183
80	0xbf183674	-0.5945809
81	0x3dd1b2a9	0.10239155
82	0x3dbbeac8	0.0917564
83	0xbd9048b2	-0.070451155
84	0xbe2a3e61	-0.16625358
85	0x3d85de93	0.06536593
86	0x3a6f4e21	0.00091287686
87	0xbebb08ee	-0.3653025
88	0xbe637366	-0.2221199
89	0xbeab76e0	-0.33489132
90	0xbeb1b73a	-0.34710103
91	0x3f06079a	0.5235535
92	0xbe97a44c	-0.29617536
93	0xbf1f3004	-0.6218264
94	0x3e0f6a24	0.14005333
95	0x3de700d2	0.11279453
96	0xbe470e48	-0.19439042
97	0x3e301d0d	0.17198582
98	0xbdf30021	-0.11865259
99	0xbd0569ce	-0.032571606
100	0xbe5ee06d	-0.21765299
101	0xbefac5fe	-0.4897918
102	0x3e9ac19a	0.3022583
103	0x3df04a1c	0.11732885
104	0xbe978546	-0.29593867
105	0x3dfc023a	0.12305112
106	0x3dfac82e	0.122452125
107	0x3d3ca2e1	0.04605377
108	0xbb973105	-0.004613998
109	0xbd2699a2	-0.04067386
110	0xbc812750	-0.015765816
111	0x3d83f49a	0.064431384
112	0xb94848d4	-0.00019100617
113	0x3e7103f9	0.23536672
114	0xbf3f5f10	-0.7475443
115	0xbccee93d	-0.025257701
116	0xbfbd31d3	-1.478083
117	0x3dea1f59	0.1143176
118	0x3fbf7d24	1.4960065
119	0xbde58dd7	-0.112086944
120	0x3d4ce7a1	0.050025586
121	0xbdca1763	-0.09867742
122	0x3d2f8aab	0.042856853
123	0xbd7d4d69	-0.061841402
124	0xbd429475	-0.04750486
125	0x3f08b7d4	0.534055
126	0xbf021d29	-0.50825745
127	0x3e41d3b3	0.18928413
128	0x3e6a7a68	0.22898257
129	0x3f4d0782	0.8008958
130	0x3e047364	0.12934643
131	0xbd865be3	-0.06560495
132	0x3d800fd2	0.062530175
133	0xbd19124e	-0.037370972
134	0x3e5c6cb1	0.21525837
135	0xbe5a71a8	-0.21332419
136	0xbc05e12a	-0.008171359
137	0xbf0f15db	-0.55892724
138	0xbf720427	-0.94537586
139	0xbeb81aad	-0.35957852
140	0x3d6dad43	0.058026563
141	0x3f70f011	0.9411631
142	0xbdcf6bf3	-0.101280116
143	0xbf49e302	-0.7886201
144	0x3ec7e2e7	0.390403
145	0x3dda11cc	0.10647926
146	0xbe277162	-0.16351846
147	0x3c880975	0.016606072
148	0xbc559c55	-0.013037761
149	0x3d927f3a	0.07153173
150	0x3d2906ff	0.041266438
151	0x3f01081f	0.50403017
152	0xbdd713f3	-0.10501852
153	0xbe03b287	-0.12861072
154	0xbf40fa7f	-0.75382227
155	0xbe9cc21c	-0.30616844
156	0xbe445257	-0.19172035
157	0xbeabfb50	-0.33590174
158	0x3dffc89b	0.12489434
159	0xbb8ea828	-0.004353542
160	0x3e1f93ce	0.15583727
161	0x3d967d9d	0.073481776
162	0xbe37099c	-0.1787476
163	0x4018bf85	2.3866894
164	0x3f57dff1	0.8432608
165	0xbda51967	-0.08061486
166	0x3ed9237e	0.4240989
167	0x3d4e7276	0.050402127
168	0xbe876fe1	-0.26452544
169	0xbe8a2205	-0.2697908
170	0x3e7e9ae9	0.24863781
171	0xbd8ee934	-0.06978074
172	0x3de1ae2c	0.11019549
173	0xbd97b40a	-0.074073866
174	0x3bbb305e	0.005712553
175	0xbe6213ff	-0.2207794
176	0x3eb528ca	0.35382682
177	0x3dc676ea	0.0969065
178	0x3dc01956	0.093798324
179	0xbec6aa56	-0.3880183
180	0xbea3ec25	-0.320161
181	0x3d6d0cd5	0.057873566
182	0x3ddfdd50	0.10930884
183	0x3da38a1e	0.07985328
184	0xbc71ddbf	-0.014762341
185	0xbc1edb4d	-0.00969584
186	0xbe657592	-0.22408131
187	0xbf8535c4	-1.0407033
188	0x3f7d78ad	0.9901226
189	0xbc271553	-0.010197955
190	0x3e9b23a8	0.3030064
191	0xbcb0b1f3	-0.021569228
192	0x3cedabbb	0.029012552
193	0xbda993c2	-0.08280136
194	0x3d91cfb3	0.071196936
195	0x3e20cca4	0.15703064
196	0x3cec13b2	0.028817985
197	0x3db65744	0.08903363
198	0xbcaad044	-0.020851262
199	0xbd6cf8b0	-0.057854354
200	0x3e4d1207	0.20026408
201	0x3f876c92	1.0580008
202	0xbe9aee20	-0.302598
203	0xbe577c53	-0.2104352
204	0xbed0afe3	-0.4075919
205	0x3e759266	0.23981628
206	0xbdcaeea5	-0.09908799
207	0x3d786d0c	0.06065087
208	0xbdf7a752	-0.12092461
209	0xbe890d4b	-0.26767954
210	0x3d54228d	0.051790763
211	0x3dc8f1ac	0.0981172
212	0xbe1ec260	-0.15503836
213	0xc0019b8c	-2.0251188
214	0x3f0c843a	0.5488926
215	0x3bac06be	0.005249827
216	0xbfaff624	-1.3746991
217	0x3e405b8e	0.18784925
218	0x3fb9b6ee	1.4508951
219	0x3df3c946	0.11903624
220	0x3eaebb22	0.34127146
221	0xbdc92a3f	-0.09822511
222	0x3e3d9350	0.18513227
223	0x3d3af18f	0.045640524
224	0x3dab2048	0.083557665
225	0xbec2b681	-0.38029864
226	0xbd88e1fc	-0.06683728
227	0x3e67820a	0.226082
228	0xbe7f38f9	-0.24924077
229	0xbef3247c	-0.47488773
230	0xbdb346bd	-0.08753727
231	0xbde3aeff	-0.11117362
232	0x3dcb1f82	0.09918119
233	0xbe012303	-0.12611012
234	0xbd3c7a75	-0.04601522
235	0xbd04a8c7	-0.03238752
236	0x3da1a018	0.078918636
237	0xbf2bc59a	-0.6709839
238	0x3f94dad2	1.1629279
239	0x3f191e7a	0.5981213
240	0x3e38f731	0.18063046
241	0xbf7fe36d	-0.999564
242	0x3e1a9f5b	0.15099852
243	0x3f8e4129	1.1113635
244	0xbdc8590e	-0.09782611
245	0xbe238e23	-0.1597219
246	0x3deb4217	0.11487215
247	0x3dd3856c	0.103281826
248	0xbd67a024	-0.056549206
249	0xbe36a06a	-0.1783463
250	0xbf7e40e1	-0.9931775
251	0x3eb37d5c	0.3505658
252	0xbf2f9adf	-0.6859569
253	0x3e9cb660	0.3060789
254	0xbf6745a4	-0.9034064
255	0x3eef77fa	0.46771222

actor.0.bias f4 [64]
0	0xbe8c1ccc	-0.2736572
1	0xbedff645	-0.43742576
2	0xbe6841a5	-0.22681291
3	0xbf051d57	-0.51997894
4	0xbdcc326e	-0.09970556
5	0xbe97e9c6	-0.29670542
6	0xbd9ed314	-0.07755104
7	0x3dfe7ab5	0.12425748
8	0xbd46bfe3	-0.04852284
9	0x3e27d4bd	0.16389747
10	0xbd5c8198	-0.053834528
11	0xbe6e564e	-0.2327511
12	0xbe1a2a9a	-0.15055314
13	0xbd7f73ae	-0.06236618
14	0x3cebbfda	0.028778005
15	0xbe173961	-0.14767982
16	0x3d7af122	0.06126512
17	0x3e4c1517	0.1992992
18	0xbdcab552	-0.09897865
19	0xbd929013	-0.07156386
20	0x3d2c8a2e	0.042123966
21	0xbd7d7776	-0.061881505
22	0xbaf75086	-0.0018868602
23	0xbe518c03	-0.20463566
24	0x3d476a8d	0.0486856
25	0xbe4ff927	-0.20309888
26	0x3d55e473	0.05221982
27	0xbbd092b0	-0.0063651428
28	0xbe3532f0	-0.17695212
29	0x3eaf4ac5	0.34236732
30	0xbe1f13af	-0.15534852
31	0xbe974f02	-0.29552466
32	0xbc2efec9	-0.010680863
33	0xbd09c639	-0.033636305
34	0x3ddff961	0.10936237
35	0x3e4a06ea	0.197292
36	0x3d0d4173	0.034486245
37	0xbed1bedb	-0.40965924
38	0x3e1d70b0	0.15375018
39	0xbeb2c611	-0.34916738
40	0xbc55d704	-0.013051752
41	0xbd8d2272	-0.068913355
42	0xbe455487	-0.19270526
43	0x3de86387	0.11347108
44	0x3ca8fc00	0.020627975
45	0xbe6b23bd	-0.22962852
46	0x3db4bbe9	0.088249035
47	0xbd1ef886	-0.03881123
48	0x3c1550d0	0.0091135055
49	0x3e1bb6c2	0.15206435
50	0xbe004692	-0.1252692
51	0xbe549f2a	-0.20763841
52	0xbe724841	-0.23660375
53	0xbe5d5ff5	-0.21618636
54	0x3d34229b	0.043978315
55	0xbe819f3c	-0.253168
56	0x3c12c014	0.008956928
57	0xbe3bbd13	-0.18333845
58	0x3e0e83ed	0.13917513
59	0x3ce02c84	0.027364977
60	0x3e085718	0.13314474
61	0xbd2027fe	-0.03910064
62	0x3e65d096	0.2244285
63	0x3e2eb5e2	0.1706157

actor.2.weight f4 [64, 64]
0	0x3e498676	0.19680199
1	0x3e1fddf4	0.15612012
2	0xbb07cbfe	-0.0020720954
3	0x3e17df62	0.14831308
4	0xbdb99b89	-0.09062869
5	0xbd0d1a26	-0.034448765
6	0xbc65b93d	-0.014021215
7	0x3d6d8bc0	0.057994604
8	0xbdcf22da	-0.10114069
9	0xbe4a6f31	-0.19768979
10	0x3da4d25e	0.08047937
11	0x3d74cb40	0.059764147
12	0xbcef4217	-0.029206319
13	0x3e4bd53b	0.1990556
14	0xbcfa76b7	-0.030574186
15	0x3d04f541	0.032460455
16	0xbe0c8eb3	-0.1372631
17	0xbc761979	-0.015020722
18	0xbd5554d9	-0.05208287
19	0xbda43e82	-0.08019735
20	0x3d595901	0.053063396
21	0xbd690360	-0.056887984
22	0xbe3ec191	-0.18628527
23	0xbd8fe0a1	-0.070252664
24	0xbd05baa6	-0.032648705
25	0xbe1a33b6	-0.15058789
26	0x3c9d3878	0.019191965
27	0x3e38ddf9	0.18053426
28	0x3e1a7761	0.15084602
29	0xbd5b87fd	-0.053596485
30	0x3afa916e	0.0019116828
31	0x3c03c5a7	0.008042729
32	0x3de8fb3d	0.11376045
33	0x3e2d92df	0.16950558
34	0xbdf59dfb	-0.11993023
35	0x3deeb234	0.11655083
36	0x3dca43e8	0.09876233
37	0x3deacbb1	0.11464632
38	0x3e35daae	0.17759201
39	0x3ddeefe2	0.10885598
40	0x3d4f95bc	0.050679907
41	0x3e020fd9	0.12701358
42	0xbc9b7c6c	-0.018980227
43	0xbd78c386	-0.06073334
44	0xbdc2ab69	-0.0950535
45	0x3e2ed843	0.17074685
46	0xbe3180d7	-0.17334305
47	0xbd95d995	-0.07316891
48	0xbe3de0df	-0.18542813
49	0xbe73638e	-0.23768446
50	0x3c775ad0	0.015097335
51	0xbd07e618	-0.03317842
52	0x3e3aee50	0.18254972
53	0x3cdc1dd2	0.026869688
54	0x3da794ff	0.081827156
55	0xbaa4fc7e	-0.0012587456
56	0xbc905e19	-0.017622994
57	0x3d62c573	0.055364083
58	0xbe242bc4	-0.1603232
59	0xbd7d4050	-0.06182891
60	0x3ca829c4	0.020527728
61	0xbc333c61	-0.010939688
62	0xbdfabd73	-0.12243166
63	0x3d870520	0.065927744
64	0xbd532769	-0.051551256
65	0xbdecbd28	-0.11559516
66	0x3e7fc7ef	0.24978612
67	0x3d10b38e	0.035327487
68	0xbe05f5d8	-0.13082063
69	0x3e7206c1	0.23635389
70	0x3dea9ed7	0.114560775
71	0x3e79834c	0.24366492
72	0xbc586f0b	-0.013210068
73	0x3dedfeef	0.1162089
74	0xbe82b75f	-0.25530526
75	0xbca51d97	-0.020155711
76	0x3d6c382b	0.057670753
77	0x3e188b2a	0.14896837
78	0xbdfb41de	-0.122684225
79	0x3cd6a71b	0.026202729
80	0x3ccdfdc5	0.02514542
81	0xbd9f386b	-0.07774433
82	0xbdc93f21	-0.09826494
83	0xbdf41242	-0.11917545
84	0x3e2cf1f0	0.16889167
85	0x3dfb1626	0.12260084
86	0xbe6ba2e2	-0.23011354
87	0x3d29f66d	0.041494776
88	0xbe50025a	-0.20313397
89	0xbb9541f2	-0.0045549804
90	0x3dcb7c27	0.099357896
91	0x3ba88adb	0.005143506
92	0x3d9d0ceb	0.076684795
93	0x3e3d3d0e	0.18480322
94	0xbe3c4ee1	-0.18389465
95	0xbe3502c6	-0.17676839
96	0x3df7780e	0.120834455
97	0x3e16e025	0.14733942
98	0xbdb4fee2	-0.088376775
99	0x3dbb6abe	0.09151219
100	0xbc723016	-0.014781972
101	0x3d2d36c3	0.042288553
102	0x3de8fb47	0.11376052
103	0xbd17d857	-0.037071552
104	0x3b96b333	0.004598999
105	0x3da5f339	0.08103032
106	0x3c574eb2	0.013141321
107	0xbce54124	-0.027985163
108	0x3d799486	0.06093266
109	0x3cb3d60c	0.021952651
110	0xbe25321a	-0.16132393
111	0xbd90341b	-0.07041188
112	0x3eaf6f77	0.34264728
113	0xbe3e9616	-0.1861194
114	0xbd92f68a	-0.0717593
115	0xbdad8628	-0.08472854
116	0x3c7b88c4	0.015352432
117	0xbe9d4409	-0.3071597
118	0xbd5aea14	-0.05344589
119	0x3eca6025	0.39526477
120	0xbbdf8519	-0.0068212864
121	0xbd90b613	-0.07065978
122	0xbdeb4b33	-0.114889525
123	0x3cf211b0	0.02954945
124	0xbec530df	-0.38513848
125	0xbda851a7	-0.08218699
126	0x3ddac2ba	0.106816724
127	0xbde84f22	-0.113432184
128	0x3e355e27	0.17711698
129	0x3f165559	0.5872398
130	0xbe689db9	-0.22716416
131	0x3eac767b	0.33684143
132	0xbe451cea	-0.19249311
133	0xbe307f6a	-0.17236105
134	0x3e023df8	0.12718952
135	0x3db68024	0.0891116
136	0xbe0748c9	-0.13211359
137	0xbde994a3	-0.11405303
138	0xbd0b0d78	-0.03394839
139	0x3e66f3aa	0.22553888
140	0xbe7908be	-0.24319741
141	0x3eaaa1ac	0.3332647
142	0x3e664bbd	0.2248983
143	0x3d812cf7	0.063074045
144	0xbe9f6376	-0.3113057
145	0xbc4f4507	-0.012650735
146	0xbd49262f	-0.04910868
147	0xbde8aa6f	-0.11360633
148	0x3d9a8cd2	0.075463906
149	0xbe05f920	-0.13083315
150	0xbcb7600c	-0.022384666
151	0xbe2cd3ad	-0.16877623
152	0x3e0b4afd	0.13602825
153	0xbc8d535d	-0.017251665
154	0x3eb10c42	0.34579664
155	0x3e5da5c2	0.21645263
156	0x3e5fc0bc	0.21850866
157	0x3ab85972	0.0014064743
158	0xbd8271fa	-0.063693956
159	0x3cc4a13c	0.024002664
160	0x3e7c5316	0.2464107
161	0x3e6031d0	0.21894002
162	0xbce512ef	-0.02796313
163	0xbca8a4a3	-0.020586317
164	0xbd59d025	-0.053177018
165	0x3d6ff91c	0.05858718
166	0x3e8fe027	0.28100702
167	0x3e4e644d	0.20155449
168	0xbe4af567	-0.19820176
169	0x3ef20213	0.47267208
170	0xbe88a5c1	-0.2668896
171	0xbe8c5a4b	-0.27412638
172	0x3d31b5c8	0.04338625
173	0x3e49adea	0.19695249
174	0x3ceab06b	0.028648576
175	0xbdd3a41c	-0.10334036
176	0xbe1c46b1	-0.15261342
177	0xbc10265a	-0.008798206
178	0xbde49119	-0.11160488
179	0xbdd12543	-0.10212185
180	0x3e82451a	0.25443345
181	0xbc1863f2	-0.009301173
182	0x3e040833	0.12893753
183	0x3dee5767	0.116377644
184	0xbd245632	-0.040121265
185	0x3c1af97d	0.009458897
186	0x3e140f70	0.14459014
187	0x3e556433	0.20839004
188	0x3dd77f0f	0.105222814
189	0xbc3587fb	-0.011079784
190	0xbe087801	-0.13327028
191	0xbc36480f	-0.011125579
192	0x3d49f806	0.0493088
193	0x3dcda70d	0.10041628
194	0xbe1b407b	-0.15161316
195	0xbdad5bd1	-0.08464778
196	0x3e0568f5	0.13028319
197	0xbdc5f166	-0.09665184
198	0xbeae5112	-0.34046227
199	0xbe9345ad	-0.28764096
200	0xbe660edb	-0.22466604
201	0xbedf5416	-0.4361884
202	0xbd90a0e8	-0.070619404
203	0xbd9fbd54	-0.07799783
204	0x3e5fa332	0.21839598
205	0x3e4a2d76	0.19743904
206	0xbd8e74ba	-0.069558576
207	0xbd958994	-0.073016316
208	0x3e359c6a	0.17735448
209	0xbd2bc7a7	-0.04193845
210	0x3e12b139	0.14325418
211	0x3ecbfb50	0.39840174
212	0xbda46150	-0.080263734
213	0x38b74f74	8.740919e-05
214	0x3e5727da	0.21011296
215	0xbd2f0bd6	-0.042735897
216	0x3d610950	0.05494052
217	0x3bf7bd16	0.0075603826
218	0xbd6f4e6e	-0.058424406
219	0xbd85a4e6	-0.065255925
220	0xbc61d661	-0.013784022
221	0xbe83dd7b	-0.25754914
222	0x3e513b6c	0.20432824
223	0x3dcaef10	0.09908879
224	0xbdc69297	-0.096959285
225	0x3c9c22e9	0.019059615
226	0xbeae9d77	-0.3410451
227	0x3dbd9756	0.09257381
228	0xbb670cbd	-0.0035255395
229	0xbda34666	-0.07972412
230	0xbce11f76	-0.027480822
231	0x3d1a55ec	0.037679598
232	0x3e3a79d3	0.18210535
233	0x3e2815fc	0.16414636
234	0x3e134dab	0.14385097
235	0x3d006035	0.03134175
236	0x3e0e824a	0.13916889
237	0x3e0d66a8	0.13808692
238	0x3e93686f	0.28790614
239	0x3e579831	0.2105415
240	0xbea48b45	-0.32137504
241	0x3e310292	0.17286137
242	0x3ec33412	0.38125664
243	0xbe403d7d	-0.18773456
244	0x3dc2930c	0.09500703
245	0x3e99a2af	0.3000693
246	0xbe161563	-0.14656596
247	0xbeea3092	-0.4574018
248	0x3dc6ad09	0.097009726
249	0x3dd3cf63	0.1034229
250	0xbe28d5e2	-0.1648784
251	0xbdc2fc9e	-0.09520839
252	0x3f145174	0.5793679
253	0x3d9762d8	0.073919
254	0x3e611431	0.21980359
255	0x3e2e2b7a	0.17008772

actor.2.bias f4 [64]
0	0xbe465370	-0.19367766
1	0x3cce68b3	0.025196409
2	0xbeb828b0	-0.35968542
3	0xbdb58cf4	-0.08864775
4	0x3e2095ec	0.1568219
5	0xbe7c7c81	-0.2465687
6	0xbbb16661	-0.005413816
7	0xbea8be65	-0.3295776
8	0xbe3d875d	-0.18508668
9	0x3e0da16c	0.13831109
10	0xbe64f7a0	-0.22360086
11	0x3e198ffa	0.14996329
12	0xbe1b00a7	-0.15136968
13	0xbd6a97a1	-0.05727351
14	0xbdbb956d	-0.0915936
15	0xbc83fb21	-0.016110959
16	0xbe0b2e77	-0.13591944
17	0x3e2a5bd9	0.166366
18	0xbcd2f818	-0.025753066
19	0xbea3b8e5	-0.31977
20	0x3e7f1923	0.24911933
21	0x3db14e98	0.08657569
22	0xbeacc723	-0.3374568
23	0xbc8f8832	-0.017520998
24	0x3e1e4260	0.15455008
25	0xbdacc16e	-0.08435331
26	0xbe05a257	-0.13050209
27	0x3d75b590	0.059987605
28	0xbda62561	-0.08112598
29	0xbda91a2a	-0.082569435
30	0xbef42d6b	-0.476909
31	0x3dab273c	0.08357093
32	0xbe96bc3f	-0.29440495
33	0x3c5e2e5e	0.0135608595
34	0xbefdc99f	-0.49567887
35	0xbea126f0	-0.3147502
36	0xbba57270	-0.0050490424
37	0xbddd6520	-0.10810304
38	0x3e82b855	0.2553126
39	0xbc63ae81	-0.013896585
40	0x3cd69864	0.026195712
41	0xbdf28485	-0.11841682
42	0xbc3f7c1e	-0.011687307
43	0x3d582277	0.052767243
44	0xbd1d1f0f	-0.038359698
45	0x3d10f985	0.03539421
46	0x3ca7fd3f	0.0205065
47	0xbc60518d	-0.013691318
48	0x3d49c719	0.04926214
49	0xbd38cb7e	-0.04511594
50	0x3e27e848	0.16397202
51	0xbe70a1e5	-0.23499258
52	0xbeaeaeef	-0.3411784
53	0xbcf11099	-0.02942686
54	0xbedb7165	-0.4285995
55	0xbe4d107e	-0.20025823
56	0xbd6d6f7f	-0.05796766
57	0xbe833223	-0.2562419
58	0xbd85c25f	-0.06531214
59	0xbd927615	-0.071514286
60	0xbd3fae36	-0.046797
61	0x3b934e2f	0.004495404
62	0x3d84a88e	0.06477462
63	0xbe5fe758	-0.21865594

actor.4.weight f4 [6, 64]
0	0xbda7b2d7	-0.08188408
1	0x3dc3094b	0.09523257
2	0xbc06857e	-0.008210538
3	0x3d03e12c	0.032197163
4	0xba44fc9e	-0.00075144495
5	0x3e3ec956	0.18631491
6	0xbd8e5b9e	-0.06951068
7	0xbd00db1c	-0.03145896
8	0x3df2e717	0.11860483
9	0x3e1c2595	0.15248711
10	0xbde55887	-0.11198526
11	0x3e1028d8	0.1407808
12	0xbeac891b	-0.33698353
13	0xbe155618	-0.14583623
14	0x3e3b0f7f	0.1826763
15	0x3e06b08c	0.13153285
16	0xbd9bf160	-0.07614398
17	0x3cfd620f	0.030930547
18	0x3c34aeee	0.011028035
19	0x3d9bdc70	0.076104045
20	0xbd2543f8	-0.040348023
21	0x3d33f36c	0.043933317
22	0x3cc78b71	0.024358483
23	0x3de00531	0.1093849
24	0xbdb29726	-0.087202355
25	0x3df1eee3	0.11813142
26	0x3e66732f	0.22504877
27	0x3d24562c	0.040121242
28	0xbdf2ae6a	-0.11849673
29	0xbdd0c4f8	-0.10193819
30	0x3d33b64f	0.043875035
31	0x3e2b7671	0.167444
32	0xbd4138bc	-0.047173247
33	0xbd2858f0	-0.041100442
34	0x3d992a5f	0.07478785
35	0xbe9b7ec2	-0.30370146
36	0xbe829439	-0.2550371
37	0x3db1b4cc	0.086770624
38	0xbca80c09	-0.020513551
39	0xbcca703d	-0.024711723
40	0xbd4cb2ba	-0.049975134
41	0xbdf303bb	-0.11865946
42	0x3e5cf821	0.21579029
43	0x3dc1c292	0.094609395
44	0x3e43601f	0.19079636
45	0x3e17acd0	0.14812016
46	0x3d7ace1c	0.061231717
47	0xbdd8df61	-0.10589481
48	0xbd5b7333	-0.05357666
49	0x3d6d66c0	0.05795932
50	0x3d83507f	0.06411838
51	0xbd911d53	-0.07085671
52	0xbdb4e07d	-0.0883188
53	0x3df1c9c1	0.1180606
54	0xbd9c429f	-0.076298945
55	0xbda5c504	-0.080942184
56	0xbd66ad2b	-0.05631749
57	0xbda988a9	-0.08278019
58	0x3ac5b092	0.0015082529
59	0xbd8e8ce4	-0.069604665
60	0xbdd0ef94	-0.10201946
61	0xbdf81be6	-0.12114696
62	0x3d1ee4ba	0.03879235
63	0x3e4baf4f	0.19891094
64	0xbcfce5bd	-0.030871266
65	0xbe059e9c	-0.13048786
66	0xbd16352e	-0.03667181
67	0x3eb66163	0.35621175
68	0x3d2a0640	0.041509867
69	0x3e2218bf	0.15829752
70	0xbe699075	-0.22809012
71	0x3dd8c1d5	0.105838455
72	0x3d17c2e2	0.03705109
73	0x3cb59e9f	0.022170363
74	0xbdb0b5de	-0.086284384
75	0xbe509888	-0.20370686
76	0xbcba0629	-0.022708016
77	0xbd4d7014	-0.050155714
78	0xbe6e543b	-0.23274319
79	0x3c991052	0.01868454
80	0xbd7240be	-0.059143774
81	0xbe1660f9	-0.1468543
82	0xbd3c68b3	-0.045998286
83	0x3ce853fc	0.02836036
84	0xbd72161e	-0.059103124
85	0xbbb3f3cd	-0.00549171
86	0xbc7e67f6	-0.015527716
87	0x3dbf6752	0.09345879
88	0xbd6f2bfd	-0.05839156
89	0xbe4f6e5e	-0.20256945
90	0xbd2b9e7f	-0.0418992
91	0xbe5fad36	-0.21843418
92	0xbe069457	-0.13142525
93	0xbd83a6f9	-0.06428332
94	0x3dc7330a	0.09726532
95	0x3d8551f6	0.065097734
96	0xbd81ed23	-0.06344058
97	0xbd169ef8	-0.0367727
98	0x3da2594b	0.079271875
99	0xbe233904	-0.15939718
100	0xbdfc00a2	-0.12304808
101	0xbdadcaf0	-0.08485973
102	0x3d47ac17	0.048748102
103	0xbb6a1bed	-0.0035722211
104	0xbe271079	-0.16314878
105	0xbdab87d7	-0.08375519
106	0x3ddb9182	0.10721113
107	0x3e318c78	0.17338741
108	0xbc2983e4	-0.010346387
109	0xbdd40370	-0.10352218
110	0xbe47008a	-0.194338
111	0xbd7804aa	-0.060551323
112	0x3da8854a	0.08228548
113	0x3d1797bd	0.037009943
114	0xbc9fb54a	-0.019495625
115	0xbe0622f5	-0.13099273
116	0x3c707c02	0.014678003
117	0xbe12ae7a	-0.1432437
118	0xbd4031b5	-0.046922404
119	0xbcbc3ed6	-0.022979181
120	0xbd324660	-0.043524146
121	0xbe1e6e06	-0.15471658
122	0x3e7d629b	0.24744646
123	0xbe551fd0	-0.20812917
124	0xbe0f72e1	-0.14008667
125	0xbda5c60e	-0.080944166
126	0xbe21d0c3	-0.15802293
127	0x3e526c83	0.20549206
128	0xbd14deab	-0.036345165
129	0x3c8b7244	0.01702226
130	0x3cc5509f	0.024086295
131	0xbd85fa2a	-0.06541856
132	0x3ddd3073	0.108002566
133	0xbd93adf5	-0.07210914
134	0x3e07e029	0.13269104
135	0xbdc2f225	-0.09518842
136	0x3dd0e349	0.10199601
137	0x3de8fbdc	0.11376163
138	0x3d7fd24a	0.062456407
139	0xbd8eb1cf	-0.06967508
140	0x3d2a2e76	0.041548215
141	0xbe023ae3	-0.12717776
142	0xbe8affcb	-0.2714828
143	0x3d055ecb	0.032561105
144	0xbe8118b4	-0.2521416
145	0x3d29743f	0.041370627
146	0xbe09ae8b	-0.13445489
147	0xbda76436	-0.081734106
148	0x3ddcf93e	0.10789727
149	0xbdfbc393	-0.12293162
150	0x3e05e6c5	0.13076313
151	0xbde34780	-0.11097622
152	0x3c050ffd	0.008121488
153	0xbd84a371	-0.064764865
154	0xbddb0d81	-0.10695935
155	0x3d917d0a	0.071039274
156	0xbe515e52	-0.20446137
157	0xbd97b8de	-0.074083075
158	0xbe7b0395	-0.24513085
159	0x3d15889d	0.036507238
160	0xbdb26c09	-0.08712012
161	0x3d0208f4	0.03174682
162	0xbdbac85f	-0.09120249
163	0x3d8ea644	0.069653064
164	0x3ea95e0f	0.33079574
165	0x3e09d5a7	0.13460408
166	0x3d0d87b1	0.034553234
167	0xbc6b71b5	-0.014370372
168	0x3cef4aa7	0.029210402
169	0xbd22583e	-0.039634936
170	0x3d892785	0.06696991
171	0x3e0a7f71	0.13525178
172	0x3e690d2f	0.22758935
173	0x3c2553b0	0.010090753
174	0x3d933350	0.071875215
175	0xbcbe838a	-0.023256082
176	0x3e1ff8ad	0.15622206
177	0x3e0a77c5	0.13522251
178	0x3d699ae6	0.05703249
179	0xbd72ba55	-0.05925973
180	0xbe06cfca	-0.13165203
181	0x3d89a9c9	0.06721837
182	0x3d2d978c	0.042380854
183	0xbd8c7c70	-0.06859672
184	0xbd3fdf9a	-0.046844102
185	0xbdf8e85c	-0.12153694
186	0xbdf574f0	-0.11985195
187	0xbda7e6dc	-0.0819833
188	0xbdf850f7	-0.12124818
189	0xbdbe2338	-0.09284061
190	0xbd94e702	-0.07270624
191	0x3e1bcf04	0.15215689
192	0xbdf5366c	-0.11973271
193	0x3d0e1eb8	0.034697264
194	0xbeb20fde	-0.3477773
195	0xbb48f214	-0.0030661868
196	0x3e23048e	0.15919706
197	0xbe22c89d	-0.1589684
198	0xbd899fb1	-0.06719912
199	0xbeb83f9a	-0.35986024
200	0xbd88deca	-0.06683119
201	0x3db69321	0.08914781
202	0xbd9f9478	-0.0779199
203	0x3d710837	0.058845725
204	0xbd600b69	-0.05469838
205	0xbe06bc34	-0.13157731
206	0x3d83ca7b	0.064351045
207	0x3e2b5387	0.16731082
208	0xbe071218	-0.13190496
209	0xbde07766	-0.109602734
210	0x3c0f320a	0.008739958
211	0xbeacd167	-0.3375351
212	0x3e5bea0b	0.21475999
213	0x3d716eaa	0.058943428
214	0xbe4dcbd6	-0.20097288
215	0x3dbda5c3	0.09260132
216	0x3d8bd911	0.068285115
217	0xbd903a87	-0.07042413
218	0x3d4a664c	0.049413964
219	0xbb1dbf02	-0.0024070148
220	0xbda895af	-0.08231675
221	0xbc36b8d9	-0.01115247
222	0xbec25340	-0.3795414
223	0x3dde1358	0.10843533
224	0xbe5931c0	-0.21210384
225	0x3d16d3a7	0.03682294
226	0xbe97fa13	-0.2968298
227	0xbd7bf1b9	-0.06150982
228	0x3d0d9df3	0.03457446
229	0xbd3afb96	-0.045650087
230	0x3e5ac5a2	0.21364453
231	0xbe124615	-0.14284547
232	0x3e875c11	0.2643743
233	0xbd91c0c8	-0.07116848
234	0x3e018e8c	0.12652034
235	0x3d842c56	0.06453769
236	0xbd0e0fd5	-0.034683067
237	0xbdb2911e	-0.08719085
238	0xbd4c9dc3	-0.04995514
239	0xbc037c6a	-0.008025268
240	0x3d5cca6c	0.053903982
241	0x3d86a0ca	0.06573637
242	0xbda42819	-0.080154605
243	0xbdd780e4	-0.10522631
244	0xbe8d451b	-0.27591786
245	0x3c84f44a	0.016229767
246	0xbe78adbc	-0.24285024
247	0xbe198abf	-0.14994334
248	0xbe05fd9c	-0.13085026
249	0xbe27bfff	-0.16381834
250	0x3d9e0ea3	0.077176355
251	0x3e006824	0.12539726
252	0x3d3f3543	0.046681654
253	0xbd323c2d	-0.04351442
254	0x3dcae140	0.09906244
255	0xbd11d891	-0.035606924

actor.4.bias f4 [6]
0	0xbe502d2f	-0.20329736
1	0xbc6e64a7	-0.014550365
2	0x3dee5907	0.11638074
3	0x3e9f881f	0.3115854
4	0x3d922fd9	0.071380325
5	0x3e84fa17	0.25972053

critic.0.weight f4 [64, 25]
0	0x3e35b14a	0.17743412
1	0x3d98f3b5	0.074683584
2	0x3daa3908	0.08311659
3	0xbe0ae816	-0.13565096
4	0x3da07515	0.078348316
5	0xbdb487ae	-0.08814941
6	0xbcb9045f	-0.022585092
7	0xbd78ee58	-0.060774177
8	0x3d0ac30f	0.03387743
9	0xbd8c1593	-0.068400525
10	0x3d121ef9	0.03567407
11	0xbd4483f4	-0.047977403
12	0xbd239ab8	-0.039942473
13	0x3e3d1cb0	0.18467975
14	0xbe431ffb	-0.19055168
15	0xbe10d1a3	-0.1414247
16	0x3f72e397	0.94878525
17	0xbcc95315	-0.02457575
18	0xbf5d2366	-0.8638214
19	0x3d516bb3	0.0511281
20	0xbd307e74	-0.043089345
21	0xbe0da38d	-0.13831921
22	0x3d78e9a6	0.0607697
23	0xbda3e14d	-0.08001957
24	0x3d668c4f	0.056286152
25	0x3e945c01	0.28976443
26	0xbe174445	-0.14772137
27	0xbe7a1aab	-0.24424236
28	0xbe489ad3	-0.19590311
29	0xbddd3de2	-0.10802819
30	0x3b0b8847	0.0021290944
31	0x3df7b9aa	0.120959595
32	0x3e53478a	0.20632759
33	0xbe2fbbc3	-0.17161469
34	0xbe07f09f	-0.13275383
35	0xbd41db8a	-0.04732851
36	0x3e107c6e	0.14109966
37	0xbe007d9f	-0.1254792
38	0x3eec4f2e	0.4615416
39	0xbd65d09b	-0.056107145
40	0x3d1160de	0.03549277
41	0x3df12023	0.11773708
42	0x3c07d50c	0.00829054
43	0xbe89d826	-0.2692272
44	0xbd940d79	-0.07229132
45	0xbdcbc41f	-0.099495165
46	0x3dd2f31f	0.10300278
47	0xbd8be553	-0.068308495
48	0xbe14cdd0	-0.14531636
49	0x3de20518	0.11036128
50	0xbe24b246	-0.16083631
51	0xbc3af3d1	-0.011410669
52	0xbc3df938	-0.011595063
53	0x3d7bb71c	0.061453924
54	0x3d964bbb	0.07338663
55	0x3e326e70	0.17424941
56	0x3bc160c9	0.0059014303
57	0x3d74a636	0.059728824
58	0x3c7e2dc4	0.015513841
59	0xbd247fc4	-0.04016091
60	0xbd8e7841	-0.0695653
61	0x3d35a81d	0.04434978
62	0x3e8664c7	0.26248762
63	0xbf2f8b0a	-0.6857153
64	0xbe6865ff	-0.22695158
65	0x3e5bff72	0.21484163
66	0xbeb99464	-0.36246026
67	0xbdcd8bac	-0.10036406
68	0x3dee9791	0.11650003
69	0xbd8d39f2	-0.06895818
70	0xbd474d5d	-0.048657764
71	0x3dbcd726	0.09220724
72	0xbd1e6679	-0.038671944
73	0x3d04f0c5	0.03245618
74	0xbd03a8ff	-0.03214359
75	0xbe808acd	-0.25105897
76	0x3a0f59ae	0.00054683804
77	0x3cb06de8	0.021536782
78	0x3e09d861	0.13461448
79	0xbe5c02dc	-0.21485466
80	0xbdea54d5	-0.11441962
81	0x3e483e82	0.19555095
82	0xbe90c444	-0.2827474
83	0x3e0d1f79	0.13781537
84	0xbe0303da	-0.12794438
85	0x3dbe2d00	0.09285927
86	0x3d392730	0.045203388
87	0x3e86f435	0.2635819
88	0xbece42c6	-0.4028532
89	0x3e3dce7e	0.18535802
90	0xbe3d2e04	-0.18474585
91	0x3d82d5a5	0.06388406
92	0x3e2976c7	0.16549216
93	0x3ddc5062	0.10757519
94	0x3d6848e9	0.056710158
95	0x3e43e049	0.19128527
96	0x3d7cc1b2	0.06170816
97	0x3deb648e	0.11493789
98	0xbdc862d0	-0.09784472
99	0xbdebff32	-0.11523284
100	0x3e46083a	0.19339076
101	0xbd935fde	-0.071960196
102	0x3e58ccb8	0.21171844
103	0xbe56ec53	-0.20988588
104	0xbda8c498	-0.08240622
105	0xbe498b04	-0.19681937
106	0x3dd33cd2	0.10314335
107	0x3d965d25	0.07341985
108	0xbcbe6430	-0.023241132
109	0xbddf4d6c	-0.10903439
110	0x3bbde597	0.0057951915
111	0xbd886e01	-0.066616066
112	0xbe1a4c44	-0.15068156
113	0x3f82794c	1.0193267
114	0x3ed23df1	0.41062883
115	0x3d6d52bd	0.057940233
116	0x3e5cdce0	0.21568632
117	0x3d24d0f2	0.04023833
118	0xbe1533fe	-0.14570615
119	0xbdce1b47	-0.100637965
120	0x3e2809ae	0.16409943
121	0x3d4f02b7	0.0505397
122	0x3e03edaa	0.1288363
123	0x3cca88c6	0.024723422
124	0xbcd3674f	-0.025806097
125	0xbec841a5	-0.39112583
126	0xbe12965c	-0.1431517
127	0x3d370b5d	0.04468857
128	0xbcc43979	-0.023953186
129	0x3cbdf31e	0.023187216
130	0x3e529690	0.20565248
131	0xbdaf2f24	-0.08553913
132	0x3d9325e3	0.07184961
133	0x3d2c25b3	0.04202814
134	0xbd827422	-0.06369807
135	0xbd9f6843	-0.07783558
136	0xbcc97471	-0.024591656
137	0xbce97037	-0.028495891
138	0xbea72831	-0.3264785
139	0xbe859c44	-0.26095784
140	0xbdc19239	-0.09451718
141	0xbf0c607c	-0.54834723
142	0x3d26aa0d	0.040689517
143	0x3ee3c8f1	0.44489244
144	0xbd50eb20	-0.051005483
145	0x3d61d97a	0.055139042
146	0x3d876429	0.06610901
147	0xbbfeef82	-0.0077800164
148	0x3ce89794	0.02839259
149	0xbce60d02	-0.028082374
150	0x3e2ab65c	0.16671127
151	0x3e483155	0.19550069
152	0xbe0caba1	-0.13737346
153	0xbd78c019	-0.060730074
154	0x3e0638fb	0.13107674
155	0x3d3c8ff0	0.046035707
156	0xbdc76733	-0.097364806
157	0x3d9012ed	0.0703486
158	0x3a6bf7da	0.00090014713
159	0xbd961872	-0.07328881
160	0x3d8742be	0.06604527
161	0x3e0537d2	0.13009575
162	0xbe0e45f0	-0.13893867
163	0x3f0f114b	0.5588576
164	0x3e31c885	0.17361648
165	0x3b972e6e	0.004613689
166	0x3f085be3	0.5326521
167	0xbe136651	-0.143945
168	0xbeb68397	-0.3564727
169	0x3d336e77	0.04380652
170	0x3d0f593c	0.03499721
171	0x3d828137	0.06372302
172	0x3d8f209c	0.069886416
173	0x3d185a65	0.037195582
174	0xbdeff05a	-0.11715765
175	0xbe85bc88	-0.261204
176	0xbe23addd	-0.15984292
177	0xbe9d91b1	-0.30775216
178	0x3de99be5	0.11406688
179	0x3e17c340	0.14820576
180	0x3d062bb1	0.03275651
181	0x3b575531	0.0032857175
182	0xbd74ab61	-0.059733752
183	0x3cf4bea7	0.029876066
184	0x3e31f9e6	0.17380485
185	0x3d5e4ac9	0.05427054
186	0xbc8635c7	-0.016383065
187	0x3d45ef86	0.04832413
188	0x3f712f85	0.94213134
189	0xbee6cffa	-0.4508055
190	0x3e44f3b7	0.19233595
191	0x3e26eb67	0.16300736
192	0xbe02a8aa	-0.12759653
193	0xbe51de94	-0.20495063
194	0xbe34965a	-0.1763548
195	0xbda95356	-0.08267848
196	0x3d31890e	0.043343596
197	0x3d9043dc	0.07044193
198	0xbd8733e8	-0.06601697
199	0xbdc12c4d	-0.09432278
200	0x3e6407d9	0.22268619
201	0xbe496902	-0.19668964
202	0x3d3ffcef	0.046872076
203	0xbdd8bb31	-0.10582579
204	0x3d6fb2f0	0.058520257
205	0xbd7cd289	-0.06172422
206	0x3d40d265	0.047075648
207	0xbde74da5	-0.112941064
208	0x3dcadb06	0.09905057
209	0xbe23f3f1	-0.16011025
210	0x3db6c161	0.08923603
211	0xbce3ee86	-0.027823698
212	0xbc5ff018	-0.013668083
213	0xbe4e4902	-0.20145038
214	0xbeb248d4	-0.34821188
215	0xbe0c4560	-0.1369834
216	0x3e11f4d4	0.14253551
217	0x3dfa7e84	0.12231162
218	0x3cb518b3	0.022106504
219	0xbcfe1965	-0.031017968
220	0x3dc8fc15	0.09813706
221	0xbdf720e7	-0.120668225
222	0x3e1bd57f	0.15218161
223	0xbe436072	-0.1907976
224	0x3d9c65d0	0.07636607
225	0xbe3d1b57	-0.1846746
226	0xbe0947ea	-0.1340634
227	0x3d53bc49	0.051693235
228	0xbddd4f14	-0.108060986
229	0x3da0c90b	0.07850846
230	0xbdf3c455	-0.11902682
231	0xbb9c1eac	-0.0047643986
232	0x3c7e9c9a	0.015540266
233	0x3d8a63aa	0.06757291
234	0xbd4e61c7	-0.050386216
235	0x3c41c81c	0.011827495
236	0xbba9ff5e	-0.005187913
237	0x3eb59b24	0.35469925
238	0x4093de84	4.6209126
239	0xbf492832	-0.7857696
240	0xbe815f20	-0.25267887
241	0x3f287986	0.6581043
242	0xbe86a1ce	-0.26295322
243	0xbf065aff	-0.524826
244	0xbd8a3907	-0.06749158
245	0x3caf2d54	0.021383919
246	0x3c9dba31	0.019253822
247	0x3d77a888	0.06046346
248	0xbc7456bc	-0.014913257
249	0x3ca737c1	0.020412328
250	0x3e056c00	0.1302948
251	0xbde09194	-0.10965267
252	0xbe428de9	-0.18999447
253	0xbdafafe0	-0.08578467
254	0x3daea576	0.08527653
255	0x3ce6293e	0.028095838

critic.0.bias f4 [64]
0	0x3e391d06	0.18077478
1	0x3e738887	0.2378255
2	0xbe1bb33a	-0.15205088
3	0xbbcbaca4	-0.0062156487
4	0x3cacf1fc	0.02111148
5	0xbe33772e	-0.17525932
6	0x3e12b7eb	0.14327972
7	0xbe028214	-0.12744933
8	0xbc69b9c5	-0.014265482
9	0x3d9e965a	0.07743521
10	0x3e14d507	0.14534388
11	0x3da51c27	0.0806201
12	0xbe2af1a6	-0.16693744
13	0xbd2245be	-0.039617293
14	0x3d333f82	0.043761738
15	0xbcb9fe89	-0.02270438
16	0xbe4436de	-0.19161555
17	0x3d275098	0.040848345
18	0x3c9a1ddb	0.018813064
19	0x3da94858	0.082657516
20	0x3e2f1d95	0.17101128
21	0x3da391b0	0.07986772
22	0x3d9ef651	0.07761825
23	0x3e201599	0.15633239
24	0xba286772	-0.0006424106
25	0xbc759f3b	-0.014991577
26	0xbd6ce622	-0.05783666
27	0xbc5d611e	-0.013511924
28	0x3d984682	0.07435323
29	0x3e254d6c	0.16142815
30	0x3c6f50d9	0.014606678
31	0xbdd92433	-0.106026076
32	0xbc6bf4ae	-0.014401598
33	0xbdd9ad4c	-0.10628757
34	0x3e836fb5	0.25671163
35	0xbdbb898b	-0.091570936
36	0x3d404764	0.046943083
37	0xbdd4a610	-0.103832364
38	0xbcee1072	-0.029060576
39	0x3e00a4d5	0.12562878
40	0xbe29245b	-0.16517775
41	0xbe1da7a5	-0.15395983
42	0xbd8f2f3a	-0.069914296
43	0x3e0601d4	0.13086635
44	0xbc91783a	-0.017757524
45	0x3c04d0c6	0.008106416
46	0xbe088032	-0.13330153
47	0x3deefc7a	0.1166925
48	0x3c31aeed	0.010844928
49	0x3e1cf319	0.1532711
50	0x3ce5dbce	0.028058913
51	0xbc29b6c6	-0.010358518
52	0xbdb19550	-0.08671057
53	0xbddaf8d0	-0.106919885
54	0x3e31fb82	0.17381099
55	0x3d2a50ba	0.041580893
56	0xbdef3aeb	-0.116811596
57	0x3daeb8c1	0.08531333
58	0xbe099856	-0.13437018
59	0x3dd39aee	0.10332285
60	0xbe172a84	-0.14762312
61	0x3a796c08	0.0009514694
62	0x3bc2b6af	0.0059421877
63	0x3d180e46	0.037122987

critic.2.weight f4 [64, 64]
0	0xbdd822dc	-0.10553524
1	0xbcff0192	-0.031128678
2	0xbe4cfcd9	-0.20018329
3	0x3d31ebea	0.043437876
4	0x3d5c1294	0.053728655
5	0xbe1527c1	-0.14565946
6	0x3d9b8274	0.07593241
7	0x3d6e3510	0.058156073
8	0xbc1fe3d3	-0.009758907
9	0xbe00a819	-0.12564124
10	0x3dc053aa	0.09390958
11	0x3c9da2f9	0.01924275
12	0xbd1ecc29	-0.03876892
13	0x3de15401	0.110023506
14	0xbc550618	-0.013001941
15	0xbdba2abf	-0.090901844
16	0xbd69b3ca	-0.057056226
17	0xbd209907	-0.03920844
18	0xbc99dbd2	-0.018781576
19	0xbd8206cc	-0.06348953
20	0x3dc5eabd	0.096639134
21	0x3e0f1197	0.13971554
22	0x3dc328fb	0.09529301
23	0x3c1d076b	0.009584288
24	0x3cd603b8	0.02612482
25	0x3d231079	0.03981063
26	0x3db87ccd	0.09008179
27	0x3d0b7567	0.03404751
28	0xbdb85228	-0.09000045
29	0x3d27f956	0.04100927
30	0x3d7431f7	0.059617963
31	0xbdddeee1	-0.10836578
32	0x3e011ef7	0.12609468
33	0x3dbd7cf9	0.09252352
34	0xbd015e27	-0.03158393
35	0x3d88475b	0.06654235
36	0xbe035b20	-0.1282773
37	0x3d543430	0.051807582
38	0xbc808726	-0.015689444
39	0x3dc2545a	0.09488745
40	0xbe3ba901	-0.18326189
41	0xbc84a960	-0.016194046
42	0xbd845aa8	-0.06462604
43	0xbdccbb4d	-0.09996662
44	0x3d0b6555	0.034032185
45	0xbe1cc16b	-0.15308158
46	0x3c3761f9	0.011192792
47	0x3e026559	0.12733974
48	0xbc8cc82d	-0.017185295
49	0x3db7d4dd	0.08976147
50	0x3dfa3479	0.122170396
51	0xbc97342c	-0.018457495
52	0x3db2b693	0.087262295
53	0x3de802f2	0.11328687
54	0xbd478641	-0.04871202
55	0xbc94cd78	-0.018164381
56	0x3be46ccb	0.006970977
57	0xbd880161	-0.06640888
58	0x3d8b7ce6	0.06810932
59	0xbda66fff	-0.0812683
60	0x3c06ef70	0.008235797
61	0x3dcdb4b2	0.100442305
62	0xbccfefe9	-0.025382953
63	0x3ca0993a	0.019604314
64	0xbc8887f1	-0.016666384
65	0x3d241e05	0.04006769
66	0x3ccc793d	0.024960155
67	0xbb4b2c53	-0.003100176
68	0xbd87afa2	-0.06625296
69	0x3e1a06b2	0.15041617
70	0xbd05678b	-0.03256945
71	0xbd367320	-0.044543386
72	0xbd6ab2b4	-0.05729933
73	0x3d4180b4	0.04724188
74	0x3e2a58a9	0.16635384
75	0xbdb2fe11	-0.087398656
76	0x3dbae4fe	0.09125708
77	0xbd239762	-0.03993929
78	0x3c8c37c3	0.017116433
79	0xbd871442	-0.06595661
80	0x3d0ccab4	0.034373
81	0x3d87bc8d	0.0662776
82	0x3dc69a3b	0.09697386
83	0xbd3d2425	-0.04617705
84	0xbc0eefec	-0.008724194
85	0x3d8e3e91	0.06945527
86	0xbd26722f	-0.040636238
87	0x3e07be77	0.1325625
88	0x3e24f4c4	0.16108996
89	0x3ddd983b	0.10820051
90	0xbde9543d	-0.1139302
91	0x3d26ff6b	0.04077093
92	0xbda797a5	-0.08183221
93	0x3df5bd4e	0.11998998
94	0xbd909374	-0.070593745
95	0x3df2f1ba	0.11862512
96	0x3bb46dc8	0.005506251
97	0xbdff1cca	-0.12456663
98	0xbd39bb7f	-0.045344826
99	0xbdd835c8	-0.10557133
100	0xbde88d7e	-0.113551125
101	0x3d451d3b	0.04812358
102	0xbd8c3bb2	-0.068473235
103	0xbd3c6b77	-0.046000924
104	0xbcadb432	-0.021204088
105	0x3d66101b	0.056167703
106	0x3d928ee9	0.07156164
107	0x3c943bf3	0.018094992
108	0xbb7ec1a4	-0.0038872743
109	0xbc059fca	-0.008155772
110	0xbc21723b	-0.009853895
111	0xbdaa8eaf	-0.08327996
112	0xbe26fbfc	-0.16307062
113	0xbd6518da	-0.055931903
114	0xbb03abb0	-0.0020091347
115	0x3db0bb9a	0.08629532
116	0x3dd00b92	0.10158457
117	0xbc7b4610	-0.015336528
118	0xbdffe075	-0.12493984
119	0xbdd85481	-0.10562993
120	0x3df9d730	0.12199247
121	0x3ce2bee4	0.027678914
122	0x3deda39e	0.11603473
123	0xbdb95f07	-0.09051328
124	0xbe179a1b	-0.1480488
125	0x3dabbe12	0.083858624
126	0xbda4d4d2	-0.08048405
127	0x3d657907	0.056023624
128	0x3dd4cc1e	0.10390495
129	0xbccd252a	-0.025042135
130	0xbda4d3d4	-0.080482155
131	0x3c80ab63	0.015706724
132	0xbd467498	-0.048451036
133	0x3ba2bf53	0.0049666553
134	0xbdb6f9c1	-0.089343555
135	0x3db85fd6	0.09002654
136	0xbd0ff8d5	-0.035149414
137	0x3b67c833	0.003536713
138	0xbca2ad2d	-0.019857967
139	0x3c184656	0.009294113
140	0xbe046fac	-0.12933224
141	0xbd2fb7cb	-0.042899888
142	0x3d61d01d	0.055130113
143	0xbd860d3d	-0.06545494
144	0x3ddefdfc	0.108882874
145	0x3ba67f7f	0.0050811167
146	0x3d3ac0ac	0.045593902
147	0xbdff274a	-0.12458666
148	0xbd121581	-0.03566504
149	0x3e1933ce	0.14961168
150	0x3bafd82c	0.005366346
151	0x3cec148c	0.028818391
152	0x3df36422	0.11884333
153	0x3d5a0aa8	0.05323282
154	0xbd9ef5da	-0.07761736
155	0x3b800b0b	0.0039075664
156	0xbccb4cc2	-0.024816874
157	0x3ddb24d0	0.10700381
158	0x3d4f047c	0.050541386
159	0x3dc585b7	0.09644645
160	0x3d079507	0.033101108
161	0xbd6a8211	-0.057252947
162	0x3b84ce7c	0.004052935
163	0xbdd0d85a	-0.10197516
164	0x3e0b13f8	0.13581836
165	0xbc98023c	-0.018555753
166	0x3d495dae	0.049161606
167	0x3d9c951d	0.076456286
168	0xbcc0edc7	-0.023550881
169	0x3dcae569	0.09907038
170	0xbaeba889	-0.0017979305
171	0x3c091070	0.008365735
172	0x3d6e0370	0.058108747
173	0xbd8f1e44	-0.069881946
174	0x3d9675ab	0.07346662
175	0xbd8bbeb3	-0.06823482
176	0xbe2332dc	-0.1593737
177	0x3dc5357c	0.09629342
178	0xbd9e9507	-0.077432685
179	0x3dc30fe9	0.09524519
180	0x3b02cbcc	0.0019957898
181	0xbc85d869	-0.016338544
182	0x3d8ce948	0.06880432
183	0x3dec8fd1	0.11550868
184	0xbcfde1dd	-0.030991489
185	0x3d9ed751	0.07755912
186	0x3e07387e	0.13205144
187	0xbc9f60ad	-0.019455278
188	0x3d880f11	0.06643499
189	0xbdee325b	-0.11630698
190	0xbd8b25bd	-0.067943074
191	0x3e05e390	0.1307509
192	0x3d85f5e4	0.065410405
193	0xbb47d9ad	-0.0030494735
194	0x3dac33d5	0.08408324
195	0xbd0d2416	-0.034458242
196	0x3de0621e	0.10956214
197	0x3e0ab4b7	0.135455
198	0x3c8d4abb	0.017247548
199	0x3dcba138	0.099428594
200	0xbd29b2f2	-0.04143042
201	0xbcc5af19	-0.024131345
202	0xbe1ec3ac	-0.1550433
203	0xbdc8b627	-0.09800368
204	0x3d93faf4	0.072256
205	0xbdac82ca	-0.084233835
206	0xbc97c8b7	-0.018528325
207	0xbd85e9ff	-0.06538772
208	0x3de9a1d0	0.114078164
209	0x3cbf6ade	0.023366388
210	0xbccb7843	-0.024837619
211	0xbd8849c5	-0.066546954
212	0xbc76010c	-0.015014898
213	0xbd203ebd	-0.039122332
214	0xbe06dd5a	-0.13170376
215	0xbde8c3ca	-0.11365469
216	0xbda2b7cd	-0.079452135
217	0x3dbb5911	0.091478474
218	0x3d1910c0	0.03736949
219	0x3d63cbb6	0.055614196
220	0x3daa563b	0.083172284
221	0xbdf4393b	-0.11924978
222	0x3ce74b99	0.02823429
223	0xbd932f70	-0.07186782
224	0x3d82033d	0.06348274
225	0xbc7095ae	-0.014684124
226	0x3da198b6	0.078904554
227	0xbc9205f1	-0.017825099
228	0xbdbdd6f9	-0.092695184
229	0x3cbdc42a	0.023164827
230	0xbc9d3415	-0.019189874
231	0x3deb4f4c	0.11489734
232	0xbe0f5b9f	-0.13999794
233	0xbcdd4b3d	-0.027013415
234	0xbda389d3	-0.07985272
235	0x3dda202a	0.10650666
236	0xb92db702	-0.00016566741
237	0xbda68b64	-0.081320554
238	0x3d582080	0.05276537
239	0x3db255a0	0.08707738
240	0xbdcc059c	-0.099620074
241	0x3d31c235	0.0433981
242	0xbdda1f49	-0.106504984
243	0xbde8138e	-0.11331855
244	0x3de98a94	0.11403385
245	0x3dd13aba	0.10216279
246	0x3da38222	0.07983805
247	0xbda7ecba	-0.08199449
248	0xbc814e38	-0.015784368
249	0xbd2f2a78	-0.04276511
250	0xbd8df646	-0.069317386
251	0xbcdd72c9	-0.027032273
252	0xbcc320be	-0.023819324
253	0xbc83f760	-0.016109169
254	0xbc91606a	-0.01774617
255	0xbb8a3c25	-0.0042185956

critic.2.bias f4 [64]
0	0xbd86f59d	-0.06589816
1	0x3cdd39ad	0.027005041
2	0xbdebd7ab	-0.11515745
3	0xbd0bbfbb	-0.034118395
4	0xbda69bde	-0.08135198
5	0xbd856cd1	-0.06514896
6	0x3d8f89f8	0.07008737
7	0xbdc59752	-0.09648003
8	0xbd88e301	-0.066839226
9	0x3d8af7af	0.06785523
10	0xbdeb08e6	-0.114763066
11	0xbd186c9c	-0.037212953
12	0x3c7562f6	0.014977207
13	0xbd5c8e0c	-0.053846404
14	0x3d7aa8c3	0.0611961
15	0xbe4c1758	-0.1993078
16	0xbd562607	-0.05228236
17	0x3d5f899f	0.054574605
18	0x3d3d9c87	0.046291854
19	0x3ce768f6	0.028248291
20	0xbda50a2e	-0.08058582
21	0xbd31374b	-0.043265622
22	0xbe1a5205	-0.1507035
23	0xbd854e4c	-0.065090746
24	0x3d20d486	0.03926518
25	0xbdb7aeb9	-0.089688726
26	0x3d2c057d	0.04199742
27	0xbd9bde03	-0.07610705
28	0x3e109219	0.14118232
29	0x3cc65b67	0.024213506
30	0x3c564180	0.01307714
31	0xbdab497e	-0.08363627
32	0x3dfc80c3	0.12329247
33	0xbdbd73cc	-0.09250602
34	0x3d8c5bba	0.06853433
35	0x3cb9eeac	0.022696815
36	0xbc1b921d	-0.009495285
37	0xbc6a50be	-0.014301477
38	0x3d962d06	0.07332806
39	0x3df441ea	0.119266346
40	0xbe0ae292	-0.13562992
41	0x3d2826c9	0.041052613
42	0xbc6b699c	-0.014368441
43	0xbdde9e49	-0.10870034
44	0xbdbd1beb	-0.092338406
45	0xbdef3d87	-0.11681657
46	0x3de5bb44	0.11217359
47	0xbe03716c	-0.12836236
48	0xbcc52874	-0.024067141
49	0xbdf8b096	-0.12143056
50	0x3b2804e2	0.0025637676
51	0xbd124965	-0.035714526
52	0x3d167e95	0.03674181
53	0xbd8534a3	-0.0650418
54	0xbdff7b2a	-0.124746636
55	0xbd3897dd	-0.045066703
56	0xbdb19b01	-0.08672143
57	0x3b95600e	0.0045585698
58	0xbcd36a7f	-0.025807617
59	0xbe284370	-0.16431975
60	0x3d4cadf1	0.04997057
61	0x3d050e6e	0.032484464
62	0x3d714943	0.05890776
63	0x3c369c75	0.011145701

critic.4.weight f4 [1, 64]
0	0x3d809701	0.06278802
1	0x3d0640ef	0.03277677
2	0x3cfa55e7	0.03055854
3	0x3be6471c	0.00702752
4	0xbde2d5ec	-0.110759586
5	0xbd5fe270	-0.054659307
6	0x3dbd620d	0.09247217
7	0xbd2b5909	-0.041832957
8	0xbd5c42e5	-0.053774733
9	0x3be5cffe	0.00701332
10	0x3d4f5859	0.050621364
11	0x3c0813d3	0.008305508
12	0xbc9f6b70	-0.01946041
13	0xbcc7f380	-0.024408102
14	0xbdcc35a4	-0.09971169
15	0x3df74b7f	0.120749466
16	0xbd985bcd	-0.074393846
17	0x3b71b8fb	0.0036883939
18	0x3dd9dd79	0.10637946
19	0xbd3f9d70	-0.046781003
20	0xbd6414e6	-0.055683993
21	0xbd7a5576	-0.06111666
22	0xbcf3da4e	-0.029767182
23	0xbd07c601	-0.033147816
24	0xbc232c4f	-0.009959294
25	0xbd811acc	-0.06303939
26	0xbcb6fd1c	-0.022337489
27	0x3b719d98	0.0036867615
28	0xbd83cde4	-0.06435755
29	0xbd86ebf8	-0.06587976
30	0x3c7cb856	0.0154248085
31	0xbe0a1d13	-0.13487653
32	0xbd4a5215	-0.049394686
33	0x3c2dbec1	0.010604561
34	0x3ce68532	0.028139684
35	0xbda221d7	-0.07916611
36	0xbc521279	-0.012821787
37	0x3d4f90d5	0.050675232
38	0x3d248533	0.04016609
39	0xbc87406e	-0.016510215
40	0xbc8db7ba	-0.017299522
41	0xbdc2fed2	-0.09521259
42	0xbdd17852	-0.102280274
43	0xbe1c5fb7	-0.15270887
44	0x3e3a490b	0.18191926
45	0xbd87c094	-0.06628528
46	0xbd21d3ca	-0.03950862
47	0xbd8ccc2c	-0.0687488
48	0x3d3f56ec	0.046713755
49	0x3d97c2ea	0.07410224
50	0xbbe7c327	-0.0070728245
51	0xbd0cccd8	-0.03437504
52	0xbd41356b	-0.047170084
53	0xbd4af10f	-0.049546298
54	0xbd9aec8e	-0.075646505
55	0x3dc4733e	0.09592293
56	0xbd957d86	-0.07299332
57	0x3d759242	0.059953935
58	0x3d4fc34f	0.05072337
59	0x3a1f47f2	0.00060760893
60	0x3d73c868	0.059517294
61	0xbc2cdd80	-0.010550857
62	0x3d8329a5	0.064044274
63	0xbda39cc8	-0.07988888

exp_avg f4 [6]
0	0x39ee531e	0.00045456825
1	0xb908478a	-0.00012996621
2	0x3b590068	0.0033111814
3	0x39f75999	0.00047178267
4	0x3a46b3e4	0.00075799064
5	0x3b88faee	0.004180304

exp_avg_sq f4 [6]
0	0x3565c17a	8.5590693e-07
1	0x379e0a64	1.8839906e-05
2	0x3a8fbc90	0.001096623
3	0x36259969	2.4676212e-06
4	0x368ba1be	4.161352e-06
5	0x393b0326	0.00017834883

exp_avg f4 [64, 25]
0	0x35c46e59	1.4635253e-06
1	0x36f0cba3	7.176264e-06
2	0xb7750f54	-1.4606707e-05
3	0xb7b42b0e	-2.1477721e-05
4	0x37c4481f	2.3398605e-05
5	0xb83abc69	-4.4521326e-05
6	0x35f24d7c	1.8052956e-06
7	0xb78a45eb	-1.648344e-05
8	0x3795a51b	1.7839067e-05
9	0x37faf728	2.9917413e-05
10	0x371a1062	9.18293e-06
11	0x37be770f	2.2705206e-05
12	0x35b10cdd	1.3191271e-06
13	0x35d0bd13	1.5552235e-06
14	0xb6806677	-3.8266257e-06
15	0xb6699f3c	-3.4812392e-06
16	0x35dfb2a9	1.6666792e-06
17	0xb6699ddf	-3.4811599e-06
18	0xb5dfb2c5	-1.6666824e-06
19	0xb73ad38b	-1.1135718e-05
20	0xb71c4a11	-9.3155695e-06
21	0xb706401b	-8.001948e-06
22	0x36828b43	3.890514e-06
23	0x384a5105	4.823601e-05
24	0xb84d4f67	-4.8949758e-05
25	0xb4c252fb	-3.6195692e-07
26	0x34e136f2	4.1949494e-07
27	0xb385b499	-6.2261456e-08
28	0xb680ec97	-3.84224e-06
29	0xb5ce5887	-1.5373961e-06
30	0x36191604	2.2811591e-06
31	0x3528607d	6.2725286e-07
32	0xb62c378b	-2.5662328e-06
33	0x361d349f	2.3425453e-06
34	0x366b62b0	3.5075172e-06
35	0x3640aca8	2.8710729e-06
36	0x360af64d	2.0706968e-06
37	0x35a0ad96	1.1971449e-06
38	0xb44eee46	-1.9271928e-07
39	0x35a187ab	1.2034919e-06
40	0x36352174	2.6990574e-06
41	0x341f7761	1.4851459e-07
42	0x36352169	2.699055e-06
43	0xb41f7762	-1.485146e-07
44	0xb4841ecc	-2.4609324e-07
45	0xb5a34160	-1.2163473e-06
46	0x35c46804	1.463341e-06
47	0xb64d8de2	-3.0629967e-06
48	0xb60f7f82	-2.138288e-06
49	0x36e66249	6.865976e-06
50	0xb8403773	-4.582801e-05
51	0xb789a582	-1.6408743e-05
52	0xb92ab96c	-0.00016281538
53	0x390c977f	0.00013407877
54	0x39a4be4b	0.00031422297
55	0xba00f723	-0.0004919639
56	0x370f3804	8.536506e-06
57	0xb70797f4	-8.082006e-06
58	0x38bb1ab8	8.9218316e-05
59	0x38c72112	9.495219e-05
60	0x3952cb36	0.00020102863
61	0xb8ba1bb1	-8.874329e-05
62	0xb701130a	-7.693432e-06
63	0xb7986b7b	-1.8169862e-05
64	0xb84d70a1	-4.8980703e-05
65	0xb8a84692	-8.024009e-05
66	0x384dcca3	4.906639e-05
67	0xb8a84627	-8.023931e-05
68	0xb84dcca3	-4.906639e-05
69	0xb9541686	-0.00020226286
70	0xb8a63761	-7.925812e-05
71	0xb97fb502	-0.00024386126
72	0x39c0c19d	0.00036765347
73	0x3a27cefa	0.00064013863
74	0xba8c6799	-0.0010712027
75	0x37b57d91	2.1635353e-05
76	0x3682463d	3.8824787e-06
77	0x379bd691	1.8577355e-05
78	0x38a0301c	7.6383556e-05
79	0x3805b95b	3.1882297e-05
80	0xb73e8797	-1.1356452e-05
81	0x365f7bc0	3.3301621e-06
82	0xb713f838	-8.819676e-06
83	0x37f35344	2.9006631e-05
84	0x3806446c	3.2011812e-05
85	0x373f8e6e	1.1417649e-05
86	0x37f2267c	2.8866569e-05
87	0x37061497	7.991816e-06
88	0x36764ad9	3.6700424e-06
89	0x3702952e	7.783337e-06
90	0x378bdcc1	1.6672888e-05
91	0x36824ae2	3.8830194e-06
92	0x378bdcde	1.667294e-05
93	0xb6824ae2	-3.8830194e-06
94	0x382f204e	4.1753337e-05
95	0xb7499633	-1.2015505e-05
96	0x38795409	5.944449e-05
97	0x394c6948	0.00019494176
98	0x38893e11	6.54423e-05
99	0x37cc5a54	2.4360757e-05
100	0xb9b586c1	-0.0003462341
101	0xba25cbfd	-0.0006324647
102	0xbae488aa	-0.0017435749
103	0x38e2e6a7	0.00010819482
104	0x3b00bc17	0.001964336
105	0xbb86b79a	-0.0041112425
106	0xb9a21c3a	-0.00030920078
107	0x3829b482	4.046085e-05
108	0xb9822254	-0.0002482111
109	0xb9bf6fcb	-0.0003651365
110	0xb911335d	-0.00013847412
111	0xb9d6b16c	-0.0004094945
112	0xb9bd1a1b	-0.0003606834
113	0xb8d2ee81	-0.00010058005
114	0xb9f456c5	-0.00046603955
115	0xba6feb80	-0.00091522187
116	0x38ddfd47	0.00010585278
117	0xba6feb53	-0.00091521925
118	0xb8ddfd43	-0.00010585275
119	0xba9f3e2f	-0.001214927
120	0xba9fc991	-0.0012190809
121	0xbb61cd09	-0.0034454486
122	0x392d7f1a	0.00016545915
123	0x3b76cdd3	0.0037659302
124	0xbc0b1b1b	-0.008490349
125	0x391a9e22	0.00014745494
126	0xb8e0c9ff	-0.00010718777
127	0xba15beeb	-0.0005712348
128	0x3a52c2c6	0.0008039888
129	0x3a9925f2	0.0011684282
130	0xbaf19a76	-0.0018432874
131	0xb94e8cbf	-0.00019698123
132	0x38a83e59	8.0224774e-05
133	0xb89fa27d	-7.6119766e-05
134	0xb9cf17fb	-0.00039499984
135	0x39a0d6d0	0.00030677626
136	0xba0b6ef7	-0.0005318964
137	0xb8cecef7	-9.861396e-05
138	0x3650386a	3.1027253e-06
139	0xb93303a7	-0.00017072131
140	0xb9a451c1	-0.0003134143
141	0x390e0bac	0.00013546523
142	0xb9a45187	-0.0003134126
143	0xb90e0bac	-0.00013546523
144	0xb9336b2f	-0.00017110699
145	0xb95a5429	-0.00020821452
146	0xba8d7a3a	-0.0010793873
147	0x3ab0c6f6	0.0013487029
148	0x3b16f286	0.0023032739
149	0xbb85723c	-0.0040724557
150	0x3900b40f	0.00012274108
151	0x399570d8	0.0002850357
152	0x3a40896b	0.00073446956
153	0xb93fee55	-0.00018303965
154	0xba62f757	-0.00086580723
155	0x3ae545ba	0.0017492094
156	0x384436c2	4.678104e-05
157	0xb8ad5d02	-8.266607e-05
158	0x36bbb550	5.594142e-06
159	0xb70388dd	-7.840074e-06
160	0xb8ee0a31	-0.00011350623
161	0x399dd1c8	0.00030101673
162	0x39141d71	0.00014125348
163	0x37d025fc	2.481322e-05
164	0x393ec4c9	0.0001819312
165	0x39be6f3b	0.00036322497
166	0xb83f75e4	-4.5647743e-05
167	0x39be6f1a	0.000363224
168	0x383f75e4	4.5647743e-05
169	0x39c8389b	0.00038189147
170	0x3a0ae04e	0.0005297706
171	0x3ab99e33	0.0014161527
172	0xb9ba70cd	-0.00035560728
173	0xbae15aec	-0.0017193235
174	0x3b6bf158	0.0036002006
175	0x39b5c1e6	0.00034667476
176	0xb9a177d8	-0.00030797604
177	0xba3eafc1	-0.0007274114
178	0x3b30a4af	0.0026953628
179	0x3b233ffa	0.002490996
180	0xbb59cd3a	-0.0033233897
181	0xb9c6cde7	-0.00037918912
182	0x38ce27f4	9.830287e-05
183	0x3a186e2d	0.00058147573
184	0x39a2e4f7	0.0003106964
185	0x39debb27	0.0004248258
186	0xb9902062	-0.00027489947
187	0xb6ad78fd	-5.1698867e-06
188	0x37f8a5af	2.9641056e-05
189	0xb8e87c61	-0.000110857894
190	0xb92f7801	-0.00016734005
191	0x398e875c	0.000271852
192	0xb92f772b	-0.00016733694
193	0xb98e875c	-0.000271852
194	0x37afc8a8	2.0955064e-05
195	0xba4191ca	-0.000738409
196	0xba860147	-0.0010223769
197	0x3bc2b00a	0.0059413956
198	0x3ba1bed0	0.0049360767
199	0xbbd1d244	-0.0064032394
200	0xb797b173	-1.8083234e-05
201	0x39399eeb	0.00017702176
202	0x3a19c4b2	0.00058657967
203	0xb9cf5a78	-0.0003954952
204	0xba74a9ac	-0.00093331444
205	0x3ace31a7	0.001573135
206	0x38a8f8c8	8.0572034e-05
207	0xb80748c3	-3.2254273e-05
208	0xb867f313	-5.5301072e-05
209	0xb8c1428e	-9.215354e-05
210	0xb8aaf6dd	-8.1522136e-05
211	0x3957b34d	0.00020570793
212	0x38d2e871	0.00010056876
213	0x36a45ee5	4.898628e-06
214	0x39274acd	0.00015954227
215	0x3990fc58	0.0002765383
216	0xb8bbaa9d	-8.948634e-05
217	0x3990fc2f	0.00027653712
218	0x38bbaa9b	8.9486326e-05
219	0x38c3ae4a	9.3307885e-05
220	0x39c36b37	0.0003727318
221	0x3a8d3d4b	0.0010775713
222	0xba79f8e2	-0.00095356826
223	0xbaee8d77	-0.0018200119
224	0x3b531819	0.0032210408
225	0x3883d085	6.2854066e-05
226	0xb8e02a84	-0.000106890715
227	0xb8a76cd5	-7.983452e-05
228	0x3a3f6b74	0.00073020835
229	0x39b42029	0.00034356237
230	0xb9dbb423	-0.00041905147
231	0xb995bc1a	-0.0002855964
232	0xb84d37a7	-4.892764e-05
233	0x392e5bfa	0.00016628197
234	0xb9b3a030	-0.0003426089
235	0x3975ffb2	0.00023460275
236	0x3658c69b	3.2302112e-06
237	0x3847323f	4.7492093e-05
238	0x37dd2329	2.6361626e-05
239	0x385164be	4.9923307e-05
240	0x38b47352	8.604549e-05
241	0x37e55fb4	2.7343493e-05
242	0x38b47367	8.604564e-05
243	0xb7e55fb9	-2.7343502e-05
244	0xb8f86387	-0.000118441
245	0xb935d624	-0.00017341279
246	0xb8c97a55	-9.607213e-05
247	0x3ab41233	0.0013738334
248	0x3a3f1aa2	0.00072900404
249	0xba1c6337	-0.0005965712
250	0x39931607	0.00028054437
251	0x383b251c	4.4618835e-05
252	0x3a0de38d	0.0005412631
253	0x3a567d54	0.00081821275
254	0xb91aa4cf	-0.0001474798
255	0x3a8346d9	0.0010015621
