04-goal-pose-l6/logs/rsl_rl/joint_position/2026-02-18_14-34-58/model_3700.pt (torch, 161397 bytes, 36 tensors)

std f4 [6]
00000000: dd3a bd3d 96b7 cb3c ced1 453b 32e1 463d
00000010: ae6e 223d a34e 5c3c
0.09239743 0.024867814 0.0030184868 0.048554607 0.039656334 0.013446483

actor.0.weight f4 [64, 25]
00000000: 7890 19bd 47d4 8b3e c977 b2be da61 7fbe
00000010: f94b acbe b579 4dbe 6ac7 f53c 3721 eebd
00000020: a9f8 233e 6c62 03be e053 853d fe5b dc3c
00000030: 9e54 43be 596f a7be 0cd0 d4be 7190 aebe
00000040: 22ee 00bf 1d6b 0fbe 3053 0d3f 324e faba
00000050: c7bb a73e 4409 f6be 6886 ab3d 58d2 d6bd
00000060: ceed e8bd 984f 4f3e 0fe7 0a3e 06e1 bcbe
00000070: 9713 d8be 4759 adbd e26a dabe 83a1 12be
00000080: 25d6 bf3d 3cb0 7b3d db59 d53c 0496 9dbd
00000090: 4bfa 59bd ff20 8dbe 3e35 febc 854c d3be
000000a0: b106 6abe 138b 833f ab29 98be 567b 7cbf
000000b0: 64c8 bd3d 29ce 153e 542f 81be af93 5fbe
000000c0: c0fa 583e 4e28 7abe b19d aabe 6c28 5f3e
000000d0: 170f d2bd 7f6f 1f3e bbcc 7cbe ca8b 033e
000000e0: 927c 80be 6b7e 663e 7414 073e 55e3 e73c
000000f0: ea5a 0d3d cf96 f23d 0f83 d9be 915b eabd
00000100: a25d 87bd 4c36 69be 2045 103f 533a 9bbe
00000110: 50c6 06bf c1ff 3abe 167d 90be 5e96 b0b7
00000120: edc6 103e 894b d03d f173 12bc 4a09 2f3e
00000130: fe22 833e 54a3 b0bd e459 2dbf 5165 0b3e
00000140: fc31 18bf 5e2e d33d 2500 b03d e14b 8cbd
00000150: c4a6 1dbe 0b07 9a3d 24e4 ca39 10b1 bbbe
00000160: 2726 5cbe de40 acbe 364b b2be ba0a 053f
00000170: 4c38 98be 2433 1ebf aeff 113e 88bb e73d
00000180: 8d71 46be 2884 2f3e 9c90 f1bd f2e2 04bd
00000190: 02b0 5ebe a4ed fabe 87a1 9a3e b02e f23d
000001a0: 6605 97be 1402 fb3d 08ea f83d 1f80 383d
000001b0: 5353 d3bb d386 22bd 761d 91bc a195 833d
000001c0: 0c8c 5839 2f70 713e e250 3fbf 9ebd cbbc
000001d0: 830e bdbf 21ea ea3d d659 bf3f 9750 e6bd
000001e0: 7050 4b3d 5e9f cabd fa58 333d 2a4d 79bd
000001f0: 74ac 44bd 93fc 073f 1999 02bf 89c4 3f3e
00000200: d872 693e f0ce 4c3f 71cf 033e 20b7 7dbd
00000210: 6267 7e3d 502e febc ff33 5b3e d2ee 5cbe
00000220: 016c 67bb 2d8a 0fbf 639c 72bf d9d0 b8be
00000230: 8b8e 683d 9ced 713f 7efb d1bd 8be0 4abf
00000240: 693c c73e 1bd2 d63d 743e 29be 24c2 7c3c
00000250: e993 66bc ac64 913d 716b 2e3d 1f1f 013f
00000260: ab56 d5bd 9a07 03be 5201 41bf 1c75 9cbe
00000270: e872 42be be9b abbe cef6 023e f876 cdbb
00000280: 5c6d 1f3e 3281 9b3d 331e 36be 04c7 1840
00000290: 7322 583f 0c96 a3bd ffb0 d63e c779 513d
000002a0: 68fd 84be 8139 89be 23c7 7e3e 8114 8dbd
000002b0: 35f5 e23d 14f0 97bd bb06 d13b 3f40 64be
000002c0: a8f5 b43e e86d c53d 7333 c03d e2f6 c6be
000002d0: 04c5 a3be 38e4 723d 8267 e13d f825 ac3d
000002e0: 79a9 96bc c24a 28bc 4c21 61be 813e 85bf
000002f0: 846a 7c3f 5be5 29bc 3b20 9b3e 3514 a7bc
00000300: 4271 ed3c 8afb abbd c203 903d 1c53 203e
00000310: 1ebe e93c 43fa b53d 969b afbc 46e2 6bbd
00000320: 7e88 4c3e 8d76 873f 31b2 9abe 3fb8 57be
00000330: 7cf4 d0be 13df 753e fb16 c8bd 7272 7a3d
00000340: b835 f6bd 4d1d 8abe b44b 493d 6668 cd3d
00000350: c6bb 1ebe 3cbb 01c0 7394 0c3f cacb ae3b
00000360: 65ea afbf 3471 403e 2eab b93f cc55 f43d
00000370: f7fd ae3e f737 c8bd fd43 3d3e 7443 383d
00000380: f6e0 ab3d 96cd c6be 91ab 8dbd 4e5d 643e
00000390: f3f0 81be 6f29 f7be 1a47 afbd 2c8e e5bd
000003a0: 146f d13d 9c64 fbbd 3ba4 6bbd 8520 25bd
000003b0: 7085 af3d b066 2dbf b77d 933f 1314 183f
000003c0: b3c6 343e 000d 7ebf d46e 163e 0856 8d3f
000003d0: eef1 cfbd fac0 25be c6a5 e53d 4634 c73d
000003e0: 41bf 84bd 012f 35be 9dec 7dbf 7639 b33e
000003f0: 354e 2fbf 397f 9c3e 6ef7 66bf 49a7 ef3e
-0.03749129 0.27310392 -0.34857014 -0.24939671 -0.33651713 -0.20065959 0.030002315 -0.11627429
0.16012825 -0.12830514 0.065101385 0.026899334 -0.19075248 -0.3270214 -0.41564977 -0.34094575
-0.5036336 -0.14005704 0.5520506 -0.001909679 0.3276045 -0.48053944 0.08375245 -0.10489339
-0.11373483 0.20245206 0.13564704 -0.3689043 -0.42202446 -0.08464294 -0.4265967 -0.14319424
0.09367017 0.061447367 0.026043823 -0.07694629 -0.053217214 -0.27564237 -0.031031247 -0.41269317
-0.22854115 1.0276817 -0.2971929 -0.98625696 0.09266737 0.14629425 -0.2523142 -0.2183368
0.21189404 -0.24429438 -0.33323434 0.21792763 -0.102567844 0.15569876 -0.24687473 0.12846294
-0.2509504 0.22509162 0.13191396 0.028306643 0.03451053 0.11845171 -0.42482802 -0.11443246
-0.06609656 -0.22774619 0.56355476 -0.30317935 -0.5264635 -0.18261625 -0.28220433 -2.1050855e-05
0.14138384 0.10170657 -0.008938775 0.17093387 0.25612634 -0.08624902 -0.6771529 0.13612868
-0.5945127 0.10311578 0.085937776 -0.0685041 -0.15395647 0.075208746 0.0003869842 -0.36658525
-0.21498929 -0.3364324 -0.34823006 0.5196949 -0.2973045 -0.61796784 0.1425769 0.113150656
-0.19379254 0.17140257 -0.1179516 -0.032442994 -0.21746829 -0.4900943 0.3020136 0.11825311
-0.29496306 0.12256256 0.12154013 0.04504406 -0.006449142 -0.03967936 -0.017714243 0.06425024
0.00020651537 0.23577951 -0.7473279 -0.02487069 -1.4770054 0.11470438 1.4949291 -0.1124584
0.049637258 -0.09893678 0.043786027 -0.060864605 -0.048016027 0.5311977 -0.5101486 0.18727316
0.22797716 0.8000326 0.12872101 -0.06194222 0.062110312 -0.031027943 0.21406554 -0.21575478
-0.0035312178 -0.56070215 -0.9476988 -0.36096838 0.056776565 0.9450319 -0.102530465 -0.79248875
0.38913277 0.10489293 -0.1652773 0.015427146 -0.0140733505 0.0709928 0.042582933 0.5043811
-0.10416921 -0.12795869 -0.7539264 -0.30558097 -0.18989146 -0.3351726 0.12789461 -0.0062702857
0.15569061 0.075930014 -0.17784958 2.387147 0.84427565 -0.079876035 0.41931912 0.051141527
-0.25974584 -0.26801684 0.24880652 -0.068886764 0.11081926 -0.07418838 0.006378976 -0.22290133
0.3534367 0.096401036 0.09384813 -0.38860232 -0.31986248 0.059299678 0.11006071 0.084056795
-0.018391358 -0.01027173 -0.21985358 -1.04097 0.9860003 -0.010369624 0.30298027 -0.020395378
0.02898467 -0.08397587 0.07031967 0.15656704 0.028533038 0.08885624 -0.021436494 -0.057588838
0.19973943 1.0583054 -0.30214074 -0.21066378 -0.40811527 0.24010877 -0.09770008 0.0611443
-0.12021965 -0.2697548 0.04914446 0.10029678 -0.15501317 -2.0270529 0.54914016 0.005334352
-1.3743407 0.18793184 1.4505365 0.11930427 0.34178135 -0.097762994 0.18482967 0.044986203
0.08392517 -0.38828725 -0.06917489 0.22301218 -0.25379142 -0.482738 -0.085584834 -0.11208758
0.102262646 -0.12275049 -0.05752967 -0.040314216 0.08570373 -0.67734814 1.152274 0.5940563
0.17653923 -0.99238586 0.14690715 1.104188 -0.10153566 -0.16186896 0.112132594 0.09726767
-0.06481791 -0.17693712 -0.9918917 0.35004777 -0.6847871 0.30565813 -0.902213 0.46807316

actor.0.bias f4 [64]
00000000: 899e 8cbe c382 e1be ac87 69be 1268 05bf
00000010: db7e cbbd 8286 98be 7343 9dbd a98d fe3d
00000020: a52f 46bd 3e0b 243e 858c 5bbd bbee 76be
00000030: 3375 19be e3fa 7cbd 5d1e f03c 12e1 16be
00000040: 8155 7d3d 484e 4d3e 5416 cabd ba70 92bd
00000050: aa40 2d3d 4acf 7cbd ff12 9fba 7f6c 55be
00000060: b0db 493d 86e9 4ebe 3709 563d 151b b2bb
00000070: 8f07 35be f5c6 af3e d56f 1ebe 2be6 97be
00000080: 4f69 39bc b613 0abd dd72 e43d b846 4a3e
00000090: bf2a 083d 986c d2be a327 1d3e 54e3 b2be
000000a0: eaae 49bc 14f5 8ebd e150 43be b464 e53d
000000b0: 685f ae3c f90d 6dbe 85ab b73d a359 19bd
000000c0: 188c 193c 8f46 1c3e 610a 00be f9a3 57be
000000d0: 6a05 71be bb1e 5cbe 79e9 343d 5aec 81be
000000e0: 2a91 1c3c 8250 3cbe 7cab 0d3e c9b9 d43c
000000f0: 760c 083e daa2 0fbd 75f4 653e 60f4 2f3e
-0.27464703 -0.44045076 -0.22805661 -0.52111924 -0.09936305 -0.2979012 -0.076788805 0.12429363
-0.04838528 0.16019914 -0.053600807 -0.24114506 -0.14986114 -0.0617627 0.029311353 -0.14734295
0.06184912 0.20049393 -0.0986754 -0.07150407 0.042297997 -0.061721124 -0.0012136399 -0.20842169
0.049281776 -0.2020627 0.05225488 -0.0054353573 -0.17678665 0.3433148 -0.15472348 -0.29667792
-0.011316611 -0.033710204 0.11154721 0.1975354 0.03324389 -0.41098475 0.15347151 -0.34939063
-0.012309769 -0.06980339 -0.19073822 0.11200848 0.021285728 -0.23149861 0.08968262 -0.037439
0.00937178 0.15261291 -0.12503959 -0.21058644 -0.23537222 -0.21496098 0.04416797 -0.25375634
0.009556094 -0.18390086 0.13834947 0.025967496 0.13286003 -0.035067417 0.22456534 0.17183065

actor.2.weight f4 [64, 64]
00000000: 674e 493e 7eb9 1f3e 4cde cebb cac2 173e
00000010: 0207 bebd d54e 06bd 7778 49bc dba8 753d
00000020: aaa2 ccbd 809b 4abe 435e a43d ca7f 773d
00000030: 42cf dbbc ee31 4c3e ea67 e4bc 54b2 0a3d
00000040: 7333 0dbe b895 32bc 916e 57bd 5db8 a8bd
00000050: 34a5 353d f44f 5cbd 1565 3dbe 54b1 92bd
00000060: e70b 04bd 022f 1abe 6d92 ba3c b82d 3a3e
00000070: 4058 1b3e 8a23 4ebd d4fc 183b c94b dd3b
00000080: 186a ef3d 5aae 2d3e f573 f6bd 412d eb3d
00000090: 8188 c93d d2f2 ec3d ab12 373e ee27 e13d
000000a0: 6d1f 523d e3f5 013e 0144 8bbc 9522 70bd
000000b0: dd4a c5bd da9c 2e3e 7dea 31be feb3 93bd
000000c0: 7c58 3fbe 1c2d 7dbe c714 843c e209 02bd
000000d0: 10ed 3b3e e202 ec3c 04d2 aa3d 1647 043b
000000e0: 01a2 98bc 281b 603d 98cd 24be d572 78bd
000000f0: 6b84 ba3c 321d ddbb 8db8 f5bd b7eb 883d
00000100: 6261 4cbd e92d e9bd e329 803e bd7d 173d
00000110: 7187 07be fc75 6d3e 3752 ef3d ac92 773e
00000120: f96f 30bc dbab e93d 50bd 81be c86c d6bc
00000130: b2db 5e3d e852 1a3e ac1a 02be 57db f63c
00000140: 1822 c73c 325a 99bd 2679 d2bd 8014 f5bd
00000150: ff05 2d3e 5891 ee3d 79f5 69be f840 2f3d
00000160: 5171 4abe de16 6ebc 4ac7 c93d f6bc 863b
00000170: ac0f a93d 6bb5 3b3e 1cce 38be 6da4 30be
00000180: a0fb e43d 4645 1c3e fd2e a8bd 470f a63d
00000190: d87a 8cbc d060 0f3d b51a f53d 420a 0dbd
000001a0: fa7a cf3b dba6 a83d 85d6 833c c030 03bd
000001b0: 9aa3 843d 2926 bf3c e266 21be 709e 80bd
000001c0: 670b ac3e 55a4 2fbe 7d4a 9dbd 7268 98bd
000001d0: 240b 8d3c 2ddb a0be 5863 5cbd c550 c63e
000001e0: b15c 1abc ca75 9abd dcba f0bd 486b ff3c
000001f0: 4589 c8be 2908 b3bd bbb4 cb3d 9e65 e0bd
00000200: 7491 343e 011b 163f 503e 64be 9021 ac3e
00000210: fb0b 3fbe d540 29be eede fb3d c965 ad3d
00000220: 5506 09be fb56 e3bd db07 17bd 5fe0 673e
00000230: 1aa8 7ebe bdba a53e 5906 683e 3541 633d
00000240: af21 9fbe 798d 99bb b2c3 3dbd d54a e7bd
00000250: 02dc 8b3d dd38 04be 3686 d3bc 61a7 27be
00000260: e042 0e3e f8e5 b5bc f64c ae3e a33f 613e
00000270: 4126 5d3e 86a7 4d3c d827 84bd 086a de3c
00000280: 2144 803e f766 5a3e 0c6e 06bd 77c0 aabc
00000290: 1b38 4cbd 17aa 743d 3848 8f3e a340 4e3e
000002a0: 6004 4dbe 1b50 f13e 20cd 88be f972 84be
000002b0: a245 143d 2ec7 483e 9bab ba3c a079 e2bd
000002c0: 7b50 27be d6d0 2ebc 3d22 e1bd 2394 d0bd
000002d0: b289 833e 710b aab9 a07d 063e 501c f13d
000002e0: 78d0 28bd 9ce6 463c 8e39 1a3e cf8a 563e
000002f0: e1df ed3d 7efd 76bc 9b03 0bbe c71b 49bc
00000300: fd17 423d 49bc c93d 93ef 19be fd30 b1bd
00000310: 0b79 043e a1dd bcbd fd3b afbe 1d40 91be
00000320: 5834 66be aea1 e0be f913 96bd 8931 9dbd
00000330: d798 623e e020 493e cafb 8bbd d8d9 9bbd
00000340: 1da4 343e f8e5 23bd d51f 173e fc05 cc3e
00000350: 5b45 a9bd a2db b43b 3723 553e e4a9 2fbd
00000360: f987 5e3d 9bc0 593c 4c8c 6abd fcec 8bbd
00000370: cd2f 92bc 002f 85be d72d 503e fc7f c03d
00000380: 22c5 c3bd 6ac1 673c 5c54 b0be 75df c23d
00000390: 635f bbba 37e3 99bd e5b1 f5bc f7ae 103d
000003a0: 15f4 3a3e 572f 263e 2052 143e b940 153d
000003b0: e440 0a3e da60 0b3e e343 923e 553e 4f3e
000003c0: d989 a4be b634 253e 1fee c53e 7c67 44be
000003d0: b44a c03d a7e2 9c3e 67a2 15be accd e7be
000003e0: b354 cd3d e8e7 dc3d 04dd 25be e587 c3bd
000003f0: aba6 153f 3df0 943d 4a25 673e 28e1 2a3e
0.19658814 0.15598103 -0.006313121 0.148204 -0.092786804 -0.032790024 -0.012296787 0.059975486
-0.09991963 -0.19785881 0.080257915 0.060424604 -0.026832227 0.19940922 -0.027881581 0.033861473
-0.13789158 -0.010899954 -0.05259568 -0.082382895 0.044347003 -0.053787187 -0.18495591 -0.07162729
-0.032237913 -0.15056995 0.0227749 0.18181503 0.15170383 -0.05032686 0.0023344057 0.006753419
0.11690158 0.16961041 -0.12033836 0.11483241 0.09840489 0.11569752 0.17878215 0.10993944
0.0512995 0.12691455 -0.0170002 -0.05862673 -0.0963342 0.17052022 -0.17374606 -0.07212065
-0.18686098 -0.24724239 0.016123189 -0.031747706 0.18352151 0.028809968 0.083408386 0.0020183972
-0.018631937 0.0547134 -0.16094053 -0.060656387 0.02276822 -0.006747865 -0.11998091 0.06685584
-0.04989756 -0.1138571 0.25031957 0.036985148 -0.1323526 0.23189539 0.11685603 0.24177045
-0.010768884 0.11409732 -0.25339746 -0.026174918 0.054408737 0.15070689 -0.12705487 0.030133886
0.02430825 -0.074879065 -0.102770135 -0.11966801 0.16896819 0.11648816 -0.22847547 0.04278657
-0.1976979 -0.014531819 0.098524645 0.0041118814 0.08254942 0.18330924 -0.18047374 -0.17250223
0.11180806 0.152608 -0.08212087 0.08108383 -0.01714842 0.035004437 0.119679846 -0.03443361
0.0063317986 0.0823495 0.016093502 -0.032028913 0.06476517 0.023333626 -0.15761903 -0.062802196
0.3360245 -0.17152531 -0.07680223 -0.07441796 0.017217226 -0.31417218 -0.05380568 0.38733497
-0.009421513 -0.07541998 -0.117543906 0.031179085 -0.39167228 -0.08741791 0.09946581 -0.10956882
0.17633611 0.58634955 -0.22289395 0.33619356 -0.18656914 -0.16528638 0.1229838 0.084666796
-0.13381322 -0.111005746 -0.036872726 0.22644185 -0.24868813 0.32369033 0.22658671 0.05548211
-0.31080386 -0.0046860543 -0.046329208 -0.1129357 0.068290725 -0.12912317 -0.025820833 -0.16372444
0.13892698 -0.022204384 0.34043092 0.21996932 0.21596624 0.012552148 -0.06452912 0.027150169
0.25051978 0.2132834 -0.032819793 -0.020843728 -0.049858194 0.059732523 0.27984786 0.20141844
-0.200212 0.47131428 -0.26718998 -0.25868967 0.03619922 0.19607231 0.022786906 -0.110583544
-0.16339295 -0.010669908 -0.109928586 -0.10184505 0.2569099 -0.0003243345 0.1313386 0.11772978
-0.041214436 0.0121399425 0.15061018 0.20951389 0.11614967 -0.015075086 -0.13575594 -0.012274689
0.04738616 0.09850366 -0.15032797 -0.08651922 0.12936799 -0.0922196 -0.34225455 -0.28369227
-0.22480905 -0.43873352 -0.07328028 -0.07675464 0.22128616 0.19641447 -0.06835134 -0.0760991
0.17640729 -0.040014237 0.14758237 0.39848316 -0.08265182 0.0055193463 0.20814215 -0.04288663
0.054328892 0.01329055 -0.057262704 -0.068323106 -0.017845059 -0.2601242 0.20329987 0.09399411
-0.095590845 0.014145235 -0.3443936 0.09515277 -0.0014295395 -0.07514041 -0.029992053 0.03532311
0.18257172 0.16228996 0.14484453 0.036438677 0.13501316 0.13611165 0.28567418 0.20238622
-0.3213642 0.16133389 0.38658234 -0.19180101 0.093892485 0.30641672 -0.14612733 -0.45274103
0.10025921 0.1078642 -0.16197592 -0.09547404 0.5845744 0.07272384 0.22572818 0.16687453

actor.2.bias f4 [64]
00000000: 0330 46be 606f be3c 511b b8be f59e b1bd
00000010: ceaf 203e a31d 7dbe bf60 b4bb d226 a7be
00000020: eedb 3dbe 1f7b 0d3e 2b3e 65be 183d 163e
00000030: b37a 19be 0484 67bd e16d bcbd 8a03 81bc
00000040: 7466 0abe 8987 2e3e 5cc0 d2bc 36a4 a2be
00000050: 4074 7f3e 5958 b23d 6241 adbe e62c 8abc
00000060: 3987 193e 2f8b b0bd bd61 06be ea5b 763d
00000070: 2939 a5bd ecb5 a9bd d7a2 f3be 0d4a ae3d
00000080: 2440 96be 1d07 603c 60b2 fdbe dd74 a4be
00000090: 8ecc acbb 2170 ddbd 82d4 833e afc1 22bc
000000a0: ea6f bd3c 6818 edbd fe41 28bc e5ee 583d
000000b0: c992 1ebd 010b 023d ff7a b73c e77f 84bc
000000c0: e56f 473d 0da7 3abd 1ec4 293e 4b05 74be
000000d0: cbef aebe 79e7 03bd ef9d d9be e9d7 4cbe
000000e0: ed19 72bd 8a65 83be 387c 82bd 969c 93bd
000000f0: c9f4 42bd 719e 983b cb5a 813d ca86 61be
-0.19354253 0.023246467 -0.3595834 -0.08672897 0.15692064 -0.24718337 -0.005504697 -0.32646805
-0.18540928 0.13816498 -0.22386996 0.14671743 -0.14988212 -0.056522384 -0.09200645 -0.015748758
-0.13515645 0.1704389 -0.02572649 -0.31765908 0.2494669 0.08708257 -0.33838946 -0.016867112
0.1499299 -0.08620297 -0.13123222 0.06014625 -0.08067543 -0.08286652 -0.47585174 0.08510218
-0.2934581 0.013673571 -0.49550152 -0.3212041 -0.0052734083 -0.108124025 0.25748068 -0.009933873
0.023124654 -0.11576921 -0.01026964 0.052962203 -0.038714204 0.031748775 0.022397516 -0.01617427
0.048690695 -0.04556947 0.16578719 -0.23830144 -0.34167323 -0.03220317 -0.42503306 -0.20004238
-0.059106756 -0.25663406 -0.06371349 -0.07207601 -0.047596727 0.0046575596 0.063161455 -0.22024074

actor.4.weight f4 [6, 64]
00000000: 96b6 93bd a7b3 ad3d 5ac8 a63a be42 8a3b
00000010: a2ec 04bd 757a 023e 85c1 58bd e4ff b6bc
00000020: c701 0a3e 84ff f03d 3586 04be eeb3 d33d
00000030: 7f01 a2be fdd8 19be 9233 303e 5d25 e53d
00000040: 10f2 ccbd 44a0 303d 1f28 cfbc 25de a93d
00000050: 4445 a2bd ea1a 993c cf12 2d3d 94e5 d83d
00000060: f967 e0bd 4eac 023e 5074 513e 63b7 69bd
00000070: 1130 2cbe 64cf 9cbd 08f5 5a3d a705 9c3d
00000080: cbb2 4abd 17c5 4cbd 940e ad3d 4631 96be
00000090: 74ce 88be 5e1f b83d ffe6 34bd 0d48 81bc
000000a0: a117 85bd 5dcd 08be 9c3b 193e dea3 fc3c
000000b0: 9b69 323e 5e47 0c3e 7d51 353b 4536 1dbd
000000c0: 47a0 51bd 8002 433d 98e3 913d 1a39 81bd
000000d0: 995d e4bd 743e b93d b479 8abd ed33 c3bd
000000e0: cbfb 61bd 1074 99bd 76b6 07bc 397e a3bd
000000f0: 3165 dcbd c71e 1abe 0059 923c dd91 303e
00000100: 3d28 1fbd 142a 03be 7c25 36bd d481 b93e
00000110: efa4 4e3d f6f8 163e 8e0b 73be 1e3a c93d
00000120: 9f7d aa3c c81b f63c 4bac cbbd 5d67 43be
00000130: cd90 15bd e5ac 61bd 8c62 6abe 9b8d 073d
00000140: 9f04 82bd 8f1b 23be cc86 10bd e0f8 ad3c
00000150: 7520 48bd d337 0e3b 8c43 05bd 0891 c73d
00000160: b4dc 6abd a6c7 61be 30c3 0dbd 70b2 5ebe
00000170: d704 05be dd1e adbd 1b7e b73d fc34 773d
00000180: a192 92bd a297 4cbd cc7a 923d 86f8 2abe
00000190: 6970 ebbd 64d8 c5bd abdb 8b3d 54be 62bc
000001a0: 12d8 18be dc15 b5bd 9a77 ed3d 9638 3d3e
000001b0: dfeb 0cbc b5ab afbd e561 4fbe 20d7 bcbd
000001c0: 6cc7 9c3d 5baf 2c3d a6de ecbc 6089 0cbe
000001d0: e519 fe3b 2f0f 0dbe 6672 5fbd 6aa3 fbbc
000001e0: 72a3 4fbd fb7a 25be 7149 7f3e 5aea 48be
000001f0: 21f2 12be df25 a8bd 31e8 22be 5958 3f3e
00000200: cfbb 14bd 3e83 8a3c d55d c63c 9fa5 87bd
00000210: 5c69 dc3d 012d 92bd cc11 083e d5ae c2bd
00000220: c9b7 d13d 9b79 e93d cb62 823d f023 8fbd
00000230: 83f2 283d d902 02be f89f 8bbe 1b65 053d
00000240: 52e0 80be e8be 293d a892 0abe 7a05 a7bd
00000250: fc85 e23d 4195 fdbd fb0a 063e 74d3 e5bd
00000260: b712 0a3c dc26 85bd a0e0 dcbd 622a 943d
00000270: 00f1 50be 7ffe 9abd b4e8 7abe a17e 1c3d
00000280: 4f40 b2bd 4141 023d d48a babd 28e2 8e3d
00000290: 5f6d a93e 7512 0a3e 6a57 0d3d 9ba8 6abc
000002a0: 1aae ec3c 4cb2 21bd 8c1a 8a3d 3feb 0b3e
000002b0: 11d6 693e 57f8 253c 995d 953d 42b2 cbbc
000002c0: 60a8 1f3e f314 0b3e f558 6a3d 3860 74bd
000002d0: 7e24 07be ede4 883d 9f24 2e3d 627b 8cbd
000002e0: 92fd 40bd f5ec f8bd 9170 f7bd fe0c a9bd
000002f0: f80c fabd 38b5 bdbd 4440 94bd 906b 1d3e
00000300: 0467 00be 97f8 f53c c8d1 b3be c39c ed3c
00000310: 396e 173e 6136 23be 4b22 a2bd ab61 babe
00000320: 7c65 44bd cdd1 873d 1936 a4bd c42d 2ebc
00000330: 1c11 b2bc 815a 0dbe 7851 a83d a7da 223e
00000340: a858 19be dfd8 b5bd c30f c93c f8e7 afbe
00000350: 46d8 1f3e d741 903d a663 3fbe 9042 0e3e
00000360: f979 243d 3f67 99bd e458 863d 8565 eebc
00000370: ebd1 d7bd 259c 06bc 0913 c4be b8b3 7a3d
00000380: 0180 5fbe 13ae 593d 8cc1 99be ea0e 85bd
00000390: c2c7 153d 6bd2 21bd 66cf 523e ff85 00be
000003a0: 7337 883e 5b7e b0bd 8da4 ab3d a254 c13c
000003b0: 5240 3dbd 317c 0bbe 53b0 a2bd 4139 b4bc
000003c0: eda3 ad3d 5cfd af3d 8f27 86bd edfe c2bd
000003d0: a92b 88be 1f11 ee3b 2eee 7cbe bc2a 11be
000003e0: 27ee febd ad0c 2dbe b210 dc3d db8c 013e
000003f0: ab07 e63c ba1a 5ebd efd4 983d e622 62bd
-0.0721256 0.084815316 0.0012724504 0.004219382 -0.032452233 0.12742026 -0.05291893 -0.022338815
0.1347724 0.11767486 -0.12941821 0.10337053 -0.31641766 -0.1502418 0.17207173 0.11188767
-0.10007107 0.04312159 -0.025287686 0.08294324 -0.079233676 0.018689591 0.042254265 0.105906636
-0.10957331 0.12761042 0.20454526 -0.057059657 -0.16815211 -0.07656744 0.053456336 0.076182656
-0.049486917 -0.049992647 0.08450046 -0.29334468 -0.2672001 0.08990358 -0.044165608 -0.015781427
-0.064986475 -0.1335959 0.14964145 0.030839857 0.17423098 0.136991 0.002766698 -0.038381834
-0.051178243 0.047609806 0.07123488 -0.063097194 -0.11150665 0.09045115 -0.06761494 -0.095313884
-0.05517177 -0.0749284 -0.008283248 -0.079830594 -0.10761488 -0.15050803 0.017864704 0.17243142
-0.038856734 -0.1280902 -0.04446934 0.36231863 0.05045026 0.14743409 -0.23734877 0.09825538
0.020811854 0.030042544 -0.09944972 -0.19082399 -0.036515046 -0.055096526 -0.22889155 0.03309403
-0.06348538 -0.15928482 -0.035284802 0.021236837 -0.04885908 0.0021700754 -0.03253512 0.097444594
-0.057339385 -0.22048816 -0.034609973 -0.21747756 -0.12990128 -0.08453152 0.089595996 0.060353264
-0.071568735 -0.049949296 0.07152328 -0.16696367 -0.1149605 -0.09660414 0.06829008 -0.013839323
-0.14926174 -0.0884206 0.11595078 0.18478617 -0.008601158 -0.085776724 -0.20252188 -0.09220719
0.07655224 0.04215942 -0.02891476 -0.1372428 0.0077545517 -0.13775323 -0.05455246 -0.03071757
-0.050692983 -0.16160195 0.2493036 -0.19620648 -0.14350177 -0.08210348 -0.15908886 0.18686046
-0.03631192 0.016908284 0.024214664 -0.066233866 0.10762283 -0.0713749 0.13288039 -0.09506003
0.10240132 0.114001475 0.063664995 -0.069892764 0.041246902 -0.12696399 -0.27270484 0.032567125
-0.25171143 0.041441828 -0.13532507 -0.081553414 0.11060712 -0.123819835 0.13090126 -0.11221972
0.0084273135 -0.065015525 -0.10785031 0.072346464 -0.20404434 -0.075680725 -0.24502832 0.0382067
-0.08703672 0.031800512 -0.091085106 0.0697673 0.33091256 0.13483603 0.034507193 -0.014322425
0.028891612 -0.039476678 0.06743345 0.13663958 0.22835566 0.01013001 0.07293243 -0.024865273
0.15591574 0.1358221 0.057213742 -0.059662074 -0.13197514 0.06684289 0.042515393 -0.06859471
-0.047116823 -0.12154571 -0.12082017 -0.08254431 -0.12209505 -0.0926308 -0.0723882 0.15373063
-0.12539297 0.030025763 -0.35120988 0.029005414 0.1478814 -0.15938713 -0.07916697 -0.3640264
-0.047948346 0.06631813 -0.08018131 -0.010631029 -0.021736674 -0.13804056 0.08218664 0.15903722
-0.14975226 -0.088792555 0.024543649 -0.34356666 0.15609846 0.07043808 -0.18690357 0.13892579
0.040155385 -0.07490396 0.06559923 -0.029101143 -0.105380856 -0.008215939 -0.38295773 0.06120655
-0.21826173 0.053144526 -0.30030477 -0.06496985 0.036567457 -0.03950731 0.20586929 -0.12551115
0.26604804 -0.086178504 0.08380995 0.023599926 -0.04620392 -0.13621594 -0.079437874 -0.021999957
0.08478532 0.08593246 -0.06550514 -0.095212795 -0.2659581 0.0072652246 -0.24700233 -0.14176458
-0.12447768 -0.16899367 0.10745372 0.12651388 0.028079828 -0.054224707 0.07462489 -0.055209063

actor.4.bias f4 [6]
00000000: 944c 5abe 547b ddbb 5a19 ee3d 4954 a13e
00000010: 6c5e b83d 830e 853e
-0.21318275 -0.0067590866 0.11625929 0.31509617 0.090023845 0.25987634

critic.0.weight f4 [64, 25]
00000000: ae68 3a3e 1727 613d c21e 8f3d 6523 12be
00000010: 1923 a83d 7d4e c6bd a839 0d3b 2a68 b6bd
00000020: 918f 853c 277b 3cbd d32a 133d f3fd 863b
00000030: 9572 c6bd 4ade 5f3e f0b0 44be 1019 0bbe
00000040: 7ad6 573f 9d8d 9bbc 4416 42bf 4fb9 443d
00000050: 54db 59bd a39d 13be 5b79 663d a4f2 98bd
00000060: c4d8 683d d444 a33e 1eb8 3bbe 54e1 65be
00000070: 7509 51be 98c6 b3bd 6d33 c23c 0282 0f3e
00000080: 6fb8 683e 7cab 17be e4c3 a1bd 09d3 ea3b
00000090: 1a22 203e 1b6c 49be aa5e e23e 0508 19bd
000000a0: e9fb e63c 95c7 2c3e 9656 823a d5f3 a3be
000000b0: 9394 f7bd c3b8 1fbe 0633 f43d d292 6fbd
000000c0: 83ce debd a398 ef3d b65f 24be c7f5 233c
000000d0: 6c72 703b b648 2c3d 7186 8b3d 0647 2c3e
000000e0: 7d53 373c 9b10 7c3d 6846 943a 18ed a5bc
000000f0: 3b6b 94bd de5f aa3c f28b 163e 39f2 2dbf
00000100: e7b1 5bbe ef3e 4e3e 040e 9fbe d00c e9bd
00000110: d47e 843d 484e abbd 0c02 12bd f71e d53d
00000120: 1a22 5fbd 7288 1d3d d1f3 0ebd c2d0 8bbe
00000130: ee59 f43a e5bc 2b3c a4c7 083e b644 5abe
00000140: 476f 0dbe 5914 113e c323 8fbe 7dd8 f43d
00000150: 0b0f b2bd a5b9 2b3d 94c1 793d 3c4f 073e
00000160: 3ff7 d8be e0e9 453e 1c3c 3fbe 9482 903d
00000170: b268 273e 5fa3 ce3d 4c0c d13c 6005 293e
00000180: 76ec 383d f69c e73d 0667 b3bd 8f12 19be
00000190: e0a1 1c3e aa0c b0bd 3fc7 493e fcc1 5dbe
000001a0: 82a1 cdbd 5386 4abe 5602 cd3d 4479 723d
000001b0: b662 32bc 850d 81bd e189 d13b c0ea 6bbd
000001c0: dfab 57be 6634 803f fce2 ce3e c3af 933d
000001d0: 9eef 2a3e 37de 5e3d 878d c6bd 81db eebd
000001e0: c936 1d3e ddb8 343d a269 013e 2f0d eb3b
000001f0: 2176 9dbc 15e1 b3be 021e debd e545 c93d
00000200: 18d8 8fbd 131c ce3c 9bdb 6d3e a4ab c9bd
00000210: e72d 053e fbb1 ad3c 9533 8abd c0ae c3bd
00000220: a157 43bc fa68 02be e1bd a1be fa98 5dbe
00000230: a002 07be 93a3 ecbe 9e46 5c3b 02ac b73e
00000240: 4ed1 bfbd c326 b83d 0072 cd3d 76fa 39bd
00000250: eec8 803d 6e3c 89bc 8a19 053e 5ce2 443e
00000260: 55ba 0dbe 8650 79bd 72b7 e83d cdf6 4e3d
00000270: 8317 e8bd e5e4 83bc cf4b f03b 9ea3 4fbc
00000280: f8f2 083e d211 e43d 5ffd 32be f61f 0c3f
00000290: 251f 363e b5a6 c23c bb7a fd3e 7c96 ffbd
000002a0: 7e47 a3be cb38 703c c2fd ce3c f766 9c3d
000002b0: bfdb 9e3d 05c0 a53c fd97 d0bd 13d5 5bbe
000002c0: 08e6 22be 99f2 9dbe 6945 ef3d 454b 253e
000002d0: bafb 0c3d da92 14bd a526 72bc 69ff 933c
000002e0: 2f4b 033e 220b 363d c0c7 aa3c f879 413e
000002f0: be21 783f 5c27 f2be af90 383e 3506 103e
00000300: b40b 0fbe 6ef9 3abe fb29 08be b93b 4bbd
00000310: 0338 1c3d 7748 8f3d bfd6 81bd eda1 c0bd
00000320: 789d 4c3e a215 5abe 8f47 1e3d f8f4 cdbd
00000330: 550e 8f3d 7c66 88bd 706f 413d d7ea bbbd
00000340: 1d09 4a3d 7110 3abe 26c2 883d 8a78 19bd
00000350: 7347 603d a30d 48be 60bb b5be 707c 0fbe
00000360: 5cc1 e73d fb10 f43d 53dc 523d 7b29 41bd
00000370: 1559 a43d 56a4 0dbe fcd3 213e 2348 3ebe
00000380: b073 8e3d ddc2 77be b75d 0dbe e9b8 1f3d
00000390: 8191 fbbd 4cf1 3b3d 6e41 ebbd 767f bfbc
000003a0: 3548 513c f80a 623d 698c f6bd 7d11 c5bb
000003b0: afdf bb3c 0f69 8f3e 84c4 9240 0036 49bf
000003c0: d767 6abe 115f 2e3f 82ec 74be 8a40 0cbf
000003d0: d494 c2bd a088 053d 70ad 413b 5156 313d
000003e0: 9370 3cbd af94 c03c bc78 283e 07f8 dabd
000003f0: 92a2 4abe 3cac a9bd a93c cd3d 67d1 9b3c
0.18203995 0.05496892 0.069882885 -0.14271314 0.08209819 -0.09682939 0.0021549258 -0.089065865
0.01630381 -0.046015885 0.035929512 0.0041196286 -0.096898235 0.2186214 -0.19208121 -0.1358378
0.8431164 -0.018988425 -0.75815225 0.048028287 -0.053187683 -0.14415602 0.056268077 -0.07468155
0.05684735 0.3188845 -0.18331954 -0.22449237 -0.20413764 -0.08778113 0.023706162 0.14014438
0.22726606 -0.1481151 -0.07898691 0.0071662706 0.15638009 -0.19670145 0.44212848 -0.037361164
0.028196292 0.1687301 0.0009944018 -0.32021967 -0.12088885 -0.15597825 0.119237944 -0.058489628
-0.10879233 0.11699035 -0.16052136 0.010007328 0.0036689295 0.04206153 0.06812752 0.16823968
0.011189339 0.061539274 0.0011312487 -0.020254657 -0.07247015 0.020797666 0.14701822 -0.6794773
-0.21454583 0.20141195 -0.3106538 -0.11379397 0.06469503 -0.0836454 -0.035646483 0.10406297
-0.05447588 0.038460203 -0.03490049 -0.27307707 0.0018642524 0.010482048 0.13357407 -0.21315274
-0.1381198 0.14167918 -0.27956972 0.11955354 -0.086942755 0.04192509 0.060975626 0.1321382
-0.42376134 0.19327497 -0.18675274 0.07056156 0.16348532 0.10089754 0.025518559 0.16505957
0.04514738 0.11309235 -0.087598845 -0.14948486 0.15296125 -0.085961655 0.19704913 -0.2165603
-0.10040571 -0.19777803 0.10010211 0.05919768 -0.010887792 -0.06301407 0.0063946103 -0.057596922
-0.21061657 1.0015991 0.4040755 0.07211258 0.16692969 0.05441114 -0.09694963 -0.11662961
0.1535293 0.044121612 0.12637952 0.0071732025 -0.019221367 -0.3513266 -0.10845567 0.098277844
-0.070236385 0.025159871 0.23228304 -0.09847191 0.13005792 0.021203032 -0.0674812 -0.09554815
-0.011922748 -0.12735358 -0.3159018 -0.21640387 -0.13184595 -0.46218547 0.0033611427 0.3587342
-0.093660936 0.08991768 0.100315094 -0.045404874 0.06288324 -0.016752448 0.12998024 0.19226974
-0.13840611 -0.06086781 0.113631144 0.050528336 -0.113326095 -0.016100356 0.007333256 -0.012673287
0.13373935 0.111362115 -0.17479466 0.5473627 0.17785318 0.023761133 0.49507698 -0.124798745
-0.31890482 0.014661978 0.025267486 0.076368265 0.07756757 0.020233164 -0.101852395 -0.21468
-0.15908062 -0.3084915 0.11683161 0.16141994 0.034419753 -0.03627286 -0.014779721 0.018066125
0.12821649 0.04444421 0.020847201 0.18894184 0.96926486 -0.47295654 0.18023942 0.14064868
-0.13969308 -0.18259212 -0.13297264 -0.049617503 0.038139354 0.069962434 -0.06339788 -0.09405885
0.19981945 -0.21297315 0.038642462 -0.1005649 0.069851555 -0.06660172 0.047225416 -0.091756515
0.049325097 -0.18170334 0.06677656 -0.03746847 0.05475564 -0.19536452 -0.35494518 -0.14012313
0.11316177 0.11917301 0.05147965 -0.0471587 0.080248035 -0.1383222 0.15803522 -0.18582205
0.069556594 -0.24195428 -0.1380528 0.038994703 -0.12283612 0.045884416 -0.11487089 -0.023376208
0.012773563 0.055186242 -0.120385 -0.0060140477 0.02293381 0.2800984 4.5864887 -0.7859802
-0.22891174 0.6811381 -0.23918346 -0.5478598 -0.09501043 0.032601 0.002955284 0.04329521
-0.046005797 0.023508398 0.16452307 -0.10691839 -0.19788578 -0.08284804 0.10021336 0.01902075

critic.0.bias f4 [64]
00000000: 8ac8 3a3e 7d0a 6a3e a02a 2bbe 4d56 43bc
00000010: 8b73 fe3c 8c27 58be d5df 233e 3602 0bbe
00000020: 69e6 67bc 093f c53d 7825 183e 3a99 b93d
00000030: d689 43be e7f8 40bd 1f3f 2b3d 0a29 0b3b
00000040: 665c 4cbe a4f8 deba 4b72 2b3d 3845 853d
00000050: 82df 393e d048 8d3d d135 a43d 2e70 063e
00000060: 281b 68bc b713 95bc e728 66bd 6194 a4bc
00000070: 8da5 623d 5f63 183e d713 28bd 6a13 cebd
00000080: 514d 2dbd 4e75 a2bd f882 803e a530 aebd
00000090: 8bbb e63c 5ffa b3bd 4861 9abc e1f4 de3d
000000a0: b298 47be 3abf 1abe 5374 80bd 5418 073e
000000b0: 3ff2 86bc e657 24bd 4edb e2bd 5bcc e93d
000000c0: 24e9 363b e6eb 1a3e 9f32 903c 6c34 7fbc
000000d0: e86c b7bd 7467 fabd 6629 283e 9101 f93c
000000e0: 8e07 d8bd eb11 cd3d e3a5 02be 3826 dd3d
000000f0: 9565 14be b6ba c9ba dba9 583c 158f 0f3d
0.18240562 0.22855563 -0.16715479 -0.011922431 0.031060955 -0.21108836 0.16003354 -0.13575062
-0.014154055 0.096311636 0.14858043 0.09062429 -0.19095549 -0.04711237 0.041808244 0.0021234178
-0.19957122 -0.0017011357 0.041857045 0.06507343 0.18151668 0.068986535 0.08018077 0.1312873
-0.014166631 -0.018197877 -0.05619135 -0.020090284 0.055333663 0.14881657 -0.041034546 -0.10062297
-0.042310063 -0.0793253 0.2509992 -0.08505372 0.0281656 -0.08787989 -0.018845215 0.10886551
-0.19491842 -0.1511201 -0.06272187 0.13192874 -0.016472934 -0.04012289 -0.11076985 0.11415931
0.0027909959 0.1512905 0.017602263 -0.015576463 -0.08956319 -0.12226763 0.16422042 0.030396255
-0.10548316 0.10013183 -0.12758593 0.10798305 -0.14491875 -0.0015390727 0.01322409 0.035048563

critic.2.weight f4 [64, 64]
00000000: 0ac1 b3bd 0b51 00bd 5140 2cbe 229e 3a3d
00000010: 768f 293d b0a6 11be e541 953d 1c58 843d
00000020: aa7e ac3c c93d afbd 3027 a63d 97f1 bb3c
00000030: cf53 aabc 075d e03d dea3 d7bc 3ca7 b2bd
00000040: 5350 46bd 7806 34bd a173 46bc 20b6 3fbd
00000050: 868e 013e 91a9 143e c9c5 cb3d 4985 3b3c
00000060: 0371 40bc e9da 2b3d beb3 593d 4980 453a
00000070: 09e0 a9bd ee72 643d 01ee 4f3d 2b93 a6bd
00000080: 9f21 e23d 17f3 b23d c667 9ebc 17b7 953d
00000090: 39d2 00be fb99 f13c 1459 7cbc 7f4e cb3d
000000a0: 03dd 2bbe 1dad 44bc 7978 35bd 8234 d5bd
000000b0: 2496 4b3c 4469 1ebe 6c5d 3f3c 4bb9 cb3d
000000c0: 3ee8 f1bb 9c92 c23d 489d fa3d ab5d a5bc
000000d0: f2aa ae3d 6184 013e 67bf 8cbd b180 80bc
000000e0: 30d0 0d3d ca16 80bd 77c4 9a3d bf6b 90bd
000000f0: e606 f83b da6f c23d 42e2 413c 6488 793d
00000100: 7f96 d0ba d42c 223d 6909 373d 1ce5 a03a
00000110: 112b 96bd 3cfa 173e 3d64 04bd debf 0fbd
00000120: 05d2 02bd 8836 963d 3872 1f3e 6cdc b3bd
00000130: d138 d73d 3c76 3dbd ea05 903b 94f8 79bd
00000140: d53c 193d 63a5 833d 8c65 c63d a269 18bd
00000150: d014 c53c 8340 8e3d 883f 13bd 2796 0b3e
00000160: 8883 183e 4dc9 e53d ecb1 0abe 20ab a9bb
00000170: f385 a2bd ed46 0d3e 2919 a0bd 2d1e 003e
00000180: ee9b 69bc a20c 01be e905 9dbc 285a c5bd
00000190: d0ee fcbd 2ba4 ca3c 80b2 7cbd 908e 37bd
000001a0: 54c5 19bc 0117 603d e75a 853d 144e c23c
000001b0: 0d38 84bc 56e4 42bc 219d edbb 33de e3bd
000001c0: ff95 16be cecb 57bd 332a feba a2f5 aa3d
000001d0: aae4 ac3d a7d2 21bc d492 0bbe 270a d1bd
000001e0: 63a8 0b3e d641 d53c 8e58 fc3d 31be a5bd
000001f0: 27a2 17be f7a1 973d 6255 80bd dbd3 ac3d
00000200: 329b f83d 5045 bcbc ae56 67bd 69e6 913c
00000210: 8e85 78bd eee4 233c 4e95 bfbd 8dc9 b23d
00000220: ff20 c8bc bfd4 f93c d51d 04bd 9d38 1b3c
00000230: 5a89 d7bd 1c37 4dbd 207d 323d 3fd9 53bd
00000240: 1a31 e73d 1cec 1cba 17d2 473d 1e6c ddbd
00000250: b084 56bc 2921 0b3e 4e15 603c 7df2 1e3d
00000260: d4ac e83d 4517 853d 66ba d1bd 8e92 24bd
00000270: 0d7f a7bc 1390 ec3d 7e37 1b3d b63c cf3d
00000280: 19df c43c adad 90bd 81bf 0b3d 84d4 b3bd
00000290: e42f 023e c7ce 18bd eab2 743d e835 a33d
000002a0: 4e3c cfbb 646e d23d 18aa dbbb 3a99 b93c
000002b0: 46b8 723d 4e6c 96bd 28a8 983d 7fc1 d9bd
000002c0: 1f73 18be 5f19 d93d 7858 8fbd e19d c83d
000002d0: d96c 17bc 374a eabb b9d2 5b3d 30d1 e13d
000002e0: 27b7 5bbc 8aaa 9c3d 6382 0b3e 7879 26bc
000002f0: 8aff 873d 682a 06be 5ddb 3abd cab6 173e
00000300: b747 8a3d abd6 87bb 0c07 cd3d d011 13bd
00000310: 4564 c83d 6fc9 0f3e ce8e 223c 2eae cf3d
00000320: 1e87 d8bc c3eb 13bc 7ff5 26be bee8 c3bd
00000330: ab80 b53d 9fcb 9fbd 505a ccbc 9bf4 86bd
00000340: 670b ef3d 4990 a33c 5e82 06bd ed67 74bd
00000350: c85b 973b 2592 2abd a5f2 04be 90f4 d8bd
00000360: a6d8 a0bd 380d d93d cc2c a53c b18e 1d3d
00000370: 82e6 b43d 8626 e2bd 6ae1 af3c a6db 8cbd
00000380: edc3 4a3d 2f02 94bc 0abb c43d 356e 93bc
00000390: 3560 b3bd 0f19 153c c1ca 9fbc 9bbb ef3d
000003a0: a72a 01be 8544 cdbc c96a afbd 8016 e63d
000003b0: df11 8fbc df4f bdbd f977 603d baf9 873d
000003c0: 8f63 b9bd 8654 373d b969 d4bd fdd4 ecbd
000003d0: 4bb8 e13d 8843 e63d 3982 8a3d f39d abbd
000003e0: 6ab0 19bb eb16 4ebd 93fa 8cbd 1449 e0bc
000003f0: c900 4abb f9a7 26bc 4ed9 5d3b 31db 1b3c
-0.08777054 -0.03132729 -0.1682141 0.045560963 0.04139658 -0.14223742 0.07287959 0.06462118
0.021056492 -0.085567065 0.08112943 0.022942347 -0.020791916 0.109552436 -0.026323255 -0.08723304
-0.048416447 -0.04395148 -0.012112529 -0.046804547 0.12652025 0.1451781 0.09949834 0.011445352
-0.011745694 0.041956816 0.05314993 0.00075340696 -0.082946844 0.055773668 0.050764088 -0.08133539
0.11041569 0.08737772 -0.019336592 0.07310312 -0.12580194 0.029492369 -0.015402097 0.09927081
-0.16783528 -0.012004164 -0.044304345 -0.10410406 0.012425933 -0.15469843 0.011679988 0.09947451
-0.0073824218 0.0950062 0.1223703 -0.020186266 0.08528699 0.12648155 -0.068724446 -0.015686365
0.03462237 -0.06254347 0.07557004 -0.07051801 0.0075691817 0.0949399 0.011833729 0.060921088
-0.0015913992 0.039593533 0.04468671 0.0012275311 -0.07332433 0.1484155 -0.032322157 -0.03509509
-0.03193857 0.0733462 0.15570915 -0.087822765 0.10508884 -0.046255335 0.0043952363 -0.06102808
0.03741153 0.064280294 0.09687337 -0.037210114 0.024057776 0.069458984 -0.03594926 0.13631497
0.14893925 0.11220036 -0.13544434 -0.0051778704 -0.07935705 0.13796587 -0.07817299 0.12511511
-0.014258368 -0.12602475 -0.019167857 -0.096363366 -0.12350237 0.024736485 -0.06169367 -0.044813693
-0.009385426 0.05470944 0.06511479 0.023718871 -0.016140008 -0.01189526 -0.0072513972 -0.111263655
-0.14705656 -0.052684598 -0.0019391238 0.08347632 0.08442052 -0.009876884 -0.13630229 -0.102070145
0.13638453 0.02603237 0.12321578 -0.08092917 -0.1480795 0.07403939 -0.062662855 0.08438846
0.12138976 -0.02298227 -0.05647915 0.017810063 -0.060674243 0.010003312 -0.093546495 0.08729849
-0.024429796 0.030496953 -0.032255013 0.009473947 -0.105242446 -0.050101385 0.04357636 -0.051720854
0.11288662 -0.0005986111 0.04878434 -0.10811637 -0.013093159 0.13586868 0.013676954 0.038805474
0.11361089 0.06498579 -0.10240631 -0.040178828 -0.020446325 0.115509175 0.03789472 0.101190016
0.024032163 -0.07064376 0.03411818 -0.087807685 0.12713581 -0.037306573 0.05974094 0.07969266
-0.0063243276 0.102749616 -0.0067036264 0.022656072 0.059257768 -0.07344876 0.07453948 -0.106326096
-0.14887665 0.10600542 -0.06999296 0.09795738 -0.00924226 -0.0071499604 0.053667758 0.110262275
-0.013410366 0.07649715 0.13623957 -0.010160796 0.06640537 -0.13102114 -0.045619357 0.14815822
0.0675196 -0.0041454635 0.1001111 -0.03590566 0.0978475 0.14041685 0.009921743 0.10140644
-0.026431616 -0.009028378 -0.16304587 -0.095658764 0.08862432 -0.078025095 -0.024945408 -0.065896235
0.11672097 0.019966261 -0.03283917 -0.059669424 0.0046190955 -0.04164328 -0.12983187 -0.105935216
-0.078538224 0.105982244 0.020162962 0.03846616 0.088330284 -0.11042504 0.02146979 -0.06877832
0.049503256 -0.018067447 0.09605987 -0.017996887 -0.087585844 0.009100213 -0.01950586 0.11705705
-0.12613927 -0.025057087 -0.085652895 0.1123476 -0.017464576 -0.0924375 0.054801915 0.066394284
-0.090521924 0.044758342 -0.103717275 -0.11564062 0.11021479 0.11243349 0.06763119 -0.08379736
-0.0023451098 -0.050314825 -0.06883731 -0.027378596 -0.0030823222 -0.010171884 0.0033851448 0.0095127085

critic.2.bias f4 [64]
00000000: 6528 95bd 087a dc3c c03d f3bd c834 1cbd
00000010: d541 a2bd 9880 7ebd 7def 903d b6a2 bbbd
00000020: 3def 87bd 487b 7f3d 17cc e8bd 229e 19bd
00000030: fdea 833c 28d6 3bbd 6bf4 7e3d 6269 4fbe
00000040: e6e7 46bd 2808 483d 01e0 3a3d fba2 133d
00000050: 1425 a7bd 46c7 f0bc 836d 1ebe 40df 80bd
00000060: e966 493d d17a 9fbd 3a7c 253d 9090 97bd
00000070: 3384 1c3e c479 fd3c b44f 2c3c cde3 d0bd
00000080: ac89 013e 3bd6 b7bd e2bb 7b3d cfd9 ba3c
00000090: 13a9 d6bb f408 3bbc 8321 953d 7fa0 fb3d
000000a0: 4e32 04be 9f0e 673d a6b6 3dbc 40e6 e1bd
000000b0: d47b bcbd 9050 e3bd b05a f93d 3ddd f9bd
000000c0: a712 c5bc 21b8 00be 3407 653b 08a8 15bd
000000d0: 7e70 203d bbec 7dbd 90b6 e8bd cf6a 42bd
000000e0: 489d b5bd ab0a 18bb 3c30 b5bc 7c42 2bbe
000000f0: 507e 4e3d 5b8a 203d 5c94 5b3d 2fe4 7d3c
-0.07283095 0.026913658 -0.11877012 -0.038136274 -0.07922713 -0.062134355 0.07076929 -0.09161894
-0.06637428 0.06237343 -0.11367052 -0.037504323 0.016103262 -0.045858532 0.062244814 -0.20255044
-0.048561 0.048835903 0.045623783 0.036044102 -0.08161369 -0.029391896 -0.15471463 -0.062925816
0.04917041 -0.07787097 0.040401675 -0.0740062 0.15284805 0.030941851 0.01051705 -0.101996996
0.12650174 -0.08976408 0.061458476 0.022808937 -0.006550917 -0.011415709 0.072817825 0.122864716
-0.12909815 0.056410428 -0.011579191 -0.11030245 -0.09203306 -0.110993505 0.121755004 -0.12200401
-0.024056746 -0.1257024 0.003494692 -0.0365372 0.03916978 -0.061993342 -0.11362946 -0.04746514
-0.0886789 -0.0023199718 -0.022117727 -0.1672458 0.05041343 0.039194446 0.053608283 0.015496298

critic.4.weight f4 [1, 64]
00000000: 5c56 0a3d a4e0 8b3d 7891 693d 292e 07ba
00000010: 1596 b8bd dacc 55bd 2a9f 9d3d b582 01bd
00000020: 2ede 31bd 4d36 81bc 5d24 433d 542c 0ebc
00000030: d398 b3bc 2ff1 22bd 5c46 e1bd 4c17 ef3d
00000040: d956 793c 9887 8f3b 020f aa3d e676 17bd
00000050: 46fc 51bd a468 73bd 8219 c3bc ac3e 08bd
00000060: fc1e 96bc eed0 1bbd 14c2 083c 39c3 ed3c
00000070: ded2 7abd 0341 4cbd 74a4 2b3c 8908 f5bd
00000080: 9489 2bbd b25b 493c ac9f c73c 6ce8 9ebd
00000090: 899a 17bd ab48 523d e8d8 2a3d 55d1 99bc
000000a0: 2019 163c 934d 97bd c59f 97bd cd8b 13be
000000b0: 835c 203c 13d1 68bd cb8f 8ebc 4dc4 10bd
000000c0: 3cb6 6b3d 2575 2b3d b56e 80bb fef5 ddbc
000000d0: a2ff 34bd c14a 48bd 4c42 92bd 6685 8e3d
000000e0: 44a1 4ebd a637 683d d850 583d 0eae 50b8
000000f0: 132f 873d d59d a13c 8cf4 743d ef62 a9bd
0.033773765 0.06829956 0.057023495 -0.00051567197 -0.09013001 -0.052197315 0.07696374 -0.031618793
-0.043424778 -0.015772963 0.0476421 -0.008677561 -0.021923458 -0.03978079 -0.10999748 0.116743654
0.01521846 0.0043801777 0.08303644 -0.036978625 -0.051265977 -0.059425965 -0.023815874 -0.033262894
-0.018325321 -0.038041048 0.008347053 0.029023753 -0.061236255 -0.049866688 0.01047622 -0.119645186
-0.04187925 0.012289928 0.02436813 -0.07759175 -0.03701261 0.051338833 0.041710764 -0.018776575
0.009161264 -0.07387843 -0.074035205 -0.14408799 0.0097876815 -0.056840014 -0.01740255 -0.035343457
0.05754684 0.041859765 -0.0039194473 -0.027094837 -0.044189103 -0.048899416 -0.071415514 0.069590375
-0.050446764 0.056693695 0.052811474 -4.9753166e-05 0.066007756 0.01972858 0.05980353 -0.08270823

exp_avg f4 [6]
00000000: 02e2 2438 5a53 083a ce53 373b 38cc 3fba
00000010: b332 3d38 a7a1 18bb
3.9311133e-05 0.00052004086 0.0027973535 -0.0007316503 4.510833e-05 -0.0023289712

exp_avg_sq f4 [6]
00000000: c6ce 8635 a3fc 7337 f124 8c3a 797e 8f36
00000010: 3c88 a336 43bf 4d38
1.0043957e-06 1.454275e-05 0.0010692162 4.2764555e-06 4.8736383e-06 4.9053935e-05

exp_avg f4 [64, 25]
00000000: 54a7 c7b7 e918 e9b7 1cc0 96b8 6bcb 5db9
00000010: ff4c 99b8 7953 0eb7 d0c5 b5b7 fcfc 03b7
00000020: 075d e2b7 cc88 f437 e334 5b38 1795 65b8
00000030: e351 94b7 850d 57b6 4af5 b3b7 e3f0 33b8
00000040: 55c1 cbb4 e3f0 33b8 08c0 cb34 7341 f9b8
00000050: 8be3 62b8 45a6 25b9 39fe d3b9 bdc9 ffb8
00000060: 80f4 5db8 955f 8134 a5de b434 b83d 2935
00000070: 328d 3f36 ccc8 0035 7c62 88b5 83b5 5135
00000080: 3ac1 8ab5 6bff 4c36 b867 4536 3df8 a836
00000090: 8528 2036 22d3 d7b6 46d4 5436 c963 ebb6
000000a0: 92a6 80b7 eec7 12b6 92a6 80b7 f3c7 1236
000000b0: ca70 54b6 20ce 66b4 4266 ef35 0706 1737
000000c0: f88f 3536 5395 cd33 4ca9 28b9 55e2 5ab9
000000d0: c856 00ba ffd5 eaba 9bc8 16ba c5ad 9237
000000e0: f426 8db6 ec4a b138 de41 24b9 96a4 d937
000000f0: 150d c238 0e1a 3cb8 f017 fbb8 3d39 17b8
00000100: ab8f 3cb9 9582 b3b9 b4ab 4237 9582 b3b9
00000110: 05ac 42b7 a3d4 08ba a979 84b9 2e6e 88ba
00000120: 3652 68bb 2fe2 a6ba b38a 0e39 4f96 40b7
00000130: 48ae 86b7 f9c1 24b8 dd9f 06b9 3c94 3fb8
00000140: 9a11 85b6 50c2 86b7 0df6 9ab6 4c25 5cb7
00000150: 9016 ee36 8b76 1238 6529 f1b7 e732 87b7
00000160: 2d03 d5b4 4b10 9bb7 04dd 1eb8 a681 ab35
00000170: 04dd 1eb8 e181 abb5 d272 85b8 cf4c 01b8
00000180: a1e1 b6b8 2b2f 81b9 aadf 9bb8 2c49 09b8
00000190: e43b 58ba f42d 89ba e2f7 0abb 8bb3 b2bb
000001a0: c3d3 a5ba 6936 17ba 87b6 5bb8 7a20 2939
000001b0: 88df 2eba 0f41 4d3a ed14 803a 258a 95ba
000001c0: 1454 ecb9 4b59 62b9 9f5c 20ba 4d93 9cba
000001d0: c871 3a38 4d93 9cba 1c72 3ab8 6abe 0abb
000001e0: b2b8 f3ba d90b 94bb 5ad3 2cbc 8637 23bb
000001f0: 45cf d6ba 01d4 74b9 de81 ffb9 6b5f 80ba
00000200: dd08 81bb 18cd b2ba 9d9c ca39 e523 4cb9
00000210: a090 0239 cb0b 83b9 0012 4f39 f9cc c139
00000220: bb97 d2b9 4d84 71b9 eb81 bcb8 0780 b5b9
00000230: c462 31ba 7430 1fb8 c462 31ba 3830 1f38
00000240: a73e 79ba d2e9 4cba 6069 04bb 39ec 00bc
00000250: 6bce 39bb 6c3c 4f3a 2fa0 7e39 574e b739
00000260: 0bc0 5c3a 40ac 383b 2fae 733a df2d ae38
00000270: 063c 0638 df63 a6b7 c955 b939 77e8 83b8
00000280: 022f d9b9 fcbf 433a 05f1 8039 118c 4c38
00000290: a3dc 9e39 0352 253a 481a f4b7 0352 253a
000002a0: a31a f437 ea5c 093a b2e0 343a 5b4a f03a
000002b0: 5c37 bb3b 5f22 e53a b4bf 1d3a c5fb 33ba
000002c0: b871 71ba 438a 16bb 723f f0bb eeb2 07bb
000002d0: dc45 b0b9 813d 11ba 3d3b 1e39 2b3d 45ba
000002e0: a23d 14ba 6ae9 6c3a bc58 31ba 420c 05ba
000002f0: 08b6 46b9 530b 42ba d2c6 bbba 4770 57b8
00000300: d2c6 bbba e06f 5738 02b1 24bb 2909 bcba
00000310: b1ce 9fbb 41a9 71bc c7c8 8ebb 4d0b 8cba
00000320: 3cf8 e439 4470 1f3a 6b70 9a3a 22e8 483b
00000330: daa6 373a 7b24 d439 a0a4 4e39 cc71 94b8
00000340: d061 ea39 7735 60b9 6256 28ba 5ebc 263a
00000350: 75fd 9839 0af4 d838 0361 b039 e0ca 3b3a
00000360: 9dfc 09b8 e0ca 3b3a ddfc 0938 d89b a83a
00000370: ac13 8d3a 6d8d 283b 15c7 bf3b 921d b23a
00000380: 3f6f 9a3a 25f4 a338 d985 b438 6150 cd37
00000390: 40f7 65b9 b1d0 c536 5f21 bd38 9695 a5b9
000003a0: 049c c737 3f28 8f39 ab0e 96b9 aafc 7a39
000003b0: dd30 b939 7628 de38 55b6 bbb6 d670 fe37
000003c0: 31b3 1039 42d9 98b8 31b3 1039 45d9 9838
000003d0: cde1 a3b9 1c88 6e39 91b3 e538 c1fe c4b9
000003e0: a63e 27b9 7df8 c139 4fc1 adb7 9a65 8b37
000003f0: a813 193a d0b7 e43a a499 533a f153 2a39
-2.3800567e-05 -2.7787364e-05 -7.1883405e-05 -0.00021151981 -7.30995e-05 -8.483295e-06 -2.1668995e-05 -7.867111e-06
-2.6984619e-05 2.9150768e-05 5.2262923e-05 -5.4736705e-05 -1.7681106e-05 -3.2045366e-06 -2.1452684e-05 -4.290127e-05
-3.7952364e-07 -4.290127e-05 3.7951418e-07 -0.00011885436 -5.4094515e-05 -0.00015797566 -0.00040434467 -0.00012196924
-5.2918214e-05 2.4097668e-07 3.3689608e-07 6.304722e-07 2.8543404e-06 4.7975914e-07 -1.0161452e-06 7.81227e-07
-1.0338038e-06 3.0547042e-06 2.941566e-06 5.035689e-06 2.3865443e-06 -6.4320784e-06 3.171402e-06 -7.0151623e-06
-1.5336354e-05 -2.187207e-06 -1.5336354e-05 2.187208e-06 -3.1656114e-06 -2.1495407e-07 1.7836649e-06 9.001705e-06
2.7054903e-06 9.573218e-08 -0.00016084797 -0.00020874415 -0.0004895744 -0.0017916559 -0.00057519384 1.7485474e-05
-4.206662e-06 8.453973e-05 -0.00015664796 2.5945057e-05 9.2530776e-05 -4.484696e-05 -0.000119730714 -3.6054513e-05
-0.00017982598 -0.00034238832 1.1603279e-05 -0.00034238832 -1.16033525e-05 -0.00052196736 -0.00025267646 -0.0010408813
-0.0035449392 -0.0012732203 0.00013593845 -1.1479088e-05 -1.60552e-05 -3.9281298e-05 -0.0001283879 -4.5676003e-05
-3.965758e-06 -1.6064529e-05 -4.6182017e-06 -1.3121706e-05 7.0955793e-06 3.4919514e-05 -2.8748715e-05 -1.6116957e-05
-3.9676652e-07 -1.8485027e-05 -3.7875972e-05 1.2778225e-06 -3.7875972e-05 -1.2778293e-06 -6.363321e-05 -3.082753e-05
-8.720463e-05 -0.0002463994 -7.4326366e-05 -3.2731492e-05 -0.00082486705 -0.0010465966 -0.0021204879 -0.005453532
-0.0012651611 -0.00057683006 -5.238366e-05 0.00016129194 -0.0006670882 0.0007829824 0.0009771861 -0.0011408968
-0.0004507607 -0.00021586304 -0.0006117317 -0.0011945755 4.4451823e-05 -0.0011945755 -4.445213e-05 -0.0021170625
-0.0018594472 -0.004518014 -0.010548437 -0.002490492 -0.0016388675 -0.00023348631 -0.0004873415 -0.0009794062
-0.003937824 -0.0013641445 0.00038645128 -0.00019468328 0.00012451643 -0.00024995054 0.00019747764 0.00036964545
-0.0004016737 -0.00023032837 -8.988738e-05 -0.00034618398 -0.00067667314 -3.795368e-05 -0.00067667314 3.795346e-05
-0.0009507932 -0.00078168244 -0.002020441 -0.00786882 -0.0028351794 0.0007905427 0.00024283 0.00034962848
0.00084209506 0.002817884 0.000929567 8.305511e-05 3.200399e-05 -1.9835248e-05 0.00035349865 -6.289867e-05
-0.0004142449 0.00074672676 0.00024593636 4.8767837e-05 0.00030300496 0.0006306471 -2.9099305e-05 0.0006306471
2.909947e-05 0.00052399805 0.0006899937 0.0018332707 0.0057133865 0.0017481557 0.00060176407 -0.00068658247
-0.0009210366 -0.0022970594 -0.007331782 -0.0020706016 -0.00033621385 -0.0005540476 0.00015090122 -0.00075240684
-0.0005654936 0.0009037467 -0.00067652366 -0.0005075374 -0.00018950563 -0.00074022 -0.0014326221 -5.136456e-05
-0.0014326221 5.1364186e-05 -0.002512992 -0.0014345992 -0.0048769345 -0.014749826 -0.0043574306 -0.001068452
0.00043672498 0.00060820975 0.0011782771 0.003065594 0.0007005759 0.0004046297 0.00019707019 -7.078386e-05
0.00044704834 -0.00021382222 -0.00064215634 0.00063604664 0.0002918054 0.000103451384 0.00033641615 0.00071637146
-3.289861e-05 0.00071637146 3.2898843e-05 0.0012863828 0.0010763309 0.0025719062 0.00585259 0.0013589135
0.0011782421 7.817921e-05 8.608e-05 2.4475334e-05 -0.0002193125 5.8953524e-06 9.018438e-05 -0.00031582703
2.3795299e-05 0.0002730507 -0.00028621158 0.00023935983 0.00035322356 0.00010593321 -5.5942605e-06 3.0331703e-05
0.00013799664 -7.288392e-05 0.00013799664 7.2883944e-05 -0.00031258017 0.00022748153 0.00010953018 -0.0003757384
-0.000159497 0.00036996967 -2.0713223e-05 1.6617403e-05 0.0005839416 0.00174498 0.00080719055 0.00016243734
