04-goal-pose-l6/logs/rsl_rl/joint_position/2026-02-18_14-34-58/model_6800.pt (torch, 161397 bytes, 36 tensors)

std f4 [6]
0	0x3dd06ee3	0.101774
1	0x3cbb9ac5	0.022900948
2	0x3b535ad6	0.0032250187
3	0x3d766ba2	0.06016124
4	0x3d4f5af3	0.050623845
5	0x3bc42ad8	0.0059865527

actor.0.weight f4 [64, 25]
0	0xbd2988c5	-0.0413902
1	0x3e8aabb6	0.2708413
2	0xbeb2427f	-0.34816357
3	0xbe7dbe63	-0.24779658
4	0xbeabfa4f	-0.33589408
5	0xbe4daa05	-0.20084389
6	0x3d03e0a0	0.03219664
7	0xbdeb0ebe	-0.11477421
8	0x3e216ca2	0.15764096
9	0xbe0d2598	-0.13783872
10	0x3d77abc2	0.060466535
11	0x3cca7beb	0.024717292
12	0xbe4228e7	-0.18960916
13	0xbeaa837f	-0.3330345
14	0xbed41861	-0.4142485
15	0xbeadfa31	-0.33979943
16	0xbf00727b	-0.50174683
17	0xbe0e3f17	-0.13891254
18	0x3f0cd78a	0.55016387
19	0xbb89efc8	-0.0042094924
20	0x3ea6eee0	0.32604122
21	0xbef5fc5b	-0.48044094
22	0x3dadfca9	0.08495457
23	0xbdd64792	-0.1046287
24	0xbde97a6f	-0.114003055
25	0x3e3aa6cc	0.1822769
26	0x3e030b97	0.1279739
27	0xbebe04e9	-0.3711312
28	0xbed59b65	-0.4172012
29	0xbdaf4a7c	-0.08559129
30	0xbeda62ea	-0.4265359
31	0xbe0869af	-0.13321565
32	0x3dccabc0	0.09993696
33	0x3d6cae22	0.057783253
34	0x3c5f0d73	0.013614046
35	0xbdb4dd5b	-0.08831283
36	0xbd62535e	-0.055255286
37	0xbe8aa3f7	-0.2707822
38	0xbc788ddc	-0.015170541
39	0xbed0ea3e	-0.40803713
40	0xbe65221c	-0.22376293
41	0x3f844378	1.033309
42	0xbe95b6d7	-0.29241058
43	0xbf7dec76	-0.99188936
44	0x3daa7ce8	0.08324605
45	0x3e150785	0.1455365
46	0xbe832d0f	-0.25620314
47	0xbe5d76df	-0.21627377
48	0x3e54924d	0.20758934
49	0xbe7b116f	-0.24518369
50	0xbea9090d	-0.33014718
51	0x3e5e70b0	0.21722674
52	0xbdcfcef1	-0.10146893
53	0x3e20fe93	0.15722112
54	0xbe7acd6d	-0.24492426
55	0x3e02f8c9	0.12790217
56	0xbe82164c	-0.25407636
57	0x3e62e332	0.2215698
58	0x3dfd594b	0.12370547
59	0x3cf90741	0.030398967
60	0x3d071f69	0.03298894
61	0x3deff4c1	0.11716605
62	0xbed87c79	-0.42282465
63	0xbde3978a	-0.11112888
64	0xbd83af11	-0.06429876
65	0xbe67c5de	-0.22634074
66	0x3f0fa713	0.5611431
67	0xbe9a8220	-0.30177402
68	0xbf062843	-0.52405185
69	0xbe3a8dfb	-0.18218224
70	0xbe911105	-0.28333297
71	0x3a5d63fd	0.00084453804
72	0x3e12668d	0.14296933
73	0x3dd3fa7c	0.103505105
74	0xbc176703	-0.0092408685
75	0x3e2a812c	0.16650838
76	0x3e81cd13	0.25351772
77	0xbdb0e711	-0.086378224
78	0xbf2d0a3b	-0.67593735
79	0x3e0b214d	0.13586922
80	0xbf1831da	-0.5945107
81	0x3dd342b3	0.10315456
82	0x3dbba845	0.09162954
83	0xbd901157	-0.07034557
84	0xbe2aca7c	-0.16678804
85	0x3d8602e1	0.06543518
86	0x3a054269	0.0005083443
87	0xbebaddd8	-0.36497378
88	0xbe634657	-0.22194801
89	0xbeab5ef5	-0.33470884
90	0xbeb18fe5	-0.34680095
91	0x3f05fd64	0.5233977
92	0xbe977cf7	-0.29587528
93	0xbf1f25ce	-0.6216706
94	0x3e0f6b7d	0.14005847
95	0x3de72079	0.112854905
96	0xbe471275	-0.19440635
97	0x3e30176d	0.17196436
98	0xbdf34cbf	-0.118798725
99	0xbd051b21	-0.032496575
100	0xbe5edfef	-0.21765111
101	0xbefab37e	-0.48965067
102	0x3e9ac1fa	0.30226117
103	0x3df02f37	0.117277555
104	0xbe97838d	-0.29592553
105	0x3dfbf5ea	0.12302764
106	0x3dfbebba	0.12300821
107	0x3d3ce9f3	0.04612155
108	0xbb8e7ffd	-0.0043487535
109	0xbd280cd4	-0.04102786
110	0xbc8389e7	-0.016056968
111	0x3d844dc0	0.06460142
112	0xb9785cec	-0.00023685739
113	0x3e70c57a	0.23512831
114	0xbf3f65ca	-0.7476469
115	0xbccf3a0c	-0.025296234
116	0xbfbd2d66	-1.477948
117	0x3dea0b16	0.11427896
118	0x3fbf78b7	1.4958714
119	0xbde55fec	-0.11199936
120	0x3d4ce12b	0.050019424
121	0xbdca158f	-0.09867393
122	0x3d2f5dfe	0.042814247
123	0xbd7d56c5	-0.061850328
124	0xbd42b551	-0.047536198
125	0x3f08d958	0.5345664
126	0xbf021229	-0.5080896
127	0x3e41f59b	0.18941347
128	0x3e6a86ad	0.22902937
129	0x3f4d0ab2	0.80094445
130	0x3e04838b	0.12940805
131	0xbd8809e4	-0.066425115
132	0x3d7f9f57	0.062407818
133	0xbd1841bd	-0.037172068
134	0x3e5c9768	0.21542132
135	0xbe5a243e	-0.21302888
136	0xbc0832af	-0.008312865
137	0xbf0f0f66	-0.5588287
138	0xbf71f126	-0.9450859
139	0xbeb818a6	-0.35956305
140	0x3d6df239	0.05809233
141	0x3f70d4b0	0.94074535
142	0xbdcf4962	-0.101214185
143	0xbf49c7a1	-0.78820235
144	0x3ec7f2ba	0.39052373
145	0x3dda06d2	0.10645832
146	0xbe2753fc	-0.16340631
147	0x3c889173	0.016670918
148	0xbc555d75	-0.01302277
149	0x3d929a99	0.071583934
150	0x3d28222c	0.041048214
151	0x3f010539	0.50398594
152	0xbdd70155	-0.10498301
153	0xbe03a5d9	-0.12856235
154	0xbf40fe79	-0.75388294
155	0xbe9cbbc1	-0.30611995
156	0xbe445644	-0.19173533
157	0xbeac272e	-0.33623642
158	0x3dff697d	0.12471292
159	0xbb85c1f6	-0.00408196
160	0x3e201003	0.15631108
161	0x3d95c847	0.073135905
162	0xbe36fd9e	-0.17870185
163	0x4018bdb3	2.3865783
164	0x3f57e828	0.8433862
165	0xbda4f58b	-0.08054646
166	0x3ed96541	0.42460063
167	0x3d4eba64	0.050470725
168	0xbe87b1a4	-0.26502717
169	0xbe8a4a56	-0.2700984
170	0x3e7e9977	0.2486323
171	0xbd8ed943	-0.06975033
172	0x3de1c0a3	0.11023071
173	0xbd97ccd9	-0.074121185
174	0x3bbcedf6	0.005765672
175	0xbe61b1fe	-0.22040555
176	0x3eb53a1b	0.35395893
177	0x3dc69066	0.096955106
178	0x3dc022f0	0.09381664
179	0xbec6a645	-0.3879873
180	0xbea3eacc	-0.32015073
181	0x3d69898f	0.05701595
182	0x3ddf2d1e	0.10897277
183	0x3da3b7ca	0.07994039
184	0xbc71b1f5	-0.014751901
185	0xbc196697	-0.009362838
186	0xbe65da19	-0.22446479
187	0xbf8533f8	-1.0406485
188	0x3f7d8cf2	0.9904319
189	0xbc27aaf7	-0.010233632
190	0x3e9b2644	0.30302632
191	0xbcb2b5b9	-0.021815168
192	0x3cedd7b7	0.029033525
193	0xbda912bc	-0.082555264
194	0x3d91ddef	0.071224086
195	0x3e20bc2a	0.15696779
196	0x3cec6cd9	0.028860496
197	0x3db662ef	0.08905589
198	0xbcaad55c	-0.02085369
199	0xbd6cf7d0	-0.05785352
200	0x3e4d0b72	0.20023897
201	0x3f8768d3	1.0578865
202	0xbe9af7b6	-0.30267113
203	0xbe578bc4	-0.2104941
204	0xbed0ae45	-0.40757957
205	0x3e75885b	0.23977797
206	0xbdca5fec	-0.09881577
207	0x3d77d308	0.06050399
208	0xbdf84427	-0.12122374
209	0xbe88f02d	-0.2674574
210	0x3d54c448	0.051945
211	0x3dc8c1c9	0.098025866
212	0xbe1ecf2a	-0.15508714
213	0xc00197d6	-2.0248923
214	0x3f0c8462	0.548895
215	0x3ba96f0a	0.0051707076
216	0xbfaffc13	-1.3748802
217	0x3e4046b1	0.18776967
218	0x3fb9bcdd	1.4510761
219	0x3df3aa31	0.11897696
220	0x3eaeba1b	0.34126362
221	0xbdc94ed5	-0.09829489
222	0x3e3d8528	0.18507826
223	0x3d3b17c0	0.045676947
224	0x3dab0c68	0.08351976
225	0xbec1d8eb	-0.37860808
226	0xbd88e820	-0.06684899
227	0x3e679cef	0.22618459
228	0xbe7f1084	-0.24908644
229	0xbef2f85c	-0.47455108
230	0xbdb3553f	-0.08756494
231	0xbde74315	-0.11292092
232	0x3dcaac30	0.098961234
233	0xbe011886	-0.12607011
234	0xbd3abe6d	-0.04559176
235	0xbd04a9e0	-0.032388568
236	0x3da0a329	0.0784362
237	0xbf2bb771	-0.67076784
238	0x3f951189	1.1645976
239	0x3f19249a	0.59821475
240	0x3e390de8	0.18071711
241	0xbf801441	-1.0006181
242	0x3e1ab611	0.15108515
243	0x3f8e63b6	1.1124179
244	0xbdc78837	-0.09742778
245	0xbe23d15f	-0.15997837
246	0x3deb9bc1	0.11504317
247	0x3dd3f719	0.103498645
248	0xbd668853	-0.056282353
249	0xbe36a9c6	-0.17838201
250	0xbf7e4057	-0.99316925
251	0x3eb37697	0.35051414
252	0xbf2f9318	-0.6858382
253	0x3e9ccdf2	0.30625874
254	0xbf674c1b	-0.903505
255	0x3eef8a56	0.4678523

actor.0.bias f4 [64]
0	0xbe8c0920	-0.27350712
1	0xbedf1708	-0.4357226
2	0xbe683771	-0.22677399
3	0xbf050b85	-0.519707
4	0xbdcc4b22	-0.09975268
5	0xbe97e303	-0.29665384
6	0xbd9ead70	-0.07747924
7	0x3dfe7d9c	0.12426302
8	0xbd4702c5	-0.048586626
9	0x3e27e9a8	0.16397727
10	0xbd5bc30a	-0.0536528
11	0xbe6e28e7	-0.2325779
12	0xbe1a1970	-0.15048766
13	0xbd7f44a5	-0.062321324
14	0x3cec3e44	0.028838284
15	0xbe175399	-0.14777984
16	0x3d7abd19	0.061215494
17	0x3e4c072a	0.19924608
18	0xbdcab321	-0.098974474
19	0xbd929388	-0.071570456
20	0x3d2c6397	0.042087164
21	0xbd7d985e	-0.061912887
22	0xbafaf827	-0.0019147441
23	0xbe5197d9	-0.20468082
24	0x3d4721f3	0.04861636
25	0xbe4ff9c1	-0.20310117
26	0x3d55c1f0	0.052186906
27	0xbbca5b51	-0.0061754365
28	0xbe353f54	-0.17699939
29	0x3eaf3d9c	0.34226692
30	0xbe1f1ab9	-0.15537538
31	0xbe9754a5	-0.29556766
32	0xbc2e04da	-0.010621274
33	0xbd09daaa	-0.0336558
34	0x3de0652d	0.10956798
35	0x3e4a0031	0.19726636
36	0x3d0d6f51	0.034529988
37	0xbed1c045	-0.40967003
38	0x3e1d6681	0.15371133
39	0xbeb2ae53	-0.34898624
40	0xbc569ad5	-0.013098438
41	0xbd8beaa1	-0.06831861
42	0xbe45595d	-0.1927237
43	0x3de86eac	0.11349234
44	0x3ca93705	0.020656118
45	0xbe6ad690	-0.22933412
46	0x3db490b9	0.08816666
47	0xbd1f905a	-0.038956024
48	0x3c15c1ee	0.009140475
49	0x3e1bc8d7	0.15213333
50	0xbe004693	-0.12526922
51	0xbe5494e2	-0.2075992
52	0xbe725adf	-0.23667477
53	0xbe5d7448	-0.21626389
54	0x3d344263	0.044008624
55	0xbe818247	-0.25294706
56	0x3c125a73	0.008932698
57	0xbe3bab41	-0.18327047
58	0x3e0e866e	0.13918468
59	0x3cdf8ce3	0.02728886
60	0x3e0863ff	0.13319395
61	0xbd21068d	-0.039312888
62	0x3e65d9af	0.22446321
63	0x3e2ee00d	0.17077656

actor.2.weight f4 [64, 64]
0	0x3e497c9c	0.19676441
1	0x3e1fd3d5	0.15608151
2	0xbb03f901	-0.0020137432
3	0x3e17d347	0.1482669
4	0xbdb8ffbf	-0.09033155
5	0xbd0d330f	-0.03447252
6	0xbc69ecf0	-0.014277682
7	0x3d6d486f	0.057930406
8	0xbdcf3243	-0.101170085
9	0xbe4a30e8	-0.19745219
10	0x3da4ce22	0.08047129
11	0x3d75020a	0.059816398
12	0xbcf1552d	-0.02945956
13	0x3e4bcf26	0.1990324
14	0xbcfaa3dd	-0.030595714
15	0x3d0396a6	0.03212609
16	0xbe0c6794	-0.13711387
17	0xbc77b61b	-0.015119101
18	0xbd54d86e	-0.051964216
19	0xbda3fb7b	-0.080069505
20	0x3d5a37b3	0.053275775
21	0xbd6917c0	-0.056907415
22	0xbe3ee564	-0.18642193
23	0xbd8faf4f	-0.07015859
24	0xbd05ca36	-0.032663547
25	0xbe1aea07	-0.15128337
26	0x3c9ab2cb	0.018884083
27	0x3e391022	0.1807256
28	0x3e1a58f0	0.1507299
29	0xbd5b1c91	-0.05349404
30	0x3afd7c00	0.0019339323
31	0x3c0721fc	0.008247849
32	0x3de8b66f	0.113629214
33	0x3e2d46b1	0.16921498
34	0xbdf66eb0	-0.12032831
35	0x3deed346	0.11661391
36	0x3dca8004	0.09887698
37	0x3dea85e7	0.11451321
38	0x3e35c288	0.17749989
39	0x3ddeda36	0.10881464
40	0x3d4f6c9d	0.05064069
41	0x3e0206af	0.12697862
42	0xbc9cf7e9	-0.019161182
43	0xbd780684	-0.06055309
44	0xbdc3452c	-0.09534678
45	0x3e2ecf8e	0.17071363
46	0xbe31a18f	-0.17346786
47	0xbd95f2bc	-0.073216885
48	0xbe3e12c2	-0.18561843
49	0xbe7389f0	-0.23783088
50	0x3c7731f8	0.015087597
51	0xbd086722	-0.03330148
52	0x3e3adca8	0.18248236
53	0x3cde4a30	0.027134985
54	0x3da695c2	0.08134033
55	0xbaaf7ad2	-0.0013388044
56	0xbc9140d3	-0.017731106
57	0x3d6337b0	0.05547303
58	0xbe23ea37	-0.16007315
59	0xbd7e0489	-0.062016044
60	0x3ca98109	0.020691412
61	0xbc34db3e	-0.0110386
62	0xbdfab6ad	-0.12241874
63	0x3d86d588	0.065836966
64	0xbd533e03	-0.05157281
65	0xbdecc573	-0.11561098
66	0x3e7fcc9d	0.24980398
67	0x3d108ed2	0.035292454
68	0xbe058243	-0.13037972
69	0x3e71fddd	0.23631997
70	0x3deadc22	0.11467768
71	0x3e793bd7	0.24339233
72	0xbc5961fd	-0.013267991
73	0x3deeb5b1	0.11655749
74	0xbe829734	-0.25505984
75	0xbca64a25	-0.020299027
76	0x3d6b1836	0.057396136
77	0x3e1896bf	0.14901255
78	0xbdfb1acd	-0.12260971
79	0x3cd57815	0.026058236
80	0x3cd2c3b1	0.025728079
81	0xbd9f218f	-0.07770073
82	0xbdc93c4c	-0.09825954
83	0xbdf3ffad	-0.11914001
84	0x3e2d1ef0	0.16906333
85	0x3dfb6ccc	0.12276611
86	0xbe6b80cc	-0.22998351
87	0x3d2a31d0	0.04155141
88	0xbe5058b9	-0.20346345
89	0xbbba1d6c	-0.005679777
90	0x3dc9efdc	0.09860203
91	0x3baf757f	0.005354583
92	0x3d9cbfd3	0.07653775
93	0x3e3dc487	0.18532
94	0xbe3bf6f0	-0.18355918
95	0xbe350afb	-0.1767997
96	0x3df7e130	0.12103498
97	0x3e16dca0	0.147326
98	0xbdb5ee17	-0.08883303
99	0x3dbb42c8	0.09143597
100	0xbc72e1fd	-0.014824388
101	0x3d2c243a	0.042026736
102	0x3de91e3b	0.11382719
103	0xbd17c63f	-0.037054297
104	0x3b942d44	0.0045219976
105	0x3da5f81b	0.08103963
106	0x3c5354a1	0.012898595
107	0xbce49352	-0.027902279
108	0x3d7763d1	0.060397927
109	0x3cb3d48d	0.021951938
110	0xbe250ec2	-0.16118911
111	0xbd907a19	-0.07054538
112	0x3eaf5ee3	0.3425208
113	0xbe3f0b33	-0.18656616
114	0xbd92d88b	-0.071702085
115	0xbdae129f	-0.084996454
116	0x3c7a6f03	0.015285256
117	0xbe9cf80d	-0.30657998
118	0xbd5b9da6	-0.053617142
119	0x3eca59e6	0.39521712
120	0xbbf2d525	-0.0074106627
121	0xbd90c6e7	-0.070691876
122	0xbdeb6138	-0.114931524
123	0x3ceff9e3	0.02929396
124	0xbec52f5a	-0.3851269
125	0xbda8e250	-0.08246291
126	0x3ddaeeef	0.10690104
127	0xbde7c9b1	-0.113177665
128	0x3e353244	0.17694956
129	0x3f164a3b	0.58707017
130	0xbe691cb7	-0.2276486
131	0x3eac58cd	0.336615
132	0xbe451239	-0.19245233
133	0xbe30880a	-0.17239395
134	0x3e02084f	0.12698482
135	0x3db4e0bc	0.08831927
136	0xbe074250	-0.1320889
137	0xbde7ee00	-0.11324692
138	0xbd0b6769	-0.034034166
139	0x3e66c2e8	0.22535288
140	0xbe7ad871	-0.24496628
141	0x3eaa9baa	0.33321887
142	0x3e662a9c	0.22477192
143	0x3d807e65	0.06274108
144	0xbe9f3843	-0.31097612
145	0xbc54adb7	-0.01298087
146	0xbd49bd49	-0.049252782
147	0xbde77cf0	-0.11303127
148	0x3d9d509f	0.07681393
149	0xbe0577aa	-0.1303393
150	0xbcb8e905	-0.02257205
151	0xbe2d2516	-0.16908678
152	0x3e0b4fa2	0.13604596
153	0xbc990d30	-0.018683046
154	0x3eb0f81f	0.345643
155	0x3e5d95b9	0.21639146
156	0x3e5fb3ba	0.21845904
157	0x3b4c3feb	0.0031166028
158	0xbd828dd4	-0.06374708
159	0x3cc194ea	0.023630578
160	0x3e7c56b2	0.24642447
161	0x3e5fca5b	0.21854536
162	0xbcec87a7	-0.028873278
163	0xbca84ce7	-0.020544482
164	0xbd5980e3	-0.05310143
165	0x3d6ea97e	0.05826711
166	0x3e8fe0a3	0.28101072
167	0x3e4e1613	0.20125608
168	0xbe4b4b45	-0.19852932
169	0x3ef1fdad	0.47263852
170	0xbe88eaee	-0.26741737
171	0xbe8c66b6	-0.27422112
172	0x3d308d03	0.04310323
173	0x3e49999d	0.19687505
174	0x3cea974f	0.028636603
175	0xbdd37251	-0.103245385
176	0xbe1b54f9	-0.15169133
177	0xbc0d7c33	-0.008635568
178	0xbde55ffb	-0.111999474
179	0xbdd2e53b	-0.102976285
180	0x3e8229e2	0.2542258
181	0xbc17b6a5	-0.009259854
182	0x3e02f91f	0.12790345
183	0x3dee4b23	0.11635425
184	0xbd26654c	-0.040623948
185	0x3c19304e	0.009349896
186	0x3e142899	0.14468612
187	0x3e5505c4	0.2080298
188	0x3dd76c69	0.105187245
189	0xbc3b9341	-0.011448682
190	0xbe07926d	-0.13239451
191	0xbc327d44	-0.010894123
192	0x3d4a3ee9	0.049376402
193	0x3dcdc964	0.10048178
194	0xbe1b5f7f	-0.15173148
195	0xbdad38bb	-0.08458086
196	0x3e053787	0.13009463
197	0xbdc65847	-0.09684806
198	0xbeae53b6	-0.3404824
199	0xbe935036	-0.28772134
200	0xbe65ee03	-0.22454076
201	0xbedf8386	-0.43655032
202	0xbd909f6f	-0.070616595
203	0xbd9fbc3d	-0.077995755
204	0x3e5f8751	0.21828963
205	0x3e4a333b	0.19746105
206	0xbd8e7449	-0.069557734
207	0xbd95503f	-0.07290696
208	0x3e357f88	0.1772443
209	0xbd2c99d6	-0.042138897
210	0x3e1280ec	0.14306992
211	0x3ecc0f62	0.39855486
212	0xbda4039a	-0.080084994
213	0xb9468632	-0.00018932743
214	0x3e571a85	0.2100621
215	0xbd2f4f69	-0.04280034
216	0x3d613ea1	0.05499137
217	0x3bf452b6	0.007456149
218	0xbd6ded1a	-0.058087446
219	0xbd85cf92	-0.065337315
220	0xbc5e7c82	-0.01357949
221	0xbe83fc95	-0.25778642
222	0x3e513da8	0.20433676
223	0x3dcbb62d	0.09946857
224	0xbdc6fb52	-0.09715904
225	0x3c9d2132	0.019180868
226	0xbeae8cd5	-0.3409182
227	0x3dbd38c2	0.09239341
228	0xbb62a15b	-0.0034581039
229	0xbda3b1d3	-0.07992902
230	0xbce0501f	-0.027381955
231	0x3d1a9deb	0.03774826
232	0x3e3a8736	0.18215641
233	0x3e28278b	0.16421334
234	0x3e134cc7	0.14384757
235	0x3cff209e	0.031143483
236	0x3e0f1311	0.13972117
237	0x3e0d7758	0.13815057
238	0x3e9370a9	0.2879689
239	0x3e580187	0.21094333
240	0xbea49a8d	-0.32149163
241	0x3e31cb35	0.17362674
242	0x3ec302c9	0.38088062
243	0xbe400a8b	-0.18754022
244	0x3dc2960b	0.09501275
245	0x3e995e86	0.29954928
246	0xbe163497	-0.14668499
247	0xbeea4ab0	-0.45760107
248	0x3dc670a6	0.09689455
249	0x3dd38f91	0.103301175
250	0xbe28d0db	-0.16485922
251	0xbdc308fa	-0.095231965
252	0x3f144f1c	0.5793321
253	0x3d97a747	0.074049525
254	0x3e60c45b	0.21949904
255	0x3e2e3956	0.1701406

actor.2.bias f4 [64]
0	0xbe46470f	-0.19363044
1	0x3cce9c5e	0.025221046
2	0xbeb7fc0f	-0.35934493
3	0xbdb5ae4a	-0.088711336
4	0x3e20ae8e	0.15691587
5	0xbe7c5b0e	-0.2464411
6	0xbbade922	-0.0053073326
7	0xbea8e6d6	-0.32988614
8	0xbe3d70cd	-0.18500061
9	0x3e0db473	0.13838367
10	0xbe64f01c	-0.2235722
11	0x3e19a967	0.15006028
12	0xbe1af2c6	-0.15131673
13	0xbd6ad0cb	-0.057328027
14	0xbdbb9b1d	-0.09160445
15	0xbc84dc96	-0.016218465
16	0xbe0b3df7	-0.13597856
17	0x3e2a1b2b	0.16611926
18	0xbcd2c886	-0.025730383
19	0xbea3d4e2	-0.31998354
20	0x3e7f1087	0.24908648
21	0x3db13d48	0.086542666
22	0xbeacbfdb	-0.33740124
23	0xbc901a64	-0.017590709
24	0x3e1ecc73	0.15507679
25	0xbdad0e7d	-0.08450029
26	0xbe05b0c8	-0.13055718
27	0x3d758147	0.05993774
28	0xbda62945	-0.0811334
29	0xbda91638	-0.08256191
30	0xbef43f11	-0.47704366
31	0x3daafe04	0.08349231
32	0xbe96b41e	-0.29434294
33	0x3c5f781c	0.013639476
34	0xbefdcee2	-0.49571902
35	0xbea0bc43	-0.31393632
36	0xbba539d0	-0.005042292
37	0xbddd45fd	-0.10804365
38	0x3e82ae9b	0.25523838
39	0xbc67afbb	-0.0141410185
40	0x3cd61ae6	0.026135873
41	0xbdf241d4	-0.11828962
42	0xbc401630	-0.01172404
43	0x3d584748	0.052802354
44	0xbd1cf0c9	-0.038315568
45	0x3d117715	0.035513956
46	0x3ca7c277	0.02047847
47	0xbc5ee114	-0.0136034675
48	0x3d4a0257	0.049318638
49	0xbd390812	-0.045173712
50	0x3e27dba7	0.16392384
51	0xbe70b2e9	-0.23505749
52	0xbeae9f0b	-0.34105715
53	0xbcf04c36	-0.029333215
54	0xbedb56aa	-0.42839557
55	0xbe4cf33f	-0.20014666
56	0xbd6cdb6f	-0.057826456
57	0xbe8335fe	-0.2562713
58	0xbd85bb3b	-0.06529852
59	0xbd9254a7	-0.071450524
60	0xbd3f7f89	-0.046752486
61	0x3b9655f6	0.004587884
62	0x3d84e02d	0.06488071
63	0xbe5fd282	-0.21857646

actor.4.weight f4 [6, 64]
0	0xbda450f8	-0.08023256
1	0x3dbfc7b0	0.09364259
2	0xbbdb5965	-0.0066940063
3	0x3d0326e1	0.0320195
4	0x3a885d8d	0.0010403857
5	0x3e462e79	0.19353665
6	0xbd8ef9bc	-0.06981227
7	0xbcf5843d	-0.029970283
8	0x3df53cb5	0.119744696
9	0x3e1ceddf	0.15325116
10	0xbddb0695	-0.10694615
11	0x3e11f1ad	0.14252348
12	0xbeab1784	-0.33416378
13	0xbe13d06f	-0.1443498
14	0x3e38f130	0.18060756
15	0x3e048029	0.12939514
16	0xbd98bf45	-0.07458357
17	0x3d06bba9	0.03289381
18	0x3c2acaae	0.010424299
19	0x3d9ec412	0.07752241
20	0xbd320294	-0.04345949
21	0x3d32dd7c	0.043668255
22	0x3cda020f	0.02661231
23	0x3ddb510c	0.10708818
24	0xbdb2e22f	-0.08734547
25	0x3df585da	0.11988421
26	0x3e665d2d	0.22496481
27	0x3d3ada84	0.04561855
28	0xbdee5117	-0.116365604
29	0xbdcb7a8c	-0.09935483
30	0x3d39ec1c	0.045391187
31	0x3e340ab0	0.17582202
32	0xbd375f0e	-0.044768386
33	0xbd240790	-0.040046275
34	0x3d9c3c86	0.076287314
35	0xbe9ac057	-0.3022487
36	0xbe83b00a	-0.25720245
37	0x3dba5679	0.090985246
38	0xbcc22bf6	-0.023702603
39	0xbcba34c9	-0.022730248
40	0xbd5a0012	-0.053222723
41	0xbdef0ed1	-0.11672748
42	0x3e6214d7	0.22078262
43	0x3dd277b5	0.102767386
44	0x3e499f6b	0.1968972
45	0x3e1a7480	0.15083504
46	0x3d8b4808	0.06800848
47	0xbdd6ef78	-0.10494894
48	0xbd6506de	-0.055914752
49	0x3d63e7dd	0.055641044
50	0x3d8730fc	0.0660114
51	0xbd90f977	-0.07078832
52	0xbdb06708	-0.08613402
53	0x3df3bce7	0.11901265
54	0xbd99330c	-0.074804395
55	0xbda252f6	-0.0792598
56	0xbd614e6c	-0.05500643
57	0xbda6660e	-0.08124934
58	0x3a9a13c7	0.0011755162
59	0xbd93c74b	-0.072157465
60	0xbdca2fbe	-0.09872387
61	0xbdf4c78a	-0.119521216
62	0x3d2254c4	0.03963162
63	0x3e4df122	0.20111516
64	0xbcfcfac9	-0.030881302
65	0xbe05d0f3	-0.13067989
66	0xbd15dffd	-0.036590565
67	0x3eb63c1c	0.35592735
68	0x3d27c344	0.040957704
69	0x3e229422	0.1587682
70	0xbe694c85	-0.22783096
71	0x3dd8db5b	0.10588714
72	0x3d1f54ed	0.03889935
73	0x3cb44f40	0.022010446
74	0xbdb15fce	-0.086608514
75	0xbe52da6d	-0.20591135
76	0xbcb59852	-0.022167359
77	0xbd4cd974	-0.050012067
78	0xbe6e91f6	-0.23297867
79	0x3c986deb	0.0186071
80	0xbd709297	-0.05873355
81	0xbe1596fa	-0.14608374
82	0xbd3f2b54	-0.04667218
83	0x3ce83243	0.02834428
84	0xbd7337cc	-0.059379384
85	0xbbc7efa7	-0.006101567
86	0xbc6d9184	-0.014500026
87	0x3dc0047f	0.093758576
88	0xbd70cca2	-0.058788903
89	0xbe4f214f	-0.2022755
90	0xbd2c9139	-0.042130683
91	0xbe5f245e	-0.21791217
92	0xbe06ae24	-0.13152367
93	0xbd857066	-0.06515579
94	0x3dc75376	0.09732716
95	0x3d85a320	0.06525254
96	0xbd822b4a	-0.06355913
97	0xbd146ad0	-0.036234677
98	0x3da27c8a	0.0793391
99	0xbe23279c	-0.15933079
100	0xbdfc0814	-0.12306228
101	0xbdab773d	-0.08372352
102	0x3d4596a6	0.048239373
103	0xbb3ee6ce	-0.002912927
104	0xbe27d9ef	-0.16391729
105	0xbdaba966	-0.083819196
106	0x3dda1de9	0.10650236
107	0x3e2fa7cd	0.17153855
108	0xbc379aaa	-0.011206308
109	0xbdd7b310	-0.105322
110	0xbe46c3ef	-0.1941068
111	0xbd7816ed	-0.06056874
112	0x3daa124d	0.08304272
113	0x3d16174d	0.036643315
114	0xbc9a8321	-0.018861355
115	0xbe061a18	-0.13095891
116	0x3c72e1f6	0.014824381
117	0xbe13422c	-0.14380711
118	0xbd3fe936	-0.046853267
119	0xbcba0b17	-0.022710366
120	0xbd31890a	-0.04334358
121	0xbe1e7d39	-0.15477456
122	0x3e7df583	0.24800687
123	0xbe553475	-0.20820792
124	0xbe0fe45b	-0.14051954
125	0xbda61732	-0.08109893
126	0xbe223335	-0.15839846
127	0x3e54b1e1	0.2077098
128	0xbd151691	-0.036398474
129	0x3c8bc806	0.017063152
130	0x3cc4fc5c	0.024046116
131	0xbd860108	-0.065431654
132	0x3ddd25cd	0.107982256
133	0xbd93bf6c	-0.07214245
134	0x3e07e1c5	0.13269718
135	0xbdc307fe	-0.09523009
136	0x3dd10e46	0.102078006
137	0x3de8f26b	0.113743626
138	0x3d7fcb52	0.06244976
139	0xbd8ee01c	-0.06976339
140	0x3d2a23ba	0.041537978
141	0xbe024c19	-0.12724341
142	0xbe8b0154	-0.2714945
143	0x3d0551cd	0.032548714
144	0xbe811c82	-0.25217062
145	0x3d29b6b4	0.041434005
146	0xbe09a80f	-0.13443016
147	0xbda777e3	-0.081771635
148	0x3ddc97fb	0.107711755
149	0xbdfbc002	-0.12292482
150	0x3e05e89c	0.13077015
151	0xbde358af	-0.111008994
152	0x3c050985	0.008119945
153	0xbd847d51	-0.06469215
154	0xbddb18b2	-0.1069807
155	0x3d918e67	0.07107239
156	0xbe516b6f	-0.20451139
157	0xbd98023d	-0.07422302
158	0xbe7b0e84	-0.24517256
159	0x3d154c06	0.036449455
160	0xbdb28076	-0.08715908
161	0x3d0243a8	0.031802803
162	0xbdbade78	-0.09124464
163	0x3d8e9169	0.069613285
164	0x3ea954b1	0.33072427
165	0x3e09f81d	0.13473554
166	0x3d0d6307	0.034518268
167	0xbc6a8589	-0.014314064
168	0x3cef746b	0.029230317
169	0xbd2285cf	-0.03967839
170	0x3d88fd15	0.066888966
171	0x3e0a88be	0.13528726
172	0x3e691e61	0.22765495
173	0x3c25268d	0.010079992
174	0x3d9309b4	0.07179585
175	0xbcbf78fb	-0.023373118
176	0x3e200554	0.15627033
177	0x3e0a7ad6	0.1352342
178	0x3d69c92d	0.05707662
179	0xbd72a961	-0.059243564
180	0xbe06ddba	-0.1317052
181	0x3d89a71e	0.06721328
182	0x3d2d6c29	0.042339478
183	0xbd8c8c6a	-0.06862719
184	0xbd4017a3	-0.04689754
185	0xbdf8f98c	-0.12156972
186	0xbdf56414	-0.11981979
187	0xbda7fd87	-0.082026534
188	0xbdf853d6	-0.121253654
189	0xbdbe3bfe	-0.09288786
190	0xbd94f31b	-0.07272931
191	0x3e1b7e28	0.15184844
192	0xbdf36c90	-0.11885941
193	0x3d122bce	0.035686307
194	0xbeb1b454	-0.34707892
195	0xbb7cc6a7	-0.0038570554
196	0x3e24faff	0.16111372
197	0xbe244b8c	-0.16044444
198	0xbd869226	-0.06570844
199	0xbeb7e6bf	-0.35918233
200	0xbd86dc05	-0.06584934
201	0x3dba0aac	0.09084067
202	0xbd9b2786	-0.07575898
203	0x3d79d298	0.060991853
204	0xbd5b3063	-0.053512942
205	0xbe067fe6	-0.13134727
206	0x3d8149cf	0.06312906
207	0x3e298329	0.1655394
208	0xbe085405	-0.13313301
209	0xbddfe2ea	-0.10931952
210	0x3c10fe60	0.00884971
211	0xbeac7b5c	-0.33687866
212	0x3e5a4fbb	0.21319477
213	0x3d730404	0.05933
214	0xbe4ce3df	-0.20008801
215	0x3db775c1	0.08958007
216	0x3d8ccabb	0.06874605
217	0xbd933e22	-0.07189585
218	0x3d43db80	0.047816753
219	0xbb9f7095	-0.0048657157
220	0xbda7c57b	-0.08191963
221	0xbc4c4a3a	-0.012468869
222	0xbec1f76b	-0.37884077
223	0x3ddbeb93	0.107382916
224	0xbe58bb78	-0.21165264
225	0x3d1cfc80	0.03832674
226	0xbe979ed0	-0.29613352
227	0xbd7916df	-0.060812827
228	0x3d09817e	0.03357076
229	0xbd36ef1d	-0.04466163
230	0x3e58b050	0.21161008
231	0xbe11f2cd	-0.14252777
232	0x3e8730d0	0.26404428
233	0xbd907c69	-0.07054979
234	0x3e03df24	0.1287809
235	0x3d85fd7a	0.065424874
236	0xbd0ec000	-0.034851074
237	0xbdb04daf	-0.08608567
238	0xbd4b092e	-0.0495693
239	0xbbbc7b72	-0.0057520205
240	0x3d62c1d1	0.05536062
241	0x3d8301ba	0.06396814
242	0xbda39d14	-0.07988945
243	0xbdd7656a	-0.1051739
244	0xbe8d5262	-0.27601916
245	0x3c91fd65	0.017821023
246	0xbe77f9be	-0.24216363
247	0xbe1a825a	-0.15088788
248	0xbe0620e2	-0.13098481
249	0xbe26e75a	-0.16299191
250	0x3d9f4ce7	0.0777834
251	0x3dfd97eb	0.12382492
252	0x3d417585	0.047231216
253	0xbd34fdad	-0.044187237
254	0x3dcd9b1a	0.10039349
255	0xbd1108ff	-0.03540897

actor.4.bias f4 [6]
0	0xbe51b97b	-0.20480911
1	0xbc6f7182	-0.014614465
2	0x3dee6f84	0.11642364
3	0x3e9f2a4a	0.31086951
4	0x3d93ad10	0.072107434
5	0x3e84f931	0.25971368

critic.0.weight f4 [64, 25]
0	0x3e3571ed	0.1771924
1	0x3d99fdd9	0.07519121
2	0x3dabb89a	0.08384819
3	0xbe0a4701	-0.13503648
4	0x3da1cf6f	0.07900893
5	0xbdb41ed5	-0.08794943
6	0xbcbb2717	-0.022845788
7	0xbd75bc5c	-0.059994087
8	0x3d0a9911	0.03383738
9	0xbd8f9cfb	-0.070123635
10	0x3d110dff	0.03541374
11	0xbd4b3cd5	-0.04961856
12	0xbd24b54c	-0.04021196
13	0x3e3e053d	0.18556686
14	0xbe43dbbb	-0.1912679
15	0xbe110bba	-0.1416463
16	0x3f7366b2	0.95078576
17	0xbccb2473	-0.024797654
18	0xbf5da682	-0.86582196
19	0x3d53e4a3	0.051731717
20	0xbd2c9673	-0.042135667
21	0xbe0d7bd0	-0.13816762
22	0x3d78cb37	0.060740676
23	0xbda2f3cf	-0.07956659
24	0x3d666285	0.0562463
25	0x3e9488f2	0.2901073
26	0xbe1249da	-0.14285985
27	0xbe7a5943	-0.24448113
28	0xbe49466b	-0.19655769
29	0xbde36dc4	-0.111049205
30	0x3a54d900	0.0008119494
31	0x3df667b9	0.12031502
32	0x3e51c40e	0.20484945
33	0xbe368cd8	-0.17827165
34	0xbe0ce800	-0.13760376
35	0xbd5d30af	-0.054001506
36	0x3e09d710	0.13460946
37	0xbdfd7e8f	-0.12377655
38	0x3eee988a	0.46600753
39	0xbd747283	-0.05967952
40	0x3d099ab6	0.03359481
41	0x3de82260	0.113346815
42	0x3bd17985	0.00639266
43	0xbe8798c5	-0.2648374
44	0xbd7ffd86	-0.06249764
45	0xbdba835e	-0.091070876
46	0x3dd10944	0.102068454
47	0xbd9041c6	-0.07043795
48	0xbe190f9c	-0.14947361
49	0x3de069e8	0.109577
50	0xbe23f3c9	-0.16010965
51	0xbc32a85a	-0.010904396
52	0xbc44e903	-0.012018445
53	0x3d7acd73	0.061231088
54	0x3d987f6a	0.07446177
55	0x3e31a6b8	0.17348754
56	0x3be6ca24	0.00704314
57	0x3d774183	0.06036521
58	0x3c981bd7	0.018567963
59	0xbd1d6344	-0.038424745
60	0xbd8fabbc	-0.070151776
61	0x3d4124ec	0.047154352
62	0x3e87c385	0.26516357
63	0xbf2f97a6	-0.6859077
64	0xbe6ab3e1	-0.22920181
65	0x3e5bdf3b	0.21471874
66	0xbeb97a90	-0.3622632
67	0xbdcdcc1d	-0.10048697
68	0x3dee30b4	0.11630383
69	0xbd88eb28	-0.066854775
70	0xbd4540ce	-0.048157506
71	0x3dbd5275	0.09244243
72	0xbd1cef8a	-0.03831438
73	0x3d06982a	0.03285996
74	0xbd06d260	-0.032915473
75	0xbe8045d7	-0.25053284
76	0x3b052857	0.0020318234
77	0x3cafee64	0.021475978
78	0x3e0926b8	0.13393676
79	0xbe5b4324	-0.21412331
80	0xbdea005a	-0.11425848
81	0x3e4f64ab	0.20253246
82	0xbe91e6a7	-0.28496286
83	0x3e0ba936	0.13638768
84	0xbe0594e4	-0.13045079
85	0x3dc3e0ad	0.09564338
86	0x3d31feb0	0.04345578
87	0x3e88f201	0.26747134
88	0xbece3900	-0.40277863
89	0x3e3c0e3e	0.18364808
90	0xbe3d5096	-0.18487772
91	0x3d82a143	0.063784145
92	0x3e295437	0.16536032
93	0x3ddc84c5	0.10767511
94	0x3d6c0b79	0.05762813
95	0x3e442ce5	0.19157751
96	0x3d808567	0.062754445
97	0x3deb7bb5	0.114982046
98	0xbdc88860	-0.097916365
99	0xbdec4784	-0.11537078
100	0x3e48cadf	0.19608639
101	0xbd950355	-0.07276026
102	0x3e59b194	0.21259147
103	0xbe53a0c3	-0.20666794
104	0xbda38f48	-0.07986313
105	0xbe497624	-0.19673973
106	0x3ddc83dc	0.10767338
107	0x3d91b865	0.071152486
108	0xbcc5c0de	-0.024139818
109	0xbde5d3c1	-0.112220295
110	0x3bf9c97b	0.0076228953
111	0xbd8be8ab	-0.06831487
112	0xbe1d64a7	-0.15370427
113	0x3f82a650	1.0207005
114	0x3ed33024	0.41247666
115	0x3d6e9d5d	0.058255542
116	0x3e5f0934	0.21780854
117	0x3d261b8d	0.04055362
118	0xbe176056	-0.14782843
119	0xbdcf0bf5	-0.101097025
120	0x3e26e242	0.16297248
121	0x3d4e2946	0.05033233
122	0x3e0564b7	0.13026701
123	0x3ce28a5b	0.027653864
124	0xbcd4e4a2	-0.025987927
125	0xbeca5152	-0.39515167
126	0xbe12cd71	-0.14336182
127	0x3d2f29c1	0.04276443
128	0xbcc87a0d	-0.02447226
129	0x3cb75451	0.022379072
130	0x3e515044	0.20440775
131	0xbdad978e	-0.084761724
132	0x3d8a17b5	0.06742803
133	0x3d20760d	0.039175082
134	0xbd869731	-0.06571806
135	0xbd963814	-0.07334915
136	0xbccfce81	-0.025367023
137	0xbcccba5e	-0.02499121
138	0xbea68278	-0.32521415
139	0xbe872a6d	-0.26399556
140	0xbdc177ce	-0.09446679
141	0xbf0d82a4	-0.55277467
142	0x3d26dea7	0.04073968
143	0x3ee60cf2	0.4493175
144	0xbd3dc964	-0.04633464
145	0x3d571408	0.052509338
146	0x3d861635	0.065472044
147	0xbbe78fde	-0.007066711
148	0x3cda5825	0.026653359
149	0xbcf75777	-0.030193074
150	0x3e2bfaa2	0.16794828
151	0x3e469a10	0.19394708
152	0xbe0d8862	-0.13821557
153	0xbd76a477	-0.06021544
154	0x3e08659a	0.13320008
155	0x3d38e908	0.04514411
156	0xbdbf90b3	-0.09353771
157	0x3d9692de	0.073522314
158	0x39e9c9e9	0.00044591658
159	0xbd9bb5df	-0.076030485
160	0x3d8a976f	0.06767165
161	0x3e03a6a8	0.12856543
162	0xbe115522	-0.14192632
163	0x3f0ee5f6	0.5581964
164	0x3e305099	0.17218246
165	0x3b640367	0.0034792067
166	0x3f08619c	0.5327394
167	0xbe148fb7	-0.14507948
168	0xbeb68ef5	-0.35655943
169	0x3d352ffa	0.044235207
170	0x3d0bea92	0.03415925
171	0x3d7ce430	0.061741054
172	0x3d8e1eb2	0.069394484
173	0x3d21963b	0.03944991
174	0xbdf2b3a7	-0.11850672
175	0xbe871a3d	-0.26387206
176	0xbe23b200	-0.1598587
177	0xbe9d773f	-0.3075504
178	0x3de8f60a	0.11375053
179	0x3e1761b2	0.14783362
180	0x3d02c3c4	0.031924978
181	0x3c43d0c2	0.011951627
182	0xbd5f8675	-0.054571588
183	0x3cffb6ce	0.031215098
184	0x3e321637	0.17391287
185	0x3d6003d8	0.054691166
186	0xbc89cdb3	-0.016821718
187	0x3d406631	0.046972457
188	0x3f70952d	0.93977624
189	0xbee62870	-0.44952726
190	0x3e450276	0.1923922
191	0x3e25948a	0.16169944
192	0xbe0299eb	-0.12754028
193	0xbe5087b7	-0.20364271
194	0xbe36b568	-0.17842638
195	0xbda7ec4a	-0.081993654
196	0x3d34e91d	0.044167627
197	0x3d907dae	0.070552215
198	0xbd871a42	-0.06596805
199	0xbdc1dd7c	-0.09466073
200	0x3e6520cd	0.22375794
201	0xbe48cf16	-0.19610247
202	0x3d4274fe	0.047474854
203	0xbddb21d5	-0.10699812
204	0x3d6d4412	0.057926245
205	0xbd79df55	-0.061004
206	0x3d40e838	0.04709646
207	0xbde554fd	-0.11197851
208	0x3dcf7fd7	0.101318054
209	0xbe1faa6f	-0.15592359
210	0x3dbd4252	0.09241165
211	0xbcdd4178	-0.027008757
212	0xbc2830d4	-0.010265548
213	0xbe4f9038	-0.20269859
214	0xbeb19f57	-0.3469188
215	0xbe0c70b5	-0.1371487
216	0x3e13d81a	0.14437905
217	0x3dfa27fb	0.12214657
218	0x3ca5ff10	0.020263225
219	0xbcfd1975	-0.030895928
220	0x3dcae162	0.099062696
221	0xbdf40340	-0.119146824
222	0x3e1b3922	0.15158513
223	0xbe43b607	-0.19112407
224	0x3d9dd114	0.07705894
225	0xbe38c9ec	-0.18045777
226	0xbe0c5b7a	-0.1370677
227	0x3d557eda	0.05212293
228	0xbddc72e1	-0.10764099
229	0x3da2b0f8	0.0794391
230	0xbdf230c9	-0.11825711
231	0xbb23e374	-0.0025007399
232	0x3c8e8b93	0.017400539
233	0x3d8b4b4f	0.06801473
234	0xbd456b13	-0.048197817
235	0x3c128464	0.008942697
236	0xbb489062	-0.0030603637
237	0x3eb853d8	0.36001468
238	0x4093f619	4.623791
239	0xbf4900b1	-0.7851668
240	0xbe8114ce	-0.25211185
241	0x3f285030	0.65747356
242	0xbe86577d	-0.26238623
243	0xbf0631a9	-0.52419525
244	0xbd872509	-0.06598861
245	0x3ca6bc0e	0.020353343
246	0x3ca139c5	0.019680867
247	0x3d78420f	0.060609873
248	0xbc6d65dd	-0.014489618
249	0x3cb1d01b	0.021705678
250	0x3e03b5a8	0.12862265
251	0xbde237a2	-0.11045767
252	0xbe422b87	-0.18961917
253	0xbdaf839c	-0.08570024
254	0x3dacb051	0.08432067
255	0x3ce9f6f4	0.02856014

critic.0.bias f4 [64]
0	0x3e38ef22	0.18059972
1	0x3e714cb3	0.23564415
2	0xbe1bf348	-0.15229523
3	0xbbd3ff9c	-0.00646968
4	0x3cb166e8	0.021655515
5	0xbe33c441	-0.17555334
6	0x3e118884	0.14212233
7	0xbe026faa	-0.12737909
8	0xbc69fa4e	-0.014280869
9	0x3d9fcbef	0.07802569
10	0x3e1527c0	0.14565945
11	0x3da393e7	0.079871945
12	0xbe2afe82	-0.1669865
13	0xbd1f7fcf	-0.038940247
14	0x3d3a8d88	0.04554513
15	0xbcb651ea	-0.022255857
16	0xbe44a78b	-0.19204538
17	0x3d28ec5f	0.041241046
18	0x3c913aa5	0.01772816
19	0x3da9331a	0.082617
20	0x3e2e7c4a	0.170396
21	0x3da32da1	0.079676874
22	0x3d9f319e	0.077731356
23	0x3e211489	0.1573049
24	0xba88f2f2	-0.001044838
25	0xbc705cc9	-0.014670559
26	0xbd6daf48	-0.05802849
27	0xbc56e51f	-0.01311615
28	0x3d983842	0.07432605
29	0x3e249db8	0.1607579
30	0x3c91e307	0.01780845
31	0xbdd9c1ab	-0.10632642
32	0xbc6a2230	-0.0142903775
33	0xbddc781b	-0.10765096
34	0x3e832a1c	0.25618064
35	0xbdbafc09	-0.09130103
36	0x3d402261	0.046907786
37	0xbdd5802e	-0.10424839
38	0xbcf1aac0	-0.029500365
39	0x3e01674c	0.12637061
40	0xbe29416b	-0.16528861
41	0xbe1e661a	-0.15468636
42	0xbd8ebcbf	-0.06969594
43	0x3e079bbc	0.13243002
44	0xbc8fa851	-0.017536314
45	0x3c0fad38	0.008769326
46	0xbe098cf1	-0.13432671
47	0x3def575c	0.11686584
48	0x3c2aab8f	0.010416879
49	0x3e1cb1cc	0.15302199
50	0x3ce8b7d4	0.028407969
51	0xbc33c1b3	-0.010971474
52	0xbdb0c53a	-0.08631368
53	0xbdda88d6	-0.10670631
54	0x3e329f17	0.174435
55	0x3d2c91d7	0.04213127
56	0xbdf03354	-0.1172854
57	0x3daf5e14	0.08562866
58	0xbe09e1fd	-0.13465114
59	0x3dd42120	0.103578806
60	0xbe1629e1	-0.14664413
61	0x3a9bdb31	0.0011890886
62	0x3bb912cd	0.005647993
63	0x3d1ab76f	0.037772592

critic.2.weight f4 [64, 64]
0	0xbddaa395	-0.10675732
1	0xbd01f3cb	-0.03172664
2	0xbe4db257	-0.20087563
3	0x3d3276bc	0.043570265
4	0x3d5dcab1	0.05414838
5	0xbe147ed4	-0.14501506
6	0x3d9a8aa5	0.075459756
7	0x3d6b5433	0.057453346
8	0xbc393e1b	-0.011306311
9	0xbe03acc7	-0.12858878
10	0x3dc1d393	0.09464183
11	0x3c9cb459	0.019128965
12	0xbd245cce	-0.040127568
13	0x3ddf049a	0.108895496
14	0xbc60acb2	-0.013713049
15	0xbdbd16d0	-0.09232867
16	0xbd6b56c5	-0.057455797
17	0xbd1d77c2	-0.038444288
18	0xbca062c7	-0.01957835
19	0xbd870dcd	-0.06594429
20	0x3dc6474f	0.0968157
21	0x3e0f5a2f	0.13999246
22	0x3dc227d7	0.09480255
23	0x3c26e34c	0.010186028
24	0x3cd6cd04	0.026220806
25	0x3d2342f1	0.039858762
26	0x3dbbbca5	0.091668405
27	0x3d149d0d	0.036282588
28	0xbdb8c70f	-0.090223424
29	0x3d257480	0.040394306
30	0x3d75db26	0.06002345
31	0xbde1a75d	-0.1101825
32	0x3e014e07	0.12627421
33	0x3dbe8b8c	0.0930396
34	0xbd04855d	-0.032353748
35	0x3d87077d	0.06593225
36	0xbe03840b	-0.12843339
37	0x3d5562d4	0.052096203
38	0xbc84aeaf	-0.016196577
39	0x3dc1637d	0.09442804
40	0xbe3c06e6	-0.18362007
41	0xbc8893a3	-0.016671961
42	0xbd868879	-0.06568999
43	0xbdcda515	-0.100412525
44	0x3d0d22b8	0.03445694
45	0xbe1c1ada	-0.15244618
46	0x3c365d55	0.0111306505
47	0x3e0400a3	0.12890868
48	0xbc92bdb8	-0.01791273
49	0x3db5b37a	0.08872123
50	0x3df90c66	0.12160568
51	0xbc9b914a	-0.018990178
52	0x3db3f5aa	0.08787091
53	0x3de6440f	0.1124345
54	0xbd42f362	-0.04759539
55	0xbc943d9d	-0.018095786
56	0x3bd10dda	0.006379825
57	0xbd89018b	-0.066897474
58	0x3d8b18cc	0.06791839
59	0xbda90a49	-0.08253915
60	0x3c0d17b8	0.008611612
61	0x3dce7ca5	0.10082368
62	0xbce5beb6	-0.02804504
63	0x3c9b15a8	0.018931225
64	0xbc86db89	-0.016462104
65	0x3d242d30	0.040082157
66	0x3cc88112	0.024475608
67	0xbb43f797	-0.0029902214
68	0xbd86ad6f	-0.065760486
69	0x3e1a291a	0.15054742
70	0xbd0500d1	-0.03247148
71	0xbd3b744a	-0.0457652
72	0xbd6e5bc5	-0.058192987
73	0x3d3abbb9	0.045589183
74	0x3e2b3147	0.16718017
75	0xbdb38eb8	-0.08767456
76	0x3dba8ad9	0.09108514
77	0xbd1dd2f4	-0.03853126
78	0x3c8b849e	0.01703101
79	0xbd87d812	-0.06633009
80	0x3d0cb084	0.034348026
81	0x3d8810e8	0.066438496
82	0x3dc6fd05	0.097162284
83	0xbd3fea4d	-0.046854306
84	0xbc1dacb4	-0.009623695
85	0x3d8e72ff	0.069555275
86	0xbd265ce6	-0.04061594
87	0x3e086492	0.13319615
88	0x3e24f817	0.16110264
89	0x3dde5d9f	0.108577006
90	0xbde7625e	-0.11298059
91	0x3d2c5614	0.042074278
92	0xbda869a8	-0.08223277
93	0x3df48371	0.11939133
94	0xbd9055bb	-0.07047602
95	0x3df3d135	0.119051374
96	0x3bb05ac6	0.005381915
97	0xbdff95b3	-0.12479725
98	0xbd3e77eb	-0.04650108
99	0xbdd85321	-0.105627306
100	0xbde6ca1a	-0.112690166
101	0x3d44beaa	0.048033394
102	0xbd8d2a8c	-0.06892881
103	0xbd44cefe	-0.048048966
104	0xbcadcec9	-0.021216767
105	0x3d675624	0.056478634
106	0x3d934e54	0.07192674
107	0x3c96f03a	0.018425096
108	0xbb5ab572	-0.003337231
109	0xbc066852	-0.008203583
110	0xbc245596	-0.010030171
111	0xbda8f9b6	-0.082507536
112	0xbe278869	-0.1636063
113	0xbd652fca	-0.05595378
114	0xbb38de98	-0.0028208848
115	0x3db1a216	0.086734936
116	0x3dd15d0c	0.102228254
117	0xbc8156b2	-0.01578841
118	0xbdff7a42	-0.12474491
119	0xbdd784b7	-0.1052336
120	0x3df92e2e	0.12167011
121	0x3ce41c04	0.02784539
122	0x3deccb95	0.11562268
123	0xbdb9690d	-0.0905324
124	0xbe176b6a	-0.14787069
125	0x3dab19ae	0.083545074
126	0xbda418e9	-0.08012564
127	0x3d61a885	0.055092353
128	0x3dd5d471	0.104409106
129	0xbccbacc2	-0.02486265
130	0xbda666d1	-0.081250794
131	0x3c7be84e	0.01537521
132	0xbd458842	-0.04822565
133	0x3ba2e9b3	0.004971707
134	0xbdb75645	-0.089520015
135	0x3db7155f	0.08939623
136	0xbd125881	-0.035728935
137	0x3aeb154e	0.0017935426
138	0xbc98bbe0	-0.018644273
139	0x3c1954bb	0.00935858
140	0xbe04eefc	-0.1298179
141	0xbd2830e6	-0.04106226
142	0x3d61131b	0.05494986
143	0xbd8769b8	-0.06611961
144	0x3ddedd9a	0.10882111
145	0x3baee372	0.005337172
146	0x3d3ae037	0.045623984
147	0xbe00ba14	-0.12570983
148	0xbd13d43d	-0.036091078
149	0x3e1911c9	0.14948191
150	0x3bab53ef	0.0052285115
151	0x3cee4ac1	0.02908838
152	0x3df503fb	0.1196365
153	0x3d5a0fbc	0.05323766
154	0xbd9d870b	-0.07691773
155	0x3ba04dd7	0.0048920917
156	0xbccbf73a	-0.02489816
157	0x3dd9d433	0.10636177
158	0x3d4f06bb	0.050543528
159	0x3dc78f2a	0.09744103
160	0x3d050dd4	0.03248389
161	0xbd682ce4	-0.056683436
162	0x3b1c9fbe	0.0023898925
163	0xbdd21571	-0.10257996
164	0x3e0be9da	0.13663426
165	0xbc95fc08	-0.018308654
166	0x3d476c7a	0.048687436
167	0x3d9927ff	0.07478332
168	0xbcc000e6	-0.023437928
169	0x3dcb6357	0.09931057
170	0xbac18bc7	-0.0014766388
171	0x3c038f21	0.00802973
172	0x3d6f952a	0.058491863
173	0xbd8e2c7c	-0.069420785
174	0x3d96e26d	0.07367406
175	0xbd89761b	-0.0671198
176	0xbe249736	-0.16073307
177	0x3dc520e5	0.09625415
178	0xbda107a5	-0.07862786
179	0x3dc37499	0.095437236
180	0x3b4b02bd	0.0030976974
181	0xbc86b640	-0.016444325
182	0x3d8df858	0.069321334
183	0x3decd3da	0.11563845
184	0xbcff8ebe	-0.031195994
185	0x3d9e5ea5	0.07732896
186	0x3e06fc7d	0.13182254
187	0xbca3502a	-0.019935686
188	0x3d88a2f5	0.066717066
189	0xbdef49e4	-0.116840154
190	0xbd896b23	-0.06709888
191	0x3e056215	0.13025697
192	0x3d858b2a	0.06520684
193	0xbb5acc32	-0.003338587
194	0x3daad032	0.08340491
195	0xbd0c81b7	-0.034303393
196	0x3de1965c	0.11015007
197	0x3e0ad02e	0.13555977
198	0x3c8deb68	0.017324165
199	0x3dca2c4f	0.098717324
200	0xbd2ce597	-0.04221114
201	0xbccf1749	-0.025279658
202	0xbe1e71c5	-0.15473087
203	0xbdc93534	-0.09824601
204	0x3d92004d	0.071289636
205	0xbdae2801	-0.08503724
206	0xbc97757f	-0.018488644
207	0xbd86c877	-0.065812044
208	0x3de9164e	0.113812074
209	0x3cc07304	0.023492344
210	0xbccbaecd	-0.024863625
211	0xbd8aa99c	-0.06770632
212	0xbc796d0f	-0.0152237555
213	0xbd1d2869	-0.038368616
214	0xbe0702f7	-0.13184725
215	0xbde8bd7c	-0.11364266
216	0xbda51d68	-0.080622494
217	0x3dba2382	0.09088804
218	0x3d1cf8b7	0.03832313
219	0x3d68b4d1	0.056813065
220	0x3da985f9	0.082775064
221	0xbdf4fa68	-0.11961824
222	0x3cea28cc	0.028583907
223	0xbd94ff2a	-0.07275231
224	0x3d829144	0.063753635
225	0xbc76059a	-0.015015984
226	0x3da005a4	0.07813576
227	0xbc8e2cb5	-0.017355302
228	0xbdbf2746	-0.09333663
229	0x3cc15cd5	0.023603836
230	0xbc9e1c70	-0.01930067
231	0x3dea7dc8	0.11449772
232	0xbe10337a	-0.14082137
233	0xbcde03e9	-0.027101474
234	0xbda3865a	-0.0798461
235	0x3dda25b1	0.1065172
236	0x3a4ba35c	0.0007768178
237	0xbda61b08	-0.081106246
238	0x3d582157	0.05276617
239	0x3db44cf0	0.08803737
240	0xbdcc4ba0	-0.09975362
241	0x3d307637	0.04308149
242	0xbdd9d355	-0.106360115
243	0xbde83d85	-0.11339859
244	0x3dea6892	0.114457265
245	0x3dcfc915	0.10145775
246	0x3da42187	0.08014207
247	0xbda757ba	-0.081710294
248	0xbc84efa3	-0.016227549
249	0xbd2d6a38	-0.042337626
250	0xbd8e73ce	-0.06955682
251	0xbcdf93cb	-0.027292153
252	0xbccb59b9	-0.024823057
253	0xbc87901b	-0.016548207
254	0xbc98de2d	-0.01866063
255	0xbb8d6138	-0.004314568

critic.2.bias f4 [64]
0	0xbd86a533	-0.06574478
1	0x3ce08c95	0.027410785
2	0xbdebc16b	-0.11511501
3	0xbd0a8e65	-0.033827204
4	0xbda7eda0	-0.0819962
5	0xbd85bad3	-0.065297745
6	0x3d8fe1c1	0.07025481
7	0xbdc6452c	-0.09681162
8	0xbd893aec	-0.067006916
9	0x3d8b23d1	0.06793941
10	0xbdea9e96	-0.11456029
11	0xbd192835	-0.03739186
12	0x3c746275	0.014916052
13	0xbd5ef0e3	-0.054428946
14	0x3d7ab2fa	0.06120584
15	0xbe4cfb84	-0.2001782
16	0xbd580568	-0.05273953
17	0x3d614bfa	0.055004098
18	0x3d3e03e4	0.04639043
19	0x3ce7070a	0.028201599
20	0xbda5c084	-0.0809336
21	0xbd335523	-0.043782365
22	0xbe1a67e2	-0.1507869
23	0xbd861717	-0.06547373
24	0x3d1e97b9	0.038718913
25	0xbdb99268	-0.09061128
26	0x3d2b5916	0.041833006
27	0xbd9bba73	-0.07603922
28	0x3e10f899	0.14157332
29	0x3cc53cf5	0.024076918
30	0x3c6146c1	0.013749779
31	0xbdac8739	-0.08424229
32	0x3dfb57b6	0.12272589
33	0xbdbbedcb	-0.09176215
34	0x3d8d58ea	0.06901725
35	0x3cbb434a	0.022859234
36	0xbc250690	-0.010072365
37	0xbc6612e2	-0.014042588
38	0x3d9726c3	0.0738044
39	0x3df3670e	0.118848905
40	0xbe0b43f9	-0.13600148
41	0x3d240845	0.04004695
42	0xbc6d9a37	-0.0145021
43	0xbddead31	-0.108728774
44	0xbdbccd7c	-0.092188805
45	0xbdf1e409	-0.118110724
46	0x3de4b4d8	0.11167306
47	0xbe03bb1d	-0.12864347
48	0xbcc57bad	-0.024106825
49	0xbdf7ff10	-0.12109196
50	0x3b2a5389	0.0025989732
51	0xbd12d652	-0.035848923
52	0x3d14a73b	0.036292296
53	0xbd86ef50	-0.06588614
54	0xbdff5855	-0.1246802
55	0xbd39ae6f	-0.04533237
56	0xbdb268f4	-0.087114245
57	0x3b9cd1cb	0.0047857515
58	0xbcd61ecd	-0.026137734
59	0xbe28058f	-0.1640837
60	0x3d4e33e8	0.05034247
61	0x3d003e3b	0.031309348
62	0x3d752d88	0.059857875
63	0x3c352c9a	0.011057997

critic.4.weight f4 [1, 64]
0	0x3d83e1ac	0.06439528
1	0x3d08a8eb	0.033364218
2	0x3cfe82c4	0.031068213
3	0x3bf3688f	0.007428236
4	0xbde44220	-0.11145425
5	0xbd630111	-0.05542094
6	0x3dc1407e	0.09436129
7	0xbd2a1700	-0.04152584
8	0xbd5e8b41	-0.05433202
9	0x3bf9c74b	0.0076226345
10	0x3d5621e9	0.052278433
11	0x3c1a6321	0.009423048
12	0xbca65b85	-0.020307312
13	0xbcc6fbf7	-0.024290068
14	0xbdccc146	-0.099978015
15	0x3df956dc	0.1217477
16	0xbd9b6630	-0.0758785
17	0x3b5cdb94	0.0033700215
18	0x3ddac90c	0.10682878
19	0xbd3f96e4	-0.04677476
20	0xbd63d9cc	-0.05562763
21	0xbd7fa47b	-0.06241272
22	0xbcea424d	-0.028596068
23	0xbd066f00	-0.0328207
24	0xbc30127a	-0.010746593
25	0xbd842843	-0.06452992
26	0xbcc5a8eb	-0.024128398
27	0x3ba25ee6	0.0049551604
28	0xbd8490d2	-0.06472935
29	0xbd8725e3	-0.06599023
30	0x3c852044	0.016250737
31	0xbe0bfd42	-0.13670829
32	0xbd4fe0b7	-0.050751414
33	0x3c3ed995	0.011648555
34	0x3cf4d6a6	0.029887509
35	0xbda2755b	-0.0793254
36	0xbc47dffa	-0.012199396
37	0x3d51badc	0.051203594
38	0x3d25326c	0.04033129
39	0xbc8bd62b	-0.017069897
40	0xbc8fbaad	-0.017545069
41	0xbdc3d330	-0.09561765
42	0xbdd30760	-0.10304141
43	0xbe1d380c	-0.15353411
44	0x3e3e26e7	0.18569528
45	0xbd87b8a6	-0.06627016
46	0xbd28e754	-0.041236237
47	0xbd8e5e1d	-0.069515444
48	0x3d4052f0	0.046954095
49	0x3d9c9ca2	0.07647063
50	0xbbdcac1a	-0.0067343833
51	0xbd0cadd4	-0.034345463
52	0xbd459d3b	-0.04824565
53	0xbd4a4855	-0.049385387
54	0xbd9bfc6a	-0.076165035
55	0x3dcc289a	0.09968682
56	0xbd95dd17	-0.0731756
57	0x3d77a381	0.060458664
58	0x3d5332e7	0.051562216
59	0x3acd6d43	0.0015672821
60	0x3d76c491	0.060246054
61	0xbc457668	-0.012052156
62	0x3d87802a	0.06616242
63	0xbda3cb4a	-0.07997759

exp_avg f4 [6]
0	0x3927ec76	0.0001601445
1	0xbab7ae86	-0.0014013804
2	0xb9af776a	-0.00033467571
3	0xba32dc2e	-0.00068229705
4	0xba7ae52c	-0.00095708924
5	0x3b877451	0.004133739

exp_avg_sq f4 [6]
0	0x358ba1bb	1.0403377e-06
1	0x3798b8f3	1.8205936e-05
2	0x3a7b6382	0.0009589718
3	0x36418332	2.8835607e-06
4	0x367602ab	3.665841e-06
5	0x3995b440	0.0002855379

exp_avg f4 [64, 25]
0	0x378928a4	1.6350597e-05
1	0x37b73eef	2.1844606e-05
2	0xb7d86f56	-2.5801051e-05
3	0xb901cc70	-0.00012378558
4	0xb7dab64f	-2.607252e-05
5	0xb69b8982	-4.635368e-06
6	0xb73a5982	-1.1107304e-05
7	0x370fc386	8.568988e-06
8	0xb88a892f	-6.605905e-05
9	0xb893e6c9	-7.052493e-05
10	0x37694121	1.3903046e-05
11	0xb7216bcc	-9.621446e-06
12	0xb6eaa920	-6.993432e-06
13	0x3707d831	8.096963e-06
14	0xb7654ece	-1.3667812e-05
15	0xb7c43833	-2.339119e-05
16	0x3628c570	2.5148875e-06
17	0xb7c4384d	-2.3391238e-05
18	0xb628c547	-2.5148781e-06
19	0x36efd634	7.1476916e-06
20	0x384e3c42	4.9170347e-05
21	0xb8bc4d64	-8.978954e-05
22	0xb9acb226	-0.00032939127
23	0xb8584f0b	-5.1572028e-05
24	0xb8053a0a	-3.1763724e-05
25	0x35ec5d42	1.7610512e-06
26	0x35a8ec7e	1.2585804e-06
27	0xb6453ef6	-2.9391936e-06
28	0xb72f5b2b	-1.04520395e-05
29	0xb5f96215	-1.8580491e-06
30	0xb5ba52c5	-1.3882169e-06
31	0xb56f976a	-8.9254775e-07
32	0x35181818	5.6659474e-07
33	0xb63e86c4	-2.839065e-06
34	0x3455e8d1	1.9921869e-07
35	0x363678a5	2.7190338e-06
36	0xb5e74452	-1.7230725e-06
37	0x3452495a	1.9584459e-07
38	0x361b1c6f	2.311335e-06
39	0xb56c0797	-8.7927896e-07
40	0xb556b2e1	-7.9981515e-07
41	0x35114b7a	5.412654e-07
42	0xb556b208	-7.998028e-07
43	0xb5114b78	-5.412653e-07
44	0x343b6ac4	1.7454573e-07
45	0x33c9a919	9.3905506e-08
46	0xb6c578de	-5.8851283e-06
47	0xb7be4157	-2.2680191e-05
48	0xb66705ad	-3.4424986e-06
49	0xb6413231	-2.8788456e-06
50	0xb8848249	-6.318518e-05
51	0x391f7b81	0.0001520943
52	0xb9262031	-0.00015842986
53	0xba63248c	-0.00086648087
54	0xb9475884	-0.00019011094
55	0xb8d2c622	-0.000100504854
56	0xb80bf8f8	-3.3372053e-05
57	0x38fdc385	0.000121003985
58	0x37ac2a5e	2.0523727e-05
59	0xb8eee16d	-0.00011390713
60	0xb948193b	-0.00019082885
61	0x398bd2ba	0.0002666915
62	0xb88d1717	-6.727705e-05
63	0x36bbc0ed	5.595494e-06
64	0xb8f6eca3	-0.00011774271
65	0xb95ab164	-0.00020856183
66	0x389afdb8	7.390551e-05
67	0xb95ab127	-0.00020856094
68	0xb89afdaf	-7.3905445e-05
69	0xb9986329	-0.0002906558
70	0x39e02f64	0.00042759918
71	0xb9a725af	-0.000318808
72	0xbaf21481	-0.0018469245
73	0xb9c2700d	-0.00037086048
74	0xb7db3801	-2.6132913e-05
75	0x36eeb6a5	7.1142154e-06
76	0x371eddc4	9.469168e-06
77	0xb73a0502	-1.108763e-05
78	0xb8077189	-3.2292246e-05
79	0xb6a48308	-4.902835e-06
80	0xb706b6fb	-8.029626e-06
81	0xb771ad15	-1.4405018e-05
82	0xb5934fa1	-1.0975529e-06
83	0xb8082490	-3.245898e-05
84	0xb83d2d3c	-4.510324e-05
85	0x37efea93	2.8600252e-05
86	0xb732eac9	-1.0664292e-05
87	0xb5b45bc1	-1.3437749e-06
88	0x363d02ef	2.8164902e-06
89	0xb69ebcdd	-4.7307535e-06
90	0xb7010c86	-7.691915e-06
91	0x36372817	2.729246e-06
92	0xb7010c98	-7.691931e-06
93	0xb6372804	-2.7292417e-06
94	0xb63be3c1	-2.7997742e-06
95	0x3789fed4	1.6450336e-05
96	0xb816ca08	-3.5950943e-05
97	0xb8de3796	-0.000105961386
98	0xb6cdd28d	-6.1339874e-06
99	0xb821a736	-3.854112e-05
100	0x39320f51	0.00016981109
101	0x39ee1379	0.00045409406
102	0xb9b05aaa	-0.00033636886
103	0xbb4f0e8f	-0.003159437
104	0xba6cca17	-0.0009032799
105	0x39f479a2	0.0004662993
106	0xb9a23f8d	-0.00030946397
107	0x39804c3f	0.0002447087
108	0xba079c3f	-0.0005173124
109	0xbb133cac	-0.0022466583
110	0xba9bf12b	-0.0011897435
111	0x3a4b300e	0.0007750996
112	0xb9602edc	-0.00021379761
113	0x393efc03	0.00018213694
114	0xb9c41e2a	-0.00037406507
115	0xba224b9d	-0.0006191077
116	0x39151e5e	0.0001422106
117	0xba224c0e	-0.00061911426
118	0xb9151e4c	-0.00014221034
119	0xb861c261	-5.382521e-05
120	0x3ac4c709	0.001501293
121	0xba8cbc66	-0.00107373
122	0xbbec8aac	-0.0072186794
123	0xbb0368b9	-0.0020051433
124	0x3a95a1af	0.0011415983
125	0xb9c004e4	-0.00036624738
126	0x391bd0dc	0.00014859758
127	0xba99f19a	-0.0011744977
128	0xbb7c89c5	-0.0038534265
129	0xb9fabbbd	-0.00047823592
130	0xba851b79	-0.0010155282
131	0xb94e2a26	-0.00019661392
132	0x39bd8cf4	0.00036153907
133	0x388522c7	6.348412e-05
134	0xba99c3b4	-0.0011731298
135	0xba80b873	-0.0009820595
136	0x3a520d27	0.0008012824
137	0xb9e0b8f6	-0.00042862416
138	0x38d0bfa2	9.953907e-05
139	0xba125dad	-0.0005583417
140	0xba8959d6	-0.0010479044
141	0x39403db4	0.00018333533
142	0xba8959f4	-0.0010479079
143	0xb9403da7	-0.00018333514
144	0xba27a464	-0.00063950405
145	0x3a4d99c0	0.000784304
146	0xbb226dd9	-0.0024784713
147	0xbc052617	-0.008126757
148	0xba81c49b	-0.0009900512
149	0xbaead0f2	-0.0017915054
150	0x3916b8c2	0.00014373942
151	0xb83a440a	-4.4409222e-05
152	0x392fb03e	0.00016754956
153	0x3a5fb799	0.0008534133
154	0x3968f5d6	0.00022216825
155	0x38cb4b3a	9.693806e-05
156	0x38bf01b6	9.1079084e-05
157	0xb8bb6f81	-8.937624e-05
158	0x398da869	0.0002701909
159	0x3a57d1dd	0.0008232871
160	0x39f21c1e	0.00046178786
161	0xb908e95c	-0.00013056904
162	0x38b88fe3	8.800605e-05
163	0x37ba4e18	2.2209293e-05
164	0x391c3c74	0.0001489984
165	0x397fff40	0.00024413783
166	0xb8989ed4	-7.277509e-05
167	0x397fff71	0.00024413854
168	0x38989ec1	7.277495e-05
169	0x3a0334c4	0.0005005116
170	0xb9ce04ca	-0.0003929495
171	0x3a13e90e	0.0005642333
172	0x3b042f3b	0.0020169753
173	0x3a06fabd	0.0005149057
174	0x398ae4c0	0.00026491843
175	0xb99232ff	-0.00027885285
176	0x3a348a92	0.00068871037
177	0xba911f2f	-0.0011071916
178	0xbba3f922	-0.005004064
179	0xba88bf20	-0.0010432936
180	0xba0498b8	-0.0005058157
181	0xba1e5cd2	-0.0006041053
182	0x39de29f5	0.000423744
183	0xb9d1c92b	-0.00040013468
184	0xbb2dbf48	-0.0026511718
185	0xba35d77f	-0.00069367135
186	0x39da9c42	0.0004169662
187	0xba071004	-0.0005152228
188	0x39096d0f	0.00013105966
189	0xba3d1e79	-0.00072143186
190	0xbaabfd55	-0.0013121763
191	0x39a25ab1	0.00030966618
192	0xbaabfd77	-0.0013121803
193	0xb9a25aa5	-0.00030966583
194	0xba555737	-0.0008138301
195	0x3affee4d	0.0019525975
196	0xbb3234c6	-0.00271921
197	0xbc3e397a	-0.011610383
198	0xbb03a240	-0.0020085722
199	0xbad42bb8	-0.0016187346
200	0xb9566217	-0.00020445172
201	0xb9d0103c	-0.00039684947
202	0x38ca2398	9.6387404e-05
203	0x3af82d7b	0.0018934453
204	0x3a1fe486	0.00060994213
205	0xb9f17e1c	-0.0004606106
206	0x39400111	0.00018310944
207	0xb965e1ad	-0.00021923213
208	0x398ecd35	0.00027237242
209	0x3a8ba417	0.0010653761
210	0x39c24976	0.00037057296
211	0xb9a6f846	-0.00031846965
212	0x389986e8	7.320737e-05
213	0xb8e099d9	-0.00010709809
214	0x396112be	0.00021464654
215	0x39b1b27c	0.00033893052
216	0xb8937c9e	-7.032718e-05
217	0x39b1b2f8	0.00033893413
218	0x38937c89	7.032703e-05
219	0xb8b57b93	-8.65377e-05
220	0xba8a02e7	-0.001052943
221	0x39c245be	0.00037054525
222	0x3b8eafbd	0.0043544457
223	0x3aaa1735	0.0012976887
224	0xba6a0504	-0.0008927139
225	0xba122f3b	-0.0005576496
226	0x392c4676	0.00016429447
227	0xba4b2e62	-0.0007750747
228	0xbaee07f2	-0.0018160327
229	0xb9548ba5	-0.00020269917
230	0xba3bba70	-0.0007161265
231	0xb942b27e	-0.00018567775
232	0x39022871	0.00012412832
233	0xb9ba6032	-0.00035548356
234	0xba8d8a55	-0.0010798672
235	0xb8ca6e53	-9.65266e-05
236	0xba6a7882	-0.00089443487
237	0xb9a6070a	-0.00031667232
238	0xb83f6db2	-4.564011e-05
239	0xb9aca536	-0.00032929488
240	0xba228d8f	-0.00062009034
241	0x393ba119	0.00017893723
242	0xba228dc4	-0.00062009343
243	0xb93ba115	-0.00017893717
244	0xba48d72b	-0.0007661457
245	0x398a4e5f	0.00026379802
246	0xbaf7d945	-0.0018909356
247	0xbb96fb62	-0.004607604
248	0xb9a1d64d	-0.0003086798
249	0xbb1f5ecc	-0.0024317978
250	0x39907b4b	0.0002755768
251	0x3888415f	6.497162e-05
252	0x39872a82	0.00025780877
253	0x39f8b86f	0.0004743966
254	0x39202368	0.00015271979
255	0x39d1dee9	0.00040029667
